model/dfm_epoch_20.pt (torch, 79687 bytes, 15 tensors)

embedding.embedding.weight f4 [98, 32]
00000000: 32f6 153e 5c54 87be 57b0 a53d d27f f5bd
00000010: 68ce 7f3e 271f 67be 9cc0 c53b 7d0b 273e
00000020: 9177 d73d 916f 75be aad6 76be 594d 863e
00000030: 3925 823e 31fe 483e 4253 18bd 7aec 1d3d
00000040: 8bbc 0bbe 0b11 873e 67c3 c43d cad5 983e
00000050: 3234 2c3e 9f79 d7bd 68ce 5b3e a819 38be
00000060: f385 84be 550f 2b3e 6342 43bd d168 09be
00000070: a975 9d3e 5203 9fbc bde1 57bc 545d 883e
00000080: 4de1 bb3c 8850 47be 9e12 053e e26a 32be
00000090: 672e 6a3e 090d 36be 50f4 90be b9fe edbd
000000a0: 2987 2abe e1c7 e4bd dceb 9e3d e6db 683e
000000b0: c4f6 8d3e bc64 deba 98d6 02bd 54f3 7c3d
000000c0: 580f 26be c2a9 723e 1320 5d3e 5be4 a63e
000000d0: 96f4 213e eb0a 60be c6cb 32bd 90cd 3ebe
000000e0: 330c 79be 71f9 43bc c3dc 8dbe 7b7a c8bd
000000f0: 3244 e93d 2985 743d c825 563e eb16 4a3e
00000100: 075c a13e 3105 bfbd 9d04 d33b 993d 8d3d
00000110: e8b8 66bc e82e 84be c2a7 85be a5c9 143e
00000120: ced8 a9bd a9a5 81be 2ea3 8fbe c07e 823e
00000130: 5f21 0b3e 32ec 0e3e 690f b3bd 6e8d 6abe
00000140: 6240 5abe 05d0 123e 4046 c5bd 8dc9 713e
00000150: e88b 523e c8f1 93be e00a fe3d 6910 8fbe
00000160: 2e1f 6dbd 5e7c 733e 3446 bdbd ece5 96be
00000170: d104 183e 67b2 8d3e 4531 4c3e fd3d 573e
00000180: ab1b 4abd e7ac d7bc b119 fe3d 075e d0bd
00000190: 34eb da3c 4d86 98be a74c 52be 1e92 25bd
000001a0: 9bc7 57be 8974 7e3d 0981 723d 55a3 063e
000001b0: 2c47 6e3d 61e9 4f3e e6c1 3cbe 38d0 cf3c
000001c0: 74d1 16bd 584e 993e dc90 1d3d 07f8 80bc
000001d0: 63b4 03bd f5c0 96be 41c4 143e fef3 883d
000001e0: 4ff4 60be 8df8 b93c e2cd 63bb 3ea6 48be
000001f0: 76c4 7e3e fffe 9b3e 8e0b 733d 77d9 9dbd
00000200: 5194 073e 00a0 943d 7ed3 a63d deab 7d3d
00000210: 6422 8c3e 547f 9dbe f74c aebd d045 ba3c
00000220: 4a5d ee3d 1450 49be 236f c03a 5f2c 9c3d
00000230: 03e4 9e3e bd3c 023e bcd7 92be 332d 993c
00000240: 0c83 24be 0b9e 6e3e 182a cbbd 172f be3b
00000250: 5220 8f3e cd3b a5be 089b 673e aa43 17be
00000260: 0695 36bd 6d39 eb3d 94e1 843c 06c9 a7be
00000270: 2551 103c 31df 39bd 39a9 813d 06a6 a83e
00000280: 1827 1e3e 8c30 e2bd 830a 893c 91ed 7a3d
00000290: f7c9 62bd f62c 07be c835 c2bd 8f2c 063c
000002a0: f863 933c 252f e8bd 19d2 15bd 7c61 ad3d
000002b0: 7de5 923e 6741 74bd 94c5 a4bd 2a67 a43d
000002c0: f61d efbc 39a3 513e b680 4a3e 5af4 34bd
000002d0: 041e 683d e566 d13b 4406 e73d ab90 e03c
000002e0: 86ad 78be 7db3 653e 7b85 10bc 4830 30be
000002f0: 10a1 99bd 5dfe 80bd a593 c6bd 4f5b 3f3e
00000300: 51da 233e 7bd4 87be b3b4 c9bd dc42 bb3d
00000310: d56e 4c3e 986b 8ebe de14 223d b65b 9b3d
00000320: c919 22be e217 febd 374d b4bc f788 6c3e
00000330: c014 9bbd b95f c63c 8f47 6fbe b97d 18bd
00000340: 21be d93a d653 493b 62a5 3c3e cb3e 093e
00000350: 08cd 813e 4c53 8d3d fdc5 e2bb e683 85be
00000360: 2d9d 83be 3559 463e 5eb6 cdbd 172c 1abe
00000370: bdc5 b73d ec8f 963c 9c4b 913e 1631 fbbc
00000380: 2919 303e 1514 86bc 1665 f0bd 61b3 4abe
00000390: a989 29bc fbf7 ee3d 9847 80bd a790 15be
000003a0: 2f9d 0e3d f188 ab3d 8dac 71be e5a0 ae3b
000003b0: fc4a 07bd a9a3 ac3e 16b1 a3be 89c5 3fbe
000003c0: 8203 93be ceea e0bb f2e8 b73e 90ee 003d
000003d0: 8ad2 543e 78c0 44be 1633 813e 7097 e63d
000003e0: f858 67be 8589 8e3e 2afb 58be 8476 acbc
000003f0: 521f 9b3e 66c7 a23e bd68 da3d 5204 4e3e
0.14644697 -0.2643155 0.08090275 -0.119872704 0.24981081 -0.22570477 0.0060349237 0.16312976
0.10520852 -0.2396834 -0.24105325 0.26230887 0.25419024 0.19628216 -0.037188776 0.0385556
-0.13646142 0.2638019 0.096075825 0.29850608 0.16816786 -0.10521244 0.21465456 -0.17978537
-0.25883445 0.16705067 -0.047670733 -0.1341889 0.3075383 -0.019410763 -0.013176379 0.26633704
0.02293458 -0.19464314 0.12995383 -0.17423585 0.22869264 -0.1777841 -0.28311396 -0.1162085
-0.16653122 -0.111709364 0.0775983 0.22740135 0.2772733 -0.0016967277 -0.031942934 0.061755493
-0.1621679 0.2369757 0.21594267 0.32596096 0.15815958 -0.21879165 -0.043651365 -0.18633103
-0.2432106 -0.011961327 -0.2770749 -0.09788986 0.1138996 0.059697304 0.2091285 0.19735305
0.31515524 -0.09327162 0.006439759 0.068965144 -0.014082171 -0.25817037 -0.26104552 0.14530046
-0.08293305 -0.253217 -0.28054184 0.25487328 0.13586949 0.13957289 -0.08743174 -0.22905514
-0.21313623 0.14337166 -0.0963254 0.23612042 0.20561182 -0.28895402 0.12404418 -0.27942207
-0.057891063 0.23777911 -0.09241906 -0.2947229 0.14845587 0.27675173 0.1994067 0.2101974
-0.049342792 -0.026327563 0.12407244 -0.10174184 0.026723482 -0.29789963 -0.20537053 -0.04042255
-0.21072237 0.062122855 0.05920509 0.13148244 0.058173344 0.2030387 -0.18433341 0.025367841
-0.036820844 0.29942584 0.038468227 -0.015743269 -0.032154452 -0.2944409 0.1452799 0.06687163
-0.21968196 0.022701526 -0.0034760167 -0.19594666 0.24879631 0.30467984 0.05933719 -0.07707494
0.13240172 0.0725708 0.08145808 0.061931483 0.27369988 -0.30761206 -0.08510774 0.022738367
0.11638887 -0.19659454 0.0014681559 0.076256506 0.31033334 0.12718482 -0.28680217 0.01869831
-0.16065615 0.23302476 -0.09920138 0.0058039534 0.27954346 -0.32272187 0.22617733 -0.14771906
-0.044575714 0.114855625 0.016220845 -0.32770556 0.008808409 -0.045378868 0.06331105 0.32939166
0.154446 -0.11044416 0.016728645 0.061261717 -0.05536839 -0.13200745 -0.09482914 0.0081893345
0.017992005 -0.11337117 -0.036577318 0.08465859 0.2869071 -0.059632685 -0.080454975 0.080274895
-0.029189091 0.20472421 0.19775662 -0.044178344 0.05666925 0.00639044 0.11280492 0.027412733
-0.24284944 0.2243175 -0.008820887 -0.17205918 -0.07501423 -0.06298516 -0.0969613 0.18687175
0.1600125 -0.26529297 -0.09848919 0.09143612 0.19964154 -0.27816463 0.03957068 0.07585852
-0.15830149 -0.12406899 -0.022009475 0.23099123 -0.07572317 0.024215566 -0.23367141 -0.037229273
0.0016612449 0.0030720136 0.18422464 0.1340286 0.2535174 0.06900653 -0.0069205747 -0.26077193
-0.25705853 0.19369967 -0.100445494 -0.15055881 0.089732625 0.018379174 0.28377998 -0.030663054
0.17197098 -0.016366998 -0.117380306 -0.1979499 -0.010347762 0.11668392 -0.062636554 -0.14605962
0.03481787 0.08375729 -0.23600979 0.0053292387 -0.033030495 0.33718613 -0.31971043 -0.18727697
-0.28713614 -0.0068639284 0.3591991 0.03147751 0.2078344 -0.19214046 0.25234288 0.11259353
-0.22592533 0.27839294 -0.21189561 -0.021052606 0.30297333 0.31792754 0.106645085 0.20118836

linear.fc.weight f4 [98, 1]
00000000: d569 8dbf 8d55 89bf c038 b2be aca1 cdbe
00000010: 841d 3a3f b321 0840 fac1 8bbf f4f0 ce3f
00000020: 865f cdbf 2d8f 323e a196 bf3f d5ae d63f
00000030: 2d60 77bf 3a25 03bf 10a1 18c0 b5ec 143e
00000040: aa05 793f e602 5fbf bd2e 32bf 79a4 e93e
00000050: 801d db3e 2784 08bf 343c af3e 94c4 0ebe
00000060: cca7 203f 1755 313f 7642 653d 646b d53e
00000070: 8cb7 21c0 875c a2bf e9fa dfbe afc6 a33e
00000080: 7ce0 bcbe 01df 54bf d652 a1be b9cc 3fbf
00000090: 8abb d8be e921 953f 60fa b83c 3ccc 8f3e
000000a0: 1e8c 0dbf ed0f aa3e e4e5 45bf c215 563e
000000b0: 7645 65bf 9ade d7be 11c9 b7bd 5f07 2140
000000c0: a7fb 04bf ca26 173f ed11 18c0 192f 993c
000000d0: 2ebc 243f 651f 453f 5b8b 91be 2403 58bf
000000e0: 5f4d a43f 47d3 143e 15af 5abf f475 173e
000000f0: 514e 12bf 7365 c6be 1c64 8d3d a65e 8d3f
00000100: 14b0 6fbf 9b53 b5bc 1cc0 1cbf 1b98 88bf
00000110: 7bc6 703f 8ea5 e8bf 527c acbf df92 623f
00000120: 789c 843f 1959 5abf f7f4 6cbc 6a2d 633f
00000130: d2e5 66bf 1dbe 1e3e eb21 0f3f af68 6a3d
00000140: 54c4 9a3e 9ae6 823e 1139 14bf bb9c eb3d
00000150: 7aa5 3f3f dbca 3e3f f093 0340 30b8 bbbe
00000160: 6319 27bf 3ef5 f8be f452 183f 3e75 7fbd
00000170: b12f 3a3f b25e b8bb 3eb1 e73e e2d7 42be
00000180: d87b 05bf d8ed 563f
-1.1047922 -1.0729233 -0.34808922 -0.40162408 0.7270129 2.1270568 -1.0918572 1.6167283
-1.6044776 0.1743743 1.4967843 1.6772105 -0.9663113 -0.5122868 -2.3848305 0.14543422
0.9727427 -0.871138 -0.69602567 0.45633295 0.42795944 -0.5332665 0.3422562 -0.13942176
0.6275604 0.6927046 0.055971585 0.41683495 -2.5268278 -1.2684487 -0.43746117 0.3198752
-0.36890018 -0.83152777 -0.3150851 -0.74921757 -0.4233058 1.1650974 0.022580326 0.28085506
-0.55291927 0.33215275 -0.7730391 0.20906737 -0.89559114 -0.4216202 -0.08973897 2.516075
-0.5194649 0.5904356 -2.376094 0.018699216 0.6434964 0.7700103 -0.28426632 -0.8437979
1.2836112 0.14533721 -0.85423404 0.1479109 -0.5715075 -0.38749275 0.0690386 1.104451
-0.9362805 -0.022134593 -0.61230636 -1.0671419 0.9405286 -1.8175523 -1.347544 0.8850536
1.036025 -0.852922 -0.014462701 0.8874117 -0.9019443 0.1550221 0.5591113 0.05722874
0.3022791 0.2556656 -0.57899576 0.11504503 0.7486187 0.7452828 2.0559044 -0.3666396
-0.6527311 -0.48624605 0.59501576 -0.06236767 0.7272902 -0.005626523 0.45252413 -0.19027665
-0.52142096 0.8395667

mlp.mlp.0.weight f4 [64, 160]
00000000: fff6 b7ba a6ef 383d ca36 773a 1d22 35bc
00000010: daef bfbb 666e a23c 7476 b3bb 23a7 2a3d
00000020: 8a75 4fbd 12c2 bb3c d20b 18bd ed7d 27bd
00000030: 6bc3 c23c 55c3 57bd f17f 6d3a b706 8bbc
00000040: 4181 6ebc 9bb4 87ba 029b 933d 29b3 153c
00000050: d77b f238 b665 97bd 7755 c0bd 54b4 cbba
00000060: 8c55 7bbc ec88 bbbd b7f0 8cbd 43d2 d63b
00000070: 5e69 96bd 3ac1 5d3d 3090 bcbb 3803 d9bc
00000080: 3972 113d ea63 7bbc a4bc 153c ff77 563d
00000090: 00ba 3d3d 6a10 2d3d c7d3 0c3d 2d9c 71bd
000000a0: 5d6e 7e3c f36e 68bd c009 783c f3be a2bd
000000b0: 71ea 343d 5096 92bd e26a 4d3d 42f0 733d
000000c0: c007 6e3d a862 dcbc bb74 46bd 76f7 73bd
000000d0: ff11 dd3b 1404 3b3d 5914 2bbd 5562 4dbd
000000e0: 6466 3f3d 4854 8dbb 6a20 d33a fb18 c53c
000000f0: 0456 5cbc beef 333d 8252 b23c 28ff 7cbd
00000100: 4c4d eebc 76b5 853d 35e0 8dbd f1a5 943d
00000110: 2862 e3bc b6ac 25bd 4a49 82bd 0a5c 6f3d
00000120: ce56 3dbd 0d47 663d fec0 3dbd 1bc4 f6ba
00000130: 988e 27bd 2dc5 8e3d 1008 333d 0278 e13c
00000140: 73b7 223d c3d4 86bc a6d6 723d 91d9 393c
00000150: 6de1 6c3c 5d4c b23c 374a 25bc 2f29 543d
00000160: 21bf a3bd 390e 343d cfaf a43d dad7 413d
00000170: de1f 293c cb40 b4bb 383c a8bb a6d5 8abc
00000180: 698c 4abc 92ff 05bb d4a0 ce3c 2384 253d
00000190: f734 18bd 9061 033d b908 e83b 5409 773d
000001a0: b58a 16bd 1385 8e3d 9304 213d a40d 0abd
000001b0: 279b 0c3d 05d5 2d3d 35d4 df3c d121 523d
000001c0: 01d9 513c c964 403d c858 7c3d 9273 38bd
000001d0: f92b 92bd f938 89bc 9e18 313d 529b e43b
000001e0: 4df1 49bd ac58 aebd 8bee 6bbc d741 453d
000001f0: 1d1a 043c 1b87 84bd cd4b 8ebc 803d d0bc
00000200: 43cf bd3c 125f 153d b2ef 9abd bdb5 b4bb
00000210: 5236 893d 4046 59bc 9658 33bc 246e be3d
00000220: 08e2 c2bd 6c57 de3c bafd e33c 11b7 9b3d
00000230: 5097 84bc 6abf a63d ef9e 8e3d 3ab6 8abc
00000240: 4b20 1dbd e6eb e6bc dd48 61bc 3f74 26bd
00000250: c5a9 24bd ba64 5cbc ea56 8bbd 4362 dcbc
00000260: f96c c13c a43e cfbd 079f 27bd c18f 91bd
00000270: 8830 373c 6468 42ba e0cd 3e3a 297a 873d
00000280: 6163 c7bc b21c 1ebd da9d 1fbc d567 843b
00000290: 5d9f 6dbc 27f3 ea3c 0821 45bd e351 683d
000002a0: 32b8 3ebd de25 73bd 0a92 a1bc 8452 453b
000002b0: 0411 acbc 60c0 34bd 6b46 9b39 f7b4 08bc
000002c0: 9bb5 cc3c 3128 1fbb 2db4 b13c cabd 21ba
000002d0: e73a 8b39 cd10 683d cb99 68bd bf0a a23a
000002e0: 3b2d 873b 563d 6f3c 6882 5c3d 0c75 2dbc
000002f0: 1a3b b5bc ad17 69bd 83e4 81bd b9db 2a3d
00000300: 3608 523d 3253 173c cef3 af3a a90f 033c
00000310: 2917 ecbc 624a 93bc c018 6b3d 6ba6 72bd
00000320: 40ae 393d f404 2a3b 4c21 2c3d 91f4 aabc
00000330: 0923 b53c bcec bc3c 860e 85bd 6f69 95bd
00000340: f9bd a63c 0629 0f3c 6c92 99bc 13b3 633c
00000350: b574 503d 30cd 893d 0c5b 02bd afcd 123c
00000360: c970 f5bc c7c4 6a3d 4cce 9f3c 0b47 4cbb
00000370: be1e 26bc 5d89 643d a84f 8c3b 2eb1 8b3d
00000380: e486 2f3d a0d9 a03c 7b43 68bc 6b0f 9e3d
00000390: be19 413d 4d52 953d 1319 d0bc e27e 5ebd
000003a0: 0f33 9abd 2b14 8b3c 3f0c af3d 52b3 653c
000003b0: 77c1 763c 3ddd febb 4d2c 5d3b 6eed 24bd
000003c0: c71c 1e3d 71aa 04bd 0d47 053d f740 793d
000003d0: 5c38 bf3b cef0 61bd 6cfe f3bb fffe e33b
000003e0: 9b2f adbc bfb4 07bd 5efc 9d3d 2410 46bc
000003f0: 2740 ccbb 3e56 743d f83f 27bd d107 643c
-0.0014035403 0.04515042 0.00094304665 -0.0110554965 -0.00585745 0.019828033 -0.005476767 0.0416633
-0.050649203 0.022919688 -0.037120648 -0.040891577 0.023774823 -0.052676518 0.0009059897 -0.016970975
-0.014557184 -0.0010353507 0.072073 0.009136953 0.00011562526 -0.07392447 -0.09391301 -0.0015541413
-0.01534022 -0.09156975 -0.0688185 0.006555827 -0.07344316 0.054139353 -0.005754493 -0.026490793
0.03550932 -0.015343646 0.009139214 0.05236053 0.04631996 0.04225198 0.034381654 -0.05898683
0.015529242 -0.056746434 0.015139043 -0.07946577 0.044168893 -0.07157576 0.05015076 0.0595553
0.05811286 -0.026902512 -0.048451167 -0.05956217 0.00674653 0.045658186 -0.041767452 -0.050142605
0.046728507 -0.0043130256 0.0016107683 0.024059763 -0.013448242 0.043929808 0.021767858 -0.061766773
-0.029089592 0.065287516 -0.0692753 0.07258213 -0.027756765 -0.040447913 -0.06361635 0.058437385
-0.04622536 0.056220103 -0.04632663 -0.0018826755 -0.040907472 0.06971202 0.04370886 0.027523044
0.039725732 -0.016458875 0.059286736 0.011343376 0.014458043 0.021764928 -0.010088495 0.05179709
-0.07995439 0.043958876 0.08041345 0.047324993 0.010322539 -0.005500888 -0.0051341318 -0.016947579
-0.012362578 -0.0020446521 0.025223173 0.04040922 -0.037159886 0.032075465 0.007081118 0.06031163
-0.036753375 0.06958976 0.039311003 -0.033704415 0.034327652 0.04243948 0.027322868 0.05130178
0.012808085 0.046971116 0.061608106 -0.04503209 -0.07137293 -0.0167508 0.043236367 0.0069765234
-0.049302388 -0.085130066 -0.014400135 0.048158493 0.0080628665 -0.06471082 -0.017370129 -0.02541995
0.02317012 0.03646762 -0.075652495 -0.005514829 0.06699814 -0.013261378 -0.0109464135 0.092983514
-0.09515768 0.027141295 0.027830947 0.076032765 -0.016185433 0.08141978 0.06963908 -0.016932596
-0.038360875 -0.028188657 -0.013750282 -0.040638205 -0.040200967 -0.013451749 -0.06803687 -0.026902324
0.023611533 -0.101193696 -0.040923145 -0.07107497 0.011181004 -0.0007416068 0.00072786026 0.06615097
-0.02433938 -0.038601585 -0.009742225 0.004040698 -0.014503327 0.028680397 -0.048127204 0.05671872
-0.04656238 -0.059362285 -0.019722957 0.0030108998 -0.021004207 -0.044128776 0.0002961637 -0.008343927
0.02498894 -0.002428543 0.02169236 -0.00061699434 0.00026556032 0.056656647 -0.056787293 0.0012362822
0.004125265 0.014602026 0.053835303 -0.010586988 -0.022122908 -0.056907345 -0.06342413 0.04171345
0.05127736 0.009236144 0.00134241 0.007999339 -0.028819637 -0.017979804 0.05739665 -0.05924074
0.045332193 0.0025942894 0.042023942 -0.020868571 0.022111433 0.023062102 -0.06496911 -0.072955005
0.020354258 0.008737808 -0.018746577 0.013897675 0.05089255 0.067285895 -0.03182511 0.008960172
-0.029961007 0.057316568 0.01950755 -0.0031170275 -0.010139165 0.055795062 0.0042819567 0.06820904
0.04285325 0.019635022 -0.014176245 0.077177845 0.04714369 0.07291088 -0.025402581 -0.054320224
-0.0752927 0.01697739 0.08547258 0.014019804 0.015060774 -0.0077778385 0.003374833 -0.040265493
0.038601663 -0.032389108 0.032538462 0.06085297 0.005835576 -0.05516129 -0.007446101 0.006957888
-0.021140864 -0.033131357 0.07714151 -0.012088809 -0.0062332335 0.05965256 -0.04083249 0.013917879

mlp.mlp.0.bias f4 [64]
00000000: 2c8a 6f32 7a0e 0b32 c2b9 95b2 da86 e0b0
00000010: fc2a c832 63a9 b7b1 8cae 4fb4 b5d3 86b3
00000020: 1af4 3533 4e69 5fb0 0423 90b4 cf50 60b3
00000030: 98fa 74b3 64e0 11b2 2a71 1ab0 a635 18b4
00000040: 7738 d3b3 46d7 cf32 0a1d acb4 f466 4e33
00000050: 92bd a9b2 b330 0fb4 29fe 19b2 3c49 0b34
00000060: 2d38 cab4 4437 5731 cda7 4c32 71d4 b1b2
00000070: dd84 a630 3511 f7b1 56ca e2b4 5858 b0b3
00000080: f66d 43b3 c552 1e34 e7eb a430 764a 7ab0
00000090: e2d9 76b3 3145 0fb3 cd72 9432 9e90 41b2
000000a0: eeee 8eb2 8205 e0b3 1870 d832 ca71 efb1
000000b0: 0f3c 15b2 f4ab 4832 b452 9932 9e43 3932
000000c0: fe72 bd32 2d4c 63b3 43d0 c0b2 5b06 2a31
000000d0: 2a29 7bb3 c70f d7b3 a5e2 fa32 d786 d4b0
000000e0: a04f 0932 dd83 a733 d12e 8c33 a16a 1933
000000f0: 22f9 2e32 043a 83b4 69c0 ac33 92ea 0932
1.3943048e-08 8.0941565e-09 -1.7430356e-08 -1.6336472e-09 2.3302611e-08 -5.345258e-09 -1.9341877e-07 -6.2783705e-08
4.2364356e-08 -8.1276574e-10 -2.6847567e-07 -5.222756e-08 -5.703859e-08 -8.491131e-09 -5.618569e-10 -1.417562e-07
-9.835724e-08 2.4195867e-08 -3.2058625e-07 4.8056748e-08 -1.9760396e-08 -1.333563e-07 -8.9635614e-09 1.2972026e-07
-3.7666305e-07 3.1318033e-09 1.1912516e-08 -2.070212e-08 1.2115852e-09 -7.1906023e-09 -4.2243e-07 -8.211708e-08
-4.5501984e-08 1.4745008e-07 1.1999618e-09 -9.1055286e-10 -5.74745e-08 -3.335771e-08 1.7281673e-08 -1.1266961e-08
-1.6639628e-08 -1.0431815e-07 2.5196684e-08 -6.968752e-09 -8.686597e-09 1.168063e-08 1.7849153e-08 1.0783792e-08
2.2054788e-08 -5.2921838e-08 -2.2446448e-08 2.4741869e-09 -5.847793e-08 -1.00145876e-07 2.9206896e-08 -1.5463354e-09
7.992554e-09 7.800529e-08 6.527774e-08 3.5720067e-08 1.0184779e-08 -2.4442863e-07 8.044373e-08 8.027785e-09

mlp.mlp.1.weight f4 [64]
00000000: cdc3 573f f7f3 5e3f 6df6 4e3f 1920 4c3f
00000010: 9403 5a3f 3f26 413f 57e8 523f 19c1 583f
00000020: 68c9 4d3f 674e 513f eaf2 723f 1940 573f
00000030: bb6d 543f 3096 6b3f 8903 653f a693 6b3f
00000040: 97e2 563f 8169 743f 1d00 5a3f d1a3 5e3f
00000050: 0542 523f 3605 7b3f 8c23 573f aec8 613f
00000060: 5a5b 613f 0b45 503f cd82 663f e053 593f
00000070: 9f7e 483f 06b0 713f 278e 5d3f 550f 6e3f
00000080: 6b4c 643f ca2f 543f 169b 5e3f df25 673f
00000090: 4c9c 5c3f 282f 4d3f f6ba 463f 4e37 663f
000000a0: bb96 823f 5256 533f 79d2 5e3f 258a 593f
000000b0: 849a 643f 3ab7 473f c3e6 613f 7377 4d3f
000000c0: 79d0 633f 233d 433f 65be 5d3f bf75 5c3f
000000d0: 9daa 4a3f 2171 603f aae2 4a3f 3c6e 533f
000000e0: 9b0b 4f3f 907e 533f 6927 513f 6949 653f
000000f0: c8f7 663f da1b 513f 4fd1 5f3f 40c1 6a3f
0.84283143 0.8709101 0.80844766 0.7973648 0.8516171 0.75448984 0.8238577 0.84669644
0.80385447 0.8176026 0.9490191 0.8408218 0.82979935 0.9202604 0.8945852 0.9202217
0.839395 0.95473486 0.8515642 0.86968714 0.8213199 0.98054826 0.84038615 0.8819684
0.88030016 0.8135535 0.90043336 0.8489361 0.7831821 0.94409215 0.8654503 0.92992145
0.89179105 0.8288542 0.8695539 0.9029216 0.8617599 0.8015008 0.7762903 0.8992814
1.0202249 0.8255359 0.87039906 0.84976417 0.8929827 0.78013957 0.8824274 0.8026039
0.8898998 0.7626516 0.86618644 0.86117166 0.79166585 0.8767262 0.7925211 0.8259008
0.80877084 0.82614994 0.8170076 0.8956514 0.90221834 0.81683123 0.87428755 0.91701126

mlp.mlp.1.bias f4 [64]
00000000: d9d9 163d 06de f73c 9bbe a0bc 8e5e 383d
00000010: 07dc ff3c 90ad 3dbb 1cf3 35bd ec3f cfbb
00000020: 7297 ba3a 5a29 3b3c e139 303c 4f5a a0bc
00000030: 00c7 933b b7eb 6a3d b962 0c3d 4657 993d
00000040: 728a 4d3d a169 4a3d a6ec 2b3d adb0 8abc
00000050: 03e8 10bd 3971 993d c746 01bc 25e0 c63b
00000060: ebf7 0bbd fb70 debc 0001 a83d 942f 293d
00000070: e2a6 97bc 392a 6b3c 6070 7d3c 9c0a 973d
00000080: d3d1 623b cb5f 80bc 1211 31bd 27fc d439
00000090: c7e0 0abd 2170 18bd 647d 9ebc 0b61 acbc
000000a0: 5c29 183d 5093 333d 29d6 ad3c 8dff bc3c
000000b0: fbc0 483d ae3d 63bc 6e40 0bbd ab0b a6bb
000000c0: 9092 543c c5f5 cabb f161 1f3c 9fad 403c
000000d0: f7d3 debc 79b0 273c 3b60 7bbc 6392 d73c
000000e0: 8ecf b8ba ab73 47bd c160 a23b 76aa ecba
000000f0: 36c2 2e3d d699 17bc f174 ddbc 0c7a fcbc
0.03682885 0.030257236 -0.019622138 0.04501205 0.031232847 -0.0028942563 -0.0444213 -0.0063247588
0.0014235808 0.011423433 0.010755987 -0.019574312 0.0045098066 0.0573537 0.034273837 0.07487349
0.05018086 0.04941714 0.041973732 -0.016929949 -0.035377514 0.07492299 -0.00789041 0.0060692006
-0.03417198 -0.027153483 0.08203316 0.04130514 -0.018512193 0.014353328 0.015468687 0.073750705
0.0034609928 -0.015670678 -0.04322917 0.0004062366 -0.03390577 -0.03721631 -0.0193469 -0.021042367
0.03714882 0.04384166 0.021220284 0.023071075 0.049012166 -0.013869686 -0.03399699 -0.005067309
0.012974396 -0.006193849 0.009727941 0.0117601445 -0.027200682 0.010234945 -0.015342767 0.02631492
-0.0014099942 -0.048694294 0.0049553816 -0.0018056172 0.042665683 -0.009252986 -0.027033301 -0.030819915

mlp.mlp.1.running_mean f4 [64]
00000000: 36c2 ecbd 9f63 3b3c 3806 823c fef3 fbbb
00000010: bb0b 843b 6d0e 53bd 53f3 01be 3078 e6bc
00000020: ad8b d4bd 2820 013d f414 083e 5081 333c
00000030: 5069 8c3c 05df 493c 2954 49bc 3d29 703d
00000040: ec9d b93d 9a8e 21bd 6d76 013e 8343 ea3c
00000050: a986 a6bd 200a f63d 2318 fdbb ecd3 c5bd
00000060: 9ef2 1fbe a33d 3bbd 943a f73c 57ae 253d
00000070: cb1f 9a3c afed 25bd e20e 21be 1a53 733d
00000080: 545b 0abd 2fe9 5abd 1f7b d8ba 0971 42bc
00000090: d17a 8f3d e527 6ebd ca30 823c 2c04 283c
000000a0: 6727 1f3c 4a57 a3bd e543 8bbc 6afc 9fbc
000000b0: 52af 1f3d d839 08bb 3e7f af3b ceac cd3c
000000c0: 305e c1bd f800 c13d e4a5 81bd ba0c 83bd
000000d0: 1a77 aabd 3258 ca3d 2830 56bd e065 eabc
000000e0: 72e4 7ebc de3a 9fbd c1b7 563d 78ee 02be
000000f0: 3790 923d 360d edbd eef7 bc3d a422 073c
-0.1156048 0.011437326 0.015872106 -0.0076889982 0.0040297187 -0.05152743 -0.12690477 -0.028133482
-0.103782035 0.031524807 0.13289243 0.0109561235 0.01714006 0.012321238 -0.012288132 0.058633078
0.09063324 -0.039442636 0.12642832 0.028596645 -0.08131153 0.1201365 -0.0077238246 -0.096595615
-0.15619895 -0.04571308 0.0301793 0.040449467 0.018813988 -0.040509876 -0.15728334 0.059405424
-0.033778504 -0.053445037 -0.0016516185 -0.01186777 0.07005847 -0.058143515 0.015892405 0.010254901
0.009713984 -0.079756334 -0.017000148 -0.01952954 0.038985558 -0.002078643 0.0053557446 0.025106814
-0.09441793 0.09424013 -0.06330469 -0.06398912 -0.08323498 0.09880103 -0.05229202 -0.02861303
-0.015557395 -0.077749 0.052421335 -0.12786281 0.07156413 -0.115747854 0.09226976 0.008248005

mlp.mlp.1.running_var f4 [64]
00000000: 88cd c83b e428 283b 0c34 e93b 104d ba3b
00000010: c00f 713b 76b0 cf3b c061 a93b cb9d bc3b
00000020: 1da5 f13b 44f9 cd3b cd50 f13b 7ed0 823b
00000030: 1342 683b d37a d93b d874 103c 7684 bc3b
00000040: a8fa c83b 9ec2 ac3b afc1 903b 2f5c f83b
00000050: 61a0 5e3b 86c9 af3b ed41 eb3b 6da8 ce3b
00000060: a4c7 653b 0bbf 213c 01c7 b23b 6712 903b
00000070: b2b4 c53b a258 c53b 41e8 4a3b b7e6 c83b
00000080: 66e5 8b3b 5a9c 833b 80be 953b a6e5 1c3c
00000090: a1f3 a03b 34b2 873b 0840 513b b3d3 ec3b
000000a0: cbbe 633b 2d0e 513b d083 c93b a7e9 053c
000000b0: aac1 a83b 429b 963b c9fd 663b 26c8 723b
000000c0: 14e9 813b 1121 0d3c d80e d33b efb5 de3b
000000d0: 5b0a 4e3b 3a3e 2e3b 9089 983b f429 483c
000000e0: e3d0 a53b 8f7a 9c3b cb27 833b 7f62 2a3b
000000f0: 78b9 0a3c 3d67 5b3b fb78 9c3b b91c 1b3c
0.006128017 0.0025659138 0.0071168 0.005685456 0.003678307 0.0063381745 0.0051691234 0.005756115
0.0073744194 0.0062858183 0.0073643685 0.0039921394 0.0035439774 0.0066369562 0.00881692 0.0057530953
0.006133396 0.0052722236 0.00441762 0.0075793485 0.0033970105 0.0053645996 0.00717949 0.006306699
0.0035061622 0.009872208 0.005455852 0.004396725 0.0060335035 0.0060225287 0.0030961188 0.006131019
0.00426929 0.0040164413 0.0045698285 0.009576237 0.0049118553 0.0041411165 0.0031929035 0.007227385
0.0034751173 0.0031899319 0.0061497465 0.008173383 0.0051500397 0.004596145 0.0035246483 0.0037045567
0.0039645527 0.008613841 0.0064409785 0.0067965905 0.0031439278 0.0026587383 0.0046550706 0.012217034
0.0050603016 0.0047753523 0.0040025464 0.002599865 0.008467071 0.0033478283 0.004775164 0.009467297

mlp.mlp.4.weight f4 [64, 64]
00000000: a8b6 623d 2ece 093d 06a2 2cbd d7bd 02be
00000010: 322b e1bc c4cb b53c 6de5 1b3d 8d9b 983c
00000020: 1c3b 37bc a08c b9bc 8002 963d 387e c33d
00000030: 729a a83d 0f25 49bd 69b3 6dbd 5be2 a63c
00000040: c893 87bd 66d6 8b3d 7997 fbbd 3e34 84bd
00000050: 8f4d 8e3c 87a3 49bd e3a5 413d 33f7 343d
00000060: 48af 563d 907c 0dbc f5af 7bbd d765 5fbd
00000070: d862 a7bc 2221 06be 798a 4bbd 63a5 9cbd
00000080: 6f77 0e3d 4339 e93d f038 693d 2160 213d
00000090: 0d49 aa3d 1696 2fbd b797 e2bc b52d c9bd
000000a0: 7bc5 a9bd 42d1 b2bd 4d35 bcbd 4903 57bd
000000b0: f195 513d c8c5 703d 0a99 11bd 599f abbd
000000c0: 274c 863d 5eaa 223d 3848 353d 6caa dabd
000000d0: 84e2 afb9 9ca4 5fbd c83b 1fbd 15da cb3c
000000e0: 88f1 133d d703 823d f622 a6bd 4be9 103c
000000f0: d81e 073e f633 253c 7c67 563d 787a b73c
00000100: e5c3 b4bd cfe0 34bd 5282 32bd f16b 933c
00000110: aa91 86bd 0e23 453d 2910 96bc a115 a03d
00000120: a5be 0dbe 1579 c33c c3be 70bd 2f54 af3c
00000130: d6be 0abd be51 00be 1d17 ccbd a847 b13d
00000140: d875 fcbc 9f02 e5bd 81e8 973c 02f8 71bd
00000150: 9314 593d 68ba 533d 58fe f5bd b17d 943d
00000160: a182 e6bc 6d71 7b3c 5090 afbb 8652 693c
00000170: 0724 003d 19a1 933d 2044 6cbd c2e2 463d
00000180: 330c 8bbd a367 5b3c 3d29 01bd dabb b9bd
00000190: 8e04 383d 0614 84bd 32bc 8dbd 3a92 063d
000001a0: b417 3bbc 7f1d 00bd 60d5 283d a697 f13c
000001b0: 8a8b e9bb 92ec 8abd 6c91 1fbd a8d4 7bbd
000001c0: a011 9c3d 088c 9ebc c662 eabc d6d7 b43d
000001d0: 315a 9abc 827c abbd d1a2 003d d44b 9cbd
000001e0: 9d36 44bc 484d 6fba 4c34 ce3d 8e8c 53bd
000001f0: c587 acbd deef f63c 869b 013b 7af5 a53d
00000200: ec70 c4bb 9cc5 ffbc 4db8 5c3d 6080 3cbd
00000210: beb8 75bd da59 c6bc 7c1d 8b3d 9bbe ed3d
00000220: 5055 0ebc 5a06 09be 7782 4d3d baba 9a3d
00000230: b699 af3d 1de6 c53d d869 59bd 7bce 993c
00000240: 02d7 503d 39f8 333d 5e82 29be 1e21 02bd
00000250: 0895 093d 3a1f 36be 957b b53d ce36 0bbc
00000260: 4652 6cbc a9d3 aebd f8e8 0dbe 9f23 f63c
00000270: f1a3 c4bc 5899 e3bd 04c7 fd3c 41f5 75bd
00000280: 08aa b73d 7dfe 3cbd aaeb 303d bd14 f03d
00000290: f214 cbbc 7ad4 b6bc 5e14 92bd 2b7b 953c
000002a0: 41a4 a3bc 0906 cbbd ce26 27bc 0aed bfbd
000002b0: da4c babd 1403 86bd 0e36 b4bc 8a6f b2bd
000002c0: ebbc 10bd f72b b9bd 7225 673d 70a3 963c
000002d0: c980 0c3e 3f00 39bd a4de 6e3c 06f1 68bd
000002e0: b7d7 a53d 16a8 5e3d 1bf9 57bd 6a05 5c3d
000002f0: 9525 f9bc c773 623d c770 e5bc 9436 c4bb
00000300: 4a8f 83bd a033 e4bc 5666 3cbd 5141 823d
00000310: 01c0 583d 150b 02bc c916 063b 0acb 12bd
00000320: 0ce7 67bd 6455 58bb 282c 13bc a270 823c
00000330: cc81 893d d5c4 dbbd 0211 a0bd 2a6a 09bb
00000340: beb7 53bd caaa a43c 3243 9f3d 25f0 533d
00000350: 6595 8d3d b73c d23d cbe0 a43c ced4 51bc
00000360: 79c7 583d 24a0 a5bd fc39 d83d d7ba 2bbd
00000370: 6d28 523b c3ef 4bbd fc2a 22bd c91a b23d
00000380: 87ef 813d bdff 963d a65e 333d 4135 ccbd
00000390: 1bec 543c e88c 8dbd 5792 13bd e1b0 a6bc
000003a0: 59e0 d03d 4988 b43d 6edc d2bc a68e 6dbd
000003b0: 8f8c 9ebd ede6 ad3c fe99 933d a4eb 94bc
000003c0: b1b4 85bd ed7e f83a 34c8 d6bc db1a ae3c
000003d0: 0978 7dbd f30c 1bbd d3ef ab3d ec36 b8bc
000003e0: 9bce 96bd bf51 efbc f784 51bd 217e e13c
000003f0: 1c5a 06bc 3816 943c 621c 36bd aa4f 553c
0.055349976 0.033643894 -0.042146705 -0.1276773 -0.027486417 0.02219189 0.038060594 0.01862886
-0.011183526 -0.022650063 0.073246956 0.09545559 0.08232583 -0.049107607 -0.058032427 0.020371607
-0.06619984 0.06828003 -0.122847505 -0.06455277 0.017370967 -0.049228217 0.047277343 0.04418106
0.052413255 -0.008635655 -0.061447103 -0.05454048 -0.020432875 -0.13098577 -0.049692605 -0.076487325
0.03478187 0.11387875 0.056939065 0.039398316 0.083147146 -0.042867742 -0.027660234 -0.09823171
-0.082896195 -0.08731319 -0.09189854 -0.052493367 0.051168386 0.05878237 -0.03554634 -0.083800025
0.06557494 0.039713256 0.044258326 -0.10677037 -0.00033547368 -0.054600343 -0.03887537 0.024884263
0.036119014 0.06348389 -0.08112137 0.008844684 0.1319536 0.010083189 0.052344784 0.022397265
-0.088264264 -0.044159707 -0.043581314 0.017995806 -0.06570752 0.048129134 -0.018318253 0.078166254
-0.13842256 0.023861447 -0.058775675 0.021402447 -0.0338734 -0.12531182 -0.09965346 0.086562455
-0.030817911 -0.111821406 0.018543484 -0.05907441 0.052998137 0.051691443 -0.12011403 0.07250536
-0.02813846 0.015346867 -0.0053577796 0.0142408665 0.03128436 0.07208461 -0.057682157 0.048556097
-0.06789436 0.013391408 -0.03153347 -0.09069033 0.04492622 -0.06449132 -0.06920661 0.032854296
-0.0114192255 -0.03127813 0.041219115 0.029491257 -0.00712723 -0.067834035 -0.038957044 -0.0614821
0.07620549 -0.019353881 -0.028611552 0.0883023 -0.018841835 -0.08373357 0.031405274 -0.076316506
-0.011975911 -0.0009128642 0.100685686 -0.051647715 -0.084243335 0.030143674 0.0019776537 0.081034616
-0.0059949066 -0.031222157 0.0538867 -0.046020865 -0.059990637 -0.024212766 0.06792733 0.11608621
-0.008687332 -0.13381329 0.05017325 0.075551465 0.0857424 0.09663031 -0.053079456 0.018775215
0.050986297 0.043937895 -0.16553637 -0.031769864 0.033589393 -0.1778535 0.08861462 -0.008496953
-0.014423912 -0.08536465 -0.13858402 0.030046282 -0.024003955 -0.111132324 0.030978687 -0.060048345
0.08967978 -0.046141136 0.043193497 0.117227055 -0.024790261 -0.022318114 -0.07132791 0.018247208
-0.019975783 -0.099132605 -0.010202123 -0.093713835 -0.090966895 -0.06543556 -0.021998432 -0.08712681
-0.035336416 -0.09041589 0.056432195 0.01838848 0.13721003 -0.04516625 0.014579449 -0.056870483
0.08097785 0.054359518 -0.0527278 0.0537161 -0.030413428 0.055286195 -0.028007878 -0.0059879515
-0.064238146 -0.027856648 -0.045996033 0.06360114 0.052917484 -0.0079372125 0.0020460358 -0.035838164
-0.056616828 -0.003300988 -0.008982696 0.015922848 0.0671421 -0.10730902 -0.07815744 -0.002096782
-0.051688902 0.02010097 0.07776488 0.05174269 0.0691326 0.10265487 0.02012672 -0.012807084
0.052924607 -0.08087185 0.10557935 -0.04192623 0.0032067553 -0.0497892 -0.039591774 0.08696515
0.06344514 0.07372997 0.043791436 -0.09971095 0.012995745 -0.06911641 -0.036028232 -0.020348014
0.10199041 0.08815057 -0.025739875 -0.05799737 -0.07741653 0.021228278 0.07207106 -0.018178768
-0.06528605 0.0018958725 -0.026218511 0.02125304 -0.061882053 -0.037854146 0.08395352 -0.022487126
-0.073636256 -0.029213784 -0.051152196 0.027525963 -0.008200195 0.018077001 -0.04446066 0.013019482

mlp.mlp.4.bias f4 [64]
00000000: dd82 2931 dd9b ceb3 5871 d8b0 ff08 18af
00000010: 29eb 8a31 18dd 0930 a242 d332 7697 e7b3
00000020: d6be 93b3 72bf 5534 dbb4 2eb0 d325 0333
00000030: 2337 94b2 b75a a2b1 5666 4ab3 df05 2c32
00000040: bc66 c1b1 a0ca b9b0 b983 1b32 215f 42b0
00000050: daab 9032 41ba 88b2 a608 a531 25c6 16af
00000060: 1e59 9f32 76a0 b332 5e53 43b3 3891 852f
00000070: 58aa e732 75b9 a733 2cf3 f732 2130 d132
00000080: 6bf6 1732 f6ab e332 6401 0b32 bc7c 1131
00000090: cfe4 e132 1209 88b3 c418 fd32 8dfb 7e33
000000a0: 990a aa32 d233 e832 b65e 0d31 7455 19b3
000000b0: bfc7 9c32 9dc6 89b2 31e3 b5af c110 a233
000000c0: 9436 fd32 a6ed 6e33 d454 acb2 162e 3433
000000d0: dd8d 91b2 1a7a 56b1 b164 98b1 8abc ecb1
000000e0: 643d 2731 0595 0d32 6c9b ceb1 2632 0732
000000f0: 9aff 5f33 efad 7f32 6540 46b4 fe34 8db2
2.4667124e-09 -9.620974e-08 -1.5748283e-09 -1.3827516e-10 4.043063e-09 5.01545e-10 2.4593934e-08 -1.0784326e-07
-6.879934e-08 1.9906818e-07 -6.355784e-10 3.0535215e-08 -1.7254541e-08 -4.7251336e-09 -4.7124864e-08 1.0013053e-08
-5.628719e-09 -1.3518111e-09 9.052138e-09 -7.0711975e-10 1.6841955e-08 -1.5917182e-08 4.8031152e-09 -1.3712816e-10
1.8550562e-08 2.0911312e-08 -4.5477798e-08 2.4295743e-10 2.6969403e-08 7.810278e-08 2.8865166e-08 2.4352689e-08
8.845386e-09 2.6504477e-08 8.091181e-09 2.117118e-09 2.6297498e-08 -6.3346434e-08 2.9464339e-08 5.9367768e-08
1.9795424e-08 2.703192e-08 2.0572037e-09 -3.5700808e-08 1.8251624e-08 -1.6039218e-08 -3.3085137e-10 7.5467604e-08
2.9477896e-08 5.5629833e-08 -2.006201e-08 4.195143e-08 -1.6944734e-08 -3.1210505e-09 -4.4352295e-09 -6.8899384e-09
2.4336595e-09 8.241163e-09 -6.0130585e-09 7.869437e-09 5.2153702e-08 1.48825015e-08 -1.8463614e-07 -1.6438658e-08

mlp.mlp.5.weight f4 [64]
00000000: 1a5d 8c3f e2c1 8a3f 3878 8a3f d624 723f
00000010: ce81 703f 3fd4 6d3f e6ec 753f 1e5b 8c3f
00000020: eb66 8b3f 5893 8a3f 05d7 6e3f f6af 753f
00000030: b6a7 8a3f 04c4 8a3f 2883 8a3f 7d4e 853f
00000040: e4a5 893f 1488 6f3f b59b 6d3f 5ce2 6e3f
00000050: 4d01 8b3f c666 8b3f af18 6f3f 389a 6e3f
00000060: 6390 8b3f 7890 8b3f b44c 8a3f 599c 6e3f
00000070: 1be9 6d3f 1350 8b3f 8b57 8b3f e505 6e3f
00000080: bb0b 8a3f af4c 8b3f 0624 8d3f c49c 8b3f
00000090: 5b63 8a3f c2d4 8a3f 77aa 793f f596 8a3f
000000a0: fdc7 7a3f 4735 8b3f 1682 6d3f 0435 8a3f
000000b0: ed86 793f 63c6 8a3f 673f 8c3f 221f 8b3f
000000c0: f4c7 8a3f fdb8 8a3f e324 8a3f ee7b 8a3f
000000d0: 9b4c 733f e017 703f 6b4f 8a3f e703 6d3f
000000e0: ca68 703f 67de 8b3f e44a 6e3f 358e 823f
000000f0: 4e12 763f 3e4c 8b3f 917a 7a3f 8333 8c3f
1.0965912 1.0840418 1.0817938 0.9458746 0.93948066 0.92901987 0.96064603 1.0965307
1.0890783 1.0826216 0.93296844 0.9597162 1.0832431 1.0841069 1.0821276 1.0414578
1.0753751 0.93567014 0.92815715 0.93314147 1.0859772 1.0890739 0.9339704 0.9320407
1.0903438 1.0903463 1.0804658 0.9320732 0.92933816 1.0883812 1.0886091 0.92977744
1.078483 1.0882777 1.1026618 1.0907216 1.0811571 1.0846179 0.97525734 1.0827318
0.9796141 1.0875634 0.9277662 1.0797429 0.97471505 1.0841793 1.0956849 1.0868876
1.0842271 1.0837704 1.0792507 1.081907 0.95038766 0.9378643 1.0805486 0.9258408
0.93909895 1.0927247 0.93083024 1.0199648 0.9612168 1.0882642 0.9784327 1.095322

mlp.mlp.5.bias f4 [64]
00000000: b575 f73d df44 bd3d 0f52 be3d 3dc6 aebc
00000010: 8ad3 16bd a033 6cbd ce20 173c b689 043e
00000020: ae92 d03d f272 c43d 94a9 51bd e55f 7abb
00000030: bdbf c23d 59d7 b13d a8da c03d 8ac3 ca3d
00000040: 3e95 fa3d 1fdd 32bd 0b85 7dbd d325 4bbd
00000050: eefd ba3d 0870 d33d 27d5 46bd 6e62 6abd
00000060: aaf8 e33d 38d3 d43d ad0e b83d 3711 67bd
00000070: a540 75bd ad87 ca3d 6dee c93d 330d 6dbd
00000080: 693a b73d b7e5 df3d cfc8 0c3e b73d ea3d
00000090: 76ba bc3d a0ac cf3d 9a87 da3c 7d99 c83d
000000a0: 18da 203d 6f81 d23d cde6 7bbd 55ea b73d
000000b0: 539a ce3c e7e6 bb3d 7c52 053e 725a c93d
000000c0: 033a be3d c3bf c13d 5498 b93d f146 bc3d
000000d0: 5814 51bc 8d7a 21bd 767d b93d 6232 7cbd
000000e0: 5b4f 1dbd 8211 e03d 576b 77bd e745 ab3d
000000f0: b3ab 273a a525 d43d 799d f63c bcef f53d
0.12082998 0.09241652 0.09292995 -0.021334762 -0.036822833 -0.05766642 0.00922413 0.12943158
0.10184227 0.095922366 -0.051187113 -0.003820413 0.095092274 0.086836524 0.09416705 0.09900577
0.12235497 -0.04366791 -0.061894458 -0.04959662 0.091304645 0.10324103 -0.04854312 -0.057222776
0.11131413 0.10391849 0.08987174 -0.0564129 -0.059876103 0.09889159 0.09859929 -0.057873916
0.08946688 0.109324865 0.13748477 0.114375524 0.09215252 0.101403475 0.026675988 0.097949006
0.03927049 0.10278594 -0.061499406 0.08980242 0.025220072 0.091749005 0.13019747 0.09831704
0.092884086 0.09460404 0.090622574 0.091932185 -0.012761198 -0.039423514 0.09057133 -0.061571486
-0.038405757 0.10940839 -0.0604051 0.08362942 0.00063961296 0.103587426 0.030104386 0.12008616

mlp.mlp.5.running_mean f4 [64]
00000000: e267 15be 6ce8 98be cc98 80be c518 72bc
00000010: b366 26be f540 cdbb 1e9e ec3d de34 95be
00000020: d9b5 86be 3703 bbbe 11aa 623d bf94 25be
00000030: 64cb 8bbe e898 263d 0f51 8bbe e44b 25be
00000040: 6367 bebe 2ed1 083e 9d55 0bbe de74 c8bd
00000050: 0717 e1bd 5fe3 b13d 56b7 55be cf1b 17bd
00000060: e238 1dbe c8c8 7dbe 4b2b 7dbe 63d0 afbd
00000070: d2a2 1d3e f3af 9dbe 341d e7be 3870 d1be
00000080: 61cc 0f3e 3011 8bbe b0ab ce3c bccf a3be
00000090: 3ebb 2ebe 4540 11be 6ead eebd 1cd8 043e
000000a0: 9ce4 38be b677 41be 1c04 20bc d5c8 08be
000000b0: 8db7 6d3d 59b2 f0bd eb82 053d fa41 8fbe
000000c0: 810d 60be 4056 1bbe f054 56be afe6 b0be
000000d0: 827d 253e d5a9 6bbe db4b 0cbf 734b 1d3e
000000e0: d766 5e3d e248 15be 48ba 263e 0f99 0bbe
000000f0: 2715 96be 9bc2 00bf 3b2a 5dbe dcc9 afbe
-0.1459041 -0.29864824 -0.25116575 -0.014776413 -0.16250114 -0.006263847 0.11553596 -0.29141897
-0.26310614 -0.3652589 0.05533797 -0.16170023 -0.27303612 0.040673167 -0.2721028 -0.16142231
-0.37188253 0.13361046 -0.13606878 -0.09787916 -0.1099072 0.08685946 -0.20870718 -0.036891755
-0.1535373 -0.24783623 -0.24723546 -0.085846685 0.15394142 -0.307983 -0.45139468 -0.4090593
0.14042808 -0.2716155 0.025228351 -0.31994426 -0.17063615 -0.14184673 -0.11654173 0.12973064
-0.18055958 -0.18893322 -0.009766605 -0.13357861 0.058036376 -0.11752767 0.032595556 -0.27980024
-0.21880151 -0.1516962 -0.20930839 -0.34550998 0.16161159 -0.23014005 -0.54803246 0.15360813
0.054297294 -0.14578584 0.16281998 -0.13632606 -0.29313013 -0.50296944 -0.21598141 -0.34333694

mlp.mlp.5.running_var f4 [64]
00000000: 7add 933e 4244 b43e 66b2 b53e f48c f23d
00000010: fa78 af3d 7d37 023e ee09 463d 5d4f d73d
00000020: 4d3f 9d3e ee31 a43e 9c4b f83d b7ec 9e3d
00000030: 6321 5a3e 519c ec3e bd8e bf3e 024a 5d3e
00000040: ab07 703e 56ac 3b3e 86c9 023e 4ebd f53d
00000050: 92fd 0a3f e56b 073f 94be d63d 31b0 4b3e
00000060: f17c 863e 2260 d93e ff62 c73e 383f 523e
00000070: 8a34 0c3e 81e4 ba3e 6dc0 cb3e 27da 203e
00000080: 536a ac3e 7db9 253e 34db c43e 1138 e53d
00000090: a4b5 0a3f c087 993e f19f 143d 3b89 203e
000000a0: 4e29 233d ef26 b93e d510 1e3e 2780 363e
000000b0: f397 fa3d 12aa 433f 2656 d53d 8fe1 fd3e
000000c0: c1f6 903e 124f 313e ffba e13e 2eb5 ca3e
000000d0: bbcf 253e 9a97 ec3d d81c 833e d31f ed3d
000000e0: ac06 213e 69fd a03e df7b 323e 48e8 7f3d
000000f0: 42e6 1b3d 51f7 923e 0683 263d 660f 723e
0.2887991 0.35208327 0.3548767 0.11843291 0.08567996 0.1271648 0.048349313 0.10513184
0.30712357 0.32069343 0.12123796 0.077599935 0.21301799 0.4621301 0.37413588 0.21610263
0.23440425 0.1832746 0.12772188 0.11998998 0.5429317 0.5289901 0.10485569 0.1989143
0.26267198 0.42456156 0.38942716 0.20531929 0.13691917 0.3650246 0.39795247 0.15708219
0.3367487 0.1618404 0.3844849 0.111923344 0.5418341 0.29986382 0.036285345 0.1567735
0.039834313 0.36162516 0.15436108 0.17822324 0.12236013 0.7643138 0.10416822 0.4958615
0.28313258 0.17315319 0.4408798 0.39591354 0.16192524 0.11552353 0.25607944 0.115783356
0.15725201 0.31443337 0.17430066 0.06247738 0.038061388 0.28704312 0.040652297 0.23638687

mlp.mlp.8.weight f4 [1, 64]
00000000: 26ae c33d ad04 463e 2257 2f3e 3173 023d
00000010: ca23 aa3c 7f8d 5dbc 5403 2f3d bcd6 bd3d
00000020: 6ced 123e ff50 253e 04c3 1cbb 6a89 2f3d
00000030: 7641 363e 43bc 473e f0b8 343e 9ac0 8a3d
00000040: c039 9e3d 9bb1 2e3c 046c 1fbd e95f 453b
00000050: 2e27 483e 1775 df3d a4ee 983b 8aa7 87bc
00000060: 9c8c e33d 647c e33d 43df 423e fb4e 90bc
00000070: f751 0ebd 3e76 113e 112f 033e f732 9dbc
00000080: 73d5 4c3e a72d e43d e563 b53d 6183 da3d
00000090: cdf3 253e 7dfc 0e3e 3f9b 453d d7a3 093e
000000a0: 9e55 4f3d d2d8 ff3d 577e 24bd 6434 4e3e
000000b0: ec00 4a3d 042f 143e dbee b73d 9340 023e
000000c0: 2deb 2d3e 8356 2b3e 6ef3 303e 2234 3e3e
000000d0: 803e 0f3d af69 883c 5a28 433e f5d8 1dbd
000000e0: 10ce 8a3c a5be ea3d 09a4 16bd 1b67 803d
000000f0: d217 2a3d 7552 0c3e 0b61 4b3d e99b c73d
0.095547006 0.19337721 0.17123082 0.031848136 0.020769019 -0.013522505 0.042727783 0.09269473
0.14348382 0.16144179 -0.002391995 0.042855658 0.17798409 0.1950541 0.17648673 0.06775017
0.07725859 0.010662462 -0.03892137 0.0030116981 0.19546196 0.10911005 0.00466712 -0.016559381
0.111108035 0.1110771 0.1903048 -0.017615786 -0.034746137 0.14205262 0.12810923 -0.019189341
0.200033 0.1114152 0.08856944 0.1066959 0.16206284 0.13963504 0.048243757 0.13441406
0.05061876 0.12492527 -0.04015955 0.20137173 0.049317285 0.1447106 0.08981105 0.12719946
0.16984244 0.1673222 0.17280361 0.18574575 0.034971714 0.016651956 0.19058362 -0.038536984
0.016943961 0.11462144 -0.03677753 0.06269666 0.041526623 0.1370333 0.049653094 0.097465344
