model/dfm_epoch_100.pt (torch, 79687 bytes, 15 tensors)

embedding.embedding.weight f4 [98, 32]
0.17044155 -0.14683966 0.05198439 -0.05229901 0.13600379 -0.21740724 -0.16377062 0.061897308
-0.075876884 -0.18181616 -0.14944862 0.21176776 0.14512573 0.13735765 -0.11892443 -0.0447469
-0.18245739 0.14273977 0.03506201 0.19213536 0.18541954 -0.1612649 0.13910598 -0.20759124
-0.15770237 0.16546723 -0.16577433 -0.18133937 0.17694663 0.12716872 0.17705072 0.18017033
0.18792419 -0.16059208 0.057667587 -0.05792506 0.15053266 -0.2403458 -0.17910153 0.066975646
-0.08309385 -0.20174696 -0.1656618 0.23436746 0.16069517 0.15145786 -0.13211952 -0.04994531
-0.20269518 0.1563751 0.038586933 0.21061817 0.20665264 -0.179162 0.1531559 -0.23033932
-0.17292838 0.18371598 -0.18099329 -0.20072067 0.19526559 0.14131396 0.19834754 0.19993964
0.20552011 -0.18525927 0.06004416 -0.06398036 0.16046062 -0.26134378 -0.19648877 0.08015847
-0.09006324 -0.22220767 -0.17802182 0.26002315 0.17813082 0.16558766 -0.14319484 -0.052108403
-0.22326988 0.17550512 0.044623133 0.24069436 0.22730447 -0.19319776 0.16563699 -0.2536584
-0.19876383 0.19879739 -0.20968859 -0.21906933 0.21928127 0.1500703 0.21673514 0.22118455
0.06727594 -0.058926694 0.020497719 -0.020897882 0.05567827 -0.0865624 -0.065197185 0.024744717
-0.030775081 -0.07298782 -0.05955455 0.08485021 0.058297083 0.055068582 -0.047111843 -0.017630953
-0.072841495 0.057601012 0.014139507 0.07727651 0.0743696 -0.06456921 0.055657092 -0.082987085
-0.0632988 0.06585125 -0.06659446 -0.071811825 0.07091784 0.05036965 0.07072778 0.0722318
0.087712444 -0.07848181 0.029697254 -0.0300353 0.09928952 -0.12215103 -0.08992014 0.030566605
-0.04406819 -0.09764152 -0.08273513 0.11459614 0.08375422 0.07664751 -0.065633856 -0.024959257
-0.098786525 0.07654368 0.020398473 0.101845145 0.10041021 -0.09022386 0.07825486 -0.11202784
-0.08560258 0.08991261 -0.0834705 -0.09406232 0.09562185 0.070500955 0.09659271 0.09923731
0.024842422 -0.021345545 0.0052177096 -0.005998467 0.004043957 -0.026813857 -0.020510003 0.010658611
-0.007900124 -0.025036968 -0.017928785 0.029495321 0.017244896 0.01668751 -0.014884346 -0.004903777
-0.024648922 0.019888936 0.0042126304 0.028521871 0.02522163 -0.019529033 0.016003342 -0.028829845
-0.022125661 0.021082036 -0.02672937 -0.026393486 0.024542676 0.014890197 0.023951495 0.023772126
0.13142489 -0.114887744 0.038272534 -0.038718678 0.11219003 -0.20450531 -0.12411557 0.04737892
-0.05982507 -0.14715862 -0.11151736 0.18531732 0.112364754 0.10077748 -0.088900864 -0.032881215
-0.13468371 0.11382234 0.025897082 0.15918477 0.14284678 -0.118235834 0.105008006 -0.18526974
-0.121014975 0.12061293 -0.124404825 -0.14705431 0.1345273 0.09280355 0.14107431 0.13099548
0.11475764 -0.10103226 0.036876783 -0.037022553 0.08944007 -0.1127928 -0.11751692 0.043112922
-0.052655756 -0.12268042 -0.10458386 0.12766485 0.10430638 0.09893225 -0.081864804 -0.03141276
-0.1331206 0.1014059 0.025272511 0.12762077 0.1292898 -0.120812684 0.09722221 -0.12093396
-0.11012683 0.1180423 -0.118211 -0.11732792 0.12537773 0.09066649 0.11728975 0.13559173
00000000: 3b88 2e3e 235d 16be 95ed 543d 7d37 56bd
00000010: 9444 0b3e 01a0 5ebe 7cb3 27be 0888 7d3d
00000020: 5765 9bbd 042e 3abe 0f09 19be a6d9 583e
00000030: d79b 143e 7ca7 0c3e a78e f3bd 8748 37bd
00000040: 1cd6 3abe 602a 123e 2f9d 0f3d 22bf 443e
00000050: 9fde 3d3e a022 25be cc71 0e3e cc92 54be
00000060: bb7c 21be 3e70 293e bfc0 29be 07b1 39be
00000070: 7f31 353e 8438 023e c94c 353e 927e 383e
00000080: 336f 403e 4072 24be d934 6c3d d442 6dbd
00000090: 3c25 1a3e 361d 76be 6466 37be 872a 893d
000000a0: 1c2d aabd c196 4ebe 3fa3 29be 06fe 6f3e
000000b0: 468d 243e c517 1b3e 574a 07be 7493 4cbd
000000c0: 538f 4fbe cb20 203e 550d 1e3d 4aac 573e
000000d0: c09c 533e 3e76 37be e6d4 1c3e 12de 6bbe
000000e0: 2314 31be 0b20 3c3e 4e56 39be b889 4dbe
000000f0: b4f3 473e 9bb4 103e 9e1b 4b3e fabc 4c3e
00000100: dd73 523e 9bb4 3dbe ddf0 753d 2308 83bd
00000110: ca4f 243e dace 85be 5a34 49be 202a a43d
00000120: 1373 b8bd 688a 63be 5a4b 36be c121 853e
00000130: ed67 363e d08f 293e aba1 12be 9f6f 55bd
00000140: dca0 64be 9db7 333e bfc6 363d 9578 763e
00000150: 81c2 683e a2d5 45be be9c 293e 84df 81be
00000160: bf88 4bbe 8b91 4b3e 9bb8 56be b653 60be
00000170: 458b 603e 07ac 193e d1ef 5d3e 347e 623e
00000180: f8c7 893d 1e5d 71bd d5ea a73c 0932 abbc
00000190: e60e 643d a147 b1bd 1a86 85bd 6fb5 ca3c
000001a0: 061c fcbc a37a 95bd 79ef 73bd f2c5 ad3d
000001b0: ecc8 6e3d 988f 613d 59f8 40bd ca6e 90bc
000001c0: ec2d 95bd 0aef 6b3d 64a9 673c 2643 9e3d
000001d0: 174f 983d dd3c 84bd b1f8 633d 22f5 a9bd
000001e0: cda2 81bd 05dd 863d ad62 88bd 1412 93bd
000001f0: 5f3d 913d 6850 4e3d bad9 903d 44ee 933d
00000200: 95a2 b33d 12bb a0bd a847 f33c 970c f6bc
00000210: 4e58 cb3d 522a fabd 0d28 b8bd d166 fa3c
00000220: d980 34bd 47f8 c7bd 0971 a9bd 62b1 ea3d
00000230: 5587 ab3d 5ff9 9c3d 0b6b 86bd 5b77 ccbc
00000240: 9750 cabd efc2 9c3d b31a a73c 3094 d03d
00000250: dea3 cd3d 4ac7 b8bd 1644 a03d da6e e5bd
00000260: 6850 afbd 1a24 b83d 95f2 aabd bfa3 c0bd
00000270: 63d5 c33d ce62 903d 66d2 c53d ee3c cb3d
00000280: 5682 cb3c dadc aebc 52f9 aa3b ca8e c4bb
00000290: 2c83 843b bca8 dbbc 9804 a8bc 74a1 2e3c
000002a0: 866f 01bc 541a cdbc 63df 92bc 2ca0 f13c
000002b0: 2b45 8d3c 3fb4 883c 79dd 73bc ddaf a0bb
000002c0: 89ec c9bc 1fee a23c 1b0a 8a3b b3a6 e93c
000002d0: 989d ce3c 5afb 9fbc 7119 833c 912c ecbc
000002e0: e040 b5bc 3cb4 ac3c 8df7 dabc 2737 d8bc
000002f0: b90d c93c 03f6 733c ed35 c43c c3bd c23c
00000300: 3f94 063e 444a ebbd a9c3 1c3d 7a97 1ebd
00000310: e3c3 e53d d769 51be 4e30 febd 6610 423d
00000320: 220b 75bd c0b0 16be 3763 e4bd d3c3 3d3e
00000330: 7e1f e63d 6c64 ce3d a811 b6bd 74ae 06bd
00000340: 87ea 09be b01b e93d 1e26 d43c 5501 233e
00000350: 6d46 123e a125 f2bd 700e d73d 5ab7 3dbe
00000360: b3d6 f7bd e903 f73d f5c7 febd 6895 16be
00000370: 86c1 093e ca0f be3d c975 103e ae23 063e
00000380: 0e06 eb3d 00ea cebd 1c0c 173d f6a4 17bd
00000390: 5b2c b73d e9ff e6bd b6ac f0bd 2d97 303d
000003a0: 90ad 57bd df3f fbbd 1030 d6bd 93ba 023e
000003b0: 959e d53d fe9c ca3d bca8 a7bd abaa 00bd
000003c0: c450 08be e6ad cf3d 4c08 cf3c 05af 023e
000003d0: 8c64 043e a46c f7bd 701c c73d 39ac f7bd
000003e0: 2d8a e1bd 29c0 f13d 9c18 f2bd 9f49 f0bd
000003f0: 0563 003e 5aaf b93d 9c35 f03d 8fd8 0a3e

linear.fc.weight f4 [98, 1]
0.12874177 0.05946745 0.2262159 0.18271604 0.25212196 0.07328787 0.09614777 0.4004251
0.086304665 0.03464675 0.034951728 0.033939738 0.017316025 0.016842932 0.017008161 0.016306205
0.22796862 0.14605851 0.16321726 0.15991177 0.19176786 0.17210992 0.1771164 0.027790869
0.023392301 0.020886252 0.02548837 0.028641196 0.03307315 0.025520237 0.008892246 0.0034682986
0.028974468 0.014097744 0.0005477402 0.00032185717 0.00050810986 0.013183711 0.00014168904 0.005114158
0.0054308767 0.001312317 0.006454951 0.033514485 0.03227471 0.004721205 0.018598244 0.025955094
0.0029750008 0.026198661 0.019986393 0.0045323675 0.0023933356 0.007947654 0.0013907987 0.0030217879
0.027044274 0.0017775139 0.03060646 0.019869866 0.006906974 0.006048158 0.022853192 0.0034465466
0.0031439986 0.0002576866 0.00063141214 0.01576556 0.03442671 0.016994458 0.01223741 0.011956281
0.004473438 0.008837123 0.00053850125 0.034946334 0.001691433 0.00019968001 0.02539118 0.034589507
0.022821723 0.023861885 0.0039851307 0.0016968267 0.034736164 0.031106617 0.017703578 0.0052691703
0.00912356 0.01869714 0.024928214 0.01058639 0.007884686 0.014406643 0.011554483 0.009207264
0.00037323416 0.015652599
00000000: e2d4 033e 2494 733d 24a5 673e ea19 3b3e
00000010: 2116 813e f317 963d 1fe9 c43d 8504 cd3e
00000020: 80c0 b03d c0e9 0d3d 8b29 0f3d 6504 0b3d
00000030: 56da 8d3c 30fa 893c b354 8b3c 9794 853c
00000040: 9b70 693e 5d90 153e 6d22 273e e9bf 233e
00000050: cb5e 443e 953d 303e 005e 353e ada9 e33c
00000060: 36a1 bf3c a519 ab3c fccc d03c f1a0 ea3c
00000070: b677 073d d10f d13c c8b0 113c 654c 633b
00000080: dd5b ed3c 39fa 663c 3996 0f3a f0be a839
00000090: ad32 053a 7e00 583c 5d92 1439 ab94 a73b
000000a0: 7ff5 b13b 0d02 ac3a 0e84 d33b 7c46 093d
000000b0: 7c32 043d 57b4 9a3b 585b 983c c79f d43c
000000c0: 3bf8 423b 939e d63c 81ba a33c 4184 943b
000000d0: 82d9 1c3b e136 023c 764b b63a 3009 463b
000000e0: f48b dd3c 78fb e83a 66ba fa3c 21c6 a23c
000000f0: e653 e23b a02f c63b 9e36 bb3c 75df 613b
00000100: 8b0b 4e3b 1c1a 8739 5a85 253a c726 813c
00000110: 0603 0d3d f637 8b3c 6b7f 483c 47e4 433c
00000120: eb95 923b 95c9 103c 352a 0d3a e323 0f3d
00000130: 13b3 dd3a 3261 5139 2a01 d03c baad 0d3d
00000140: 9ff4 ba3c 007a c33c b395 823b 0e68 de3a
00000150: 8247 0e3d 4ed3 fe3c 1807 913c 01a9 ac3b
00000160: fc7a 153c bf2a 993c 4136 cc3c 8a72 2d3c
00000170: c52e 013c d709 6c3c 044f 3d3c 10da 163c
00000180: a4ae c339 e139 803c

mlp.mlp.0.weight f4 [64, 160]
2.8393513e-37 9.027927e-37 8.879596e-38 -2.0443817e-37 -2.4196162e-36 3.4541877e-37 -3.978276e-35 -9.172965e-36
2.3828114e-35 4.0541738e-36 -1.7017574e-35 2.0001757e-36 2.0617629e-36 -2.0842907e-37 -1.0281271e-36 6.2909584e-37
1.3881913e-36 2.1061445e-36 -8.020246e-37 -3.2586454e-37 -4.849669e-36 1.2293461e-36 -3.6510596e-35 1.8340799e-36
-2.1368705e-36 -5.6940547e-36 -1.9420858e-35 -1.1778166e-36 -1.0648723e-36 7.545329e-37 4.4073003e-35 -6.232807e-37
5.259992e-27 -4.022866e-34 8.459512e-35 -6.532158e-35 -3.814818e-34 -1.1123524e-33 1.3644151e-30 -1.795501e-34
2.3604703e-33 -1.468975e-29 -1.2162643e-26 2.8091808e-32 4.780878e-34 8.8866396e-33 9.1608984e-35 1.1902038e-34
3.0910763e-33 -1.1670777e-33 -1.6228124e-35 -2.1008134e-29 2.3908308e-32 -6.8893476e-33 -1.3290304e-30 -2.3956173e-28
-3.7296854e-34 2.0310681e-29 -2.5947472e-31 3.462459e-32 -1.2085168e-33 8.405592e-31 -3.358574e-33 4.8134378e-33
4.635239e-34 6.804974e-29 4.934052e-35 -1.0833121e-34 2.7255695e-33 7.2699725e-24 9.440673e-35 -9.487518e-35
6.9081392e-34 2.1103786e-33 -1.1411957e-33 2.4178315e-31 -1.2992142e-34 -1.0729514e-30 2.0081672e-28 3.442028e-35
4.16739e-28 -3.1383546e-34 1.9081078e-34 -1.6966689e-33 -1.0140617e-28 9.973354e-33 5.9273474e-32 1.1836684e-25
2.5266512e-34 7.129412e-34 -1.7019836e-29 3.0139048e-34 -1.2069059e-28 -2.842887e-28 8.677372e-32 -1.6199095e-32
-2.5195576e-35 -6.1412354e-35 3.2451443e-36 -1.6313241e-35 -3.3701277e-35 -1.1720959e-34 -1.5760472e-36 8.11692e-36
-4.468407e-35 5.695655e-35 1.8119453e-35 1.268664e-34 1.16930586e-35 1.3715297e-36 1.0150384e-35 2.4829393e-36
-1.5634327e-35 -2.8562068e-35 -2.5795014e-36 -4.1265617e-35 2.2274588e-35 -4.1069414e-35 6.3889226e-35 1.1045267e-34
-4.2040528e-35 3.1521266e-35 -1.675356e-35 2.2273844e-35 -3.574454e-34 1.629205e-36 1.1976378e-35 1.9715969e-36
1.09622346e-35 1.3187893e-35 1.280384e-35 -1.5497236e-36 -1.5736229e-35 4.427548e-36 -3.3352847e-35 2.1798493e-36
-8.6808945e-36 -6.3693176e-36 7.8517535e-35 -1.7269813e-35 1.804598e-35 4.0808916e-35 -5.4075172e-36 3.983561e-36
1.635697e-35 4.116298e-35 2.0460836e-36 -8.6219146e-36 2.030135e-35 4.9089517e-36 2.8707027e-35 1.6321797e-36
3.649891e-35 -2.0954323e-35 1.5515697e-36 -3.7941918e-35 -8.335565e-36 6.523992e-35 -5.313609e-35 2.1669617e-35
0.0009462769 -0.0007493139 0.00030305595 -0.0003013322 0.0007686428 -0.0012130609 -0.00087874965 0.0003057745
-0.00042673087 -0.001091081 -0.000928399 0.0011924515 0.0008249614 0.00079805957 -0.0006853787 -0.00027279716
-0.0010687253 0.0007307659 0.0001958118 0.0009871772 0.0011163976 -0.0009741517 0.00080863584 -0.001192172
-0.00081495405 0.0010146335 -0.0008826252 -0.0010189855 0.0010221795 0.00076128764 0.0011815131 0.0010593892
0.0012866149 -0.0011787509 0.0004129405 -0.00042266792 0.0015665077 -0.0018365574 -0.0013690259 0.00044335442
-0.00068200345 -0.0014693621 -0.0012766607 0.0017009107 0.0012620904 0.001173936 -0.0009613382 -0.00036299272
-0.0014813908 0.0011430439 0.00029478362 0.0015201396 0.0015130694 -0.0013627624 0.0012152629 -0.0016690824
-0.0012954612 0.0013746974 -0.001241883 -0.0013725767 0.001434246 0.0010741504 0.0014387731 0.001496773
0.0023134777 -0.0021173651 0.0010396162 -0.001029369 0.0011038766 0.0034056264 -0.0031606462 0.0010440889
-0.0011370591 -0.0020054844 -0.0027734549 -0.00030665976 0.0026198467 0.0029855457 -0.002013791 -0.00086798065
-0.004019115 0.0022461896 0.0007526725 0.0016146057 0.0029997372 -0.003961688 0.0024970581 0.0010769893
-0.00264136 0.0035295784 -0.003277396 -0.001437916 0.0032017531 0.0026622005 0.001858128 0.00455181
00000000: 7a3c c102 2b9a 9903 c1b9 f101 2722 8b82
00000010: 93d6 4d84 7014 eb02 7d85 5386 5f16 4385
00000020: 4c62 fd05 0b72 ac04 3ef6 b485 f827 2a04
00000030: 3865 2f04 77d9 8d82 40ed ae83 fa11 5603
00000040: 4230 ec03 c42b 3304 1975 8883 9cc5 dd82
00000050: 3848 ce84 9329 d103 a61f 4286 b906 1c04
00000060: ebc8 3584 c432 f284 9b84 ce85 2665 c883
00000070: bb2d b583 8b60 8003 1055 6a06 6817 5483
00000080: a85e d013 c2ae 0588 75e4 e006 90a7 ad86
00000090: c489 fd87 3dd2 b888 9663 dd0d bca9 6e87
000000a0: a719 4409 c5f8 948f ede7 7094 6bdc 110b
000000b0: 36df 1e08 7b91 380a d889 f306 8934 1e07
000000c0: f665 8009 ffe9 c188 2891 ac85 3c0c d58f
000000d0: 2f47 f80a 0e16 0f8a c3a5 d78d 1dd7 9791
000000e0: 4fe1 f787 8bf9 cd0f a268 a88c f9c7 330b
000000f0: 9fcc c888 7763 880d 7c82 8b89 40f1 c709
00000100: 4108 1a08 ce86 ac10 6b2b 8306 33ff 0f87
00000110: 746e 6209 299f 0c19 e4f9 fa06 b438 fc86
00000120: f38f 6508 ca52 2f09 199d bd88 1eed 9c0c
00000130: f8b1 2c87 a818 ae8d c090 7e11 7502 3706
00000140: e211 0412 5694 d087 8ba1 7d07 28f4 0c89
00000150: 2f8c 0091 7223 4f0a fbe1 990b f387 1216
00000160: beec a707 54ea 6c08 059a ac8f ef4e c807
00000170: 56fe 1891 7b30 b491 0747 e10b 9538 a88a
00000180: 71f6 0586 1543 a386 7e08 8a04 de78 ad85
00000190: cd2f 3386 5bcc 1b87 4513 0684 b7a0 2c05
000001a0: ce94 6d86 9f6a 9706 d8ad c005 66a2 2807
000001b0: 11af 7805 8b5a e903 f2df 5705 a139 5304
000001c0: b040 a685 acdc 1786 9170 5b84 d967 5b86
000001d0: 32dd ec05 ca5c 5a86 c1d8 a906 19d1 1207
000001e0: 9a86 5f86 8698 2706 8727 b285 2cdb ec05
000001f0: 2f90 ed87 f198 0a04 9bb5 7e05 94b9 2704
00000200: 1524 6905 dc3c 8c05 5e27 8805 fed5 0384
00000210: 1756 a785 ba53 bc04 8b55 3186 ea70 3904
00000220: 499f 3885 dd75 0785 44bc d006 e7a4 b785
00000230: d5e5 bf05 38fa 5806 a602 e684 2371 a904
00000240: e8ef ad05 25dc 5a06 c10f 2e04 2b5e 3785
00000250: 88e1 d705 c0cd d004 fba1 1806 bad9 0a04
00000260: be0f 4206 18d3 de85 32fe 0304 ddbb 4986
00000270: 2247 3185 fd6f ad06 8d42 8d86 4f6e e605
00000280: 910f 783a 9b6d 44ba 7be3 9e39 20fc 9db9
00000290: bf7e 493a 92ff 9eba e45b 66ba 5c50 a039
000002a0: d9ba dfb9 9a02 8fba cd5f 73ba 084c 9c3a
000002b0: 3942 583a df34 513a fcaa 33ba 3706 8fb9
000002c0: 7814 8cba df90 3f3a d452 4d39 2c64 813a
000002d0: 1654 923a 375e 7fba a2fa 533a a842 9cba
000002e0: a4a2 55ba 73fd 843a f95f 67ba 7b8f 85ba
000002f0: a7fa 853a 2691 473a 00dd 9a3a 34db 8a3a
00000300: a2a3 a83a 5180 9aba f07f d839 8799 ddb9
00000310: 4753 cd3a a4b8 f0ba e370 b3ba 0672 e839
00000320: 7ac8 32ba 9c97 c0ba a055 a7ba 18f1 de3a
00000330: ba6c a53a c1de 993a 5102 7cba 0f50 beb9
00000340: 3a2b c2ba 30d2 953a 308d 9a39 6c3f c73a
00000350: 2f52 c63a b89e b2ba 7549 9f3a 1dc5 daba
00000360: 77cc a9ba 312f b43a aec6 a2ba 08e8 b3ba
00000370: 4ffd bb3a 82ca 8c3a 3795 bc3a 5e2f c43a
00000380: b79d 173b 7ec3 0abb bb43 883a e4eb 86ba
00000390: f4af 903a ee30 5f3b d822 4fbb cfd9 883a
000003a0: 5f09 95ba 726e 03bb dac2 35bb 2dc7 a0b9
000003b0: bcb1 2b3b 25a9 433b cef9 03bb 3289 63ba
000003c0: c8b2 83bb cf34 133b ff4e 453a 2da1 d33a
000003d0: 3d97 443b 0cd1 81bb afa5 233b c429 8d3a
000003e0: ab1a 2dbb 8050 673b 95c9 56bb 7478 bcba
000003f0: 81d4 513b 5078 2e3b 6e8c f33a 5a27 953b

mlp.mlp.0.bias f4 [64]
-1.6736e-40 1.697829e-07 2.289778e-39 1.417067e-39 2.807559e-39 -6.307614e-39 -1.05469226e-07 -3.608261e-07
7.271287e-39 -5.88526e-40 3.951695e-39 2.0760729e-07 7.058115e-09 2.230452e-39 7.265396e-39 7.705921e-31
-2.4970356e-08 -1.7150288e-07 4.025343e-39 -2.0063052e-07 2.47164e-08 -2.5878033e-09 1.54673e-09 -7.077519e-08
-3.8950077e-08 1.926551e-39 4.191047e-39 -5.9221335e-08 -5.011974e-39 -3.960018e-39 3.5652897e-07 -7.281585e-39
-3.996063e-07 7.9488025e-08 1.8441202e-07 -2.26523e-39 -2.2006843e-07 3.2231407e-07 7.651468e-39 8.7561716e-08
1.1675956e-07 -5.077828e-39 2.837171e-39 -8.840918e-09 -2.969818e-39 9.051613e-08 1.2501917e-08 2.291833e-39
-8.4923656e-08 6.454864e-39 7.12808e-39 2.0468804e-07 -7.428311e-08 -7.668478e-39 1.1305283e-08 3.639857e-39
-7.344137e-39 -3.1220085e-07 -3.702769e-39 7.0858033e-07 1.4091239e-07 -1.3727855e-07 1.5773996e-07 1.1565953e-08
00000000: 88d2 0180 914d 3634 f8ee 1800 356e 0f00
00000010: 5592 1e00 10af 4480 527e e2b3 90b7 c1b4
00000020: 642d 4f00 9268 0680 b807 2b00 a8ea 5e34
00000030: d683 f231 9849 1800 f81c 4f00 4912 7a0d
00000040: 657e d6b2 5a26 38b4 05d5 2b00 e66c 57b4
00000050: f04f d432 1ed5 31b1 b994 d430 12fd 97b3
00000060: 104a 27b3 71fa 1400 efa2 2d00 8c5a 7eb3
00000070: 5893 3680 eb1e 2b80 f868 bf34 194a 4f80
00000080: 7989 d6b4 01b3 aa33 ca02 4634 8aaa 1880
00000090: f34b 6cb4 820a ad34 2e51 5300 9009 bc33
000000a0: 3fbd fa33 eb4a 3780 e1e4 1e00 c5e2 17b2
000000b0: a556 2080 c561 c233 03c8 5632 b3f4 1800
000000c0: 465f b6b3 8949 4600 309e 4d00 38c8 5b34
000000d0: 9285 9fb3 9980 5380 2939 4232 71a2 2700
000000e0: 77f8 4f80 8f9c a7b4 d051 2880 4535 3e35
000000f0: b44d 1734 d766 13b4 3b5f 2934 99b3 4632

mlp.mlp.1.weight f4 [64]
1.9251848e-33 0.029437112 -2.00494e-40 -3.698098e-39 5.197597e-39 3.14942e-40 0.03409616 0.03505587
2.959276e-39 2.894112e-39 -2.03366e-39 0.034979507 0.033638082 4.999257e-39 -5.329641e-39 -2.621088e-25
0.011086451 0.032300275 6.079437e-39 0.033837307 0.03592246 0.028552286 0.03250951 0.03393625
0.034093115 2.51877e-39 1.078599e-39 0.035330523 -4.011567e-39 2.6875687e-35 0.036015738 -4.156611e-39
0.034899637 0.032518897 0.03462389 6.682592e-39 0.036206707 0.03511945 1.203797e-39 0.030505365
0.036761306 4.473828e-39 9.95191e-40 0.035784066 -5.196159e-39 0.03301981 0.033630792 -6.1571e-39
0.035100855 1.172318e-39 6.192017e-39 0.032996017 0.034986254 2.47012e-40 0.035002835 -3.961947e-39
1.62626e-40 0.03429021 5.092195e-39 0.03683909 0.03722045 0.03537673 0.032537993 0.032929037
00000000: 27f0 1f09 1926 f13c e52e 0280 cb44 2880
00000010: c998 3800 ee6d 0300 6aa8 0b3d be96 0f3d
00000020: 4239 2000 9b83 1f00 0425 1680 ac46 0f3d
00000030: 16c8 093d e56f 3600 df08 3a80 cc3c a296
00000040: f2a3 353c 4b4d 043d ff32 4200 fd98 0a3d
00000050: 6e23 133d 7ce6 e93c b128 053d bd00 0b3d
00000060: 39a5 0b3d 4e6d 1b00 b2be 0b00 bdb6 103d
00000070: 9eae 2b80 4ae5 0e06 3d85 133d f142 2d80
00000080: ecf2 0e3d 8932 053d c8d1 0d3d 59c4 4800
00000090: 7c4d 143d 6ad9 0f3d b21b 0d00 63e6 f93c
000000a0: 0693 163d 36b7 3000 30d6 0a00 5092 123d
000000b0: c794 3880 c83f 073d 71c0 093d 7d0b 4380
000000c0: eac5 0f3d f2c3 0c00 d36c 4300 d526 073d
000000d0: bf4d 0f3d 92b0 0200 225f 0f3d 4c24 2b80
000000e0: 56c5 0100 e473 0c3d f872 3700 96e4 163d
000000f0: 7874 183d 31e7 103d 8f46 053d 99e0 063d

mlp.mlp.1.bias f4 [64]
-6.4329196e-29 0.020769188 -5.497625e-39 3.340336e-37 -9.46217e-40 5.008584e-39 0.022333775 0.023328817
5.102002e-39 -2.4122622e-38 -1.15346525e-27 0.023576587 0.021997303 7.77618e-29 -5.8486153e-29 2.4292218e-22
0.007945389 0.023212608 1.815242e-39 0.021465797 0.02265777 0.020491283 0.021378716 0.022349754
0.021711767 1.1586875e-37 6.5312223e-38 0.02387675 2.732752e-37 -7.2719763e-22 0.022819564 -3.668495e-32
0.023064628 0.022020847 0.023266194 -2.837389e-25 0.023221206 0.023260176 -1.1638059e-29 0.02155516
0.025787562 2.781676e-39 -2.792391e-39 0.023401747 -3.4778084e-28 0.022236293 0.022252677 5.99093e-40
0.02306651 6.055969e-39 5.365264e-34 0.021709884 0.023324154 1.0658578e-37 0.022764552 -1.213583e-39
-4.603928e-39 0.022544961 -6.551059e-39 0.023420924 0.023760095 0.023163049 0.021356756 0.023238054
00000000: 0918 a390 2524 aa3c 24dd 3b80 dc54 e302
00000010: ab4d 0a80 e589 3600 52f5 b63c 131c bf3c
00000020: 4e8e 3700 0756 0381 1cc6 b692 b023 c13c
00000030: b033 b43c 4b26 c510 af47 9490 63d6 921b
00000040: 602d 023c 5e28 be3c 28c4 1300 0ad9 af3c
00000050: ca9c b93c 56dd a73c 6b22 af3c d516 b73c
00000060: e0dc b13c 5eb6 1d02 facb b101 2d99 c33c
00000070: 41fb b902 31c8 5b9c 18f0 ba3c aa7a 3e8b
00000080: 08f2 bc3c 1065 b43c bf98 be3c 39a0 af96
00000090: 663a be3c 208c be3c 420c 6c8f 7294 b03c
000000a0: 7040 d33c 2e4a 1e00 0d68 1e80 05b5 bf3c
000000b0: ab6e dc91 e328 b63c 3f4b b63c 0786 0600
000000c0: faf5 bc3c 94f1 4100 9e4a 3208 edd8 b13c
000000d0: 4c12 bf3c b913 1102 ba7c ba3c fa36 0d80
000000e0: e121 3280 36b0 b83c b055 4780 3ddd bf3c
000000f0: 88a4 c23c 6fc0 bd3c 5df4 ae3c bb5d be3c

mlp.mlp.1.running_mean f4 [64]
-2.3502294e-24 0.021613399 8.556534e-39 3.068584e-39 -1.5472224e-33 -8.62287e-39 -0.019182594 -0.020390332
5.727104e-39 -9.120085e-39 4.0911695e-21 -0.020183656 -0.0195029 -2.2411992e-24 2.959022e-39 3.315616e-15
0.010549714 0.022944234 5.501154e-39 -0.019472294 -0.019686611 0.020798283 -0.01887884 -0.019759672
-0.019601109 5.046966e-39 -3.941057e-34 -0.020926861 2.801222e-39 1.6428403e-22 -0.019735878 3.253344e-39
-0.019903075 -0.019104084 -0.020593608 -2.1429553e-18 -0.020766787 -0.020312896 6.0289294e-33 0.02212326
0.024903832 -4.5243325e-20 -8.001895e-34 -0.02021309 -3.2414868e-31 -0.019135969 -0.019396374 -1.9283616e-28
-0.020230131 4.574368e-39 -1.6364038e-19 -0.019869603 -0.01970719 1.800262e-30 -0.01955028 -1.091853e-39
-7.151359e-38 -0.020181615 2.60111e-38 -0.020418756 -0.020593334 -0.020386463 -0.019446135 0.023259366
00000000: 17d7 3598 950e b13c 232c 5d00 f769 2100
00000010: c889 0089 0ee5 5d80 d124 9dbc a009 a7bc
00000020: d65c 3e00 164f 6380 5d8f 9a1d 3258 a5bc
00000030: 8cc4 9fbc 8667 2d98 8d38 2000 52ea 6e27
00000040: b5d8 2c3c 8cf5 bb3c fbe6 3b00 5c84 9fbc
00000050: d145 a1bc 2961 aa3c cca7 9abc 09df a1bc
00000060: 8192 a0bc e3f4 3600 cef6 0288 cf6e abbc
00000070: ab80 1e00 729b 461b 23ad a1bc 006d 2300
00000080: c60b a3bc 2b80 9cbc edb3 a8bc 481f 1ea2
00000090: 1c1f aabc 3b67 a6bc 936e fa09 d73b b53c
000000a0: 1f03 cc3c d3a7 559f 4cf4 8488 ec95 a5bc
000000b0: 7062 d28c 09c3 9cbc 25e5 9ebc e972 7491
000000c0: a9b9 a5bc 7acf 3100 4531 41a0 94c5 a2bc
000000d0: f970 a1bc fb0d 120e e927 a0bc a4e3 0b80
000000e0: b3ad c281 ea53 a5bc 2f9e 0d01 3c45 a7bc
000000f0: 5ab3 a8bc 8301 a7bc 804d 9fbc 6d8a be3c

mlp.mlp.1.running_var f4 [64]
6e-45 1.0876902e-05 6e-45 6e-45 6e-45 6e-45 1.3307802e-05 1.3781481e-05
6e-45 6e-45 2.448e-42 1.4213529e-05 1.3101028e-05 6e-45 6e-45 3.3228878e-30
4.6847485e-06 1.0197304e-05 6e-45 1.1818251e-05 1.2583688e-05 1.0576795e-05 1.2725951e-05 1.2610344e-05
1.1723644e-05 6e-45 6e-45 1.5471796e-05 6e-45 6e-45 1.2127113e-05 6e-45
1.3794864e-05 1.338046e-05 1.4092696e-05 1.1481977e-36 1.3461359e-05 1.233667e-05 6e-45 1.09968205e-05
1.0059996e-05 5.2303e-40 6e-45 1.3377404e-05 6e-45 1.4039465e-05 1.3451168e-05 6e-45
1.29973805e-05 6e-45 8.634116e-39 1.2473144e-05 1.4166485e-05 6e-45 1.2620136e-05 6e-45
6e-45 1.3497178e-05 6e-45 1.3619914e-05 1.27120675e-05 1.3389542e-05 1.2461697e-05 1.077512e-05
00000000: 0400 0000 f07b 3637 0400 0000 0400 0000
00000010: 0400 0000 0400 0000 9344 5f37 0337 6737
00000020: 0400 0000 0400 0000 d306 0000 a476 6e37
00000030: 7dcc 5b37 0400 0000 0400 0000 d7ca 860e
00000040: af31 9d36 1615 2b37 0400 0000 0047 4637
00000050: 871e 5337 fd72 3137 8b81 5537 0491 5337
00000060: abb0 4437 0400 0000 0400 0000 6ec9 8137
00000070: 0400 0000 0400 0000 8e75 4b37 0400 0000
00000080: 7d70 6737 a37c 6037 ab6f 6c37 105b c303
00000090: 19d8 6137 98f9 4e37 0400 0000 fc7e 3837
000000a0: 5bc7 2837 ffb1 0500 0400 0000 836f 6037
000000b0: 0400 0000 0b8b 6b37 54ac 6137 0400 0000
000000c0: 530f 5a37 0400 0000 6704 5e00 bf43 5137
000000d0: 97ac 6d37 0400 0000 12bb 5337 0400 0000
000000e0: 0400 0000 f071 6237 0400 0000 1681 6437
000000f0: ea45 5537 a5a3 6037 9512 5137 cac6 3437

mlp.mlp.4.weight f4 [64, 64]
-1.2693442e-30 -0.0044744425 -4.568726e-39 3.8614458e-38 7.17986e-39 1.702516e-39 0.005543803 0.0053903004
-5.013802e-39 -4.145844e-39 2.8135467e-30 0.0060081496 0.0054502073 1.55876955e-30 -2.329537e-31 2.4051223e-24
-0.0015856534 -0.0048448155 -2.880089e-39 0.005058292 0.0058632744 -0.0043758606 0.005221108 0.005405155
0.0052897795 6.9103767e-38 5.632771e-38 0.0054459553 2.570393e-38 -9.8533125e-25 0.005326545 4.441215e-34
0.0054381527 0.005339792 0.0057108956 3.5942232e-28 0.005572006 0.0057552494 -5.437909e-32 -0.0045745964
-0.005452801 6.87144e-40 -5.198212e-39 0.0061012357 -7.986294e-31 0.0053082285 0.005366654 -3.917641e-39
0.005958274 -6.79687e-39 -1.6877642e-36 0.0054090805 0.005716135 1.809872e-39 0.005306981 6.86039e-39
-6.337047e-39 0.005618209 -6.414631e-39 0.0060230196 0.0061181695 0.0057692295 0.0051236725 -0.0048985607
-2.0012235e-30 -0.006774828 4.14067e-40 7.7943113e-38 -5.305023e-39 -2.338282e-39 0.00726233 0.0075020823
-2.046256e-39 -1.547127e-39 -5.2568914e-29 0.0078112315 0.0072591156 5.012096e-30 -1.5586976e-32 -3.0021373e-23
-0.002586428 -0.007501496 -3.516061e-39 0.0072413073 0.0076506273 -0.0066249035 0.0074769445 0.0069908723
0.0073044933 3.8260386e-38 2.2788929e-38 0.0075375563 7.9103506e-38 -1.2823162e-19 0.0077034594 6.2137766e-34
0.007864385 0.007490485 0.007254301 1.8634863e-27 0.0077359313 0.0068312236 5.9331173e-31 -0.007002952
-0.008284825 -1.557672e-39 -3.02222e-39 0.007986589 2.2330042e-30 0.0065893526 0.0070270794 6.046704e-39
0.0077212066 2.799284e-39 4.93497e-35 0.006864875 0.007708798 1.964103e-39 0.0068570445 6.680333e-39
4.177911e-39 0.00784648 -9.6823e-41 0.0074870693 0.007923551 0.0076635326 0.006907716 -0.00759647
-5.9692464e-31 -0.006450225 2.521047e-39 9.2356527e-38 3.359288e-39 4.752966e-39 0.0069683157 0.007318817
-1.212546e-39 -5.639154e-39 4.6322804e-28 0.007704862 0.0066409875 -3.4143458e-30 1.0084035e-31 -5.451405e-24
-0.002563524 -0.0071797417 -2.163617e-39 0.006733849 0.006963908 -0.0062884055 0.006775158 0.00711119
0.006664649 5.9602526e-38 2.7173758e-38 0.0074690958 8.927651e-38 -3.3008866e-25 0.0069282698 -3.6283806e-35
0.0077275923 0.006485476 0.0070142634 5.774878e-28 0.007246579 0.007374345 9.866015e-32 -0.006461134
-0.008030823 -6.69002e-39 -5.483522e-39 0.0074472823 -1.0572817e-30 0.006875068 0.0069052456 -4.9122e-40
0.007386029 -4.7113e-40 1.7095678e-35 0.0067089037 0.007144285 2.534849e-38 0.0068762656 2.54413e-39
1.693445e-39 0.0071580755 -6.74924e-40 0.007339772 0.007567112 0.0069810376 0.006579067 -0.0071157455
6.426986e-31 -0.0015938461 1.72898e-40 -1.526858e-39 2.005928e-39 4.9355e-41 0.0021979592 0.0022136406
-5.52354e-40 -1.725873e-39 1.9261233e-30 0.002216124 0.002134886 1.2754192e-31 3.2170958e-31 -5.9289997e-25
-0.0005523585 -0.0017460557 -6.588617e-39 0.0021684268 0.0022768169 -0.001551647 0.0020590376 0.002181435
0.0022025541 4.809884e-39 6.142771e-39 0.0023061275 -1.422612e-39 -1.1597954e-25 0.00222984 1.04921215e-35
0.0022669183 0.0020899319 0.0022569674 -7.1760415e-29 0.002313063 0.0022565785 -1.0330522e-31 -0.001643067
-0.0019902715 1.263154e-39 2.568318e-39 0.0023398094 3.68558e-31 0.0020929761 0.0021786247 -4.150457e-39
0.0022439128 7.288679e-39 -1.9128633e-36 0.0021244872 0.0022692864 6.454604e-39 0.002279515 7.22004e-39
-4.584711e-39 0.0021918146 2.820358e-39 0.002400748 0.0023678162 0.0022846938 0.0020818796 -0.0017870765
00000000: 7ff6 cd8d 589e 92bb c0bf 3180 b33c 5201
00000010: 872e 4e00 ec89 1200 caa8 b53b 1ea1 b03b
00000020: 7198 3680 ed24 2d80 1443 640e 03e0 c43b
00000030: a797 b23b c1ec fc0d 1332 978c 5b16 3a18
00000040: b3d5 cfba 42c1 9ebb 845c 1f80 07c0 a53b
00000050: b620 c03b 6163 8fbb d415 ab3b ba1d b13b
00000060: e355 ad3b 4c1e bc01 af56 9901 fc73 b23b
00000070: 0df2 0b01 fe78 9897 4c8a ae3b ae95 1308
00000080: 8832 b23b 6cf9 ae3b 7722 bb3b 9bcf e311
00000090: 6095 b63b 8896 bc3b 1b2d 8d8b 7fe6 95bb
000000a0: 69ad b2bb 7a7b 0700 809a 3880 e0ec c73b
000000b0: c495 818d a6f0 ad3b c2da af3b caa8 2a80
000000c0: a03d c33b e902 4a80 4094 0f84 a83e b13b
000000d0: 6a4e bb3b 30b5 1300 2fe6 ad3b fab3 4a00
000000e0: 1c01 4580 f418 b83b 62d9 4580 c05c c53b
000000f0: ed7a c83b ce0b bd3b 7be4 a73b 1b84 a0bb
00000100: c95b 228e 60ff ddbb 4082 0400 6c2e d401
00000110: 3fc4 3980 2e76 1980 d7f8 ed3b 07d4 f53b
00000120: 2148 1680 c3d8 1080 2d47 8590 5cf5 ff3b
00000130: e0dd ed3b 9550 cb0e 4add a18a a92c 119a
00000140: 1081 29bb 1ccf f5bb 5949 2680 7d48 ed3b
00000150: 1db2 fa3b b815 d9bb 2801 f53b b013 e53b
00000160: 885a ef3b 324f 5001 4326 f800 9bfd f63b
00000170: 1957 d701 a163 17a0 4d6d fc3b f77c 4e08
00000180: 9fd9 003c be72 f53b 7db5 ed3b fea3 1313
00000190: b27d fd3b 75d8 df3b 698a 400d 0579 e5bb
000001a0: 13bd 07bc 28f6 1080 b8e8 2080 2fda 023c
000001b0: af29 350e 7feb d73b 6a43 e63b c0d7 4100
000001c0: 2d02 fd3b 447b 1e00 aa31 8306 bff2 e03b
000001d0: 169a fc3b 1f63 1500 0fb1 e03b 0dbe 4800
000001e0: 517e 2d00 868e 003c e70d 0180 1756 f53b
000001f0: c8d1 013c 5f1e fb3b 1f5a e23b cfeb f8bb
00000200: 8fb6 418d 695c d3bb a773 1b00 1b6b fb01
00000210: 5494 2400 56c1 3300 7856 e43b b0d2 ef3b
00000220: 1634 0d80 ab67 3d80 86cd 1212 1179 fc3b
00000230: a49c d93b 9880 8a8e f4e5 020c 1ae4 d298
00000240: cc00 28bb 0a44 ebbb 498f 1780 9fa7 dc3b
00000250: 7f31 e43b f80e cebb 2502 de3b fc04 e93b
00000260: 2163 da3b e640 a201 b1f2 1301 51bf f43b
00000270: a608 f301 a350 cc96 8a06 e33b f5ea 4086
00000280: be37 fd3b 1e84 d43b e8d7 e53b 6003 3712
00000290: b674 ed3b 7da4 f13b 7511 000c ecb7 d3bb
000002a0: b793 03bc 0ed9 4880 d4b5 3b80 5508 f43b
000002b0: c38d ab8d 4048 e13b 6645 e23b 5259 0580
000002c0: 8106 f23b 5221 0580 ddca b505 5dd6 db3b
000002d0: 9b1a ea3b a302 0a01 4c52 e13b 00b4 1b00
000002e0: a370 1200 4a8e ea3b 6a59 0780 7882 f03b
000002f0: 89f5 f73b 30c1 e43b 3795 d73b 332b e9bb
00000300: 5091 500d 9ae8 d0ba f8e1 0100 42a0 1080
00000310: b6d7 1500 9589 0000 a30b 103b ba12 113b
00000320: bd03 0680 08cb 1280 0444 1c0e 643c 113b
00000330: 72e9 0b3b 138f 250c 2ccd d00c 607e 3797
00000340: 27cc 10ba e8db e4ba 62be 4780 2a1c 0e3b
00000350: a636 153b a260 cbba ebf0 063b 68f6 0e3b
00000360: ba58 103b 0060 3400 8ce3 4200 6622 173b
00000370: aa7d 0f80 6293 0f96 8222 123b 8b24 5f05
00000380: 9490 143b 3df7 083b a1e9 133b 2cef b590
00000390: c296 173b 1be3 133b 0c19 068c 2e5c d7ba
000003a0: 376f 02bb 29c1 0d00 6df7 1b00 7d57 193b
000003b0: 3435 ef0c 502a 093b 42c7 0e3b c931 2d80
000003c0: 9c0e 133b df5d 4f00 79ba 2284 fb3a 0b3b
000003d0: 4fb8 143b cf48 4600 ea63 153b 899e 4e00
000003e0: 4fec 3180 8ca4 0f3b 03b6 1e00 de55 1d3b
000003f0: 5d2d 1b3b cdba 153b 2570 083b 563c eaba

mlp.mlp.4.bias f4 [64]
-1.850941e-08 1.2469373e-07 -8.3169766e-08 -4.8261034e-10 -7.315122e-10 -3.2234831e-18 -7.16045e-09 -3.3682547e-08
-5.356929e-08 5.0455036e-08 -3.6947786e-16 3.80279e-09 -1.1116812e-07 -1.3487062e-07 2.029591e-07 1.5683602e-08
1.823227e-08 -3.3031672e-13 4.63673e-40 2.042581e-12 -1.9009613e-08 1.042411e-08 -1.6601548e-13 7.300836e-39
-8.125591e-08 -1.9118642e-09 -6.334921e-08 5.398791e-39 7.364755e-39 -2.8271558e-08 -6.204669e-08 -3.338121e-39
-1.1903679e-08 5.201926e-08 4.675692e-08 6.65686e-08 1.6075067e-07 8.3365826e-08 -2.0413925e-08 -2.7854151e-08
2.690444e-09 3.8029363e-10 2.729762e-39 -7.5438436e-08 5.2645146e-09 -9.791324e-08 5.9507023e-08 8.174974e-08
1.6406509e-07 -3.2450277e-08 -8.511321e-08 -9.1953105e-08 1.3132375e-09 -2.9604295e-11 -5.450154e-08 1.53984e-40
-2.352907e-10 -2.5183986e-08 -7.452268e-39 1.6394245e-09 5.2851994e-09 1.5090917e-08 -3.3870078e-09 -9.033895e-09
00000000: 9ffe 9eb2 8de3 0534 109b b2b3 afa8 04b0
00000010: 9813 49b0 e0d9 6da2 fc07 f6b1 5aaa 10b3
00000020: 0f14 66b3 e6b3 5833 4ffd d4a5 b2a9 8231
00000030: 52bb eeb3 f4d0 10b4 f9ec 5934 9bb8 8632
00000040: 309d 9c32 a8f3 b9aa 880c 0500 debb 0f2c
00000050: 954a a3b2 b815 3332 b4ea 3aaa c37f 4f00
00000060: e97e aeb3 df61 03b1 990a 88b3 a2c9 3a00
00000070: f131 5000 d0d9 f2b2 873e 85b3 5359 2480
00000080: ef80 4cb2 c86b 5f33 c7d1 4833 7af4 8e33
00000090: cf9a 2c34 d906 b333 b25a afb2 ed43 efb2
000000a0: cbe2 3831 9211 d12f 77b9 1d00 b800 a2b3
000000b0: 29e3 b431 5f44 d2b3 aa94 7f33 658e af33
000000c0: de29 3034 755f 0bb3 7bc7 b6b3 c177 c5b3
000000d0: 707d b430 7933 02ae 1415 6ab3 3fad 0100
000000e0: 395a 81af 2c54 d8b2 e425 5180 1f52 e130
000000f0: 1b99 b531 47a1 8132 dfc0 68b1 7e33 1bb2

mlp.mlp.5.weight f4 [64]
0.054600306 0.09549136 0.088206425 0.014634183 0.005204417 5.196894e-10 0.02220058 0.054823145
0.07952567 0.08554296 1.340006e-08 0.020106714 0.091610104 0.09552389 0.08962103 0.036947764
0.042563237 7.031118e-05 2.3516408e-08 0.00010075078 0.09501353 0.06146883 3.9859096e-06 2.5663902e-11
0.06328713 0.061845075 0.09369115 4.2104766e-12 5.9385363e-09 0.077573694 0.071212664 5.0331117e-10
0.09585073 0.06396505 0.050305594 0.062669545 0.08430707 0.07715101 0.023787117 0.07491325
0.02589956 0.07020979 3.0011023e-08 0.09649632 0.02548108 0.07758783 0.051136795 0.070953995
0.088191025 0.08745076 0.08870892 0.09268522 0.01681721 0.001592592 0.09407957 3.5148215e-08
0.0025332968 0.06480817 2.155291e-09 0.03475041 0.01889722 0.07757891 0.023436317 0.055101193
00000000: 92a4 5f3d f990 c33d 92a5 b43d 36c4 6f3c
00000010: d089 aa3b e4d9 0e30 fedd b53c 3c8e 603d
00000020: 5bde a23d 2631 af3d 1636 6632 d6b6 a43c
00000030: 149e bb3d 07a2 c33d 3b8b b73d 8a56 173d
00000040: ca56 2e3d 0774 9338 2101 ca32 2a4a d338
00000050: 7496 c23d bdc6 7b3d b4be 8536 f8bd e12d
00000060: af9c 813d 4351 7d3d 25e1 bf3d 9a24 942c
00000070: eb0b cc31 f5de 9e3d f2d7 913d 6059 0a30
00000080: 634d c43d 1c00 833d 3d0d 4e3d e458 803d
00000090: 2fa9 ac3d 5901 9e3d 33dd c23c 1e6c 993d
000000a0: 502b d43c 26ca 8f3d 78e5 0033 dd9f c53d
000000b0: b3bd d03c 5ee6 9e3d d174 513d 5450 913d
000000c0: 7f9d b43d 6219 b33d 06ad b53d c0d1 bd3d
000000d0: 3fc4 893c 85be d03a caac c03d dff5 1633
000000e0: ab05 263b 25ba 843d 481c 1431 7256 0e3d
000000f0: 58ce 9a3c b1e1 9e3d 85fd bf3c cab1 613d

mlp.mlp.5.bias f4 [64]
0.19276042 0.31179106 0.29051098 0.0839814 0.06422458 0.01437634 0.104094855 0.19306454
0.26687554 0.2833454 0.03093756 0.097815976 0.30220407 0.313025 0.29438427 0.14414933
0.16118301 0.047616176 -1.7944254e-08 0.0457602 0.31175762 0.2130775 0.04042056 -5.364569e-11
0.21753833 0.21431004 0.30464792 -3.6322532e-11 -4.406038e-09 0.2616698 0.24040195 -7.932859e-10
0.31276238 0.22111103 0.18182047 0.21494177 0.27992526 0.2580384 0.10718226 0.2524452
0.11487065 0.23765565 -3.2078724e-08 0.31621107 0.11271868 0.26024008 0.18447797 0.24041784
0.29267254 0.28893933 0.2896613 0.3031196 0.089380205 0.056549847 0.30715817 -3.879297e-08
0.058905914 0.22439796 -1.840046e-08 0.13863312 0.0945993 0.25907987 0.10699939 0.19647534
00000000: fd62 453e 14a3 9f3e dbbd 943e 71fe ab3d
00000010: 2d88 833d be8a 6b3c af2f d53d b6b2 453e
00000020: e9a3 883e a612 913e c470 fd3c be53 c83d
00000030: 7eba 9a3e d044 a03e 89b9 963e e29b 133e
00000040: 290d 253e 2e09 433d d523 9ab2 0c6f 3b3d
00000050: b29e 9f3e fd30 5a3e 0790 253d adef 6bae
00000060: 5ec2 5e3e 1774 5b3e d0fa 9b3e 89bf 1fae
00000070: ec63 97b1 96f9 853e ee2b 763e 880e 5ab0
00000080: 6422 a03e ee6a 623e 252f 3a3e b219 5c3e
00000090: 5d52 8f3e 9c1d 843e 5f82 db3d 7f40 813e
000000a0: 4e41 eb3d 015c 733e eec6 09b3 6be6 a13e
000000b0: 0dd9 e63d 303e 853e cbe7 3c3e 1830 763e
000000c0: 2dd9 953e dbef 933e 7c4e 943e 7e32 9b3e
000000d0: f80c b73d d0a0 673d d643 9d3e 529d 26b3
000000e0: 5447 713d 94c8 653e 0a0f 9eb2 d7f5 0d3e
000000f0: 47bd c13d 1ea6 843e 7f22 db3d d530 493e

mlp.mlp.5.running_mean f4 [64]
0.0028598455 0.0037036382 0.0035470729 0.0011966978 0.00047484145 1.5281245e-11 0.001636997 0.0028934225
0.0034244673 0.0035457965 8.10909e-10 0.0015163625 0.0036049508 0.0036464804 0.0036012752 0.002273501
0.0024805374 5.9011363e-06 -2.714415e-39 7.990213e-06 0.0037028624 0.0030231911 2.9471258e-07 3.878162e-39
0.0030984406 0.0030375442 0.0036956018 3.950043e-39 1.98743e-39 0.0033002964 0.0032766245 1.406902e-39
0.0036796862 0.0030595178 0.002703532 0.0030540046 0.0035069098 0.003301101 0.0017097987 0.003313748
0.0018118197 0.0032307312 5.382219e-39 0.00369442 0.00179878 0.0034263534 0.002748314 0.0032446636
0.0035444433 0.0035363727 0.0036245624 0.0036663676 0.0013313226 0.00014377017 0.0036651387 3.351392e-39
0.00023100377 0.0031089056 6.319154e-35 0.0021991276 0.001445084 0.0033894607 0.0016914646 0.00288357
00000000: 3f6c 3b3b bdb8 723b 0276 683b 84da 9c3a
00000010: 24f4 f839 4e6a 862d 8190 d63a 939f 3d3b
00000020: 076d 603b 9860 683b a6e6 5e30 afc0 c63a
00000030: 0a41 6c3b caf9 6e3b 5f03 6c3b 04ff 143b
00000040: 8390 223b 6002 c636 af8e 1d80 b40d 0637
00000050: b9ab 723b bb20 463b fd38 9e34 bd3a 2a00
00000060: 350f 4b3b 8911 473b e931 723b 1d03 2b00
00000070: 25a4 1500 c949 583b a3bc 563b df51 0f00
00000080: e426 713b 3182 483b be2d 313b b225 483b
00000090: 2fd4 653b 4957 583b 531b e03a 772b 593b
000000a0: 957a ed3a adba 533b 709b 3a00 151e 723b
000000b0: 0bc5 eb3a ac8c 603b 0f1d 343b 6ca4 543b
000000c0: e449 683b 7dc2 673b 118a 6d3b 7147 703b
000000d0: c67f ae3a 03c1 1639 d332 703b 517e 2400
000000e0: 9a39 7239 c8be 4b3b effd a706 3d1f 103b
000000f0: f968 bd3a b721 5e3b 22b4 dd3a 47fa 3c3b

mlp.mlp.5.running_var f4 [64]
1.9566456e-05 3.6422716e-05 3.3264216e-05 3.1530371e-06 4.940336e-07 5.4175473e-22 6.0428697e-06 1.982058e-05
2.9779074e-05 3.254235e-05 1.4870591e-18 5.1285424e-06 3.4811605e-05 3.603144e-05 3.426535e-05 1.1965806e-05
1.4408798e-05 7.671039e-11 6e-45 1.3978758e-10 3.655584e-05 2.2335651e-05 1.9354441e-13 6e-45
2.3262213e-05 2.2548405e-05 3.6014993e-05 6e-45 6e-45 2.891457e-05 2.6747864e-05 6e-45
3.6617108e-05 2.3066284e-05 1.7481534e-05 2.2838747e-05 3.16525e-05 2.847676e-05 6.558721e-06 2.784002e-05
7.4795503e-06 2.61968e-05 6e-45 3.6690777e-05 7.311464e-06 2.916167e-05 1.7951199e-05 2.655295e-05
3.347118e-05 3.277133e-05 3.409392e-05 3.562078e-05 3.9292695e-06 4.5367155e-08 3.5940182e-05 6e-45
1.167001e-07 2.3700939e-05 6e-45 1.1187055e-05 4.6779414e-06 2.90904e-05 6.483625e-06 1.9826464e-05
00000000: a522 a437 98c4 1838 2e85 0b38 c498 5336
00000010: bb9d 0435 3ebc 231c dbc3 ca36 5f44 a637
00000020: 13ce f937 157e 0838 8173 db21 d815 ac36
00000030: ad02 1238 7720 1738 24b8 0f38 bfc0 4837
00000040: 51bd 7137 1cb0 a82e 0400 0000 b5b2 192f
00000050: 8953 1938 725d bb37 61e9 592a 0400 0000
00000060: 3923 c337 5526 bd37 ce0e 1738 0400 0000
00000070: 0400 0000 918d f237 9a60 e037 0400 0000
00000080: 5295 1938 787e c137 4fa5 9237 d695 bf37
00000090: 9dc2 0438 60e1 ee37 fc12 dc36 fd89 e937
000000a0: d9f8 fa36 33c1 db37 0400 0000 6ce4 1938
000000b0: ff54 f536 36a0 f437 e895 9637 07be de37
000000c0: 6863 0c38 f373 0938 1100 0f38 8567 1538
000000d0: 2bd8 8336 b7d9 4233 7abe 1638 0400 0000
000000e0: 8f9c fa33 61d1 c637 0400 0000 09b0 3b37
000000f0: 36f7 9c36 2907 f437 ea8d d936 0251 a637

mlp.mlp.8.weight f4 [1, 64]
0.18948516 0.3183504 0.2944788 0.08121414 0.0618622 0.013850576 0.100848526 0.18920727
0.26824343 0.28639007 0.029795047 0.09468036 0.30720374 0.32003084 0.29897362 0.1406216
0.15779153 0.04586059 -0.0040075737 0.04399604 0.31888175 0.21040384 0.03887276 -0.00041329564
0.21540926 0.21197411 0.31070086 -0.00048583606 -0.003603324 0.26243284 0.23924713 -0.0010196192
0.31992942 0.2187455 0.1778553 0.21243027 0.2826003 0.2582571 0.1039407 0.25284603
0.1117847 0.23648064 -0.0043089925 0.32403865 0.110019825 0.26089805 0.1810465 0.23928106
0.29706737 0.29285064 0.293603 0.30871403 0.08654148 0.054455858 0.31347215 -0.0038711557
0.05674147 0.2223016 -0.0026817224 0.13502038 0.091492794 0.25960177 0.10377268 0.19350536
00000000: 6608 423e d3fe a23e edc5 963e 9953 a63d
00000010: 3863 7d3d 87ed 623c ac89 ce3d 8dbf 413e
00000020: 3457 893e b8a1 923e be14 f43c c7e7 c13d
00000030: cf49 9d3e 15db a33e 1213 993e 1cff 0f3e
00000040: 1a94 213e 50d8 3b3d f751 83bb 3135 343d
00000050: 7844 a33e 1b74 573e 0b39 1f3d 9aaf d8b9
00000060: 3f94 5c3e be0f 593e 2f14 9f3e d0b7 feb9
00000070: bf25 6cbb 995d 863e 33fd 743e bea4 85ba
00000080: cacd a33e d2fe 5f3e b31f 363e 5287 593e
00000090: fdb0 903e 463a 843e ddde d43d 0975 813e
000000a0: 60ef e43d fb27 723e 7332 8dbb 65e8 a53e
000000b0: 1352 e13d 6e94 853e 4164 393e 1806 753e
000000c0: 3719 983e 85f0 953e 2253 963e c40f 9e3e
000000d0: a93c b13d 1b0d 5f3d 6c7f a03e 37b3 7dbb
000000e0: be69 683d 08a3 633e d6bf 2fbb c842 0a3e
000000f0: 9360 bb3d 86ea 843e c586 d43d 4526 463e
