model/dfm_epoch_120.pt (torch, 79687 bytes, 15 tensors)

embedding.embedding.weight f4 [98, 32]
00000000: a920 c83d 907f 7abd f487 8b3c 32c3 c1bc
00000010: f7c1 9d3d 2fe7 12be 8d74 81bd b713 ab3c
00000020: b220 30bc 231d a5bd 6ebb 41bd bfd0 0a3e
00000030: ea21 b63d b5c6 133d 93f5 8dbd f402 87bc
00000040: b980 c9bd 4ab4 553d c2b4 713c 2f11 cb3d
00000050: 5c16 b33d eab4 a9bd 9298 033d 275c 02be
00000060: fb4a 85bd 56ee 5f3d 2dcc 2cbd 9226 e8bd
00000070: 6c6b b33d 7beb 5e3d a597 db3d e707 d53d
00000080: a45a d83d a001 85bd 4bc2 953c ab76 cfbc
00000090: aeaa a83d 1fe2 1ebe 5024 8abd e11c b53c
000000a0: 6dba 3abc aeca b0bd 6259 4fbd 4b8d 153e
000000b0: 3668 c33d 865a 1d3d c287 99bd b265 91bc
000000c0: 69bd d8bd 71e1 623d ae46 803c 783a d83d
000000d0: 252b c03d 097a b6bd dc1b 0c3d 7a96 0cbe
000000e0: 399b 8dbd e7ca 6f3d 143d 37bd 8c5a fbbd
000000f0: 8aef bf3d 4df4 6f3d 7a37 ed3d 7de2 e43d
00000100: 1d69 003e 075e a0bd a21a b33c 6493 f8bc
00000110: 599f ca3d 4ac6 3cbe e4b0 a5bd a824 db3c
00000120: d887 61bc 6384 d3bd f445 78bd ae53 323e
00000130: 59c4 e93d 452e 3d3d 115a b6bd ae5c adbc
00000140: 0440 01be f5a5 883d 0b15 9b3c 3c02 023e
00000150: f98c e53d 148a d9bd 0782 283d 2e64 27be
00000160: 07ac aabd 8177 8f3d cc2a 5dbd c708 15be
00000170: a404 e63d 24f1 8e3d 7c15 0d3e bfa9 083e
00000180: cd07 0a3d 2e8b abbc 955b bd3b dcee 04bc
00000190: 7b16 d93c 52ff 4abd 9513 b1bc c045 e93b
000001a0: 9c53 6fbb fcbe e2bc 687d 84bc e2ac 3f3d
000001b0: 98e4 fa3c a3d7 493c 32ce c3bc 6475 b7bb
000001c0: 3fce 0abd 4706 923c 5179 a53b af84 0b3d
000001d0: 8e54 f63c a681 e9bc 256b 333c bff4 33bd
000001e0: f980 b6bc 9f45 993c 9c0e 6cbc bf30 20bd
000001f0: 23e9 f63c 9b97 983c 2d89 173d 73d8 123d
00000200: 9f31 443d 62b8 f4bc a8a4 073c 8517 3dbc
00000210: 1866 1b3d 9345 91bd 1f2b fcbc 89dd 263c
00000220: 78b1 aabb cd2c 21bd 0f8f bcbc 5f22 893d
00000230: 364f 333d b4a8 8f3c 5c63 0bbd 8f60 03bc
00000240: d598 45bd 9da1 cf3c a0ff eb3b 750a 473d
00000250: 492d 2f3d e5f8 25bd 778e 7f3c b489 80bd
00000260: 4c34 02bd 3c1a da3c 3cdb a7bc cd08 64bd
00000270: 9ecc 2f3d 1259 d93c 7f90 583d e828 513d
00000280: d6fa 153c 1432 babb 2232 d03a d352 10bb
00000290: beff ea3b 5242 5cbc 522f c1bb 25c8 fd3a
000002a0: 480d 83ba 2cbc f6bb cfab 90bb d2bd 4f3c
000002b0: 5604 083c 8f4e 5c3b 7b8e d4bb a5d0 c9ba
000002c0: 66af 16bc f030 9f3b da70 b33a d340 173c
000002d0: fbdf 053c 5917 febb f620 443b cc32 43bc
000002e0: af3c c6bb f745 a73b 508a 80bb de20 2ebc
000002f0: 1ddd 053c 41c3 a63b e764 243c 4b43 1f3c
00000300: 9e24 9f3d 4711 47bd 6694 5e3c 5cc2 9abc
00000310: e43e 7a3d 7a0b e9bd 3bb4 4dbd cb3f 883c
00000320: a872 0cbc 8421 83bd aeac 1abd 0a19 dc3d
00000330: 3337 903d 4210 ec3c 9aac 62bd 77a7 57bc
00000340: a125 a0bd b289 293d 938f 413c f1ca a03d
00000350: a190 8e3d a4b5 86bd ae05 d23c 63d5 cebd
00000360: 831e 54bd c31d 333d 07e2 09bd fe4b b8bd
00000370: 5fa0 8e3d e1e1 313d 6ca9 ae3d f2f2 a83d
00000380: ccf7 963d ec05 3cbd 291a 523c 8fb1 91bc
00000390: bc6a 6d3d 05df ddbd c9fa 42bd 21f6 7f3c
000003a0: 1e16 04bc bba3 78bd bea0 11bd d75a d13d
000003b0: 045c 893d 73db dd3c f136 56bd 8347 4bbc
000003c0: 2be7 97bd 15c5 203d edf4 343c a6c1 983d
000003d0: 10e8 863d d1f7 7fbd 4080 c53c c7a2 c4bd
000003e0: 3b0d 48bd ca59 283d e788 01bd f63c afbd
000003f0: 150f 873d fcf0 273d 09ab a53d 9c8d a03d
0.097718544 -0.06115681 0.017032601 -0.023652647 0.077030115 -0.14346002 -0.063210584 0.020883424
-0.010749983 -0.08062198 -0.047297888 0.13556193 0.08893187 0.036078174 -0.06931605 -0.0164809
-0.09839005 0.05217389 0.014752569 0.09915387 0.08744499 -0.0828646 0.032127924 -0.12730466
-0.06508442 0.054670654 -0.042186905 -0.11335482 0.087607235 0.05442379 0.10722283 0.10401898
0.10564163 -0.064944506 0.018281123 -0.02532514 0.082356796 -0.15515946 -0.06745207 0.022108497
-0.011396986 -0.08632408 -0.05062235 0.1460468 0.09541361 0.038416408 -0.07496597 -0.017748687
-0.10583002 0.05539078 0.015658703 0.10558027 0.09383229 -0.08909995 0.034206256 -0.13729277
-0.06914372 0.058543112 -0.044735983 -0.1227313 0.0937186 0.058582593 0.11582847 0.11176012
0.12540098 -0.07830434 0.021863285 -0.030343719 0.098936744 -0.18435016 -0.0809038 0.026750877
-0.013765298 -0.10327985 -0.060613587 0.17414734 0.114144035 0.046186704 -0.089038976 -0.021162357
-0.12622076 0.06672279 0.018930933 0.12696165 0.11208529 -0.106220394 0.04113963 -0.1634681
-0.08333593 0.070052154 -0.053995892 -0.1455413 0.11231354 0.06979588 0.13777727 0.13346003
0.033698846 -0.02094039 0.0057787397 -0.008113589 0.026499977 -0.0495599 -0.021615783 0.0071189106
-0.003651834 -0.02767896 -0.01617308 0.046795733 0.03062658 0.012319478 -0.023902033 -0.005598711
-0.033888098 0.017825259 0.0050498624 0.034062084 0.030069616 -0.028504204 0.010950838 -0.04393458
-0.022278296 0.018709956 -0.01440778 -0.039108988 0.030140465 0.018626979 0.036996055 0.035850953
0.047898885 -0.029873077 0.008279003 -0.011541252 0.03793916 -0.07093348 -0.03078228 0.010184654
-0.005209144 -0.039349366 -0.023017434 0.06696009 0.043776713 0.017536499 -0.034030303 -0.008018627
-0.048241455 0.025345618 0.0072021037 0.048593957 0.042767797 -0.040520567 0.015597931 -0.06276265
-0.031788155 0.026623838 -0.020490281 -0.055672456 0.042919748 0.02653173 0.052872177 0.051064402
0.009154042 -0.0056822393 0.0015884081 -0.0022022023 0.0071716 -0.013443546 -0.0058955336 0.0019362016
-0.0009998465 -0.007529756 -0.0044150124 0.012679534 0.008301815 0.003361616 -0.0064867116 -0.0015397264
-0.009197092 0.0048581287 0.0013690249 0.009231764 0.008171077 -0.007754248 0.0029926873 -0.011913966
-0.0060497145 0.005104776 -0.003922738 -0.010627953 0.008170393 0.005089194 0.010033823 0.009720634
0.07770656 -0.04860046 0.013585186 -0.018891506 0.061095133 -0.11379142 -0.05022071 0.016631981
-0.008572258 -0.06402877 -0.037762336 0.10746963 0.070417784 0.028816346 -0.055340387 -0.013162485
-0.07819677 0.041391082 0.011814016 0.07851208 0.069611795 -0.06577614 0.025637474 -0.10099294
-0.05178691 0.043729555 -0.033662822 -0.08998869 0.06964182 0.043428306 0.085284084 0.08249463
0.07371482 -0.045904085 0.01282362 -0.017784862 0.057963118 -0.10833553 -0.04760245 0.015622647
-0.008061914 -0.06070302 -0.035553686 0.102224045 0.06707004 0.02708218 -0.05229849 -0.012407186
-0.07417139 0.039250452 0.011044723 0.074588105 0.06587231 -0.062492196 0.024109006 -0.0960136
-0.048840743 0.041101255 -0.0316247 -0.08556549 0.065946735 0.041001305 0.08089263 0.0783951

linear.fc.weight f4 [98, 1]
00000000: b29a fe3e d8a7 073f c568 143f f3ef 263e
00000010: 174d 703e 377e 4a3d 56c0 a13e 051e 983e
00000020: 5664 9b3d 4eb2 e53c 2b3c ef3c dfd7 de3c
00000030: 2b05 573c 8d89 533c e230 543c bf4e 503c
00000040: a7c9 4f3e dc42 103e e8b4 2b3e cd9b 1c3e
00000050: 9eff 403e ce89 513e b4a9 323e 1e30 f23c
00000060: ec26 c33c 6b52 ac3c 0fb0 d73c 9b85 ef3c
00000070: 1e2f 083d 3958 c83c a02b fe3b de5f 413b
00000080: cfee df3c 8f2f 543c d13c 2f3a c16b a139
00000090: 240c 3d3a 338b 493c b074 8939 a148 973b
000000a0: a5fb 9b3b 49da c83a 1e38 d93b ad27 073d
000000b0: 2211 013d 5edd 943b 38f3 8f3c cb18 d43c
000000c0: 1bce 1f3b b986 ce3c f20d 9f3c 22a3 863b
000000d0: b526 1f3b 59b0 ed3b 20a2 903a 2a79 213b
000000e0: 9ca5 d93c 4cb5 ea3a 7302 003d 0463 a13c
000000f0: 91a0 d63b 6d91 b53b e5b2 ba3c 60e9 523b
00000100: 2ab3 4c3b 20cf b639 b64a 4d3a 9742 7b3c
00000110: 3d2c 153d 7494 873c 8f86 473c d04b 3b3c
00000120: 1667 873b 4765 133c 7061 f439 9bc1 133d
00000130: 8cc2 c43a f658 2a39 28e6 c73c 8196 0c3d
00000140: 56b5 b93c 5ed2 b53c ad59 743b cc48 d93a
00000150: 948b 143d 4658 053d c1dd 8b3c c385 a23b
00000160: 4c26 013c 195d 913c 4e17 c63c 7fff 183c
00000170: fd72 fb3b 0ce3 5e3c df62 393c c53d 083c
00000180: d2b5 b039 832a 7e3c
0.49727398 0.52990484 0.57972366 0.16302471 0.23466907 0.049436774 0.31592053 0.29710403
0.07587497 0.028039124 0.029203495 0.027202545 0.013123791 0.012911213 0.012951108 0.012714087
0.20291768 0.14088005 0.16768229 0.15293808 0.1884751 0.20462725 0.17447549 0.02956396
0.02382227 0.021035394 0.026329068 0.029238513 0.03324806 0.02445613 0.0077566653 0.0029506604
0.027335552 0.012950792 0.00066847826 0.00030788596 0.0007211587 0.012301254 0.00026217615 0.0046168123
0.004760223 0.0015323843 0.006629004 0.032996822 0.03151048 0.0045429906 0.01757203 0.025890728
0.0024384323 0.025210725 0.01941583 0.0041088024 0.0024284546 0.0072536883 0.0011034645 0.002463887
0.026568227 0.0017906814 0.031252336 0.019700535 0.0065499027 0.0055410177 0.022790382 0.003218256
0.003123472 0.00034868065 0.0007831262 0.0153357005 0.036419142 0.01655028 0.012178077 0.011431649
0.004132162 0.008996314 0.00046611903 0.03607331 0.0015011593 0.00016245604 0.02440174 0.03432322
0.022669476 0.022195037 0.0037284896 0.0016577481 0.036265925 0.032554887 0.017073514 0.0049597933
0.007882666 0.017744588 0.024181034 0.009338259 0.00767362 0.013603937 0.011315077 0.008315508
0.00033704803 0.015513065

mlp.mlp.0.weight f4 [64, 160]
00000000: 4d29 2800 d65c 1480 6f28 2b00 f3cc 4280
00000010: facd 0200 47d6 1480 4823 3f80 06cc 3b80
00000020: e883 2880 fc32 0b00 1460 0e00 ba01 2b80
00000030: e23c 2480 04e4 2b80 cd0c 1700 429d 3000
00000040: b4a2 4c00 d7b3 1c80 cf9c 3980 2801 3180
00000050: 39cb 1e00 8522 0e80 f653 4a00 fcdf 2a80
00000060: 5652 4e80 ae13 2a80 0e3d 1a80 ee09 1d80
00000070: 780e 4880 7a15 4400 0763 0b80 97be 3000
00000080: 6231 4900 1858 1880 e630 4400 405e 4c80
00000090: c7b6 3a80 1d9e 1500 9ad6 3080 be40 1800
000000a0: 017c 2d00 646a 1480 77d1 3400 191c 0b00
000000b0: 9dc3 5000 6c7a 4380 5a5d 3800 d8a0 1b80
000000c0: 0473 4e00 ab4d 2880 b866 1880 846e 4b00
000000d0: d9b7 0d00 5a63 1100 c263 4300 bf23 4000
000000e0: b502 5180 1486 0400 7175 4880 5c0c 2a00
000000f0: 8076 3600 19bb 0a80 2fde 2d80 8752 0280
00000100: 3df2 4e00 cc6e 3d00 6d8c 0d80 9111 3600
00000110: f3d1 3b80 7826 0900 4301 0d80 7613 5080
00000120: 4ddf 0400 092b 4e80 742b 0880 3b13 2880
00000130: 01f3 2600 78ae 2b80 f01a 4d80 c28c 0280
00000140: 2434 4f80 3d4b 2980 9548 4580 831b 0080
00000150: 4dbd 1900 d871 2f80 4610 0200 0e75 0000
00000160: fd62 0180 cd14 2380 a029 1800 5da9 2880
00000170: b107 4d80 fdf1 3b00 5c66 4b00 57e2 0100
00000180: d1e3 4c80 8a5f 1f00 e2b8 3400 18a7 2500
00000190: 1e2d 1a00 e170 4180 3fee 2180 705d 0f00
000001a0: 7c51 4780 d7e7 0e80 fef1 2d00 3a8b 1700
000001b0: 2aad 0400 14df 4b80 0e4a 4c80 2e5f 3380
000001c0: b42e 2f00 8763 1500 9c8b 4c80 abe1 1080
000001d0: 387f 2900 f25b 2280 9a5b 0b80 1607 4980
000001e0: f989 1800 fdfe 3f80 2cae 0980 4c9e 4d00
000001f0: 7cdd 3900 356a 0500 d375 3b00 67a0 3880
00000200: d2d9 1b00 1beb 2f80 b4ce 1300 f362 4000
00000210: 15be 1600 1fef 3a00 87b6 4200 4c38 4680
00000220: 40af 2680 267a 3c80 8eed 0a00 7323 4b00
00000230: 7b1c 0880 4ae6 4d00 d149 0e00 0b8d 0c80
00000240: 80bf 4780 d163 1300 ee36 4d00 a112 3b80
00000250: 098d 1500 2d80 5000 0869 5100 6fa5 0300
00000260: 762c 4900 c467 1480 5210 1f80 33cb 4800
00000270: c0b5 4a80 657e 2780 2bb4 0000 5390 1800
00000280: c3e6 0380 85e1 2480 f9ef 4600 5d90 3c00
00000290: f36e 1a00 a784 2e80 ad1a 1600 f425 1180
000002a0: ee9d 2a00 d01b 1600 b9fb 3b00 98fa 2100
000002b0: e844 2800 3742 4b00 b6f0 2e80 bdae 1700
000002c0: 22a3 3080 86be 0400 9139 1f00 cbcc 0d00
000002d0: e25d 0680 f70e 0700 ebf8 0200 7a21 1100
000002e0: 077a 0c00 258d 2d80 ecc0 0580 a9b6 0300
000002f0: 1b5e 0c00 3426 1780 7bb5 0980 a5f8 4c00
00000300: f07d 0600 cbf9 4a80 edaf 4280 6179 1600
00000310: 2038 0f80 18cf 4c00 2b2e 4e00 9a5a 0580
00000320: 977d 3880 389e 0a00 86f2 4000 8373 4c00
00000330: 56a7 2180 b8a5 4080 97cb 4680 6cc6 3000
00000340: 6e14 1d80 52fe 4e00 7f63 2f80 35e8 0180
00000350: 2163 4c80 20b4 2080 c94a 4b80 47cc 3a80
00000360: 4c88 2700 b624 0680 7110 1100 a3a2 0c80
00000370: 187a 4a00 4b21 3800 0283 0780 cbd7 0180
00000380: 5690 3300 6ad9 1d00 c475 3b80 88f3 1280
00000390: 44e5 2500 55f0 1d80 b184 1e00 8771 1180
000003a0: f808 2200 cfd5 1980 e263 0c80 0e3c 0c00
000003b0: 5461 1780 8e4c 1b80 0af2 3880 730b 1c80
000003c0: a71e 1200 94e1 2300 9ef5 0f00 2f5f 0900
000003d0: 3c75 4a80 f194 1e00 f347 2b00 68b7 4380
000003e0: 75a7 3b00 5747 0100 bc5c 2d00 307c 4d80
000003f0: af71 3f00 5087 1b00 9666 3e80 90db 2680
3.688236e-39 -1.870013e-39 3.963431e-39 -6.134665e-39 2.57561e-40 -1.913578e-39 -5.798293e-39 -5.491484e-39
-3.720739e-39 1.02848e-39 1.320163e-39 -3.949546e-39 -3.327918e-39 -4.030723e-39 2.116808e-39 4.464517e-39
7.037865e-39 -2.635908e-39 -5.290876e-39 -4.500354e-39 2.827967e-39 -1.29808e-39 6.825946e-39 -3.937441e-39
-7.192705e-39 -3.86415e-39 -2.409625e-39 -2.666791e-39 -6.617346e-39 6.252518e-39 -1.045715e-39 4.476475e-39
6.721706e-39 -2.235654e-39 6.262355e-39 -7.013308e-39 -5.392027e-39 1.985266e-39 -4.485088e-39 2.227277e-39
4.177082e-39 -1.874876e-39 4.850588e-39 1.02027e-39 7.417013e-39 -6.196895e-39 5.176276e-39 -2.537258e-39
7.204429e-39 -3.701282e-39 -2.2409e-39 6.927308e-39 1.259814e-39 1.596844e-39 6.188765e-39 5.890295e-39
-7.439646e-39 4.1544e-40 -6.654286e-39 3.861525e-39 5.001627e-39 -9.85473e-40 -4.212302e-39 -2.13276e-40
7.250067e-39 5.641712e-39 -1.244237e-39 4.965418e-39 -5.49361e-39 8.4032e-40 -1.194314e-39 -7.353821e-39
4.47447e-40 -7.178607e-39 -7.50272e-40 -3.680318e-39 3.576922e-39 -4.011514e-39 -7.080997e-39 -2.34165e-40
-7.273709e-39 -3.792246e-39 -6.362687e-39 -9.87e-42 2.363796e-39 -4.357108e-39 1.89509e-40 4.1991e-41
-1.27346e-40 -3.221704e-39 2.218984e-39 -3.734176e-39 -7.074092e-39 5.505103e-39 6.924382e-39 1.73031e-40
-7.061223e-39 2.881173e-39 4.841769e-39 3.457855e-39 2.403908e-39 -6.0098e-39 -3.116038e-39 1.411052e-39
-6.549551e-39 -1.368865e-39 4.219408e-39 2.162161e-39 4.29462e-40 -6.967688e-39 -7.006064e-39 -4.717754e-39
4.333022e-39 1.964249e-39 -7.02958e-39 -1.550322e-39 3.810893e-39 -3.15539e-39 -1.043051e-39 -6.706533e-39
2.253547e-39 -5.877109e-39 -8.89e-40 7.12812e-39 5.314077e-39 4.97277e-40 5.460562e-39 -5.20033e-39
2.557698e-39 -4.400608e-39 1.819026e-39 5.912968e-39 2.08857e-39 5.412239e-39 6.126621e-39 -6.44868e-39
-3.552617e-39 -5.553948e-39 1.003574e-39 6.900379e-39 -7.44901e-40 7.153945e-39 1.312177e-39 -1.152623e-39
-6.589017e-39 1.780682e-39 7.091038e-39 -5.424977e-39 1.97914e-39 7.39282e-39 7.476353e-39 3.34853e-40
6.719941e-39 -1.873934e-39 -2.852755e-39 6.68505e-39 -6.861026e-39 -3.626926e-39 6.4632e-41 2.255826e-39
-3.58288e-40 -3.386979e-39 6.51457e-39 5.561918e-39 2.427524e-39 -4.27202e-39 2.02995e-39 -1.574818e-39
3.913745e-39 2.030358e-39 5.508595e-39 3.120467e-39 3.698139e-39 6.911416e-39 -4.310784e-39 2.1749e-39
-4.466625e-39 4.35689e-40 2.867551e-39 1.267327e-39 -5.84692e-40 6.48217e-40 2.72966e-40 1.573213e-39
1.145801e-39 -4.18323e-39 -5.28385e-40 3.41033e-40 1.135785e-39 -2.125921e-39 -8.91622e-40 7.068695e-39
5.96191e-40 -6.885436e-39 -6.124253e-39 2.063923e-39 -1.397666e-39 7.053789e-39 7.17973e-39 -4.91679e-40
-5.187841e-39 9.75113e-40 5.964473e-39 7.020936e-39 -3.0906e-39 -5.93692e-39 -6.501519e-39 4.479284e-39
-2.670558e-39 7.254402e-39 -4.351961e-39 -1.75136e-40 -7.015058e-39 -3.003353e-39 -6.91449e-39 -5.39974e-39
3.630478e-39 -5.64182e-40 1.567101e-39 -1.160369e-39 6.839626e-39 5.154731e-39 -6.89845e-40 -1.69247e-40
4.735388e-39 2.741223e-39 -5.46054e-39 -1.740401e-39 3.480158e-39 -2.749444e-39 2.802666e-39 -1.60193e-39
3.125624e-39 -2.372587e-39 -1.137857e-39 1.12357e-39 -2.147131e-39 -2.507021e-39 -5.229615e-39 -2.575501e-39
1.664035e-39 3.295165e-39 1.465643e-39 8.60665e-40 -6.837882e-39 2.808495e-39 3.974737e-39 -6.218772e-39
5.478367e-39 1.17427e-40 4.165864e-39 -7.115883e-39 5.826418e-39 2.5281e-39 -5.730602e-39 -3.568513e-39

mlp.mlp.0.bias f4 [64]
00000000: 4bd2 0180 ddad 5080 52ba 0c00 ae6e 0f00
00000010: 5ec7 2a00 30c2 0d80 44ff 87b3 ad4c 5e33
00000020: 392f 4f00 2357 3d80 d33c 3700 a8a5 f5b2
00000030: 3d0b c933 a715 0c00 c0b1 5300 310b 0a00
00000040: 0dad 4a80 cece 1f80 7b0a 3800 6bb1 1c32
00000050: 7554 41b2 af2a 1700 f3bc 4534 5123 3033
00000060: e4c8 69b3 82fa 1400 3ba3 2d00 934c e633
00000070: 401b 3880 27ea 1e80 42d7 7d33 794b 4f80
00000080: 0aad a4b3 7d60 01b3 2297 95b3 0c76 0c80
00000090: d763 2334 bbbc a133 ffcc 5100 ddd1 5080
000000a0: deea 3580 b380 4380 fb19 2b00 a5ed 8e32
000000b0: d756 2080 33d5 7d32 ad2d abb4 ddbf 0c00
000000c0: c72f 8633 d049 4600 759f 4d00 6314 abb3
000000d0: 391e de33 70fa 5180 1aa7 aa33 4ea3 2700
000000e0: 8a59 4880 3ab3 8032 4a5d 4880 768a 3333
000000f0: c8b4 99b3 a5b3 b133 a0b4 1f33 e9cf 2900
-1.67274e-40 -7.40921e-39 1.168865e-39 1.417237e-39 3.92861e-39 -1.263523e-39 -6.33286e-08 5.175814e-08
7.271944e-39 -5.633224e-39 5.072772e-39 -2.8597086e-08 9.361836e-08 1.109793e-39 7.686111e-39 9.2237e-40
-6.857906e-39 -2.921088e-39 5.146547e-39 9.120735e-09 -1.1253282e-08 2.127528e-39 1.8415794e-07 4.1010313e-08
-5.443225e-08 1.926575e-39 4.191153e-39 1.07241384e-07 -5.152563e-39 -2.839063e-39 5.910193e-08 -7.282079e-39
-7.668321e-08 -3.012291e-08 -6.965844e-08 -1.144373e-39 1.521688e-07 7.5314766e-08 7.512214e-39 -7.422124e-39
-4.951536e-39 -6.199147e-39 3.958246e-39 1.6639044e-08 -2.969888e-39 1.4775014e-08 -3.1884466e-07 1.170854e-39
6.248552e-08 6.454964e-39 7.128536e-39 -7.966516e-08 1.0343178e-07 -7.528515e-39 7.9466375e-08 3.640167e-39
-6.644276e-39 1.4982664e-08 -6.645622e-39 4.1802615e-08 -7.1575016e-08 8.274882e-08 3.718435e-08 3.83984e-39

mlp.mlp.1.weight f4 [64]
00000000: b9a6 1d00 500a 4580 a951 3f80 a186 1880
00000010: 34cf 3c00 8112 5000 af1a f83c ac89 eb3c
00000020: 856b 1380 39e9 4080 1b6c 1700 d689 f53c
00000030: 0d55 ec3c abd0 3100 215f 0280 6385 3200
00000040: a8ef 0300 5e1e 4880 6318 4f80 3551 033d
00000050: b469 ec3c c414 2280 290b 003d 80b4 ff3c
00000060: a3e1 fa3c 8dab 0a80 48d0 3d00 165a 0e3d
00000070: a1fc 0500 1059 3a00 d36b fd3c f311 5080
00000080: 3ee1 003d 8ef2 f23c d874 e73c 58d3 4b00
00000090: c300 f83c 4599 fe3c d036 0b00 15ec 4200
000000a0: 4803 2a80 090d 4980 b0a8 1780 e8fb f23c
000000b0: 234c 0180 a50f c93c 4215 fb3c 8a6d 4480
000000c0: 5381 f13c 0c83 3f00 7b0a 1980 d253 023d
000000d0: efde f83c 573f 2a00 2208 d53c b0e0 4c00
000000e0: 467f 0800 fb34 033d ea3b 4380 12f1 0c3d
000000f0: fdfc de3c e04c e33c 693c f83c ce80 3e80
2.723038e-39 -6.340349e-39 -5.81493e-39 -2.252348e-39 5.58446e-39 7.353478e-39 0.030286161 0.02875217
-1.783445e-39 -5.961136e-39 2.150997e-39 0.029972952 0.02884915 4.574795e-39 -2.17797e-40 4.639625e-39
3.61479e-40 -6.62305e-39 -7.263753e-39 0.032059867 0.028858997 -3.129856e-39 0.031260643 0.031213999
0.03062517 -9.79896e-40 5.676682e-39 0.03475388 5.49804e-40 5.358408e-39 0.030935204 -7.353279e-39
0.031464808 0.029656675 0.028253958 6.963478e-39 0.0302738 0.031078944 1.029853e-39 6.145833e-39
-3.858268e-39 -6.708667e-39 -2.17273e-39 0.029661134 -1.19148e-40 0.024543593 0.030649785 -6.284109e-39
0.029480612 5.832647e-39 -2.299647e-39 0.03181822 0.03037974 3.879813e-39 0.026004855 7.0601e-39
7.80341e-40 0.032032948 -6.174471e-39 0.03440959 0.027220244 0.027746618 0.030302243 -5.740007e-39

mlp.mlp.1.bias f4 [64]
00000000: 8535 4180 4ea4 2f00 d79f 0280 cbb0 1c80
00000010: 0b51 3700 e80a 3a00 b0bc 9d3c 16c9 923c
00000020: 01d9 4900 fd57 2480 78fb 1d80 710b 9c3c
00000030: 4fcb 923c 150d 4b80 e4c5 2580 e537 3380
00000040: c5ad 3900 5bf4 3a00 6533 1c00 3c50 a93c
00000050: 5ebb 933c b7a2 3980 71c3 a53c 782a a43c
00000060: 1303 a23c 95dc 1a80 8e2a 3f00 b2c6 b73c
00000070: 2711 3700 07f0 4880 cb7d a43c 60c1 0700
00000080: 03b4 a43c 2409 9a3c 9887 913c 8276 4f80
00000090: 059e 9d3c 4e58 a43c 3541 4000 8869 3a00
000000a0: f271 3d80 d86f 1b00 ad41 2b80 acb7 9a3c
000000b0: 9bb9 3300 afd5 703c 229e 9d3c 7f14 2d00
000000c0: c4c8 9a3c 105f 4d80 4673 3980 ed58 a53c
000000d0: 9b11 9f3c 02c5 1d00 9f4c 813c 7daf 3e00
000000e0: 614a 4880 5547 a83c 7193 3600 21ee b93c
000000f0: fb3e 893c 2458 8c3c 6af9 9e3c 56fe 4200
-5.988506e-39 4.37521e-39 -2.41011e-40 -2.634815e-39 5.080025e-39 5.330371e-39 0.019255012 0.01791815
6.781838e-39 -3.337642e-39 -2.75344e-39 0.019048424 0.01791921 -6.892355e-39 -3.468903e-39 -4.703661e-39
5.29696e-39 5.414117e-39 2.589831e-39 0.020668142 0.01803368 -5.292994e-39 0.020234795 0.020039782
0.019776857 -2.466853e-39 5.800902e-39 0.022433612 5.057105e-39 -6.698261e-39 0.020079514 7.12218e-40
0.020105368 0.018803187 0.017764851 -7.297517e-39 0.019240389 0.020061638 5.900864e-39 5.364316e-39
-5.642841e-39 2.51968e-39 -3.972486e-39 0.01888641 4.750193e-39 0.014699384 0.019240443 4.13995e-39
0.01889456 -7.105435e-39 -5.275976e-39 0.020184005 0.019417575 2.733902e-39 0.015783606 5.756754e-39
-6.638838e-39 0.020541826 5.012009e-39 0.022696557 0.016753664 0.017131872 0.01940604 6.152381e-39

mlp.mlp.1.running_mean f4 [64]
00000000: 93d6 4f00 4cfd 0780 b94a 3000 3739 3600
00000010: 74fe 0100 4fcf 1300 c46f 4fbc ee4a 49bc
00000020: b109 2c00 dd06 2180 ba0d 5700 caf3 4ebc
00000030: 9333 49bc c07d 4700 6e17 3b00 bcc7 1e00
00000040: cd5a 2880 ddc6 0a80 6df5 0980 481f 5abc
00000050: ceb7 47bc f9e2 2000 5ac6 54bc dc6c 52bc
00000060: 2372 51bc b605 4c80 4988 0980 8c47 67bc
00000070: d464 0880 e77c 2180 2184 50bc cc91 0300
00000080: e210 57bc a0f6 4abc 9654 44bc f987 4280
00000090: 59a0 4dbc db4b 55bc 9db0 2400 d75e 3580
000000a0: 4b8e 1580 f223 1b00 cbb1 0580 fe7b 4abc
000000b0: 75c3 0680 e797 2dbc 7483 51bc 57b0 1580
000000c0: a321 4dbc fef1 0b00 a3fe 1000 597f 57bc
000000d0: 6ddf 50bc 363d 0580 b638 37bc 3472 1a80
000000e0: e96c 2d80 3427 58bc f293 4d80 afff 65bc
000000f0: a9d2 3ebc 0f4e 44bc 3d28 4fbc 240a 2100
7.331979e-39 -7.33714e-40 4.434909e-39 4.979642e-39 1.83116e-40 1.819243e-39 -0.012660924 -0.012285931
4.044238e-39 -3.033033e-39 7.994612e-39 -0.012631366 -0.012280363 6.565431e-39 5.426699e-39 2.826716e-39
-3.705993e-39 -9.89694e-40 -9.14562e-40 -0.013313122 -0.012189819 3.020158e-39 -0.012986744 -0.012843337
-0.01278356 -6.981546e-39 -8.7541e-40 -0.014116179 -7.70854e-40 -3.075378e-39 -0.0127268145 3.27809e-40
-0.013126584 -0.012387902 -0.0119830575 -6.10992e-39 -0.012550437 -0.013018574 3.369435e-39 -4.901303e-39
-1.97959e-39 2.492453e-39 -5.22958e-40 -0.012358664 -6.2113e-40 -0.010595298 -0.0127876885 -1.991804e-39
-0.012520227 1.097001e-39 1.560714e-39 -0.013152921 -0.012748581 -4.81136e-40 -0.011182955 -2.428691e-39
-4.171667e-39 -0.0131929405 -7.124406e-39 -0.0140380105 -0.011646905 -0.011981501 -0.012643871 3.034209e-39

mlp.mlp.1.running_var f4 [64]
00000000: 0400 0000 0400 0000 0400 0000 0400 0000
00000010: 0400 0000 0400 0000 d57c 3137 d034 2137
00000020: 0400 0000 0400 0000 0400 0000 02cf 2f37
00000030: 01f6 2437 0400 0000 0400 0000 0400 0000
00000040: 0400 0000 0400 0000 0400 0000 1edc 3c37
00000050: a31c 2437 0400 0000 db33 3637 d897 3237
00000060: a3c2 3337 0400 0000 0400 0000 589c 4f37
00000070: 0400 0000 0400 0000 10d5 3737 0400 0000
00000080: f4f8 3237 5acf 2a37 db81 2037 0400 0000
00000090: 1292 2d37 1d45 2f37 0400 0000 0400 0000
000000a0: 0400 0000 0400 0000 0400 0000 3692 2c37
000000b0: 0400 0000 d008 0937 cfd4 3037 0400 0000
000000c0: 82ee 2837 0400 0000 0400 0000 31ce 3437
000000d0: 59de 3137 0400 0000 32a7 1137 0400 0000
000000e0: 0400 0000 394c 3937 0400 0000 1888 4c37
000000f0: 6874 1a37 e8fb 1d37 0812 2f37 0400 0000
6e-45 6e-45 6e-45 6e-45 6e-45 6e-45 1.0579087e-05 9.608644e-06
6e-45 6e-45 6e-45 1.0479011e-05 9.832439e-06 6e-45 6e-45 6e-45
6e-45 6e-45 6e-45 1.1256923e-05 9.781829e-06 6e-45 1.0860119e-05 1.0644981e-05
1.0714549e-05 6e-45 6e-45 1.2374563e-05 6e-45 6e-45 1.09572575e-05 6e-45
1.0667591e-05 1.0181067e-05 9.5669775e-06 6e-45 1.0345613e-05 1.04469045e-05 6e-45 6e-45
6e-45 6e-45 6e-45 1.0286041e-05 6e-45 8.167888e-06 1.0539966e-05 6e-45
1.0069112e-05 6e-45 6e-45 1.0776844e-05 1.06017915e-05 6e-45 8.681602e-06 6e-45
6e-45 1.1044606e-05 6e-45 1.2191034e-05 9.206218e-06 9.416581e-06 1.0435011e-05 6e-45

mlp.mlp.4.weight f4 [64, 64]
00000000: 9eea 3800 23c6 4500 2606 0080 723b 4d80
00000010: e236 5000 1cb5 1d00 7ef5 a63b ae77 a63b
00000020: 5e5b 4080 76a0 3500 0c46 0100 88de ac3b
00000030: afd9 993b 99f0 0700 879b 2380 1c6c 3b80
00000040: 7251 4500 bca0 1180 9bb1 2200 ccc5 ba3b
00000050: 2781 9f3b f589 0080 c204 b83b cc64 ae3b
00000060: a563 ab3b 80a9 3c80 41b6 4480 e32f c83b
00000070: 6216 1b80 6fcf 1000 bf86 af3b 335d 2700
00000080: a832 b53b 8543 aa3b e742 a13b 9595 4200
00000090: cf16 b13b d135 b43b 5075 3a00 6b35 0b00
000000a0: 3a55 0980 7356 1b00 ad09 4700 80f9 a63b
000000b0: 8127 0980 bcac 8b3b 17d7 a73b 7954 5200
000000c0: d8dd a73b 2df0 2a00 a473 4f00 394a ae3b
000000d0: 921c a53b 2a36 0280 7696 8e3b bfb5 0e00
000000e0: 6d23 3380 da94 b53b f9fa 4e80 fdaf c53b
000000f0: 08aa 983b 7fb7 8f3b b96e b03b 4ed4 2f80
00000100: 7efa 3a00 b506 3080 61d7 2000 2b5c 4a00
00000110: 8203 4d80 8cf6 1a80 bbc7 c63b 1b58 b13b
00000120: 0a14 4300 093c 1000 cadb 3180 684d bb3b
00000130: a7a3 b23b 91bf 4b80 2d4f 0800 f850 0180
00000140: 0fed 0000 29f4 1c80 4436 1200 b292 d23b
00000150: b152 b53b de69 4880 87bc ce3b 7b19 cb3b
00000160: baee c33b e6de 1400 dda1 2380 6176 d63b
00000170: b10d 1380 0324 2c00 9c7b cc3b 3c34 0080
00000180: a6bd b83b 8574 c23b b525 a93b 4503 3980
00000190: a9f8 bf3b 5f3a bc3b 7275 1e00 dbdc 2a00
000001a0: b442 0000 633d 4900 d952 0f80 4936 bc3b
000001b0: 9409 1480 6288 9f3b 70dd c13b fe9e 2980
000001c0: 2559 ba3b 5b48 1400 f852 2680 a51b ca3b
000001d0: 1830 c13b c635 2080 37af a53b e6d9 4880
000001e0: df75 4080 33fb c73b 40c5 4680 37a3 d43b
000001f0: b1a9 af3b 9551 bd3b 8b91 bf3b 595a 0100
00000200: ca4d 1b80 cdaf 4980 360c 4980 e7bb 2a00
00000210: 29d4 1680 3d85 1a80 7ed8 be3b d66a b73b
00000220: 1585 3800 9d43 1880 1ecf 1900 65e3 ba3b
00000230: 496f ba3b 434e 2f80 fccb 4100 b385 4800
00000240: 2198 4a80 e0b1 3580 6ad6 4180 96ad d03b
00000250: 0137 b93b 62d7 2580 1248 ca3b ebf5 cb3b
00000260: ba89 c73b 145b 2780 47cc 2380 2300 d83b
00000270: a1ca 3b80 bd11 1000 4ffd c53b 1b6d 2600
00000280: ac75 c33b 2d53 bf3b 461f ae3b ba37 4d00
00000290: 363e bd3b 1a4d bb3b 930f 3d80 b5c3 5080
000002a0: 2e48 3680 00dd 4800 6816 1c80 fd7f bf3b
000002b0: cadb 0180 6178 a13b 05da c63b e869 0480
000002c0: 2e7e b83b 1f5f 3f00 8285 4080 5589 cb3b
000002d0: 49e3 c53b efb3 4800 927b b33b 448d 4280
000002e0: a3f9 4c80 b28b c43b 33f6 1280 4dd4 d73b
000002f0: 8229 ab3b e226 a53b 3150 c53b 7b74 4600
00000300: 354a 4380 c81c 2680 bb77 4080 08e6 4680
00000310: 8cd5 0580 5b43 3480 cbc0 f237 afdb e437
00000320: 9e20 1380 2777 4580 f79a 4c80 06f6 f637
00000330: 6e99 e737 31ad 0e80 df26 0780 6383 3700
00000340: b93c 0a80 0e58 0980 4253 4400 d531 0738
00000350: 5517 ea37 dc7d 4500 08fd f737 da3f 0138
00000360: b0ad f837 1297 4b80 6503 1280 3d10 0f38
00000370: c833 0980 5872 0f00 f4e3 f537 c9ce 4f80
00000380: eb8c 0038 14cc f037 9196 e037 c563 2b80
00000390: f822 f637 c60e fb37 5c86 4e00 1751 0480
000003a0: f256 0e80 1bde 4980 c8f0 0780 d8e5 ee37
000003b0: 55c2 0380 0955 be37 9795 f437 33fd 1e00
000003c0: 803a f237 ce84 4380 2de6 5200 f70f 0138
000003d0: dbab f737 51f4 3600 b299 ca37 1fb0 0b00
000003e0: 68ec 4700 f209 0538 0855 1580 79a7 0e38
000003f0: 5b71 da37 5674 df37 0a10 ef37 4adc 3280
5.226953e-39 6.407727e-39 -2.206e-42 -7.092658e-39 7.366528e-39 2.728199e-39 0.005095183 0.005080185
-5.910248e-39 4.924844e-39 1.16964e-40 0.005275551 0.0046951394 7.29159e-40 -3.270035e-39 -5.457077e-39
6.365866e-39 -1.618864e-39 3.18612e-39 0.0056998488 0.004867691 -4.949e-41 0.0056158016 0.0053220745
0.0052303844 -5.570935e-39 -6.310194e-39 0.006109224 -2.487588e-39 1.543781e-39 0.005356639 3.615018e-39
0.0055297203 0.0051960372 0.0049213055 6.114803e-39 0.0054043303 0.0054995795 5.368543e-39 1.029353e-39
-8.57093e-40 2.51057e-39 6.523791e-39 0.0050956607 -8.40691e-40 0.004262535 0.0051220763 7.560814e-39
0.0051228814 3.94325e-39 7.296488e-39 0.0053189066 0.0050388062 -2.03101e-40 0.0043514324 1.350895e-39
-4.696319e-39 0.005541426 -7.253201e-39 0.0060329423 0.004658941 0.004385888 0.005384293 -4.392429e-39
5.416318e-39 -4.41051e-39 3.015999e-39 6.82889e-39 -7.072592e-39 -2.476167e-39 0.00606629 0.0054121143
6.160167e-39 1.490904e-39 -4.578785e-39 0.0057160147 0.005451638 -6.956383e-39 7.63087e-40 -1.20882e-40
8.504e-41 -2.658982e-39 1.672506e-39 0.006426179 0.005533539 -6.650134e-39 0.0063090953 0.006198106
0.005979386 1.916671e-39 -3.272308e-39 0.0065448736 -1.749786e-39 4.05368e-39 0.0062403213 -1.8738e-41
0.005637842 0.0059343004 0.0051619657 -5.235796e-39 0.0058585 0.005744263 2.797196e-39 3.936319e-39
2.3929e-41 6.726013e-39 -1.407253e-39 0.005743776 -1.840146e-39 0.004868553 0.00591629 -3.822291e-39
0.0056868964 1.862666e-39 -3.519512e-39 0.0061678463 0.005895626 -2.958026e-39 0.0050562876 -6.690323e-39
-5.919756e-39 0.0061029433 -6.499245e-39 0.0064891833 0.005360805 0.0057775476 0.0058462075 1.24246e-40
-2.507464e-39 -6.767057e-39 -6.708372e-39 3.924497e-39 -2.09649e-39 -2.43552e-39 0.0058241477 0.0055974526
5.190529e-39 -2.228307e-39 2.370187e-39 0.005703377 0.0056895358 -4.344343e-39 6.042483e-39 6.660118e-39
-6.8504e-39 -4.931091e-39 -6.046225e-39 0.0063683493 0.005652309 -3.475178e-39 0.006173142 0.006224384
0.0060894163 -3.614257e-39 -3.287523e-39 0.006591813 -5.490984e-39 1.475731e-39 0.0060421596 3.528889e-39
0.0059649553 0.0058387727 0.0053137867 7.091324e-39 0.0057752384 0.0057159783 -5.607552e-39 -7.417046e-39
-4.98501e-39 6.691436e-39 -2.579432e-39 0.005844115 -1.70681e-40 0.0049276804 0.0060684704 -4.05334e-40
0.005630276 5.819759e-39 -5.925365e-39 0.0062114396 0.0060390574 6.676704e-39 0.005477377 -6.11182e-39
-7.06905e-39 0.0059980983 -1.741359e-39 0.0065865875 0.005223454 0.0050400356 0.0060215225 6.47027e-39
-6.179599e-39 -3.500074e-39 -5.920423e-39 -6.511004e-39 -5.35784e-40 -4.799608e-39 2.8938424e-05 2.7282016e-05
-1.756575e-39 -6.379393e-39 -7.035089e-39 2.9440049e-05 2.7608792e-05 -1.347826e-39 -6.56793e-40 5.098085e-39
-9.40138e-40 -8.58108e-40 6.274681e-39 3.2232918e-05 2.7905839e-05 6.381799e-39 2.9562521e-05 3.0815463e-05
2.9644783e-05 -6.941856e-39 -1.654257e-39 3.410898e-05 -8.45095e-40 1.418551e-39 2.9312425e-05 -7.329185e-39
3.064882e-05 2.870526e-05 2.6772994e-05 -3.984717e-39 2.9341769e-05 2.9928411e-05 7.211368e-39 -3.96432e-40
-1.316887e-39 -6.783668e-39 -7.29225e-40 2.847884e-05 -3.4522e-40 2.2689363e-05 2.9156725e-05 2.845896e-39
2.887589e-05 -6.20062e-39 7.613082e-39 3.0770865e-05 2.9524721e-05 5.046761e-39 2.4151846e-05 1.073371e-39
6.605127e-39 3.1718933e-05 -1.959049e-39 3.401141e-05 2.604041e-05 2.6637845e-05 2.8498489e-05 -4.6708e-39

mlp.mlp.4.bias f4 [64]
00000000: 5cc4 11b2 bbd5 0832 9200 a32f 5491 7a2d
00000010: f64c a90d c2be 3b80 306f 8931 8e44 3531
00000020: bcb9 b531 7870 ddb4 14af 4980 cc78 56b1
00000030: f129 a232 02cf 38b2 da38 b7b4 0a7d afb1
00000040: a619 1bb1 d725 4280 f141 1100 82ad 4380
00000050: f5aa ceb2 1299 9d32 7501 4000 b6e1 4700
00000060: e2b2 4332 773e 5432 3a45 2633 23cb 3a00
00000070: c4bb 5100 e21d 0a32 4ba5 02b2 808e 3080
00000080: e793 79b2 989a fe31 af11 5532 dd65 b7b2
00000090: e2c0 b2b4 0a0f 4732 b068 c6ac 3704 74b2
000000a0: d03c 0fb2 2752 9c32 c284 1100 8439 01b2
000000b0: bf91 7031 6a69 9f32 b8f9 c1b4 030b 84b2
000000c0: 75ae c7b4 84b8 b5b2 ad4c 3ab3 691e 1fb2
000000d0: 1f49 18af 2990 3680 5d47 00b0 4ead 0100
000000e0: dba9 2802 8640 cab4 5da3 4f80 f923 c0b0
000000f0: 5d12 4bb0 6eb7 5532 e313 2f31 09f5 c2b4
-8.484758e-09 7.964839e-09 2.9649933e-10 1.4243124e-11 1.0433957e-30 -5.486725e-39 3.9998653e-09 2.6377935e-09
5.288909e-09 -4.124629e-07 -6.766797e-39 -3.1209764e-09 1.8878355e-08 -1.0757278e-08 -3.412777e-07 -5.1073856e-09
-2.2570048e-09 -6.074717e-39 1.584859e-39 -6.215221e-39 -2.4059299e-08 1.8346814e-08 5.877994e-39 6.60129e-39
1.1391167e-08 1.2354227e-08 3.8712848e-08 5.39933e-39 7.506033e-39 8.039452e-09 -7.604579e-09 -4.459223e-39
-1.4527337e-08 7.409948e-09 1.2402253e-08 -2.1350326e-08 -3.3295424e-07 1.1586744e-08 -5.639121e-12 -1.4203628e-08
-8.337523e-09 1.8198149e-08 1.608828e-39 -7.521866e-09 3.5007444e-09 1.8557973e-08 -3.6130746e-07 -1.537183e-08
-3.7193573e-07 -2.1155081e-08 -4.3376236e-08 -9.2619326e-09 -1.3850297e-10 -5.010832e-39 -4.666754e-10 1.54006e-40
1.2391437e-37 -3.767238e-07 -7.313608e-39 -1.3980063e-09 -7.3877066e-10 1.2439939e-08 2.5477156e-09 -3.6313602e-07

mlp.mlp.5.weight f4 [64]
00000000: 6e00 1a3d 3e13 393d 8859 393d a0e1 1f39
00000010: 759e 3c19 505d 2000 d057 9d3c e91f 173d
00000020: ffb0 313d 1a58 353d 8e1d 0100 8d2b 553c
00000030: 70ad 393d 29d8 3f3d a9b3 363d 6123 f43c
00000040: 6b71 073d cc0a 2d00 954c 0500 85b8 4080
00000050: 7843 3c3d b92d 203d b707 0c80 0b7c 0180
00000060: 5eaf 233d 8c25 1f3d fa00 3f3d a75d 4380
00000070: fe76 1380 5516 323d f48a 2b3d e88a 1500
00000080: c8b2 3f3d 275e 283d 0a10 0d3d 9c4b 213d
00000090: 22bf 393d 99d8 2d3d 6449 953c 0ffb 343d
000000a0: c5e4 b43c ad16 2d3d 6745 3400 fb86 3f3d
000000b0: e281 ba3c f3f7 333d 4f51 163d 08fc 2c3d
000000c0: ba1d 363d b2b4 363d 7ec9 3a3d c4fd 433d
000000d0: 8a0b 253c 6bde ba08 9ac5 3b3d 84fa 3100
000000e0: 1dfb f50e 560f 2a3d 4d7b 3400 2c4b f13c
000000f0: b641 353c 2229 343d f9e4 923c 9b75 1c3d
0.037598066 0.045184366 0.0452514 0.00015247473 9.751372e-24 2.97221e-39 0.019206911 0.036895666
0.043381687 0.044273473 1.02438e-40 0.013010872 0.04533142 0.046837006 0.04460493 0.029802026
0.03306715 4.13647e-39 4.8665e-40 -5.943665e-39 0.04596278 0.039106105 -1.104794e-39 -1.36334e-40
0.039962165 0.038854167 0.04663179 -6.186574e-39 -1.787561e-39 0.04347833 0.041880563 1.978376e-39
0.04680136 0.041105416 0.034439124 0.039378747 0.045348294 0.04244289 0.018223472 0.04418474
0.022081742 0.042257953 4.800343e-39 0.046759587 0.022767011 0.043937635 0.036698636 0.042232543
0.044461943 0.04460592 0.045602314 0.04784943 0.010073552 1.1246758e-33 0.045842744 4.589807e-39
6.0638976e-30 0.04151853 4.819678e-39 0.02945479 0.01106303 0.04398454 0.017931448 0.038198095

mlp.mlp.5.bias f4 [64]
00000000: 5073 7c3e 8a44 943e 3bf4 903e f1bd 073e
00000010: 8e3f d03d a2e0 c03c 3c81 2f3e fbf0 7c3e
00000020: ee8b 8d3e 05c1 903e 326d 533d 9b49 1c3e
00000030: 6cb3 923e 691d 943e fa5b 923e 097b 5d3e
00000040: 3bf7 693e 0874 9e3d d144 a1b1 fc81 923d
00000050: 1f7a 943e 3387 833e 39f1 833d ec89 0aaf
00000060: be9b 843e 03b5 823e e362 933e e453 5eaf
00000070: 8000 8eaf f2d1 8c3e 182a 893e 44c8 eeaf
00000080: 8ad1 933e 62a5 853e e60c 753e c9bc 833e
00000090: 8fba 8f3e 1cbb 8b3e b504 2c3e eff8 8c3e
000000a0: 1b30 3d3e 5a61 893e 342a 7baf 5a3e 953e
000000b0: 3454 3e3e 71ce 8d3e dbc1 783e 8c73 893e
000000c0: 3464 913e 9890 913e 36c3 913e b969 943e
000000d0: 69c4 133e 7a51 b93d c0ba 933e a7ea 8ab0
000000e0: 196d c63d 60de 863e 5fb1 d7b0 b1f4 573e
000000f0: 1dfd 153e a505 8d3e f3c9 2b3e 1d25 7e3e
0.24653363 0.2895854 0.28311333 0.1325605 0.10168372 0.023544613 0.17139143 0.24701302
0.2764582 0.28272262 0.05161781 0.15262453 0.28652513 0.28928688 0.28585798 0.21628965
0.22848217 0.07736975 -4.6935402e-09 0.07153699 0.2899942 0.25689086 0.06442494 -1.2600027e-10
0.25900072 0.25528726 0.28786382 -2.0220586e-10 -2.5830005e-10 0.27503926 0.26789927 -4.3434245e-10
0.28870803 0.2610274 0.23930702 0.2572997 0.2807202 0.2729119 0.1679867 0.2753367
0.18475382 0.26832086 -2.284331e-10 0.29149133 0.18586808 0.27696565 0.242927 0.26845968
0.2839676 0.2843063 0.28469247 0.2898691 0.14430393 0.090487435 0.28853416 -1.0107514e-09
0.096887775 0.26341534 -1.5693721e-09 0.21089436 0.14647336 0.2754337 0.16776256 0.24818845

mlp.mlp.5.running_mean f4 [64]
00000000: 7ae3 363b f5d1 4e3b be70 4f3b f9c7 8037
00000010: 9316 b117 63b7 0480 720e dd3a f91f 343b
00000020: 84b6 493b 4349 4c3b 64b8 2f80 5495 a03a
00000030: 9101 503b c85a 543b a301 4e3b 05d4 1b3b
00000040: f05f 273b dbcc 3280 56e2 1480 0b58 1e80
00000050: f6a4 513b a577 3c3b eac4 0500 9fed 2b00
00000060: 01fa 3e3b a52f 3b3b 667c 543b 8851 2d00
00000070: c439 2400 d4f5 493b f3cb 433b d560 0500
00000080: c627 543b c40c 423b fbb1 2c3b 4c72 3c3b
00000090: 7671 4f3b a249 463b d815 d53a d59c 4c3b
000000a0: ebbb f93a f38e 463b 44fe 2c00 6640 543b
000000b0: f202 fd3a 6909 4b3b fa29 343b 4de4 453b
000000c0: 3d2d 4d3b 7d15 4e3b 6b39 503b 9036 583b
000000d0: 104b 7d3a ac01 4107 6a85 503b b698 2400
000000e0: 9c64 6e0d 3f83 433b 5897 3080 9c77 1a3b
000000f0: 694e 8a3a 3732 4a3b cf71 d03a af37 393b
0.0027906583 0.003155825 0.0031652893 1.5351909e-05 1.1444055e-24 -4.33129e-40 0.0016865267 0.0027484878
0.0030778954 0.0031171597 -4.382415e-39 0.0012251534 0.0031739215 0.0032402743 0.003143408 0.0023777497
0.002553936 -4.665263e-39 -1.917904e-39 -2.786649e-39 0.0031989194 0.0028757837 5.29817e-40 4.034169e-39
0.0029140713 0.0028562334 0.003242278 4.161845e-39 3.3268e-39 0.003081669 0.0029876202 4.93914e-40
0.003237234 0.002960966 0.0026351202 0.002875465 0.0031653321 0.003025629 0.001625712 0.003122141
0.0019053196 0.0030297607 4.131975e-39 0.0032387017 0.0019303246 0.003098095 0.002749084 0.0030195892
0.0031307482 0.0031445913 0.0031772505 0.0032991506 0.0009662369 1.4520198e-34 0.0031817802 3.36086e-39
7.3460516e-31 0.0029832867 -4.462396e-39 0.0023569828 0.0010551933 0.0030852684 0.0015903058 0.002826195

mlp.mlp.5.running_var f4 [64]
00000000: 16d9 1b37 3e45 4737 bb6e 4837 f297 9a2f
00000010: 0400 0000 0400 0000 49bb 6336 e826 1737
00000020: 20a5 3d37 f69a 4237 0400 0000 6624 f035
00000030: 4a9b 4937 f014 5237 e6c9 4537 0f39 e236
00000040: 1aa9 0237 0400 0000 0400 0000 0400 0000
00000050: 75c5 4c37 057f 2537 0400 0000 0400 0000
00000060: 28ec 2937 173b 2337 3c73 5237 0400 0000
00000070: 0400 0000 c100 3e37 e2a6 3237 0400 0000
00000080: 10a9 5137 305d 2f37 5404 0b37 d076 2537
00000090: 6e93 4837 c539 3737 eb83 5336 a137 4337
000000a0: 543f 9136 0fc0 3737 0400 0000 09ee 5137
000000b0: b52d 9536 c30d 4037 c16b 1737 c16f 3637
000000c0: 652c 4437 74f3 4537 0ffe 4937 32e4 5937
000000d0: b590 9535 0400 0000 e88f 4a37 0400 0000
000000e0: 0400 0000 a61b 3237 0400 0000 da37 de36
000000f0: 9c3a b235 a162 3e37 eb8d 4a36 a9e6 1f37
9.289264e-06 1.1877446e-05 1.194671e-05 2.81204e-10 6e-45 6e-45 3.393465e-06 9.00936e-06
1.1303724e-05 1.1599381e-05 6e-45 1.7891987e-06 1.201669e-05 1.252185e-05 1.1789123e-05 6.7419674e-06
7.787976e-06 6e-45 6e-45 6e-45 1.2205322e-05 9.86434e-06 6e-45 6e-45
1.0128169e-05 9.729315e-06 1.25438055e-05 6e-45 6e-45 1.1325058e-05 1.0648482e-05 6e-45
1.2496734e-05 1.045251e-05 8.286053e-06 9.86243e-06 1.1955255e-05 1.09211005e-05 3.1518236e-06 1.1635858e-05
4.328709e-06 1.0952367e-05 6e-45 1.2512793e-05 4.445867e-06 1.1447296e-05 9.02539e-06 1.0874065e-05
1.1692847e-05 1.1798798e-05 1.2039686e-05 1.2987339e-05 1.114348e-06 6e-45 1.2073644e-05 6e-45
6e-45 1.0616064e-05 6e-45 6.6226175e-06 1.3279091e-06 1.1347846e-05 3.0182953e-06 9.530843e-06

mlp.mlp.8.weight f4 [1, 64]
00000000: a4f7 7d3e e2e9 963e 783f 933e acda 053e
00000010: 94cf cc3d e126 bd3c 4483 2d3e fc0a 7f3e
00000020: 3820 903e 8b0d 933e 35db 4e3d 7e64 1a3e
00000030: 4c34 953e 1fda 963e 55f4 943e e0ce 5d3e
00000040: 03cc 6a3e 3e75 9b3d 3ef0 abb4 ddb9 8f3d
00000050: 29e7 963e 2ec5 843e c45e 813d 824c a5b2
00000060: ac26 863e d11b 843e a6d0 953e 93d6 10b2
00000070: 8ede 6eb4 cbe6 8e3e d8f4 8a3e 8d27 c5b3
00000080: 609f 963e c127 873e fea0 763e 9e25 853e
00000090: ea06 923e b70f 8e3e b284 2a3e b8ca 8e3e
000000a0: 66d9 3b3e 9cd1 8a3e 9ced b0b4 98e1 973e
000000b0: 5f6c 3d3e eece 8f3e 0fba 793e 7579 8b3e
000000c0: 7d08 943e 38e1 933e d333 943e 2baf 963e
000000d0: ab9e 113e c85b b63d fa54 963e a0d5 a8b4
000000e0: 9aa0 c23d c832 883e 0529 9ab3 e8e5 573e
000000f0: b296 143e be17 8f3e e585 2a3e 5828 803e
0.24801499 0.29475313 0.2875936 0.13071698 0.1000053 0.023089828 0.16944605 0.24906534
0.2814958 0.2872127 0.05050202 0.15077397 0.29141462 0.29463288 0.2909266 0.21660948
0.22929387 0.075907215 -3.202603e-07 0.070178725 0.29473236 0.25931686 0.06316903 -1.924332e-08
0.2620138 0.25802472 0.2926075 -8.430692e-09 -2.2246442e-07 0.27910456 0.27139926 -9.1807216e-08
0.29418468 0.26397517 0.24084851 0.26005262 0.285209 0.27746364 0.16652182 0.27889037
0.1834465 0.27113044 -3.2955438e-07 0.29664302 0.18498372 0.28087562 0.24387382 0.27241102
0.28912726 0.28882766 0.2894579 0.29430518 0.14220683 0.08904225 0.29361707 -3.144787e-07
0.095032886 0.26601243 -7.178645e-08 0.21083796 0.1451061 0.279478 0.16652639 0.2503078
