model/dfm_epoch_160.pt (torch, 79687 bytes, 15 tensors)

embedding.embedding.weight f4 [98, 32]
00000000: 8477 9d3d 878e 33bd 5221 3a3c 994d 8abc
00000010: 9070 753d 72af f3bd 84ba 37bd 18e6 643c
00000020: 799e d1bb 8db9 72bd 9ba1 03bd 2efd e23d
00000030: 2def 903d 9d2c c13c fbbb 5dbd e2e6 37bc
00000040: 8fe0 9bbd 76a6 143d 77e9 273c e340 9b3d
00000050: 85b9 853d 0fbc 80bd 92f1 a83c ad5e d2bd
00000060: 1c4d 3fbd c720 1a3d 2711 e3bc a7d3 bbbd
00000070: df5a 873d 525f 203d fc88 af3d d8bc a73d
00000080: ad4b aa3d d8af 42bd 9ea0 4a3c 6b77 96bc
00000090: 6dde 843d 1d99 03be c42d 47bd 7649 793c
000000a0: bba7 e4bb 9b67 83bd f7e6 0ebd a734 f53d
000000b0: 60ce 9c3d c2fd d13c 1f1f 70bd 3825 48bc
000000c0: 1698 a8bd 1e50 213d 8efe 363c 07ee a73d
000000d0: 52ba 903d 5258 8bbd 12bd b73c 344c e3bd
000000e0: 7e5c 4fbd ae36 273d 62b2 f6bc ac00 cbbd
000000f0: 977c 923d 5bee 2d3d f6c3 bd3d 955f b53d
00000100: d121 cf3d 9495 6cbd c9e6 753c 4698 b6bc
00000110: df85 a13d 740f 20be a814 72bd f12d 973c
00000120: 949b 0abc 45c6 9fbd a598 2dbd fd1e 153e
00000130: 6fad be3d 9ff4 fe3c 5ff9 91bd 89f0 72bc
00000140: 210c cdbd 7cfb 433d 85da 5d3c 293a cc3d
00000150: ccfe af3d d572 a9bd 570a df3c cd3c 0abe
00000160: b303 7cbd 132e 4b3d 5cc9 15bd 90ef f6bd
00000170: 7320 b23d 6360 533d eacf e63d 8098 dc3d
00000180: 1022 cf3c 5519 6bbc ce38 723b f13d b4bb
00000190: f613 a13c f906 21bd 6b94 70bc 6918 953b
000001a0: 9852 08bb 8043 9fbc b900 2cbc 6ae0 153d
000001b0: 3a82 be3c 4a0e fc3b ab60 91bc 134c 6fbb
000001c0: f906 cdbc 4263 423c 7aa3 5a3b 2c34 cc3c
000001d0: 00a3 af3c 6b05 a9bc 6f51 dc3b dac8 0abd
000001e0: 1d96 7abc 0296 493c 2b41 14bc 3784 f7bc
000001f0: 42cd b13c 6cca 513c 2729 e73c b6ca dc3c
00000200: f4ba 173d 6e36 adbc 665b b43b 8fe0 05bc
00000210: 1693 ec3c ff11 6bbd 1137 b1bc b1bc dd3b
00000220: 4175 4bbb 0cf3 e9bc 7e3c 7ebc 2ce4 5a3d
00000230: 5eaa 0b3d 41c8 3a3c 43c0 d5bc e230 b2bb
00000240: bc33 16bd 597e 8f3c e3cb a23b 899a 153d
00000250: b1de 003d 6421 f8bc 7c6f 233c 23ce 4abd
00000260: 1f81 b8bc 59c1 943c 186c 5bbc 4704 35bd
00000270: ba70 023d 2ac0 9a3c 0f28 293d cfa2 213d
00000280: a219 d93b 111d 78bb 47fb 803a 039a bfba
00000290: 6a61 a93b 08ae 27bc 62d7 7dbb 98a3 9e3a
000002a0: 086a 11ba c180 a7bb 3710 36bb fc3c 1c3c
000002b0: 5fe6 c73b 8fb6 053b de10 99bb e4db 7eba
000002c0: 17ec d6bb 8188 4d3b c2de 683a 9511 d63b
000002d0: a07e b83b 23a2 b1bb b7f4 e93a 4ad8 10bc
000002e0: 0824 84bb f212 553b 5d1c 1dbb 5d62 01bc
000002f0: 9ebc ba3b fba9 5d3b 4fe8 f13b c734 e73b
00000300: f6d1 803d 6e7f 13bd c3b7 193c f63e 64bc
00000310: 6d2b 493d 97a4 c6bd f1e3 16bd e805 3d3c
00000320: d85e adbb bcf4 46bd 95a6 d8bc 2823 b93d
00000330: ac3a 6d3d de37 9f3c a2df 35bd dcdf 17bc
00000340: 4b11 7fbd 2f76 f43c bac7 0a3c a80b 7e3d
00000350: 8b15 5b3d 3dee 52bd 3952 8b3c 2bb1 abbd
00000360: 8015 1dbd 7075 fd3c cf04 bbbc e06d 99bd
00000370: b9bb 5d3d 20d2 033d 797b 8f3d bc25 893d
00000380: 771b 713d e465 09bd 8747 0e3c 697d 53bc
00000390: bbde 3b3d 37a0 babd 1f99 0cbd 0407 2f3c
000003a0: 8e42 a0bb acc9 39bd cb62 c9bc bcd4 ad3d
000003b0: c5ed 5d3d f7bd 933c e9b0 29bd 798d 0cbc
000003c0: 8ead 6ebd 227b e33c 0e61 003c 9eba 6d3d
000003d0: 9eba 4c3d 9416 45bd e732 813c 7518 a1bd
000003e0: 8564 12bd 39d6 eb3c e9af adbc 06d2 8fbd
000003f0: 7f3a 4f3d 5964 f53c 4e66 863d ba6d 803d
0.076888114 -0.043837097 0.011360483 -0.016882705 0.0599218 -0.11898698 -0.04485561 0.013970874
-0.0063970652 -0.059258986 -0.03213654 0.110834464 0.07076869 0.023580844 -0.05413435 -0.01122448
-0.076111905 0.036291562 0.010248533 0.075807355 0.06529526 -0.06285869 0.020623002 -0.10271964
-0.046704397 0.037628915 -0.02771814 -0.09171229 0.06609129 0.039153405 0.085710496 0.08190316
0.08315215 -0.04753098 0.012367396 -0.01836749 0.06487737 -0.12851377 -0.04862763 0.015215268
-0.006978003 -0.064162455 -0.034888234 0.11972933 0.076565504 0.025633696 -0.05862343 -0.012215905
-0.08232133 0.039383046 0.011169089 0.08199697 0.07066788 -0.06803955 0.022429023 -0.11098519
-0.050625317 0.04082363 -0.030114356 -0.099122375 0.0715267 0.04246364 0.09265892 0.088561215
0.10113872 -0.057759836 0.015008637 -0.022289407 0.07886862 -0.15630895 -0.05910173 0.018454524
-0.008459944 -0.07801489 -0.0423819 0.14562602 0.093104236 0.031122504 -0.07127642 -0.014827856
-0.10012079 0.047847256 0.013540869 0.09972031 0.085935205 -0.082738556 0.02722661 -0.13499756
-0.061526965 0.049604487 -0.036568984 -0.12057412 0.086975954 0.051605593 0.11270125 0.107712746
0.025284797 -0.014349301 0.0036960128 -0.005500548 0.019662838 -0.03931329 -0.014683823 0.004550029
-0.0020801183 -0.019441366 -0.010498219 0.03659097 0.023255456 0.007692133 -0.01774629 -0.003651385
-0.025027739 0.011864485 0.00333616 0.024927221 0.02144003 -0.020632466 0.006723575 -0.033882953
-0.015294579 0.012303831 -0.00904874 -0.030214412 0.02170432 0.012804609 0.028217865 0.026952129
0.037043527 -0.021144118 0.0055040596 -0.008171215 0.02887873 -0.05739021 -0.021632703 0.0067668785
-0.003104523 -0.028558277 -0.015517352 0.053440258 0.03409802 0.011400283 -0.026092654 -0.005437956
-0.03667043 0.017516302 0.004968153 0.03652433 0.031462375 -0.03028936 0.00997531 -0.049512994
-0.022522507 0.018158602 -0.013392471 -0.044193532 0.031845786 0.01889046 0.04129797 0.039461907
0.00662537 -0.0037859122 0.0009840511 -0.0014618043 0.0051690834 -0.010234363 -0.0038733114 0.0012103198
-0.0005547111 -0.005111784 -0.002778066 0.009536024 0.0061004604 0.0020403003 -0.0046712 -0.00097220973
-0.006558906 0.003136188 0.0008883291 0.0065328577 0.0056303293 -0.0054209395 0.001784942 -0.00884063
-0.0040326156 0.0032512513 -0.0023973205 -0.007896987 0.0056987545 0.003382324 0.0073824297 0.007055852
0.06290047 -0.0360102 0.009382191 -0.013931027 0.04911368 -0.09699362 -0.036838476 0.011537053
-0.0052908473 -0.04857324 -0.02644662 0.09039909 0.057917282 0.01943582 -0.044402726 -0.009269681
-0.06227235 0.02984151 0.00847047 0.062022835 0.05348734 -0.051496733 0.01700698 -0.083834015
-0.038350582 0.030939788 -0.022829441 -0.0749166 0.054134104 0.032182813 0.070059724 0.066966504
0.058864083 -0.033544436 0.008684046 -0.012908318 0.04586671 -0.0911259 -0.034325715 0.010682825
-0.0048907464 -0.045358345 -0.024583241 0.084878415 0.054181833 0.018034918 -0.04142848 -0.008578652
-0.058270983 0.027768675 0.00783564 0.0580393 0.04998266 -0.048117235 0.015771342 -0.07865993
-0.035740394 0.028788673 -0.021202045 -0.07022481 0.050592896 0.029955076 0.06562482 0.06270929

linear.fc.weight f4 [98, 1]
00000000: 1d20 fe3e 6373 073f c4b7 153f 9c88 263e
00000010: 02b3 6a3e c2b1 493d fc1b a43e 0ed4 973e
00000020: 2904 993d 8758 df3c e4e0 ed3c 568b d93c
00000030: deab 573c 2988 4c3c f79d 4c3c e1ae 453c
00000040: d518 4b3e e12d 0e3e 8c00 293e 017e 1b3e
00000050: 30ad 403e 2cf0 503e 1ad2 343e 2445 f63c
00000060: 86e3 c03c 97ca b13c fc89 d33c 9482 f53c
00000070: e90c 093d 1e75 c03c e94a 063c b2ff 3b3b
00000080: 69ed de3c 5c96 553c 999c 013a 1815 d339
00000090: 6b37 2f3a 73fc 443c 8d94 5e39 128e a83b
000000a0: bde2 a23b 2405 8e3a f661 c03b 537b 093d
000000b0: d291 043d 529f 863b 97e7 8f3c ae15 d23c
000000c0: fa48 153b 36f9 cd3c 76da 9d3c 8ff3 8a3b
000000d0: 1a69 153b 0927 ef3b 0b08 813a 0cb4 203b
000000e0: f6eb d83c a26f df3a 4e68 003d c16c 9d3c
000000f0: a5e1 d03b d50c b53b 6e05 b73c 20cc 393b
00000100: b64d 453b c104 5939 9782 283a 2f46 7d3c
00000110: 89b0 143d f142 8c3c 0b28 433c 3f7a 3e3c
00000120: 093f 7e3b f5f2 033c 619e 0a3a 1a61 123d
00000130: 04b8 d63a a7a9 ff38 48db c93c 7e70 0f3d
00000140: 4fd9 be3c 8527 b33c 6189 683b 3f34 d73a
00000150: c6c4 153d d20f 0a3d 7514 8b3c c9f2 9a3b
00000160: 00fb 003c e0c7 903c 582c c03c de8f 1a3c
00000170: 3644 f53b b34c 513c a744 283c ab7f fe3b
00000180: 1bc7 bc39 7b74 763c
0.49633875 0.5291044 0.5848353 0.1626305 0.22919849 0.04924179 0.320526 0.29653972
0.074714966 0.027263893 0.0290379 0.026555698 0.013163535 0.012483635 0.012488834 0.01206562
0.19833691 0.13884689 0.16504115 0.15184785 0.18816066 0.20404118 0.17658272 0.030062266
0.023545992 0.021703048 0.025822632 0.029969491 0.033459578 0.023493346 0.008196571 0.0028686342
0.027212815 0.013036337 0.00049442943 0.00040260772 0.0006683978 0.012023079 0.0002122691 0.005143889
0.004970877 0.0010835272 0.005871053 0.033564877 0.032365628 0.004108348 0.017566485 0.025645103
0.0022779093 0.025143247 0.01926921 0.00424046 0.002279824 0.0072983545 0.0009844316 0.0024521379
0.026479702 0.0017046819 0.031349473 0.019216897 0.006374555 0.0055252113 0.022341456 0.0028350428
0.0030106134 0.00020696504 0.0006428151 0.015458628 0.03630117 0.017121764 0.011911402 0.011625825
0.0038794896 0.008053531 0.00052878825 0.035737135 0.0016381745 0.00012190948 0.024640694 0.03501939
0.02329698 0.02186943 0.0035482275 0.0016418769 0.03656461 0.033706494 0.016977528 0.0047286493
0.007872343 0.017673433 0.023458645 0.009433715 0.007484938 0.012774634 0.010270274 0.007766684
0.000360065 0.01504242

mlp.mlp.0.weight f4 [64, 160]
00000000: 2f09 0100 0994 2100 cb3c 0480 2505 5000
00000010: 7ada 0200 9b0c 0f00 e462 2680 9eef 0a80
00000020: ac8d 1900 0c06 4c00 eae8 1280 1953 4480
00000030: b672 3d80 ecba 4f00 e043 0180 2d00 1900
00000040: 9cb3 1500 50c3 3580 8a10 4c00 7b94 1980
00000050: 8095 0600 171f 4f00 56e3 1480 56d7 1280
00000060: 2b08 1080 f6f8 1c80 ef76 3d00 c928 3680
00000070: c563 0e00 a50a 1700 79bf 3d80 df21 3f00
00000080: a363 3900 3cff 3100 ea47 2680 bd72 1200
00000090: d19f 4800 2b33 3200 3a0e 4580 e8de 4480
000000a0: abad 3480 6be7 3f00 02ce 3780 c3db 4680
000000b0: 8ed6 2300 c728 4900 16dc 0e00 756f 4580
000000c0: dcd4 4980 1c1f 2980 87d6 3900 0bdc 1880
000000d0: 1755 1100 5106 2800 dfa1 4680 1e42 0b80
000000e0: b933 2300 9032 5080 97a5 0180 7ee8 2800
000000f0: 00dd 1d00 54dc 0200 d53b 4e80 1982 4d00
00000100: bdfb 2c00 40ab 2000 943b 0300 68c7 4200
00000110: 2336 1600 0c4b 2e80 7f1c 4080 5367 0300
00000120: 60a1 3080 3c6d 4c80 b9a1 3780 6fd2 4a80
00000130: 0420 4500 ab8c 4000 bb9b 4980 bb30 0f80
00000140: 48ad 4180 6efb 0380 b9b6 0b00 f1f3 4280
00000150: ebfd 2180 702f 4880 bc2b 1300 f0ed 3c00
00000160: 4b11 5000 1706 4200 96f0 5200 0a81 3600
00000170: 624a 0380 262f 2b00 31ac 4480 4ace 3800
00000180: c20b 4880 aa74 3600 d1de 4d00 b7e4 0800
00000190: 8785 3100 bcb1 4400 fa16 3d80 3b6a 4480
000001a0: ca21 4b80 9f9e 1d80 a609 4000 0e78 2180
000001b0: 3401 3e80 92ba 1380 27b8 1880 ed5e 1700
000001c0: a16a 0880 83e4 5100 0794 0580 72d9 3d80
000001d0: 6587 5100 a75f 3400 7bb5 3d80 b604 0e80
000001e0: 9f83 4b80 2f03 1a00 f871 1f00 a821 2580
000001f0: e692 2b80 c332 0b00 eb98 1b80 fb81 2780
00000200: 6315 0100 c0ec 3880 8dc8 0a00 7be1 0500
00000210: 565f 4c80 9dd2 0b00 c75b 1000 4548 0080
00000220: 8498 5000 5eae 4d80 5f28 0d00 429b 2300
00000230: 525b 3300 94e6 0f00 25c0 1800 42e3 0180
00000240: 26cc 1580 6c01 3b00 8fe8 4100 8fdf 0600
00000250: eeac 2a00 b6df 4d00 1296 2200 13f8 4d80
00000260: 2271 1380 c4de 2380 e595 4e80 74c5 3500
00000270: eb7a 2480 d8c0 4180 5ad9 2f80 6a20 2e00
00000280: d4ec 2e80 ee54 1480 0417 3100 f2d2 3200
00000290: f00b 2880 24a8 4880 46c5 3800 e785 4b00
000002a0: 1f01 4f80 1aa5 1280 9a39 4900 ac80 0400
000002b0: 881c 1100 d616 4180 add9 4780 c24b 0080
000002c0: 898c 1980 687a 1380 d356 3a00 a6d6 3800
000002d0: 53e8 1100 eb41 3200 74a5 0900 2ce4 0680
000002e0: a131 2500 198e 0280 97bf 0b00 e7a7 3400
000002f0: db2d 2000 1fdc 3080 e6b5 2380 b2c4 4d00
00000300: b25d 0e80 f667 1380 c293 0980 c070 5100
00000310: 8726 2800 7291 0c00 7599 0b00 8f92 0500
00000320: 9720 4e80 28a8 2680 ed15 3e80 5ae7 1980
00000330: 3e08 5180 636f 0480 b30c 2780 da57 4f00
00000340: ab4e 1680 7588 4400 66a3 1680 2e5e 4980
00000350: f2cc 4f80 c86b 1480 4a15 1b80 953b 4c80
00000360: 8f32 4000 a85e 3f80 15fa 1e80 a09d 0b80
00000370: db0b 3100 d130 2400 29a9 2280 00ab 0300
00000380: 531f 1a00 b7c5 2280 e209 2980 64ba 1100
00000390: ee05 1300 685f 4b80 528b 4400 7d8b 1c80
000003a0: a621 4500 8103 0d80 16f1 4080 9457 1700
000003b0: 7cfe 5100 ebe3 4000 c149 3080 53da 0c00
000003c0: 0d77 3e00 e482 2f00 e2f8 3100 0c5f 1780
000003d0: 76d9 4f80 789c 4400 9e73 1500 10c0 3600
000003e0: 4f32 4700 0236 4b80 12f9 4580 45dd 3180
000003f0: 4435 1500 b78a 1900 61ae 4600 fbb3 0600
9.513e-41 3.083676e-39 -3.8915e-40 7.348685e-39 2.62046e-40 1.382054e-39 -3.525224e-39 -1.004313e-39
2.34671e-39 6.981667e-39 -1.736593e-39 -6.274624e-39 -5.643116e-39 7.322059e-39 -1.16184e-40 2.29595e-39
1.992977e-39 -4.937346e-39 6.985431e-39 -2.349152e-39 6.04643e-40 7.266157e-39 -1.918263e-39 -1.730287e-39
-1.472298e-39 -2.660704e-39 5.64463e-39 -4.973748e-39 1.321488e-39 2.116035e-39 -5.670653e-39 5.797787e-39
5.270366e-39 4.5915e-39 -3.515547e-39 1.694199e-39 6.669487e-39 4.61013e-39 -6.341753e-39 -6.324777e-39
-4.837746e-39 5.868653e-39 -5.124854e-39 -6.50732e-39 3.29121e-39 6.71862e-39 1.364649e-39 -6.376632e-39
-6.780351e-39 -3.776415e-39 5.311581e-39 -2.282988e-39 1.591728e-39 3.675686e-39 -6.486553e-39 -1.033909e-39
3.232797e-39 -7.364978e-39 -1.51238e-40 3.756822e-39 2.742509e-39 2.6271e-40 -7.184632e-39 7.118003e-39
4.131069e-39 3.000169e-39 2.96879e-40 6.132676e-39 2.039802e-39 -4.251355e-39 -5.887694e-39 3.12572e-40
-4.465994e-39 -7.018684e-39 -5.108967e-39 -6.871316e-39 6.348134e-39 5.927934e-39 -6.759857e-39 -1.395014e-39
-6.031469e-39 -3.65702e-40 1.075739e-39 -6.148652e-39 -3.12166e-39 -6.629173e-39 1.760563e-39 5.595486e-39
7.353043e-39 6.063327e-39 7.616817e-39 5.005407e-39 -3.0219e-40 3.96584e-39 -6.306584e-39 5.21679e-39
-6.616374e-39 5.000968e-39 7.151265e-39 8.16731e-40 4.54784e-39 6.308573e-39 -5.610208e-39 -6.282922e-39
-6.899783e-39 -2.720132e-39 5.880933e-39 -3.073639e-39 -5.694232e-39 -1.811803e-39 -2.270113e-39 2.14627e-39
-7.72935e-40 7.52065e-39 -5.1228e-40 -5.67997e-39 7.487246e-39 4.80976e-39 -5.667068e-39 -1.287387e-39
-6.934879e-39 2.388865e-39 2.887785e-39 -3.409987e-39 -4.001624e-39 1.0284e-39 -2.534415e-39 -3.628213e-39
9.9508e-41 -5.227718e-39 9.90299e-40 5.40065e-40 -7.013698e-39 1.085744e-39 1.502291e-39 -2.5925e-41
7.401552e-39 -7.133884e-39 1.208344e-39 3.269938e-39 4.71637e-39 1.460248e-39 2.27298e-39 -1.7336e-40
-2.00178e-39 5.418804e-39 6.052734e-39 6.3121e-40 3.919126e-39 7.151586e-39 3.176242e-39 -7.160325e-39
-1.785459e-39 -3.294156e-39 -7.216941e-39 4.938114e-39 -3.350173e-39 -6.038487e-39 -4.39424e-39 4.236061e-39
-4.309391e-39 -1.867177e-39 4.508196e-39 4.667448e-39 -3.677702e-39 -6.672473e-39 5.213556e-39 6.935697e-39
-7.255406e-39 -1.712266e-39 6.724655e-39 4.13501e-40 1.571439e-39 -5.977499e-39 -6.598408e-39 -2.7177e-41
-2.346302e-39 -1.788786e-39 5.357605e-39 5.219789e-39 1.644546e-39 4.615422e-39 8.85873e-40 -6.32866e-40
3.415717e-39 -2.34646e-40 1.07892e-39 4.835678e-39 2.955186e-39 -4.487068e-39 -3.279495e-39 7.141894e-39
-1.319308e-39 -1.782169e-39 -8.79525e-40 7.479122e-39 3.687241e-39 1.154202e-39 1.06524e-39 5.11753e-40
-7.17486e-39 -3.550072e-39 -5.701666e-39 -2.378881e-39 -7.441632e-39 -4.073e-40 -3.58614e-39 7.28652e-39
-2.048602e-39 6.293765e-39 -2.078997e-39 -6.737777e-39 -7.328525e-39 -1.875375e-39 -2.487195e-39 -7.000872e-39
5.895609e-39 -5.819593e-39 -2.844777e-39 -1.066736e-39 4.504192e-39 3.32359e-39 -3.18309e-39 3.3685e-40
2.39896e-39 -3.193334e-39 -3.7688e-39 1.628068e-39 1.747002e-39 -6.921888e-39 6.294792e-39 -2.621433e-39
6.34872e-39 -1.195118e-39 -5.963957e-39 2.143634e-39 7.529967e-39 5.959233e-39 -4.434562e-39 1.180346e-39
5.736508e-39 4.363223e-39 4.589222e-39 -2.146313e-39 -7.333014e-39 6.300944e-39 1.970021e-39 5.028016e-39
6.538368e-39 -6.907037e-39 -6.425999e-39 -4.579316e-39 1.947654e-39 2.345649e-39 6.49104e-39 6.15578e-40

mlp.mlp.0.bias f4 [64]
00000000: 65d2 0180 54ae 5080 bdaf 0b80 b26e 0f00
00000010: 5a31 4300 9637 4900 eefa e2b3 fbb2 5300
00000020: 902f 4f00 e952 0700 3d20 4e00 4496 e7b2
00000030: 9f1f 6f34 4e54 0c80 378a 4a00 2e0b 0a00
00000040: 06d5 5380 1965 0780 0aee 4e00 6b20 1780
00000050: 77e3 1780 203f 0180 6984 3d32 42db d5b3
00000060: 2356 4e00 90fa 1400 7fa3 2d00 e4e1 cf32
00000070: 9ded 0400 2780 0680 0e37 edb3 c04b 4f80
00000080: ccd2 6e33 e439 2680 d08c 11b3 f5f3 0b00
00000090: b6d3 0f00 8fd9 1034 61f7 3d00 07fc 3c80
000000a0: c3ce 4c80 48c3 5280 fa83 4300 a6cc 5fb4
000000b0: e356 2080 770e 1380 e4d3 5100 17aa 0b80
000000c0: cf32 5380 d249 4600 d59f 4d00 c820 ca32
000000d0: b376 1180 5f24 3e80 977f 5080 96a3 2700
000000e0: 02f0 2f80 7f34 4833 487f 2500 8253 12b2
000000f0: be9d 0634 820d abb2 8c19 45b4 553a 4200
-1.67311e-40 -7.409377e-39 -1.073233e-39 1.417242e-39 6.170682e-39 6.723932e-39 -1.0569589e-07 7.686552e-39
7.272066e-39 6.72591e-40 7.174734e-39 -2.6960272e-08 2.2270113e-07 -1.132269e-39 6.845409e-39 9.22365e-40
-7.698765e-39 -6.79115e-40 7.248561e-39 -2.123846e-39 -2.193815e-39 -1.1448e-40 1.10313545e-08 -9.958468e-08
7.194069e-39 1.926595e-39 4.191249e-39 2.4200695e-08 4.52582e-40 -5.96985e-40 -1.1046187e-07 -7.282178e-39
5.5605412e-08 -3.510516e-39 -3.388851e-08 1.097706e-39 1.45348e-39 1.3490192e-07 5.690708e-39 -5.60054e-39
-7.05367e-39 -7.600564e-39 6.200323e-39 -2.0842944e-07 -2.969905e-39 -1.750063e-39 7.514687e-39 -1.071207e-39
-7.640573e-39 6.454966e-39 7.12867e-39 2.3530802e-08 -1.603785e-39 -5.706848e-39 -7.39261e-39 3.640268e-39
-4.402367e-39 4.6613874e-08 3.443573e-39 -8.517306e-09 1.2537109e-07 -1.9913163e-08 -1.8356349e-07 6.082068e-39

mlp.mlp.1.weight f4 [64]
00000000: ec95 0200 e6c5 4d80 bf57 5200 d209 4f00
00000010: e0fa 0380 ae18 1200 a2ff 103d 3d7e 4e80
00000020: 5221 0300 8b17 4d80 7fde 3680 afe9 163d
00000030: 762c 083d 0cd0 0e80 882f 4a80 3026 1100
00000040: bd55 2900 004f 2480 1400 4380 54a0 0180
00000050: c557 0000 d126 1c00 0eeb 163d 1115 103d
00000060: d4c6 4600 46eb 3000 becc 3e80 6c30 173d
00000070: cd15 2b00 5945 2a80 17b7 113d 193d 0e00
00000080: d448 183d 6d33 0180 a312 123d be8f 3580
00000090: dd5e 4100 aabb 143d 340a 1f00 0674 4480
000000a0: 6576 5100 585f 0700 cb2e 2180 d505 173d
000000b0: ec0a 3280 daa9 1d00 f5a7 1d80 805d 0800
000000c0: bb39 2880 7c3d 2700 69f3 1c80 941e 163d
000000d0: cb4e 1600 9944 3780 9af6 4480 7036 4b00
000000e0: 16d9 2700 d78f 173d 5d55 2780 2e44 153d
000000f0: 79ad 1b3d 6588 163d 1347 163d 556a 2880
2.37453e-40 -7.142326e-39 7.561988e-39 7.258527e-39 -3.65503e-40 1.661892e-39 0.03540004 -7.208454e-39
2.8746e-40 -7.079779e-39 -5.038933e-39 0.03684395 0.033245526 -1.36033e-39 -6.812878e-39 1.574903e-39
3.796012e-39 -3.334418e-39 -6.153006e-39 -1.4935e-40 3.1486e-41 2.585319e-39 0.03684526 0.03517634
6.499811e-39 4.492504e-39 -5.767248e-39 0.036911413 3.956747e-39 -3.881968e-39 0.035575 1.307615e-39
0.03717883 -1.10284e-40 0.035662305 -4.918846e-39 6.003338e-39 0.036311783 2.85056e-39 -6.286435e-39
7.481147e-39 6.77051e-40 -3.047358e-39 0.036870796 -4.595693e-39 2.72416e-39 -2.723481e-39 7.68225e-40
-3.69413e-39 3.603641e-39 -2.658713e-39 0.036650255 2.048647e-39 -5.07556e-39 -6.333278e-39 6.907191e-39
3.65946e-39 0.03700241 -3.612207e-39 0.036441974 0.038007233 0.03675117 0.036688875 -3.711565e-39

mlp.mlp.1.bias f4 [64]
00000000: 447d 0280 1f8c 4200 21d7 3f80 5144 2080
00000010: 62f7 5100 f575 1b00 db31 b53c 6c53 4900
00000020: 0d0c 1600 3bfa 2880 75d5 2d80 4a53 bf3c
00000030: 15a6 a63c 82c8 1780 fc15 2100 bb35 2a80
00000040: ac10 2c80 491f 3c00 b7d5 2700 b517 4980
00000050: f3b5 3e80 44b6 3f00 6171 bd3c 7eb0 b13c
00000060: a7d8 2480 b3eb 2b00 23ab 3c80 8d92 bb3c
00000070: b859 1e00 2e5c 2900 9399 b53c 7d24 1280
00000080: fda3 bf3c 9a3e 4d80 ab7c b63c 8a9f 1b80
00000090: e978 2200 785b ba3c 6984 4400 08b5 2a80
000000a0: 63b7 1980 c00c 4f00 de5e 1f80 2360 bf3c
000000b0: 041b 0780 9d30 2d00 cfe9 2f80 80c1 1580
000000c0: c883 2e00 e401 3000 b9e3 1180 ebfc bc3c
000000d0: d990 0a00 d07e 0f80 dc3b 3280 7daf 3e00
000000e0: 76c7 2f80 147d c03c 3c40 4880 5f32 bb3c
000000f0: 7802 c43c 513a bd3c 666c be3c f963 1800
-2.28608e-40 6.111409e-39 -5.86281e-39 -2.963243e-39 7.52742e-39 2.521873e-39 0.0221185 6.733917e-39
2.024704e-39 -3.763186e-39 -4.209171e-39 0.023355145 0.020342866 -2.184145e-39 3.038458e-39 -3.876366e-39
-4.046743e-39 5.521353e-39 3.658251e-39 -6.712496e-39 -5.759072e-39 5.851021e-39 0.023125352 0.021690603
-3.383798e-39 4.033479e-39 -5.571522e-39 0.02289703 2.78725e-39 3.798323e-39 0.022167956 -1.666128e-39
0.023393625 -7.09379e-39 0.022276243 -2.53679e-39 3.165781e-39 0.022748694 6.292314e-39 -3.922033e-39
-2.361674e-39 7.259578e-39 -2.880932e-39 0.023361271 -6.5254e-40 4.150036e-39 -4.400143e-39 -1.99796e-39
4.271707e-39 4.408782e-39 -1.642895e-39 0.02306982 9.70317e-40 -1.423024e-39 -4.613248e-39 5.756754e-39
-4.387821e-39 0.023497142 -6.635199e-39 0.022851167 0.023926958 0.023099096 0.023245048 2.239915e-39

mlp.mlp.1.running_mean f4 [64]
00000000: a58a 2400 9ea3 0480 a152 3700 d5a8 3900
00000010: 6d4c 3000 963a 3600 dba5 38bc d172 0880
00000020: 9b82 3300 1d79 2700 47bd 1200 ba33 3fbc
00000030: 0648 31bc 5ffa 1e00 9639 4400 0558 1f00
00000040: 3127 2f80 c88b 3680 d520 0180 1cbc 0300
00000050: 3187 1000 3aa8 0980 ad9d 3ebc edcb 36bc
00000060: c28b 3100 14e3 2f80 59fc 2b00 1b99 3cbc
00000070: 269b 2400 72e3 3880 5f9e 39bc aad1 0d80
00000080: 426a 40bc a98d 6c00 db22 3bbc e85c 2780
00000090: 0391 2480 6e6c 3bbc 0025 3000 773e 3e80
000000a0: 83ab 2e80 3bdc 3180 dd7f 0800 2919 3ebc
000000b0: a652 1d00 9bcd 1600 087d 0e00 c94b 1600
000000c0: 32ee 6480 6324 2300 817b 1b00 7a7f 3ebc
000000d0: 5adf 3880 98f3 3280 10de 0f80 1477 0480
000000e0: 5eeb 3580 ee3e 40bc e74a 2700 6ae3 3cbc
000000f0: f103 43bc 2269 3cbc 5740 3dbc 85cb 1800
3.355814e-39 -4.26037e-40 5.080594e-39 5.295189e-39 4.43552e-39 4.980133e-39 -0.011270012 -7.75872e-40
4.730463e-39 3.625032e-39 1.720939e-39 -0.011670047 -0.010820394 2.844881e-39 6.265472e-39 2.878476e-39
-4.330328e-39 -5.009261e-39 -1.03613e-40 3.42987e-40 1.517865e-39 -8.86868e-40 -0.0116342725 -0.011157018
4.550075e-39 -4.397729e-39 4.039452e-39 -0.011511113 3.361735e-39 -5.22438e-39 -0.0113292625 -1.269075e-39
-0.011744084 9.969052e-39 -0.011421884 -3.614913e-39 -3.358098e-39 -0.011439426 4.421377e-39 -5.716209e-39
-4.28596e-39 -4.578943e-39 7.80553e-40 -0.011602678 2.692878e-39 2.094138e-39 1.33055e-39 2.047568e-39
-9.268998e-39 3.227295e-39 2.523863e-39 -0.0116270725 -5.222911e-39 -4.67916e-39 -1.457193e-39 -4.10059e-40
-4.951715e-39 -0.011733754 3.608454e-39 -0.011528829 -0.011902795 -0.011499675 -0.011550984 2.277061e-39

mlp.mlp.1.running_var f4 [64]
00000000: 0400 0000 0400 0000 0400 0000 0400 0000
00000010: 0400 0000 0400 0000 497b 2937 0400 0000
00000020: 0400 0000 0400 0000 0400 0000 4f6a 3137
00000030: ee83 2037 0400 0000 0400 0000 0400 0000
00000040: 0400 0000 0400 0000 0400 0000 0400 0000
00000050: 0400 0000 0400 0000 1919 3137 e253 2a37
00000060: 0400 0000 0400 0000 0400 0000 2fc3 3137
00000070: 0400 0000 0400 0000 3250 2c37 0400 0000
00000080: 5cda 3437 0400 0000 3d47 2c37 0400 0000
00000090: 0400 0000 0cf5 3037 0400 0000 0400 0000
000000a0: 0400 0000 0400 0000 0400 0000 6a34 3037
000000b0: 0400 0000 0400 0000 0400 0000 0400 0000
000000c0: 0400 0000 0400 0000 0400 0000 f91d 3237
000000d0: 0400 0000 0400 0000 0400 0000 0400 0000
000000e0: 0400 0000 d90d 3337 0400 0000 91c0 3137
000000f0: 7655 3d37 fa48 3337 8a72 3237 0400 0000
6e-45 6e-45 6e-45 6e-45 6e-45 6e-45 1.01018895e-05 6e-45
6e-45 6e-45 6e-45 1.0574774e-05 9.56746e-06 6e-45 6e-45 6e-45
6e-45 6e-45 6e-45 6e-45 6e-45 6e-45 1.0555866e-05 1.015232e-05
6e-45 6e-45 6e-45 1.0595467e-05 6e-45 6e-45 1.0270671e-05 6e-45
1.0779677e-05 6e-45 1.0268585e-05 6e-45 6e-45 1.0547472e-05 6e-45 6e-45
6e-45 6e-45 6e-45 1.0502621e-05 6e-45 6e-45 6e-45 6e-45
6e-45 6e-45 6e-45 1.0616605e-05 6e-45 6e-45 6e-45 6e-45
6e-45 1.0672456e-05 6e-45 1.05948575e-05 1.1285176e-05 1.0686223e-05 1.0636295e-05 6e-45

mlp.mlp.4.weight f4 [64, 64]
00000000: c15c 4400 04cd 1a80 3d19 4900 9a74 3d80
00000010: bd53 1800 c802 4400 f012 bd3b ea82 0000
00000020: e2f5 1980 bb0c 3580 0b5c 1e80 5068 c73b
00000030: 537b b23b 1951 4f80 a082 3900 5e77 1a00
00000040: 58c7 0e00 4bf1 3e80 7805 3d00 d1d0 3280
00000050: e622 3d80 9a8f 0080 8d48 ce3b d4bf c73b
00000060: f705 0200 2d07 2600 801a 4800 0a3f d53b
00000070: 6716 0100 c729 2a00 8fc0 bf3b 48c2 4300
00000080: 7ff2 c63b de2a 3000 9709 c43b 0f13 2f80
00000090: 7cfc 4f00 4df4 c63b 774d 3300 ce0e 0680
000000a0: d7c6 0a80 4c3a 5180 fdb7 4a80 e63b ca3b
000000b0: f55f 3e00 46f5 1c00 a1e8 0b00 5984 3c00
000000c0: 37fe 2700 7619 0e80 ee3b 3a80 1eb5 c93b
000000d0: dd75 4a00 2b39 2800 5282 1800 3de5 4c80
000000e0: 4a32 2a80 9ef3 c23b 4d06 2780 ec0d d33b
000000f0: 1919 d03b fc96 c93b d8a2 c33b 8eca 1f00
00000100: 72b3 3200 27de 3380 8ed8 5180 fb93 2e00
00000110: 79e5 2100 30a1 2180 df04 c53b 9a2e 5200
00000120: 7671 2600 8a7e 2c00 5d69 2700 e9d1 cd3b
00000130: 48fb ba3b bcce 0780 a6fe 2100 3fb4 1000
00000140: 021b 5300 aaf1 4d00 a6b3 3400 8a2f 3600
00000150: fc63 5080 09f9 3c80 80b6 c83b 20d9 bb3b
00000160: 127c 4880 8061 4a80 583a 2980 5f66 d13b
00000170: 70cb 1e80 919a 0680 36ba c03b 0962 1880
00000180: 5274 ca3b 6ff9 5100 289f c63b 8790 4f80
00000190: 3b3f 3a00 a54a c93b 1509 4100 78d6 1100
000001a0: 082d 0000 0e82 2f80 17bd 1000 7673 c93b
000001b0: 9d94 4580 dab6 0a00 44fb 0080 20ee 4100
000001c0: b2ae 1d00 c0ed 5080 73ce 4d00 f155 d13b
000001d0: c664 3b00 380c 4180 e65e 4900 9b01 4f00
000001e0: ea95 3b00 ea62 cd3b 940a 4a00 dfa5 ca3b
000001f0: da3e d23b b33b ca3b 0d03 d03b 522d 4e80
00000200: fc58 4500 39b2 0600 4113 3b80 ddc8 1d00
00000210: 88b7 4a80 d16d 3780 9726 c63b 229f 2080
00000220: 9225 1b80 561e 2700 9815 0600 9915 dc3b
00000230: 50de b63b 940b 4e80 ed38 0000 bc75 2d00
00000240: ec2d 4e80 424f 4200 e2d8 1500 1147 2b80
00000250: 3663 4a00 efa8 1080 7c97 cc3b 6925 c53b
00000260: b511 0580 ced6 3100 2743 4c80 21f1 cc3b
00000270: d512 3e00 9c74 2380 4845 c53b 6608 1e00
00000280: 53ab cd3b c224 2100 d701 c73b 84b9 3300
00000290: ea1c 4f00 38d6 c43b dcc2 4b00 a556 4e80
000002a0: 3619 3600 39aa 0000 47fd 1b80 224d ce3b
000002b0: 82cf 4a00 50c0 3c80 f7cc 4e00 e9d6 4180
000002c0: faa7 1200 7654 2f00 ce35 2080 f872 da3b
000002d0: 72ce 1880 d591 0e00 b88e 3300 6876 1080
000002e0: 6317 1b80 f0ee cb3b b75f 2880 47dd cc3b
000002f0: 33d6 ca3b e68a d23b 6067 ca3b bf17 1880
00000300: 265f 3380 2b6e 2700 b560 2b00 3300 4680
00000310: bb89 1e80 cc74 2e00 0057 bb3b b9ba 0b00
00000320: bce2 2800 4b99 2f80 bb2e 1d00 398a c53b
00000330: f804 b83b 9b39 2100 58c3 1f80 2e4b 0e00
00000340: 73c1 0a80 a266 1c80 ee1e 3c00 3299 2080
00000350: 883a 3400 79f2 2c00 d115 ca3b af72 c13b
00000360: b1a8 2e80 707e 1d00 f477 1100 7712 c83b
00000370: 7fe6 1b80 973b 4580 47e8 be3b ff29 5280
00000380: 6895 cc3b af2d 2f00 9f44 bd3b 9526 2200
00000390: 2e9b 1180 d93e c83b e68d 4e00 8fce 5080
000003a0: dce4 1580 7cc2 2980 c513 4700 8542 c53b
000003b0: 72f3 4080 b35e 5380 2286 2300 f070 1680
000003c0: 07a1 3080 97e2 0d00 03c9 4f00 5ef5 d03b
000003d0: 1549 3f00 6db8 4d00 7d66 0d80 0869 2400
000003e0: 1153 0e00 3317 d33b 5025 5080 69bb be3b
000003f0: db3f d53b 3efb ca3b e7c4 cf3b 7f9c 1e00
6.278088e-39 -2.461269e-39 6.713045e-39 -5.643794e-39 2.234092e-39 6.245811e-39 0.00577008 4.6963e-41
-2.384094e-39 -4.871848e-39 -2.788084e-39 0.006085433 0.0054468303 -7.284097e-39 5.281483e-39 2.430544e-39
1.357208e-39 -5.78036e-39 5.603927e-39 -4.666684e-39 -5.614484e-39 -5.1515e-41 0.00629527 0.0060958657
1.85811e-40 3.492323e-39 6.621662e-39 0.006507759 9.9872e-41 3.872078e-39 0.005851812 6.222673e-39
0.0060713883 4.423482e-39 0.0059825885 -4.323105e-39 7.345579e-39 0.0060716034 4.7114e-39 -5.56324e-40
-9.89685e-40 -7.459588e-39 -6.861829e-39 0.006171691 5.728224e-39 2.659381e-39 1.093642e-39 5.557607e-39
3.67278e-39 -1.29483e-39 -5.347957e-39 0.006155624 6.838108e-39 3.693928e-39 2.250802e-39 -7.061733e-39
-3.875131e-39 0.0059494516 -3.583845e-39 0.0064408686 0.006350648 0.006152032 0.00597034 2.919563e-39
4.656148e-39 -4.763304e-39 -7.51636e-39 4.277518e-39 3.11289e-39 -3.088395e-39 0.0060125436 7.547228e-39
3.530451e-39 4.086155e-39 3.619382e-39 0.0062811268 0.0057062246 -7.17011e-40 3.121922e-39 1.534028e-39
7.632035e-39 7.158026e-39 4.839892e-39 4.97617e-39 -7.382707e-39 -5.599467e-39 0.0061252713 0.0057326704
-6.656664e-39 -6.830803e-39 -3.786185e-39 0.0063903774 -2.828045e-39 -6.06461e-40 0.005881573 -2.23922e-39
0.0061784172 7.528155e-39 0.0060614534 -7.306851e-39 5.349142e-39 0.0061429315 5.972565e-39 1.63814e-39
1.6154e-41 -4.362923e-39 1.5372e-39 0.006147797 -6.389962e-39 9.8395e-40 -9.0137e-41 6.05473e-39
2.725898e-39 -7.432128e-39 7.145393e-39 0.006388419 5.454445e-39 -5.97369e-39 6.738034e-39 7.25558e-39
5.472073e-39 0.006267895 6.799621e-39 0.006184324 0.006416184 0.0061716675 0.00634802 -7.179427e-39
6.368571e-39 6.14947e-40 -5.425201e-39 2.735286e-39 -6.861665e-39 -5.090347e-39 0.0060470807 -2.995822e-39
-2.493036e-39 3.592467e-39 5.5876e-40 0.006716442 0.005580701 -7.167322e-39 2.0421e-41 4.174832e-39
-7.179642e-39 6.089575e-39 2.006348e-39 -3.97442e-39 6.831417e-39 -1.52997e-39 0.0062436443 0.0060164225
-4.6553e-40 4.576997e-39 -7.003587e-39 0.0062543307 5.700556e-39 -3.256074e-39 0.006020222 2.758078e-39
0.006276527 3.043758e-39 0.0060732174 4.750161e-39 7.265377e-39 0.006006982 6.957565e-39 -7.194251e-39
4.968161e-39 6.1064e-41 -2.570417e-39 0.006295816 6.870266e-39 -5.579118e-39 7.236696e-39 -6.046402e-39
1.713298e-39 4.346567e-39 -2.958037e-39 0.0066665374 -2.27811e-39 1.338012e-39 4.734808e-39 -1.511844e-39
-2.487948e-39 0.006223552 -3.707756e-39 0.0062519643 0.0061900853 0.0064252494 0.006176874 -2.21257e-39
-4.717743e-39 3.621105e-39 3.983618e-39 -6.428556e-39 -2.804473e-39 4.266332e-39 0.0057171583 1.077174e-39
3.754757e-39 -4.37126e-39 2.679993e-39 0.0060284403 0.0056158267 3.051236e-39 -2.916977e-39 1.312666e-39
-9.87751e-40 -2.608212e-39 5.521225e-39 -2.993692e-39 4.796443e-39 4.127745e-39 0.0061671515 0.005903564
-4.284948e-39 2.708587e-39 1.604235e-39 0.006105717 -2.562245e-39 -6.358026e-39 0.0058260295 -7.545576e-39
0.0062433966 4.332657e-39 0.0057760025 3.136247e-39 -1.616871e-39 0.0061110076 7.214072e-39 -7.420939e-39
-2.010645e-39 -3.835023e-39 6.527412e-39 0.0060198926 -5.964803e-39 -7.656318e-39 3.26236e-39 -2.060895e-39
-4.46587e-39 1.275147e-39 7.327114e-39 0.0063769063 5.811853e-39 7.137493e-39 -1.230627e-39 3.343756e-39
1.315496e-39 0.0064419745 -7.360225e-39 0.005820681 0.0065078563 0.006194501 0.0063406113 2.811205e-39

mlp.mlp.4.bias f4 [64]
00000000: d1fe 29b1 bfd9 7eb1 6e6e b8b2 1eda 27b1
00000010: 812c 8a30 c87a 4980 e7d3 1eb2 01c0 9730
00000020: 06ac 7e31 f7c3 42b1 7bc3 0b00 a1a8 8030
00000030: e5b5 8eb2 6777 9eb0 f576 1db1 09c9 1431
00000040: ba43 11b2 e358 6b80 04ac 2900 2727 4280
00000050: 9781 562f 6ee1 17b2 613d a600 2c78 2f00
00000060: 23d8 4431 8288 08b0 3b28 17b0 4acb 3a00
00000070: 3f7a 4200 1d71 1632 6261 c82e 8cf8 4880
00000080: e7ec 6e32 28bf 722f 6728 99b0 9b71 3b32
00000090: 0be0 7db1 9eed a531 0200 7731 a71d 26b2
000000a0: 5d0d 7931 9c7d 71b2 22e5 0680 0796 5a31
000000b0: 3edf bab2 76b1 c831 b6cb 9bb1 f082 4131
000000c0: 01f7 18b1 e70c 9f31 fb1e 8631 de26 12b2
000000d0: 3d34 5a31 3457 6480 d231 31b1 44ad 0100
000000e0: 105b 0632 1805 0e31 cbcd 3b80 9e9e 80b1
000000f0: 93f8 9430 c314 dbb2 3e81 4232 3a7e dd31
-2.4737583e-09 -3.708564e-09 -2.1470637e-08 -2.4425684e-09 1.005347e-09 -6.748037e-39 -9.244991e-09 1.1041267e-09
3.7059649e-09 -2.8342109e-09 1.080316e-39 9.361153e-10 -1.6613692e-08 -1.1529949e-09 -2.2914126e-09 2.165111e-09
-8.45551e-09 -9.858285e-39 3.826963e-39 -6.075188e-39 1.9509226e-10 -8.840614e-09 1.5266711e-38 4.359378e-39
2.8644613e-09 -4.96705e-10 -5.499065e-10 5.399385e-39 6.104996e-39 8.756868e-09 9.112246e-11 -6.701318e-39
1.3907289e-08 2.2077684e-10 -1.1143698e-09 1.09106635e-08 -3.69437e-09 4.829146e-09 3.5943235e-09 -9.669214e-09
3.6241865e-09 -1.40566065e-08 -6.3321e-40 3.1808456e-09 -2.1754769e-08 5.840941e-09 -4.534253e-09 2.8159626e-09
-2.2259317e-09 4.628976e-09 3.9034354e-09 -8.507156e-09 3.175287e-09 -9.214832e-39 -2.578521e-09 1.53991e-40
7.820532e-09 2.0666615e-09 -5.492119e-39 -3.743323e-09 1.0839066e-09 -2.5504397e-08 1.13216725e-08 6.446297e-09

mlp.mlp.5.weight f4 [64]
00000000: b02a 053d f956 063d e2da 083d 554a 023d
00000010: c81f 073d e9b2 4400 716f 003d 32b4 063d
00000020: 7514 063d 5830 093d 56e6 5180 98dc 063d
00000030: a12d 023d 471b f93c af60 073d c435 0a3d
00000040: 6b3e 063d 9891 3980 6dd9 0300 0d33 5100
00000050: 6b98 023d d956 023d a592 0500 6cc0 3780
00000060: 0b1f 093d 75cf 063d 6a2d 043d 58dc 2500
00000070: 6d64 0880 39ac 073d 18a8 073d 4553 1700
00000080: a888 023d 2fd4 ff3c 1540 023d 3a0c 013d
00000090: 148e 043d c97e 073d ce9b 0d3d 0940 063d
000000a0: da10 053d a190 013d 170d 0880 a1d4 043d
000000b0: e1c0 043d 4778 073d df3f 043d 3c3e 033d
000000c0: 9304 033d e64e ff3c f404 083d c844 063d
000000d0: 8548 023d 792f 4100 cc42 fc3c 7902 4980
000000e0: 0bb7 003d 7021 083d 4744 0880 a49e 003d
000000f0: 652b 0b3d cc50 013d ba57 073d b57d 073d
0.032511413 0.032797787 0.033411868 0.03180917 0.032989293 6.308995e-39 0.03135628 0.03288669
0.032734353 0.03349337 -7.521304e-39 0.03292522 0.031781796 0.030408515 0.03305119 0.03374268
0.03277437 -5.286852e-39 3.53504e-40 7.456989e-39 0.03188364 0.031821106 5.11784e-40 -5.11998e-39
0.03347687 0.03291269 0.032269873 3.476958e-39 -7.7071e-40 0.03312323 0.03311929 2.142088e-39
0.031868607 0.031229107 0.031799395 0.0315058 0.03236206 0.033079896 0.034572415 0.032775912
0.032486774 0.03163207 -7.3938e-40 0.03242934 0.032410506 0.03307369 0.032287475 0.032041773
0.031986784 0.031165551 0.03320785 0.03278044 0.03180744 5.986337e-39 0.03079357 -6.704878e-39
0.031424563 0.033235013 -7.59177e-40 0.03140129 0.03397693 0.031571195 0.033042647 0.033078868

mlp.mlp.5.bias f4 [64]
00000000: 26a2 7c3e d035 7d3e 2d9a 7e3e 6543 7f3e
00000010: e315 7f3e 9e74 5f3e c6ac 7c3e 94b4 803e
00000020: dc45 803e cd59 803e 3620 613e 04fb 7f3e
00000030: 976e 7d3e 5fa8 7c3e 78f1 7f3e 2817 803e
00000040: 77a8 7e3e 149a 5e3e e472 4100 7772 623e
00000050: c366 7f3e 4525 7a3e 778c 5f3e aff0 2380
00000060: 9c84 7e3e 1b29 7e3e 4871 7d3e ec98 3c80
00000070: 6ae4 1600 da31 7e3e a364 7f3e 4d89 0b80
00000080: 50f0 793e c7e5 7b3e 3099 7e3e 239f 7e3e
00000090: 466c 7d3e 89f3 7d3e dbcb 803e e806 7c3e
000000a0: 0145 803e 06b1 7e3e 0b03 3100 9a57 803e
000000b0: 6c23 7e3e d08d 7c3e 6b29 7d3e 5fa5 7d3e
000000c0: fd60 7f3e 8673 7b3e 9282 7d3e e53a 7e3e
000000d0: 3da1 793e e66d 5f3e c0df 7b3e b509 4a00
000000e0: 9cb6 7b3e 0abc 7d3e e6fc 3a80 6e22 803e
000000f0: ee1f 803e 16e3 7b3e 9757 803e 99ee 7f3e
0.2467123 0.24727559 0.24863501 0.24928053 0.24910693 0.2182183 0.24675283 0.2513777
0.25053298 0.25068513 0.21984944 0.24998099 0.24749218 0.24673603 0.24994457 0.25017667
0.24868952 0.21738464 6.010522e-39 0.22113977 0.24941544 0.2442828 0.21830927 -3.300583e-39
0.24855274 0.24820368 0.24750245 -5.564988e-39 2.10232e-39 0.24823704 0.24940734 -1.059445e-39
0.24408078 0.24599372 0.24863124 0.24865393 0.24748334 0.24799933 0.2515553 0.2461201
0.25052646 0.24872217 4.501031e-39 0.25066835 0.248182 0.24663472 0.24722831 0.24770115
0.24939342 0.24555787 0.2475684 0.24827154 0.24377914 0.21819267 0.24597073 6.799309e-39
0.24581379 0.24778762 -5.417182e-39 0.25026268 0.2502436 0.24598345 0.25066826 0.24993362

mlp.mlp.5.running_mean f4 [64]
00000000: 1a6f 1b3b bec4 1c3b ba08 1f3b cc81 193b
00000010: b075 1c3b d808 6280 8e35 183b 60a0 1d3b
00000020: eb4e 1c3b 8750 1e3b 4dff 7a00 40f9 1c3b
00000030: 7ab7 183b 4732 153b 1b5b 1e3b bfd1 1f3b
00000040: a586 1c3b 19d8 1c80 2c68 0f80 52f2 7e80
00000050: 31d5 193b 11a2 183b a4ea 4c00 2101 3c00
00000060: ed47 1f3b 28c3 1d3b 13e1 1a3b 7923 3100
00000070: 42e5 3500 affb 1c3b 1a7e 1d3b 76db 1280
00000080: 5994 193b 91c1 163b ee78 193b 877c 183b
00000090: 998d 1a3b 0e59 1d3b b2dd 223b 2c07 1c3b
000000a0: cb96 1b3b d18d 193b 9b34 2100 db55 1b3b
000000b0: 2d3f 1b3b f726 1d3b 4065 1b3b e981 1a3b
000000c0: 73a6 1a3b f23f 163b 2805 1e3b ae94 1c3b
000000d0: 10f0 183b 4258 7d80 4a24 163b 1562 2500
000000e0: 2e48 173b f7c1 1d3b 5e75 3580 e3f4 193b
000000f0: b544 203b a984 183b fab1 1d3b f850 1d3b
0.0023717345 0.0023920978 0.0024266676 0.0023423312 0.0023873858 -9.003051e-39 0.002322528 0.002405189
0.002385075 0.0024156885 1.1295515e-38 0.0023952276 0.002330272 0.0022765563 0.002416319 0.0024386493
0.0023883965 -2.648915e-39 -1.414902e-39 -1.16582e-38 0.002347302 0.0023289958 7.063671e-39 5.510535e-39
0.0024304346 0.002407262 0.002363269 4.512665e-39 4.949524e-39 0.0023953726 0.0024031461 -1.731767e-39
0.002343437 0.0023003558 0.0023418027 0.0023267583 0.0023582934 0.002400938 0.002485138 0.0023807986
0.0023741003 0.0023430476 3.049443e-39 0.0023702297 0.0023688779 0.0023979524 0.0023711473 0.0023575968
0.0023597747 0.0022926298 0.002411196 0.002389233 0.0023336448 -1.1511098e-38 0.0022909814 3.433099e-39
0.0023083794 0.002407191 -4.909385e-39 0.002349191 0.0024455015 0.002327243 0.002406238 0.002400456

mlp.mlp.5.running_var f4 [64]
00000000: 60a4 e836 2aa0 ec36 4c87 f336 cffc e236
00000010: 96cd eb36 0400 0000 df1a df36 c227 ef36
00000020: c459 eb36 566a f136 0400 0000 3a4a ed36
00000030: edae e036 8f4a d636 a36c f136 62ef f536
00000040: 78e5 eb36 0400 0000 0400 0000 0400 0000
00000050: 6cdb e336 be66 e036 0400 0000 0400 0000
00000060: f848 f436 29a6 ef36 c0f9 e636 0400 0000
00000070: 0400 0000 4a56 ed36 f6e2 ee36 0400 0000
00000080: e123 e336 9bd6 da36 99ce e236 b6ec df36
00000090: 4b04 e636 806d ee36 626a ff36 036a ea36
000000a0: 0f19 e936 240b e336 0400 0000 5e51 e836
000000b0: ce16 e836 efe5 ed36 308e e836 83dc e536
000000c0: c152 e636 0468 d936 2073 f036 fc17 ec36
000000d0: e349 e136 0400 0000 7b1f d936 0400 0000
000000e0: bc65 dc36 83bf ef36 0400 0000 dc2b e436
000000f0: ef57 f736 ac06 e036 2c78 ef36 d659 ee36
6.9332746e-06 7.0519936e-06 7.257715e-06 6.7647557e-06 7.027479e-06 6e-45 6.649046e-06 7.1273835e-06
7.013996e-06 7.194739e-06 6e-45 7.0717915e-06 6.6960843e-06 6.3863768e-06 7.1950067e-06 7.329437e-06
7.0302594e-06 6e-45 6e-45 6e-45 6.7906713e-06 6.687681e-06 6e-45 6e-45
7.2802613e-06 7.1420986e-06 6.883609e-06 6e-45 6e-45 7.073196e-06 7.1193745e-06 6e-45
6.769304e-06 6.5218896e-06 6.759376e-06 6.6734747e-06 6.855034e-06 7.1057e-06 7.611977e-06 6.986085e-06
6.9468583e-06 6.766424e-06 6e-45 6.923611e-06 6.9167936e-06 7.089918e-06 6.9306916e-06 6.8504028e-06
6.864168e-06 6.479213e-06 7.1659597e-06 7.0361402e-06 6.714124e-06 6e-45 6.4707688e-06 6e-45
6.5683544e-06 7.14505e-06 6e-45 6.8000354e-06 7.3714104e-06 6.676497e-06 7.136745e-06 7.103411e-06

mlp.mlp.8.weight f4 [1, 64]
00000000: 14d4 7e3e 1a71 7f3e 3374 803e 22ad 803e
00000010: aea5 803e dc7b 5f3e 3eb4 7e3e 9ed2 813e
00000020: c457 813e 5d78 813e b025 613e a115 813e
00000030: b57e 7f3e 8a9c 7e3e 9e18 813e f03f 813e
00000040: 7670 803e 2f9b 5e3e 9720 3700 c06c 623e
00000050: ecc0 803e f634 7c3e cf91 5f3e 0be5 0080
00000060: 3968 803e 0e32 803e 5a93 7f3e 9972 2a00
00000070: 4826 4e80 0a33 803e 37cf 803e 8dae 0c80
00000080: 0a1b 7c3e b9eb 7d3e 0458 803e 1258 803e
00000090: a192 7f3e 0516 803e 80fe 813e 4e3a 7e3e
000000a0: 9e58 813e c862 803e b07d 4b00 7f6b 813e
000000b0: 3926 803e 6cd0 7e3e 9451 7f3e 8dce 7f3e
000000c0: cebb 803e 7e77 7d3e 8bc9 7f3e 533d 803e
000000d0: 2bba 7b3e b372 5f3e 40e1 7d3e fbc7 4980
000000e0: e3bf 7d3e 6ffc 7f3e 2fc7 2280 b02e 813e
000000f0: 984a 813e 56ea 7d3e 6775 813e 8612 813e
0.24885589 0.24945489 0.25088653 0.2513209 0.25126404 0.21824592 0.24873444 0.25356
0.25262272 0.25287142 0.21987033 0.25211814 0.24950679 0.24864402 0.25214094 0.25244093
0.250858 0.21738885 5.062643e-39 0.22111797 0.25147188 0.24629578 0.21832965 -8.2165e-41
0.25079516 0.2503819 0.24958554 3.898201e-39 -7.176901e-39 0.2503894 0.25158092 -1.164643e-39
0.2461969 0.24796952 0.2506715 0.25067192 0.24958278 0.250168 0.2538948 0.24826929
0.25262922 0.25075364 6.93275e-39 0.25277326 0.25029162 0.24884194 0.24933463 0.24981137
0.25143284 0.24752614 0.24979226 0.25046787 0.24582736 0.21821098 0.24792957 -6.77573e-39
0.2478023 0.2499864 -3.19386e-39 0.25230932 0.25252223 0.24796423 0.25284883 0.25209445
