model/dfm_epoch_50.pt (torch, 79687 bytes, 15 tensors)

embedding.embedding.weight f4 [98, 32]
00000000: 9415 2e3e 5d2e 91be 59cf 9d3d 2df2 f8bd
00000010: 0252 8a3e 6557 79be aa73 4cbd cfed 0f3e
00000020: bcdb 983c f736 8abe a54e 8bbe 172f 8e3e
00000030: 7efe 8b3e 7218 6e3e 2f4d 87bd c69d ce3b
00000040: c494 2bbe 4e93 933e 4ace 123e a64a a03e
00000050: cabf 503e 4d42 0cbe acef 823e 7851 4ebe
00000060: 2266 98be 5f75 593e c040 30be 7138 21be
00000070: 46b2 a73e f723 a53c 180c a23c 5e70 913e
00000080: 6a83 5b3d 7420 75be 447b ff3d 176a 32be
00000090: 5ece 833e a710 4cbe 90a3 a5be 471c 3ebd
000000a0: 9cef 3bbe c262 21be 4131 063c d1ab 7d3e
000000b0: 91fe 983e 4d17 933d 6381 7dbd 1da4 e43c
000000c0: df3a 47be 9f10 8f3e a68f 763e 5f83 b23e
000000d0: be8b 473e 176d 7cbe 2d46 413d 3a42 56be
000000e0: d010 98be c2d1 683d 53be b6be b266 fcbd
000000f0: 05df 243e a0ea c73d 7c36 6d3e 6bec 643e
00000100: 760f ad3e 8b14 07be b597 7c3d 1912 233d
00000110: 80fe 883c a994 8ebe 27b3 9fbe 4eb5 0d3e
00000120: b00f 11be a939 96be 900f aabe c7a3 8c3e
00000130: 26b9 263e 2bf2 4f3e d50e f4bd ab73 78be
00000140: e97d 7abe c5d9 4d3e 0179 77bd cb18 873e
00000150: 1447 7a3e 1eb6 a3be 2176 663e 6f98 99be
00000160: b4f8 d8bd af40 9b3e d5c7 2dbe b01c a2be
00000170: 8d61 3d3e abe5 9f3e 397c 653e 2914 723e
00000180: ea9a 603b 4d11 83bd ccdd 563d 4e18 d3bd
00000190: 8d4d 643d 43de 89be a367 33be 445d d7bc
000001a0: 2da6 04be eaa5 80bc 582f 21bd 1336 0e3e
000001b0: 5a28 ab3d 55b5 2e3e 6336 3abe 6994 1ebd
000001c0: da98 8ebd dd63 743e 5195 873d 6d7f e83c
000001d0: d81f d93c 86e0 76be 5823 0c3e 5b9f 8d3c
000001e0: c016 5dbe 2eb7 b13d 95e5 9bbd 35d8 39be
000001f0: 6614 723e b47e 523e b84a ab3d 5a7a c7bc
00000200: 9317 113e 1a49 ac3c adde 7d3d 6bac b43c
00000210: 4a4c 8a3e af6a 96be fac2 f0bd 29b1 9c3c
00000220: 3dab 4a3c 5051 46be ab59 86bd 3c21 c23d
00000230: d8d5 983e ca83 083e 25fc 8abe ba92 eebc
00000240: 6000 2ebe 1198 553e 0a0c 45bd c6e8 303d
00000250: 39dd 833e a275 8dbe fe88 453e a7c3 1fbe
00000260: c854 a9bd 85c7 0f3e d783 8bbd 52f4 95be
00000270: ca1e 483d 63f8 e13c 684a ae3d 905d 9c3e
00000280: 9346 843d dd22 52bd 3406 f73b de6c 88bb
00000290: f36a 493c 212d 99bd f94c 1ebd 1427 483b
000002a0: a7b8 8abb 3e7f 3bbd 52b6 d3bc 62e0 3a3d
000002b0: 5718 073e cb58 cd3b 80ec 4dbd 0506 2a3c
000002c0: 652c 05bd f936 a93d e424 d53d 06d7 aa3c
000002d0: 0878 243d f6bc b5bc 5737 2c3d b862 6dbc
000002e0: d775 a7bd 2361 643d 005b 0bbd ed3c afbd
000002f0: 1999 c9ba 907c 533c 3024 8dbb 93e9 c23d
00000300: 0875 383e 47a6 8dbe 834c 6abd d971 183d
00000310: 0301 5d3e 3d3c 94be 531c 83bc 854b 9d3d
00000320: f79e 1fbe 30f0 19be c561 b5bd 211f 783e
00000330: ae0e 44bd 384c cf3d 14fc 7abe 341f 8ebd
00000340: 9569 1dbd e41b 2a3d e222 4d3e 4ce6 223e
00000350: 9304 8b3e 590f 0e3d c2ac 923d 94ec 8abe
00000360: 0525 90be fba9 7c3e b0f0 35be 8966 2bbe
00000370: 93b3 043e 746b 963d a515 953e 370b b0ba
00000380: 3909 413e 65ec a6bd fa7c a2bd f26c 38be
00000390: 3399 f53c 7853 ae3d f2d5 c1bd 33e8 30bd
000003a0: 402e 8fbc 0695 c73c 5044 7fbe 3573 0c3d
000003b0: b599 d4bb a50d 9d3e e6a1 9cbe 9fad 38be
000003c0: 3e18 96be 222f fd3c e011 8a3e faa9 773d
000003d0: 0407 643e 340b 56be b8ea 823e 6823 933d
000003e0: 092e 81be 898d 933e 9295 87be d536 49bd
000003f0: 1ca5 9d3e 9cca 9e3e 2493 093e 87cd 5c3e
0.17000419 -0.28355685 0.07705564 -0.12155566 0.27015692 -0.24349745 -0.049914993 0.1405556
0.018659465 -0.2699506 -0.2720844 0.27770302 0.273426 0.23251513 -0.066065185 0.006305429
-0.16755968 0.28823322 0.14336506 0.31306952 0.20385662 -0.13697167 0.2557348 -0.20148265
-0.2976542 0.2123618 -0.172122 -0.15744187 0.327532 0.020158751 0.019781157 0.28406042
0.053592123 -0.23938161 0.12474683 -0.17423283 0.25743383 -0.19928227 -0.3235135 -0.046413686
-0.18353122 -0.1576033 0.008190454 0.24772574 0.2988172 0.07182179 -0.06189097 0.027910287
-0.19456051 0.27942368 0.24078235 0.34865853 0.19486901 -0.2465099 0.047186065 -0.20923701
-0.29700327 0.056840666 -0.3569208 -0.12324275 0.161007 0.09761548 0.23165315 0.22355811
0.33800858 -0.1319143 0.061668117 0.03981218 0.016722918 -0.27847794 -0.3119137 0.13838693
-0.1416614 -0.29340866 -0.33214998 0.27468702 0.16281566 0.20307223 -0.119168915 -0.24262874
-0.24462093 0.20102604 -0.060418133 0.26386103 0.24441177 -0.31974882 0.22506 -0.2999911
-0.10594311 0.30322787 -0.16970761 -0.31662512 0.18494244 0.3122991 0.22410668 0.23640503
0.0034272023 -0.06399784 0.052457616 -0.1030737 0.05573802 -0.26927385 -0.17520003 -0.02628959
-0.12954016 -0.015704114 -0.03935179 0.13887815 0.08357306 0.1706136 -0.1818481 -0.038715754
-0.06962748 0.2386622 0.06620277 0.028381074 0.026504442 -0.24109086 0.13685358 0.0172879
-0.2159071 0.08677517 -0.07612149 -0.18148883 0.23640594 0.20556146 0.08363861 -0.024350334
0.14169149 0.021030951 0.06197994 0.022054872 0.2701133 -0.29378268 -0.11755939 0.019127445
0.012369928 -0.19366956 -0.065600716 0.09478995 0.2985065 0.13331524 -0.27145496 -0.029122699
-0.1699233 0.2085879 -0.048107184 0.04319074 0.25754717 -0.2762881 0.1929054 -0.15601979
-0.08268124 0.14040954 -0.06812256 -0.29287964 0.048857488 0.02758426 0.085102856 0.30540133
0.064587735 -0.05130278 0.0075385813 -0.0041633686 0.012293565 -0.07479311 -0.038647626 0.003054087
-0.004233438 -0.045775644 -0.025843773 0.045624144 0.13192879 0.0062666885 -0.050274372 0.010377412
-0.03251304 0.08262438 0.10407427 0.020854484 0.040153533 -0.02218483 0.042044964 -0.014488868
-0.08176773 0.0557567 -0.03402233 -0.085565425 -0.001538071 0.012908116 -0.0043072924 0.09517207
0.18013394 -0.27665922 -0.057201874 0.03721795 0.21582417 -0.28952208 -0.016004717 0.0768042
-0.15587984 -0.1503303 -0.08856539 0.24230625 -0.047865562 0.101219594 -0.24510223 -0.06939545
-0.03843077 0.041530505 0.20032838 0.15908164 0.27151927 0.034682605 0.07161857 -0.2713362
-0.28153244 0.24674217 -0.17767596 -0.16738333 0.12959127 0.07344714 0.29118076 -0.0013431077
0.18851174 -0.081505574 -0.07933994 -0.1801031 0.029980278 0.08512014 -0.09464635 -0.043190192
-0.017478108 0.024363052 -0.24928403 0.034289557 -0.00648805 0.30674472 -0.3059227 -0.18034981
-0.2931537 0.030906264 0.26966763 0.060464837 0.22268301 -0.20902711 0.255697 0.071844876
-0.25230435 0.2881892 -0.264813 -0.049124558 0.3079003 0.31013954 0.13435036 0.21562777

linear.fc.weight f4 [98, 1]
00000000: ad75 89bf a7e0 85bf 6576 a9be efa0 babe
00000010: c714 373f a654 cd3f 638c 87bf 2718 cc3f
00000020: ddf8 b8bf 1d29 133e 5e72 7e3f c606 903f
00000030: dd26 23bf 16d7 a2be b886 d4bf 26dc c13d
00000040: 809f 743f a4ab 4fbf a23e 27bf 6af1 e43e
00000050: f203 db3e 0e36 01bf 4c8c af3e bed2 d4bd
00000060: 1ccb f43e e1e7 fc3e 4fae 683d 705b ab3e
00000070: d828 0ac0 b242 7dbf 4248 2bbe a68d 103d
00000080: eea2 91be 5902 04bf 2051 5c3a 12be 9039
00000090: 5f4d 27b9 b819 0a3f e400 9a39 f7f1 863d
000000a0: 823e 22be f392 2e3b 8e1a 84be 98e9 3d3e
000000b0: 958b 41bf 6106 bbbd 66ba 3abd c523 c93f
000000c0: 5ada 50bd 7bc0 e33e b330 e8bf 635f 203c
000000d0: 1dfb 163d c941 5a3e 47b4 633a 9e08 ffbd
000000e0: 5e3b 6a3f 9f79 df3b f069 39bf 7100 f03d
000000f0: cf37 7fbe afb0 13be eb13 853d 86dc 993d
00000100: 1484 2bbe 0bc7 b939 bb54 5bbb 44b5 4bbf
00000110: 5650 4c3f ca44 afbf 823d 68bf f6fd fe3e
00000120: 59f0 363e 9b9e f4be c337 913a 15c2 383f
00000130: d647 a0bd 19a5 6c39 5512 de3e f7fb 723d
00000140: 1fdc 603e 7a0c 443e 1355 debd e7e8 bd3b
00000150: 97b8 223f 2cd4 1e3f 09ef 843f 8234 f6bd
00000160: 0e01 cebe 4951 afbe 38ef e93e 739a c2bc
00000170: 27ce 813e dbf5 003c 4d90 493e 7cb6 6ebd
00000180: 351f e639 482a ee3e
-1.0739037 -1.0459183 -0.3309814 -0.36450908 0.7151608 1.6041458 -1.0589718 1.5944871
-1.4450947 0.14371152 0.9939326 1.1252067 -0.63731176 -0.31804723 -1.6603613 0.09465818
0.9555588 -0.8112128 -0.65329945 0.44715434 0.42776448 -0.50473106 0.34286726 -0.103917584
0.4781121 0.4939566 0.05680686 0.334682 -2.158743 -0.98929894 -0.16726783 0.035291336
-0.28444618 -0.5156608 0.00084044226 0.00027607434 -0.00015955184 0.53945494 0.00029373833 0.0658912
-0.15844157 0.0026637882 -0.2580151 0.1854614 -0.7560361 -0.09132076 -0.04558792 1.5714041
-0.050989486 0.44482788 -1.8139862 0.009788367 0.036860574 0.21314158 0.0008686226 -0.124528155
0.9149684 0.0068199183 -0.7242727 0.11718834 -0.24923633 -0.14422868 0.0649794 0.07512765
-0.16749603 0.00035434248 -0.0033467251 -0.79573464 0.7981008 -1.3692868 -0.90718853 0.49803132
0.17865123 -0.47777256 0.001107924 0.72171146 -0.078262016 0.00022568218 0.4337336 0.059322324
0.2195897 0.19145384 -0.1085607 0.0057955864 0.6356291 0.620425 1.0385448 -0.12021734
-0.4023518 -0.34241703 0.45690322 -0.023755288 0.25352594 0.0078711165 0.19683953 -0.0582795
0.0004389227 0.46516633

mlp.mlp.0.weight f4 [64, 160]
00000000: cad2 adb8 a75b 3d39 0870 1539 d517 32b9
00000010: 319b ec36 0768 0e39 cc50 0e38 13bd 073c
00000020: 5583 f5bb 7d13 093a 918f 1bbc 6226 4cb8
00000030: 01ae 94b7 7989 92bb 072d 30b9 7bf8 0ab8
00000040: 52ab 7e38 e183 79b7 12cc e13a 7960 04ba
00000050: 6a13 fa39 1626 8eba 4db8 6ebc 2a72 8039
00000060: 65e4 f136 e63d d0bb 8eb1 cabb c843 8038
00000070: 2447 c8bb 17f4 9d39 5308 a0ba 8663 5ab9
00000080: 06df 0c3c 9475 9039 c478 4ab8 ae3d 2f3b
00000090: b94b 673b 1ce5 e5b9 2f55 823a 8bdc 3abb
000000a0: c9c3 183b b966 1cbc 901f a03a aa15 71bb
000000b0: adaf 813b 667e 07ba e8b6 c03a fb2c 023c
000000c0: f0fa 063b af29 1ebb dc64 7abb 7f14 0abc
000000d0: 6a9f 0a3b 8ad9 053a 193c 34ba e460 4bbc
000000e0: e5a6 583b c80a 1d3a 99e5 ab38 0422 bbb9
000000f0: a4c2 02bb 5639 f63b 6491 003b 7c4b febb
00000100: 0d90 4b3b 3413 8b3c 8a96 cfb9 6ab8 8b3c
00000110: 0c0f ec39 1733 7abc 9f28 3ebc c4ec 293c
00000120: 5852 07bc 9190 463c 0577 43bc 1f98 23bb
00000130: af26 ccbb b720 9e3c 2425 fe3b 8278 dbba
00000140: 77c7 263c d00f 343b e18f 553c 3011 44bb
00000150: 9731 b83b 6d75 e23b f924 1e3b 0015 8a3c
00000160: c655 43bc f155 1f3b 710e ad3c 7a5b 46ba
00000170: e850 dc3a 65c0 463b a5c4 673b 2b0d 58ba
00000180: e8ea 27ba bc89 af3a 8759 0b39 0e32 203c
00000190: c0d0 c2bb dd29 ba3b ee22 103a 28f5 303b
000001a0: faee d7bb b65b 2f3c 2110 6e3b 8e25 d5bb
000001b0: d516 8b3a 642a 333c 9102 533a 0dbd ca3a
000001c0: e859 e4b9 4b06 b43b 3a9b 0e3c 993c b3bb
000001d0: 11b0 0fbc 0d72 22ba b896 e73b 3ac7 2c3b
000001e0: f29c aebb 451f cebb 3e0f 3fbb b878 5c3b
000001f0: 1fc3 f23a cf3c 4bbc 54f0 fbb9 9330 dcba
00000200: 3a5d 153c f82b aa3b 1ebb 20bc 8527 53ba
00000210: 9f03 2c3c cee8 00bb a0ea 883b 070a 8e3c
00000220: 55d1 95bc b1b6 51b7 f099 343c ccc8 133c
00000230: 0be7 b5bb c4aa 643c a6aa 1c3b 9127 763b
00000240: 5a61 fbbb 6962 3abb 929f e13a 45c0 8abb
00000250: cc2c db3a 3316 14bb d9f4 fcbb 007e bfbb
00000260: 960b 643a 134d 85bc 6217 8ebb 83b7 60bc
00000270: 43e9 c13b a799 043b 2fc7 4fb9 a01c 833c
00000280: baef 9a39 87db adb9 7af4 9db9 da16 a839
00000290: 049b f538 ff93 90b9 d9e8 bdbb 6907 4d3c
000002a0: e89f c5bb e393 13bb ab83 edbb ba9e 6a39
000002b0: 2619 6bb9 c109 3fbb 4c59 00b9 782c 58b9
000002c0: ecd9 8d39 a302 9c38 8814 5cb9 0f1b 20ba
000002d0: 941a a939 3fba d13a 18cf febb 7144 4a39
000002e0: 2eaa 07b7 5aa2 273b e5e3 f13b 5d8b 82b9
000002f0: 17cc 14ba 605f 15ba c88b 1dbc 5a26 df39
00000300: 0591 303c 634f ff39 d79a d9b9 b6d9 f93a
00000310: c337 b7bb af86 593a 2c11 813b 27f0 46bb
00000320: 5287 173c 9b16 3dba 4e2e 1a3c 6c36 21bb
00000330: 1f8f 913b 9344 90ba fd77 97bb c1bf 2ebc
00000340: 46e8 0a3a 5cb0 6fba 13aa f5b9 00f1 fd3a
00000350: d90b fa3b 7b85 1c3b ecae 23bb 22ad b53a
00000360: abbc 1239 c4e0 443b c591 b839 5ca9 10b9
00000370: bd13 8cbb 8f9c 333c 08ee 64ba d290 813c
00000380: 26a1 493c 6085 be3b 905a c0bb 1de3 f03c
00000390: d1ed 6f3c c597 e83c 08e1 3bbc db96 81bc
000003a0: 751c cdbc 4e36 983b 22ee b33c 183e cf3b
000003b0: e132 8e3b 8de9 c4bb 4bbc 96ba d423 81bc
000003c0: 43b6 9b3c c0f9 8abb 386e 373c 4756 693c
000003d0: 0a2c 103c 6adc abbc 258a 11bb 2fdd 77ba
000003e0: 29a1 5fbc 0f82 b5bb 46f4 b63c 9d8b f8bb
000003f0: 6e27 8bbb 3cb3 b33c db77 12bc 701e 81b9
-8.288545e-05 0.00018058588 0.00014251482 -0.00016984281 7.0514147e-06 0.00013580928 3.3930686e-05 0.008284825
-0.0074924626 0.0005229039 -0.009494678 -4.8673137e-05 -1.7724002e-05 -0.0044719544 -0.00016801442 -3.313318e-05
6.0717874e-05 -1.4872262e-05 0.0017226955 -0.0005049776 0.0004769818 -0.0010845091 -0.014570308 0.0002449912
7.2089483e-06 -0.006355035 -0.006185717 6.116141e-05 -0.0061119962 0.00030127235 -0.0012209512 -0.00020827175
0.008598095 0.00027553423 -4.8273025e-05 0.0026739645 0.0035292937 -0.00043848983 0.00099436 -0.0028512802
0.0023310056 -0.009545975 0.0012216438 -0.0036786594 0.0039577098 -0.0005168676 0.0014702948 0.0079452945
0.0020596348 -0.0024133732 -0.003820709 -0.008427738 0.0021152147 0.0005105963 -0.00068754103 -0.012413237
0.0033058461 0.0005990681 8.196681e-05 -0.00035692763 -0.001995244 0.007514159 0.001961791 -0.0077604633
0.0031061203 0.01697693 -0.00039594277 0.017055709 0.00045024639 -0.01527097 -0.0116063645 0.010371391
-0.008259378 0.012119428 -0.011930232 -0.0024962497 -0.0062301974 0.019302709 0.0077558924 -0.0016744288
0.010179392 0.0027475245 0.013034792 -0.002991747 0.005621146 0.006910971 0.0024130924 0.016855717
-0.011922305 0.00243127 0.02112505 -0.00075667317 0.001680878 0.0030327078 0.0035365012 -0.0008241708
-0.0006405548 0.0013392488 0.00013289425 0.009777559 -0.005945295 0.00568126 0.0005498369 0.0027001593
-0.0065897675 0.010703018 0.0036325532 -0.006504721 0.0010611663 0.0109354 0.00080493937 0.0015467718
-0.00043554534 0.0054939142 0.008704001 -0.0054698703 -0.008770005 -0.00061968045 0.0070675276 0.0026363865
-0.005328768 -0.0062903487 -0.0029153372 0.003364129 0.0018521285 -0.012404635 -0.0004805351 -0.0016799144
0.009116465 0.0051932298 -0.009810237 -0.00080549 0.01049891 -0.0019670012 0.00417836 0.017338766
-0.018288294 -1.2499907e-05 0.01102303 0.009020042 -0.005551224 0.013956729 0.0023905425 0.0037560205
-0.0076715173 -0.0028440005 0.0017213693 -0.004234346 0.0016721725 -0.002259624 -0.007719618 -0.005843878
0.0008699236 -0.016272103 -0.0043362835 -0.013715628 0.0059176995 0.0020233185 -0.0001981526 0.01600486
0.0002955178 -0.00033160692 -0.00030127523 0.00032060483 0.00011711384 -0.00027576086 -0.00579558 0.012513974
-0.006031025 -0.0022518567 -0.007248362 0.00022375109 -0.00022420715 -0.00291501 -0.00012240297 -0.00020615931
0.0002705598 7.439151e-05 -0.00020988483 -0.00061075477 0.00032253994 0.001600094 -0.0077761523 0.00019289718
-8.08625e-06 0.0025578947 0.0073819035 -0.00024899366 -0.0005676164 -0.0005698111 -0.009615846 0.0004256245
0.010776763 0.00048696538 -0.0004150483 0.0019062075 -0.005591364 0.00082979625 0.0039388146 -0.0030355544
0.0092485715 -0.00072131463 0.009410454 -0.0024599088 0.00444211 -0.0011006765 -0.004622458 -0.010665835
0.00052988937 -0.0009143406 -0.00046856757 0.0019374192 0.007630807 0.0023883271 -0.0024976088 0.0013860802
0.0001399393 0.0030041197 0.00035203822 -0.00013796001 -0.004274814 0.010962619 -0.0008732979 0.015816126
0.012306487 0.0058142394 -0.005870171 0.029405171 0.014644102 0.028392682 -0.011467226 -0.015819004
-0.025037983 0.0046451455 0.021964137 0.006324541 0.0043395613 -0.0060092867 -0.0011500207 -0.015764154
0.019007808 -0.0042411983 0.011195712 0.0142417615 0.008799562 -0.020979125 -0.0022207585 -0.0009455261
-0.013649263 -0.005539186 0.022333276 -0.0075850026 -0.0042466437 0.021936052 -0.008939709 -0.00024627475

mlp.mlp.0.bias f4 [64]
00000000: bc4b 3b33 a542 6bb4 c18f 1eb2 d8d0 a3b0
00000010: 87a1 72b2 fa4b e630 2774 aa34 f34d 39b4
00000020: 6769 44b1 15dc b631 1929 4433 4cfe 2c32
00000030: 5a39 4834 ae95 0d33 14d5 9433 882d f9b0
00000040: 3d08 aeb3 787e cc32 8915 02b3 6aea b430
00000050: a759 8334 a8b1 0fb4 9afd 8eb1 b2f8 a1b3
00000060: 7fa6 d832 e111 0fb3 a177 adb3 4430 edb3
00000070: c9da 19b3 9cee bbb3 111c 16b5 d19d 7a32
00000080: e5f7 fc31 f838 3a33 e384 a2b2 163a 7b31
00000090: a41b aa32 ebe8 cd32 040f b8b4 f338 9332
000000a0: fd80 5634 c8e3 0d33 fbc6 b932 baf9 7730
000000b0: e458 b0b1 1bb5 82b3 80be b133 824b 9731
000000c0: d339 8734 4811 cfb1 f299 bbb1 2d28 1433
000000d0: 4caa 1432 32ec 7db4 0299 a934 bc87 cd33
000000e0: 99b1 88b2 5013 8ab4 3351 1cb1 7c04 9d34
000000f0: 38b2 cbb4 14fe 42b5 e6db 1631 8c54 592f
4.360821e-08 -2.1910326e-07 -9.229496e-09 -1.1919168e-09 -1.4122981e-08 1.6756296e-09 3.174948e-07 -1.7257825e-07
-2.8581668e-09 5.3219176e-09 4.5672184e-08 1.0069538e-08 1.8647316e-07 3.2965254e-08 6.930546e-08 -1.8130075e-09
-8.104005e-08 2.3806237e-08 -3.028757e-08 1.3163348e-09 2.4465882e-07 -1.3382544e-07 -4.161575e-09 -7.542384e-08
2.5221423e-08 -3.3311043e-08 -8.0777006e-08 -1.1044952e-07 -3.5822072e-08 -8.751269e-08 -5.5920196e-07 1.45877985e-08
7.3623476e-09 4.3358312e-08 -1.8919712e-08 3.6558325e-09 1.9803174e-08 2.397106e-08 -3.4283596e-07 1.713895e-08
1.9977229e-07 3.3036287e-08 2.162732e-08 9.021296e-10 -5.13238e-09 -6.0865396e-08 8.2768565e-08 4.4032626e-09
2.5187782e-07 -6.0264576e-09 -5.459918e-09 3.4495475e-08 8.653455e-09 -2.3648388e-07 3.159003e-07 9.570746e-08
-1.5913246e-08 -2.5718555e-07 -2.2747144e-09 2.9246792e-07 -3.7941368e-07 -7.2640364e-07 2.195287e-09 1.9766072e-10

mlp.mlp.1.weight f4 [64]
00000000: aa9e 9c3d 4e44 ce3d 3921 403d a33e 2d3d
00000010: 9d9c 853d a88d e93c 8e1f 893d 1faf a23d
00000020: 1617 3d3d 1b01 5a3d 7e9c 973e f0ed 9b3d
00000030: 8a8a 273d f11f 103e 7532 933d 7dd8 e73d
00000040: e738 883d e42b 8f3e 5cfc 973d dd85 073e
00000050: 9e26 8c3d c13d 473e 8eec 993d 076c fe3d
00000060: 12c8 ce3d 9553 803d 8b9f b03d a1c0 563d
00000070: 536d 3d3d 6598 6a3e 1d64 6b3d b291 cc3d
00000080: 68cf 1f3e b177 483d e5c6 213e d9a2 213e
00000090: bc58 d03d fb25 6e3d 6f89 7d3d f0cb 493e
000000a0: 5517 ed3e c797 6d3d 4514 843d 3802 583d
000000b0: 098a 993d aade 423d fbaf aa3d 2c65 633d
000000c0: af3b ea3d 8666 353d 9b09 733d 4436 5f3d
000000d0: e9e0 4a3d 8cef 9b3d f642 803d 8908 823d
000000e0: e309 3e3d b545 b53d 92ee 5c3d 7f91 293e
000000f0: 2c74 d13d 7396 813d 90d7 043e 9b79 533e
0.0764745 0.10071622 0.046906684 0.042296063 0.06524012 0.02850993 0.06695472 0.07943558
0.046164595 0.05322371 0.29611582 0.07613742 0.040903606 0.14074685 0.07187358 0.11320589
0.06651478 0.27963173 0.074211806 0.13234659 0.06843303 0.19457151 0.07515822 0.12422948
0.10096754 0.06265942 0.086241804 0.0524298 0.046246838 0.22909696 0.057468522 0.09988727
0.15606463 0.04894227 0.15798528 0.15784778 0.10173175 0.05814169 0.061898645 0.19706702
0.46306863 0.058006074 0.064491786 0.05273649 0.07497031 0.04757563 0.08334347 0.055516407
0.11437165 0.044287227 0.059335332 0.05449511 0.049530897 0.07614049 0.06262772 0.06349284
0.046396147 0.08851186 0.053938456 0.16559409 0.10227236 0.06327524 0.12972856 0.20651858

mlp.mlp.1.bias f4 [64]
00000000: 3aa3 183d 0d8c b43c 2e65 353c 1c7e ef3c
00000010: 7795 f23c 3051 3e3c a967 84bc 12ba a33c
00000020: 065f 803c 4ca3 ac3c f08d 923b 0b98 81bb
00000030: ef50 0e3c a42a 43bb 8b64 e83b a2f7 2e3d
00000040: 3e5c 113d c129 44bc af35 3a3d af37 63bc
00000050: 8897 0d3b 7020 3c3d 2ffd 8c3b 749a 333b
00000060: f046 30bc 47b9 693c 1a32 f43c 3eb8 3b3c
00000070: 1301 8f3c 5605 92bc fa61 17bc 6438 343d
00000080: aa10 38bc b1ac b03a 254e cebc 5bc6 fabb
00000090: 45b5 67bc 0907 15bb e261 f73c 7fa5 37bc
000000a0: e4c8 5abc 6a39 0c3d 16dc c23c dea7 353c
000000b0: e307 e43c ae1c 313c 5976 abbc 90d4 b63c
000000c0: 85d2 a6bc bf00 a93c 3162 9d3c fc30 f53b
000000d0: c1b1 823b 9d85 d03c 4a4e 653c a93f c23c
000000e0: 354f 733c 85c4 3dbb 27ca ea3c 3b97 1fbc
000000f0: b51a ecbb faa7 b93b aa5c a4bb 83c1 3abc
0.03726504 0.022039438 0.011071486 0.029234938 0.029612286 0.011616036 -0.01616271 0.019986186
0.01567031 0.02107396 0.0044724867 -0.0039548925 0.008686288 -0.0029780054 0.007092064 0.04271663
0.03548836 -0.0119728455 0.045461353 -0.0138682565 0.0021605212 0.045929372 0.004302643 0.0027405294
-0.0107591 0.014265365 0.029809047 0.011457501 0.017456567 -0.01782481 -0.009239668 0.04399909
-0.011234442 0.00134792 -0.025183747 -0.0076530403 -0.014142339 -0.002273979 0.030198041 -0.011208891
-0.01335356 0.03423444 0.023786586 0.011087386 0.027835792 0.01081006 -0.020930456 0.022318155
-0.020364055 0.020630239 0.01921186 0.007482646 0.003988475 0.025454337 0.013995716 0.023711996
0.014850427 -0.0028956246 0.028660847 -0.009740646 -0.007205332 0.0056657763 -0.005015929 -0.011398676

mlp.mlp.1.running_mean f4 [64]
00000000: 640f 983a 67b0 153c f480 1aba 5f3c 8c3b
00000010: 1bc3 0f3c 826a efbb fd2d 5fbc 6756 48bc
00000020: 2fc6 933a 0036 8f3a 79d5 7c3c 2ce5 6abc
00000030: 51ff 59bc a9d8 9a3c 5153 17bc b7c3 163b
00000040: 3e8d c83c 7cbb 62bd adc1 783b 61f8 57bc
00000050: 1d54 23bc c30c ab3c 3768 b5bc 8e5f 5cbd
00000060: a594 01bd acd9 99bb 8cb5 033c 8943 873b
00000070: 895e 083c abd2 9abc 6f42 cebc 0321 3e3b
00000080: 7613 07bc 73a9 9dbc a164 f83a e603 b6bb
00000090: 785c a1bb 909f a0bb 577e 343c 72b1 6fbc
000000a0: 5ac0 ce3c 06d8 29bc 3315 0bba a760 b6bb
000000b0: c7f2 1d3c 2dcd d3bb 6ef6 6cbc fe9e 3e3b
000000c0: fb0b b0bc 96a6 253c fc7f 02bc f8d9 6fbc
000000d0: 99fe 01bb 962e 813c 33c2 80bc d220 4e3b
000000e0: 183b 4b3b 6f2e d3bb d1a4 573b e7eb 8ebd
000000f0: 2b28 323c 8a27 83bc 4fab 063a 0e39 a93c
0.0011601266 0.009136296 -0.00058938493 0.0042796577 0.008774544 -0.007306398 -0.013621804 -0.012227631
0.0011274273 0.0010926127 0.015431755 -0.014336865 -0.013305501 0.01890214 -0.009236173 0.0023004839
0.024481412 -0.05535458 0.0037957237 -0.013181777 -0.009968785 0.020880109 -0.02214442 -0.053802066
-0.0316359 -0.004695138 0.00803889 0.004127924 0.00832332 -0.018899282 -0.025178162 0.0029011376
-0.008244386 -0.019245839 0.0018950888 -0.005554664 -0.004924353 -0.004901834 0.01101645 -0.014629709
0.025238205 -0.010366445 -0.0005305588 -0.005565721 0.009640402 -0.006463668 -0.01446305 0.0029086466
-0.021490088 0.010110518 -0.007965084 -0.01463937 -0.001983559 0.015769284 -0.015717601 0.0031452668
0.0031010564 -0.0064447443 0.0032904635 -0.069785886 0.010873835 -0.016010065 0.00051372213 0.020657089

mlp.mlp.1.running_var f4 [64]
00000000: d371 e137 b58c 6838 ebc6 6838 8bc6 e738
00000010: cc7e 7f38 2910 a738 1bb8 7238 8276 cc38
00000020: 591c a838 2fbb 7938 56f5 383a 5f59 9639
00000030: b1da d437 71d5 8a3a a114 9d38 804b 4539
00000040: 39c4 a338 4a94 9d3a 15c5 a838 b870 8b3a
00000050: 4984 8e37 4963 7839 37d9 5b3a 01d2 a939
00000060: 98d2 a839 6aa2 0c38 0455 0d39 ffef e537
00000070: 8777 f937 f245 af39 17bf 4438 8846 f838
00000080: fe56 163a 446d 8638 1fcf 5f38 c687 723a
00000090: f757 ed38 481f cb37 2c0c df37 cdc6 8a39
000000a0: ea57 5139 8d20 7039 0b76 dc38 a9e9 8f38
000000b0: 1f54 2e39 e991 3338 849b cf38 e9cc 2a39
000000c0: 8db9 dd38 a7cf 6538 6a79 343a c62b 1039
000000d0: 255e f137 91a6 8e38 390a c837 71d2 7838
000000e0: 0dcb a138 8f77 5337 28a4 1239 bbb6 8639
000000f0: c11a 1f38 cf89 d137 2630 9539 4b20 aa3a
2.6875094e-05 5.5444154e-05 5.5498367e-05 0.0001105192 6.0914826e-05 7.9661906e-05 5.7868758e-05 9.749552e-05
8.0161444e-05 5.9540555e-05 0.0007055601 0.00028676816 2.5374206e-05 0.0010592175 7.490186e-05 0.0001881551
7.808995e-05 0.0012022343 8.047574e-05 0.0010638451 1.698932e-05 0.0002368811 0.00083865545 0.00032390657
0.00032200362 3.352986e-05 0.00013478479 2.7410684e-05 2.9738772e-05 0.00033430714 4.6908008e-05 0.00011838699
0.0005735009 6.40997e-05 5.336024e-05 0.0009251799 0.000113174254 2.4214052e-05 2.658934e-05 0.0002646953
0.00019964544 0.0002290031 0.00010512405 6.862294e-05 0.0001662527 4.2812815e-05 9.899496e-05 0.00016288798
0.00010572663 5.4791246e-05 0.0006884547 0.00013749217 2.8773278e-05 6.802113e-05 2.3846618e-05 5.9323796e-05
7.7148994e-05 1.2604417e-05 0.00013984798 0.00025694616 3.793347e-05 2.4978914e-05 0.00028455368 0.0012979595

mlp.mlp.4.weight f4 [64, 64]
00000000: 63b6 dbba 4e38 9139 2683 03bc e471 02bc
00000010: d733 ccbb 5148 77bb 48b6 173c 8701 093b
00000020: a697 bd38 1832 2ebc 9589 273b 167f 103c
00000030: e8fe 113b 6272 4ab7 3ff5 36bb 4d43 78bc
00000040: 279f 96bb 2d9e 653b 8e05 63bc 6669 8d3b
00000050: 2780 c63b 4e98 80bc 6dcd 8c3b f392 223b
00000060: 61bb 253b fb63 8eba 35d1 3ebc e28b 1d3a
00000070: 2fcf d3bb 4bce 0abc 6d45 daba 6d0a 8abc
00000080: d5ba aa3b daac 043c 441e 8b3b 4652 5e3b
00000090: f1bd 033c aae3 c63a c483 a1bb 5044 a9bb
000000a0: 5933 46bb 9474 57bc bb77 4abc 0dc8 5139
000000b0: 6d5f 77bb ef0c 8c3b ad9d e7bb b799 1cbc
000000c0: b326 4b3b cd60 d03a 6240 babb 4ba4 b9bb
000000d0: 411f a33a 18b2 f7bb 5bfc 0f3b 30f4 33ba
000000e0: 85b2 4fbb e702 cb3b 130c 30bc 9e49 84bb
000000f0: 24ad de3c aa02 ad3b 2865 41ba fbae 13bc
00000100: e0d7 02bd ccb5 d1bc 2377 0abc 9571 b13b
00000110: 0c96 95bc 50c1 823c 346b 46bb 6add dc3c
00000120: ec84 10bd 2701 1e3c f3d1 03bd 77f3 c03b
00000130: 8a3a 1fbc ec1f 10bd f772 8dbc 0a09 693c
00000140: ec00 69bc 9fe1 a8bc 542c 093b a487 bdbc
00000150: ba3b 983c 0272 bd3c 9f5a c4bc 0961 cb3c
00000160: 0719 04bc ddd9 223b 8365 29b9 d56d d53b
00000170: 937c 373c a6bd e23c 96e4 8abc 2952 463c
00000180: b6d3 bbbc 6d9f f03b 3534 95bc 0d8a f6bc
00000190: 30a7 963c 9539 a4bc faf1 c1bc 4505 f73b
000001a0: 09f2 0b3b f005 a6bb c5f8 5f3c b1c4 3f3c
000001b0: ef51 82bb 941e 5abc d8da 95bc 7f09 72bc
000001c0: 5f7a 023d 195b ffbb c915 27bb 7181 083d
000001d0: 1c27 e4ba c93b d2bc d84c c83c b9dc 82bc
000001e0: 9cab 8bbb 51a4 733b 8a1a b73c 189e 38bb
000001f0: c55e bdbc c527 583c 16e1 03bb 2615 e83c
00000200: b1b6 3fbb e4fe 4bba b52e 713b 91c5 57bc
00000210: c7be 36bc 03e6 cabb 2fe1 133d 7fe5 e43c
00000220: fb3b c739 4e96 d6bc b41e 2e3c 9f54 c93c
00000230: 6a92 a93c 736e d33c 69b9 50bc 7660 36bc
00000240: 1ffa a93c 9ceb 493c 6da6 01bd ae9f 4abc
00000250: 4d93 813c 8d21 6abd 1fd3 bf3c f0e7 063c
00000260: d049 45ba e907 87bc c682 fabc 1583 d13b
00000270: acc7 19bc af45 e1bc 124c 2b3c d626 febc
00000280: fa37 9c3c 2791 19bc 9c94 0c3c 7b64 113d
00000290: 924c b1bb f1bd 02bb 0191 27bc f7e1 ccbb
000002a0: 5f14 f6bb 3a3c bcbc 930f 4abc 31ab 8dbc
000002b0: 1db0 0dbd 2b07 3ebc 6976 4ebc 2ad3 a2bc
000002c0: c306 a8bb 1563 acbc b795 fc3b c84a 483b
000002d0: a38c 683d 8330 6ebc 6071 5b3c 40f2 eebb
000002e0: aa5c b33c 191f 813c f608 99bc 256f 883c
000002f0: dd3a 92bb b3aa 0e3c e530 22bc 47a8 84bc
00000300: 3959 a7bb 6a1e 1cbc cab7 753b b06c db3a
00000310: 4d3c 17bb 1ca8 283b 392e 36bb 1241 a4ba
00000320: 351b d2ba c316 dc3b 395a a3bb 9fff 98bb
00000330: 165b 9f3b 6f99 79bb 331b 54bb 87dd 2e3c
00000340: cf3c 8cbb bdc5 edbb 5ffa 073c 9327 84bb
00000350: 6c71 fbb9 85b8 3e3c 8142 5cbb d4da 71bb
00000360: 47d0 56bb 14b6 743a 3ae9 7d3b d2fe 8a3b
00000370: 7436 a0ba 8c32 e73b 6aac 523a 6de5 323c
00000380: 5c54 b2bb 301e 83b9 656f 95ba b405 99bb
00000390: da14 0cbb 7a0f 4fbb 07f3 5bbb 9791 c33b
000003a0: 479d df3a 850a de3b 9e1e e43b e88f 0fbb
000003b0: ef9c f63a dca4 0a3b 847b 8b39 7fc1 0b3b
000003c0: 77a8 263a 83d2 e2ba d688 383b 46bd 743a
000003d0: 9e58 9839 5ca6 afba fc37 05bc 26f3 0139
000003e0: 1e34 7e39 168c 203b d14e 933b 25a5 ab39
000003f0: a8ed 37bc 1927 553b de16 553a c03f 913b
-0.001676273 0.00027698505 -0.008026874 -0.007961724 -0.0062317657 -0.0037732313 0.009259768 0.0020905451
9.040469e-05 -0.0106320605 0.0025564183 0.008819362 0.002227718 -1.206677e-05 -0.0027917174 -0.0151527645
-0.004596609 0.0035036907 -0.013856305 0.004315543 0.0060577574 -0.015697625 0.0042969496 0.0024806827
0.0025288688 -0.0010863537 -0.0116465585 0.0006009919 -0.006463907 -0.008472036 -0.001665277 -0.016850675
0.0052102604 0.008097852 0.0042455513 0.003392355 0.008040891 0.001517405 -0.0049290378 -0.005165614
-0.0030243008 -0.013150353 -0.0123576475 0.00020006318 -0.0037746087 0.0042740027 -0.007068357 -0.009558133
0.0030998408 0.001589799 -0.0056839446 -0.005665337 0.0012445227 -0.007559072 0.0021970484 -0.0006864695
-0.00316921 0.0061954143 -0.010745066 -0.004037096 0.02718217 0.0052798586 -0.0007377439 -0.009013887
-0.031944156 -0.025599383 -0.008451256 0.0054151514 -0.018260024 0.01596132 -0.00302763 0.026961047
-0.035283014 0.009643829 -0.032182645 0.0058883983 -0.009718547 -0.035186693 -0.017266734 0.0142233465
-0.014221411 -0.020615397 0.0020930963 -0.023135968 0.018583167 0.023125652 -0.023968993 0.024826543
-0.008062608 0.0024849095 -0.00016154912 0.006513337 0.011199134 0.027678322 -0.016954701 0.012104549
-0.0229281 0.007343224 -0.01821337 -0.030095125 0.018390268 -0.020046989 -0.023674954 0.00753847
0.002135398 -0.005066626 0.013670151 0.01170461 -0.0039770524 -0.013312954 -0.01829283 -0.014772772
0.031854983 -0.007792842 -0.0025495163 0.03332657 -0.0017406675 -0.025663273 0.024450704 -0.01597439
-0.004262401 0.0037176798 0.022351522 -0.0028170403 -0.023116479 0.013193076 -0.0020123175 0.028330397
-0.002925318 -0.0007781817 0.0036801521 -0.013169662 -0.011153883 -0.0061919703 0.036103424 0.027941464
0.00038000927 -0.026194718 0.010627437 0.024576483 0.020699698 0.025809502 -0.012739518 -0.0111313965
0.02074915 0.01232424 -0.031652857 -0.012367172 0.015817309 -0.057160903 0.0234161 0.008234009
-0.00075259525 -0.016483264 -0.030579936 0.0063938 -0.009385984 -0.027499048 0.010455148 -0.031024378
0.01906966 -0.009372986 0.008580353 0.035496216 -0.005410739 -0.001994964 -0.010227443 -0.006252523
-0.0075097526 -0.022977937 -0.012332815 -0.017293544 -0.034591783 -0.011598389 -0.012601473 -0.019876081
-0.005127759 -0.02104334 0.007708277 0.0030562151 0.056774747 -0.014537933 0.01339373 -0.007292062
0.021894772 0.015761899 -0.01868103 0.01665456 -0.0044625835 0.00870769 -0.009899353 -0.016193522
-0.0051070717 -0.009528736 0.003749358 0.0016740765 -0.0023076714 0.0025734967 -0.0027798547 -0.00125316
-0.0016029837 0.0067165806 -0.0049851206 -0.0046691443 0.004863153 -0.0038085838 -0.0032364845 0.010672933
-0.00427971 -0.0072562383 0.008299439 -0.004033038 -0.00047958957 0.011640673 -0.0033608975 -0.0036904113
-0.0032777952 0.0009334993 0.003874375 0.0042418027 -0.001222326 0.007055586 0.0008036556 0.010918957
-0.0054421853 -0.00025008759 -0.0011400996 -0.0046698693 -0.0021374733 -0.0031594918 -0.0033561604 0.0059682834
0.0017060422 0.0067761564 0.0069616577 -0.0021905843 0.001881508 0.0021155393 0.00026604172 0.002132505
0.00063575007 -0.0017305169 0.0028157732 0.0009336065 0.00029057724 -0.0013401019 -0.0081310235 0.00012392979
0.00024242743 0.002449756 0.0044954796 0.00032738704 -0.011226095 0.0032524525 0.00081287127 0.0044326484

mlp.mlp.4.bias f4 [64]
00000000: 7704 2cb5 5331 54b3 eda7 3034 3ec7 95b3
00000010: e279 9232 e144 8032 6e1d 27b3 39b8 81b5
00000020: 6c23 8e33 f5f1 e934 0aa7 8032 9c2d 8432
00000030: 83f8 e730 20cd 8bb3 e284 fc33 40b4 24b4
00000040: b44e 2fb1 834b b4b2 de4f f7b2 cb48 9db2
00000050: 743b 9cb3 ad27 6c33 5e11 a3b1 f10f 7d32
00000060: 2be6 04b4 90dc 3334 5bcd 29b3 6008 5cb2
00000070: 0dfd 52b4 f09d 54b5 0441 d4b4 4f87 8933
00000080: d0c0 0db4 6941 c634 1fc3 12b5 34f7 9935
00000090: 73a9 25b3 a8ab ac34 6a18 bb32 76b8 31b4
000000a0: 0776 16b4 1ef2 76b2 c301 98b3 3b1a 1ab2
000000b0: df71 0e33 e4ea 83b4 2ee3 1635 c45f cdb3
000000c0: db8b 22b5 de73 cbb4 9049 a5b4 b00e c9b4
000000d0: 52a7 5e33 0fba 8ab3 f7e0 40b5 a11e 6932
000000e0: 7bcc 5432 135b 70b5 6d15 37b2 e384 43b5
000000f0: 219e b134 ac0c b3b1 ecdb ccb3 bcbd b934
-6.408149e-07 -4.9404957e-08 1.6452368e-07 -6.974595e-08 1.7052063e-08 1.4932484e-08 -3.8909484e-08 -9.664865e-07
6.6188335e-08 4.357568e-07 1.4977122e-08 1.5387563e-08 1.6878093e-09 -6.510004e-08 1.1758836e-07 -1.5339265e-07
-2.551059e-09 -2.0989097e-08 -2.8790904e-08 -1.8310308e-08 -7.2751305e-08 5.4984117e-08 -4.745899e-09 1.4730163e-08
-1.2377193e-07 1.6750914e-07 -3.953515e-08 -1.280759e-08 -1.9649833e-07 -7.9205984e-07 -3.9535382e-07 6.404172e-08
-1.3201793e-07 3.6927966e-07 -5.4673177e-07 1.1471334e-06 -3.857117e-08 3.2162393e-07 2.1780767e-08 -1.6551516e-07
-1.4012777e-07 -1.4374136e-08 -7.078372e-08 -8.969944e-09 3.3165517e-08 -2.4571557e-07 5.6209944e-07 -9.563476e-08
-6.055322e-07 -3.7896e-07 -3.078717e-07 -3.7449854e-07 5.184058e-08 -6.4599696e-08 -7.185294e-07 1.3569349e-08
1.2386518e-08 -8.95395e-07 -1.0656874e-08 -7.2836536e-07 3.3083873e-07 -5.2110263e-09 -9.539494e-08 3.4596985e-07

mlp.mlp.5.weight f4 [64]
00000000: 4374 3b3f bd4c 7a3f 3fd0 753f c371 053f
00000010: 205e 1a3f 0042 3b3f c046 d73e ec73 313f
00000020: 4ccf 683f e370 723f 539e 303f 51d2 f53e
00000030: f92e 763f 3995 7b3f 874f 773f 41c7 c33e
00000040: 091f 003f fbf2 233f 9812 463f 86e8 333f
00000050: d430 7b3f db16 543f 5e90 2e3f e42d 3a3f
00000060: c922 533f 2e55 573f 538f 7a3f 84c9 363f
00000070: 1bb3 433f dd48 6b3f 82d8 643f 294d 3f3f
00000080: fb7f 7b3f 0648 543f 5a20 283f 146d 4b3f
00000090: fc8d 743f 1afe 683f 9058 d43e 3f78 663f
000000a0: 5906 bd3e 541e 613f 5675 463f c8c2 7b3f
000000b0: da6c c33e d552 6e3f aaed 2e3f c2ee 633f
000000c0: e458 743f 8645 743f c613 773f 657f 793f
000000d0: ac71 ff3e ca49 1e3f 8903 7a3f c464 463f
000000e0: 21d7 1a3f c72f 573f a6e2 413f 274f b53e
000000f0: 91c1 f23e 260b 663f 9133 cb3e ca25 3e3f
0.73224276 0.97773343 0.96020883 0.5212671 0.60299873 0.73147583 0.42046165 0.6931751
0.9094131 0.947035 0.68991584 0.4801202 0.96165425 0.9827457 0.96605724 0.38237956
0.50047356 0.64042634 0.7737212 0.7027668 0.9812138 0.82847375 0.68189037 0.72726274
0.8247495 0.8411435 0.97874945 0.7140124 0.7644517 0.91908056 0.89392865 0.7472711
0.9824216 0.829224 0.65674365 0.79463315 0.9552915 0.9101273 0.41473818 0.9002723
0.36918905 0.879369 0.7752279 0.9834409 0.38168985 0.9309514 0.68331397 0.8903619
0.95448136 0.95418584 0.96514547 0.97460014 0.49891412 0.61831343 0.97661644 0.77497506
0.6048451 0.8405728 0.75736463 0.3541195 0.47413304 0.8986076 0.3968778 0.7427641

mlp.mlp.5.bias f4 [64]
00000000: 5504 f03d 8a71 d73d a1c4 d13d 46d4 8c3b
00000010: b88b 8dbc af67 48bd 2a01 0f3d 80ba 053e
00000020: 988a e83d e23a e03d 1765 1ebd 765f be3c
00000030: 1d9b dd3d 9d15 c53d 4d14 d73d e227 b13d
00000040: 16ac d93d 5041 e3bc 40a3 6bbd 9a7e 19bd
00000050: 22e1 d23d 02c6 d93d 3ea0 0ebd cb78 46bd
00000060: 2b2f f03d d886 db3d a048 cd3d 91af 43bd
00000070: 1f35 5fbd 9091 df3d 434c d93d 4dd1 4fbd
00000080: abe8 cf3d 15f1 f13d 5e2e 063e ad45 f83d
00000090: 40b0 d73d 194c e83d 841c 3d3d 3ffe dc3d
000000a0: 7fe9 723d d114 e13d 64fd 6abd df56 d23d
000000b0: 0e53 2a3d 7741 cc3d 7f35 033e 7225 d73d
000000c0: ef9b d23d 869e da3d 6de2 d13d da6d d13d
000000d0: 3826 4b3c 7aca a8bc e4c2 d13d c90c 6bbd
000000e0: f305 a4bc fe9f ed3d cd39 65bd c5b1 b63d
000000f0: 526d d13c 649e eb3d 74cd 493d 73ef f23d
0.11719576 0.10519703 0.10242582 0.004297766 -0.017278537 -0.048927005 0.03491322 0.13059425
0.1135456 0.10948731 -0.038670626 0.023238879 0.10820601 0.09623263 0.10501919 0.08650185
0.10628526 -0.027741104 -0.057528734 -0.037474252 0.10296847 0.1063347 -0.034820788 -0.04845504
0.117277466 0.10719079 0.10023618 -0.047774855 -0.05449402 0.10916436 0.10610249 -0.050736714
0.101518 0.11813561 0.13103625 0.121226646 0.10531664 0.113426395 0.046169773 0.10790681
0.05930471 0.109902985 -0.05737056 0.102704756 0.041583113 0.09973424 0.12813376 0.10505189
0.10283648 0.10674767 0.102482654 0.10226031 0.012399249 -0.02060436 0.102422506 -0.05738524
-0.020022368 0.11602782 -0.055963326 0.089206256 0.025564823 0.1150482 0.0492682 0.118620776

mlp.mlp.5.running_mean f4 [64]
00000000: f158 03bc 8c7d 10bc 718e 4ebc 43b9 c93a
00000010: c0f4 f43a 78cf 153c 718f 90bb 028b 3ebc
00000020: 721d c0bb 717e a6bc fec5 8c3b 5e25 2bbb
00000030: 579d 59bc 8ddc ceb8 f08c 75bc 3cbd d5bb
00000040: 877b fdbb 732a 8c3b ff2b 183c aa4b a5ba
00000050: 8853 d6b9 8392 d9bb 64a6 9e3a 37e6 7d3c
00000060: 11ed 03bc 834d f0bb c763 1bbc 2b0e 1e3c
00000070: 00fb 6f3c ab8f 26bc fc4a 9dbc 7274 f3bb
00000080: 8cc2 193c e29e 57bc e09f 2fbc ec8b 6fbc
00000090: 68ff 01bc 04b4 29bc ed5f 19bc b370 a5bb
000000a0: db46 00bc 255c 36bc e6cf 3e3c 2ae1 6cbc
000000b0: ea01 c0ba 33ab 73bb 26ef 39bc dcd7 24bc
000000c0: 9f86 d2bb 4c7a a6bc fca1 5ebc 1cf0 9dbc
000000d0: 3f7e aa3a c2b6 a93a 0dcf 0dbd 7376 833c
000000e0: baa6 ea3a e3b4 f6bb 12b4 003d 036e f9bb
000000f0: 9a4d 18bc 5f12 95bc a103 c5bb 4e3f 24bc
-0.008016811 -0.008818995 -0.012607203 0.0015390295 0.0018688664 0.009143703 -0.004411631 -0.011629822
-0.005862885 -0.020323964 0.0042960634 -0.0026114802 -0.013282142 -9.863926e-05 -0.014987215 -0.0065228026
-0.007735673 0.0042775213 0.009287833 -0.0012611051 -0.00040879496 -0.00663978 0.0012104032 0.015496782
-0.0080521265 -0.007333459 -0.009484238 0.009646933 0.014647245 -0.010166089 -0.019200794 -0.007429653
0.0093847625 -0.013160439 -0.0107192695 -0.014620762 -0.007934429 -0.0103578605 -0.009361249 -0.005048835
-0.007829393 -0.011130367 0.011646247 -0.01445798 -0.0014649008 -0.00371809 -0.011348521 -0.0100612305
-0.0064247395 -0.020321988 -0.013588425 -0.019279532 0.0013007595 0.0012948143 -0.034621287 0.016047692
0.0017902472 -0.0075288876 0.03142173 -0.0076119914 -0.009295845 -0.018197237 -0.0060123955 -0.010024859

mlp.mlp.5.running_var f4 [64]
00000000: 3aa2 6239 7201 673a 9180 963a fc46 e938
00000010: 574f f038 73a4 bb38 89d4 9938 4df5 0539
00000020: a54e d239 54bc 3e3a f444 c138 6328 ec38
00000030: fa45 8539 85f1 9a39 9eb2 f73a 4466 0c39
00000040: 6443 2239 d849 d938 c493 0a3a 6695 6438
00000050: aa53 2f3a b1be 9139 c2df ff38 1eea 5f39
00000060: 984a 8d39 6307 f339 fc76 1e3b ab7e 0839
00000070: 28ba 0139 fc7f 3239 5629 2f3a e20e 5c38
00000080: 9306 f33a 87ab 3739 3a53 f538 a12c a438
00000090: 99f9 483a e2a4 db39 855e 9b38 b3a6 4839
000000a0: c9da 9f38 4f22 d939 9c47 9539 b05c 893a
000000b0: f130 7338 f20d 4f3a 5122 e338 91e1 ec39
000000c0: 6033 1839 7c38 be39 25ab 2d3a a7e5 883a
000000d0: f805 f038 0454 cb38 9371 df3a 744e ed39
000000e0: 7f28 d138 d9c4 ea38 6e27 0b3a c804 a838
000000f0: bd7d 9d38 d4fb 5739 08ce ff38 dc3b 5339
0.00021613474 0.0008812166 0.0011482408 0.00011123528 0.0001145887 8.947486e-05 7.335196e-05 0.0001277525
0.00040112916 0.0007275988 9.215801e-05 0.000112608795 0.00025419873 0.00029553115 0.0018897837 0.00013389537
0.00015474629 0.00010361121 0.0005286301 5.4498574e-05 0.0006688187 0.0002779863 0.00012201026 0.00021354153
0.00026949192 0.00046354075 0.0024179807 0.00013017158 0.00012371747 0.0001702308 0.000668188 5.2465948e-05
0.0018541388 0.00017516139 0.000116980125 7.828442e-05 0.00076665875 0.00041893782 7.4085816e-05 0.00019135587
7.622463e-05 0.00041415027 0.00028472848 0.0010479894 5.7981295e-05 0.00078985014 0.000108305954 0.00045181488
0.00014514988 0.00036281708 0.0006624929 0.0010444418 0.000114452036 9.6954434e-05 0.0017047398 0.00045262615
9.9734396e-05 0.00011194655 0.00053083047 8.011755e-05 7.509764e-05 0.00020597811 0.00012197724 0.00020144827

mlp.mlp.8.weight f4 [1, 64]
00000000: a3d8 e03d 8684 533e ea71 3c3e 4954 373d
00000010: fa4f 093d e35b 1ebb 58dc 623d 4ab8 da3d
00000020: 6309 223e 52e9 323e f2cd 0d3c f876 603d
00000030: 016a 433e 89fd 533e e2a2 413e 0c77 a53d
00000040: 65ba ba3d b53b b93c 4aa9 e5bc 1554 703c
00000050: afdd 543e cf6f fb3d b68b 863c 1ca7 d0bb
00000060: cb1f 003e a536 ff3d b2f0 4e3e 5614 d6bb
00000070: a8ed c8bc a845 1f3e 6906 113e d605 06bc
00000080: 0b75 583e e696 ff3d a59b d33d 2144 f73d
00000090: 559e 323e 8b7b 1c3e 104a 773d c4a3 163e
000000a0: 1b54 813d 9c14 0e3e e6ec eebc 9cba 593e
000000b0: e333 7c3d 2c77 213e c56c d53d 2402 103e
000000c0: 071e 3b3e fdf6 373e 3d68 3d3e 453b 4b3e
000000d0: 91e9 443d 865d ea3c fbcb 4f3e d38e debc
000000e0: e7c2 f03c 92e4 033e ff0f d0bc 8492 9b3d
000000f0: 32dc 5a3d f205 1b3e b774 7b3d 683e e53d
0.1097882 0.20656022 0.1840283 0.044758115 0.033523537 -0.0024163655 0.055385917 0.106796816
0.15823893 0.17471817 0.008655058 0.054800957 0.19083406 0.20702185 0.18909791 0.08079347
0.09117583 0.022611478 -0.028034825 0.014668484 0.2078769 0.12277185 0.016424041 -0.0063675772
0.12512128 0.124615945 0.20209005 -0.006533186 -0.024527386 0.15553916 0.14162602 -0.008180102
0.21138398 0.124799535 0.10332421 0.120735414 0.17443211 0.15281503 0.060373366 0.14710909
0.0631487 0.1387505 -0.029165696 0.21262592 0.06157292 0.15768117 0.10421137 0.14063317
0.18273173 0.17965312 0.18496795 0.19846828 0.04807431 0.028609049 0.20292656 -0.027167713
0.029389812 0.12880161 -0.025398253 0.07596305 0.05343265 0.15138987 0.061390605 0.11193544
