model/dfm_epoch_110.pt (torch, 79687 bytes, 15 tensors)

embedding.embedding.weight f4 [98, 32]
00000000: ad6b 003e 2d43 b8bd 158a e43c 60be 09bd
00000010: af96 c93d 11b9 30be c5d0 c4bd acbc 093d
00000020: 99c4 c4bc 57ee ecbd 38dd 9fbd f6d9 293e
00000030: 6d8e e23d d02f 833d 87ed b4bd 66c0 d2bc
00000040: fedf 04be e311 a63d 16d9 b03c d642 083e
00000050: c32d fa3d b1eb e4bd 884f 753d 5ba1 22be
00000060: 68a7 c4bd fd66 b53d df59 9abd f567 0fbe
00000070: c156 f53d 67fb a23d 48d4 093e ce3a 083e
00000080: a3ae 0d3e 9685 c6bd ac3b fa3c df54 16bd
00000090: 1a5e db3d 8cc8 42be 8111 d5bd 8609 133d
000000a0: b07e d3bc fa7b 01be 7f96 aebd cc61 3a3e
000000b0: f991 f73d 2142 8e3d 4fc0 c7bd 2439 e8bc
000000c0: e4d2 11be e7fc b23d 39c8 be3c c35d 133e
000000d0: c13b 093e 1514 fbbd 83e7 843d c5db 32be
000000e0: 3430 d4bd 585b c63d 01da a5bd b08f 1ebe
000000f0: 029c 053e 94f9 b23d 65f4 173e 9d3f 153e
00000100: f03d 213e 8f6f ebbd 3b06 0d3d 5f56 2fbd
00000110: 1370 013e c582 5fbe 92e9 f5bd 4cef 303d
00000120: d578 f5bc 3742 15be fc42 c7bd 0dd1 573e
00000130: da5c 103e 1b3b a43d dd6f e4bd 9559 02bd
00000140: 3c1e 28be bf26 d13d cce9 e43c 4481 2d3e
00000150: c214 1e3e d44e 0fbe fedb 983d 0900 4ebe
00000160: d367 fbbd 43c4 e23d 5906 c4bd 9d5e 34be
00000170: d4ec 1b3e 0b87 ca3d a6b9 2e3e 38e1 2c3e
00000180: 8c9b 3b3d 8f89 06bd e3f9 233c 16f4 48bc
00000190: 8109 133d 1d30 81bd 593f 0fbd 8293 483c
000001a0: c7ad 0fbc f47c 2dbd 20d8 e8bc c843 783d
000001b0: 8bb6 253d 8e8c bf3c 6ff5 03bd 0173 17bc
000001c0: f35f 42bd 481a f33c 9b07 013c bc54 473d
000001d0: c543 373d dbaf 27bd 6b9f b23c 5ce0 6dbd
000001e0: 7696 0fbd 6e24 043d 28a3 e1bc 22ca 51bd
000001f0: ff5c 333d 779f ec3c ee47 493d 9073 473d
00000200: 3c35 843d f07b 3fbd ff5e 663c e401 8ebc
00000210: 3504 533d 9a8f b8bd 7484 49bd 0e3f 8f3c
00000220: 09d4 47bc 06d1 73bd 270e 23bd f2a0 b13d
00000230: 11bd 6c3d f264 063d c133 3bbd 205c 54bc
00000240: d19a 89bd 2d35 2a3d 0de3 373c 4cf1 8d3d
00000250: 413f 813d 88ba 6bbd a6fc f93c 2f99 a9bd
00000260: d64c 4cbd 2954 393d 9b8b 1ebd f624 94bd
00000270: c1b3 7e3d 55fb 253d 36ac 8f3d c895 8d3d
00000280: 099f 543c 9c75 17bc fa8b 3c3b e041 62bb
00000290: 9913 263c 409b 92bc a583 22bc bc6a 613b
000002a0: d51f 23bb 1265 44bc 6604 04bc 0fbf 8c3c
000002b0: c28c 3b3c c9b4 d83b 6e4b 15bc 503e 2ebb
000002c0: 02d5 5bbc fba3 093c 1cf4 103b d52a 613c
000002d0: 194d 4f3c 3400 3ebc 1586 ca3b 8cd0 86bc
000002e0: 2fbe 21bc e3c8 153c 4d4b febb b214 6ebc
000002f0: 8c8b 4a3c ff98 063c fce3 633c 38d1 613c
00000300: 732f c73d 189b 8fbd 79b1 b03c c0e4 d5bc
00000310: 3e15 9d3d 0c03 0abe ca14 99bd 6fe5 d63c
00000320: a19c 9abc bdbb b9bd fb35 78bd a902 053e
00000330: 94ec b13d a11a 4c3d ddf8 8bbd adf0 a2bc
00000340: 04af cebd fd9b 823d c91f 8a3c a727 d53d
00000350: 05c9 c23d a239 b3bd fbf7 3e3d d85c febd
00000360: 1336 99bd bcc5 8c3d 55f2 70bd a9ae dfbd
00000370: e9c5 be3d 3bf2 7b3d ad01 d63d b61a d53d
00000380: e38c bd3d 2edd 87bd db2f a83c 047b cabc
00000390: 2b4c 953d e05e 03be 67a7 92bd 463d ca3c
000003a0: 3e41 91bc 42b4 afbd 3691 6abd 7e44 fc3d
000003b0: 1cd9 a93d b0fc 403d 1be8 84bd 316b 9abc
000003c0: 1867 c5bd 6891 783d 0820 823c 72b5 cb3d
000003d0: c868 b93d f793 aabd ef13 343d ef5b f1bd
000003e0: 7ddc 90bd 2824 853d 1752 63bd 958e d4bd
000003f0: 23f6 b53d 82e5 6f3d 7b3a cb3d 06af ca3d
0.12541075 -0.08997188 0.027897874 -0.03362882 0.09843194 -0.17258097 -0.09610132 0.033627197
-0.024019526 -0.11568897 -0.07805866 0.16587052 0.11062322 0.06405604 -0.08834367 -0.025726508
-0.12976071 0.0810888 0.02158789 0.13306746 0.122157596 -0.11177767 0.0598903 -0.15881865
-0.09602243 0.08857534 -0.07536673 -0.140045 0.119794376 0.079581074 0.13459885 0.13303682
0.1383615 -0.09693448 0.030546032 -0.036702033 0.10711308 -0.19021815 -0.10403729 0.035897754
-0.025817245 -0.1264495 -0.085247986 0.18201369 0.12088389 0.06946207 -0.09753477 -0.02834756
-0.14240605 0.087396435 0.023288833 0.14391236 0.134017 -0.1225969 0.0648947 -0.17466648
-0.103607565 0.09685391 -0.080982216 -0.154845 0.13047794 0.087390095 0.14839323 0.14575048
0.15746284 -0.114958875 0.03442977 -0.04280698 0.12640409 -0.21827228 -0.120074406 0.04319696
-0.029964844 -0.1457604 -0.09729573 0.2107584 0.1409792 0.08019086 -0.11154149 -0.031823713
-0.16417783 0.10212468 0.027943514 0.16943842 0.15437606 -0.13994914 0.07463835 -0.20117201
-0.12275662 0.1107259 -0.09571523 -0.17614217 0.15227062 0.09889039 0.17063007 0.16882789
0.045802638 -0.03284603 0.010008308 -0.012265226 0.035897736 -0.06308005 -0.034972522 0.0122422
-0.008769459 -0.042355493 -0.028423369 0.060611516 0.04045729 0.023382451 -0.032216486 -0.009243728
-0.047454786 0.029675618 0.007875348 0.048664793 0.044742364 -0.040939193 0.021804532 -0.058075294
-0.0350556 0.032261305 -0.02754362 -0.05121816 0.04378986 0.028884633 0.049140863 0.048694193
0.06455466 -0.046749055 0.014060735 -0.017334886 0.051517684 -0.09011765 -0.049198583 0.017486122
-0.012196549 -0.059525512 -0.03980842 0.08673276 0.057797495 0.032811113 -0.045703653 -0.012961417
-0.06718982 0.04155462 0.011223567 0.06930789 0.06310893 -0.057550937 0.03051598 -0.082811706
-0.049877964 0.045246277 -0.038707357 -0.07233612 0.062183145 0.040522892 0.070152685 0.06913334
0.01297737 -0.009244349 0.0028769956 -0.0034524128 0.010136508 -0.017896295 -0.009919082 0.0034395894
-0.00248908 -0.011986988 -0.008057689 0.017180948 0.0114471335 0.006613348 -0.009112222 -0.0026587434
-0.013417484 0.008400912 0.0022118157 0.013743122 0.012652659 -0.011596728 0.0061805346 -0.016456865
-0.009872003 0.009142133 -0.0077604414 -0.014531301 0.012362372 0.008215188 0.013909336 0.013782792
0.09725847 -0.07012004 0.021569 -0.026110053 0.07670067 -0.13477725 -0.07474668 0.02623245
-0.018873515 -0.09069011 -0.060598355 0.12989296 0.08687702 0.049830083 -0.06834576 -0.019890154
-0.10091975 0.06377409 0.01686086 0.10407954 0.09510998 -0.08751227 0.04662321 -0.12420052
-0.07481017 0.06873652 -0.058824856 -0.10921986 0.09315092 0.061510306 0.104495384 0.10405485
0.09255388 -0.066339836 0.020530632 -0.024716862 0.072899185 -0.1282916 -0.07160836 0.02468742
-0.017731305 -0.08579303 -0.05726739 0.12317751 0.082933635 0.04711598 -0.06489583 -0.018849941
-0.09638804 0.060685545 0.015884414 0.09946717 0.090531886 -0.08329003 0.043964323 -0.11785113
-0.07073305 0.06501037 -0.05549821 -0.10378758 0.088848375 0.058568485 0.09923264 0.09896664

linear.fc.weight f4 [98, 1]
00000000: 7010 e23e fd8d e33e db0c fb3e bd38 2b3e
00000010: f03d 6f3e b9af 5f3d 88d9 993e 83ad 943e
00000020: 0798 a03d 8565 ef3c 6546 f73c 8077 e43c
00000030: 7166 653c 6eba 6c3c e3e3 5a3c 43eb 573c
00000040: db67 4f3e b36e 123e 5131 2c3e 4f09 1f3e
00000050: 18e4 3f3e 618a 4d3e 31f6 323e f75e e83c
00000060: 3b45 bf3c c3fc ab3c 77d7 cd3c b3d9 ee3c
00000070: 8c1c 073d 2029 cb3c 176a 033c 3b96 3e3b
00000080: c62e e43c b1ea 533c cba3 293a 5669 b539
00000090: 1ca5 503a 8d4b 4d3c efbc aa38 af46 a73b
000000a0: 0976 b03b d8a3 993a 761a c63b b403 093d
000000b0: af83 003d 5f6e 873b 3ade 933c 47ad d03c
000000c0: b97e 2c3b f957 cb3c a142 9e3c c1c7 923b
000000d0: 79a0 1e3b d4b1 eb3b a3b4 863a ed0d 1a3b
000000e0: 37c3 d93c 6417 eb3a 777a fb3c 6010 a03c
000000f0: 1e37 d93b 9720 b33b 1b62 bc3c ecda 523b
00000100: 679b 453b e8bc 8239 8aa8 7a3a 9cd7 813c
00000110: 5268 103d e724 8a3c 1439 493c 3502 333c
00000120: ceaa 843b 091e 0d3c ca57 0b3a b531 103d
00000130: 6d8b dd3a 56ac 6a38 d779 ca3c 493a 0e3d
00000140: c6ce b83c 2b4d b83c 7e90 7f3b 645a f13a
00000150: 6c73 0f3d 0085 003d 3fe7 8d3c fbc2 9d3b
00000160: 9543 0f3c 9aaa 933c 24f0 c93c ff1c 233c
00000170: e92e 013c bbd7 5e3c 2986 393c 6747 0c3c
00000180: 8b05 b539 db94 7f3c
0.44153166 0.44444266 0.49033245 0.16720863 0.23363471 0.05461094 0.30048776 0.2903863
0.07841497 0.029223213 0.030184934 0.027889013 0.014001475 0.014448745 0.0133599965 0.013178649
0.20254461 0.14300041 0.16815688 0.15530895 0.18739355 0.20072319 0.17476727 0.028365595
0.023348441 0.02099455 0.025127156 0.029156541 0.03298621 0.024799883 0.008020899 0.0029081244
0.027854335 0.012934373 0.00064712454 0.00034601492 0.00079591735 0.01253022 8.141423e-05 0.0051048617
0.0053851646 0.0011721803 0.006045635 0.033450797 0.031375583 0.0041330303 0.018050302 0.02547325
0.002632065 0.024822222 0.01931888 0.004479379 0.0024204536 0.0071928296 0.0010277223 0.0023506836
0.026582344 0.0017936048 0.030698044 0.019539058 0.006628885 0.0054665315 0.022996 0.0032173945
0.0030152441 0.00024936278 0.00095618574 0.01584988 0.035255738 0.0168633 0.012281675 0.010925819
0.004048682 0.008613118 0.0005315511 0.035203654 0.0016902514 5.5950448e-05 0.0247163 0.034723554
0.022559535 0.022497734 0.0038996036 0.0018413779 0.035022184 0.03137684 0.01732218 0.0048145032
0.00874414 0.018025685 0.02465064 0.009955644 0.007884719 0.013601239 0.01132349 0.0085619455
0.0003452714 0.015599455

mlp.mlp.0.weight f4 [64, 160]
00000000: 10e1 0f00 2c10 2900 fb69 2300 aa04 4d00
00000010: f512 1a00 944d 3500 42c3 0a80 9688 4900
00000020: b0b4 3e80 09d6 2a00 98dc 3380 fe19 5100
00000030: 6b65 1c00 88fe 4a80 c079 1f80 c11c 3480
00000040: e458 3d00 d798 4d00 1160 0180 ffd1 1b00
00000050: 1b88 2380 c3ba 0780 307e 2800 9f35 2f00
00000060: e8e3 4880 6fbf 4b80 22bf 2c80 21a2 4500
00000070: 8575 4700 f442 1400 ec3d 1900 f151 1980
00000080: c76d 2500 11da 0000 4f48 0080 b90d 4c80
00000090: ce51 1a00 4231 2100 7fe7 4380 b0d3 0580
000000a0: deaa 4900 3405 4800 899e 3f00 40ad 0280
000000b0: a9e7 3700 bd9b 2480 ffd4 4d00 c7f0 0580
000000c0: d4c8 2800 49b7 2f80 d6e5 4b80 d4cf 3380
000000d0: 057b 0600 84ac 0180 2fb4 3c00 69f7 1280
000000e0: eea5 3500 a696 4980 b66a 2200 54a9 1400
000000f0: 5271 3380 d0f8 0e80 093e 3680 6755 3580
00000100: d87e 3100 3be4 4980 33d0 4b00 4093 4180
00000110: 76a7 2d80 054e 2900 b1aa 0500 a23e 0600
00000120: 219f 1280 3c85 2f00 00da 3900 c9ab 3180
00000130: 3b9a 0a00 241f 3c80 3e4b 3d00 5018 0f00
00000140: b99c 3800 2f9b 0e80 d5c0 2500 a7cc 3480
00000150: a6d7 4480 5b1c 0400 7fc2 3a80 29b8 4100
00000160: dc66 2680 a74d 4000 4cbd 3600 b1f9 4480
00000170: c5c5 3300 ea02 4980 a83a 2f80 c14f 4c00
00000180: 4d35 0780 f0c6 0880 d5f4 4c80 b9cf 1d00
00000190: 3d53 0b80 fbdc 2200 28c5 1600 1a13 1080
000001a0: ee47 4d80 62f1 1500 e580 0b00 e1f8 4c00
000001b0: 697c 1580 1e77 4180 3ccc 1c00 4be3 0f80
000001c0: ebb9 0180 4aba 2400 55a5 4b80 ce30 3d00
000001d0: 8341 2200 ebdc 3c80 8143 1900 8bee 1e80
000001e0: 5fad 1180 766b 3000 3a09 3200 25fc 3980
000001f0: f87e 2100 c71c 1e00 d00f 0d80 180c 4e80
00000200: 6158 2880 31ec 3b00 92e0 0080 0e5a 2400
00000210: e6db 2500 36e8 2800 c99a 2100 1925 2080
00000220: b187 4d00 8aaf 2f00 f178 3b00 fbdc 1d80
00000230: 6149 4880 3144 3f00 66f3 3180 484c 2680
00000240: 6fba 1700 6e04 4400 c93d 4880 6920 0480
00000250: cb43 1280 cd91 2b00 a928 0f80 3b41 3b00
00000260: e766 3a80 3cf9 3280 6e73 1900 3a7d 1900
00000270: f867 0980 146e 2780 5700 4f00 8df3 2a80
00000280: e889 7d16 58cd 1296 163a 9314 bf64 4595
00000290: 0bd6 fa95 051a 0496 d35f 5916 fbd6 fe95
000002a0: 758e d015 6ed0 1e96 666b b096 9506 ee95
000002b0: 369d 8895 4e12 b592 f0bc ac94 2899 e414
000002c0: 4e04 0216 04db cc95 e1f8 2115 71f8 ea95
000002d0: cfbf 2596 1f90 ee95 d9d9 4696 ad03 4116
000002e0: 6234 de15 ea2d 6c96 efad 1296 f2a1 d915
000002f0: 8af9 e594 3393 4295 8739 ac94 ae2a 1416
00000300: 125a 0519 d335 a818 7a83 7417 53ce 7817
00000310: cf17 3298 2798 2799 d29e f418 85e5 d017
00000320: 2917 ee17 f258 a497 96a4 5098 d73a 0d99
00000330: 9ea1 4f18 6ad6 a618 559b 7217 67b6 8597
00000340: 23da 0299 2f6a 6618 3487 2597 019e 1719
00000350: d586 0e99 0e9a b698 370a ae98 5e91 5299
00000360: de11 4318 ece3 3597 f301 d698 0b35 a618
00000370: b83a cf18 d75c 0c18 9eca f118 60db 9b18
00000380: e025 4398 854f 8997 95c6 c793 f4b5 9397
00000390: 3736 1818 9d14 2698 1740 7598 b7bc 9d17
000003a0: 6bee 2817 de4d c318 5651 b717 07ab 6418
000003b0: 259c 4418 a266 3718 a248 e615 0d37 1c16
000003c0: 96ca a798 28c0 9797 a193 d916 5efd e296
000003d0: 7a5c de98 2bd4 6f98 91b2 3898 9824 1b19
000003e0: 02d0 4098 894f 2a98 f076 6598 734f 0a98
000003f0: b881 e318 8a11 3d18 0678 ac18 b275 ba18
1.45827e-39 3.771057e-39 3.252261e-39 7.073006e-39 2.394523e-39 4.895111e-39 -9.884e-40 6.752989e-39
-5.758619e-39 3.933872e-39 -4.762744e-39 7.448e-39 2.607776e-39 -6.887135e-39 -2.890576e-39 -4.785761e-39
5.633853e-39 7.126162e-39 -1.26298e-40 2.554891e-39 -3.263068e-39 -7.09846e-40 3.718687e-39 4.335504e-39
-6.693913e-39 -6.956336e-39 -4.109327e-39 6.39481e-39 6.562478e-39 1.860728e-39 2.318101e-39 -2.325282e-39
3.437294e-39 7.8227e-41 -2.594e-41 -6.98442e-39 2.417069e-39 3.048242e-39 -6.236023e-39 -5.35117e-40
6.765287e-39 6.614022e-39 5.842508e-39 -2.45821e-40 5.134056e-39 -3.361946e-39 7.147742e-39 -5.45552e-40
3.745463e-39 -4.382019e-39 -6.970112e-39 -4.758165e-39 5.95144e-40 -1.53722e-40 5.574767e-39 -1.741793e-39
4.926806e-39 -6.758034e-39 3.160688e-39 1.897453e-39 -4.724262e-39 -1.374954e-39 -4.981371e-39 -4.897918e-39
4.545442e-39 -6.785865e-39 6.96235e-39 -6.02213e-39 -4.192671e-39 3.793243e-39 5.2041e-40 5.73481e-40
-1.710124e-39 4.364064e-39 5.312827e-39 -4.561564e-39 9.73682e-40 -5.521301e-39 5.628957e-39 1.386254e-39
5.199009e-39 -1.341366e-39 3.467088e-39 -4.848861e-39 -6.322174e-39 3.77514e-40 -5.396231e-39 6.035371e-39
-3.526648e-39 5.905328e-39 5.027024e-39 -6.334386e-39 4.754557e-39 -6.705037e-39 -4.33731e-39 7.008108e-39
-6.61969e-40 -8.06049e-40 -7.067327e-39 2.737746e-39 -1.040051e-39 3.20168e-39 2.091107e-39 -1.47622e-39
-7.097137e-39 2.015137e-39 1.056429e-39 7.068779e-39 -1.973175e-39 -6.012038e-39 2.64466e-39 -1.45907e-39
-1.5853e-40 3.372906e-39 -6.946972e-39 5.619473e-39 3.145908e-39 -5.58938e-39 2.320103e-39 -2.840638e-39
-1.623397e-39 4.446654e-39 4.595085e-39 -5.325076e-39 3.076119e-39 2.765388e-39 -1.199534e-39 -7.167507e-39
-3.705124e-39 5.503024e-39 -8.056e-41 3.338383e-39 3.476798e-39 3.756721e-39 3.086098e-39 -2.952044e-39
7.12001e-39 4.37924e-39 5.46168e-39 -2.742502e-39 -6.638479e-39 5.810099e-39 -4.587254e-39 -3.517113e-39
2.179096e-39 6.246403e-39 -6.63432e-39 -3.78969e-40 -1.677358e-39 4.00123e-39 -1.392119e-39 5.441695e-39
-5.363373e-39 -4.681183e-39 2.337296e-39 2.34081e-39 -8.63816e-40 -3.621073e-39 7.255126e-39 -3.94446e-39
2.0480693e-25 -1.1858581e-25 1.4866118e-26 -3.9863308e-26 -1.01311896e-25 -1.0671085e-25 1.7559357e-25 -1.0292896e-25
8.423529e-26 -1.2828907e-25 -2.8502111e-25 -9.613782e-26 -5.5178e-26 -1.1427218e-27 -1.7442084e-26 2.3082526e-26
1.0502675e-25 -8.274049e-26 3.2710022e-26 -9.490382e-26 -1.3389118e-25 -9.635482e-26 -1.6063053e-25 1.5591576e-25
8.974773e-26 -1.9078416e-25 -1.184867e-25 8.7901107e-26 -2.3221517e-26 -3.9294108e-26 -1.7390252e-26 1.1968812e-25
6.8941284e-24 4.348133e-24 7.90066e-25 8.039354e-25 -2.3017981e-24 -8.6644246e-24 6.323289e-24 1.3499624e-24
1.5386236e-24 -1.0620705e-24 -2.6966465e-24 -7.301412e-24 2.6835719e-24 4.3126497e-24 7.8390474e-25 -8.640968e-25
-6.764895e-24 2.9780412e-24 -5.3485026e-25 7.838426e-24 -7.368457e-24 -4.7201453e-24 -4.498826e-24 -1.0886102e-23
2.521218e-24 -5.877193e-25 -5.531967e-24 4.2963554e-24 5.3567537e-24 1.8141448e-24 6.250163e-24 4.0288073e-24
-2.5222281e-24 -8.873491e-25 -5.043048e-27 -9.545584e-25 1.9672911e-24 -2.1465404e-24 -3.1697865e-24 1.0193526e-24
5.4584653e-25 5.0484944e-24 1.184663e-24 2.9554656e-24 2.541124e-24 2.3704012e-24 9.3010855e-26 1.261895e-25
-4.3373048e-24 -9.806653e-25 3.5151408e-25 -3.6672166e-25 -5.7479032e-24 -3.0997143e-24 -2.3871596e-24 8.020702e-24
-2.4920435e-24 -2.201214e-24 -2.9657604e-24 -1.7876194e-24 5.8809107e-24 2.4436532e-24 4.458215e-24 4.8198715e-24

mlp.mlp.0.bias f4 [64]
00000000: 2748 0400 dce8 650f 20ca 1180 a215 0f80
00000010: 1691 2480 a9bf 2d00 d5ea e033 7ca3 e733
00000020: 7a73 4c80 29ca 2200 8285 3080 9b79 4434
00000030: efb4 f033 8d6e 1280 6f92 4f80 4444 0880
00000040: a6b3 4100 a047 b0ab 8bb7 2f80 d00a f633
00000050: e1ce 4632 4cdf 2c0a bece 99b3 1d0c 2334
00000060: af89 5bb4 efbe 1580 bfe9 2d80 06a3 89b3
00000070: 90d6 4580 2939 2400 238a fd33 6857 4c00
00000080: 630d 27b4 45ef fb32 028a 19b4 3d0e 1200
00000090: 81c4 16b2 5f6d 2cb3 7276 5180 13ca 838e
000000a0: a33d 4db2 10ab 3c00 7d3e 2480 8d5b a2b2
000000b0: a5cc 2200 7b61 83b3 49e0 1433 a0c4 1180
000000c0: ada0 4db3 7117 4680 3c03 4e80 e907 8b33
000000d0: eb3a 7eb3 104a 5100 143f 10b4 4ab4 2780
000000e0: 03b5 4e00 e539 2833 38f6 4000 6fbd 8db2
000000f0: dba2 1434 cdc4 deb2 771b dcb3 7fc5 9232
3.93225e-40 1.1335419e-29 -1.633712e-39 -1.385293e-39 -3.358125e-39 4.201352e-39 1.04735285e-07 1.07865134e-07
-7.020923e-39 3.194928e-39 -4.455997e-39 1.8298162e-07 1.12087825e-07 -1.692697e-39 -7.307535e-39 -7.59173e-40
6.033753e-39 -1.2525432e-12 -4.382111e-39 1.14572345e-07 1.1572156e-08 8.323496e-33 -7.162224e-08 1.5184965e-07
-2.0446053e-07 -1.99704e-39 -4.21645e-39 -6.4092134e-08 -6.41362e-39 3.326583e-39 1.18063575e-07 7.010853e-39
-1.5557957e-07 2.9329053e-08 -1.4299442e-07 1.658147e-39 -8.775829e-09 -4.0146343e-08 -7.481165e-39 -3.2488584e-30
-1.1946585e-08 5.571495e-39 -3.328494e-39 -1.8900915e-08 3.19582e-39 -6.1178945e-08 3.466292e-08 -1.631739e-39
-4.7876416e-08 -6.436894e-39 -7.164329e-39 6.474131e-08 -5.919257e-08 7.465244e-39 -1.3433993e-07 -3.64626e-39
7.228103e-39 3.9168203e-08 5.965798e-39 -1.6500705e-08 1.384282e-07 -2.5933696e-08 -1.0249544e-07 1.7086448e-08

mlp.mlp.1.weight f4 [64]
00000000: 80b1 1480 8c41 b819 9f59 4e80 daa3 4e80
00000010: a549 2780 375a 0e00 4c65 003d 4723 083d
00000020: 3544 4280 5528 1780 726b 4980 3348 fd3c
00000030: bb5c 053d 29da 4900 7bdb 3400 a139 3f80
00000040: 3068 2f80 06a0 d035 cfef 0d00 1702 083d
00000050: 528a fa3c daa8 0096 7393 f73c c48f 043d
00000060: 4ed1 fe3c 97b5 2e00 b8df 4e80 ce5f f23c
00000070: a8c7 2600 c2dc 4200 05bc fd3c 08d4 1b00
00000080: 9183 0a3d b563 fe3c 395e 083d 3058 2100
00000090: 9974 f83c d3a6 073d 188e 4980 cdcd b19a
000000a0: 2284 793c 7009 2f00 bac9 2500 6f7d 023d
000000b0: 5ff4 4000 522c ff3c 55f0 053d 5164 3180
000000c0: 896e 023d 81dc 2980 f7a1 1600 a22a ec3c
000000d0: cd8a 043d 5bfe 1680 8042 0a3d 989f 0700
000000e0: d527 5080 2960 063d f1b4 4c80 c411 f83c
000000f0: fe0b f93c 4fc2 ee3c f6fd 053d f7f3 733c
-1.900385e-39 1.9051628e-23 -7.195319e-39 -7.221948e-39 -3.608003e-39 1.31806e-39 0.031346604 0.033236768
-6.085611e-39 -2.126685e-39 -6.742535e-39 0.030918216 0.032559138 6.782252e-39 4.85418e-39 -5.80631e-39
-4.353644e-39 1.5543781e-06 1.279889e-39 0.033205118 0.030583534 -1.0393038e-25 0.030221676 0.032363668
0.031105664 4.289575e-39 -7.243424e-39 0.029586699 3.561372e-39 6.140336e-39 0.030973444 2.555621e-39
0.033816878 0.031053403 0.033292983 3.062207e-39 0.030329036 0.03311808 -6.754965e-39 -7.3537973e-23
0.015229257 4.319654e-39 3.470279e-39 0.031857904 5.965136e-39 0.031149063 0.0326999 -4.535926e-39
0.031843696 -3.844357e-39 2.078483e-39 0.028828923 0.032358933 -2.111626e-39 0.033754826 7.001e-40
-7.361129e-39 0.03280655 -7.044407e-39 0.030281909 0.030401226 0.029145388 0.0327129 0.014889709

mlp.mlp.1.bias f4 [64]
00000000: 4da2 4e00 ba34 3d99 e982 4600 ef2b 0f80
00000010: 919c 2980 7515 0180 04c2 ab3c 27e6 b63c
00000020: 40f7 1500 78bb 3a00 94f2 2280 ac6d a73c
00000030: 98e9 b43c c701 4e80 e170 3980 8b85 4d00
00000040: f6a6 0480 f70f 7834 5210 1500 16b1 b73c
00000050: ff1c a53c 3082 0494 a597 a43c 58e7 b23c
00000060: 36bb a83c d2d4 3a00 aeaa 2b00 0592 a03c
00000070: 71aa 4400 1ed9 4500 1dde a73c 4b9b 2680
00000080: d914 bb3c bd0c a93c 231b b73c 9ac4 0580
00000090: 6939 a33c 8368 b73c d4a3 4b00 4604 b299
000000a0: c7ea 0f3c 76e9 0d00 728d 4c00 850b ae3c
000000b0: 8f60 4680 73c1 aa3c 2ad8 b43c 1647 4680
000000c0: 20c1 ad3c 5e00 4c80 ed6e 4100 2067 993c
000000d0: caba b13c b19d 2e80 58a3 bb3c 7daf 3e00
000000e0: 2080 1780 d6f3 b33c 2a00 4b00 fb3b a43c
000000f0: 814a a33c 7fa3 9d3c 3201 b53c 914d 0a3c
7.221391e-39 -9.781719e-24 6.475446e-39 -1.393293e-39 -3.821421e-39 -9.9533e-41 0.020966537 0.022326542
2.017242e-39 5.39371e-39 -3.209428e-39 0.020438038 0.022084042 -7.163806e-39 -5.275117e-39 7.11924e-39
-4.27236e-40 2.3102608e-07 1.9344e-39 0.022423308 0.020155428 -6.689972e-27 0.020091841 0.021838829
0.020597082 5.402804e-39 4.010155e-39 0.019600878 6.305957e-39 6.414536e-39 0.020491654 -3.545457e-39
0.02283709 0.020635957 0.022351807 -5.29705e-40 0.019924836 0.022388702 6.946433e-39 -1.8406495e-23
0.008784003 1.277611e-39 7.030239e-39 0.021245727 -6.463123e-39 0.020844197 0.022075731 -6.453986e-39
0.021210253 -6.97963e-39 6.0091e-39 0.018725932 0.021695513 -4.281002e-39 0.022905037 5.756754e-39
-2.158179e-39 0.021966856 6.887721e-39 0.020048132 0.019932987 0.019243 0.022095297 0.008441345

mlp.mlp.1.running_mean f4 [64]
00000000: 29ba 4e80 3ace 6919 b284 1380 d848 3180
00000010: a1a9 1c80 7dd7 0980 606a 86bc e898 90bc
00000020: c06b 1700 d5c5 3b00 2517 3e00 f28c 85bc
00000030: 69c9 8bbc fcbe 5880 5c9a 1880 03ae 4080
00000040: 794a 2680 90a9 8d34 5c98 1d80 79e8 8bbc
00000050: ecec 85bc d9ef 3e94 f4ea 85bc f0e2 89bc
00000060: 7286 85bc 1e41 1c00 0043 3880 71c9 82bc
00000070: 206b 4f80 e427 2600 4917 85bc fa84 0b80
00000080: 62c2 8ebc 47de 83bc 67c8 8bbc 4ba9 2400
00000090: dc94 82bc cde5 8cbc 8e40 1680 45d3 8d19
000000a0: da00 223c 3995 1800 e9f4 1d00 b939 88bc
000000b0: 3359 0a00 bd68 86bc bab9 8bbc 8118 2c80
000000c0: 4056 88bc ea29 2800 9f87 1680 a31f 7dbc
000000d0: f07f 8bbc f5d8 5500 cf8a 8dbc cb67 3780
000000e0: eb9f 0f80 1174 8bbc b319 1700 0d06 83bc
000000f0: d39d 83bc ca97 7fbc 5991 8bbc 6842 223c
-7.22995e-39 1.2087465e-23 -1.792477e-39 -4.526071e-39 -2.632245e-39 -9.03822e-40 -0.016408145 -0.017651036
2.15087e-39 5.489263e-39 5.702103e-39 -0.01630256 -0.017063813 -8.150036e-39 -2.259426e-39 -5.939895e-39
-3.516465e-39 2.638667e-07 -2.717886e-39 -0.017078625 -0.016348325 -9.63985e-27 -0.016347386 -0.016831845
-0.01629946 2.594754e-39 -5.166823e-39 -0.015965195 -7.293433e-39 3.504059e-39 -0.016246455 -1.057893e-39
-0.017426673 -0.016097201 -0.017063333 3.366809e-39 -0.015940122 -0.017199421 -2.043539e-39 1.466439e-23
0.009887898 2.257583e-39 2.751087e-39 -0.016629087 9.50354e-40 -0.016407365 -0.017056335 -4.049552e-39
-0.01664269 3.688456e-39 -2.069033e-39 -0.015449437 -0.017028779 7.883847e-39 -0.017278103 -5.088186e-39
-1.4349e-39 -0.017023118 2.121436e-39 -0.015994096 -0.016066467 -0.015600154 -0.01703708 0.009903528

mlp.mlp.1.running_var f4 [64]
00000000: 0400 0000 0400 0000 0400 0000 0400 0000
00000010: 0400 0000 0400 0000 f8b3 5d37 dc85 6a37
00000020: 0400 0000 0400 0000 0400 0000 7bf9 5337
00000030: 651a 6437 0400 0000 0400 0000 0400 0000
00000040: 0400 0000 37db 322c 0400 0000 378a 6a37
00000050: 6dae 5037 0400 0000 2092 5137 378d 6237
00000060: d3c4 5837 0400 0000 0400 0000 9148 4a37
00000070: 0400 0000 0400 0000 4fe2 5037 0400 0000
00000080: e61e 6937 b5b9 5e37 9e78 6f37 0400 0000
00000090: 7652 5337 3b02 6437 0400 0000 0400 0000
000000a0: ccc1 ab36 0400 0000 0400 0000 ab0d 6337
000000b0: 0400 0000 844a 5b37 9251 6837 0400 0000
000000c0: 1b53 5a37 0400 0000 0400 0000 a982 4b37
000000d0: e47a 6337 0400 0000 048c 7137 0400 0000
000000e0: 0400 0000 4347 6137 0400 0000 27b1 5137
000000f0: 75dc 5537 b15a 4d37 9aa0 6a37 01b7 a936
6e-45 6e-45 6e-45 6e-45 6e-45 6e-45 1.3214529e-05 1.3978653e-05
6e-45 6e-45 6e-45 1.2634667e-05 1.35960045e-05 6e-45 6e-45 6e-45
6e-45 2.541701e-12 6e-45 1.39796675e-05 1.2438378e-05 6e-45 1.2491393e-05 1.3503529e-05
1.292043e-05 6e-45 6e-45 1.2057034e-05 6e-45 6e-45 1.2450458e-05 6e-45
1.3895076e-05 1.3275469e-05 1.42735935e-05 6e-45 1.25957795e-05 1.3590378e-05 6e-45 6e-45
5.118758e-06 6e-45 6e-45 1.3533437e-05 6e-45 1.3070767e-05 1.384727e-05 6e-45
1.3013162e-05 6e-45 6e-45 1.2130165e-05 1.3558867e-05 6e-45 1.4397319e-05 6e-45
6e-45 1.3427637e-05 6e-45 1.2498617e-05 1.27471185e-05 1.2240068e-05 1.398488e-05 5.057897e-06

mlp.mlp.4.weight f4 [64, 64]
00000000: b08a 4900 5d6e b097 0f34 2e00 51a7 3b80
00000010: 83e4 1800 fd21 0600 b53c a83b 2626 a83b
00000020: 8930 4580 71e2 2600 59e8 3b80 4f94 a63b
00000030: 3dfa aa3b e16b 4800 44bd 4e80 beb6 4f80
00000040: 24ab 4e00 4547 a933 7fb8 2a00 e1fb b83b
00000050: 827b a83b 8ebb 8913 4167 a73b 6ccf af3b
00000060: f456 ad3b 3fa4 2400 279a 1d00 1ce2 a23b
00000070: c6e4 0f00 33cf 2400 de33 ad3b a730 0a00
00000080: 4df5 b53b 28a9 a33b b37d b23b a8f5 1300
00000090: bc21 9b3b 2f65 b53b 4334 0200 a780 7598
000000a0: 5fa5 0ebb f020 1800 93b4 0280 b491 ad3b
000000b0: 883e 0c80 66e0 a13b 3b7f b23b 71fe 4c80
000000c0: 2a56 ac3b e802 3000 768e 4f00 3edf 9c3b
000000d0: f5ac b33b 2e0f 4a80 6d64 bd3b 99ca 1080
000000e0: 6c0d 3480 23d3 ba3b 71f2 0c80 bc1d 9e3b
000000f0: 47d2 a53b 0a96 9a3b 071e ba3b 51a7 06bb
00000100: 018c 3480 93a2 0e19 e7ab 3e00 9cae 4580
00000110: 764c 4080 d720 3a80 0cab d63b c902 de3b
00000120: 75e4 3800 4624 1d00 49ae 2e80 6ba7 da3b
00000130: b625 e53b db6f 3480 1dc2 4300 c749 3800
00000140: 4534 1400 3411 ee32 a8b6 3380 e2c0 ec3b
00000150: 2c0f d03b fd39 2395 636b d63b 2441 e93b
00000160: fccd cf3b 2fc6 3100 401e 0a00 dcf9 c83b
00000170: e496 4480 4619 0e80 1d59 d13b 2c20 1980
00000180: acc3 ee3b e1cd d83b 1984 eb3b b224 0a80
00000190: 0bd2 d03b 24ef eb3b 42ef 2480 7aae 1819
000001a0: 21b2 55bb c9fd 0f00 6c96 3300 7156 e93b
000001b0: 8a36 1780 c955 da3b fd91 e63b 55b6 2780
000001c0: c768 e13b 6515 0c00 5d4f 0e80 0d1b c23b
000001d0: ee51 dd3b 1554 4b00 a568 e93b 72af 1a00
000001e0: 6cfb 1e80 34f3 e33b 3700 0880 68b6 d13b
000001f0: d6c3 db3b 06ae cd3b a12a ed3b 9613 54bb
00000200: a215 4b00 8c6c 6898 5c0f 4380 7bbe 1a00
00000210: 4589 2f00 19ba 2500 8d23 cd3b d72f dd3b
00000220: ef5f 3880 7297 2e00 1e45 3500 5983 ca3b
00000230: 2b98 e73b 6af4 0e00 654d 2c00 95cf 0100
00000240: ee11 2b00 3266 c9b4 47dc 3700 5286 d53b
00000250: 9d04 c63b 63c3 9714 ce62 bf3b bc3d eb3b
00000260: 0aba d53b 7c8d 3f80 f31d 2800 82a9 c73b
00000270: 33e0 2b80 c4d6 3100 76fd df3b 8f87 4500
00000280: a406 f73b 5d80 c93b 03fc e53b 0e80 0480
00000290: d5d5 c93b fb07 d73b 46b3 2900 22e2 0499
000002a0: 3185 4dbb 30c7 2700 9780 1900 188f d53b
000002b0: 4d8b 1700 5296 d13b 6f4d e93b 386d 3900
000002c0: 2898 dd3b 26d8 3680 0ecc 2980 611b c33b
000002d0: c0ad dc3b e4c3 4100 e39e eb3b daad 2580
000002e0: 87be 0580 7c84 e03b 30d0 4b80 4db9 be3b
000002f0: 09ea c53b 17f6 c93b a249 d63b 5415 44bb
00000300: 1556 4d00 7113 f496 c8ff 0e80 f37c 0d00
00000310: 1d35 3a80 6b89 0a80 aff0 133a d481 1e3a
00000320: e58a 3900 551f 0100 c0f2 3c00 4def 0e3a
00000330: ebef 173a e7f1 0280 3624 0180 24c0 0380
00000340: 7d09 4f00 d850 6f32 734a 5000 77c2 1c3a
00000350: c494 0e3a 2d0b f311 4a15 0f3a 5cba 1c3a
00000360: faf0 103a 38c2 4c80 a0b2 4b80 69a5 0b3a
00000370: ffdc 0700 0721 2380 5f6a 103a 7a2a 0c80
00000380: 77c2 203a 6980 103a 8650 203a 58e3 0800
00000390: 35a9 0c3a 5ee5 1b3a 870e 2680 d03e 6b17
000003a0: 5c5b 54b9 a338 4980 32c2 2a00 a6c7 173a
000003b0: 45d3 1e80 64cc 123a d140 1c3a 74fd 4c80
000003c0: a519 133a 0da0 4f80 99c1 3400 d860 043a
000003d0: fbe4 173a e456 0d80 e0d8 243a 8825 4a80
000003e0: 7158 3f80 5986 1c3a 9d87 0700 c0dc 0d3a
000003f0: d2e5 123a dd28 073a 6acb 183a 55f0 4fb9
6.753743e-39 -1.1401593e-24 4.243108e-39 -5.478316e-39 2.286026e-39 5.63206e-40 0.00513419 0.005131501
-6.35406e-39 3.570981e-39 -5.501645e-39 0.0050835977 0.005217819 6.650855e-39 -7.231064e-39 -7.32056e-39
7.224562e-39 7.8826396e-08 3.923276e-39 0.0056452607 0.0051416764 3.4768605e-27 0.0051087444 0.005365303
0.0052899066 3.364998e-39 2.718529e-39 0.004970802 1.459601e-39 3.380407e-39 0.005285724 9.35808e-40
0.005552924 0.00499453 0.0054471134 1.832999e-39 0.004734246 0.0055357437 2.02419e-40 -3.173046e-24
-0.002176605 2.215868e-39 -2.48449e-40 0.00529691 -1.124458e-39 0.0049400805 0.005447296 -7.070774e-39
0.005259295 4.409146e-39 7.30611e-39 0.0047873547 0.0054832646 -6.801272e-39 0.005779794 -1.542046e-39
-4.78026e-39 0.005701439 -1.188998e-39 0.004825322 0.0050604674 0.004717593 0.005679849 -0.0020546506
-4.82567e-39 7.3740595e-24 5.755468e-39 -6.399287e-39 -5.904901e-39 -5.33824e-39 0.006551152 0.0067752344
5.224743e-39 2.676242e-39 -4.286955e-39 0.00667279 0.006993021 -4.815572e-39 6.222613e-39 5.169254e-39
1.85546e-39 2.771467e-08 -4.749135e-39 0.007225142 0.006349465 -3.2963333e-26 0.006543563 0.007118361
0.006341694 4.571034e-39 9.29207e-40 0.006133301 -6.298943e-39 -1.294763e-39 0.006388797 -2.307428e-39
0.0072865095 0.0066163396 0.007187378 -9.31519e-40 0.0063726953 0.0072001386 -3.391907e-39 7.893451e-24
-0.0032607394 1.468573e-39 4.737572e-39 0.0071209003 -2.131781e-39 0.0066630584 0.007036446 -3.646993e-39
0.0068789455 1.109701e-39 -1.314167e-39 0.005923635 0.0067541515 6.917825e-39 0.0071230703 2.450661e-39
-2.845258e-39 0.0069564823 -7.34761e-40 0.0063999183 0.006706695 0.0062768487 0.007237748 -0.0032360307
6.895423e-39 -3.00401e-24 -6.158488e-39 2.456054e-39 4.365511e-39 3.464673e-39 0.0062603415 0.0067500877
-5.177202e-39 4.278761e-39 4.892076e-39 0.0061802086 0.0070677004 1.373376e-39 4.068526e-39 1.66302e-40
3.955358e-39 -3.7513524e-07 5.129973e-39 0.0065162564 0.0060430304 1.532417e-26 0.005840636 0.00717899
0.0065224217 -5.836391e-39 3.684164e-39 0.006093205 -4.029354e-39 4.576983e-39 0.006835635 6.385278e-39
0.0075386334 0.0061493353 0.0070185675 -4.1328e-40 0.006159524 0.0065622306 3.829567e-39 -6.869907e-24
-0.0031359906 3.65304e-39 2.342017e-39 0.0065173022 2.162188e-39 0.0063960934 0.0071198265 5.273804e-39
0.006762523 -5.036656e-39 -3.838456e-39 0.0059541916 0.00673458 6.03958e-39 0.0071905716 -3.46028e-39
-5.27526e-40 0.006851731 -6.962346e-39 0.0058204294 0.006039862 0.0061633694 0.0065395394 -0.002991994
7.102214e-39 -3.9432595e-25 -1.377454e-39 1.238685e-39 -5.345512e-39 -9.67651e-40 0.00056434696 0.00060465676
5.284449e-39 1.03075e-40 5.597212e-39 0.0005452529 0.00057959434 -2.70449e-40 -1.04826e-40 -3.44434e-40
7.258408e-39 1.3930013e-08 7.373547e-39 0.0005979905 0.0005439038 3.8345528e-28 0.00054581894 0.00059786974
0.00055290724 -7.04917e-39 -6.951741e-39 0.0005327077 7.22127e-40 -3.22609e-39 0.00055090146 -1.117264e-39
0.0006132493 0.00055122987 0.00061155146 8.1624e-40 0.000536579 0.0005946959 -3.49496e-39 7.6011876e-25
-0.0002025193 -6.724309e-39 3.926755e-39 0.0005789943 -2.830854e-39 0.00055999146 0.0005960586 -7.07042e-39
0.00056114263 -7.31242e-39 4.844896e-39 0.0005049831 0.00057943136 -1.225032e-39 0.00062884204 -6.80929e-39
-5.817363e-39 0.0005970947 6.91497e-40 0.00054116175 0.0005603704 0.00051559304 0.0005828651 -0.00019830589

mlp.mlp.4.bias f4 [64]
00000000: 1e0a 9b33 729e 8c31 9f38 2e33 d524 a7af
00000010: 4ec2 e7a6 273a 008b 9857 cfb1 ab56 1b31
00000020: 73f1 2a32 840e feb1 e6ff 248d cb7d a630
00000030: 130e ae33 98ed 85b3 9809 33b4 65b1 9432
00000040: 8548 8432 721b d699 4642 0d80 0bca da9b
00000050: f668 efb3 bc16 dfb1 8aaa ba15 7e2c 4f80
00000060: 668f 8f33 830f 61b3 23cd 1433 b22b 3980
00000070: 2a0d 5380 c877 a0b1 135f 2933 eefe 2a00
00000080: 87ec f2b2 7d37 4eb2 b0f3 5432 1cfa b132
00000090: 6b12 9133 b20a 2933 01a4 08b0 807a 7032
000000a0: fd4f deb1 0f42 a6b2 9e34 1980 0268 0e33
000000b0: b02b ffb0 7ac5 5233 ac72 43b3 52a9 23b3
000000c0: aff3 3333 09fa a3b2 cf96 edb3 cc30 0cb3
000000d0: a611 4db0 6196 9ea1 0ef6 bb32 1e6d 0480
000000e0: e674 7ba2 5006 bc32 5a9f 5300 2abc 0633
000000f0: bf16 0eb1 585f 2233 3575 ee2f 0c32 beb1
7.21959e-08 4.0925494e-09 4.056403e-08 -3.0403294e-10 -1.6081511e-15 -2.4695652e-32 -6.034451e-09 2.2604734e-09
9.9502016e-09 -7.394023e-09 -5.084443e-31 1.2113842e-09 8.1050665e-08 -6.236513e-08 -1.6674164e-07 1.7310137e-08
1.53998e-08 -2.2138166e-23 -1.217636e-39 -3.6195642e-22 -1.1148397e-07 -6.492739e-09 7.5393865e-26 -7.270965e-39
6.6850404e-08 -5.2401003e-08 3.4645506e-08 -5.250298e-39 -7.627069e-39 -4.6702304e-09 3.943485e-08 3.948542e-39
-2.8280068e-08 -1.2003395e-08 1.2395432e-08 2.0719249e-08 6.755439e-08 3.9358106e-08 -4.9709575e-10 1.3997692e-08
-6.470144e-09 -1.9354983e-08 -2.314763e-39 3.3156546e-08 -1.8566109e-09 4.907404e-08 -4.550627e-08 -3.810539e-08
4.1898314e-08 -1.90894e-08 -1.10636044e-07 -3.264067e-08 -7.4603645e-10 -1.0746301e-18 2.1881558e-08 -4.06486e-40
-3.4078729e-18 2.1888951e-08 7.679511e-39 3.137044e-08 -2.067665e-09 3.780528e-08 4.3375228e-10 -5.5354175e-09

mlp.mlp.5.weight f4 [64]
00000000: d757 233d dd81 7a3d 2f89 6f3d da5b 4d3b
00000010: b604 2732 17d8 3917 b6e2 743c f964 243d
00000020: de9b 5e3d 2ad1 6c3d 8e1f 1e19 26a5 333c
00000030: 1df4 743d 27b5 7e3d 5c8f 743d 3910 df3c
00000040: ac95 053d 923e bd24 0ed8 971f 4e8a 2b28
00000050: 925e 7d3d d739 353d bc66 4521 c504 5712
00000060: d761 393d bd31 373d 45b5 783d 9434 9d0e
00000070: aa6a 031d 11da 5d3d 09e3 4b3d cb84 3b18
00000080: b5c4 7d3d 0237 393d de2e 163d 23fe 343d
00000090: ffcb 693d 6a3c 5a3d 01eb 723c 968f 573d
000000a0: e5a9 993c bd47 4b3d e850 0f20 8e40 803d
000000b0: ae46 973c 57e7 5a3d be80 1d3d 4243 4d3d
000000c0: 8f6d 6f3d f7cc 6d3d 1e49 733d f45c 783d
000000d0: 6c3e e63b 310a 452c 4956 783d 4fe2 5820
000000e0: 89a7 ff2d 1726 413d ff5f 101b a349 d63c
000000f0: f2e6 113c 9708 5c3d 3e6d 6c3c 6aea 293d
0.039878692 0.061159004 0.058480438 0.0031335265 9.7217505e-09 6.004947e-25 0.01494663 0.040135358
0.054347865 0.057816662 8.174781e-24 0.010964667 0.059803117 0.06218448 0.05970703 0.027229415
0.03261344 8.207168e-17 6.430842e-20 9.522397e-15 0.061857767 0.044244613 6.6882164e-19 6.7847917e-28
0.045259323 0.04472517 0.060719747 3.875412e-30 1.739285e-21 0.054163042 0.049777064 2.4236227e-24
0.061955173 0.045218475 0.03666579 0.044187676 0.05707931 0.05328027 0.014826537 0.05262717
0.01875777 0.04962896 1.2139341e-19 0.06262313 0.01846632 0.05344328 0.038452856 0.05011297
0.058454093 0.058056798 0.0593959 0.060635522 0.0070264842 2.8001041e-12 0.060629163 1.8370791e-19
2.9064544e-11 0.047155466 1.1942419e-22 0.02615816 0.008905159 0.05371913 0.014430342 0.04148332

mlp.mlp.5.bias f4 [64]
00000000: 4bff 603e e947 9f3e c68b 983e 6640 cc3d
00000010: 17ac 993d 4db4 893c 51f5 023e 2654 623e
00000020: 4044 903e 46e8 953e b3ea 143d c3a2 ee3d
00000030: 6e55 9c3e 8322 a03e bdb6 993e 14f7 313e
00000040: f08a 433e bada 633d 0daa 04a2 3358 573d
00000050: 7332 9f3e 923b 733e 8fca 3f3d 84a6 2a97
00000060: eeaa 773e 65ff 733e 5710 9d3e b980 7496
00000070: a762 779f 1bb8 8d3e 5178 853e f7bc 499c
00000080: 31e1 9f3e 3e4a 7a3e c81f 563e d825 763e
00000090: 3168 943e 86a8 8c3e fd6e 033e 4cc7 8a3e
000000a0: 826b 0f3e b38b 843e 10d6 14a3 a251 a13e
000000b0: be27 0f3e 755d 8d3e af6c 5a3e 59d5 853e
000000c0: a492 993e 17ca 973e 4e88 983e de8a 9c3e
000000d0: 5993 dc3d a3c3 863d a7d3 9d3e 0cbc 74a3
000000e0: e61e 8e3d 2505 7e3e 994f 12a2 e87a 2b3e
000000f0: f7c5 e53d aee3 8c3e af46 033e 40b9 653e
0.21972387 0.3110955 0.2979414 0.099732205 0.07503527 0.016809607 0.12788893 0.22102413
0.2817707 0.29278773 0.03635664 0.11652138 0.30533928 0.3127633 0.3002223 0.17379409
0.19095969 0.055628516 -1.797936e-18 0.052574348 0.31093177 0.23753193 0.046824034 -5.5140135e-25
0.24186298 0.23827894 0.3067653 -1.9750781e-25 -5.2385888e-20 0.27679524 0.26068357 -6.6749553e-22
0.31226495 0.24442384 0.20910561 0.24037874 0.28985742 0.27472323 0.12835307 0.27105176
0.14005855 0.25887832 -8.0684256e-18 0.31507593 0.13980004 0.27610365 0.21330522 0.26139334
0.2999469 0.2964637 0.29791492 0.30574697 0.10770292 0.065802835 0.3082554 -1.3267087e-17
0.06939487 0.2480665 -1.9828828e-18 0.16746104 0.112193994 0.27517456 0.12819932 0.22433949

mlp.mlp.5.running_mean f4 [64]
00000000: e150 483b 4e4c 813b b55d 7b3b 4416 b839
00000010: 91ab 9830 095d e514 7964 c23a 2def 483b
00000020: 91fc 723b 8d6a 7a3b 0cdb 4d17 da62 953a
00000030: 807f 7e3b b894 823b 76e5 7f3b 5e54 1a3b
00000040: 3a86 2e3b 3115 2423 b36c 1e00 59d4 8126
00000050: 1d98 823b 3434 553b fa64 951f 6720 3580
00000060: 9f2a 573b fa5c 563b 8001 813b f0a9 3480
00000070: 1ca2 1f80 2953 733b 517a 653b 068e 0280
00000080: 1cf7 813b e355 573b c405 3c3b e088 543b
00000090: c119 7b3b 4e7a 6f3b 8d37 c03a a21f 6c3b
000000a0: 01ff e83a d8ad 643b 5b1f 3680 d39c 833b
000000b0: 7893 e63a 21bc 6f3b fe69 433b c57d 643b
000000c0: 3cee 7b3b ac6a 793b cf66 7e3b bdac 803b
000000d0: f6d3 463a 005b b22a ac5f 813b ff56 3180
000000e0: cafc 682c a271 5d3b b4a2 2600 101f 163b
000000f0: d869 793a 52b1 6f3b d233 bc3a 972a 4d3b
0.0030565786 0.003945864 0.0038355414 0.00035111804 1.1108218e-09 2.3159787e-26 0.0014830969 0.0030660138
0.003707681 0.0038210482 6.651555e-25 0.0011397258 0.003883332 0.003985014 0.0039046681 0.0023548822
0.0026630298 8.894945e-18 2.794059e-39 9.00873e-16 0.0039854185 0.0032532336 6.3271006e-20 -4.878905e-39
0.00328318 0.0032709227 0.0039369464 -4.836408e-39 -2.905054e-39 0.0037128425 0.0035015533 -2.3462e-40
0.0039662253 0.003285759 0.002868996 0.0032430217 0.003831491 0.0036541405 0.0014664993 0.0036029597
0.0017776192 0.0034893658 -4.970365e-39 0.0040164976 0.0017591557 0.003658064 0.0029817815 0.0034865004
0.003844156 0.0038057966 0.0038818603 0.003926842 0.0007584685 3.1682296e-13 0.0039481726 -4.531148e-39
3.310951e-12 0.0033789654 3.548116e-39 0.0022906698 0.0009514368 0.0036574197 0.0014358705 0.0031305903

mlp.mlp.5.running_var f4 [64]
00000000: e85f 3d37 9d0d 9f37 f81e 9637 35d5 1e34
00000010: 381a e121 0400 0000 9462 3136 63b8 3e37
00000020: a323 8c37 24c1 9437 0400 0000 5d56 d135
00000030: 730f 9a37 ee17 a237 df66 9b37 7c2b e036
00000040: a377 0f37 f6bb 0c07 0400 0000 2f0e a90d
00000050: 4b04 a237 64b0 5637 cf09 3b00 0400 0000
00000060: 79e4 5a37 d54f 5937 ba1a 9e37 0400 0000
00000070: 0400 0000 0835 8c37 2391 7937 0400 0000
00000080: 40bb a037 8b82 5b37 f8fd 2637 8580 5537
00000090: b77b 9537 e7bf 8737 ca60 2d36 1716 8437
000000a0: da07 7f36 c2ac 7737 0400 0000 b88f a437
000000b0: f1a0 7936 9e34 8837 fb3f 3437 dd34 7737
000000c0: 7aa6 9637 c797 9337 ad8e 9937 b969 9d37
000000d0: 8463 3935 7d04 1e16 7802 9f37 0400 0000
000000e0: 580e 8519 be16 6837 0400 0000 830b d436
000000f0: 69d8 9135 8f33 8837 3f41 2636 afc9 4637
1.1287608e-05 1.8960616e-05 1.7895814e-05 1.4792461e-07 1.5253533e-18 6e-45 2.6432435e-06 1.1367813e-05
1.6705895e-05 1.7732913e-05 6e-45 1.5596848e-06 1.8365425e-05 1.9323048e-05 1.8525343e-05 6.6807825e-06
8.551319e-06 1.0587666e-34 6e-45 1.0418844e-30 1.9313904e-05 1.2796463e-05 5.421813e-39 6e-45
1.3047008e-05 1.2952795e-05 1.8847513e-05 6e-45 6e-45 1.6713995e-05 1.4875349e-05 6e-45
1.9160681e-05 1.3083812e-05 9.953503e-06 1.2725713e-05 1.7819793e-05 1.6182616e-05 2.5835348e-06 1.5745913e-05
3.8002531e-06 1.4762571e-05 6e-45 1.9617248e-05 3.7197572e-06 1.6236965e-05 1.0743733e-05 1.4734655e-05
1.7958915e-05 1.7594442e-05 1.830546e-05 1.876509e-05 6.9062685e-07 1.2764555e-25 1.8955427e-05 6e-45
1.3757671e-23 1.3833573e-05 6e-45 6.3194325e-06 1.0866326e-06 1.6236472e-05 2.4773906e-06 1.1848678e-05

mlp.mlp.8.weight f4 [1, 64]
00000000: f755 613e b9a5 a33e 3fe0 9b3e 9d3e c93d
00000010: 1076 963d 6acb 863c c437 013e c2b7 623e
00000020: b004 933e 8a4b 993e cebb 113d cb08 eb3d
00000030: 9a4e a03e e4a1 a43e 967c 9d3e e7f1 303e
00000040: 60f0 423e 5de1 5f3d b399 8db9 54a1 523d
00000050: b497 a33e 6512 753e 71fb 3b3d 333f c8b7
00000060: de5a 7a3e 8fd2 753e d51e a13e cf97 b1b7
00000070: 168b 6cb9 e643 903e ff13 873e d419 95b8
00000080: 8554 a43e a43f 7d3e 1058 563e 3f49 783e
00000090: 8390 973e ebe9 8e3e 7f10 023e cd09 8d3e
000000a0: da8f 0d3e f7ef 853e 5f5a 96b9 74ea a53e
000000b0: a556 0d3e 6b9a 8f3e 5aa0 5a3e 165d 873e
000000c0: 0e3c 9d3e fa50 9b3e 11ce 9b3e 1294 a03e
000000d0: 4b0a d93d 1345 843d 7b23 a23e 536c 89b9
000000e0: b54a 8b3d 634f 803e 7fac 0ab9 f4e1 2a3e
000000f0: 3ca4 e23d 8940 8f3e 8bc5 013e 4726 663e
0.22005449 0.31962374 0.30444524 0.09826396 0.073467374 0.016454417 0.12618929 0.2214041
0.28714514 0.29940444 0.035579495 0.114762865 0.31309968 0.32154763 0.30759114 0.17279778
0.19037008 0.054658283 -0.0002700813 0.051423386 0.31951678 0.23932798 0.04589409 -2.3871287e-05
0.24448726 0.24006103 0.31468835 -2.1170736e-05 -0.00022558527 0.28176802 0.26382443 -7.1096845e-05
0.32095733 0.24731308 0.2093203 0.24246691 0.2960244 0.2791284 0.12701605 0.2754654
0.13824406 0.2615964 -0.0002867756 0.32405436 0.13802584 0.280475 0.21350232 0.26438206
0.3070988 0.30335218 0.30430654 0.3136297 0.10597666 0.06458487 0.31667694 -0.00026211384
0.068013586 0.25060567 -0.00013224965 0.16687757 0.110664815 0.27978924 0.12673013 0.22475539
