model/dfm_epoch_45.pt (torch, 40519 bytes, 15 tensors)

embedding.embedding.weight f4 [398, 16]
00000000: b1a3 e4bd 44c7 e53d dfa5 19bd 4f5c 82bd
00000010: 145e 623e 5309 03be 6605 47bd 962b 543e
00000020: 5616 b5bc c26b 3b3e 2315 c83d 328e 483e
00000030: b36e 80be f943 8a3d 6f5c a63c 9f2a b0bc
00000040: 5b66 cf3c d60e 573d a581 25bd 9395 72bd
00000050: ebea 403e f91e 42be 7a68 d8bb 17ab 753e
00000060: 388d 79be 7ff4 363e 84f8 5f3e eb04 633e
00000070: 4852 bdbd 69ba 433e 35e0 493e a28a 4cbe
00000080: bc88 14be 6574 40bd 3cbc 15be 32ed f0bd
00000090: 9f92 4fbd 2564 c3bd cec7 c4bd 6f3e 9d3d
000000a0: 48ab 19be 3622 edbc 24b9 453e 2da9 de3d
000000b0: 82f7 36be ea1a c1bc d016 0f3e 8750 13be
000000c0: 4da3 d5bd f083 5cbd ecc2 81bd 3ca0 f0bc
000000d0: 067d 76bd 191a 5cbd 781b 83bd a322 d93d
000000e0: 4dba b4bd 1635 383d a0f5 583e 800d 793d
000000f0: 019a 1cbe 9ec5 22bd 44b5 013e c263 f7bd
00000100: bf71 87be 34ba 8c3d 4938 35bd 23fb 42be
00000110: d2a1 823e 41fd 7ebe a3e7 983d 1f21 1a3e
00000120: ba95 8dbe 9c37 2c3e 1781 2a3e bd77 b03e
00000130: f17b 8abe c4a0 893e 745a 0c3e 3948 e6bd
00000140: 8d9e 16be 4348 063e b4e9 12bd 07be ae3c
00000150: 0bd8 183e d89a b1bd a1e2 0a3e dcf4 843e
00000160: d8be dcbd 5883 943e 97ba 1e3e ed8f 973e
00000170: 1c75 33be a2d7 3b3e 0e71 0f3e b745 09bd
00000180: 6028 d0bc f645 23bc c177 883d 1c74 1abc
00000190: 521e 793d 2aaa bcbc 5323 0d3d c2f7 213d
000001a0: 5460 9abd 1279 533d 7d08 89bd 4fee 4f3d
000001b0: 81c2 babd 8c03 be3c 3eab 09bd 150c 833d
000001c0: a17b 37be b003 c13d ad88 cabd 10d1 4abe
000001d0: 04f7 d83d d4f3 47be 8bd4 76bd 7064 0c3e
000001e0: a0e2 a8bd c227 613e 0ebd 823e 3ebf 633e
000001f0: cefe cbbd ef4b 473e fd70 4d3e cf99 d3bd
00000200: 36ac a1bd 652d 26bd ac68 eb3d 4b14 913d
00000210: a5b6 e83d 1026 63bc 5795 29bd 55b2 af3d
00000220: f116 e53b bf87 d4bd fca8 edbc fc1b 09bc
00000230: d5e7 a7bd 7cea 25bd 0174 db3c bda1 d03c
00000240: 8172 bbbd e35f 383d f786 cebd e244 2abe
00000250: ccc1 b23d df5a 43be ad09 dbbc 9666 7c3d
00000260: cfe9 a63d 444d 523e 30dd 243e 63e5 113e
00000270: 170c 08be 959f 493d 298b 383d 2960 b4bc
00000280: 26a7 363d bf10 c1bc a4d1 2f3d 77a9 2bbd
00000290: 5000 123d 59db c6bd 09a6 7ebd b4ce 83bd
000002a0: eb36 98bd 6c6e e7bd e821 b6bd af65 6b3d
000002b0: bfe7 a8bd 2522 ebbc 1f12 afbd 9413 173d
000002c0: f0f1 6aba 79b0 983d c9a7 923d a292 9c3d
000002d0: 42ce 4d3d 4c03 b23c 14e1 9bbd 8749 aa3c
000002e0: 1bc3 d9bc 131c b1bb d6b5 e1bd 8b27 9c3d
000002f0: f8b7 8d3c 9eaf 453d 820b 8b3c e1a1 db3d
00000300: a8e5 973e ec63 eebc 3bfc 963d a25d f03d
00000310: c783 7c3d 0bcb 393e 596d 3f3e 5b26 3cbb
00000320: 3c1f 69bd 081c 4abe 7295 77be c191 15be
00000330: 12dc e1bd 3e3a 2abe 3d65 36be aadd 313e
00000340: 5875 dcbc f645 8ebc a919 ca3d ab3d 683d
00000350: 5823 0d3e 347b fc3a 1696 00bd 4e79 39bc
00000360: 0d71 883b 61c7 aabd 8ae2 ecbc 4699 f8bc
00000370: 4909 3fbd fa00 79bd 3e48 fdbc 3739 f93c
00000380: f82a 89bc 22f9 8cb9 c2ff b93c c5f0 44bd
00000390: 219d 323d eefd 12be 9bfe 60bd 0122 253d
000003a0: 1c32 8abd b340 2cbc 71ad 97bc 10a4 f33d
000003b0: 861c 7bbd 2d01 9e3c 82b6 343d 3f22 bebd
000003c0: 7d64 13bd 2af0 6c3d 7ed4 383c 6676 b5bd
000003d0: e189 d23c 9adf 923c dfe9 803c 85e1 08bb
000003e0: 6f55 ebbd d507 ab39 d098 463c 6a7d ec3b
000003f0: 94b3 313c aa49 fbbc 15a9 f73b ff43 c6bd
-0.11164034 0.112196475 -0.037511703 -0.06365263 0.221062 -0.12796526 -0.048589133 0.20719752
-0.022105377 0.18302825 0.097696565 0.19585493 -0.25084457 0.06751246 0.020307748 -0.021504698
0.025317362 0.052504383 -0.04040684 -0.059224676 0.18839614 -0.18957128 -0.0066042515 0.23991047
-0.24370277 0.17866705 0.21872145 0.22169845 -0.092442095 0.19114079 0.19714434 -0.19974759
-0.14505285 -0.046986002 -0.14622587 -0.117639914 -0.05067694 -0.095405854 -0.09608422 0.07677924
-0.15006745 -0.028946977 0.19308907 0.108721115 -0.17867854 -0.023572404 0.13973546 -0.14386187
-0.10431538 -0.053836763 -0.063360065 -0.02937328 -0.060177825 -0.053735826 -0.064017236 0.106023096
-0.088245966 0.0449725 0.21187449 0.06080389 -0.15293123 -0.039739244 0.12666804 -0.12079574
-0.2645397 0.06871453 -0.04424313 -0.19041114 0.25514084 -0.24901296 0.07466056 0.15051697
-0.27653295 0.16818088 0.16650806 0.34466353 -0.27047685 0.26880467 0.1370638 -0.11244244
-0.1470892 0.13113503 -0.035867408 0.021330846 0.14926164 -0.08672112 0.13563015 0.25968063
-0.10778588 0.29006457 0.15500866 0.29601994 -0.17525142 0.18343976 0.1400797 -0.03351375
-0.025409877 -0.00996541 0.06663466 -0.009427097 0.06081993 -0.02303036 0.034457516 0.03954292
-0.075379044 0.051629134 -0.06691072 0.05076438 -0.0911913 0.02319505 -0.033610575 0.06398789
-0.17918254 0.094245315 -0.0988935 -0.19806314 0.105939895 -0.19526607 -0.06026129 0.13710189
-0.0824635 0.21987823 0.25534862 0.22240922 -0.099607095 0.1946256 0.20062633 -0.10332071
-0.07894175 -0.040570635 0.11494574 0.07083949 0.11362962 -0.013864055 -0.041402187 0.08578936
0.00699126 -0.10377454 -0.029011242 -0.008368488 -0.08198515 -0.040506825 0.026788713 0.025467748
-0.09152699 0.04501332 -0.10084336 -0.16627839 0.0872837 -0.19077633 -0.026738012 0.06162127
0.08150064 0.20537287 0.16100001 0.1424766 -0.13285862 0.049224455 0.04505459 -0.022018509
0.044593 -0.023567555 0.04292454 -0.04190966 0.03564483 -0.09709806 -0.062170062 -0.0643591
-0.0743235 -0.11300358 -0.08893186 0.05747002 -0.08247327 -0.028702805 -0.08548378 0.036883906
-0.0008962443 0.074555345 0.07160909 0.076451555 0.05024553 0.021730088 -0.076112896 0.020787014
-0.026582291 -0.005404958 -0.110210106 0.0762473 0.017299637 0.048263185 0.01697326 0.10724235
0.296674 -0.02910038 0.07372328 0.11736609 0.06164911 0.18143861 0.18694057 -0.0028709385
-0.056914553 -0.19737256 -0.24178103 -0.14606382 -0.11028303 -0.1662378 -0.17812057 0.17369714
-0.026911423 -0.017367344 0.098681755 0.056699436 0.13783014 0.0019262792 -0.031393133 -0.011320425
0.0041638673 -0.0833881 -0.028916616 -0.030346524 -0.046639714 -0.060791947 -0.030918237 0.03042279
-0.016744122 -0.000268885 0.022704963 -0.04808118 0.04360688 -0.14354679 -0.05493031 0.04031563
-0.06747839 -0.010513472 -0.01851532 0.11896527 -0.0613065 0.01928767 0.044119366 -0.09283876
-0.035984505 0.057846226 0.011281131 -0.08860473 0.025700511 0.017928887 0.015736518 -0.0020886373
-0.114909045 0.00032621497 0.012121394 0.007217099 0.010846037 -0.030674774 0.007557998 -0.09680938

linear.fc.weight f4 [398, 1]
00000000: ff77 9a3e 0ac9 86be d248 b13e 590e d53e
00000010: 929a 6fbf 40f8 1fbf 9543 e43d 58b8 babf
00000020: 6548 833e be16 6abf 27fe ae3e 3a4d 753e
00000030: 3eca 0040 7111 b53e 5b2b 9cbe 753f 91bd
00000040: bf93 95bf 7a38 ac3d 42a2 833f 865a a33e
00000050: c3ca 94bf d3ea 6dbf 64f6 ce3e a1c7 783f
00000060: f0f9 853f f98d b63d 0ec5 0f3f e255 f1be
00000070: f404 473f 98bd e1be 2029 4cbe 3931 059b
00000080: e6c8 1439 a46b 19bf 6188 4ebb ece2 e7bf
00000090: 9b3d 3a3f 7756 a3bd 1b71 e13d 2607 a3be
000000a0: 6295 573e 78a3 2840 1671 b1be 4cde d7b9
000000b0: 9315 3734 7b59 b2ba 0263 d22d 80b8 79bf
000000c0: 96a5 1cbf 9beb 003e 7b8a 58bf b465 0637
000000d0: 67fc 79bf 31e0 ba3b df53 203f ec84 b6bd
000000e0: 457c 3dbf 8ac1 6c3b 58e3 543f 0163 453e
000000f0: 04d7 69bd 8132 bf9f d917 85be cd55 1f3d
00000100: 5428 5a9f 6ed9 4ebd e77f e2bf f162 043e
00000110: c1c6 5c3d d749 193e 6497 dabd 9195 a9b9
00000120: c9ad 9c3f 3f74 ba3f ee17 983c 382b 4022
00000130: 4dd2 173d 478f be3e 4859 a6bc e93a e8bc
00000140: 144e 3c3f eafd dc3c 0343 a5be 6305 15c0
00000150: b1af 241e 7bd8 a8be 8dfd c6bb cc56 2dbf
00000160: 800e ac3c a9d9 8f3e 5b17 b43f 4906 0e3e
00000170: c245 b5bf f6de 9b21 20ba 61be b8d3 e5a5
00000180: cf57 92bb a4d9 a8be f7e4 aa3c db4e 0a3e
00000190: 2ed6 b73e 3820 5dbe 524a c6bc 97f8 563d
000001a0: 1521 3cbe c3c7 0f3f 930f 0ab6 d132 fcbe
000001b0: bccc 0db4 788b aeb3 4ad1 333e 2dfa 86bf
000001c0: 55c4 1cbe 72fe be3b 8d5b 0c3e 28bc a9be
000001d0: 39fe 4236 ba01 313e 522a 0c3e eca7 1fbf
000001e0: d9f2 da3f 8f61 b2be 1464 5dbd 8478 90be
000001f0: 6c43 5b3f b190 56bf a710 7a38 1563 273e
00000200: 9822 8d9f 98e2 efbe 0594 3dbd 109d 3b3f
00000210: d822 0d3f 8b6e 1bc0 28e2 d8bd 5b36 92be
00000220: 4f99 bfbf 2370 2bbf 7526 72bf 1433 4abf
00000230: 0d94 a8be 11b1 c0be 6099 abbf 5f41 213f
00000240: 12a5 9bbf 53fc 443f 29b3 173e f9dd 163f
00000250: b47d bebf 83d2 013f b921 b03c 9b26 023f
00000260: 403f e53e 2999 453d c1d4 513f a8ea e0bf
00000270: 7577 75bd 62aa a6be e558 11bf 8294 60be
00000280: 6610 9a3e 2258 c63e c96e 033f 2759 0abf
00000290: e973 49bf 3487 3bbf 1660 1cbd 79e6 893f
000002a0: 2bae 153d fa71 5ebc 392b 96be 3f57 0abf
000002b0: fc24 553f dc35 c8be 8301 d43d cd47 263f
000002c0: c9a7 2936 6998 343d 8fda 6abe 278e 0cbe
000002d0: 1203 a93e e56c 213a 0432 a037 39e1 cdbb
000002e0: 0328 703e a3be 943b 23ba 9e24 dc85 a03d
000002f0: 0a48 60ba f79b d83c 3bf1 233d b17c 24bd
00000300: 1e4a f5be f2e7 cb31 e036 1d1f 4e3e 1dbf
00000310: 1ab6 1e3e ed0b c2be 990a 0dbb b958 d21f
00000320: 4dce 673c 6363 6d3e 4418 3c3f e148 192b
00000330: d359 9fbf de86 cd39 e938 fb3d 5310 1a3f
00000340: efef eb3e c179 9fbb 49e1 2d35 1f1e 9c3d
00000350: 12c6 95bf ef36 b0bc bd19 001f 9499 223e
00000360: 8ec8 7fbe dd25 c43e 9bb8 cc3e da7d 1822
00000370: 0d05 023f 1bea fb3e 2fb4 5a3d da0e 7abd
00000380: 8ddf 4bbf 4c3b 84bc 4f3a 6a3e f921 833d
00000390: 83df d43e 1b13 113d 92a5 cc3e 2d51 15be
000003a0: 866a 213f 8188 7dbf 40de 2d3d 2e9e 233f
000003b0: 6cb2 eb3e 8b45 7dbc 69d9 49be b798 0d3c
000003c0: 8bf8 edbd 678b 563f 6d61 803f bd0d 5abf
000003d0: 5dcf 32bf fd74 c9bd 0783 963d e8f2 0636
000003e0: 6bdd 45bb 2139 61be 8e53 06be 6475 8b3e
000003f0: 6773 c9be 9082 eb1f cd1b 383e 662e fd38
0.30169675 -0.26325256 0.3462587 0.4161251 -0.9359523 -0.62488174 0.11145703 -1.4587507
0.2564117 -0.9144095 0.34178278 0.23955241 2.012344 0.3536487 -0.30501828 -0.070921816
-1.1685714 0.084092095 1.0283892 0.31905 -1.1624378 -0.9293644 0.40422356 0.9717961
1.04669 0.08913798 0.56160057 -0.47135836 0.7774193 -0.4408996 -0.19937563 -1.1017407e-22
0.0001418922 -0.5992987 -0.0031514394 -1.8116126 0.7275025 -0.07975476 0.11007901 -0.3184139
0.21053079 2.6349773 -0.3465659 -0.0004117362 1.7051052e-07 -0.001360699 2.3918204e-11 -0.9754715
-0.61190164 0.12589876 -0.84586304 8.010702e-06 -0.9765076 0.005702995 0.6262798 -0.089120716
-0.74017745 0.00361261 0.831594 0.19276048 -0.05708982 -8.09752e-20 -0.25994757 0.038900185
-4.6196654e-20 -0.050500326 -1.7695283 0.12928368 0.053900484 0.14969574 -0.10673407 -0.00032345628
1.2240535 1.4566725 0.018566098 2.6043732e-18 0.037065793 0.37218687 -0.020306244 -0.028348403
0.7355664 0.026976544 -0.32277688 -2.3284538 8.71842e-21 -0.32977661 -0.006072706 -0.67710567
0.021003008 0.2809575 1.4069628 0.13869585 -1.4161913 1.0562226e-18 -0.22043657 -3.9868634e-16
-0.004466034 -0.32978547 0.020861132 0.13506643 0.35905594 -0.21594322 -0.02420536 0.052483167
-0.18371995 0.5616419 -2.0572668e-06 -0.4925752 -1.320613e-07 -8.1278756e-08 0.17560306 -1.0545098
-0.1530927 0.005828672 0.13706799 -0.33151364 2.905623e-06 0.17285815 0.13688019 -0.62365603
1.7105361 -0.34840056 -0.05405052 -0.28216946 0.8564975 -0.8381453 5.9620153e-05 0.1634639
-5.9773053e-20 -0.46852565 -0.04628374 0.73286533 0.5513129 -2.428622 -0.10590011 -0.28557095
-1.4968661 -0.6696798 -0.9458993 -0.7898419 -0.32925454 -0.3763509 -1.3406181 0.62990373
-1.215975 0.76947516 0.14814438 0.58932453 -1.4882112 0.5071184 0.021500455 0.5084016
0.44774818 0.048241768 0.8196526 -1.7571611 -0.059928376 -0.32551867 -0.5677627 -0.21931651
0.30090636 0.38739115 0.5134092 -0.54042286 -0.7869249 -0.7325318 -0.038177572 1.077346
0.036543053 -0.013576979 -0.2932985 -0.54039377 0.8325956 -0.3910359 0.10351851 0.6495331
2.5280626e-06 0.044090662 -0.22934936 -0.13726102 0.33010155 0.0006157889 1.9096777e-05 -0.006282952
0.23452763 0.004539327 6.8836905e-17 0.07838032 -0.00085556565 0.026441557 0.040024977 -0.040157977
-0.4790811 5.9344467e-09 3.3291435e-20 -0.61423194 0.15499154 -0.37899724 -0.002152121 8.908524e-20
0.014148307 0.23182444 0.73474526 5.445766e-13 -1.2449287 0.0003920113 0.12266714 0.6018116
0.46081492 -0.004866809 6.4775355e-07 0.07622933 -1.1701071 -0.02151057 2.7126345e-20 0.15878898
-0.2497885 0.38310137 0.39984593 2.0666467e-18 0.50788957 0.49202046 0.053394493 -0.06104932
-0.79637986 -0.016141556 0.22873805 0.06402964 0.41576776 0.03541861 0.3997007 -0.14581747
0.63053167 -0.99036413 0.042448282 0.6391324 0.46034563 -0.015458475 -0.19711842 0.008642367
-0.116196714 0.8380646 1.0029732 -0.8517721 -0.6984766 -0.09836767 0.0734921 2.0108946e-06
-0.003019179 -0.21994449 -0.13117811 0.27238 -0.39345858 9.974237e-20 0.17979355 0.000120726225

mlp.mlp.0.weight f4 [16, 80]
00000000: 3bf1 473d 4837 4b3d 7879 e13d 9851 163d
00000010: a30d e73d 2804 fb3d c246 3b3a 49bf 3bbd
00000020: 6b24 72bd 965d c63c 5afb 813c 1a01 8fbd
00000030: f2ae adbd 2994 81bc a18f 6abd bd7e 9dbc
00000040: d6ba 893d 8304 0c3d e78c f8bd 20c8 7e3d
00000050: 1800 0fbd 800a 8c3d 4952 c6bd d98b 843c
00000060: d8c0 8b3d f2d9 933d dbc0 1c3c 5445 9bbd
00000070: 24b4 0abd 1cc8 42bd dfaf 143e d066 02be
00000080: 8a02 ca3d 5813 953d 71b7 cf3d ec0e e43d
00000090: 0ed0 2dbc 7651 983b efdd 0f3e f6c0 5dbd
000000a0: e0eb ad3b e2f3 c9bd 273a 7f3d a267 0fbe
000000b0: d8cc 82bd 65b0 93bd 5857 febd e5eb d83d
000000c0: 7d99 f83d 4c2f 8f3d 3e5c b73d 7a98 0d3d
000000d0: 208e 0b3e a8dc 843d 4520 18bd 0f1a 673b
000000e0: 4686 8ebc 646e 5f3c 0bf2 5bbd 35b0 8fbc
000000f0: e298 c63d 76ad 903d 8383 3d3c 26aa 0d3d
00000100: eed2 08be 388a e43d 488b 913d 3241 25bd
00000110: 3239 353c 5658 3cbc 0bd9 743d cafe 80bd
00000120: 51c4 783d 00a2 a0bd e844 8e3b a7d3 8cbd
00000130: b1e3 2c3d 1568 4ebb 1d90 8bbc 940f 9e3d
00000140: 23f1 82bc bf98 fd3c 8f00 87bd add0 033d
00000150: 0abd 2dbb 1703 773d ae08 8a3d 19eb cbbb
00000160: 0cc6 293d c591 663c e9e4 c83d a796 d23d
00000170: 8a32 5abc cb06 2b3c a6c4 83bc 9a12 843d
00000180: 041b e0bd f2c7 c9bd 39e5 653d bd61 b63d
00000190: 44cb 9bbd b53c 053e 9b11 a7bc 7030 81bd
000001a0: 4639 50bb dcba 9b3c 4d9d 073e 07b6 b0bc
000001b0: df2e edbc f808 a43b 37ca 0c3d 2adf 24bd
000001c0: 7f94 d63d ad13 6fbd 733e 343b cf2b 203d
000001d0: 548b abbb a62b 053e 5227 a23d 3724 58bd
000001e0: 6253 a4bd 0227 993b 2904 803c c183 46bd
000001f0: e853 8a3d 6c0d acbd f769 5bbd 39e5 9a3d
00000200: 61eb 10bd 5a29 22bd 0c54 bbbd ad82 323d
00000210: 878a 6d3c 421c 9f3d 2eb8 d13c 9913 0abd
00000220: cdb2 df3d 4c1a 313d 1728 d83a cde9 feba
00000230: 7875 e13d 66a5 cc3d bdd8 4fbd 69a2 c23c
00000240: ef4c e1bd 9295 073e 9987 763d 6a16 10be
00000250: bac8 cabc 0e5b ee3c 8a9a 5e3d a11e 3bbe
00000260: d4eb f73c b2e7 923c ea47 6dbd 6768 b6bd
00000270: c2e0 583d 75ca 5d3d 2cc5 5c3c f074 62bd
00000280: 19ae 393d 4bf2 9a3d 74c2 873d fe1a ad3c
00000290: ba4f 963d 95cb 9d3d 3e1f eebc 8dc5 c8bd
000002a0: 3803 acbd c826 77bd 590a 83bc 3ffb 9e3d
000002b0: da24 f4bd 1c5a 083d 10f5 75bd d899 90bd
000002c0: c970 c83d cd77 8f3d 0543 9c3d 5153 8abd
000002d0: 306f 933d b407 11bd 160e c93b 47a9 86bd
000002e0: d84e ab3d 5d2b 353d 8ab7 27bc 393f 1e3d
000002f0: 622b 793c 9ca8 3f3d 39d6 c33d df9f 2d3d
00000300: 3101 e4bd 5cf1 893d 18cb a7bd f82d 963d
00000310: 27ad 05be 9af0 d43c 2c71 213d f8c7 583d
00000320: 8acf 93bd 8a98 b23d c873 993d da42 07bc
00000330: 9642 72bd 9fc4 d3bd 97c1 ee3d ff4b a8bd
00000340: e8ef 00bc 5f74 8cbd c1f4 78bd c3cc 9cbd
00000350: 070a 68bd d8f9 1bbc 6e34 3c3d 62f9 263d
00000360: 0319 8d3c 3a2d f6bc 711f f73d a5e2 b3bd
00000370: ec60 00be 20c6 cbbd f0d1 e0bc a021 e63d
00000380: dab0 013e 0ea7 adbd 005c 2cbd 01f0 933d
00000390: 6537 c53c 35dd 8ebd 1648 8abd 28a2 00bc
000003a0: 890b b3bd de7f af3d d4e3 a7bb 5b87 143e
000003b0: f37d 83bd dcd1 80bd 6f63 8639 e83a bc3d
000003c0: 3ed7 6abd 038a 7e3c 7656 b3bd 17fc 5d3d
000003d0: 3e56 5bbc fd5f a03d 8a6a 1cbd 7241 80bd
000003e0: bcd1 d8bd a541 5f3d 3d20 81bc 872a 3dbd
000003f0: 21a0 a13c 0373 6b3d b98a 13bd b1f0 4e3c
0.04881404 0.049613267 0.110094965 0.036698908 0.11281898 0.12256652 0.00071440276 -0.04583672
-0.059116762 0.024214547 0.015866924 -0.06982632 -0.08480634 -0.015817719 -0.05726588 -0.019225473
0.06725089 0.03418399 -0.1213625 0.062202573 -0.0349122 0.0683794 -0.096836634 0.016179966
0.068238914 0.07219304 0.009567465 -0.07581583 -0.0338632 -0.04755412 0.14520214 -0.12734532
0.098637655 0.0727908 0.101424105 0.111356586 -0.010608686 0.004648383 0.14049505 -0.0541391
0.0053076595 -0.0986097 0.062311318 -0.14004377 -0.06386727 -0.07211379 -0.12419003 0.10591868
0.121386506 0.06991443 0.08953141 0.03456924 0.13628435 0.06487399 -0.03714015 0.0035263335
-0.017398011 0.013637159 -0.053697627 -0.017540077 0.09697129 0.07064335 0.011566999 0.034586094
-0.13361713 0.11159176 0.07106644 -0.04034538 0.011061 -0.01149567 0.0597773 -0.06298597
0.060734097 -0.07843399 0.0043417104 -0.06876307 0.04220933 -0.0031495143 -0.017036492 0.07717815
-0.015984124 0.030956624 -0.065919034 0.03218143 -0.002651038 0.06030568 0.06739937 -0.006223094
0.041448638 0.01407284 0.09809286 0.10282641 -0.0133177135 0.010438631 -0.01608498 0.064488605
-0.10942653 -0.0985259 0.056126807 0.08905361 -0.07607129 0.13011439 -0.020394137 -0.06308067
-0.003177242 0.01901 0.13243599 -0.021571172 -0.028953014 0.005005952 0.034372535 -0.04025189
0.10477542 -0.058368374 0.0027503043 0.03910428 -0.005235115 0.13004932 0.07917656 -0.052768912
-0.080237165 0.0046738395 0.015626984 -0.048465494 0.06754285 -0.084009975 -0.053567853 0.07563252
-0.035380725 -0.039590217 -0.0914689 0.043581653 0.0144983595 0.077690616 0.025600519 -0.033710096
0.109227754 0.04323797 0.001649144 -0.001944834 0.110087335 0.09992485 -0.050743807 0.023759084
-0.11001002 0.1324065 0.06018791 -0.1407105 -0.024753917 0.029096153 0.0543466 -0.18273403
0.030263819 0.017932747 -0.05792991 -0.08906632 0.05294872 0.054148156 0.013474744 -0.0552873
0.045332048 0.07565745 0.06628886 0.021131035 0.073394254 0.07704846 -0.029067632 -0.09803305
-0.083990514 -0.06033972 -0.015996145 0.07762765 -0.119210914 0.03328906 -0.060048163 -0.07060593
0.09787137 0.07005272 0.076299705 -0.067541726 0.07198942 -0.035407737 0.0061357124 -0.06575256
0.083646476 0.044230808 -0.01023663 0.038634513 0.015208097 0.046791658 0.09562344 0.042388793
-0.1113304 0.06735489 -0.08193034 0.073329866 -0.13054334 0.025993634 0.03941457 0.05292508
-0.07217319 0.08720501 0.07492787 -0.008255685 -0.059145533 -0.10340237 0.11658018 -0.0821762
-0.007869698 -0.068581335 -0.06078029 -0.07656243 -0.056650188 -0.009520017 0.04594844 0.040765174
0.01722384 -0.030050863 0.12066544 -0.087834634 -0.12536973 -0.09949899 -0.027443856 0.11236882
0.1266512 -0.08479129 -0.042079926 0.072235115 0.024074266 -0.06975786 -0.067520306 -0.007851161
-0.087424345 0.085693106 -0.005123595 0.14504759 -0.06420507 -0.062900275 0.00025632555 0.09190923
-0.057334177 0.015535834 -0.087567255 0.05419549 -0.013387261 0.07830808 -0.03818754 -0.06262483
-0.10586879 0.054505963 -0.015762443 -0.046183135 0.019729676 0.05748273 -0.036020968 0.0126306275

mlp.mlp.0.bias f4 [16]
00000000: c05b 8cb7 7d54 4636 8ab5 b5b7 d685 cf37
00000010: 4382 d937 3299 9bb7 19c4 f0b8 33d4 bbb8
00000020: 9224 3a36 15d8 3fb8 9d39 03b7 44e2 3138
00000030: 9725 a839 ece1 47ba 6c34 f4b8 8318 cc39
-1.6732025e-05 2.9553478e-06 -2.1661417e-05 2.4738645e-05 2.5929074e-05 -1.8548777e-05 -0.00011480618 -8.95638e-05
2.7737447e-06 -4.573919e-05 -7.821623e-06 4.2410815e-05 0.00032071464 -0.00076249125 -0.00011644591 0.00038928175

mlp.mlp.1.weight f4 [16]
00000000: ec65 853f 09a8 863f 5f0c 553f 3833 933f
00000010: 6357 683f 9566 5b3f 9a61 8b3f 483f 4b3f
00000020: 982d 6f3f 8c6f 6d3f 706d 603f b216 8f3f
00000030: 09f7 8d3f 4d58 5c3f 0cc4 793f 24b4 503f
1.0421729 1.052003 0.83222 1.1500006 0.9075834 0.857034 1.0889161 0.79393435
0.93428946 0.9274833 0.8766699 1.1178801 1.1091014 0.86072236 0.9756477 0.8152487

mlp.mlp.1.bias f4 [16]
00000000: 1d92 8bbe 6afc 7bbe 4268 63be 0cfd 35bd
00000010: ddaa f0bd 7309 50be 965a aebd 42ba 85be
00000020: bb05 02be 0868 35be 629f ffbe 26c8 9bbd
00000030: ef80 1cbd 6621 3ebe 9d2d a0be cd00 76be
-0.27259913 -0.24608007 -0.2220774 -0.044430777 -0.117513396 -0.20316105 -0.08513372 -0.26118666
-0.12697499 -0.17715466 -0.49926287 -0.07606535 -0.0382089 -0.18567428 -0.312848 -0.24023743

mlp.mlp.1.running_mean f4 [16]
00000000: 46a3 33bd 32e6 c5bb 1b0c a3bc ca28 933c
00000010: 0e74 0dbc 4b21 063d 50b0 593c aa23 b8bc
00000020: 814c 20bd 365e 94bd 5f60 20bd c654 813d
00000030: 9884 643d d706 13be 50e8 73bd 7967 27be
-0.04385688 -0.0060394043 -0.019903233 0.017963786 -0.008633627 0.032746594 0.013286665 -0.022477943
-0.03913546 -0.07244532 -0.039154407 0.063149974 0.055790514 -0.14358078 -0.059547722 -0.16348065

mlp.mlp.1.running_var f4 [16]
00000000: b8d3 2a3c 0f17 f43b 907c 963b 3e4f 233b
00000010: 0268 593b 03a0 2a3b bbf2 1e3b 4906 293b
00000020: 3b79 a03a c2ba 4f3b c328 de3b 9d70 803b
00000030: 763e 3f3b 51ea 023b f5e8 8f3b 217b 153b
0.010426454 0.007449038 0.0045924857 0.0024919058 0.0033173566 0.0026035316 0.0024253565 0.00257911
0.0012243161 0.003169701 0.0067797615 0.0039196745 0.0029181517 0.001997609 0.0043917843 0.0022808986

mlp.mlp.4.weight f4 [16, 16]
00000000: 7ece b3be 2d77 edbd 7de4 b6bc 87a3 abbd
00000010: 841d a63d 263a 1e3d 5c79 87be ce38 093e
00000020: cc72 d33d 3f93 16bb 0584 32be 8786 59bd
00000030: 80dd a3be 9110 743d e8c6 19be 6e1e 0abe
00000040: ab6f 44be 3736 0bbd f838 1b3e 357f d8bd
00000050: d7dd 1e3e 723d 4c3e ce3c 90be 4b18 ab3d
00000060: 9a96 3f3e fa3a ad3d 1a10 19be c23c 6dbe
00000070: 42ef f73c 2c72 703d 7a70 50be 5277 0a3e
00000080: 646c 763e 6283 873e adf2 8f3d 1de6 0cbe
00000090: dcdc 39be 7179 8d3b 46cc 7b3d cfb1 0cbe
000000a0: d171 e2bd 3719 20be 8824 013e dedf 06be
000000b0: ba39 8d3e 5917 913d 281d 29bd a800 e73d
000000c0: 269c f33c c7ea 953d eb3d d13d a4da af3e
000000d0: f3d8 be3d d141 19be 98e5 4d3e daf7 3e3d
000000e0: e727 bdbd d0e5 e73d 8cc8 efbd 331e 8c3e
000000f0: c051 073e 761f a23c 7e67 873c bd3b 8cbe
00000100: 8e5e e8bd f61c bebd 4a60 4dbe e33c 27be
00000110: 549b a6bd 4af0 1f3e 2573 83be 3e62 393e
00000120: ab69 64bc f320 7bb9 8166 5ebe 8c32 5ebe
00000130: f308 0abe a2bf 533d a579 7c3d d311 ff3d
00000140: 6fd3 31be a7a4 a3be b9d1 763e 31a3 34bd
00000150: 34a5 1bbe 891b 893e 8c5f 85bd f29a c63d
00000160: 4e36 903e ca6a 163d 322c 78be 5b63 1dbe
00000170: f78b f63c cc19 453d 92b5 653d b660 a73c
00000180: 4b82 64be efde 9ebe 80d9 9cbc 31d3 a3bc
00000190: b85c 313c 3f11 4ebd 781a a2bd 0596 8a3d
000001a0: e5fd 083d 47ba c73d e268 8fbe 696b 54bd
000001b0: 9f58 3fbc 5f31 91bd c770 0cbe a7bc ad3d
000001c0: 1063 fd3d 43f8 cebd f853 783e 028c 1bbe
000001d0: f0dd 693d c0a3 833e 974a 71bd eb1a 43bd
000001e0: 6cd8 6f3d ca05 db3d e35d 85be 486e 44be
000001f0: 25a7 84be e2a9 213e 9946 55be 7ee7 a3bd
00000200: 5a5a e23c 7d53 45be e934 4f3e 0429 13bd
00000210: 3e75 dabd 47fd 3abb f630 17bd 6015 73bd
00000220: 8bf9 4abd e8b1 2fbe 72b3 25be 6495 98bd
00000230: c403 8bbe b8c1 eb3d 2a94 02bc c2db 833e
00000240: 72a1 c33e d637 37be 3df5 1dbd 10a9 b73d
00000250: 0887 dbbc b8d9 13bd 0802 99bb aa7b f0bc
00000260: b774 1abc 32e0 febc aec5 833d f488 f7bd
00000270: a8f0 25be 7359 e1bc 1590 5ebd ab49 e43c
00000280: e819 80bd dc80 e83d 3c47 c4bd 6654 a2bd
00000290: e4b2 22bb 1261 08bc bef3 c8bd 33c4 c33d
000002a0: b952 5cbe 522e eabd 9419 993e 9d24 203e
000002b0: f32c 4e3e bbb4 a2bd 315c a53e 0a51 fabd
000002c0: a837 613d 7209 9abe 073c 253e 1727 6bbe
000002d0: 5719 103e 9b5d 043d dace 49be 5080 103d
000002e0: 6367 963d 534f 073e 11af f93c 1067 1ebe
000002f0: b7df 11be 81d0 0ebe 17ac a0be 5cd7 4fbd
00000300: 22e7 75be 593b 86be bd8d 353e 8a8f bfbc
00000310: aa02 323e c7b7 513c 99a0 64be c49c 983d
00000320: 15c0 0cbe 2f58 3f3e 2586 9cbe 5aa2 81be
00000330: 89e2 d33d 4718 083e 7974 72be 5878 713d
00000340: ed80 00be 8ac5 a93d bc1c 8c3b 696b acbe
00000350: c4dd 843e 393f 07be 5c56 eabd 7626 bbbd
00000360: b84c 113c c27c 063e 5f85 e73d b42f 31be
00000370: 46bb 95bd 4e5d 093e 547c 9dbe bb46 93bd
00000380: b153 1dbe d556 c73d 0f1a 37be 3e25 903d
00000390: 76c6 cabd 40cc 8ebd d608 0e3c b1f8 cbba
000003a0: a303 99be 47d6 47bd 5ae9 7d3e 255a 963d
000003b0: 921a 59bd 5aa2 79be 4c97 553e 7d06 08be
000003c0: d4f5 fa3d 5502 c13d 277f a9bc 3a20 87bc
000003d0: 03b5 c7bd a64b a6bd 175f 933d d694 8ebc
000003e0: 3ae9 abbd eeda ebbd 0aa9 893e df7e 233e
000003f0: c2c8 253d f50f 823d a0b9 a93d a0fb 6ebc
-0.3511848 -0.115949966 -0.022325749 -0.083808 0.081110984 0.038629673 -0.26459777 0.13400576
0.1032463 -0.002297595 -0.17433174 -0.05310681 -0.3200493 0.05958611 -0.15017283 -0.1348817
-0.19183223 -0.03398725 0.1515845 -0.10571138 0.15514313 0.19945315 -0.2817139 0.08354243
0.18709794 0.084585145 -0.14947549 -0.23167709 0.030265454 0.058702633 -0.20355406 0.1352208
0.24064785 0.26467425 0.070287086 -0.13759656 -0.18150657 0.0043174555 0.061474107 -0.13739704
-0.11056865 -0.15634619 0.12611592 -0.13171336 0.27583104 0.07084531 -0.04128757 0.11279422
0.029737543 0.07320171 0.10216888 0.34346497 0.093187235 -0.14966513 0.20107114 0.04662309
-0.092361264 0.1132313 -0.11708173 0.2736679 0.13214779 0.019790392 0.016528841 -0.27389327
-0.1134616 -0.092828676 -0.20056263 -0.1633182 -0.08135095 0.15619007 -0.25673786 0.18103883
-0.013941209 -0.000239495 -0.2171879 -0.2169897 -0.13479976 0.051696427 0.061639447 0.124545716
-0.17365812 -0.31961557 0.2410344 -0.044100944 -0.15199739 0.2677882 -0.06512365 0.09697522
0.2816643 0.036722936 -0.24235609 -0.15369932 0.030096037 0.048120305 0.056081362 0.020431858
-0.22315328 -0.3102946 -0.01914668 -0.019998165 0.0108253285 -0.050309416 -0.07915205 0.06766895
0.033445258 0.097523265 -0.28009707 -0.051860247 -0.011678844 -0.07089495 -0.13714896 0.08483248
0.1237241 -0.10105946 0.24250782 -0.15190127 0.05709642 0.2571087 -0.058909025 -0.047633093
0.058556005 0.106944636 -0.26048192 -0.19182694 -0.2590877 0.15787461 -0.20827712 -0.08003138
0.027630974 -0.1927013 0.20235027 -0.035927787 -0.106668934 -0.0028532313 -0.036911927 -0.059346557
-0.04955439 -0.1715771 -0.16181734 -0.07450369 -0.2715131 0.11511558 -0.007969895 0.257536
0.3820911 -0.17892393 -0.038563956 0.08967793 -0.026797786 -0.036096305 -0.0046694316 -0.029355843
-0.009427241 -0.031112764 0.06434189 -0.120866686 -0.16205084 -0.027508473 -0.054336626 0.027867159
-0.06254941 0.11352703 -0.095838994 -0.07926254 -0.0024825865 -0.008323925 -0.09812115 0.095589064
-0.21515931 -0.11434616 0.29902327 0.15638967 0.20134334 -0.07944628 0.322969 -0.12222488
0.05498472 -0.3008533 0.1613618 -0.2296413 0.14072166 0.03231583 -0.19707814 0.03527862
0.07343938 0.13213854 0.030478986 -0.15469003 -0.14245497 -0.13946725 -0.31381294 -0.050742492
-0.24013951 -0.26217154 0.1772985 -0.023383874 0.17383829 0.012800164 -0.22326888 0.07451776
-0.13745148 0.18685983 -0.30571094 -0.25319177 0.103459425 0.13290511 -0.23677243 0.05895266
-0.12549181 0.08289631 0.0042758863 -0.33675697 0.25950444 -0.13207711 -0.11442253 -0.09138195
0.008868389 0.13133529 0.113047354 -0.17303354 -0.0731111 0.13414499 -0.30758917 -0.07191225
-0.15363957 0.09733359 -0.17881034 0.070383534 -0.09901135 -0.06972551 0.008669099 -0.0015561787
-0.29885587 -0.048788335 0.24796048 0.073414125 -0.053003855 -0.24378338 0.20858496 -0.13283725
0.12253919 0.09424273 -0.020690514 -0.016494859 -0.09751322 -0.081198975 0.07195871 -0.017404955
-0.08394094 -0.11516367 0.2688678 0.15966366 0.04047466 0.063507 0.08287358 -0.014586359

mlp.mlp.4.bias f4 [16]
00000000: 09a4 46b8 1326 11b7 b6c3 6134 169b d6b7
00000010: 546e 3537 3023 82b6 bfde 1136 fbd4 1036
00000020: c5ed e436 bdf6 2c37 1192 1835 0990 0b38
00000030: 3a22 6c35 4f98 9ab7 7d99 5bb7 e4b9 7037
-4.735965e-05 -8.651538e-06 2.1025957e-07 -2.5583005e-05 1.08141285e-05 -3.8783983e-06 2.173634e-06 2.1581643e-06
6.8226095e-06 1.0309447e-05 5.6836967e-07 3.3274326e-05 8.796666e-07 -1.8429155e-05 -1.3089154e-05 1.4348396e-05

mlp.mlp.5.weight f4 [16]
00000000: 6680 7a3f d30f 883f 52ed 723f 9cd5 6e3f
00000010: bb7a 793f e916 873f 1206 803f 1ed4 883f
00000020: 19c1 813f 6cf6 883f 442d 7f3f aba2 813f
00000030: 6214 853f 0da3 7c3f 30dc 783f de76 7b3f
0.9785217 1.0629829 0.9489337 0.9329469 0.97452897 1.0553867 1.0001853 1.0689733
1.0137054 1.0700202 0.99678445 1.0127767 1.0396845 0.98686296 0.9721098 0.9822825

mlp.mlp.5.bias f4 [16]
00000000: 20ae ffbc 70b6 8a3d 558e aebd ba12 aabd
00000010: c259 11bd 48c5 773d fe84 5ebc 53c1 723d
00000020: 809f 00bc 01c3 52bd f9b0 2dbd 1900 503b
00000030: 0868 083d 8f00 b5bc b2a0 20bd c74b 74bd
-0.031210959 0.067730784 -0.085232414 -0.08304353 -0.03548599 0.060490876 -0.0135815125 0.0592664
-0.007850528 -0.0514555 -0.042405102 0.003173834 0.033302337 -0.022094993 -0.03921575 -0.05964258

mlp.mlp.5.running_mean f4 [16]
00000000: 5afd dabe 8900 debd 6e56 b53d 70ca c83e
00000010: 40b6 b5be a0ec 71bd e35b 87be 6901 24be
00000020: d8b3 68be ca68 8ebd 9a96 8e3d 5cd3 afbe
00000030: edae 79be 2254 90be 1f16 2abe e0f8 013e
-0.42771417 -0.10839946 0.08854376 0.39216948 -0.35490608 -0.059063554 -0.26437292 -0.16016163
-0.22724855 -0.06953581 0.06962319 -0.34340942 -0.24383135 -0.28189188 -0.16610001 0.12692595

mlp.mlp.5.running_var f4 [16]
00000000: 1792 2c3f b90e 523f 2367 4d3e 8671 c83e
00000010: 4fe9 ca3e 2901 f33e 8eb4 913e 9c24 163f
00000020: 1f9d 373e 9e03 f03c 7f70 943e 204e 163f
00000030: 6801 373f 9051 cb3e 396b d13e d2e2 643e
0.67410415 0.82053715 0.20058875 0.39149112 0.39631125 0.47461823 0.28458065 0.5864961
0.1793103 0.0292986 0.28992078 0.5871296 0.7148652 0.39710665 0.40902117 0.2235215

mlp.mlp.8.weight f4 [1, 16]
00000000: 5ae8 5b3e 1c36 7c3d 9e59 ecbd 3bea e5bd
00000010: df2f 553e 7605 863d b478 3a3e 3269 803d
00000020: 2829 003e 84ea bdbd c736 d0bd 2c31 0c3e
00000030: 4552 c03d 36e4 173e c248 19be 39bf dabd
0.21475354 0.06157504 -0.115405306 -0.112263165 0.20819043 0.0654401 0.18210107 0.062700644
0.125157 -0.09273246 -0.10166698 0.13690633 0.09390692 0.1483315 -0.14969161 -0.10681004
