model/dfm_epoch_10.pt (torch, 79687 bytes, 15 tensors)

embedding.embedding.weight f4 [98, 32]
00000000: c973 0f3e 4340 80be 3425 a73d 0c9b f0bd
00000010: 3eea 753e f339 61be 7124 923c ad2d 243e
00000020: cd46 ed3d 538e 69be 4959 6cbe 76ff 823e
00000030: f1b0 7b3e a417 3c3e 1401 f9bc 414a 373d
00000040: a4ee 02be 5407 7d3e 559f a33d 4f3f 933e
00000050: 55fc 203e 3ed9 c5bd 6f42 4e3e a15a 31be
00000060: 300c 76be ec10 1f3e e025 9fbc 2114 03be
00000070: db1c 983e cea7 e0bc 063c a5bc f335 843e
00000080: c3f0 833c b6a6 36be a961 053e b4c9 2fbe
00000090: 9c66 5f3e a202 30be 4fc1 89be 89eb fbbd
000000a0: 928e 21be f7b6 ccbd 7625 b83d 4324 623e
000000b0: 889b 893e 30c7 87bc 7c90 ccbc 2858 8b3d
000000c0: d4dd 1cbe 250b 603e 5820 4f3e b53d a03e
000000d0: 1682 173e 790f 57be bd36 76bd f70b 38be
000000e0: 8cc3 64be b43b cfbc b287 7dbe 4ee4 bbbd
000000f0: 9909 d03d 4426 513d 7064 4f3e 7399 413e
00000100: d4c5 9c3e bb94 acbd a108 8fbb 4dac 993d
00000110: 2f4f aabc cbf9 80be f32d 7abe 92c8 153e
00000120: ee00 8dbd 38fb 75be 811d 86be 3ad8 7e3e
00000130: c103 043e 7f30 fc3d fa73 a2bd a420 5bbe
00000140: a1e7 50be f0dd 023e dfea d3bd 06d6 693e
00000150: b9ea 463e 0972 8dbe 8ca8 ca3d 99a4 8bbe
00000160: 63ba 41bd c03d 603e 14f1 9cbd 27d6 92be
00000170: b773 0e3e b08f 853e 200b 453e 9a47 4f3e
00000180: 7b52 72bd 9b92 87bc b95a 003e b64b c6bd
00000190: 3c77 a13c e1a3 95be b974 43be f980 26bd
000001a0: 648a 58be 33c3 9d3d 2c64 a03d 5fef 003e
000001b0: 860d 4e3d 2ec4 473e e1a1 35be 494c 2d3d
000001c0: 551f e1bc 48f6 943e 8115 fe3c 3eb8 c9bc
000001d0: bb94 35bd bcad 93be 5810 083e 297f 9a3d
000001e0: b0dd 56be 557b ab3b b8e8 463c d0c6 40be
000001f0: 1f3c 783e 0933 983e 29ed 523d eead b0bd
00000200: 409f fd3d f495 a73d c7f4 a03d b3d5 8d3d
00000210: 5c4f 893e e220 9bbe 0e02 92bd d293 c33c
00000220: 6845 043e 3a72 3dbe 0d4f 8d3c dd8a 8f3d
00000230: c83d 9c3e 9f00 f13d 4c67 8fbe 0e3c f73c
00000240: 4094 1bbe 7257 633e 9b80 dcbd fd5f 3bbb
00000250: 78b4 8a3e 8126 a1be 4e12 5d3e ebf6 10be
00000260: 1df9 0dbd 96d1 cf3d 5dc7 083d 2681 a4be
00000270: 61c0 80ba df59 79bd fbb9 673d 8f92 a53e
00000280: b8ce 1e3e 0031 dcbd bba5 7b3c 0edc 943d
00000290: b7ed 8cbd fbd8 05be 4670 bcbd 9916 173c
000002a0: bab3 b63c dd1c e3bd e1db febc 49ff 9f3d
000002b0: fc0e 953e c4a1 90bd 3f92 9cbd a22a b53d
000002c0: c576 8bbc f351 553e 2c39 4c3e 6415 74bd
000002d0: 3a6f 4d3d 3500 a93c 4b98 e83d bbae 153d
000002e0: 3655 7cbe a342 6e3e dfce 6d3b 0842 31be
000002f0: aa52 b1bd 3131 a1bd 239e e2bd 461f 403e
00000300: 031a 1d3e 2d29 83be 6ba1 d4bd c03d cd3d
00000310: 1513 463e 87f8 8bbe 09bf 4d3d 64cd 963d
00000320: 54e1 1ebe bf8d efbd 3a35 14bc 010c 683e
00000330: d71f a6bd 13f4 e93b 59e5 65be 1d35 f0bc
00000340: de0e 263c 4162 a4bb 8c7e 293e 0241 023e
00000350: c7ce 793e 0e21 9b3d 1dcb b2bc e422 83be
00000360: 4fc5 7abe b549 313e 674d a6bd 0a44 15be
00000370: b259 a23d 18c7 c43b 5453 8e3e 390a 16bd
00000380: 978d 283e 139f 3bba f279 f9bd 08b9 43be
00000390: 2a55 9ebc 8d92 fa3d 94d6 60bd f93a 20be
000003a0: 2ca5 2c3d b85e c23d 435f 62be 133a 92ba
000003b0: 65fa 1dbd 41fa a53e 926e 9ebe 4703 39be
000003c0: 9bc6 8fbe ad7c 76bc d627 af3e c90f cc3c
000003d0: 5b57 4b3e 6ff4 3dbe fdc3 703e 3d6e f53d
000003e0: f719 52be 6efd 843e c2a7 3dbe 310b 6cbc
000003f0: dc2c 973e 1ac6 9e3e 746f c73d 5c7d 473e
0.14009012 -0.25049028 0.08161393 -0.11748323 0.24015138 -0.21994762 0.017839642 0.16033049
0.1158577 -0.22808199 -0.23080935 0.25585526 0.24579217 0.18368393 -0.030396022 0.04474855
-0.12786347 0.24709827 0.079893745 0.28759238 0.15721257 -0.09660576 0.2014253 -0.17319728
-0.24028087 0.15533799 -0.01942724 -0.12800647 0.29709515 -0.027423766 -0.020170223 0.2582241
0.016106015 -0.17837033 0.13025536 -0.17166787 0.21816486 -0.17188504 -0.26905295 -0.12300784
-0.15777043 -0.09995835 0.0899152 0.22084145 0.26876473 -0.016574472 -0.02497124 0.06803924
-0.15318996 0.21879251 0.20227182 0.3129708 0.14795718 -0.21001996 -0.060110796 -0.17973314
-0.2234022 -0.025297023 -0.24758795 -0.09174405 0.101580806 0.051061884 0.20253158 0.18906192
0.3061968 -0.084268056 -0.0043650423 0.07503567 -0.02078971 -0.25190577 -0.2443159 0.14627293
-0.06884943 -0.24021614 -0.26194385 0.24887171 0.12892057 0.123139374 -0.07932277 -0.2139917
-0.2040086 0.12779975 -0.103475325 0.2283555 0.19425477 -0.27626064 0.09895429 -0.27274016
-0.047296893 0.21898556 -0.076631695 -0.2867901 0.13911329 0.26086187 0.19242525 0.20242158
-0.05916069 -0.0165494 0.12534608 -0.096824095 0.019710176 -0.29226592 -0.19087495 -0.04065034
-0.21146542 0.07703247 0.07831606 0.12591313 0.050305866 0.1950843 -0.17737533 0.04230908
-0.02748076 0.29094148 0.031016113 -0.024623986 -0.044331294 -0.28843486 0.13287485 0.07543785
-0.20983005 0.005233208 0.012140445 -0.18825841 0.24241684 0.29726437 0.051495705 -0.086269245
0.1238389 0.08182898 0.078591876 0.069255255 0.2681836 -0.30298525 -0.07129298 0.023874197
0.12917101 -0.18500605 0.017249608 0.07008908 0.30515885 0.117676966 -0.28008497 0.030180003
-0.15193272 0.22201326 -0.10766717 -0.002859115 0.27090812 -0.3147469 0.21589014 -0.14156692
-0.0346614 0.10147397 0.033393253 -0.32129782 -0.0009822958 -0.060876723 0.05657385 0.32338378
0.15508544 -0.107515335 0.015359337 0.072685346 -0.06881278 -0.13071053 -0.09201102 0.009221696
0.022302497 -0.110894896 -0.031110706 0.07812364 0.29112995 -0.07062104 -0.07645082 0.08846022
-0.017024407 0.20832042 0.19943684 -0.059590712 0.050154902 0.020629982 0.113571726 0.03654359
-0.2464188 0.23267607 0.0036286635 -0.17310345 -0.08658345 -0.07870711 -0.110653184 0.1876193
0.15341954 -0.25617352 -0.103823505 0.100215435 0.19343217 -0.2733805 0.050231013 0.07363394
-0.15515643 -0.11696958 -0.009045893 0.22660829 -0.08111542 0.0071396916 -0.2245077 -0.029322201
0.010135381 -0.0050165956 0.1655218 0.12720111 0.24395286 0.07574664 -0.021825368 -0.25612557
-0.2448933 0.17313273 -0.08120232 -0.14576736 0.07927264 0.006005179 0.2779795 -0.036630843
0.16460262 -0.0007157188 -0.12181462 -0.19113553 -0.019327719 0.122349836 -0.054892138 -0.15647496
0.042149708 0.094907224 -0.22106652 -0.0011156223 -0.038568873 0.3241749 -0.30943733 -0.18067656
-0.2808121 -0.015044373 0.3421008 0.02490987 0.19857542 -0.18550275 0.23512264 0.11983917
-0.20517717 0.25974602 -0.18521026 -0.014406965 0.29526412 0.31010514 0.09738055 0.19481415

linear.fc.weight f4 [98, 1]
00000000: a9e6 8dbf 7fcc 89bf 50d7 b3be 2ad9 cfbe
00000010: 1897 393f 1081 0940 723a 8cbf 44bd ce3f
00000020: fc87 cebf 0ee6 313e 4366 c23f 4cc1 d93f
00000030: 1ffa 7bbf 3c1a 06bf 2c10 1bc0 73bb 153e
00000040: 887d 783f cd58 60bf fc45 33bf 8caa e83e
00000050: 97cd d93e e172 09bf 95e5 ad3e 6ee1 12be
00000060: b0d5 213f d716 333f d125 5b3d ed1d d63e
00000070: 9de9 22c0 3941 a4bf 3bdf e9be 7e2b b23e
00000080: b5f6 bfbe ef91 59bf e572 dbbe 9b79 85bf
00000090: a62b 0abf 9199 993f fa2f 033d a05f 973e
000000a0: 8658 15bf a67b dc3e f57a 4fbf cfc5 543e
000000b0: 0560 67bf 48a0 e6be bf81 c1bd 430b 2440
000000c0: e88e 12bf db3c 183f 41e9 19c0 9b4b 883c
000000d0: 153b 393f c117 4f3f c557 b8be 3041 6abf
000000e0: a431 a63f dd15 293e 1aa0 5cbf 7b78 163e
000000f0: 94cb 17bf 1371 cfbe d037 893d 2cb8 9e3f
00000100: 96e7 80bf 9fb4 93bd eaeb 3fbf 757a 8abf
00000110: c2b6 713f 669f ebbf 1a8a afbf fd4e 673f
00000120: 9e78 8e3f 9908 60bf 683e cebc e56d 643f
00000130: 2c19 80bf 4fb2 313f db00 103f 5ca5 603d
00000140: 8883 9b3e 9840 833e e71a 1fbf d20e 053e
00000150: ed51 403f 3e9d 3f3f aa36 0740 1d8b c5be
00000160: 24ef 2abf fc8d fdbe 414e 193f c019 89bd
00000170: a9b5 413f 3d0e 0fbc 22eb ed3e 3ea2 4ebe
00000180: beda 59bf 9184 5b3f
-1.1086017 -1.0765532 -0.35125208 -0.4059537 0.72496176 2.1485023 -1.0955336 1.6151509
-1.6135249 0.17372915 1.5187458 1.7012115 -0.9842853 -0.5238378 -2.422862 0.14622287
0.97066545 -0.876355 -0.7002866 0.45442617 0.42539665 -0.53690916 0.3396422 -0.14343807
0.63216686 0.69956726 0.05350286 0.41819707 -2.5455086 -1.2832404 -0.45678124 0.34798807
-0.3749291 -0.849883 -0.42861095 -1.0427736 -0.5397285 1.199999 0.032028176 0.29565144
-0.583382 0.43063086 -0.8104699 0.20778583 -0.9038089 -0.4504416 -0.09448575 2.5631874
-0.5724931 0.5946786 -2.4048617 0.016637614 0.7235578 0.8089562 -0.36004463 -0.9150572
1.2983899 0.16512246 -0.86181796 0.14694397 -0.5929501 -0.40515956 0.067000985 1.2399955
-1.0070674 -0.07212185 -0.7496935 -1.0818621 0.9441949 -1.840802 -1.371402 0.903549
1.113056 -0.8751312 -0.025176242 0.89230186 -1.0007682 0.694127 0.56251305 0.0548452
0.30373788 0.2563522 -0.62150425 0.12993935 0.7512501 0.7484931 2.1127114 -0.38582698
-0.6677115 -0.49522388 0.5988503 -0.066943645 0.75667816 -0.008731422 0.46468455 -0.20179078
-0.850994 0.85749155

mlp.mlp.0.weight f4 [64, 160]
00000000: fa62 19bb a3d4 763d e7f0 133b 3919 87bc
00000010: cf5d 59bc c11c f93c 0646 d9bb 9412 343d
00000020: 99d7 61bd 053d e13c 0aa3 1ebd b491 96bd
00000030: e438 503d aa0f 70bd 846f fc3c 8cb9 17bd
00000040: 8d4d 10bd 238b 36bb 38d6 ac3d 4d5d 493d
00000050: 1955 42bc 4fbf b5bd a428 d0bd 52d0 dabc
00000060: 9c18 fdbc 6fb2 d1bd 8b46 9cbd e064 493c
00000070: 9621 a7bd d7b6 913d 6fe0 b6bb 435b 12bd
00000080: 43bc 143d 4bed 81bc 4c34 4c3c 8852 723d
00000090: 22eb 5b3d 6f77 7a3d 0064 2e3d c474 8abd
000000a0: 2be2 913c bfd3 76bd 3509 943c d5f2 bbbd
000000b0: 0081 4d3d b1f4 b9bd 7db0 623d 7b6a 873d
000000c0: 60c2 883d 4187 ebbc b840 5bbd 61bd 86bd
000000d0: 0c10 e83b b02e 5f3d d301 43bd 9862 55bd
000000e0: e571 553d ddd9 ebbb a989 933b c049 f13c
000000f0: be19 81bc d937 3b3d 861b ba3c eb8f 88bd
00000100: 8891 0ebd 9ef8 8f3d 1bbf 9ebd 5d49 9b3d
00000110: ec8a f0bc 9410 2cbd 23c9 8dbd 6c74 803d
00000120: 6881 46bd 202b 6f3d c204 4dbd 54df 0bbb
00000130: 95ce 31bd 24bb 933d 2d5a 423d e6c6 fc3c
00000140: 8f0e 2a3d e2ed 80bc a36a 7d3d 8fbf 3c3c
00000150: 5e84 713c f20e c33c 11ba 2dbc 30b0 5f3d
00000160: 53be b2bd 8ce1 453d 776b b03d d963 4b3d
00000170: d29d 213c 8f4e dabb 07bd bdbb 1afe 96bc
00000180: 9b8f 62bc 9776 26bb 78bc ff3c 3d71 2a3d
00000190: 334d 24bd 4a18 0b3d b009 0d3c 4d25 8c3d
000001a0: 3ddc 20bd 4a64 9b3d 44e2 383d 2254 0dbd
000001b0: 06c2 263d 27ab 353d f672 093d 28a2 6d3d
000001c0: a10a 6c3c dd57 513d 3aa3 8b3d f3c7 4dbd
000001d0: 50b8 9fbd 7939 9dbc 09c4 433d 4a5f c03b
000001e0: a922 5bbd 6a50 c0bd 80b0 6bbc 74e1 5d3d
000001f0: b1fc 0f3c 4ba4 8ebd c850 a8bc 2bcd e7bc
00000200: e9ca bc3c f873 1e3d 2d6a a7bd af74 d8bb
00000210: aa35 8f3d 88de 85bc 8dbd 3abc 9059 c73d
00000220: 65d5 d1bd ce03 063d ee5e df3c ee6d ab3d
00000230: 8137 81bc 9bfa b53d 1b1a a33d bc92 adbc
00000240: 6158 2bbd aa61 05bd e444 96bc b669 38bd
00000250: 3fb8 3fbd 59a2 3fbc 3db7 96bd 1b2a d1bc
00000260: 7365 d93c 153f debd d13a 39bd f5b1 98bd
00000270: dc38 1e3c e131 80ba 14b0 2c3b 8fea 923d
00000280: 210e f0bc 750f 4bbd ad2b 5abc 6b31 953b
00000290: d44f 01bd 013f 323d 751c 58bd b54b 743d
000002a0: 63d6 50bd 031e 8bbd bdd6 a2bc 2fe2 813b
000002b0: e7eb 2abd 054c 4abd 6f78 463c fb09 8bbc
000002c0: ea3a 663d 674c bdbb 4fb6 d53c 2476 bf3a
000002d0: 6e29 2abb 9e3b 873d c3a5 7dbd 857f 5f3c
000002e0: a62f 203c 5d15 783c 8bbb 6c3d 14fd 89bc
000002f0: de76 cfbc 3e1d 94bd 6731 8bbd 1704 5b3d
00000300: a040 5d3d 82c1 423c 89b4 2c3b 1398 093c
00000310: 33e3 f2bc b757 ddbc e1b8 853d c1e8 88bd
00000320: 9edc 473d ce7e 553b 3ec0 393d 1ffa c0bc
00000330: e0c1 c33c bff1 053d 6b7b 95bd ae40 a0bd
00000340: a26f bc3c bdf5 2b3c 69c9 b9bc 6ecb 6f3c
00000350: 9b3f 633d 7f04 9e3d bde0 0ebd fc1f 1e3c
00000360: 6ca2 08bd 3d02 823d 7050 c33c 7bbf 96bb
00000370: e0a0 29bc 3654 723d d4f6 ae3b 00b8 943d
00000380: 173c 343d c0e7 b83c d56e 4dbc 141f a23d
00000390: 708c 503d 7ac5 9b3d 2ba9 dcbc 7e85 6bbd
000003a0: 0170 9dbd 30be 8d3c b00a b83d 9853 483c
000003b0: 7c46 8d3c 661c 1dbc b2ea 013c eff3 27bd
000003c0: d86e 203d ad61 02bd 24e5 ed3c 103e 7f3d
000003d0: 2c61 773b 3345 6cbd d8c5 cbbb 760d 003c
000003e0: 41e1 aabc ae40 18bd fd2d ac3d ac31 66bc
000003f0: 78de e8bb 1b6a 7c3d 2c7b 35bd e1f6 813c
-0.0023404942 0.06026138 0.002257401 -0.01649152 -0.013266995 0.030409219 -0.006630662 0.04396303
-0.05513725 0.027494917 -0.038729705 -0.073520094 0.050835505 -0.05860869 0.030814894 -0.037042186
-0.03523021 -0.0027853928 0.084392965 0.049161244 -0.011861109 -0.0887438 -0.101640016 -0.026710663
-0.030895524 -0.10239112 -0.076306425 0.012292117 -0.08160703 0.07114952 -0.005580954 -0.035731565
0.036312353 -0.01586022 0.01246364 0.05916074 0.053691037 0.061149057 0.042575836 -0.067605525
0.01780804 -0.06026053 0.018070797 -0.09177176 0.050171852 -0.09079874 0.055344094 0.066121064
0.06677699 -0.028751018 -0.053528517 -0.0657909 0.007081991 0.054487884 -0.04760916 -0.05209598
0.05211057 -0.007197602 0.0045024944 0.029454112 -0.015759345 0.045707557 0.022718202 -0.06668075
-0.03480676 0.07029842 -0.07751294 0.07582352 -0.029363118 -0.042007998 -0.069231294 0.06272206
-0.048463255 0.058390737 -0.050053366 -0.002134283 -0.043409903 0.072134286 0.04744928 0.03085656
0.04151779 -0.015738431 0.061869275 0.0115202805 0.014741031 0.023810837 -0.010603444 0.054611385
-0.08727708 0.0483108 0.08614247 0.04965577 0.009864287 -0.006662197 -0.005790356 -0.018431712
-0.0138281835 -0.0025400275 0.031217799 0.0416119 -0.040112685 0.03395871 0.008608267 0.06843052
-0.039272536 0.07587488 0.04513766 -0.034504063 0.04071238 0.044352677 0.0335569 0.058015972
0.014406831 0.051109184 0.06818242 -0.050239515 -0.07798827 -0.019192444 0.047794376 0.0058707343
-0.05349985 -0.09390338 -0.014385343 0.054170087 0.008788274 -0.0696493 -0.020546332 -0.028296074
0.023045974 0.038684815 -0.08174548 -0.0066057066 0.069926575 -0.016341463 -0.0113977315 0.097338796
-0.1024578 0.032718472 0.027266946 0.08370577 -0.015773537 0.0888569 0.079639636 -0.021188132
-0.04183233 -0.032563843 -0.018343396 -0.04502269 -0.04680657 -0.011696422 -0.07359169 -0.025532773
0.026537633 -0.10851876 -0.045222107 -0.074558176 0.009657111 -0.000978049 0.0026350068 0.07173645
-0.029303612 -0.049575288 -0.013316077 0.00455301 -0.03157027 0.043517116 -0.052761514 0.059642512
-0.050985705 -0.06792834 -0.019877786 0.0039637308 -0.04172888 -0.049388904 0.012113675 -0.016972532
0.05620853 -0.00577693 0.026087908 0.0014607352 -0.0025964635 0.06603168 -0.06192566 0.013641243
0.009776985 0.015141812 0.057796042 -0.01684431 -0.025325235 -0.0723214 -0.06796532 0.053470697
0.05401671 0.011886956 0.0026352725 0.008398074 -0.029649353 -0.027019365 0.065294035 -0.06685019
0.04879438 0.0032576802 0.045349352 -0.023556767 0.023896158 0.03270125 -0.07298931 -0.07824837
0.02300245 0.0104956 -0.022679048 0.014635904 0.05548058 0.07715701 -0.034882296 0.00965118
-0.033358023 0.06348083 0.023842067 -0.004600463 -0.010353297 0.05916234 0.005339483 0.07261658
0.04400262 0.022571445 -0.012538631 0.07916084 0.05091518 0.07606025 -0.026936134 -0.057500355
-0.07687379 0.017302603 0.089864135 0.012226962 0.017245524 -0.00958929 0.007929491 -0.041004118
0.03916821 -0.031831432 0.029039927 0.062315047 0.0037747128 -0.05768318 -0.006218653 0.007815709
-0.020859363 -0.03717106 0.08407209 -0.014049929 -0.0071065985 0.061624628 -0.04430692 0.015864791

mlp.mlp.0.bias f4 [64]
00000000: 73eb 7ab4 7eb0 9e33 7673 0cb3 317d 4932
00000010: 81c8 82b2 c32b 3234 3d0b 9fb4 318a dbb3
00000020: d5b1 cd34 50c1 3732 4881 48b4 080e ceb3
00000030: 4d34 f233 76cc f332 781c 4f32 916d 9534
00000040: d8ba d4b2 f599 fbb3 3b50 6f35 50d8 4c33
00000050: 3c35 c634 0b3e 3535 ab15 8231 9b76 b134
00000060: be54 11b2 a487 44b3 a72a a4b3 68f1 8eb4
00000070: facc b4b2 ea9f deb3 0a70 9035 bae1 28b4
00000080: 8ae6 cf33 14b8 b934 d9f0 cf30 6d51 4230
00000090: c328 a1b4 1c1b deb4 2c85 e232 f334 1533
000000a0: 4506 19b4 7337 6734 a122 3ab3 c59d 25b3
000000b0: e31a 96b3 a791 eab2 8c66 feb3 f618 06b2
000000c0: b3ce db34 e5f5 edb3 5bf7 9b32 2ca5 8033
000000d0: efa4 06b5 0260 4db5 d018 d8b3 9504 1ab2
000000e0: edb9 9c32 fed0 d3b3 0b0d 93b2 5ecb 42b5
000000f0: 4355 f9b3 b6d5 45b5 9c23 eb34 aed7 c332
-2.336872e-07 7.389552e-08 -3.27013e-08 1.1728205e-08 -1.522517e-08 1.6593462e-07 -2.9624235e-07 -1.0223119e-07
3.8313615e-07 1.0695956e-08 -1.8673484e-07 -9.595175e-08 1.12785166e-07 2.8381901e-08 1.2055459e-08 2.7833133e-07
-2.4765015e-08 -1.1716103e-07 8.915119e-07 4.7694186e-08 3.6919107e-07 6.751804e-07 3.7859613e-09 3.3055116e-07
-8.459379e-09 -4.575817e-08 -7.6446035e-08 -2.6625207e-07 -2.104797e-08 -1.0366769e-07 1.0761444e-06 -1.5728338e-07
9.6811235e-08 3.459287e-07 1.5129685e-09 7.06925e-10 -3.0018245e-07 -4.1370447e-07 2.6370422e-08 3.4739923e-08
-1.4251516e-07 2.1533724e-07 -4.3337995e-08 -3.8560547e-08 -6.98981e-08 -2.730742e-08 -1.184645e-07 -7.805502e-09
4.0942322e-07 -1.10809005e-07 1.815686e-08 5.990509e-08 -5.01589e-07 -7.650816e-07 -1.0062797e-07 -8.965022e-09
1.824534e-08 -9.8634686e-08 -1.7118984e-08 -7.256657e-07 -1.1610475e-07 -7.369921e-07 4.379807e-07 2.2799068e-08

mlp.mlp.1.weight f4 [64]
00000000: 6d04 773f 800e 7f3f 89c0 6f3f 1470 783f
00000010: 9935 7b3f 78d0 6c3f d0fc 693f 0455 723f
00000020: 426c 713f fa23 723f 052e 7f3f 0f9c 6e3f
00000030: be09 7a3f e702 7e3f a91b 803f 560f 833f
00000040: 5a19 783f 502e 803f ba10 7b3f 62af 703f
00000050: 528a 6b3f 91b4 863f 6819 6f3f 929e 753f
00000060: afa7 763f b66e 6a3f fd60 813f 4383 7b3f
00000070: a461 693f 1e2f 803f f5c5 783f c6f6 843f
00000080: ec51 753f a113 723f dbb4 6e3f 14f5 773f
00000090: 1b02 713f 8d97 673f 1bbb 663f 2d0d 753f
000000a0: 2ba1 863f 5b46 7b3f 8c0c 7d3f 3ac9 763f
000000b0: 4023 813f c75e 6b3f a5ca 783f 39d8 6d3f
000000c0: 6683 773f 471e 683f fca4 7f3f 9f74 7c3f
000000d0: a01a 6a3f 9ec2 7f3f 1369 6d3f 2be0 703f
000000e0: 3665 713f 433c 693f b1d3 723f c0fd 753f
000000f0: 94bf 7c3f 2d08 6e3f 9b9d 723f 5cea 793f
0.9649113 0.996315 0.9365316 0.9704602 0.9812866 0.925056 0.91401386 0.94660974
0.94305813 0.94586146 0.99679595 0.93206877 0.97671115 0.9922318 1.0008441 1.0239055
0.96913683 1.0014133 0.980724 0.9401761 0.92007935 1.0523854 0.9339814 0.95945084
0.96349615 0.9157518 1.0107723 0.98247164 0.9116461 1.0014379 0.9717706 1.0387809
0.9582813 0.945612 0.93244714 0.96858335 0.9414384 0.90465623 0.9012925 0.9572323
1.0517935 0.9815423 0.9884727 0.964008 1.0088882 0.91941494 0.9718421 0.92908055
0.96684873 0.906712 0.9986112 0.9861545 0.91446877 0.9990634 0.92738456 0.94092053
0.9429506 0.9110758 0.94854265 0.96090317 0.98729825 0.92981225 0.94771737 0.9762323

mlp.mlp.1.bias f4 [64]
00000000: c85c 163d ed13 0e3d a672 c2bc 9f73 3f3d
00000010: 086b 0d3d 92c7 b3bb 3221 3abd b535 e5bb
00000020: 1772 dfba 7822 ea3b 2af5 6b3c a789 a4bc
00000030: 2dd7 be3a 3565 7d3d 7413 233d c0ca 973d
00000040: 9eeb 5a3d 890d 583d 66ff 183d 1c90 80bc
00000050: 1509 1ebd b949 9a3d 277a d6bb 2de1 ec3b
00000060: be29 11bd 999d 06bd aab1 ac3d 3ed0 403d
00000070: d443 c3bc 28b2 973c b065 c03c beef 953d
00000080: fc3e d63b 4cd1 8dbc a887 38bd 045e b439
00000090: ebe4 0dbd 5018 20bd 503f bbbc 254c b4bc
000000a0: 4057 243d bbc5 2d3d 4453 b53c 03a1 ef3c
000000b0: 3fab 4f3d 03f8 7abc fbed 01bd 1b7c 20bc
000000c0: b23d 933c 977f 08bc d342 003c 01e8 743c
000000d0: 0746 d4bc e6c0 2d3c ae3e 99bc 73e5 e83c
000000e0: 5f0a 04bb 57fe 5fbd 373a 0239 7d94 923a
000000f0: 8d0d 4d3d eceb 21bc 8f07 e8bc 1271 01bd
0.036709577 0.03468697 -0.02373631 0.046741124 0.0345259 -0.005486437 -0.045441814 -0.006994928
-0.0017047551 0.0071452223 0.014401713 -0.020085169 0.0014559977 0.061864097 0.039813474 0.07411718
0.05344736 0.052747283 0.037352942 -0.015693717 -0.03858288 0.07533593 -0.0065453234 0.0072289915
-0.0354402 -0.03286514 0.08432324 0.047073595 -0.023836054 0.018517569 0.023485988 0.07321118
0.00653827 -0.017311715 -0.045051247 0.00034402322 -0.03464214 -0.039085686 -0.022857338 -0.022008965
0.04012227 0.0424249 0.02213443 0.029251581 0.050700422 -0.01531792 -0.031721096 -0.009795214
0.017973755 -0.008331201 0.007828432 0.014947892 -0.025912298 0.010605073 -0.018706646 0.028429722
-0.0020147783 -0.054685917 0.00012419453 0.0011183169 0.05006175 -0.009882908 -0.028323917 -0.031601973

mlp.mlp.1.running_mean f4 [64]
00000000: d8bb f7bd 2fa0 02bc bf05 97bc 8f27 c83b
00000010: 5acf bf3a 3a25 bebd 9182 0cbe 5735 9cbc
00000020: 845c fabd 315a cc3c 2d90 203e a7f0 503c
00000030: 6474 1c3d 04de 9f3b 69f1 00bb e951 883d
00000040: 170f ca3d eeb6 12bd 9a6f 133e ca8b ed3c
00000050: 61fa 9ebd 6cc1 033e af4c 1dbc 8247 b1bd
00000060: b7b5 23be bad2 35bd cd37 823c d0bf 233d
00000070: 2924 b63c 08ab f2bc fa88 26be 7de5 9c3d
00000080: fb58 0ebd df6d 60bd 8949 aebb 7304 703b
00000090: da94 a33d 7bf3 8cbd 74c9 e73c 43a0 83ba
000000a0: 4768 e6bc 4157 a9bd 54ad b0ba e822 75bc
000000b0: 2c43 5f3d fb2d 5f3c fa5b 5f3c 4ba6 8a3c
000000c0: 3b36 e4bd 75c1 f63d 3dda 89bd f2a6 6fbd
000000d0: 891c d9bd 7db3 bd3d f9f3 4cbd 6c21 bfbc
000000e0: 78c3 05bc e7c5 99bd 71be 923d 00a4 02be
000000f0: ad4e 833d ba88 f8bd 9084 ef3d c5c7 66bb
-0.12096375 -0.007972761 -0.018435357 0.0061082314 0.0014633939 -0.09284444 -0.13721682 -0.019068403
-0.12224677 0.02494535 0.15679999 0.0127526885 0.038196936 0.0048787612 -0.0019675142 0.06656248
0.098661594 -0.035818987 0.14398041 0.02899732 -0.077626 0.12866753 -0.009600802 -0.08656217
-0.15987287 -0.044390418 0.015895749 0.03997785 0.02223404 -0.02962257 -0.1626319 0.07660959
-0.034752827 -0.05479228 -0.0053188247 0.0036623746 0.079873756 -0.06882378 0.028294303 -0.0010042269
-0.028125895 -0.082685955 -0.001347939 -0.014961936 0.05450742 0.013621802 0.013632769 0.016924998
-0.11143156 0.12048618 -0.06731079 -0.05850882 -0.10601146 0.0926275 -0.050037358 -0.023331366
-0.008164279 -0.0750845 0.0716523 -0.12757874 0.064114906 -0.121354535 0.11695206 -0.0035214287

mlp.mlp.1.running_var f4 [64]
00000000: f39d 063c 1e10 4e3b 33e5 103c 5e99 e33b
00000010: 95ec 903b f6de 0a3c 5b2e ca3b 963c e53b
00000020: df8e 193c c124 fc3b 3f8d 093c 9b16 983b
00000030: a60a 8c3b 0f63 ef3b 6bf3 393c 7a1b e13b
00000040: 5045 f33b 3c30 bf3b 43cb b43b 6be4 083c
00000050: f0ba 8a3b 165e c73b 9d33 033c 452a f63b
00000060: c0c9 863b af0f 5a3c 89a8 db3b 87cd b93b
00000070: 8a55 033c 3b7d de3b f6ee 723b 0248 ec3b
00000080: c50d 9e3b d7ab a63b 6792 bb3b 833e 383c
00000090: ef92 cc3b b8e5 a63b e0a9 8f3b 0e8f 0c3c
000000a0: f8ce 833b bf65 763b c3d1 f13b 08a5 233c
000000b0: 61b5 c83b 3e7b ba3b de2c 833b 4ed4 923b
000000c0: b785 9c3b 2b3b 403c 06c7 eb3b ae5d 093c
000000d0: 54cd 843b 7b30 4c3b e7cb d13b f9d3 8d3c
000000e0: 6c28 ce3b 55c4 c93b 0242 a23b fd0e 4a3b
000000f0: 396c 2e3c 8c85 8d3b 5597 b73b c8de 2c3c
0.008216369 0.0031442712 0.008843708 0.006945773 0.004422734 0.00847601 0.006170077 0.006995748
0.009372442 0.007694811 0.008395492 0.0046413667 0.0042737303 0.00730551 0.011349539 0.0068697305
0.007424034 0.0058346074 0.0055173947 0.00835524 0.0042337105 0.006084214 0.008007911 0.007512363
0.004113406 0.013309403 0.0067034406 0.0056702527 0.008016 0.006789831 0.0037068701 0.0072107324
0.004823419 0.005086403 0.0057242396 0.011245373 0.006243102 0.0050933026 0.0043842643 0.008579029
0.0040224753 0.0037597266 0.007379742 0.009988077 0.0061251377 0.005690961 0.0040031513 0.004480875
0.0047766822 0.011732857 0.0071953563 0.008384151 0.0040527973 0.0031156826 0.006402481 0.01731299
0.0062914398 0.006157438 0.0049517164 0.0030831688 0.0106459195 0.0043188985 0.005602757 0.010551162

mlp.mlp.4.weight f4 [64, 64]
00000000: ac2b 7e3d 6e8d 173d ab1a 38bd 0253 22be
00000010: ee8d 0bbd 213a f43c 183f 283d ef16 b23c
00000020: 239f 29bc 274b a9bc 642e a83d 2f68 db3d
00000030: 0d5d bc3d 2c23 62bd 29db 88bd f578 e93c
00000040: 4f7e 9bbd 6034 9a3d e991 15be fe85 91bd
00000050: e9d5 953c 7b4a 4fbd 50cc 653d eed8 683d
00000060: 6cc1 703d fc01 14bc 32a7 8abd b49e 7dbd
00000070: 30c6 b0bc b067 23be a445 62bd bc22 a8bd
00000080: 57cd 253d 869b 023e bc50 823d f1f9 2f3d
00000090: ccdf b93d 0db8 44bd 2bcf 0cbd 2b14 e7bd
000000a0: 8335 bbbd e7bb c4bd 9d63 d4bd 31f8 75bd
000000b0: 3058 6d3d d8d9 913d 0837 1abd e888 c5bd
000000c0: 858e 953d 39bf 3f3d 71e3 513d 81af 04be
000000d0: f504 01ba 2c3f 7cbd 00c8 41bd 5b1f 023d
000000e0: 4685 3c3d d553 903d 4189 c2bd 09cb 223c
000000f0: 8f8c 103e ab4a 423c 8c6b 753d 2bd0 d53c
00000100: 5ca9 bdbd 4e4e 38bd 99c9 4abd f368 863c
00000110: 86a5 91bd 5d68 563d 29c3 98bc f114 ac3d
00000120: 2564 15be f751 c63c 1fee 6cbd ea3c c43c
00000130: f96f 15bd e64c 03be abcc d4bd 7c4a bf3d
00000140: e296 08bd 8038 eabd 4d5f 9e3c 04dc 74bd
00000150: b6f4 693d 59d7 523d 3e92 02be 1eda 9e3d
00000160: 6516 f1bc c032 893c 3de8 f8bb 3bf5 723c
00000170: 9c10 053d 5d51 9a3d 01e6 70bd ec5c 473d
00000180: c80d 8cbd 6152 7e3c d0f0 fdbc 5f69 bfbd
00000190: 6e5b 403d 1895 89bd 5798 94bd 3903 123d
000001a0: 56ab 4ebc 1557 16bd cd32 313d 28ad 033d
000001b0: 4b25 13bc 5794 91bd fb9b 1dbd 306b 8cbd
000001c0: 7243 a63d 7db3 96bc 67a6 11bd afae be3d
000001d0: f4b6 a5bc 5c0d b8bd ad86 083d 7572 aabd
000001e0: b803 57bc 4f80 8eba 3e1a d93d be71 5ebd
000001f0: 1e31 aebd d4b7 fe3c b733 913b 2d0d ad3d
00000200: a42d 21bc db1c 1cbd 050f 743d acdb 44bd
00000210: d9f9 86bd ebbd cabc 0f0e 923d 2678 003e
00000220: 9474 2fbc 54e7 0fbe 5e77 5b3d d2fa a43d
00000230: f0c4 bb3d e9e1 ce3d 486a 69bd a921 ca3c
00000240: 6613 5a3d f68a 393d ad68 32be bd49 05bd
00000250: d322 0f3d 4443 3cbe cd71 c03d 490e 16bc
00000260: 0dd5 82bc a4f7 bbbd fa1f 16be b213 083d
00000270: ddb5 c2bc 8cb2 eabd d4d7 0c3d ce70 71bd
00000280: bf8a c63d 90ea 3cbd 6247 413d f59f f93d
00000290: 728a d9bc d890 c2bc 81ce a9bd 8afe ab3c
000002a0: dcd9 aabc 5eef d2bd c304 01bc 7a1c cabd
000002b0: 1248 c0bd 18ff 8cbd b274 adbc bcea b9bd
000002c0: 79ef 11bd 58c4 c7bd d46f 7a3d 4a3c b13c
000002d0: 8f20 133e b1bc 41bd c153 913c 698b 79bd
000002e0: 6f12 b13d 9f62 673d abd5 59bd fcaa 6d3d
000002f0: d9e1 06bd 6d3c 7a3d cc44 e6bc a40e c2bb
00000300: a6f6 a7bd e1b7 d9bc 272a 8bbd 0af2 aa3d
00000310: 0b1f 943d 3cfe 8cbc e360 bc3a 1c33 6bbd
00000320: fe19 8fbd c6d1 33bc 3634 02bc 87d1 a13c
00000330: cddd 993d 8f6f 03be 4424 d1bd 4dba 86bc
00000340: ca69 7ebd 1ace d63c 4282 c13d 27cb 7d3d
00000350: db90 af3d 518c f53d 1f88 023d f574 99bc
00000360: bb1e 903d c34a e0bd a476 043e 4eb0 7ebd
00000370: abf1 d13b e4f2 91bd 952e 52bd 6165 dd3d
00000380: 1457 a33d b3e0 b63d 9e5a 573d c85a 06be
00000390: 11f5 723c 50eb b1bd 1ff4 30bd e856 f7bc
000003a0: aa71 f43d 7929 d83d 187c 3bbd 78c9 95bd
000003b0: 5349 c6bd 2275 ca3c 07e0 a83d e8ca b1bc
000003c0: 48ae b7bd b3e4 873b b3bf 03bd d24b d83c
000003d0: 1107 99bd 9f74 2dbd 3e48 d33d 836d 03bd
000003e0: f2fb bfbd 6604 2fbd b10a 97bd 556e 063d
000003f0: 3351 e9bb 1d99 9b3c ca0f 8abd 0209 813c
0.062053367 0.037000112 -0.044947308 -0.15851977 -0.0340709 0.029812874 0.041075796 0.021739451
-0.010352883 -0.020665718 0.08211973 0.10713231 0.091974355 -0.055209324 -0.066824265 0.02850006
-0.07592451 0.07529521 -0.14606442 -0.07105635 0.018290477 -0.05060814 0.05610305 0.056847505
0.05877821 -0.009033676 -0.06770171 -0.06191893 -0.021578878 -0.15957522 -0.055242196 -0.0820975
0.04047903 0.1275464 0.06363055 0.042962972 0.09075889 -0.048027087 -0.03437726 -0.112831436
-0.09141066 -0.09606152 -0.10370562 -0.060051147 0.05794543 0.071216285 -0.03765014 -0.096452534
0.07302574 0.046813224 0.051242296 -0.12957574 -0.0004921698 -0.061583683 -0.047309875 0.031768184
0.046025537 0.0704724 -0.09498835 0.009936103 0.14116119 0.011858623 0.059917018 0.026100239
-0.09260818 -0.044996552 -0.049508665 0.016407466 -0.07111649 0.052345622 -0.018647747 0.08402432
-0.14588983 0.024209006 -0.057844277 0.023954827 -0.03648374 -0.12822303 -0.103906 0.09340379
-0.033347018 -0.11436558 0.019332552 -0.059780136 0.05711814 0.051474903 -0.127511 0.07756446
-0.029429624 0.016747832 -0.0075960443 0.014828975 0.032486543 0.0753505 -0.0588131 0.0486726
-0.06838566 0.01552257 -0.030998617 -0.0934627 0.046962194 -0.067178905 -0.07255619 0.035647605
-0.012614092 -0.03670414 0.043261338 0.032147557 -0.008981059 -0.07108372 -0.038478833 -0.06856382
0.08118333 -0.018396134 -0.035559084 0.09310662 -0.02022884 -0.08986923 0.03333156 -0.08322612
-0.013123445 -0.0010871979 0.106007084 -0.05430769 -0.08505462 0.031093515 0.0044312137 0.08449779
-0.009837542 -0.038113456 0.059584636 -0.048061058 -0.065906234 -0.024748763 0.07131588 0.12545833
-0.010708947 -0.14053088 0.053580634 0.08055653 0.09168422 0.10101683 -0.056986123 0.024674254
0.053241156 0.04529854 -0.17422743 -0.032541025 0.03494532 -0.18385035 0.09396706 -0.009158679
-0.015970731 -0.09178093 -0.14660636 0.033221908 -0.02376836 -0.11459836 0.034385517 -0.05894547
0.096944325 -0.046122134 0.047187217 0.121887125 -0.026555274 -0.023750708 -0.082913406 0.020995397
-0.020855837 -0.10299562 -0.00787467 -0.09868713 -0.09388746 -0.06884593 -0.021173809 -0.09077975
-0.03562877 -0.097542465 0.061141804 0.021635193 0.14367889 -0.04729909 0.017740132 -0.060923968
0.08646094 0.056490537 -0.053182285 0.05802439 -0.03293023 0.061092783 -0.028108977 -0.0059221555
-0.08201341 -0.026576938 -0.06795149 0.083469465 0.072324835 -0.017211072 0.0014372136 -0.05742179
-0.069873795 -0.010975307 -0.007947018 0.01975323 0.07513008 -0.12835525 -0.10211995 -0.016446257
-0.062112607 0.026221324 0.09448673 0.06196132 0.08572551 0.11989654 0.031868096 -0.018732527
0.07037111 -0.1095176 0.12935883 -0.062179856 0.006406983 -0.07126406 -0.051313955 0.10810352
0.07975593 0.08929577 0.052576654 -0.13120568 0.014828936 -0.086874604 -0.043201562 -0.030192807
0.11935742 0.10554785 -0.045772642 -0.07313818 -0.09681954 0.024714056 0.08245855 -0.021703199
-0.089687884 0.004147136 -0.03216524 0.026403341 -0.07472051 -0.042347547 0.103165135 -0.03208686
-0.09374227 -0.042728804 -0.07375086 0.032820065 -0.0071202754 0.018993909 -0.06741293 0.015751366

mlp.mlp.4.bias f4 [64]
00000000: 6e17 83b3 8da5 9934 1a15 1435 c5e4 a7b1
00000010: cbeb 8233 1d0e 52b1 cf64 fa33 21fe bcb4
00000020: 1786 7b34 8f1c af34 096e 0331 49de 05b4
00000030: bdac 9db4 db1e bd32 5788 50b2 2682 e232
00000040: b51f e632 13e9 81b1 ce38 d6b2 feb4 c52e
00000050: 64d6 6633 0021 1133 7393 e62e ecb3 9531
00000060: 9823 8c33 1bf3 f732 8b0f 3b34 1b24 a1b1
00000070: 57d2 8bb3 a370 7a34 4120 bab3 3547 7833
00000080: 4406 e132 0e28 4334 9019 e7b2 8df3 f534
00000090: 9f44 dbb3 d1c7 1ab3 5e3f 62b3 0722 d833
000000a0: 9239 cfb4 963c 9bb1 efe5 82b2 2549 fcb1
000000b0: 0445 1833 5503 0434 7f0e 83b3 4711 c433
000000c0: 7875 2ab4 0ff3 8233 3945 5733 9d70 ceb2
000000d0: d78d 2332 6af7 2833 26a9 86b1 d02b e4b2
000000e0: 8862 c0b1 58fd 1a32 e8da 4eb3 3d9a a834
000000f0: 01ee 9334 199c 65b3 ba85 d5b2 53ac 8eb4
-6.104425e-08 2.8618925e-07 5.5165003e-07 -4.8863478e-09 6.096487e-08 -3.0567044e-09 1.1659869e-07 -3.5202632e-07
2.3424978e-07 3.261707e-07 1.9125557e-09 -1.2467457e-07 -2.9369212e-07 2.2016527e-08 -1.2138194e-08 2.6369047e-08
2.6789943e-08 -3.7808916e-09 -2.493871e-08 8.9906735e-11 5.3746035e-08 3.3790457e-08 1.0485381e-10 4.3569255e-09
6.5257325e-08 2.8865136e-08 1.7421387e-07 -4.6898214e-09 -6.5109525e-08 2.3324041e-07 -8.667167e-08 5.7806762e-08
2.6196297e-08 1.8175362e-07 -2.6903564e-08 4.5812013e-07 -1.0210464e-07 -3.603765e-08 -5.2677358e-08 1.0064473e-07
-3.8598643e-07 -4.5179815e-09 -1.5238554e-08 -7.342481e-09 3.5453027e-08 1.229467e-07 -6.1028e-08 9.130104e-08
-1.5875219e-07 6.097809e-08 5.0121546e-08 -2.4032767e-08 9.520099e-09 3.934057e-08 -3.9191432e-09 -2.6562617e-08
-5.599137e-09 9.0215835e-09 -4.8162207e-08 3.1404662e-07 2.7554054e-07 -5.3460187e-08 -2.4857275e-08 -2.6574943e-07

mlp.mlp.5.weight f4 [64]
00000000: 50de 8d3f 7edf 8a3f 95b2 8a3f 4575 773f
00000010: b993 743f ae44 703f 7c27 7d3f 332b 8e3f
00000020: 1cd7 8b3f 36db 8a3f fdce 713f d198 7b3f
00000030: fedc 8a3f f0e1 8a3f 13b5 8a3f 3aa0 893f
00000040: 6cdd 8c3f 4a22 733f d299 6f3f de9f 713f
00000050: af1b 8b3f b04f 8c3f 6b20 723f a725 713f
00000060: 9c7f 8c3f fb64 8c3f b674 8a3f 115a 713f
00000070: 3b03 703f c3b5 8b3f 98e3 8b3f aa4a 703f
00000080: 8030 8a3f d23b 8c3f a523 8f3f 9ebb 8c3f
00000090: 45a5 8a3f 7551 8b3f a48d 803f 0b23 8b3f
000000a0: 9fac 813f d5d6 8b3f 3e7c 6f3f c758 8a3f
000000b0: e8ce 803f 2722 8b3f fe2b 8e3f 61b1 8b3f
000000c0: b006 8b3f 2eff 8a3f 6b5d 8a3f 2aa3 8a3f
000000d0: a800 793f 25fa 733f 7077 8a3f aff9 6e3f
000000e0: 6088 743f 53ac 8c3f e287 703f 3c38 873f
000000f0: 0036 7c3f 2fd2 8b3f 4530 813f 14a1 8d3f
1.1083469 1.0849454 1.0835749 0.96663314 0.95537907 0.93854797 0.98888373 1.1106933
1.0925021 1.0848148 0.94456464 0.98280054 1.0848691 1.0850201 1.083651 1.0752022
1.1005073 0.94974196 0.93594086 0.9438456 1.0867823 1.0961819 0.94580716 0.9419808
1.0976443 1.0968317 1.0816867 0.94278055 0.9375493 1.0914844 1.0928831 0.9386393
1.0796051 1.0955756 1.1182753 1.0994756 1.0831686 1.0884234 1.0043225 1.0870069
1.0130805 1.0924937 0.93548954 1.0808343 1.0063143 1.0869797 1.1107175 1.0913507
1.0861416 1.0859125 1.0809759 1.0831044 0.97266626 0.95303565 1.08177 0.93349737
0.9552059 1.0990089 0.9395734 1.0564036 0.985199 1.0923518 1.0092856 1.1064782

mlp.mlp.5.bias f4 [64]
00000000: 3195 ea3d ce41 b43d b0ea b53d 315a cdbc
00000010: e079 1fbd 9c4d 6bbd 71c4 1a3b 5182 f93d
00000020: 79c9 c53d 14b2 ba3d 930f 53bd 9dde 1bbc
00000030: 157e b93d a4a2 aa3d 6cce b73d 85c5 b43d
00000040: b879 e73d 2966 37bd 3a12 7abd d35b 4dbd
00000050: a2a6 b23d 3862 c93d 0aac 49bd 8619 69bd
00000060: e2db d73d f129 cb3d 6a24 b03d 58a3 65bd
00000070: fe71 72bd ec86 c03d 7970 c03d a7aa 6bbd
00000080: 7708 af3d 0f24 d43d 9b59 043e 1a36 dd3d
00000090: 2bb3 b33d 02fa c43d c1c4 963c 1904 bf3d
000000a0: a32e f43c 2337 c83d 5c4d 78bd 2f89 af3d
000000b0: 1d76 8f3c 89ce b33d 0876 fb3d 753d c03d
000000c0: 4d0a b63d c2e3 b83d 31e9 b03d 0721 b43d
000000d0: 0853 8fbc adc5 28bd ef31 b13d 9dcc 78bd
000000e0: df4c 24bd d71f d43d 19de 73bd 45a2 933d
000000f0: d42f a7bb 7dfe c83d dd00 b23c 89b2 e83d
0.11454237 0.08801614 0.08882654 -0.02506742 -0.03893459 -0.05744706 0.0023615623 0.12183059
0.096575685 0.09115997 -0.051528525 -0.009513524 0.09057251 0.083318025 0.08974919 0.08826736
0.11302513 -0.044775162 -0.06105254 -0.0501364 0.08723189 0.09833187 -0.049236335 -0.056909107
0.10539986 0.09920109 0.086006954 -0.05606398 -0.059190743 0.09400734 0.093964525 -0.057535794
0.085465364 0.1035844 0.12924807 0.10801335 0.08774408 0.09617998 0.018404366 0.093269534
0.029807394 0.097761415 -0.06062065 0.085710876 0.017512375 0.08779628 0.12278372 0.09386722
0.088886835 0.09027816 0.08638228 0.08795362 -0.017495647 -0.041204143 0.08652102 -0.06074201
-0.040112372 0.103576355 -0.05953798 0.07208685 -0.005102137 0.09814165 0.021728927 0.11362178

mlp.mlp.5.running_mean f4 [64]
00000000: 3eb4 47be 50a4 b2be 4000 91be 30c1 c5bd
00000010: c8c0 54be 7d3d c6bc fe51 163e 08d8 a3be
00000020: 2631 a4be d300 d9be 7d16 853d 89c2 6dbe
00000030: 4b3a 96be cc3e 293d 472a a2be 31c8 55be
00000040: aa2e 14bf 5949 0d3e 6dd1 3dbe d76d 0ebe
00000050: 6582 05be a284 cb3d b090 8dbe 9589 9fbd
00000060: 5549 32be 4dd7 a7be fa0a 8bbe 82d9 00be
00000070: 99de 243e e553 bebe 15db 07bf 4a1a febe
00000080: fb74 1d3e e0ea 9fbe 91b9 883d 670a cbbe
00000090: b841 59be 886d 1dbe fea5 4cbe 7d72 373e
000000a0: ff27 88be 8af3 5dbe 0e5e fcbc 13d8 11be
000000b0: 1120 b63d 0127 1cbe e9c0 b33d 67c6 aabe
000000c0: 8035 86be 0a95 18be 5a59 74be 70f6 bfbe
000000d0: 7b20 4a3e 1429 a2be e78f 1dbf 14c9 293e
000000e0: 6a37 143d db36 33be 3dea 263e 6470 3bbe
000000f0: f46a e3be 6d33 18bf 8044 89be 7de9 dfbe
-0.1950235 -0.34890985 -0.28320503 -0.09655988 -0.20776665 -0.024199242 0.14679715 -0.32000756
-0.32068747 -0.4238344 0.0649843 -0.2321874 -0.2934135 0.041319653 -0.3167288 -0.20877148
-0.57883704 0.13797511 -0.18536921 -0.13909088 -0.13038023 0.09937407 -0.2764945 -0.077899136
-0.17410786 -0.3278145 -0.27156812 -0.12582973 0.1610054 -0.3717338 -0.5306867 -0.49629432
0.15376656 -0.31233883 0.06676019 -0.39656374 -0.21216476 -0.15373814 -0.19985196 0.17914768
-0.26593015 -0.21674934 -0.030806568 -0.14242582 0.08892835 -0.15249254 0.08777029 -0.33354494
-0.26212692 -0.14900604 -0.2386221 -0.37492704 0.19738953 -0.31671965 -0.615477 0.16580611
0.03618566 -0.17501394 0.16300292 -0.18304592 -0.44417536 -0.5945347 -0.26810074 -0.43732825

mlp.mlp.5.running_var f4 [64]
00000000: 44ce e03e 27b3 d93e ada7 ee3e 09c8 563e
00000010: 2265 083e 36f6 383e ef40 da3d 2b2b 223e
00000020: 93d4 c53e ea8c d73e 7886 403e b1ff 0d3e
00000030: 1f4e 8d3e eb7a 303f 4e30 f43e 0f4b d43e
00000040: d2f2 f23e 8270 943e 347e 333e 9f29 443e
00000050: a64e 483f 34f7 3f3f 5373 243e dfc5 963e
00000060: f438 bc3e 097f 183f b325 fc3e c8a7 a13e
00000070: 007c 5a3e 230e 0b3f 0000 0a3f fd65 6e3e
00000080: 9810 da3e b142 7f3e eb3d 293f cd70 3f3e
00000090: 755e 3a3f 19f7 e43e 082e d53d 45b2 5b3e
000000a0: ab25 c53d d46e 023f 7273 513e 40f5 6c3e
000000b0: 7a9e 9a3e 22db 873f 2530 343e 953f 2e3f
000000c0: 6883 e03e 11a8 713e 2052 193f 985b 063f
000000d0: ae53 8c3e c88a 3c3e 5e01 aa3e 7768 253e
000000e0: 11a0 8d3e bb58 f63e ff78 7b3e 51bf 2b3e
000000f0: 32b8 c33d 29c5 d03e 9f2f f93d 6076 b53e
0.43907368 0.42519495 0.466123 0.20974745 0.13319829 0.18062672 0.10656916 0.1583678
0.38638744 0.42099696 0.18801296 0.1386707 0.27598664 0.6893756 0.47693104 0.41463515
0.47450882 0.28992087 0.17528611 0.19156502 0.7824501 0.7498658 0.16059618 0.2944784
0.36762202 0.5956884 0.49247512 0.3157332 0.21336365 0.54318446 0.5390625 0.23281093
0.42590785 0.24927785 0.66110104 0.18695374 0.7280038 0.4471977 0.104091704 0.21454723
0.09626325 0.5095036 0.20454195 0.2314043 0.30199033 1.0613749 0.1759649 0.6806577
0.43850255 0.23599268 0.5989094 0.5248351 0.27407593 0.18412316 0.33204168 0.16153131
0.27661183 0.4811457 0.24557875 0.167722 0.09556617 0.4077542 0.12167286 0.35441875

mlp.mlp.8.weight f4 [1, 64]
00000000: e025 bc3d 937f 423e f113 2c3e fc21 ea3c
00000010: 3657 913c a04c 85bc b347 203d 0055 b63d
00000020: 8720 0f3e deec 213e c54f a2bb 72dc 213d
00000030: 8dd7 323e 3f7c 443e 216d 313e 3a58 823d
00000040: f80c 963d a845 033c e59f 29bd 4185 7639
00000050: 0aaa 443e 2686 d83d ef43 033b 3a69 9cbc
00000060: 2357 dc3d 5d81 dc3d 6dcb 3f3e 4b8d a6bc
00000070: da3f 18bd 47de 0d3e d270 ff3d c0b5 b2bc
00000080: bed6 493e 405a dd3d c134 ad3d 5a39 d33d
00000090: bfca 223e 27a0 0b3e 05a4 373d 876d 063e
000000a0: 223e 403d f8e4 f83d 76d6 2ebd 212d 4b3e
000000b0: bd7b 3a3d 74e0 103e a5b2 b03d 4db3 fd3d
000000c0: f888 2a3e 6820 283e 06e5 2d3e 33ec 3a3e
000000d0: 0962 013d 90e7 623c cafb 3f3e a1ba 28bd
000000e0: 375f 673c 9a33 e33d e75e 21bd 7096 703d
000000f0: b3e2 1c3d 26ae 083e ebac 3d3d 5204 c03d
0.091869116 0.18993978 0.16804482 0.028580658 0.01774178 -0.01627189 0.039130878 0.08902931
0.13977252 0.15813014 -0.004953357 0.039516874 0.17465039 0.19188021 0.17326786 0.06364484
0.07326692 0.008012213 -0.041412253 0.00023510029 0.1920549 0.10572462 0.0020029505 -0.019093145
0.107588075 0.107668616 0.18729945 -0.020331046 -0.03717027 0.13854323 0.12472691 -0.02181518
0.19710824 0.108082294 0.08457328 0.10313673 0.15897654 0.13635312 0.044834156 0.13127719
0.046934254 0.12153047 -0.042684995 0.19841434 0.045528162 0.14148122 0.08627824 0.123877145
0.16653812 0.16418612 0.16981897 0.18254165 0.031587634 0.013849154 0.18748394 -0.04119361
0.014121822 0.110938266 -0.039397147 0.05873722 0.038302135 0.13347682 0.046307486 0.09375824
