model/dfm_epoch_180.pt (torch, 79687 bytes, 15 tensors)

embedding.embedding.weight f4 [98, 32]
00000000: aba2 9d3d 12ae 32bd 3b34 373c b076 88bc
00000010: 700b 753d 1cfb f4bd 7ce0 36bd b2a3 613c
00000020: f9f1 cdbb 8152 72bd 7c94 02bd 530e e43d
00000030: edf6 903d 441d bf3c fe1c 5dbd 4cfa 34bc
00000040: 5e08 9cbd 42a5 133d fc40 253c b167 9b3d
00000050: 21a4 853d 8599 80bd 99f7 a63c a436 d3bd
00000060: 677e 3ebd 3222 193d 6cf6 e0bc 6a5e bcbd
00000070: 8149 873d 8f63 1f3d c8eb af3d 7e08 a83d
00000080: b33b aa3d f176 41bd ff5a 473c ac54 94bc
00000090: a076 843d 0f14 04be a9fc 45bd bb67 753c
000000a0: c85c e0bb 9dff 82bd 0c96 0dbd 10f4 f53d
000000b0: 549b 9c3d 5b7d cf3c bd2a 6fbd a9ef 44bc
000000c0: 8b82 a8bd ca00 203d 1bdf 333c cdd5 a73d
000000d0: 356d 903d a600 8bbd 515d b53c 7dd7 e3bd
000000e0: a231 4ebd 27ec 253d 6614 f4bc 5847 cbbd
000000f0: 8532 923d f8aa 2c3d 2be5 bd3d 076a b53d
00000100: 3a10 cf3d 942d 6bbd afee 713c a114 b4bc
00000110: 2a16 a13d cba5 20be 0baf 70bd 48ef 943c
00000120: 7214 08bc da4d 9fbd ff09 2cbd cc95 153e
00000130: 267a be3d 3502 fc3c 5e68 91bd f3fe 6ebc
00000140: 3ef7 ccbd 5a73 423d 2342 5a3c ee24 cc3d
00000150: aaa6 af3d 590c a9bd 5b3d dc3c 2893 0abe
00000160: 6bac 7abd b9a7 493d da41 14bd 1e46 f7bd
00000170: 6ece b13d 8edd 513d 83fd e63d 8fab dc3d
00000180: 9314 d03c 93e2 6abc 3595 6f3b 8ba2 b2bb
00000190: 7068 a13c 6656 22bd a96f 70bc 309c 933b
000001a0: 4f8a 06bb e999 9fbc db5b 2bbc f904 173d
000001b0: f138 bf3c 0375 fa3b 3489 91bc 28aa 6cbb
000001c0: 7df2 cdbc 49e0 413c fb11 583b aa1c cd3c
000001d0: f72b b03c b679 a9bc 60b4 da3b f9c3 0bbd
000001e0: e583 7abc 411f 493c a881 13bc 1e09 f9bc
000001f0: d15b b23c 4e62 513c fa6f e83c 42ed dd3c
00000200: 8fa9 173d 980f acbc bb26 b13b d4d0 03bc
00000210: 9ccc eb3c f3f8 6bbd 3a17 b0bc 8e12 da3b
00000220: 2d5e 47bb f12e e9bc bfbb 7bbc 0298 5b3d
00000230: e278 0b3d e168 383c 28cf d4bc c200 afbb
00000240: b81e 16bd 4a42 8e3c 6ed5 9f3b 1f84 153d
00000250: b895 003d 827a f7bc 3d2e 213c ca50 4bbd
00000260: a567 b7bc 8587 933c b4f3 58bc c244 35bd
00000270: c92a 023d 4489 993c 3945 293d 27ac 213d
00000280: b3ea d93b 973f 77bb 7506 7e3a 3c21 bdba
00000290: c771 a93b 7a41 29bc 7a0b 7dbb 2966 9c3a
000002a0: 4ad9 0eba a290 a7bb d8ca 34bb be91 1d3c
000002b0: 016d c83b 205f 043b 58ec 98bb c5f0 7aba
000002c0: 59b4 d7bb 2960 4c3b c129 653a 93d6 d63b
000002d0: 54cb b83b 95d5 b1bb 4457 e73a f2f0 11bc
000002e0: 4dc8 83bb 44f5 533b 48c6 1bbb e12b 02bc
000002f0: 0811 bb3b 8a99 5c3b b128 f33b 3245 e83b
00000300: 12e5 803d fdc0 12bd 3f6f 173c 0a50 61bc
00000310: e4c8 483d c98b c7bd 152d 16bd 3166 3a3c
00000320: a371 aabb 5192 46bd 2dee d6bc 70e0 b93d
00000330: 063c 6d3d fe8b 9d3c 3c52 35bd 4a99 15bc
00000340: e530 7fbd 26d6 f23c dba2 083c 452c 7e3d
00000350: 4bda 5a3d 5ba9 52bd e6b9 893c f443 acbd
00000360: c762 1cbd 20ce fb3c e34b b9bc 9ec9 99bd
00000370: a486 5d3d ce02 033d ffb5 8f3d 4c52 893d
00000380: 8fdd 703d c372 08bd 01cd 0b3c c34b 50bc
00000390: ff2c 3b3d 8e38 bbbd f1a7 0bbd f431 2c3c
000003a0: 6923 9dbb 3318 39bd 0063 c7bc 5847 ae3d
000003b0: ad7d 5d3d 88e1 913c 8ce1 28bd c219 0abc
000003c0: 366a 6ebd 2877 e13c c933 fc3b 8f74 6d3d
000003d0: 142d 4c3d c377 44bd 48e1 7e3c 5766 a1bd
000003e0: 317a 11bd fad9 e93c 0ebc abbc 86ee 8fbd
000003f0: 63b1 4e3d 3e69 f33c f469 863d 0862 803d
0.07697042 -0.043623038 0.011181886 -0.016658157 0.05982536 -0.11961958 -0.04464768 0.013771938
-0.006284949 -0.059160713 -0.031879887 0.11135545 0.07078347 0.023329385 -0.053982727 -0.011046004
-0.076187834 0.036046274 0.010086294 0.07588137 0.06525446 -0.062792815 0.020381736 -0.10313156
-0.046507265 0.037386127 -0.027461253 -0.091976956 0.06605817 0.038913306 0.085898936 0.08204745
0.08312168 -0.047232572 0.012167691 -0.018106781 0.064679384 -0.12898277 -0.04833666 0.014978345
-0.006846998 -0.063964106 -0.034566924 0.12009442 0.07646814 0.025328329 -0.058390368 -0.01202003
-0.08228024 0.039063253 0.010978485 0.08195076 0.070520796 -0.06787233 0.022139223 -0.111250855
-0.050340302 0.040508416 -0.029794883 -0.09925717 0.07138542 0.042155236 0.09272226 0.08858114
0.10110517 -0.057416514 0.014766379 -0.021982493 0.078655556 -0.15688245 -0.058760684 0.018180504
-0.008305656 -0.07778521 -0.04200172 0.14607924 0.09300642 0.030762771 -0.070999846 -0.014587152
-0.10008095 0.04747329 0.013321432 0.09967981 0.085767105 -0.08254308 0.026884725 -0.13532698
-0.061199587 0.04923222 -0.036195613 -0.12073921 0.086819515 0.05123668 0.11278822 0.1077491
0.025400436 -0.014336246 0.003655744 -0.0054515055 0.01970312 -0.039633177 -0.014675059 0.004504703
-0.0020529216 -0.01948257 -0.010458912 0.036869977 0.023342581 0.0076433434 -0.017765619 -0.0036112163
-0.025140041 0.011833259 0.0032969702 0.025038082 0.02150534 -0.02068792 0.0066743344 -0.03412244
-0.015290235 0.012275518 -0.00900308 -0.030399855 0.021772297 0.012779785 0.028373707 0.027090672
0.037026938 -0.02100353 0.0054062284 -0.008045394 0.028784089 -0.057610463 -0.02149545 0.006655044
-0.0030421123 -0.028464766 -0.015364586 0.053611763 0.03405083 0.011255474 -0.025977686 -0.0053406665
-0.03665039 0.017365593 0.0048777377 0.036502954 0.031392783 -0.030209783 0.009837684 -0.049637593
-0.022388289 0.018008957 -0.013241697 -0.044255026 0.031779084 0.018742211 0.04132578 0.039470818
0.006650293 -0.0037727111 0.0009690293 -0.001442946 0.005171034 -0.010330552 -0.0038611577 0.0011932302
-0.0005449249 -0.005113677 -0.0027586725 0.009617267 0.00611651 0.00201983 -0.0046668462 -0.00095726206
-0.0065827784 0.0031185246 0.00087418786 0.006556341 0.005639473 -0.0054270723 0.0017649909 -0.0089075435
-0.0040216804 0.0032342235 -0.0023769308 -0.007945032 0.0057088174 0.0033660852 0.0074206223 0.007088327
0.06293692 -0.03582858 0.009242832 -0.013751993 0.04901971 -0.09743459 -0.036664087 0.011376903
-0.005201535 -0.048479382 -0.026236618 0.09076011 0.05791857 0.019231793 -0.044267878 -0.009130785
-0.06230249 0.02964313 0.008339609 0.062053937 0.053430837 -0.05143104 0.016812276 -0.084113985
-0.03818014 0.030737936 -0.022619193 -0.075091586 0.05408348 0.031985097 0.07017135 0.0670515
0.058805045 -0.03331257 0.008532763 -0.0127133755 0.04569721 -0.09141646 -0.03409571 0.010509957
-0.004795481 -0.045189094 -0.024339199 0.085097015 0.054074932 0.017807737 -0.041230723 -0.008428993
-0.05820676 0.027522638 0.007696603 0.057972487 0.049847677 -0.047965776 0.015556641 -0.07880848
-0.03551692 0.028546322 -0.020963695 -0.070279166 0.050462138 0.02971327 0.06563178 0.06268698

linear.fc.weight f4 [98, 1]
00000000: 3516 fe3e 726f 073f 558c 153f c53f 263e
00000010: bfb9 6b3e 2bcd 483d b7fd a33e c2bf 973e
00000020: cedb 963d 4ad2 e33c 23b5 ec3c bf73 da3c
00000030: 6537 5e3c cd12 4d3c d384 4c3c 5019 4d3c
00000040: 638a 4b3e ce2c 0e3e ef00 293e ee12 1b3e
00000050: c1c7 403e 3631 513e a58f 343e e44e fa3c
00000060: 91a3 c13c 8d09 ac3c 2961 d23c 6a3e ec3c
00000070: e976 093d 92e6 c13c 60c9 fa3b 6226 413b
00000080: e7a0 e13c bea2 583c 754c f439 4704 ac39
00000090: 1afb 2a3a 0972 433c 5edc 4039 acfc 8e3b
000000a0: fff9 ab3b 7dfa aa3a 30c5 c23b 7e95 093d
000000b0: 2c60 013d 470e 8e3b bdec 913c cd60 d13c
000000c0: a1c9 173b c888 cf3c b2ba 9d3c b6d7 8a3b
000000d0: 43b6 0c3b ff5c e33b 4ef0 6c3a f5a8 153b
000000e0: d28e d93c e6fe e93a ef8c 013d 2163 9d3c
000000f0: 99d7 c83b 3984 b63b 8d19 b73c f176 4e3b
00000100: 3703 473b 2723 8339 232c 203a 15a1 7a3c
00000110: b55f 163d f398 8d3c a830 413c 673f 373c
00000120: d035 833b f8f3 053c 1dd4 0a3a 6384 163d
00000130: 66c5 eb3a 1e38 0939 d1ee c93c b080 113d
00000140: 7773 b53c 39ad b43c 0ba3 5d3b 9929 e03a
00000150: a6c1 133d 481a 093d 8d46 8c3c a809 9f3b
00000160: a998 053c b7cf 903c cd32 c53c 2212 133c
00000170: 8c10 f73b 6227 583c ceb2 303c dff6 f93b
00000180: 7a17 7f39 7c08 6e3c
0.49626318 0.5290443 0.58417255 0.16235264 0.23020075 0.04902379 0.32029507 0.29638487
0.07366143 0.027810235 0.028894966 0.02666652 0.013563012 0.0125166895 0.01248284 0.012518242
0.19877009 0.13884279 0.16504262 0.1514394 0.188262 0.20428929 0.17632921 0.030555196
0.023637565 0.021000648 0.025681095 0.028838355 0.033560667 0.023669515 0.0076534003 0.002947234
0.027542545 0.0132223945 0.00046596272 0.00032809583 0.00065224024 0.011929044 0.0001839264 0.004363617
0.0052483077 0.0013044622 0.0059439167 0.033589832 0.031585857 0.004335198 0.01781308 0.025558854
0.0023160952 0.025333777 0.019254062 0.0042371405 0.002147094 0.006938576 0.0009038494 0.0022836302
0.02655736 0.0017852455 0.031628545 0.019212307 0.006129217 0.0055699614 0.02235105 0.0031504
0.0030366906 0.00025012458 0.00061100925 0.015297194 0.036712367 0.017284846 0.011791386 0.01118455
0.0040042177 0.008175842 0.00052958896 0.036747348 0.0017987906 0.00013086243 0.02465001 0.035523117
0.022149784 0.022055255 0.0033819105 0.0017102241 0.03607335 0.03347233 0.017123485 0.004853446
0.008154073 0.017677171 0.024072075 0.008976491 0.0075398143 0.013192983 0.010784818 0.0076283063
0.00024327441 0.01452839

mlp.mlp.0.weight f4 [64, 160]
00000000: 722a 0b80 a49c 2100 6f3d 0480 9a16 5000
00000010: 87da 0200 650f 0f00 a990 4680 69df 4180
00000020: d272 0d00 5066 1e00 8f30 1f80 9a09 4f80
00000030: 4aaf 4980 5e56 4800 0f79 0d80 71cd 0c00
00000040: fab5 1500 0cff 4180 f771 1e00 9562 0d80
00000050: de9e 0580 b942 4f00 59f8 1480 29a3 0680
00000060: 320a 1080 0041 2980 afd8 4900 1165 4280
00000070: 8f56 4500 6246 2300 a228 4a80 7732 3f00
00000080: 49d3 3900 5800 2600 fb67 4680 13b0 1e00
00000090: e8a8 3c00 188b 4780 bf80 4580 e920 4580
000000a0: 7b2d 0480 d158 4000 aa09 2c80 e729 1400
000000b0: d4c4 1700 ae2f 5100 f4e6 0e00 21be 4580
000000c0: 5bd8 5180 b6ab 1600 7efd 3900 72d3 1d00
000000d0: eba1 1d00 f03d 2800 4e14 4780 b8d6 0000
000000e0: 3926 1700 5b22 4980 eebd 0780 3959 3500
000000f0: 95d0 1100 1dfd 3380 6ba8 4e80 acf2 4d00
00000100: 6230 2d00 6de8 2000 523d 0300 f441 2c00
00000110: d653 1600 441f 0800 c064 4080 486a 0300
00000120: 2016 3d80 4a38 4280 e359 3380 cd99 1d80
00000130: 9a5b 4500 0df7 4000 5926 4a80 5a3f 0f80
00000140: 6bd3 4c80 2ee1 3a80 ad6a 0080 53fa 4d80
00000150: 1cdb 4980 403d 5080 df91 2380 f49c 4900
00000160: 7b05 4e80 fe2c 3600 4afb 5100 e175 4400
00000170: 7b50 0380 71ae 3700 2e1b 4580 a223 3900
00000180: 1d32 3c80 9572 2a00 79ff 4d00 93ef 0800
00000190: 8e8a 2500 d8f8 4400 da8a 2f80 863a 4f80
000001a0: 60a7 1d80 5289 1180 3a38 4000 cd95 2180
000001b0: c54e 4a80 689d 0780 c992 0c80 949e 2300
000001c0: 2d70 0880 1e98 5000 8d4a 3100 9ed9 3180
000001d0: 683f 4d00 8d86 3400 971e 4a80 0d13 0e80
000001e0: 5f15 2480 662e 2000 4757 1300 f372 3180
000001f0: db9a 1f80 aba1 2b80 1fa4 1b80 8f9e 2780
00000200: 6448 0d00 982a 3980 3006 1700 fc18 1200
00000210: 2e2a 5180 800e 1800 9669 1000 417b 0c80
00000220: 1b53 4f00 b271 5280 ea68 1900 ca7c 1700
00000230: 7d88 3300 1df4 0f00 361b 1e80 29e5 0180
00000240: a2de 1580 11fc 4b00 1cbf 4c00 7b4f 0580
00000250: daff 3600 4c15 4e00 68af 2200 562d 4e80
00000260: 04e2 4880 a433 3080 61c5 4e80 5ac3 2900
00000270: fec6 3080 91dc 3580 f1d5 2380 8042 2e00
00000280: d204 2f80 985a 1480 72ec 2400 0cdf 3200
00000290: 5211 2880 6958 5080 8504 3900 b7d1 4b00
000002a0: 7bb2 4780 cae1 1e80 0163 3d00 3681 0400
000002b0: 0ceb 0400 1648 4180 4d7f 4f80 9080 0c80
000002c0: c15b 0d80 deb1 1f80 9d73 3a00 09e0 3800
000002d0: 141f 1e00 e425 2600 43ae 0900 a619 1380
000002e0: 1d6c 3100 f38f 0280 23fc 1700 6ab0 3400
000002f0: dc47 2000 7920 3d80 65a6 1780 f62c 4300
00000300: 27d9 0900 0cba 1f80 929b 0980 1d07 4a00
00000310: f85e 4800 182e 2a80 dc77 0080 accb 1100
00000320: e5b3 4e80 2a0e 2780 f6c2 2200 cf68 4c80
00000330: 890e 5380 90ab 1080 4942 2780 b31d 4800
00000340: d0d1 4b80 4569 1c80 5f4f 2600 5122 4a80
00000350: a40e 1a00 c197 1480 7157 1b80 140c 4d80
00000360: 60a6 4000 cb00 4080 eaca 4900 b974 0000
00000370: 5942 2500 e0b1 3000 c5c6 1680 16b1 0300
00000380: 39ed 3480 eef5 1680 7708 1d80 94a8 0500
00000390: 16f5 0600 dee3 5080 bed7 0380 51bd 1c80
000003a0: eda1 4500 c9f2 0080 a2d9 1c80 4abd 2300
000003b0: 1df3 4d00 3722 4c00 94c6 3c80 4cbc 0000
000003c0: 8a59 2280 53ab 2300 6369 3e00 a347 1f00
000003d0: d642 4c80 3bc6 2000 a39b 1500 5384 2880
000003e0: 619b 4f00 3c8f 4c00 8094 4680 7912 2680
000003f0: 316f 1500 96ed 2500 25ed 2e00 cc6d 0580
-1.025417e-39 3.086763e-39 -3.8938e-40 7.354948e-39 2.62064e-40 1.383055e-39 -6.480379e-39 -6.049452e-39
1.235051e-39 2.791768e-39 -2.86432e-39 -7.258449e-39 -6.766873e-39 6.643138e-39 -1.237289e-39 1.175724e-39
1.993826e-39 -6.060801e-39 2.795948e-39 -1.229226e-39 -5.16168e-40 7.27894e-39 -1.9258e-39 -6.09544e-40
-1.473025e-39 -3.788573e-39 6.781723e-39 -6.097399e-39 6.3677e-39 3.239491e-39 -6.810403e-39 5.80374e-39
5.310418e-39 3.489872e-39 -6.465786e-39 2.818228e-39 5.570722e-39 -6.570218e-39 -6.382835e-39 -6.348455e-39
-3.83657e-40 5.909333e-39 -4.044229e-39 1.851742e-39 2.182825e-39 7.45578e-39 1.368547e-39 -6.404855e-39
-7.516289e-39 2.081979e-39 5.325559e-39 2.739082e-39 2.721315e-39 3.695639e-39 -6.527604e-39 7.7027e-41
2.125928e-39 -6.716316e-39 -7.10982e-40 4.899288e-39 1.636029e-39 -4.77441e-39 -7.223586e-39 7.158387e-39
4.149954e-39 3.022115e-39 2.97504e-40 4.064421e-39 2.050456e-39 7.459e-40 -5.913614e-39 3.13633e-40
-5.609902e-39 -6.081335e-39 -4.715856e-39 -2.718403e-39 6.36951e-39 5.966097e-39 -6.809583e-39 -1.400259e-39
-7.05534e-39 -5.407238e-39 -3.8268e-41 -7.161133e-39 -6.782593e-39 -7.368812e-39 -3.266571e-39 6.760295e-39
-7.165135e-39 4.975257e-39 7.528821e-39 6.287101e-39 -3.04377e-40 5.11353e-39 -6.3464e-39 5.247406e-39
-5.528107e-39 3.898195e-39 7.16298e-39 8.20627e-40 3.447617e-39 6.334082e-39 -4.366079e-39 -7.275998e-39
-2.723272e-39 -1.610465e-39 5.897642e-39 -3.08431e-39 -6.824084e-39 -6.99315e-40 -1.154683e-39 3.27113e-39
-7.74925e-40 7.401409e-39 4.526683e-39 -4.578006e-39 7.094079e-39 4.823714e-39 -6.8068e-39 -1.292531e-39
-3.313744e-39 2.95538e-39 1.776184e-39 -4.541175e-39 -2.902452e-39 -4.006922e-39 -2.538434e-39 -3.638464e-39
1.21983e-39 -5.249903e-39 2.114436e-39 1.662002e-39 -7.453806e-39 2.209254e-39 1.507245e-39 -1.146241e-39
7.284817e-39 -7.571297e-39 2.333523e-39 2.156982e-39 4.732573e-39 1.465104e-39 -2.764826e-39 -1.74043e-40
-2.008411e-39 6.978087e-39 7.048055e-39 -4.8769e-40 5.050899e-39 7.170809e-39 3.185331e-39 -7.179432e-39
-6.693235e-39 -4.426629e-39 -7.233975e-39 3.835334e-39 -4.479489e-39 -4.946406e-39 -3.29099e-39 4.248289e-39
-4.317998e-39 -1.869209e-39 3.390898e-39 4.671789e-39 -3.679633e-39 -7.378555e-39 5.236245e-39 6.962894e-39
-6.584347e-39 -2.836063e-39 5.637481e-39 4.13694e-40 4.51661e-40 -5.995167e-39 -7.300671e-39 -1.148145e-39
-1.226777e-39 -2.910707e-39 5.367933e-39 5.223156e-39 2.766214e-39 3.503341e-39 8.89033e-40 -1.754075e-39
4.538723e-39 -2.3531e-40 2.202666e-39 4.838731e-39 2.964514e-39 -5.613614e-39 -2.171908e-39 6.169107e-39
9.04419e-40 -2.913641e-39 -8.82328e-40 6.798378e-39 6.646224e-39 -3.873626e-39 -4.2997e-41 1.634267e-39
-7.227703e-39 -3.586665e-39 3.192346e-39 -7.017096e-39 -7.62756e-39 -1.530913e-39 -3.605363e-39 6.62281e-39
-6.962929e-39 -2.609157e-39 3.518222e-39 -6.808137e-39 2.392975e-39 -1.891149e-39 -2.510926e-39 -7.075666e-39
5.937156e-39 -5.877756e-39 6.776783e-39 4.1872e-41 3.421714e-39 4.471913e-39 -2.091686e-39 3.39033e-40
-4.860545e-39 -2.108604e-39 -2.666266e-39 5.19652e-40 6.38933e-40 -7.428583e-39 -3.529e-40 -2.639308e-39
6.394737e-39 -8.7095e-41 -2.649466e-39 3.282146e-39 7.158546e-39 6.991772e-39 -5.581366e-39 6.7548e-41
-3.154527e-39 3.275702e-39 5.731606e-39 2.872599e-39 -7.003474e-39 3.009848e-39 1.984377e-39 -3.720889e-39
7.310744e-39 7.03088e-39 -6.481756e-39 -3.496376e-39 1.968433e-39 3.483143e-39 4.309504e-39 -4.98565e-40

mlp.mlp.0.bias f4 [64]
00000000: 65d2 0180 54ae 5080 bde4 1780 b26e 0f00
00000010: badf 4d00 1649 1200 a042 00b3 311f 4f00
00000020: 902f 4f00 6941 3e00 1db4 5200 8287 44b4
00000030: 4868 9bb3 4e89 1880 3755 3e00 2e0b 0a00
00000040: 2641 4f80 e7cf 0400 ea81 5300 6755 2380
00000050: 6eae 0b80 2074 0d80 0afb 0cb4 dc14 97b2
00000060: 3656 4e00 90fa 1400 7fa3 2d00 e261 bc33
00000070: 1d72 2300 d9b4 0500 446b 0f34 c04b 4f80
00000080: 506c 39b4 ff39 2680 ddb1 c733 f528 1800
00000090: b1d3 0f00 241c 2db4 61c2 3100 07c7 3080
000000a0: a362 5180 a83c 5180 5a32 4e00 aebd 5d34
000000b0: e356 2080 79d9 0680 ac5a 5300 17df 1780
000000c0: 029f 4e80 d249 4600 d59f 4d00 dd04 88b4
000000d0: b041 0580 5fef 3180 c27f 5080 96a3 2700
000000e0: 02bb 2380 cc03 3231 688a 4500 3b7a 8033
000000f0: 2ac2 7eb4 6875 0232 d134 77b1 b5e8 4c00
-1.67311e-40 -7.409377e-39 -2.194272e-39 1.417242e-39 7.151591e-39 1.679257e-39 -2.9862917e-08 7.266194e-39
7.272066e-39 5.717266e-39 7.595123e-39 -1.830322e-07 -7.2367186e-08 -2.253308e-39 5.72437e-39 9.22365e-40
-7.278375e-39 4.41923e-40 7.66895e-39 -3.244879e-39 -1.072764e-39 -1.235519e-39 -1.3129844e-07 -1.75882e-08
7.194095e-39 1.926595e-39 4.191249e-39 8.772237e-08 3.255178e-39 5.24053e-40 1.3356936e-07 -7.282178e-39
-1.7268871e-07 -3.510554e-39 9.299013e-08 2.218745e-39 1.453473e-39 -1.6122118e-07 4.56967e-39 -4.479501e-39
-7.47406e-39 -7.460435e-39 7.181231e-39 2.0651234e-07 -2.969905e-39 -6.29027e-40 7.654873e-39 -2.192246e-39
-7.22021e-39 6.454966e-39 7.12867e-39 -2.5335513e-07 -4.82742e-40 -4.58581e-39 -7.39267e-39 3.640268e-39
-3.281328e-39 2.5904567e-09 6.3863e-39 5.982698e-08 -2.372623e-07 7.593691e-09 -3.5973253e-09 7.062977e-39

mlp.mlp.1.weight f4 [64]
00000000: 3c4d 3480 9241 4e80 4a79 4c00 713e 4f00
00000010: eefc 0380 9bef 0500 1af9 1c3d a947 0980
00000020: 0b23 0300 54de 5180 6805 2b80 fc5b 253d
00000030: 2485 0e3d b5de 0e80 da66 4a80 336b 1d00
00000040: f758 1d00 5278 1880 31d9 4d80 85c0 0d80
00000050: 85e8 2880 8255 1c00 a8c7 0d3d e2c7 073d
00000060: bca1 3380 76d9 2400 8002 3f80 b056 0a3d
00000070: 8a62 3700 3eb3 3680 ec18 143d 5d4a 0e00
00000080: 337e 1b3d b552 3400 fec5 223d bdfe 4180
00000090: f3b3 4d00 5509 1c3d 09f1 1200 3c0a 3b00
000000a0: 7eef 4d00 e482 2f80 3e4b 2180 74e5 0f3d
000000b0: 8367 3e80 092c 1200 ca03 4580 0364 0800
000000c0: d244 3680 1953 2700 5641 2980 2073 1c3d
000000d0: c364 2300 e5a2 4380 73b1 3f00 cb67 4b00
000000e0: b1f2 2700 4128 0f3d fb71 2780 4b46 133d
000000f0: 3a0d 103d 35bb 083d 104d 173d dc6e 1080
-4.803152e-39 -7.186691e-39 7.023008e-39 7.277404e-39 -3.6624e-40 5.45132e-40 0.0383235 -8.52226e-40
2.88078e-40 -7.518431e-39 -3.950866e-39 0.040370926 0.03479494 -1.365589e-39 -6.832723e-39 2.701685e-39
2.695144e-39 -2.247215e-39 -7.149247e-39 -1.262924e-39 -3.756832e-39 2.602068e-39 0.034614235 0.033149607
-4.74163e-39 3.384088e-39 -5.786533e-39 0.033774078 5.086301e-39 -5.023417e-39 0.03615658 1.312373e-39
0.03796215 4.805115e-39 0.0397396 -6.06069e-39 7.135887e-39 0.038094837 1.739506e-39 5.421966e-39
7.157247e-39 -4.363223e-39 -3.057563e-39 0.035130933 -5.730934e-39 1.668836e-39 -6.338008e-39 7.70561e-40
-4.983805e-39 3.611394e-39 -3.788693e-39 0.03819573 3.250389e-39 -6.211414e-39 5.849293e-39 6.924896e-39
3.668646e-39 0.0349505 -3.622473e-39 0.03595571 0.035168864 0.03338166 0.036938727 -1.509137e-39

mlp.mlp.1.bias f4 [64]
00000000: d063 3980 f515 2c00 aa07 4080 5c5c 2080
00000010: 94ab 4d00 939d 4780 a742 c63c 4a9d 4100
00000020: 35d4 2080 f4a3 0d80 70f5 2d80 9105 d23c
00000030: 5090 b03c 7b14 1f00 6dbf 1580 6c93 3680
00000040: d413 2900 b05f 3000 b7d5 2700 71db 4180
00000050: f9a0 2c80 db26 4000 a7b9 af3c 956c a53c
00000060: 079e 2e80 38e9 0a80 cbb5 1380 4d56 a83c
00000070: 8ac4 4780 ce55 1d00 60e5 b63c 24ef 3300
00000080: cf18 c43c f4b2 4400 2e0e ce3c dcb3 1b80
00000090: 80e8 2f00 324d c53c 4443 2600 99d7 1e80
000000a0: 4529 2680 65a8 4400 d145 1380 2c6d b23c
000000b0: ed10 0500 877d 2200 6a46 1f00 c131 4b80
000000c0: 102b 2600 bd4e 3c00 2c63 4000 c1c6 c63c
000000d0: 1954 1100 b872 4680 7a9f 1480 7daf 3e00
000000e0: 0405 0700 db60 b23c aa42 3c80 291a b63c
000000f0: 020f b23c 0c6a a73c c745 bd3c accf 2400
-5.270429e-39 4.048639e-39 -5.880221e-39 -2.971868e-39 7.132884e-39 -6.576847e-39 0.024201704 6.025732e-39
-3.014861e-39 -1.252677e-39 -4.220644e-39 0.02563742 0.021553189 2.854247e-39 -1.997216e-39 -5.012002e-39
3.772368e-39 4.44243e-39 3.658251e-39 -6.048028e-39 -4.098508e-39 5.89141e-39 0.02145083 0.020193378
-4.281122e-39 -1.002018e-39 -1.81009e-39 0.020548964 -6.590825e-39 2.69401e-39 0.022326171 4.769398e-39
0.02393761 6.30901e-39 0.025153246 -2.54408e-39 4.399674e-39 0.024084661 3.513879e-39 -2.832407e-39
-3.504554e-39 6.305222e-39 -1.76992e-39 0.021780573 4.6525e-40 3.167438e-39 2.87216e-39 -6.90551e-39
3.505197e-39 5.538376e-39 5.913048e-39 0.024264695 1.591372e-39 -6.469638e-39 -1.89392e-39 5.756754e-39
6.44648e-40 0.0217747 -5.534044e-39 0.022229271 0.021735672 0.02043631 0.023104561 3.380576e-39

mlp.mlp.1.running_mean f4 [64]
00000000: 7356 3400 220b 0d00 f8c3 1200 c896 3c00
00000010: a9f9 2000 1315 0d00 4966 44bc e8f7 1e00
00000020: 979c 2c00 d842 2b00 7cbe 2800 e75f 49bc
00000030: e99e 37bc 0ac8 0d00 149d 4a00 d1e6 1800
00000040: 73a4 2d80 3e65 3e80 97fd 2300 c086 0700
00000050: 3a49 0500 a3cb 0280 47bd 36bc 0696 2fbc
00000060: 23c5 4300 9bba 3880 e6fa 3e00 b1b3 32bc
00000070: eec2 4600 3604 3580 3697 3cbc 4ae0 0f80
00000080: c067 41bc e1b9 5800 73de 48bc 2458 1280
00000090: eeff 2580 800c 42bc 20a7 3000 767e 4580
000000a0: 693f 3780 c8e0 4a80 044c 1700 036a 36bc
000000b0: 2d10 2000 faa1 0580 0723 0c80 b6bd 1400
000000c0: 359b 5880 a3c7 2500 e649 1600 dbb3 41bc
000000d0: ffec 1f80 4079 4880 a720 0800 4baf 0880
000000e0: c154 3f80 e0e1 36bc 78f0 0e00 fc9e 3bbc
000000f0: edea 36bc 3d86 30bc c906 3ebc fb6f 2900
4.806458e-39 1.197855e-39 1.723339e-39 5.56422e-39 3.028297e-39 1.201421e-39 -0.011987277 2.843997e-39
4.096936e-39 3.972905e-39 3.741753e-39 -0.012290931 -0.011207321 1.265622e-39 6.852176e-39 2.286853e-39
-4.19159e-39 -5.73012e-39 3.305213e-39 6.91188e-40 4.85446e-40 -2.56722e-40 -0.011153526 -0.010716921
6.223698e-39 -5.209729e-39 5.783806e-39 -0.0109071 6.498412e-39 -4.868792e-39 -0.011510661 -1.457992e-39
-0.011804521 8.148204e-39 -0.012260067 -1.684658e-39 -3.489724e-39 -0.011843801 4.468057e-39 -6.382015e-39
-5.0737e-39 -6.876463e-39 2.139486e-39 -0.011133674 2.944539e-39 -5.17284e-40 -1.114591e-39 1.904765e-39
-8.137201e-39 3.46953e-39 2.04689e-39 -0.011822666 -2.931919e-39 -6.655652e-39 7.46397e-40 -7.97567e-40
-5.81604e-39 -0.011162251 1.371961e-39 -0.011451479 -0.011164409 -0.010774192 -0.011598297 3.805426e-39

mlp.mlp.1.running_var f4 [64]
00000000: 0400 0000 0400 0000 0400 0000 0400 0000
00000010: 0400 0000 0400 0000 d85f 3837 0400 0000
00000020: 0400 0000 0400 0000 0400 0000 05fd 4237
00000030: fb3d 2837 0400 0000 0400 0000 0400 0000
00000040: 0400 0000 0400 0000 0400 0000 0400 0000
00000050: 0400 0000 0400 0000 7fb7 2637 ebaa 1e37
00000060: 0400 0000 0400 0000 0400 0000 3402 2137
00000070: 0400 0000 0400 0000 7930 2c37 0400 0000
00000080: 2d4d 3937 0400 0000 6210 4137 0400 0000
00000090: 0400 0000 70aa 3737 0400 0000 0400 0000
000000a0: 0400 0000 0400 0000 0400 0000 d7d8 2737
000000b0: 0400 0000 0400 0000 0400 0000 0400 0000
000000c0: 0400 0000 0400 0000 0400 0000 380a 3637
000000d0: 0400 0000 0400 0000 0400 0000 0400 0000
000000e0: 0400 0000 6a85 2537 0400 0000 520b 2b37
000000f0: 75da 2837 13bf 1e37 cd3a 3237 0400 0000
6e-45 6e-45 6e-45 6e-45 6e-45 6e-45 1.098957e-05 6e-45
6e-45 6e-45 6e-45 1.1622212e-05 1.0028011e-05 6e-45 6e-45 6e-45
6e-45 6e-45 6e-45 6e-45 6e-45 6e-45 9.937095e-06 9.457329e-06
6e-45 6e-45 6e-45 9.596861e-06 6e-45 6e-45 1.0263285e-05 6e-45
1.1044828e-05 6e-45 1.1507511e-05 6e-45 6e-45 1.0947333e-05 6e-45 6e-45
6e-45 6e-45 6e-45 1.0004463e-05 6e-45 6e-45 6e-45 6e-45
6e-45 6e-45 6e-45 1.0850425e-05 6e-45 6e-45 6e-45 6e-45
6e-45 9.865829e-06 6e-45 1.019503e-05 1.0064444e-05 9.462022e-06 1.0623317e-05 6e-45

mlp.mlp.4.weight f4 [64, 64]
00000000: 1d4d 3800 97dc 1a80 ef03 3d00 8352 3180
00000010: 7a90 2400 14e5 3700 7c1c d43b 06af 0b80
00000020: e667 3280 a61d 3580 bd36 4c80 eac6 d73b
00000030: 5211 ba3b 0086 4f80 fda8 3900 9185 1a00
00000040: 15cf 0e00 3b29 3f80 584d 4900 6718 3380
00000050: 3a73 4e00 02c2 0c80 08ed bb3b ee1f b83b
00000060: c70b 0480 a14b 3200 fe06 3c00 c7e8 b23b
00000070: 024a 0d00 d36b 3600 5387 c33b cb96 4e00
00000080: 6c4e d33b 933a 3d00 2361 e23b a081 4180
00000090: eb3e 4700 b756 d23b a866 3300 f521 0600
000000a0: 5904 1780 45c4 4980 f1d5 4a80 b0dd bb3b
000000b0: d445 2c00 ce43 2900 ff4c 1800 e2cf 4800
000000c0: c152 2800 f820 0e80 f4d0 3580 b097 d63b
000000d0: 9c09 4b00 b84e 2800 ac2d 0d00 d70b 4d80
000000e0: b075 3680 f10e c53b 4f12 2780 099e be3b
000000f0: 6c11 bd3b 0f6d ac3b 4859 c73b 5eab 1300
00000100: f402 3300 423f 3480 38a9 4a80 0688 3c00
00000110: ff15 2200 f3cf 2180 3a4f c53b c27e 1a00
00000120: 69a0 2600 8e09 0a80 6f1e 0600 53fc d13b
00000130: 44ef ba3b ba0e 2f00 ba1c 2200 e9fd 1c00
00000140: 6ffe 5100 3747 4e00 45f4 3400 64d8 4200
00000150: 4686 3400 315d 3180 e919 b13b e792 b03b
00000160: c702 5180 f5e0 4a80 7539 2400 1361 b33b
00000170: d8cf 1280 dcd8 1280 b4aa be3b 3cb8 2480
00000180: 383d c63b 235b 1500 bee4 d33b 00fa 4f80
00000190: b08b 4e00 45fe cf3b d784 2a00 bb2e 1e00
000001a0: 5c5a 0c00 9191 2380 13b5 4700 ee70 bc3b
000001b0: 0028 4680 b7fb 1600 762a 0b00 5772 2b00
000001c0: a5bd 4b00 47a0 4980 9891 4300 9cc8 cb3b
000001d0: ffd2 2f00 df4c 2c00 071a 0980 9555 4f00
000001e0: 0cb7 2f00 1bc0 b53b 0113 1800 0cd6 c03b
000001f0: e4b9 bc3b 1d35 b43b 296e c33b fe7f 1080
00000200: 188a 2500 3beb 1200 d576 0480 6901 1980
00000210: 192a 1a80 8870 2b80 c6a0 cc3b 36e1 2080
00000220: d9c1 2400 623e 2700 cc0a 0680 f653 d33b
00000230: aa95 c13b e39e 4e80 f4f8 0b80 8eac 2d00
00000240: eb63 5380 99a5 3600 30ea 1500 69da 3780
00000250: 260b 5100 ec90 0480 a6fc be3b 9789 bc3b
00000260: 5251 1180 1b40 3e00 651a 5180 ac09 ac3b
00000270: 7688 4a00 0e6a 1780 cd57 bb3b 9803 1200
00000280: f39e cc3b 68b7 0880 a566 d53b 941b 3400
00000290: e945 0800 bf77 cb3b 0943 1e00 c1ae 4e80
000002a0: 8576 2a00 5288 0b80 5a1d 1c80 570d c33b
000002b0: 6c41 4b00 384d 4980 9ba0 3980 2bbe 4c80
000002c0: 15ab 0600 38c4 3b00 43ae 1280 0414 ca3b
000002d0: 36e7 0c80 10a3 0e00 2936 2900 4f68 0900
000002e0: d53c 1b80 7cd5 ba3b 6b86 2880 741d c53b
000002f0: 2888 be3b 4629 b53b f77d c73b 640f 0c80
00000300: a069 3380 3778 2700 d04a 4200 ab80 1800
00000310: 47c8 2a80 d139 3c00 7764 cf3b 8376 0080
00000320: 95ee 2800 a86e 2380 1507 1100 fd79 db3b
00000330: aa5f c03b e644 2100 a6fe 2b80 784d 0e00
00000340: 0df9 1680 5974 1c80 2367 4800 7cab 2080
00000350: 77af 4100 5508 2d00 59f9 b33b 4a72 a93b
00000360: 459d 1680 a466 1980 5f4a 0500 70d0 b63b
00000370: 6bed 1b80 8b4b 4580 3cf9 bc3b 12c7 5380
00000380: ed95 cd3b e92a 3c00 d431 d53b 372e 2200
00000390: c96f 0580 5393 d63b 6ef1 4300 4656 4c80
000003a0: d1f0 1580 2b05 3680 1422 4700 c5c8 c43b
000003b0: 5f04 4180 a5f0 5180 94fe 1700 af76 1680
000003c0: c1a6 2480 64e7 0d00 3768 5100 3612 d13b
000003d0: f880 3f00 4ad0 4d00 4de5 1980 74a3 3000
000003e0: 1757 0e00 aada be3b 9b37 5080 6745 c13b
000003f0: 9db2 b73b 05dd b23b 23ad c63b b075 1200
5.170451e-39 -2.466856e-39 5.603376e-39 -4.529539e-39 3.357906e-39 5.13313e-39 0.006473122 -1.072977e-39
-4.629047e-39 -4.877917e-39 -6.999134e-39 0.0065849917 0.0056783343 -7.303074e-39 5.295245e-39 2.435637e-39
1.359984e-39 -5.800427e-39 6.731737e-39 -4.692364e-39 7.204504e-39 -1.171623e-39 0.0057350434 0.0056190407
-3.71567e-40 4.618905e-39 5.512638e-39 0.005459878 1.22041e-39 4.997797e-39 0.0059670596 7.217263e-39
0.0064485576 5.622978e-39 0.0069085523 -6.015808e-39 6.542891e-39 0.0064190286 4.720436e-39 5.63194e-40
-2.113776e-39 -6.7744e-39 -6.872574e-39 0.0057332143 4.065811e-39 3.789579e-39 2.231673e-39 6.68673e-39
3.703106e-39 -1.297524e-39 -4.94224e-39 0.0065488443 6.89111e-39 3.701659e-39 1.210245e-39 -7.07558e-39
-5.001335e-39 0.006013744 -3.588152e-39 0.005817179 0.005769899 0.0052620242 0.006083641 1.80635e-39
4.68467e-39 -4.798138e-39 -6.856531e-39 5.558926e-39 3.130298e-39 -3.10517e-39 0.0060214074 2.433195e-39
3.547293e-39 -9.21783e-40 5.6193e-40 0.006408253 0.005704792 4.321551e-39 3.132712e-39 2.66248e-39
7.529949e-39 7.188716e-39 4.863073e-39 6.138769e-39 4.823614e-39 -4.53337e-39 0.0054047 0.005388606
-7.439672e-39 -6.876526e-39 3.32669e-39 0.0054742186 -1.727599e-39 -1.730833e-39 0.0058186892 -3.372169e-39
0.0060497783 1.961239e-39 0.006466477 -7.344687e-39 7.213279e-39 0.00634745 3.904745e-39 2.771829e-39
1.134441e-39 -3.266462e-39 6.585277e-39 0.005750767 -6.442834e-39 2.110679e-39 1.025423e-39 3.989944e-39
6.955694e-39 -6.761488e-39 6.205207e-39 0.006218983 4.39196e-39 4.068338e-39 -8.35856e-40 7.285705e-39
4.381933e-39 0.0055465824 2.210869e-39 0.0058848914 0.0057594646 0.0054994957 0.00596406 -1.515283e-39
3.447452e-39 1.737424e-39 -4.09971e-40 -2.296393e-39 -2.402825e-39 -3.989295e-39 0.0062447516 -3.019526e-39
3.375617e-39 3.603963e-39 -5.54886e-40 0.006449218 0.005907734 -7.220167e-39 -1.099498e-39 4.194498e-39
-7.65819e-39 5.018522e-39 2.012556e-39 -5.129303e-39 7.442674e-39 -4.1933e-40 0.005828458 0.0057537067
-1.590376e-39 5.716797e-39 -7.448144e-39 0.0052501764 6.84478e-39 -2.150262e-39 0.005717254 1.654328e-39
0.006244534 -8.00478e-40 0.0065124803 4.785339e-39 7.59763e-40 0.006209343 2.779113e-39 -7.225859e-39
3.899608e-39 -1.059093e-39 -2.581923e-39 0.005952518 6.911131e-39 -6.731692e-39 -5.292238e-39 -7.047717e-39
6.12386e-40 5.488684e-39 -1.715552e-39 0.006166937 -1.184969e-39 1.344193e-39 3.784684e-39 8.63938e-40
-2.501381e-39 0.005701719 -3.72164e-39 0.006015474 0.005814571 0.005528602 0.006088014 -1.107547e-39
-4.721501e-39 3.62471e-39 6.08798e-39 2.250209e-39 -3.928937e-39 5.53087e-39 0.006329115 -4.2514e-41
3.759007e-39 -3.253938e-39 1.563744e-39 0.0066978917 0.005870779 3.055287e-39 -4.040277e-39 1.313487e-39
-2.109724e-39 -2.613132e-39 6.649154e-39 -3.000253e-39 6.032252e-39 4.135586e-39 0.005492371 0.005171095
-2.076799e-39 -2.332708e-39 4.85857e-40 0.005579047 -2.564728e-39 -6.363749e-39 0.0057670157 -7.693759e-39
0.006273976 5.525523e-39 0.006506184 3.138986e-39 -4.99278e-40 0.006548324 6.239587e-39 -7.010447e-39
-2.014934e-39 -4.960971e-39 6.532545e-39 0.006005379 -5.970875e-39 -7.525002e-39 2.203542e-39 -2.062957e-39
-3.365898e-39 1.276869e-39 7.47606e-39 0.0063803447 5.831902e-39 7.146053e-39 -2.378145e-39 4.46674e-39
1.316939e-39 0.0058244066 -7.366787e-39 0.005898166 0.005606009 0.0054584765 0.00606312 1.695257e-39

mlp.mlp.4.bias f4 [64]
00000000: f96d ceb0 4fb5 b331 bdb0 fb31 78a0 20b2
00000010: fd86 47b2 1d9e 8a00 db30 81b2 83b1 6cb2
00000020: 9944 17b2 a8f1 bd30 65a4 2980 16e7 46b2
00000030: aae4 3f32 2566 3231 1b9f 0caf ef7c dcb1
00000040: f3ff 42af c318 3f80 04e1 3500 3de0 c800
00000050: b5dd 02b1 f9da 4eb2 219a bb00 2c43 2300
00000060: e876 a231 62a6 fb30 7dcf 89b1 4acb 3a00
00000070: 3f45 3600 ca7b 13b2 1e84 19b1 ac99 5080
00000080: 0b48 af32 f810 fc31 06a8 fb31 c230 3e32
00000090: 9acb b131 1119 95b2 f196 8632 79a3 3e32
000000a0: 7e3d cbb1 80e6 2832 221a 1380 8fe9 be31
000000b0: d9a2 f031 f894 1d32 3707 e131 805d 45b1
000000c0: 970e 2032 937e 1631 56eb adb1 d8f8 43b1
000000d0: 2447 f1b1 f414 5580 3649 9bb1 44ad 0100
000000e0: 3e66 1c32 f4eb 6e31 cb98 2f80 de4a 6bb1
000000f0: a8a1 dc30 7ecb ff31 8430 4732 c597 1fb2
-1.5019729e-09 5.230198e-09 7.3251543e-09 -9.349712e-09 -1.1614017e-08 1.2730019e-38 -1.5039793e-08 -1.37773695e-08
-8.804954e-09 1.3820243e-09 -3.824229e-39 -1.157766e-08 1.1169655e-08 2.5960472e-09 -1.2789451e-10 -6.417046e-09
-1.7735129e-10 -5.794519e-39 4.948002e-39 1.8447541e-38 -1.9043516e-09 -1.2040567e-08 1.7228529e-38 3.238339e-39
4.7283386e-09 1.8309942e-09 -4.0108135e-09 5.399385e-39 4.983958e-39 -8.5846725e-09 -2.233953e-09 -7.401967e-39
2.0405443e-08 7.3360944e-09 7.3241635e-09 1.1070542e-08 5.174525e-09 -1.7357282e-08 1.5668293e-08 1.1096625e-08
-5.9150684e-09 9.831297e-09 -1.754249e-39 5.5562803e-09 7.003433e-09 9.172474e-09 6.549182e-09 -2.8720422e-09
9.316543e-09 2.1899822e-09 -5.0617173e-09 -2.8517686e-09 -7.022111e-09 -7.813534e-39 -4.519417e-09 1.53991e-40
9.103642e-09 3.4767682e-09 -4.37108e-39 -3.4239558e-09 1.6053052e-09 7.444611e-09 1.1594356e-08 -9.2895265e-09

mlp.mlp.5.weight f4 [64]
00000000: 3b5d 043d 3532 ff3c b18f 033d ac4c 013d
00000010: 9167 033d 8a6a 2080 d0d4 013d 715a 073d
00000020: a371 033d 4e90 0b3d 20c0 4e00 6fe3 013d
00000030: f3e1 033d 25f2 023d f6be 063d 5bed 0a3d
00000040: 95d8 fb3c cf81 1700 02c9 4f00 5b93 0f80
00000050: 974d 063d 4fd4 023d 1e72 0680 562d 2d80
00000060: 66b1 033d 331e 043d feb2 063d 51d0 2600
00000070: 889b 1500 67a8 093d e72e 023d 9c34 2400
00000080: 199a 043d 9c0e 083d db5c 003d 955f 0a3d
00000090: e4d1 063d 2347 023d 7401 023d 9b44 023d
000000a0: 801c 073d 28a9 093d 9336 2880 ef97 053d
000000b0: 0385 013d 2663 043d e1ce fe3c bcc8 093d
000000c0: 5600 053d f440 003d 2add 053d d402 013d
000000d0: f95a 053d 2ce7 4c00 b2f8 033d aa2a 2d00
000000e0: 6714 073d 1184 033d 7071 0280 fb50 0e3d
000000f0: 7e88 023d ba80 033d d590 093d caf1 093d
0.032315474 0.03115187 0.032119457 0.03156726 0.03208119 -2.976955e-39 0.031697094 0.033045236
0.032090794 0.034073167 7.23209e-39 0.03171104 0.032197904 0.03196921 0.03289696 0.033917766
0.030742923 2.158783e-39 7.327112e-39 -1.430394e-39 0.03278884 0.031940755 -5.9195e-40 -4.148861e-39
0.032151602 0.032255363 0.032885544 3.564479e-39 1.98434e-39 0.033607867 0.03178301 3.32495e-39
0.03237352 0.033217058 0.031338554 0.03378256 0.03291501 0.031806123 0.031739667 0.03180371
0.032986164 0.033608586 -3.692997e-39 0.0326156 0.03162099 0.032321118 0.031104507 0.0336387
0.032471023 0.031311944 0.03268162 0.031496838 0.03255746 7.062427e-39 0.032219596 4.147902e-39
0.03297844 0.03210837 -2.24365e-40 0.034745198 0.03186845 0.032105185 0.03358539 0.033677854

mlp.mlp.5.bias f4 [64]
00000000: 70b0 7b3e 8879 7a3e f613 7d3e add2 7c3e
00000010: 6953 7c3e 00f0 5f3e 89e4 7c3e b10b 803e
00000020: 481f 7d3e 7849 803e a7f8 613e 1b72 7b3e
00000030: dbd9 7d3e 6d8f 7c3e 2cd8 7b3e 194c 803e
00000040: c507 7c3e 2ae0 633e ea8e 2880 36e3 5e3e
00000050: 945a 803e 804d 7d3e ab31 623e 0afb 1880
00000060: 8f27 7b3e a418 7f3e e916 7d3e f99f 4a80
00000070: 51f4 2300 aa4f 7f3e 6221 803e 75df 3480
00000080: 8ea7 7b3e 1f7b 803e e9c1 7b3e 7496 803e
00000090: 7c11 7c3e 4216 7f3e 93a4 7b3e 4d83 7d3e
000000a0: 944d 7d3e 045c 7e3e 7e64 3f00 b780 803e
000000b0: 3221 7d3e ffdc 7b3e 690e 783e 465e 7f3e
000000c0: 99c6 7c3e 2e82 7f3e 9410 7e3e f043 7c3e
000000d0: 855d 7f3e 9e8f 5c3e c8e2 7e3e 80f5 4200
000000e0: a49d 7d3e e43c 813e 004c 5180 bca8 813e
000000f0: ae5a 7d3e 8851 7c3e 5798 7f3e 1f2a 813e
0.24579024 0.24460423 0.24714646 0.24689741 0.24641193 0.21868896 0.24696554 0.2500892
0.24718964 0.25056052 0.2206751 0.24555247 0.24790137 0.24664088 0.24594182 0.25058058
0.24612339 0.2225348 -3.724688e-39 0.21766362 0.25069106 0.24736595 0.2208926 -2.294108e-39
0.24526809 0.24911743 0.24715771 -6.853214e-39 3.301887e-39 0.24932733 0.2502547 -4.855607e-39
0.24575636 0.25093934 0.2458569 0.25114787 0.24616045 0.24910834 0.24574499 0.24757119
0.24736625 0.24839789 5.821686e-39 0.25098202 0.24719694 0.24596022 0.24224247 0.24938306
0.24685134 0.24952003 0.24811012 0.24635291 0.24938019 0.2153916 0.24891198 6.149212e-39
0.24767166 0.25241768 -7.465939e-39 0.25324047 0.24741623 0.24640477 0.24960457 0.25227448

mlp.mlp.5.running_mean f4 [64]
00000000: 27b9 1b3b 4bb9 163b c2da 1a3b 88ef 183b
00000010: e7eb 1a3b 9c1b 7300 6563 193b 8518 1d3b
00000020: 53cc 193b 1c77 203b 05f9 7780 0137 193b
00000030: 0d48 1a3b 86e1 193b cf67 1c3b 0c54 203b
00000040: e984 163b 8a54 5b80 03ad 0180 eb4a 9600
00000050: ae46 1c3b eafe 193b a1bd 6b00 9434 3a00
00000060: b069 1a3b a576 1a3b b384 1c3b cb69 3300
00000070: 7e51 3700 e283 1f3b 1e95 183b 6c9f 1e80
00000080: f696 1a3b 4724 1e3b c993 173b b61b 203b
00000090: aac2 1c3b b7e3 183b bf67 193b 5ec1 193b
000000a0: 62d6 1c3b 8975 1e3b ba97 1800 d0a7 1b3b
000000b0: 0d48 183b 3641 1a3b bd8a 163b d4c5 1e3b
000000c0: a1c0 1a3b 3e12 183b ef27 1d3b 06a3 183b
000000d0: c67f 1b3b 9683 9380 2157 1b3b 3cfc 2700
000000e0: 3e33 1c3b 5d3e 1b3b ad97 3380 bdf4 223b
000000f0: f012 193b 2795 193b ccd8 1e3b 2811 1f3b
0.0023761482 0.0022998627 0.0023628925 0.002333613 0.0023639144 1.0570986e-38 0.002340519 0.0023970914
0.0023467734 0.0024485057 -1.1017755e-38 0.0023378732 0.002354148 0.002348037 0.0023865586 0.0024464158
0.0022967404 -8.387357e-39 -1.539e-40 1.38022e-38 0.002384584 0.0023497888 9.894424e-39 5.34532e-39
0.002356153 0.0023569253 0.0023882806 4.721562e-39 5.080186e-39 0.0024340083 0.002328224 -2.812255e-39
0.0023588515 0.002413051 0.0023128858 0.002443058 0.002391974 0.0023329088 0.0023407785 0.0023461203
0.0023931493 0.0024178943 2.258481e-39 0.0023751147 0.0023236305 0.0023537404 0.0022970878 0.0024226801
0.002361335 0.0023204233 0.00239801 0.002329053 0.0023727282 -1.3547022e-38 0.0023703056 3.672069e-39
0.0023834254 0.0023688294 -4.738021e-39 0.0024865114 0.0023357235 0.002343485 0.0024238108 0.00242717

mlp.mlp.5.running_var f4 [64]
00000000: cd13 e936 7e3f da36 435e e636 afbd e036
00000010: d2a0 e636 0400 0000 9a08 e236 b61e ed36
00000020: aa41 e336 fa6a f736 0400 0000 4a8c e136
00000030: 54b1 e436 3a86 e336 6012 eb36 dc00 f736
00000040: 62b4 d936 0400 0000 0400 0000 0400 0000
00000050: 05b8 ea36 a1e2 e336 0400 0000 0400 0000
00000060: cc27 e536 e643 e536 ac6e eb36 0400 0000
00000070: 0400 0000 f281 f436 cfba df36 0400 0000
00000080: 55a8 e536 b047 f036 d0be dc36 f353 f636
00000090: cd28 ec36 2d9e e036 f01a e236 3923 e336
000000a0: 4264 ec36 5d6d f136 0400 0000 95d1 e836
000000b0: 89d1 de36 a8b3 e436 86c0 d936 1647 f236
000000c0: fb35 e636 293d de36 2b45 ed36 92d2 df36
000000d0: 9154 e836 0400 0000 83ec e736 0400 0000
000000e0: 6180 ea36 8d83 e736 0400 0000 d229 ff36
000000f0: 5a1e e136 ecad e236 6a70 f236 f123 f336
6.9462462e-06 6.5042977e-06 6.8655077e-06 6.6978023e-06 6.873256e-06 6e-45 6.736326e-06 7.0667256e-06
6.7727715e-06 7.3736273e-06 6e-45 6.7218543e-06 6.815573e-06 6.780753e-06 7.005685e-06 7.3612737e-06
6.4881033e-06 6e-45 6e-45 6e-45 6.995166e-06 6.7915103e-06 6e-45 6e-45
6.829365e-06 6.8326362e-06 7.0164297e-06 6e-45 6e-45 7.2868943e-06 6.6676653e-06 6e-45
6.8443283e-06 7.160903e-06 6.5787244e-06 7.3411443e-06 7.038098e-06 6.6941343e-06 6.738461e-06 6.7692276e-06
7.0450196e-06 7.1950913e-06 6e-45 6.9385374e-06 6.6405087e-06 6.8158442e-06 6.4895166e-06 7.2204375e-06
6.8608183e-06 6.6232355e-06 7.0712026e-06 6.6704315e-06 6.9239836e-06 6e-45 6.91187e-06 6e-45
6.9886887e-06 6.899651e-06 6e-45 7.6044607e-06 6.709056e-06 6.755572e-06 7.2252487e-06 7.2461485e-06

mlp.mlp.8.weight f4 [1, 64]
00000000: f5d4 7d3e f282 7c3e 9c38 7f3e a1dd 7e3e
00000010: f877 7e3e 12f0 5f3e 1ffc 7e3e f925 813e
00000020: 1e3f 7f3e 8377 813e c4f8 613e 968e 7d3e
00000030: ecfa 7f3e a3ac 7e3e 5812 7e3e 8776 813e
00000040: 6900 7e3e 28e0 633e 6b0d 4500 49e3 5e3e
00000050: 1c6d 813e 5165 7f3e bd31 623e 5aee 3a00
00000060: ee46 7d3e 289d 803e 8c4b 7f3e 4cf1 0d00
00000070: 60a6 4800 39ce 803e 3926 813e 53c3 1c80
00000080: d4c9 7d3e 289e 813e facc 7d3e f2bd 813e
00000090: eb49 7e3e da93 803e 2cc0 7d3e c19c 7f3e
000000a0: 0e85 7f3e 0b4e 803e bbd5 0900 2e94 813e
000000b0: c531 7f3e f1f8 7d3e b715 7a3e 53d4 803e
000000c0: c0e7 7e3e 39c2 803e 0825 803e f355 7e3e
000000d0: d3c4 803e cc8f 5c3e 4e81 803e 5b38 4900
000000e0: 84d1 7f3e 2e50 823e 7edb 3380 87df 823e
000000f0: 3776 7f3e 0472 7e3e 77f0 803e 224c 823e
0.24788268 0.24659327 0.24923939 0.24889232 0.24850452 0.21868923 0.24900864 0.25224283
0.24926421 0.25286493 0.22067553 0.24761423 0.24998063 0.24870543 0.24811685 0.25285742
0.24804844 0.22253478 6.341463e-39 0.2176639 0.25278556 0.24940993 0.22089286 5.411963e-39
0.24734089 0.251199 0.24931163 1.280422e-39 6.67184e-39 0.25157335 0.25224474 -2.641463e-39
0.24784023 0.25315976 0.24785224 0.2534023 0.24832885 0.25112802 0.24780339 0.2496214
0.249531 0.25059542 9.03192e-40 0.25308365 0.2492133 0.24801995 0.24422346 0.2516199
0.24893093 0.2514818 0.25028253 0.24837475 0.25150165 0.21539229 0.25098652 6.724208e-39
0.24982268 0.25451797 -4.762349e-39 0.25561163 0.24947439 0.24848181 0.2518346 0.2544871
