model/dfm_epoch_15.pt (torch, 40519 bytes, 15 tensors)

embedding.embedding.weight f4 [398, 16]
000000 b1 08 c2 bd 71 68 c7 3d d9 81 c4 3c c9 ac ab bc
       -0.09474314 0.097367175 0.023987697 -0.020956414
000010 a0 14 1a 3e d9 15 3a bd 9b 23 d4 bc 72 ac 0e 3e
       0.1504693 -0.04543099 -0.025895884 0.1393297
000020 28 01 0f 3d bf 3c ea 3d e0 6a b3 3c 0b 5d 09 3e
       0.034913212 0.11437368 0.021901548 0.134144
000030 db bc 4a be 0b f2 75 3c f9 5f 10 bd f7 af 31 3c
       -0.19798605 0.015011321 -0.035247777 0.010845176
000040 dd 16 28 3d 62 16 08 3d 7c ee 82 bc 80 db 12 bd
       0.04103743 0.03322447 -0.015982859 -0.035853863
000050 67 18 db 3d 4e 64 fe bd 00 8a bf 3b 83 2b 18 3e
       0.10698014 -0.12421475 0.0058453083 0.14860348
000060 38 14 4b be 23 aa e6 3d 71 32 28 3e 30 d8 1f 3e
       -0.19831932 0.1126292 0.16425492 0.15609813
000070 32 c4 f7 bc 2b 16 16 3e 6f 3e 2b 3e f9 72 3c be
       -0.03024492 0.14656894 0.16723035 -0.18403234
000080 95 cf 1d be f5 09 30 bc 54 8a bf bd a9 8e d5 bd
       -0.15411218 -0.010744561 -0.09352556 -0.10427601
000090 3e da 3f bc 4c b0 b1 bd cc 96 70 bd f5 f7 87 3d
       -0.011709748 -0.08676204 -0.05873756 0.06639091
0000a0 4f 2d 25 be 83 55 86 bc 08 96 24 3e 0b 27 ed 3d
       -0.16130565 -0.016398197 0.16072857 0.115797125
0000b0 7a cb 1c be 2f ac 7e 3a a5 e3 09 3e 44 b9 23 be
       -0.15311995 0.00097149884 0.13465746 -0.15988642
0000c0 66 22 d6 bd 48 33 9c bc 79 32 e4 bc cc 98 9e bc
       -0.1045578 -0.019067422 -0.027856098 -0.019359969
0000d0 9e f7 f6 bc 99 4e 2e bd 84 02 30 bd 5b 5e 49 3d
       -0.03014737 -0.042555425 -0.04297115 0.04916225
0000e0 56 fb 17 bd 46 35 97 3d 3d c1 15 3e a0 4c 6f 3d
       -0.037104927 0.07383208 0.14624496 0.058422685
0000f0 7d f7 bc bd 60 e4 eb bc bf 59 cd 3d 1d b1 b7 bd
       -0.09226892 -0.028795421 0.10026883 -0.089693286
000100 11 45 4b be d9 8c 42 3d c8 62 6b bc c3 76 e2 bd
       -0.19850565 0.047497604 -0.014366813 -0.11057808
000110 a7 b6 27 3e 55 a7 27 be e8 65 c2 3d 00 cc e4 3c
       0.1637827 -0.16372426 0.09492093 0.027929306
000120 d0 33 19 be 27 ba 92 3d d4 52 63 3d 14 d0 73 3e
       -0.14961171 0.07164412 0.055498913 0.23809844
000130 5b 7b 1b be bd 5b 55 3e 13 fb 6d 3d 48 0a 24 bd
       -0.15183775 0.20835777 0.05810077 -0.040048867
000140 25 3e c2 bd 75 3f c9 3d 25 e8 a8 bc 62 27 94 3d
       -0.094845094 0.098265566 -0.020618508 0.07234074
000150 5c c9 c6 3d 1e 66 fe bc d6 cb 12 3e aa ed 1b 3e
       0.09706375 -0.031054553 0.1433557 0.1522738
000160 42 84 a7 bc 4c 7c 50 3e 4c db 2d 3d fb 0a 50 3e
       -0.020448808 0.20359915 0.042445466 0.20316689
000170 86 cd dd bd 37 92 17 3e b1 96 d8 3d d3 66 c1 3c
       -0.10830216 0.1480187 0.10575617 0.0236086
000180 94 68 3a bd 69 04 20 3d 99 06 2e 3d 37 59 cb bc
       -0.04550989 0.039066706 0.04248676 -0.024822814
000190 71 4a bb 3d e7 be 94 bc c9 bb 34 3d ba aa 01 3d
       0.09145058 -0.018157436 0.0441244 0.03165696
0001a0 de c5 ac bd ca b8 7b 3d 39 2d 26 bd 80 33 98 3d
       -0.08436178 0.061455525 -0.04057047 0.07431698
0001b0 ae 40 00 be 68 de 03 3d 94 85 7d bc ff 9c 8d 3c
       -0.12524673 0.032194525 -0.015473742 0.017286776
0001c0 69 e1 1a be a4 8a 96 3d 4b 91 9c bd cd 75 28 be
       -0.1512505 0.07350662 -0.076449 -0.16451187
0001d0 cb f4 2a 3d fb 69 ea bd 34 3c 6d bd 68 bd 81 3d
       0.04173736 -0.114459954 -0.057918742 0.063349545
0001e0 d9 32 93 bc eb 9b 3b 3e fa f2 3f 3e fd 27 10 3e
       -0.017968582 0.18321197 0.18745032 0.14077754
0001f0 8b 98 91 bc fd 28 0e 3e 12 c4 22 3e 09 86 8d bd
       -0.017772933 0.13882823 0.15895107 -0.06910331
000200 ad 5d a5 bd 37 cb 4b 3c 75 c8 e6 3d dd 93 61 3d
       -0.08074508 0.012438587 0.11268703 0.055072654
000210 f3 8b f1 3d 7c 58 77 bc f6 07 6f bd bf b8 af 3d
       0.11794271 -0.01509678 -0.0583572 0.085801594
000220 ff d3 50 3b 3e a0 cc bd 1d d6 52 3c 14 ac 5a 3c
       0.003186464 -0.09991501 0.012868431 0.013346691
000230 62 06 d7 bd 3e f1 3b bd e9 c2 5f 3d 08 78 ac bb
       -0.10499264 -0.045884363 0.05462924 -0.0052633323
000240 9f 62 77 bd b4 53 0b 3d 8c d6 b5 bd a8 6d 1a be
       -0.060396787 0.034015372 -0.08878812 -0.15080893
000250 d3 a6 5d 3d 97 16 29 be 5e ec 81 bc ea aa 8b 3c
       0.054114174 -0.16512524 -0.015859779 0.017049272
000260 5c db e7 3d c5 33 3b 3e e2 e1 02 3e ac 4c e4 3d
       0.11321136 0.18281467 0.1278148 0.111474365
000270 ab 6a d0 bd 61 02 f1 3c 83 62 11 3d 6a 71 52 bc
       -0.10176595 0.02942008 0.03549434 -0.012844423
000280 1c 04 e2 3c d4 c7 0f 3c 0e b5 67 3d 18 30 8a bd
       0.02758985 0.00877567 0.05656915 -0.067474544
000290 90 40 09 3d d7 da 01 be c3 11 a2 bd 03 8a 32 bd
       0.033508837 -0.12681137 -0.07913544 -0.04358865
0002a0 7e 04 d1 bd 56 5e cb bd 55 ca 5b bd 0f 49 43 3d
       -0.10205935 -0.099301025 -0.053659756 0.047677096
0002b0 a6 c3 82 bd 39 19 79 3a 7f d6 ac bd b9 9d ab 3c
       -0.06384973 0.00095023547 -0.084393494 0.020949231
0002c0 aa 13 04 3b 98 37 c6 3d f6 e0 9e 3d b3 47 81 3d
       0.0020153322 0.096785724 0.07757752 0.06312504
0002d0 e1 e8 33 3d ac 69 89 3c 91 0a 88 bd 50 f4 cd 3b
       0.043923263 0.016774021 -0.066426404 0.006285228
0002e0 e6 84 a1 bc fb 80 fc 3a 31 f8 92 bd a0 e9 ce 3d
       -0.019716691 0.0019264513 -0.07176245 0.10103154
0002f0 dc 16 c8 3c 3a f8 ab 3d 85 c7 37 3d 9c d4 b5 3d
       0.024424963 0.08396955 0.04486801 0.08878443
000300 18 3b 75 3e 78 18 b3 bd a0 d3 e8 3c 03 8a 4e 3d
       0.23948324 -0.087449014 0.028421223 0.050424587
000310 ea 76 81 3d b0 04 12 3e 7f 60 27 3e aa 74 0f 3d
       0.06321509 0.142596 0.16345404 0.03502337
000320 16 72 97 bd f3 37 11 be 2a 2f 04 be bd c3 ca bc
       -0.07394807 -0.14181499 -0.12908617 -0.024751538
000330 af 79 0c be c0 c4 de bd f3 af c2 bd ba 62 f9 3d
       -0.13718294 -0.10877371 -0.09506216 0.12177034
000340 8e 6c 29 bd 8e 0a 82 3c c8 7f a1 3d 5d 98 8f 3d
       -0.04136329 0.015874173 0.078857005 0.07011483
000350 df 9b 0f 3e e6 e8 58 bc 1a b2 24 bd ca c4 15 3d
       0.14024304 -0.013239121 -0.040208913 0.036564626
000360 c6 21 aa bb ac aa 83 bd 28 f0 fc 3c f6 a5 9d bc
       -0.0051920144 -0.064290375 0.030876234 -0.019244175
000370 5b 23 46 bd a0 9e 69 bd 90 e2 ec bc c3 3e e4 bb
       -0.04837356 -0.057036042 -0.028916627 -0.0069654896
000380 06 ed f6 bc 62 e0 d6 bc 65 5f 92 3c 2b ba 81 bd
       -0.030142318 -0.026230041 0.017867753 -0.06334337
000390 79 db 9a 3c 95 e3 16 be ba 62 37 bc 25 b0 78 3d
       0.01890348 -0.14735253 -0.011192972 0.06071486
0003a0 a3 44 57 bd 86 ae bf bc 5e fd ec bb 1a 2b bb 3d
       -0.05255569 -0.023398649 -0.007232352 0.0913908
0003b0 c1 6c 2a bd b9 11 1f 3d ee 10 63 3d 84 09 ce bd
       -0.041607622 0.03883526 0.055436067 -0.10060409
0003c0 4e dd 80 bd 41 17 de 3d be c1 51 bb ec a4 b1 bd
       -0.062922105 0.10844279 -0.0032006348 -0.086740345
0003d0 14 fe 57 3a 4a 85 6e 3c d4 cf c3 3b 08 9d 92 3c
       0.000823946 0.014558146 0.005975703 0.017897144
0003e0 be 1a 82 bd 13 3a b4 3b 5b 32 fb bb 64 46 9e bc
       -0.06352757 0.005500087 -0.007665915 -0.019320674
0003f0 32 b9 cb bb ce c1 ba bc 75 c1 7d 3b ab 72 a7 bd
       -0.0062171454 -0.022797491 0.0038720046 -0.08176168

linear.fc.weight f4 [398, 1]
000000 a8 68 9d 3e ec d3 81 be a5 77 c7 3e 10 c7 e3 3e
       0.3074391 -0.25356996 0.3895847 0.4448781
000010 ef 20 7f bf 1f 40 2e bf 3e 95 47 3e 94 29 bf bf
       -0.9965963 -0.6806659 0.19490525 -1.4934564
000020 04 05 b2 3e f3 ec 71 bf b2 8c d3 3e c5 aa a2 3e
       0.34769452 -0.9450218 0.4131828 0.31770912
000030 a5 dd 0b 40 e5 46 d6 3e 2e 87 88 be f0 db 7b bd
       2.185403 0.41850963 -0.26665634 -0.061489046
000040 46 f1 98 bf 7a ab e0 3d 74 16 97 3f 85 f9 ba 3e
       -1.1948631 0.109702066 1.1803727 0.36518493
000050 7d 85 9a bf fa bf 73 bf 72 a3 ea 3e dd 60 8b 3f
       -1.2071987 -0.9521481 0.45827824 1.0888935
000060 9c a2 9a 3f 93 4d fd 3d 0b 9d 1d 3f c3 be f5 be
       1.2080874 0.12368312 0.61567754 -0.47997102
000070 d9 c9 98 3f b9 4c fa be 01 e3 70 be fc d7 99 2f
       1.1936599 -0.4888666 -0.23524095 2.7984004e-10
000080 12 0e 3c 3d c0 db 7f bf 10 c5 db bd 40 49 11 c0
       0.045911856 -0.99944687 -0.10730946 -2.2700958
000090 b2 e3 91 3f 1e a0 ac be 2e 91 c7 3e 87 d9 2c bf
       1.1397612 -0.3371591 0.3897795 -0.6751942
0000a0 cc 84 09 3f fe d6 46 40 ce 9b 35 bf 7d ef 77 bd
       0.53718257 3.106872 -0.70940864 -0.06053113
0000b0 40 32 24 3c c1 0f ac bd 10 fd 1a 3b 3e cb b3 bf
       0.010021746 -0.08401442 0.0023649372 -1.40464
0000c0 77 b6 81 bf 81 8e d4 3e 49 2e a2 bf 12 59 bc 3c
       -1.0133809 0.41514972 -1.2670375 0.02299169
0000d0 16 ef b3 bf 82 d2 03 3e 12 be 83 3f 2e 4c b5 be
       -1.4057338 0.12873271 1.029238 -0.35409683
0000e0 47 a5 93 bf 8b 01 e5 3d 85 3a a0 3f 8e 50 03 3f
       -1.1534814 0.11181935 1.2517859 0.5129479
0000f0 16 c4 95 be 10 d3 2f b2 90 1e 1a bf bf 67 80 3e
       -0.29251164 -1.0234331e-08 -0.60202885 0.25079152
000100 18 34 d5 32 66 6f 8e be 30 88 0e c0 55 43 d7 3e
       2.4820153e-08 -0.27819365 -2.2270622 0.42043558
000110 2c 44 92 3e b6 21 e7 3e 9d bd c4 be 85 9d 68 bd
       0.28567636 0.45142907 -0.38425913 -0.056790847
000120 19 1f d5 3f 1c f3 f3 3f a3 34 43 3e 7f 44 f1 b5
       1.6650115 1.9058566 0.19063048 -1.7975834e-06
000130 ae 09 7c 3e 5b 76 3d 3f a9 86 49 be e4 a1 63 be
       0.24613068 0.7400872 -0.19680275 -0.22229725
000140 d0 01 93 3f 2f 79 5f 3e 81 37 2e bf 14 f6 32 c0
       1.1484928 0.21823572 -0.6805344 -2.7962694
000150 ff b6 93 b0 05 67 30 bf 41 75 06 be f3 df 8a bf
       -1.0747668e-09 -0.68907195 -0.13130666 -1.0849594
000160 19 fa 4b 3e 28 f2 20 3f 49 62 ed 3f fe ab de 3e
       0.19919623 0.628695 1.8545619 0.43490595
000170 87 9a ee bf 4a 60 9b b5 d7 ea 0c bf 6b 2e 09 b9
       -1.8640908 -1.1576424e-06 -0.5504584 -0.0001308263
000180 46 55 f4 bd c7 67 30 bf 3a 7b 4b 3e b3 d5 db 3e
       -0.11930327 -0.6890835 0.19871226 0.42936477
000190 41 73 39 3f 78 61 0b bf 40 bc 56 be bd ae 90 3e
       0.7244149 -0.544456 -0.20970249 0.28258315
0001a0 78 19 00 bf 7a 24 75 3f 03 dc 8a bc e6 3b 61 bf
       -0.5003886 0.95758784 -0.016950613 -0.8798202
0001b0 4c f3 1b bc 1c 97 0d bc d4 59 fa 3e 19 72 be bf
       -0.009518456 -0.008641984 0.48896658 -1.487857
0001c0 84 b4 e9 be ba ba 04 3e 05 67 dd 3e 89 f1 30 bf
       -0.45645535 0.12961856 0.4324266 -0.69118553
0001d0 7c da 95 3c 12 5b f8 3e 6c 41 dd 3e 5e 5f 83 bf
       0.018292658 0.4850698 0.43213975 -1.0263479
0001e0 e3 aa 0a 40 a2 2c 36 bf d3 6e 92 be 10 56 21 bf
       2.16668 -0.71161854 -0.28600177 -0.63021946
0001f0 4e a2 a3 3f 13 20 a1 bf 8d 7f 17 3d 2a 75 f1 3e
       1.2783906 -1.2587913 0.036986876 0.47159702
000200 a1 11 87 b3 0e 36 5a bf d1 85 89 be 3a 2c 44 3f
       -6.289634e-08 -0.8523873 -0.26859906 0.76629984
000210 09 1d 18 3f 62 80 24 c0 a6 23 19 be 91 fa 9f be
       0.59419304 -2.5703359 -0.14955005 -0.31245854
000220 89 45 ca bf 8b ad 33 bf a2 ec 7f bf 32 e1 56 bf
       -1.580247 -0.7018668 -0.9997045 -0.8393737
000230 10 69 b0 be 2f 31 cb be 0a 3a b3 bf 7f 7d 2f 3f
       -0.34455156 -0.39685962 -1.4002087 0.68550867
000240 21 8b a3 bf 64 d3 51 3f ff d6 23 3e ad cc 26 3f
       -1.2776834 0.8196318 0.15999983 0.6515606
000250 f1 74 c8 bf 05 6a 0f 3f 8d 11 31 3d cf 09 09 3f
       -1.5660688 0.5602115 0.04322963 0.5353059
000260 f8 62 f5 3e b3 e5 c0 3d b7 b6 5d 3f 7d 37 ea bf
       0.4792707 0.09418812 0.86606926 -1.8298184
000270 98 b3 26 bd 7c ef a8 be 95 9a 15 bf 70 a9 59 be
       -0.040698618 -0.32995212 -0.58439 -0.21256042
000280 7a 84 a4 3e 46 10 df 3e 63 85 0f 3f f0 b6 16 bf
       0.32132322 0.43567103 0.56062907 -0.5887289
000290 f7 4c 4f bf 63 49 42 bf 7b f1 7e be 45 83 c1 3f
       -0.80976814 -0.7589323 -0.24896805 1.5118185
0002a0 5d a8 7a 3e 4c 16 2f be 2f e7 24 bf 2c 0e 6f bf
       0.24478288 -0.1709835 -0.6441526 -0.93381
0002b0 9d 5d a0 3f 5f 2d 43 bf 88 fe c1 3e 73 03 87 3f
       1.2528569 -0.76241106 0.37889504 1.0547928
0002c0 4b 4e 91 3c 7a e3 86 3e 47 f1 0f bf a9 8d dd be
       0.017737528 0.26345426 -0.56227535 -0.4327214
0002d0 f8 80 30 3f 98 1d 8a 3d 68 78 e6 3c 08 ea 07 be
       0.6894679 0.06743926 0.028133586 -0.1327287
0002e0 cb af 11 3f e5 8f f5 3d 7a 8e a2 38 1b 52 ab 3e
       0.56908864 0.11990336 7.7513e-05 0.3346108
0002f0 64 1e 97 bd a5 d2 5d 3e a1 d7 81 3e db 02 82 be
       -0.073788434 0.21662386 0.25359824 -0.25392804
000300 e0 4c 5d bf fb 6b ad 3b 0f 32 82 32 c9 0a 82 bf
       -0.86445427 0.0052924133 1.5156756e-08 -1.0159541
000310 c9 22 eb 3e 79 88 3f bf 70 51 c4 bd 47 47 85 33
       0.45924976 -0.74817616 -0.095858455 6.2062604e-08
000320 3f 93 31 3e 05 c7 10 3f ac e4 92 3f 17 57 a0 ba
       0.17341326 0.5655368 1.1476035 -0.0012232986
000330 5f e6 d7 bf 86 b9 74 3d 2a f3 d1 3e 03 49 80 3f
       -1.6867179 0.05974724 0.41005832 1.0022281
000340 c4 f2 57 3f 16 e9 fa bd 9a 7a 58 3c bb 42 a9 3e
       0.84354806 -0.12251489 0.013212824 0.33058724
000350 c6 ed cd bf 5f bc 4d be cf 71 3e 32 50 fb ed 3e
       -1.6088188 -0.20091389 1.1085333e-08 0.464808
000360 13 c6 16 bf 0a c7 40 3f f2 d4 45 3f 64 28 9e 37
       -0.5889599 0.7530371 0.77278054 1.8853876e-05
000370 36 ae 65 3f ac 12 61 3f f7 b3 91 3e 3b ff 99 be
       0.8971895 0.87919116 0.28457615 -0.30077538
000380 ce 65 9b bf c6 d9 39 be 6b bc 0f 3f 32 1b 9d 3e
       -1.2140443 -0.1814948 0.5614688 0.3068481
000390 a3 9a 4a 3f 3b a8 77 3e c0 c9 45 3f fa 2b e4 be
       0.79142207 0.24185269 0.7726097 -0.445648
0003a0 75 57 84 3f 40 ce b5 bf 7b e0 84 3e 56 8d 85 3f
       1.033919 -1.4203568 0.25952515 1.0433757
0003b0 72 cf 57 3f a6 14 37 be 86 d9 04 bf 5e 96 16 3e
       0.8430091 -0.1787897 -0.51894414 0.14705798
0003c0 20 a9 cc be 41 1d a1 3f d2 81 b7 3f 10 fd a2 bf
       -0.39972782 1.2587053 1.4336493 -1.2733479
0003d0 1c db 8d bf cb 87 bd be 17 9b a6 3e 96 2a 8a 3c
       -1.1082492 -0.37017664 0.325402 0.01686601
0003e0 64 f7 d8 bd e3 bf 0c bf 9b c4 d8 be 59 2c 1e 3f
       -0.10594061 -0.54980296 -0.42337498 0.6178642
0003f0 87 e8 43 bf 8b bd 5a b3 22 61 fd 3e 08 88 34 3d
       -0.76526684 -5.092947e-08 0.4948817 0.044075042

mlp.mlp.0.weight f4 [16, 80]
000000 ad be 70 3d 0c c2 22 3d 6c 0e d3 3d 54 79 01 3d
       0.058775593 0.03973584 0.10305485 0.03160985
000010 d4 ad d7 3d ca f8 eb 3d d4 e8 3c 3c 67 9d 1e bd
       0.10531202 0.11522062 0.01153012 -0.03872433
000020 2d 32 8e bd b8 c0 6d 3c 14 bf d1 3c 6d 8f 66 bd
       -0.06943164 0.01451128 0.025603808 -0.056289125
000030 78 bd 9b bd 87 0f c6 bb 55 36 46 bd 28 54 ee bc
       -0.07604498 -0.0060443315 -0.04839166 -0.029092863
000040 20 bd 68 3d 32 d1 39 3d 89 89 04 be 46 e3 5b 3d
       0.05682099 0.04536552 -0.1294309 0.05368354
000050 b8 7b dd bc 2a d5 6f 3d 63 46 bd bd 25 1e a4 3c
       -0.027036533 0.0585529 -0.09241941 0.020033905
000060 5e e9 74 3d 5c 14 90 3d 07 e7 d0 3b 3a 9b 80 bd
       0.05979287 0.07035133 0.006375197 -0.06279607
000070 a5 c6 38 bd cf ce 23 bd a4 e6 19 3e 42 63 03 be
       -0.045111317 -0.03999215 0.15029389 -0.12830833
000080 b5 2d 82 3d 64 d4 99 3d b4 99 f2 3d 0b 0f f5 3d
       0.06356374 0.075112134 0.11845723 0.1196576
000090 ae 7b 3a bc 05 a4 c5 bc 4f 6f 07 3e 59 9b 30 bd
       -0.011382027 -0.024126062 0.13226055 -0.0431169
0000a0 1a 39 85 3c ec 8d a8 bd 79 49 75 3d 2f 0d f9 bd
       0.01626258 -0.082301944 0.059884522 -0.12160718
0000b0 23 e1 71 bd 9b b3 85 bd a2 d0 fa bd bf 53 d2 3d
       -0.059052598 -0.06528398 -0.12246825 0.102698795
0000c0 84 f4 f4 3d 15 31 88 3d 93 ff 8d 3d 02 96 8c 3b
       0.119607 0.06649987 0.069335125 0.0042903433
0000d0 dc e0 18 3e 72 87 94 3d c5 43 2c bd 48 e9 74 3b
       0.14929527 0.07252397 -0.042056818 0.0037370492
0000e0 b7 59 b5 bc 22 54 5f 3b 2a 15 5f bd fa 5d 90 3b
       -0.022137506 0.0034077247 -0.054463543 0.004405734
0000f0 6b 3b cd 3d bd b3 45 3d a3 8b 4a bb 51 7d 09 3d
       0.10021099 0.048267115 -0.0030905984 0.033566777
000100 cf 73 08 be 99 5e 06 3e d9 d3 99 3d b5 02 77 bc
       -0.13325427 0.13122024 0.0751111 -0.015076329
000110 1a f9 9a 3c 88 75 67 3d de 78 2b 3d c0 24 11 bd
       0.018917609 0.05650857 0.041863315 -0.03543544
000120 8a 7d bb 3d 7a 85 f5 bc 8f 82 a1 3b 62 c4 4d bd
       0.09154804 -0.029970873 0.004928894 -0.050236113
000130 a3 f4 18 3d 3a 0c 8e bc 3e a8 00 bc a3 e5 42 3d
       0.03734268 -0.017339814 -0.007852612 0.04758228
000140 42 75 20 bc ca a3 cc 3c 21 0b 8e bd 04 14 05 3d
       -0.009793581 0.024980444 -0.069357164 0.03248979
000150 68 c2 fa bb 9e 2a 66 3d 95 04 9c 3d c9 c5 ee 3a
       -0.0076525696 0.056192987 0.076180615 0.0018216904
000160 90 72 10 3d 6f 17 2b 3b 30 b9 d4 3d 06 bf e8 3d
       0.035265505 0.0026106497 0.10386884 0.1136456
000170 39 84 fe bb f5 ed 86 3c c0 c1 32 bc f6 76 70 3d
       -0.007767227 0.016470889 -0.010910451 0.0587072
000180 2c 74 f7 bd 74 37 b9 bd 00 6f 22 3d d3 40 9c 3d
       -0.12082705 -0.0904378 0.03965664 0.07629552
000190 7e ca 96 bd 4e 0d f9 3d d5 b0 a2 bc ec 6f 79 bd
       -0.07362841 0.12160741 -0.01985971 -0.060897753
0001a0 57 cd 53 bc af 78 28 3c 21 c6 05 3e 92 15 29 bc
       -0.012927375 0.010282679 0.13063861 -0.010320084
0001b0 b9 7f 24 bd 3a 04 0c 3c ac a3 25 3d ab ae 2f bd
       -0.04016087 0.00854593 0.040439293 -0.042891186
0001c0 4c 06 f4 3d 16 be 64 bd d5 d8 25 3c 6e e5 68 3d
       0.119152635 -0.055845343 0.010122498 0.056859426
0001d0 d4 f0 59 bb 26 16 03 3e 54 6f 97 3d aa f8 49 bd
       -0.0033255117 0.12801418 0.07394281 -0.04930941
0001e0 c0 36 a0 bd 42 42 37 bc 58 fa 25 3c ad 41 13 bd
       -0.07822943 -0.011185231 0.010130487 -0.035951305
0001f0 87 9b 84 3d ed 76 bf bd 0c e9 7a bd 3d 2d e0 3d
       0.06474977 -0.09348855 -0.061257407 0.109461285
000200 c3 18 38 bd dd b8 b9 bc fa 12 af bd d6 84 84 3d
       -0.04494549 -0.022671157 -0.08548541 0.06470649
000210 08 e4 b8 3c f1 22 81 3d 1c 5c 95 3b 7c 88 03 bd
       0.022569671 0.06305493 0.0045580994 -0.032112584
000220 16 9c db 3d a2 be 6d 3d 75 9c 29 3c ca 4a 34 bc
       0.107231304 0.05804313 0.010352244 -0.011004159
000230 24 9b dd 3d 68 82 c5 3d 41 4b 33 bd 69 a3 9a 3c
       0.10820606 0.09644014 -0.04377294 0.018876748
000240 7a 55 f0 bd 49 fd bb 3d d8 13 88 3d df 67 0a be
       -0.11735053 0.0917917 0.0664441 -0.13516186
000250 6d c7 82 bd c1 e6 97 bb a5 6a 42 3d 45 0a 04 be
       -0.06385694 -0.0046356623 0.047464985 -0.12894543
000260 c7 5b 3f bb 03 52 6d bc 84 e9 8a bc cf de dc bd
       -0.002919899 -0.014484885 -0.016957052 -0.10784685
000270 ec c5 ea 3c 1b d2 6a 3d 3f 9a 22 3c 46 6e b4 bd
       0.02865883 0.05732928 0.00992447 -0.088100955
000280 7b 62 55 3d 1e b6 8e 3d 7b 9a 7d 3d 63 f3 90 3c
       0.05209587 0.0696833 0.061914902 0.01769418
000290 d8 1f 8d 3d 48 09 91 3d 0f 56 be bc 70 ab c0 bd
       0.06890839 0.070818484 -0.023234395 -0.09407699
0002a0 eb 6e ba bd 36 b8 8b bd d1 7f 1c bc a0 d3 b8 3d
       -0.09103187 -0.06822245 -0.009551958 0.09024739
0002b0 bf 69 e8 bd bd 48 24 3d 9e 16 5d bd aa 5e 9e bd
       -0.113482945 0.04010843 -0.053976648 -0.077328995
0002c0 04 0a 9f 3d 85 6c 9d 3d 82 b6 b6 3d 0f b0 ae bd
       0.07765582 0.07686714 0.08921529 -0.08529674
0002d0 ec 63 b2 3d 13 94 6c bd 36 e2 5a 3c 2f 7e 98 bd
       0.08710465 -0.057758402 0.013359597 -0.074459426
0002e0 69 6a 94 3d de 2b 49 3d 40 5c 52 bc 4d ef 52 3d
       0.072468586 0.0491141 -0.012839377 0.051497746
0002f0 52 79 9e 3a 03 3c 70 3d be 89 b7 3d 6d 91 34 3d
       0.00120906 0.05865098 0.08961819 0.044084
000300 32 57 04 be 1a d2 a6 3d 5d 95 bc bd 40 7e 86 3d
       -0.12923887 0.081455424 -0.09208176 0.06567049
000310 e4 44 03 be b3 f4 08 3d 8c 98 2f 3d bc 0a 8d 3d
       -0.12819248 0.03343649 0.04287009 0.06886813
000320 7c 5d 98 bd 07 b5 c9 3d bf 63 ba 3d 29 c8 0f bc
       -0.07439706 0.09848981 0.09101056 -0.008775749
000330 13 a7 5b bd 14 1b c1 bd f9 35 0c 3e a8 91 c9 bd
       -0.05362613 -0.09428993 0.13692464 -0.09842235
000340 57 d2 01 bc 46 a8 83 bd 96 52 67 bd ee 17 8d bd
       -0.007923684 -0.0642858 -0.056475244 -0.0688933
000350 9c e7 5d bd 3a 34 25 bc bf 51 23 3d 45 14 16 3d
       -0.054175958 -0.010083253 0.03987288 0.036640424
000360 e9 7d ae 3c 2b 3b d7 bc 37 85 f7 3d 36 04 bb bd
       0.021300273 -0.02627333 0.120859556 -0.091316625
000370 ac b0 fb bd 35 e4 d2 bd 52 b4 b6 bc db aa f2 3d
       -0.12289557 -0.10297433 -0.02230278 0.11848994
000380 fe 3c e1 3d 96 7d a5 bd 1b bf 2f bd 03 e7 08 3d
       0.109979615 -0.08080594 -0.04290686 0.033423435
000390 f2 35 82 3c 74 5b 6a bd 14 68 10 bd fa 8a 92 bc
       0.015894864 -0.057216123 -0.035255507 -0.017888535
0003a0 e1 cc ca bd 5e 39 93 3d f0 35 5f bb e5 d6 fd 3d
       -0.09902359 0.07188676 -0.003405925 0.123945035
0003b0 46 90 b0 bd a8 3c eb bc cf 16 24 bd a3 b3 5c 3d
       -0.08621268 -0.028715447 -0.040060814 0.053882252
0003c0 cd 1e 7e bd 5c 7f a1 3c f0 1b b0 bd 3a a6 76 3d
       -0.062041093 0.01971405 -0.08599079 0.06021712
0003d0 4d 2c 2d bc 26 2c af 3d 58 2f 23 bd cb 2e 99 bd
       -0.010569644 0.085533425 -0.039840072 -0.07479628
0003e0 9f 89 cf bd cb 8b 75 3d db 9d a4 bc 1a e6 52 bd
       -0.10133671 0.05994777 -0.020094803 -0.051488973
0003f0 9a be 7a 3c 43 7d 58 3d d8 90 28 bd 4d be 8c 3c
       0.015304232 0.052853834 -0.04115376 0.017180586

mlp.mlp.0.bias f4 [16]
000000 47 1c 5a b7 a8 ff a1 b7 69 9e 13 b9 a7 f2 31 39
       -1.3000396e-05 -1.9311745e-05 -0.00014078025 0.0001697043
000010 5d 60 d0 b8 ce 7b c0 ba 2a 80 f8 38 54 02 c5 b8
       -9.936162e-05 -0.0014685334 0.00011849434 -9.394126e-05
000020 e7 d8 c3 3a c5 f0 e8 3a 0b d7 12 ba 4b f3 c3 b8
       0.0014941961 0.001777195 -0.0005601502 -9.3436414e-05
000030 6f 2a dd 3a ea 6f 62 ba b8 f6 c6 38 55 85 81 39
       0.0016873608 -0.00086378923 9.487331e-05 0.00024704137

mlp.mlp.1.weight f4 [16]
000000 b9 7a 80 3f 80 00 86 3f 0e 10 5f 3f ee c3 90 3f
       1.0037452 1.0468903 0.8713387 1.1309793
000010 b7 2b 75 3f 06 b0 6b 3f fc b7 89 3f e8 cc 5f 3f
       0.9576983 0.92065465 1.0759273 0.8742204
000020 5a 79 74 3f 28 9c 76 3f 00 de 78 3f 85 98 89 3f
       0.9549767 0.96332026 0.97213745 1.074967
000030 5e 93 8c 3f a8 c5 6a 3f 08 e4 7b 3f 0f 49 65 3f
       1.0982473 0.9170785 0.98394823 0.89564604

mlp.mlp.1.bias f4 [16]
000000 4b 6d ef bc 57 90 64 bd a6 08 44 be f0 e9 7a 3d
       -0.02922692 -0.055801716 -0.19143924 0.061258256
000010 69 26 7a bd d9 cd 05 be aa 29 0b 3d 02 1f 42 be
       -0.061071787 -0.13066806 0.03397528 -0.18957141
000020 c3 5c 12 3c cd ea ce bd b8 34 42 be d4 20 4e 3c
       0.008933249 -0.101033784 -0.18965423 0.012581069
000030 a9 4b c6 3c 04 1a 17 be 56 58 bf bd 30 54 0f be
       0.024206 -0.14756018 -0.093430206 -0.13996959

mlp.mlp.1.running_mean f4 [16]
000000 cc 74 c6 bc 72 72 f6 3b 11 aa a1 3c 79 c2 48 3a
       -0.024225615 0.007520967 0.019734414 0.0007658373
000010 5b 49 19 3a 39 a9 10 3d 3c ce 44 3b a8 b5 51 39
       0.00058474176 0.035317633 0.0030030152 0.00019999465
000020 a4 20 07 3b 3b bd 21 bd da d7 28 bc 33 69 d8 3c
       0.002061882 -0.039487105 -0.010305369 0.02641735
000030 05 fd 2a 3d be dc a9 bd 14 e5 ac bc b1 5b b3 bd
       0.041745204 -0.08294056 -0.021105327 -0.08757723

mlp.mlp.1.running_var f4 [16]
000000 c0 76 a8 3b 8a f0 7f 3b 04 3a 61 3b 5f 25 2a 3b
       0.005141109 0.0039053285 0.0034366855 0.0025962216
000010 83 2c 1f 3b bb 65 3d 3b cf 94 e7 3a d3 85 1c 3b
       0.0024288006 0.0028899747 0.001766825 0.0023883476
000020 ab 0e 08 3b 1d 1b 3f 3b 37 91 68 3b 38 5b 33 3b
       0.0020760696 0.0029160448 0.0035486945 0.0027367603
000030 4a 48 19 3b f9 89 e2 3a 1f 9b 44 3b 0d b7 43 3b
       0.0023389035 0.0017283551 0.0029999686 0.0029863745

mlp.mlp.4.weight f4 [16, 16]
000000 29 08 96 be 5c 4f a6 bd 0e 5f 31 3d 54 73 7c bd
       -0.293031 -0.08120605 0.04330354 -0.061633423
000010 bd 75 18 3e f7 ad a3 3d a7 8f 86 be 06 93 46 3e
       0.14888664 0.079921655 -0.26281473 0.19392022
000020 c0 09 2b 3e a9 72 15 3d 56 b2 03 be 5e 26 82 bc
       0.16702938 0.0364863 -0.12860999 -0.015887436
000030 15 ba 8c be 9a 2e f4 3d 3f 17 c0 bd 62 87 dc bd
       -0.2748572 0.11922951 -0.09379434 -0.1076801
000040 35 f3 25 be 0d af a1 b9 1d 71 4b 3e 87 f5 81 bd
       -0.16206057 -0.00030838736 0.19867368 -0.06345659
000050 aa 85 31 3e f7 e8 56 3e 8f 99 80 be 5a 8b c1 3d
       0.17336145 0.20987307 -0.25117156 0.09450407
000060 3a ca 45 3e 16 65 d3 3d 74 29 03 be 24 96 49 be
       0.19315425 0.10322015 -0.12808782 -0.1968618
000070 5a c1 92 3d 94 ca bc 3d 3d e3 2a be a1 7a 21 3e
       0.07165785 0.09218326 -0.16688247 0.15769435
000080 76 81 7d 3e 36 66 84 3e d8 c0 b5 3d 13 ca e4 bd
       0.24756417 0.2585923 0.08874673 -0.11171355
000090 f6 e2 3d be 6a e5 a3 3c 38 b8 81 3d fb df fd bd
       -0.1854361 0.020006854 0.06333965 -0.123962365
0000a0 fd d8 d1 bd 4f 5e 21 be 6c 63 f0 3d 04 61 e7 bd
       -0.10246465 -0.15758632 0.11737713 -0.11297801
0000b0 e8 73 8f 3e b9 a1 b4 3d a2 72 41 bd f9 14 06 3e
       0.28018117 0.08819909 -0.047228463 0.13093938
0000c0 a5 a4 b0 3c dc fc 65 3d e5 90 f6 3d c1 1e ac 3e
       0.021562884 0.05614935 0.12039355 0.33617213
0000d0 c8 16 ef 3d 92 86 16 be 90 64 42 3e 9c 8c 7c 3d
       0.11674267 -0.14699772 0.18983674 0.061657533
0000e0 30 f2 96 bd ae f2 09 3e 1e 16 0b be d4 76 84 3e
       -0.07370412 0.13471481 -0.13582656 0.2587191
0000f0 c8 d3 06 3e 2d 13 20 3d bc 49 18 bc fc d9 92 be
       0.13166726 0.039080787 -0.009294923 -0.28681934
000100 1a 50 a4 bd e1 75 7d bd d0 1d 3a be aa 05 e4 bd
       -0.08023091 -0.061879996 -0.18175435 -0.11133893
000110 78 dc 71 bd 6e e2 64 3e bf 57 65 be c4 9b 79 3e
       -0.059048146 0.22352001 -0.22396754 0.24375826
000120 54 8d a5 3b e6 28 f8 3c 9f db 27 be 6f 2f 18 be
       0.005052248 0.03029294 -0.16392373 -0.14861844
000130 77 5d c5 bd c3 b1 d2 3d 56 18 a8 3d 7e 77 35 3e
       -0.09636968 0.102878116 0.08207767 0.17721364
000140 20 ec fe bd 03 d5 8a be 8f 53 91 3e 2f a8 9f 3a
       -0.12447381 -0.2711564 0.28384063 0.001218086
000150 d0 d1 29 be 79 8a 8b 3e 35 3f 97 bc 41 7e e8 3d
       -0.16583943 0.27254084 -0.018462757 0.11352206
000160 2f 03 91 3e a2 c4 2e 3d 67 6d 5c be bb a9 c7 bd
       0.2832274 0.042667992 -0.21526109 -0.097491704
000170 e3 91 8e 3d 1f 7c 89 3d f5 c3 c8 3d fd 42 f9 3c
       0.069614194 0.06713127 0.09803001 0.03042745
000180 76 96 4a be d9 22 84 be 6e 6f 7e 3c a1 02 e5 bc
       -0.19783959 -0.25807837 0.015529497 -0.027955355
000190 c3 a4 1a 3d f8 18 32 bd f9 61 d0 bd 28 f1 bd 3d
       0.037754785 -0.043480843 -0.10174937 0.092745125
0001a0 9b 83 61 3d ad db 0f 3e f5 0b 6a be db 84 27 bd
       0.05505715 0.14048643 -0.22856124 -0.040898185
0001b0 44 17 a0 bc 27 9d 59 bd f9 a3 b4 bd 7e 5e 0e 3e
       -0.019542344 -0.053128388 -0.08820338 0.13903233
0001c0 32 d8 04 3e 5b 0a f1 bd d0 54 81 3e 99 ba 21 be
       0.12973097 -0.11769553 0.2526002 -0.15793838
0001d0 46 d3 dd 3c 63 4c 64 3e 32 1a 58 bd 49 6c 8e bd
       0.027078282 0.22294764 -0.052759357 -0.069542475
0001e0 60 bf 03 3c 0c fe a3 3d 89 20 8a be 3a d6 64 be
       0.008041233 0.0800744 -0.26977947 -0.22347346
0001f0 45 6d 88 be e7 0b 22 3e e0 25 66 be 1b 8f ec bd
       -0.26645866 0.15824853 -0.22475386 -0.11550733
000200 78 57 30 3d 50 ee 49 be 5b cc 62 3e 72 d4 bd bc
       0.043052167 -0.19719815 0.22148268 -0.02317259
000210 8b 4a b7 bd a3 d9 d7 3b 7c b1 05 bd 52 61 06 bd
       -0.08949765 0.0065872236 -0.032639965 -0.032807656
000220 b0 47 44 bd 4f 54 20 be aa 7e 11 be 28 71 73 bd
       -0.04791993 -0.15657161 -0.14208475 -0.059434086
000230 d3 76 83 be f2 a0 10 3e 9e df 16 3c ba 4d 88 3e
       -0.25676593 0.14123896 0.009208588 0.266218
000240 79 77 9a 3e 36 a3 40 bd d5 f0 03 be 48 7e 6f 3e
       0.30169275 -0.04703065 -0.12884839 0.23388016
000250 64 e6 66 3b 60 ce 0d be bf 0a 07 3e d8 cf b4 3c
       0.0035232538 -0.13848257 0.13187693 0.022071764
000260 68 4c 2c bd 5d 2c dd bd e4 c7 b6 3d 4c 8b 45 bd
       -0.042065054 -0.10799477 0.08924845 -0.048228547
000270 d7 9e 92 bd de 55 d2 3b 47 30 81 3d 91 10 36 3e
       -0.071592025 0.0064189276 0.06308036 0.17779757
000280 1c 64 93 bc f0 12 e9 3d b9 a0 c1 bd 5c 8b 46 bd
       -0.017992072 0.11380565 -0.094544835 -0.048472747
000290 d0 3a 83 ba ea 6a 06 bc 26 ca af bd 53 10 c6 3d
       -0.0010012034 -0.008204201 -0.08583479 0.09671082
0002a0 06 81 4f be 25 6e ea bd 16 90 8b 3e 89 29 53 3e
       -0.20264062 -0.1144679 0.27258366 0.20621313
0002b0 1f 50 6e 3e 8d 4a a1 bd 3b bf 9a 3e c7 06 f0 bd
       0.23272751 -0.078755476 0.30224022 -0.11720043
0002c0 26 a9 7f 3d e1 cb 89 be 08 69 51 3e 13 e8 5c be
       0.062417172 -0.2691336 0.20450222 -0.21572904
0002d0 d7 01 1f 3e 45 3f 01 3d a4 a6 3d be b6 9f 2d 3d
       0.15528046 0.03155448 -0.185206 0.04238864
0002e0 0c 1a 70 3d 3b fd 16 3e 44 44 39 3d 18 bc 0b be
       0.05861859 0.14745037 0.04523112 -0.13645971
0002f0 c5 1d 09 be aa 5e 11 be 8d 2e 87 be 0b c5 65 bd
       -0.13390262 -0.14196268 -0.26402703 -0.056096118
000300 a1 0e 63 be e6 64 77 be 94 5d 52 3e 7a 57 c5 bb
       -0.22173549 -0.24159583 0.2054351 -0.006022391
000310 13 53 30 3e 61 d1 95 bc 41 fb 5f be c0 df 8b 3d
       0.1721919 -0.018288316 -0.2187319 0.06829786
000320 a6 3f 45 be 96 27 43 3e 21 0e 8d be a8 e2 65 be
       -0.19262561 0.1905807 -0.27549842 -0.22449744
000330 19 90 e0 3d b3 98 17 3e 64 82 4b be af af 3f 3d
       0.109649844 0.14804344 -0.19873959 0.046798404
000340 75 e1 c6 bd 5e ae cb 3d 83 3d f5 3c 42 68 9f be
       -0.09710971 0.09945367 0.029936558 -0.3113423
000350 25 43 92 3e de 28 0d be 2f 9b c6 bd 1e 76 ac bd
       0.28566852 -0.13785121 -0.09697568 -0.084209666
000360 a1 31 27 3c 25 74 13 3e 45 af 03 3e 3e 51 18 be
       0.010204704 0.14399774 0.12859829 -0.14874741
000370 0c 19 69 bd 16 4f 1e 3e da dc 8e be 08 28 83 bd
       -0.056908652 0.15459856 -0.2790287 -0.0640412
000380 42 bc eb bd 09 2b 0b 3e ed af 03 be 74 67 4e 3e
       -0.11510517 0.13590635 -0.12860079 0.20156652
000390 38 0e 40 bd 50 8e 04 bd 38 95 c1 3d 95 26 f5 3c
       -0.04688856 -0.032362282 0.09452289 0.029925624
0003a0 05 5d 56 be 97 52 6b bc 6f 48 84 3e 66 2a 0b 3e
       -0.20933922 -0.014362953 0.25836512 0.13590392
0003b0 28 74 76 bc 3d 8a 49 be 2b 5a 75 3e 2c b3 a1 bd
       -0.015042342 -0.1968164 0.23960178 -0.078955024
0003c0 44 ce 20 3e 27 18 b3 3d 93 ae df bc f3 62 3d bc
       0.15703684 0.08744841 -0.027304923 -0.011559236
0003d0 aa 19 cf bd a6 86 ae bd 7b ad 9e 3d 7a d7 9b bc
       -0.10112317 -0.08521776 0.077479325 -0.019023646
0003e0 d4 25 a9 bd 8b 13 f5 bd e4 34 7d 3e 2f 81 38 3e
       -0.08259168 -0.11966618 0.24727207 0.1801803
0003f0 2c ba 48 3d 2a 42 6b 3d ad 5c 61 3d 00 d5 89 bc
       0.049005672 0.057436146 0.055020023 -0.0168252

mlp.mlp.4.bias f4 [16]
000000 72 20 e9 3a 29 f4 c3 bc 24 d9 5f bc 89 f8 0a bb
       0.0017786159 -0.023920136 -0.01366261 -0.0021205267
000010 c5 41 42 ba 69 c4 b5 39 d3 60 95 bc 98 ea f2 b9
       -0.0007410313 0.00034669347 -0.018234646 -0.00046332623
000020 b5 0e aa bb d3 3b cc 3c c9 66 7f bc 8c 1e 86 b8
       -0.0051897415 0.02493087 -0.015588471 -6.395308e-05
000030 cb fc 54 bb 97 7e cf 3a 2a 1c df 3a 28 ab f0 b5
       -0.003249931 0.0015830573 0.0017021943 -1.7931206e-06

mlp.mlp.5.weight f4 [16]
000000 ae f2 86 3f 6a 98 8c 3f d6 64 7b 3f 81 97 74 3f
       1.054281 1.0984013 0.9820074 0.95543677
000010 0d ce 86 3f 94 11 8d 3f 41 a8 88 3f e1 a3 8d 3f
       1.0531632 1.102099 1.0676347 1.1065637
000020 08 ac 89 3f f7 2b 81 3f 2c 4c 82 3f e2 84 89 3f
       1.0755625 1.0091542 1.0179496 1.0743678
000030 8e a9 8a 3f 19 70 87 3f 1a 47 80 3f 61 74 81 3f
       1.0832994 1.0581084 1.0021698 1.0113641

mlp.mlp.5.bias f4 [16]
000000 e9 4e 82 3d b9 53 db 3d d3 e8 46 bd a9 58 5a bd
       0.06362707 0.10709328 -0.048561882 -0.05330721
000010 56 55 7a 3d 05 e8 d8 3d af 39 91 3d 5a a6 dd 3d
       0.06111654 0.10591129 0.070910804 0.10822745
000020 40 54 98 3d a2 66 bc bc 05 55 88 bc d2 64 9f 3d
       0.074379444 -0.022998158 -0.016642103 0.07782902
000030 69 8d b9 3d 19 3d 85 3d 41 15 de bc 27 54 bd bc
       0.09060175 0.06505794 -0.027109744 -0.023111416

mlp.mlp.5.running_mean f4 [16]
000000 42 52 8b be 64 1d 28 3b 9d 6b 25 3e b0 c0 c9 3e
       -0.27211195 0.0025652284 0.16154332 0.3940482
000010 f0 82 35 be 66 53 ad 3d 1d df 86 be c3 b5 9e be
       -0.1772573 0.084631726 -0.26342097 -0.30998048
000020 8c 2f 54 be 9b b1 69 3e 2c 73 2b 3e 9c 43 a7 be
       -0.20721263 0.22821657 0.16743153 -0.3266877
000030 48 9b a3 be 51 9f 5f be 41 0c 1a 3e 3c 5f 42 3e
       -0.31954408 -0.21838118 0.15043737 0.18981642

mlp.mlp.5.running_var f4 [16]
000000 f4 86 57 3f 8f b9 70 3f 21 a4 85 3e 6e 75 b2 3e
       0.841903 0.9403314 0.26101783 0.34855217
000010 8d 43 d8 3e 8b 13 e4 3e 4a 2e d4 3e 5f 8b 35 3f
       0.42239037 0.4454616 0.41441566 0.7091579
000020 90 17 63 3e 73 02 63 3e 50 6f fe 3e d1 24 21 3f
       0.22176957 0.22168903 0.496943 0.629468
000030 87 e9 47 3f ad 00 c3 3e 94 86 11 3f cc e1 b1 3e
       0.7809071 0.38086453 0.56845975 0.34742582

mlp.mlp.8.weight f4 [1, 16]
000000 f1 be 95 3e bc ad a5 3d 17 86 17 be 3d 25 0c be
       0.2924724 0.08089778 -0.14797245 -0.1368608
000010 e0 1f 94 3e 35 08 c6 3d 9e 72 7f 3e 05 ff ac 3d
       0.2893057 0.09669534 0.24946067 0.084470786
000020 1e ad 3c 3e 12 72 69 bd 81 34 f4 bd 13 4c 49 3e
       0.18425414 -0.05699355 -0.11924077 0.19657926
000030 c1 8c 05 3e b4 16 63 3e 71 ce 37 be f7 7e 07 be
       0.13041975 0.2217663 -0.17949845 -0.13232027
