model/dfm_epoch_190.pt (torch, 79687 bytes, 15 tensors)

embedding.embedding.weight f4 [98, 32]
0	0x3d9d1e50	0.07671797
1	0xbd317845	-0.04332759
2	0x3c34e03a	0.011039788
3	0xbc86e6fd	-0.016467566
4	0x3d73db62	0.05953539
5	0xbdf4cdbb	-0.119533025
6	0xbd35a9de	-0.04435145
7	0x3c5ee9b7	0.013605527
8	0xbbcb1300	-0.0061973333
9	0xbd712182	-0.058869846
10	0xbd01772a	-0.031607784
11	0x3de3cdab	0.111232124
12	0x3d9069fe	0.070514664
13	0x3cbd30df	0.023094593
14	0xbd5be66d	-0.053686548
15	0xbc32abd3	-0.010905224
16	0xbd9b82de	-0.0759332
17	0x3d127be5	0.035762686
18	0x3c231c73	0.009955513
19	0x3d9ae1ba	0.07562585
20	0x3d8510d9	0.06497354
21	0xbd8003e1	-0.0625074
22	0x3ca53069	0.020164685
23	0xbdd2e393	-0.102973126
24	0xbd3d46bb	-0.046210032
25	0x3d17f5c2	0.037099607
26	0xbcdedf36	-0.027206045
27	0xbdbbf44b	-0.091774546
28	0x3d86b70d	0.06577883
29	0x3d1e3402	0.038623817
30	0x3daf7638	0.0856747
31	0x3da78c46	0.08181052
32	0x3da9805d	0.082764365
33	0xbd3ff3c3	-0.04686333
34	0x3c449e2a	0.0120006
35	0xbc927aaf	-0.017880766
36	0x3d83af30	0.06429899
37	0xbe03da87	-0.1287633
38	0xbd447782	-0.047965534
39	0x3c722e92	0.014781611
40	0xbbdcfffd	-0.0067443834
41	0xbd82380e	-0.06358348
42	0xbd0c3abe	-0.03423571
43	0x3df5702a	0.11984284
44	0x3d9bd9f5	0.076099314
45	0x3ccd2f03	0.025046831
46	0xbd6d9b9d	-0.058009733
47	0xbc423a02	-0.01185465
48	0xbda7c655	-0.08192126
49	0x3d1e9398	0.038714975
50	0x3c3159d0	0.010824636
51	0x3da7193a	0.081591085
52	0x3d8fa7f5	0.07014457
53	0xbd8a3a3b	-0.06749388
54	0x3cb33e2b	0.02188023
55	0xbde343d0	-0.110969186
56	0xbd4ca935	-0.049966056
57	0x3d247a3a	0.040155627
58	0xbcf18e08	-0.029486671
59	0xbdcaa081	-0.09893895
60	0x3d916db9	0.07101006
61	0x3d2b341a	0.041797735
62	0x3dbd3516	0.09238641
63	0x3db4b4bd	0.088235356
64	0x3dce52b0	0.10074365
65	0xbd697b13	-0.05700214
66	0x3c6eb3cd	0.014569235
67	0xbcb1e972	-0.02171776
68	0x3da03f51	0.07824577
69	0xbe208192	-0.15674427
70	0xbd6efb1b	-0.05834494
71	0x3c930aa8	0.017949417
72	0xbc0616a3	-0.008184108
73	0xbd9e763e	-0.07737397
74	0xbd2a7b90	-0.041621745
75	0x3e156479	0.14589109
76	0x3dbdb171	0.0926236
77	0x3cf95463	0.030435747
78	0xbd908d9e	-0.07058261
79	0xbc6bcbfa	-0.0143918935
80	0xbdcc382e	-0.09971653
81	0x3d40d370	0.047076643
82	0x3c5749db	0.013140167
83	0x3dcb6547	0.099314265
84	0x3daed5a0	0.085368395
85	0xbda83851	-0.082138665
86	0x3cd9c3e0	0.026582658
87	0xbe0a555c	-0.13509125
88	0xbd78f6b6	-0.060782157
89	0x3d480353	0.048831295
90	0xbd12cca7	-0.035839703
91	0xbdf6ab7d	-0.120444275
92	0x3db0fe80	0.08642292
93	0x3d5034a8	0.050831467
94	0x3de653a4	0.11246422
95	0x3ddbf8ca	0.10740812
96	0x3cce9e52	0.025221977
97	0xbc687fe3	-0.014190647
98	0x3b6bf620	0.0036004856
99	0xbbb01e1b	-0.0053746826
100	0x3ca00b04	0.019536503
101	0xbd2197d0	-0.03945142
102	0xbc6e0605	-0.014527802
103	0x3b9173b8	0.0044388436
104	0xbb045f1f	-0.0020198298
105	0xbc9e3de8	-0.019316629
106	0xbc295c05	-0.010336881
107	0x3d16451b	0.036686998
108	0x3cbdc99b	0.023167422
109	0x3bf73675	0.0075443336
110	0xbc9038ff	-0.017605303
111	0xbb6914b3	-0.0035565316
112	0xbccc7cff	-0.024961947
113	0x3c3fb961	0.011701913
114	0x3b54c15d	0.0032463886
115	0x3ccba772	0.024860118
116	0x3caec4b1	0.021334024
117	0xbca816b5	-0.02051864
118	0x3bd7c3f4	0.0065846387
119	0xbd0b0388	-0.033938915
120	0xbc780dec	-0.015140038
121	0x3c46eccc	0.012141418
122	0xbc11b0d3	-0.008892256
123	0xbcf789ba	-0.03021704
124	0x3cb0f33d	0.02160036
125	0x3c4f2330	0.012642667
126	0x3ce6f30d	0.028192068
127	0x3cdc72c3	0.026910191
128	0x3d170d79	0.036878083
129	0xbcaad07e	-0.02085137
130	0x3baed866	0.0053358553
131	0xbc02444a	-0.007950852
132	0x3cea832e	0.028627004
133	0xbd6b93e9	-0.057514105
134	0xbcaed684	-0.021342523
135	0x3bd75e75	0.0065725395
136	0xbb4484ef	-0.002998646
137	0xbce7e566	-0.028307628
138	0xbc797d56	-0.015227636
139	0x3d5b25e9	0.05350295
140	0x3d0ad86a	0.033897795
141	0x3c367e29	0.011138477
142	0xbcd385dc	-0.025820665
143	0xbbacb80d	-0.005270964
144	0xbd158204	-0.036500946
145	0x3c8d14d9	0.017221855
146	0x3b9db5b1	0.004812919
147	0x3d14e728	0.03635326
148	0x3cffe4fe	0.031237122
149	0xbcf6326e	-0.030053344
150	0x3c1f69a6	0.009729778
151	0xbd4ad294	-0.04951723
152	0xbcb62444	-0.02223409
153	0x3c92563a	0.017863382
154	0xbc56dc04	-0.013113979
155	0xbd34b7f9	-0.044120762
156	0x3d0187df	0.031623717
157	0x3c9853f8	0.018594727
158	0x3d28b17c	0.041184887
159	0x3d21148e	0.039326243
160	0x3bd8a9a5	0.00661202
161	0xbb74cf9f	-0.0037355197
162	0x3a79d816	0.00095307955
163	0xbaba46cc	-0.0014211773
164	0x3ba82730	0.0051316246
165	0xbc28d094	-0.010303635
166	0xbb7a9734	-0.0038237097
167	0x3a99edd0	0.0011743847
168	0xba0c4e2a	-0.00053522235
169	0xbba6463d	-0.005074291
170	0xbb32a5f0	-0.002725955
171	0x3c1d1520	0.009587556
172	0x3bc725cd	0.0060775043
173	0x3b029343	0.00199242
174	0xbb97a4c9	-0.004627798
175	0xba76cd09	-0.0009414708
176	0xbbd6725e	-0.0065443953
177	0x3b4a1b0b	0.0030838873
178	0x3a6152da	0.00085954147
179	0x3bd59437	0.0065179127
180	0x3bb78119	0.0056001064
181	0xbbb08ae0	-0.005387649
182	0x3ae40d42	0.0017398971
183	0xbc11698f	-0.008875265
184	0xbb828a89	-0.0039838
185	0x3b51a72f	0.0031990518
186	0xbb19cb50	-0.002346713
187	0xbc0197cc	-0.007909726
188	0x3bb9c712	0.005669483
189	0x3b5a41f7	0.0033303478
190	0x3bf1f4e1	0.007383928
191	0x3be70b1a	0.007050884
192	0x3d802d06	0.062585875
193	0xbd1159f1	-0.035486165
194	0x3c14f3d4	0.009091336
195	0xbc5df2a7	-0.013546622
196	0x3d474ed9	0.04865918
197	0xbdc70144	-0.09717038
198	0xbd14c3ce	-0.036319546
199	0x3c3779d6	0.011198482
200	0xbba76780	-0.0051087737
201	0xbd451870	-0.04811901
202	0xbcd470ef	-0.025932757
203	0x3db94b12	0.09047522
204	0x3d6bc60a	0.05756191
205	0x3c9b71b4	0.018975116
206	0xbd33db0b	-0.043910068
207	0xbc13240d	-0.008980763
208	0xbd7dbfde	-0.061950557
209	0x3cf0361b	0.029322674
210	0x3c065a7a	0.008200282
211	0x3d7cbaed	0.061701704
212	0x3d5960a8	0.053070694
213	0xbd512f60	-0.05107057
214	0x3c87cb82	0.016576532
215	0xbdaba46a	-0.08380969
216	0xbd1af5a6	-0.037831925
217	0x3cf9241d	0.030412728
218	0xbcb6fced	-0.022337401
219	0xbd991def	-0.074764125
220	0x3d5c0d51	0.053723637
221	0x3d01a8b6	0.031655036
222	0x3d8f048a	0.06983288
223	0x3d889dd0	0.06670725
224	0x3d7083b4	0.058719352
225	0xbd07d6e0	-0.033163905
226	0x3c0a76c3	0.008451167
227	0xbc4e87b5	-0.012605597
228	0x3d3aa68d	0.04556899
229	0xbdbb5bb9	-0.09148354
230	0xbd0b0c97	-0.033947553
231	0x3c2aa3c7	0.010415024
232	0xbb9b77e8	-0.0047445185
233	0xbd38906d	-0.04505961
234	0xbcc631cc	-0.024193667
235	0x3dae5972	0.08513154
236	0x3d5d11a2	0.053971894
237	0x3c90d110	0.017677814
238	0xbd285092	-0.041092463
239	0xbc08c6bc	-0.008348163
240	0xbd6e0df2	-0.058118768
241	0x3ce03f03	0.027373796
242	0x3bf9bbaf	0.0076212506
243	0x3d6d1751	0.057883564
244	0x3d4bb2d0	0.049731076
245	0xbd43f7b0	-0.047843635
246	0x3c7ce470	0.015435323
247	0xbda167ef	-0.07881152
248	0xbd10e03b	-0.035370093
249	0x3ce8a0ed	0.028397048
250	0xbcaa9872	-0.020824645
251	0xbd8fdaf4	-0.07024184
252	0x3d4e3916	0.05034741
253	0x3cf22f81	0.029563667
254	0x3d864b95	0.06557385
255	0x3d803d2b	0.06261667

linear.fc.weight f4 [98, 1]
0	0x3efdb848	0.49554658
1	0x3f0788e3	0.5294325
2	0x3f15a74c	0.584584
3	0x3e26ad00	0.16276932
4	0x3e6b21c1	0.22962095
5	0x3d470a0a	0.04859356
6	0x3ea3e8ae	0.32013458
7	0x3e97b344	0.29628956
8	0x3d985434	0.074379355
9	0x3ce244ad	0.027620638
10	0x3cef99f6	0.029248219
11	0x3cd85455	0.0264074
12	0x3c520947	0.012819595
13	0x3c5389ac	0.0129112415
14	0x3c50c7c3	0.012742939
15	0x3c462114	0.012092847
16	0x3e4af848	0.19821274
17	0x3e0e8291	0.13916995
18	0x3e28aef6	0.16472992
19	0x3e1acea7	0.15117894
20	0x3e404e3c	0.18779844
21	0x3e521dbf	0.2051916
22	0x3e342c96	0.17595133
23	0x3cf765a7	0.030199839
24	0x3cb88354	0.02252356
25	0x3ca9d67e	0.02073216
26	0x3cd210f9	0.025642859
27	0x3cf3ae9e	0.02974635
28	0x3d042a9c	0.032267198
29	0x3cc10ef7	0.023566706
30	0x3c03f5e3	0.008054229
31	0x3b3996dc	0.002831868
32	0x3cdd806b	0.027038774
33	0x3c51f214	0.012814064
34	0x3a0e599f	0.00054302247
35	0x398d1696	0.00026910444
36	0x3a46ac3a	0.00075787643
37	0x3c47e66f	0.012200936
38	0x3901cbce	0.00012378322
39	0x3b979a00	0.0046265125
40	0x3baa2c0c	0.005193239
41	0x3a99f228	0.0011745142
42	0x3bc48a72	0.0059979493
43	0x3d09ae4a	0.03361348
44	0x3d0466b7	0.03232452
45	0x3b912832	0.0044298405
46	0x3c8f7d37	0.017515762
47	0x3cd071ef	0.025444953
48	0x3b1e8bb4	0.0024192156
49	0x3cd45315	0.025918523
50	0x3c9881c6	0.018616568
51	0x3b8ea2ce	0.004352904
52	0x3b1bb4d3	0.0023758903
53	0x3be7231a	0.007053745
54	0x3a86e9b1	0.0010293034
55	0x3b325f9c	0.0027217632
56	0x3cdcc63f	0.02695
57	0x3ae1768d	0.0017201469
58	0x3d020ebd	0.031752337
59	0x3ca1099f	0.019657908
60	0x3bc6aea3	0.006063299
61	0x3baf3317	0.0053466666
62	0x3cb83ae6	0.022489022
63	0x3b40abd2	0.0029399288
64	0x3b42de34	0.0029734494
65	0x395a506c	0.0002082006
66	0x3a3240a2	0.0006799792
67	0x3c7e7285	0.015530233
68	0x3d167df2	0.036741205
69	0x3c8fbc31	0.017545791
70	0x3c42102d	0.011844677
71	0x3c3d025f	0.01153621
72	0x3b7c8c19	0.0038535653
73	0x3c08944a	0.008336136
74	0x3a0e2899	0.00054229196
75	0x3d136ade	0.03599059
76	0x3ade8e52	0.0016979671
77	0x37b58c0c	2.1642096e-05
78	0x3cc8f133	0.024529075
79	0x3d12941d	0.035785783
80	0x3cb375d0	0.021906763
81	0x3ca985e5	0.020693729
82	0x3b6faab8	0.0036570262
83	0x3acd7eb9	0.0015678025
84	0x3d15e2af	0.036593135
85	0x3d0774dc	0.03307043
86	0x3c8ed587	0.017435802
87	0x3b93a9dc	0.004506333
88	0x3bfa8e0e	0.007646329
89	0x3c914ddb	0.01773732
90	0x3cc1e946	0.023670804
91	0x3c1b0406	0.0094614085
92	0x3c01afed	0.007915479
93	0x3c532dd2	0.012889342
94	0x3c37252a	0.011178294
95	0x3c081515	0.008305808
96	0x39cdda76	0.00039263413
97	0x3c7eef03	0.0155599145

mlp.mlp.0.weight f4 [64, 160]
0	0x00135841	1.776534e-39
1	0x80218453	-3.07804e-39
2	0x0001dd22	1.71163e-40
3	0x804e9582	-7.216802e-39
4	0x80033fdd	-2.98416e-40
5	0x800f7413	-1.419172e-39
6	0x002bce8f	4.023026e-39
7	0x004762db	6.555783e-39
8	0x8004d9ec	-4.45518e-40
9	0x8001a21d	-1.49991e-40
10	0x0023e8a1	3.297694e-39
11	0x004fa475	7.314e-39
12	0x004d5dc1	7.104966e-39
13	0x8043fd0d	-6.243756e-39
14	0x00110b57	1.565271e-39
15	0x800581d3	-5.0575e-40
16	0x801502e3	-1.929581e-39
17	0x004a6067	6.83041e-39
18	0x80019670	-1.45802e-40
19	0x0004ece3	4.52321e-40
20	0x000cb089	1.165355e-39
21	0x804f64ba	-7.291138e-39
22	0x0015bb84	1.995813e-39
23	0x800088c5	-4.9064e-41
24	0x000e79f0	1.32944e-39
25	0x0032446a	4.616317e-39
26	0x804d27dd	-7.085633e-39
27	0x0049fa07	6.793684e-39
28	0x8043effb	-6.239067e-39
29	0x802c0f05	-4.04615e-39
30	0x004cd55c	7.056037e-39
31	0x8040f5bd	-5.965626e-39
32	0x803a0617	-5.328643e-39
33	0x801d192e	-2.672262e-39
34	0x002bfe4e	4.040154e-39
35	0x80246ee7	-3.345862e-39
36	0x80374180	-5.074449e-39
37	0x0044c098	6.313903e-39
38	0x0046c1e5	6.498041e-39
39	0x00472edd	6.537132e-39
40	0x0001ec05	1.76503e-40
41	0x803fb518	-5.8506e-39
42	0x00233903	3.234694e-39
43	0x801686ba	-2.068712e-39
44	0x8012ef29	-1.738833e-39
45	0x8051f606	-7.526932e-39
46	0x800f9aa3	-1.433006e-39
47	0x00468e42	6.479517e-39
48	0x00514e83	7.46684e-39
49	0x0008f4ba	8.22475e-40
50	0x8039ef88	-5.320551e-39
51	0x803913f6	-5.241784e-39
52	0x80257471	-3.439685e-39
53	0x80270b99	-3.585745e-39
54	0x00452e57	6.353273e-39
55	0x80054316	-4.83243e-40
56	0x80138d16	-1.795487e-39
57	0x00431d3c	6.163466e-39
58	0x000a8d85	9.69123e-40
59	0x803e87a8	-5.742465e-39
60	0x800cae54	-1.164563e-39
61	0x004c1470	6.98683e-39
62	0x004feb51	7.33942e-39
63	0x804d92d6	-7.124008e-39
64	0x802e4eec	-4.252745e-39
65	0x80222a95	-3.137682e-39
66	0x8002dcb8	-2.6285e-40
67	0x800f33e4	-1.396147e-39
68	0x80145daf	-1.870317e-39
69	0x80210a62	-3.034296e-39
70	0x003fb45b	5.850336e-39
71	0x8002af77	-2.46616e-40
72	0x0042ff20	6.152664e-39
73	0x003dd96d	5.679963e-39
74	0x001a6862	2.425168e-39
75	0x00026792	2.20825e-40
76	0x8046f5e3	-6.516692e-39
77	0x803f18d2	-5.79454e-39
78	0x004b3d7f	6.909723e-39
79	0x000f413a	1.400931e-39
80	0x0051b677	7.504131e-39
81	0x0049cc59	6.777297e-39
82	0x0005af47	5.22055e-40
83	0x005099f1	7.402063e-39
84	0x00301682	4.416178e-39
85	0x0052e67b	7.613191e-39
86	0x003c7d57	5.555093e-39
87	0x804d490b	-7.097536e-39
88	0x00508de5	7.397742e-39
89	0x80318291	-4.546778e-39
90	0x804c8fcc	-7.031082e-39
91	0x8044ca19	-6.317313e-39
92	0x0002c865	2.55559e-40
93	0x803c2cd9	-5.526218e-39
94	0x00472878	6.534838e-39
95	0x803abcd6	-5.3942e-39
96	0x0037b228	5.114863e-39
97	0x8024dc10	-3.385021e-39
98	0x8050a8c1	-7.407377e-39
99	0x80095d05	-8.59889e-40
100	0x801d8e46	-2.714267e-39
101	0x80475595	-6.551021e-39
102	0x0015175b	1.936924e-39
103	0x004f6b7a	7.29356e-39
104	0x00025e7e	2.17568e-40
105	0x000cf6d3	1.19057e-39
106	0x803fe7c8	-5.868784e-39
107	0x002185b3	3.078534e-39
108	0x004cb8ba	7.045765e-39
109	0x8001845c	-1.39317e-40
110	0x0005bb07	5.2627e-40
111	0x802bb4f6	-4.013843e-39
112	0x0009ddd2	9.06094e-40
113	0x804e09cf	-7.166687e-39
114	0x8048b97d	-6.678696e-39
115	0x0029a949	3.825983e-39
116	0x8049bdb9	-6.772051e-39
117	0x80333182	-4.70137e-39
118	0x004cdf70	7.059652e-39
119	0x00106d8f	1.50867e-39
120	0x00051842	4.6788e-40
121	0x8022ef48	-3.208245e-39
122	0x800b29ad	-1.025141e-39
123	0x00364453	4.983627e-39
124	0x00174923	2.138453e-39
125	0x0046be8b	6.496839e-39
126	0x001b475c	2.505157e-39
127	0x0027b252	3.645554e-39
128	0x80113972	-1.581811e-39
129	0x003abc40	5.39399e-39
130	0x801fe20a	-2.927988e-39
131	0x80189c98	-2.260227e-39
132	0x00539191	7.674566e-39
133	0x801edae8	-2.833594e-39
134	0x800e1738	-1.294026e-39
135	0x00120686	1.655379e-39
136	0x804f4cf9	-7.282617e-39
137	0x00524c2d	7.557837e-39
138	0x801d7d24	-2.708121e-39
139	0x80133920	-1.765367e-39
140	0x80342de0	-4.791903e-39
141	0x800e8cc4	-1.336194e-39
142	0x0038d8f7	5.22062e-39
143	0x000434cc	3.86282e-40
144	0x0014d5e7	1.913444e-39
145	0x80497b35	-6.74819e-39
146	0x8051e4cf	-7.520756e-39
147	0x000cfea4	1.193374e-39
148	0x803cec53	-5.594907e-39
149	0x80508d63	-7.39756e-39
150	0x80206d55	-2.977957e-39
151	0x0050755f	7.388945e-39
152	0x003edbe4	5.772683e-39
153	0x00378224	5.097638e-39
154	0x004cd1a9	7.05471e-39
155	0x80258b50	-3.447889e-39
156	0x0036f252	5.046045e-39
157	0x0031d544	4.576445e-39
158	0x001f4476	2.87146e-39
159	0x802d41e4	-4.156234e-39
160	0x002c823b	4.08748e-39
161	0x00165d64	2.053883e-39
162	0x801e34e2	-2.774036e-39
163	0x8034dfef	-4.855778e-39
164	0x002745ac	3.606578e-39
165	0x0052e79f	7.6136e-39
166	0x803ae206	-5.407541e-39
167	0x8049a32d	-6.762528e-39
168	0x00449bbc	6.300681e-39
169	0x00243d84	3.328146e-39
170	0x8036808b	-5.00523e-39
171	0x8001996a	-1.4687e-40
172	0x80012f2f	-1.08762e-40
173	0x003ed740	5.771018e-39
174	0x0053c444	7.692753e-39
175	0x0012037a	1.654286e-39
176	0x0004f34d	4.54622e-40
177	0x0023703a	3.254502e-39
178	0x80397c2a	-5.279165e-39
179	0x803b14b8	-5.425727e-39
180	0x802503a2	-3.399217e-39
181	0x003e9119	5.745852e-39
182	0x80089ee5	-7.91685e-40
183	0x00179f40	2.169345e-39
184	0x80365486	-4.989438e-39
185	0x00038a02	3.25014e-40
186	0x801eecda	-2.840031e-39
187	0x80330f8e	-4.68919e-39
188	0x8022d4ac	-3.198699e-39
189	0x00430675	6.155295e-39
190	0x00130d3e	1.749625e-39
191	0x803cfaa1	-5.600038e-39
192	0x80086f9a	-7.74719e-40
193	0x0023596c	3.246321e-39
194	0x0008b1d2	7.98474e-40
195	0x80424d68	-6.088911e-39
196	0x8029fab7	-3.855195e-39
197	0x0048249e	6.625291e-39
198	0x0005a1b9	5.17193e-40
199	0x8018e75b	-2.287047e-39
200	0x004fd551	7.331528e-39
201	0x00282ebf	3.690189e-39
202	0x802048e6	-2.964887e-39
203	0x004f06ed	7.257489e-39
204	0x0050134a	7.35376e-39
205	0x804794d8	-6.573715e-39
206	0x002807d0	3.676222e-39
207	0x80442bbf	-6.260507e-39
208	0x00498b88	6.754046e-39
209	0x001a75ba	2.429955e-39
210	0x802901f5	-3.765957e-39
211	0x004b31d6	6.90554e-39
212	0x801cce6f	-2.645448e-39
213	0x001615e3	2.028232e-39
214	0x001b852f	2.527336e-39
215	0x004e5f2e	7.197313e-39
216	0x803f66f0	-5.822563e-39
217	0x003fffdf	5.877426e-39
218	0x803ac388	-5.396602e-39
219	0x8005a4f7	-5.18356e-40
220	0x801dcd4b	-2.736875e-39
221	0x8036f21b	-5.045968e-39
222	0x00019997	1.46933e-40
223	0x800267c8	-2.209e-40
224	0x0032bb8c	4.659054e-39
225	0x0013b381	1.809268e-39
226	0x0019dd29	2.375225e-39
227	0x80006fc7	-4.0098e-41
228	0x0000dcc9	7.9203e-41
229	0x0053a1ae	7.680346e-39
230	0x0002404c	2.06736e-40
231	0x001a24c0	2.400906e-39
232	0x80469cf6	-6.484792e-39
233	0x80070c60	-6.47288e-40
234	0x001a073b	2.390317e-39
235	0x802b842c	-3.99634e-39
236	0x8048fae8	-6.702164e-39
237	0x80525fb4	-7.564842e-39
238	0x00434bb1	6.180131e-39
239	0x0006d63c	6.27866e-40
240	0x0020b1e6	3.002554e-39
241	0x801f66f2	-2.88383e-39
242	0x8041ad74	-6.03153e-39
243	0x80379d4c	-5.10738e-39
244	0x004a8de9	6.846734e-39
245	0x802245bc	-3.147423e-39
246	0x80151313	-1.935388e-39
247	0x0009bd9a	8.94536e-40
248	0x80536c03	-7.661093e-39
249	0x804eeaf8	-7.24746e-39
250	0x0045a309	6.395135e-39
251	0x001cfd59	2.662278e-39
252	0x80153a94	-1.949559e-39
253	0x80295535	-3.795822e-39
254	0x802c8525	-4.088525e-39
255	0x000cdd3d	1.181391e-39

mlp.mlp.0.bias f4 [64]
0	0x0004481b	3.93209e-40
1	0x004e02ac	7.164127e-39
2	0x001f09c3	2.850402e-39
3	0x800f15ce	-1.385354e-39
4	0x8050d146	-7.421913e-39
5	0x000db536	1.258868e-39
6	0x337fabc8	5.952805e-08
7	0x8047f0af	-6.606661e-39
8	0x804c7430	-7.021178e-39
9	0x80498c37	-6.754291e-39
10	0x80521763	-7.5389e-39
11	0x34273f92	1.5576214e-07
12	0xb404c32e	-1.2364464e-07
13	0x001e6532	2.791367e-39
14	0x8035a249	-4.925498e-39
15	0x80084452	-7.59193e-40
16	0x0047ceba	6.59448e-39
17	0x800d7f99	-1.239635e-39
18	0x80514996	-7.465073e-39
19	0x002c0319	4.041873e-39
20	0x0006a10f	6.0879e-40
21	0x00111060	1.567078e-39
22	0x32f9f08e	2.9096807e-08
23	0x32a6aa43	1.940237e-08
24	0x80505aca	-7.379409e-39
25	0x8015bef0	-1.997041e-39
26	0x802dea01	-4.216542e-39
27	0xb1befc69	-5.5584235e-09
28	0x0032b45d	4.656477e-39
29	0x800c9aa7	-1.157505e-39
30	0xb3517171	-4.876478e-08
31	0x004c5800	7.011066e-39
32	0x327ef107	1.4839549e-08
33	0x00291e71	3.776176e-39
34	0xb39d1973	-7.3155114e-08
35	0x801ec58b	-2.82593e-39
36	0x800eb0cf	-1.349124e-39
37	0xb3fdd94b	-1.1820756e-07
38	0x8029cb1f	-3.838121e-39
39	0x002ac679	3.92829e-39
40	0x005368dd	7.659964e-39
41	0x004d7458	7.11307e-39
42	0x80507ea6	-7.392273e-39
43	0xb31154df	-3.3837633e-08
44	0x0022cc9d	3.195808e-39
45	0x8000bef9	-6.8508e-41
46	0x804fea27	-7.339002e-39
47	0x001f0f69	2.852429e-39
48	0x004870de	6.652645e-39
49	0x804617ae	-6.43698e-39
50	0x804e03eb	-7.164574e-39
51	0x3488bc1c	2.5468842e-07
52	0x0000d8d0	7.7778e-41
53	0x00299e21	3.821981e-39
54	0x004e3130	7.180814e-39
55	0x8027b4ea	-3.646484e-39
56	0x001f687e	2.884385e-39
57	0x3068d0a7	8.469762e-10
58	0x802ce678	-4.123438e-39
59	0x345d8a54	2.0632552e-07
60	0xb3679d73	-5.3927078e-08
61	0x340e3303	1.3243339e-07
62	0x33d6cea2	1.0002738e-07
63	0x8051c84b	-7.510527e-39

mlp.mlp.1.weight f4 [64]
0	0x004bd0be	6.962545e-39
1	0x004d40d5	7.09459e-39
2	0x804f1baf	-7.264935e-39
3	0x804f6472	-7.291037e-39
4	0x00021cfe	1.94071e-40
5	0x80002a2b	-1.5127e-41
6	0x3d1423cb	0.036166947
7	0x0008f633	8.23004e-40
8	0x8002f6f0	-2.72255e-40
9	0x0052de83	7.610333e-39
10	0x0024415f	3.329529e-39
11	0x3d170c3a	0.036876895
12	0x3d151abf	0.03640246
13	0x000fa1d0	1.43558e-39
14	0x004b138c	6.894674e-39
15	0x8025af8c	-3.460888e-39
16	0x80198bca	-2.346034e-39
17	0x0012322b	1.671036e-39
18	0x0050c9ea	7.419273e-39
19	0x0010a758	1.5294e-39
20	0x0024a012	3.3635e-39
21	0x801a8c69	-2.438093e-39
22	0x3d1c1683	0.038107406
23	0x3d10200b	0.03518681
24	0x00334991	4.710001e-39
25	0x801e4394	-2.779307e-39
26	0x00411b8d	5.97919e-39
27	0x3d1769bc	0.03696607
28	0x803c8c02	-5.560355e-39
29	0x003d2eb5	5.61872e-39
30	0x3d14f8f1	0.03637022
31	0x80103699	-1.488954e-39
32	0x3d1b77b8	0.03795597
33	0x8031c209	-4.569546e-39
34	0x3d157c6c	0.03649561
35	0x004a4e48	6.823909e-39
36	0x80506fb1	-7.386907e-39
37	0x3d11a144	0.035554186
38	0x800b8fa9	-1.061726e-39
39	0x8038d021	-5.21745e-39
40	0x8048dd38	-6.691514e-39
41	0x004a8455	6.843299e-39
42	0x0021d09f	3.10541e-39
43	0x3d0be021	0.034149293
44	0x0041b6a6	6.034829e-39
45	0x800c3ee1	-1.124583e-39
46	0x802dcb0c	-4.205437e-39
47	0x8009e9c0	-9.10373e-40
48	0x003cf699	5.598592e-39
49	0x8027ff9c	-3.67328e-39
50	0x0032417e	4.615269e-39
51	0x3d111798	0.03542289
52	0x802b8448	-3.99638e-39
53	0x0048b00f	6.675314e-39
54	0x8048ec6c	-6.696968e-39
55	0x804a1444	-6.803097e-39
56	0x80275ef9	-3.615654e-39
57	0x3d1d76c8	0.038443357
58	0x0027deda	3.661528e-39
59	0x3d0ea371	0.03482384
60	0x3d14c4d7	0.036320534
61	0x3d104402	0.035221107
62	0x3d11dc9f	0.03561079
63	0x000e0baf	1.289888e-39

mlp.mlp.1.bias f4 [64]
0	0x004b4b75	6.914731e-39
1	0x800f5dc8	-1.411175e-39
2	0x004017cf	5.886013e-39
3	0x0022c0af	3.191529e-39
4	0x80495283	-6.733591e-39
5	0x00156dc3	1.96792e-39
6	0x3cb828e2	0.022480432
7	0x803de0d9	-5.682625e-39
8	0x003f47fb	5.811458e-39
9	0x0024b2ea	3.37026e-39
10	0x002d8f78	4.184064e-39
11	0x3cbc339a	0.022973824
12	0x3cb91721	0.022594037
13	0x8037e019	-5.131343e-39
14	0x002ee66d	4.307094e-39
15	0x003d54b5	5.632352e-39
16	0x802636b6	-3.509375e-39
17	0x802b163c	-3.956903e-39
18	0x0027d5b7	3.658251e-39
19	0x003d8530	5.649744e-39
20	0x00318f27	4.551293e-39
21	0x803fe759	-5.868628e-39
22	0x3cc49a53	0.023999369
23	0x3cb30456	0.021852653
24	0x0037c6cb	5.122266e-39
25	0x00276ee2	3.621362e-39
26	0x8004765d	-4.09803e-40
27	0x3cbe7954	0.023251213
28	0x001853aa	2.234065e-39
29	0x801990ac	-2.347786e-39
30	0x3cb969ba	0.022633422
31	0x0043361c	6.172389e-39
32	0x3cc3c6ac	0.023898445
33	0x804414a1	-6.252214e-39
34	0x3cb9fb64	0.02270288
35	0x001b3533	2.498643e-39
36	0x80375773	-5.082323e-39
37	0x3cb5a02b	0.0221711
38	0x80290b80	-3.769381e-39
39	0x001807be	2.206829e-39
40	0x80263572	-3.508921e-39
41	0x8035598c	-4.899405e-39
42	0x000b3ad7	1.031298e-39
43	0x3cacefd2	0.021110449
44	0x800d3c75	-1.21555e-39
45	0x80205f8a	-2.973009e-39
46	0x80162f65	-2.037383e-39
47	0x003c8d28	5.560767e-39
48	0x004963bd	6.73977e-39
49	0x8043d519	-6.229423e-39
50	0x800bdc37	-1.089189e-39
51	0x3cb21d28	0.021742418
52	0x801909c2	-2.299388e-39
53	0x0042d04f	6.13587e-39
54	0x0049c136	6.773302e-39
55	0x003eaf7d	5.756754e-39
56	0x80222b85	-3.138019e-39
57	0x3cc70d77	0.024298413
58	0x0037a92d	5.111641e-39
59	0x3cb14ca7	0.021642996
60	0x3cb94702	0.022616867
61	0x3cb14050	0.021637112
62	0x3cb64837	0.022251232
63	0x802a6ee2	-3.896868e-39

mlp.mlp.1.running_mean f4 [64]
0	0x803262f8	-4.627278e-39
1	0x801a00b7	-2.38798e-39
2	0x800be0e4	-1.090866e-39
3	0x8038ddbf	-5.222335e-39
4	0x8026cd65	-3.56343e-39
5	0x000967d2	8.63763e-40
6	0xbc3a8d03	-0.011386159
7	0x801c0129	-2.57181e-39
8	0x8026c802	-3.561498e-39
9	0x801b3fe3	-2.502477e-39
10	0x802fc402	-4.386583e-39
11	0xbc3d1d1e	-0.011542587
12	0xbc39f1e1	-0.011349172
13	0x80025808	-2.1525e-40
14	0x8049bee9	-6.772477e-39
15	0x8014400d	-1.859687e-39
16	0x002d46fc	4.158062e-39
17	0x00398c38	5.284924e-39
18	0x802b2b19	-3.964387e-39
19	0x000330cf	2.93016e-40
20	0x8006081b	-5.5392e-40
21	0x0003c792	3.47099e-40
22	0xbc435669	-0.011922457
23	0xbc36c16c	-0.011154514
24	0x805007c3	-7.349624e-39
25	0x0030a478	4.467104e-39
26	0x803c5813	-5.541725e-39
27	0xbc3efe3a	-0.011657292
28	0x0024cdad	3.37986e-39
29	0x002d66a1	4.169414e-39
30	0xbc3b65fb	-0.011437888
31	0x000e0f58	1.291201e-39
32	0xbc4143ab	-0.011795918
33	0x804d7043	-7.111605e-39
34	0xbc3c4786	-0.011491662
35	0x000def9a	1.279814e-39
36	0x002b01be	3.949551e-39
37	0xbc395c4a	-0.011313507
38	0x802d5f13	-4.166704e-39
39	0x004d6326	7.106901e-39
40	0x0042e1a4	6.142087e-39
41	0x0055e7e8	7.88921e-39
42	0x801b5361	-2.509469e-39
43	0xbc333e6d	-0.010940176
44	0x8016cc68	-2.093708e-39
45	0x00009085	5.1844e-41
46	0x00124f48	1.68148e-39
47	0x800e9f58	-1.342859e-39
48	0x005a1297	8.271863e-39
49	0x80239a79	-3.269657e-39
50	0x8019bc64	-2.363469e-39
51	0xbc383144	-0.011242215
52	0x001d6cd2	2.702267e-39
53	0x003fd567	5.86219e-39
54	0x80158ca2	-1.978995e-39
55	0x0010e0f4	1.550066e-39
56	0x004370cd	6.193444e-39
57	0xbc4632ff	-0.012097119
58	0x000113f7	9.8998e-41
59	0xbc378ce4	-0.011203025
60	0xbc39cf68	-0.011340953
61	0xbc36278f	-0.01111783
62	0xbc38bd99	-0.011275672
63	0x8033a539	-4.742881e-39

mlp.mlp.1.running_var f4 [64]
0	0x00000004	6e-45
1	0x00000004	6e-45
2	0x00000004	6e-45
3	0x00000004	6e-45
4	0x00000004	6e-45
5	0x00000004	6e-45
6	0x37300ccf	1.04934e-05
7	0x00000004	6e-45
8	0x00000004	6e-45
9	0x00000004	6e-45
10	0x00000004	6e-45
11	0x3731aa65	1.0589695e-05
12	0x372c0f78	1.02556005e-05
13	0x00000004	6e-45
14	0x00000004	6e-45
15	0x00000004	6e-45
16	0x00000004	6e-45
17	0x00000004	6e-45
18	0x00000004	6e-45
19	0x00000004	6e-45
20	0x00000004	6e-45
21	0x00000004	6e-45
22	0x37379f69	1.0944766e-05
23	0x3728e249	1.0066266e-05
24	0x00000004	6e-45
25	0x00000004	6e-45
26	0x00000004	6e-45
27	0x37337529	1.069651e-05
28	0x00000004	6e-45
29	0x00000004	6e-45
30	0x373055ff	1.051044e-05
31	0x00000004	6e-45
32	0x37381da9	1.097416e-05
33	0x00000004	6e-45
34	0x372f0ce3	1.0433813e-05
35	0x00000004	6e-45
36	0x00000004	6e-45
37	0x3728a89c	1.0052838e-05
38	0x00000004	6e-45
39	0x00000004	6e-45
40	0x00000004	6e-45
41	0x00000004	6e-45
42	0x00000004	6e-45
43	0x3722d52c	9.705585e-06
44	0x00000004	6e-45
45	0x00000004	6e-45
46	0x00000004	6e-45
47	0x00000004	6e-45
48	0x00000004	6e-45
49	0x00000004	6e-45
50	0x00000004	6e-45
51	0x372729ce	9.963709e-06
52	0x00000004	6e-45
53	0x00000004	6e-45
54	0x00000004	6e-45
55	0x00000004	6e-45
56	0x00000004	6e-45
57	0x3739bfdc	1.107153e-05
58	0x00000004	6e-45
59	0x37256b3e	9.859736e-06
60	0x3730d6ff	1.0540475e-05
61	0x372712f5	9.9583895e-06
62	0x372d1019	1.0315352e-05
63	0x00000004	6e-45

mlp.mlp.4.weight f4 [64, 64]
0	0x802f6db2	-4.35562e-39
1	0x001c0dbc	2.576321e-39
2	0x8036ece0	-5.044092e-39
3	0x002a3747	3.87692e-39
4	0x802ac46a	-3.927551e-39
5	0x802fd89b	-4.393972e-39
6	0x3bc14c28	0.005898971
7	0x0012d14b	1.728119e-39
8	0x002f3b16	4.337464e-39
9	0x0032a056	4.649293e-39
10	0x0033e489	4.765593e-39
11	0x3bcef32c	0.0063156094
12	0x3bc759e2	0.006083713
13	0x004f1cd0	7.26534e-39
14	0x803a443d	-5.350938e-39
15	0x801c6529	-2.607683e-39
16	0x800fb35a	-1.441872e-39
17	0x0040f445	5.965099e-39
18	0x804dbc1e	-7.138817e-39
19	0x003496e0	4.82957e-39
20	0x804ca1f5	-7.037597e-39
21	0x0011bf11	1.629745e-39
22	0x3bd14651	0.006386556
23	0x3bc03c9e	0.005866601
24	0x00020c57	1.88098e-40
25	0x803570bc	-4.907723e-39
26	0x8037e97d	-5.134712e-39
27	0x3bcfcf63	0.006341861
28	0x801138bd	-1.581557e-39
29	0x803d86d4	-5.650332e-39
30	0x3bcaa34e	0.006184018
31	0x80500dcd	-7.35179e-39
32	0x3bd890cc	0.006609058
33	0x8042a0e7	-6.118864e-39
34	0x3bc8d797	0.006129216
35	0x003e9f16	5.75087e-39
36	0x804509fb	-6.34023e-39
37	0x3bc4b07d	0.0060024844
38	0x8034551a	-4.805974e-39
39	0x800c2c90	-1.118012e-39
40	0x001fe3e9	2.928659e-39
41	0x00429341	6.113967e-39
42	0x004aab3f	6.857258e-39
43	0x3bbbc69e	0.005730464
44	0x802f3d6d	-4.338304e-39
45	0x80323ed6	-4.614316e-39
46	0x801e7e36	-2.800341e-39
47	0x804e384c	-7.183364e-39
48	0x8026eee2	-3.575444e-39
49	0x0010618b	1.50436e-39
50	0x0017f894	2.20139e-39
51	0x3bbf9a23	0.005847232
52	0x804a57c4	-6.827311e-39
53	0x802703f8	-3.583008e-39
54	0x80050900	-4.62406e-40
55	0x004e8d94	7.213957e-39
56	0x003d7c64	5.646588e-39
57	0x3bd652bf	0.006540626
58	0x002842e6	3.697418e-39
59	0x3bbb0889	0.0057078046
60	0x3bc8f224	0.006132381
61	0x3bbb4995	0.005715559
62	0x3bbd7aca	0.00578246
63	0x800ad62a	-9.95183e-40
64	0x8034aa23	-4.83648e-39
65	0x00336917	4.72131e-39
66	0x00419db2	6.025878e-39
67	0x80238787	-3.26286e-39
68	0x80210087	-3.03076e-39
69	0x00214704	3.056047e-39
70	0x3bc36e99	0.005964112
71	0x801c605e	-2.605964e-39
72	0x8028ab72	-3.734923e-39
73	0x002846f9	3.69888e-39
74	0x002dc72c	4.204047e-39
75	0x3bbf32ac	0.005834898
76	0x3bc3b867	0.00597291
77	0x802c7346	-4.082114e-39
78	0x8020febe	-3.03012e-39
79	0x80261a40	-3.499166e-39
80	0x804c96f3	-7.033648e-39
81	0x805052d3	-7.376551e-39
82	0x8032bce7	-4.65954e-39
83	0x8049600f	-6.73845e-39
84	0x8032d9cb	-4.669904e-39
85	0x002a117e	3.863366e-39
86	0x3bcb2cfc	0.006200431
87	0x3bb88e56	0.005632202
88	0x0051fb5e	7.528849e-39
89	0x004a85f9	6.843887e-39
90	0x803bd55d	-5.494835e-39
91	0x3bc70598	0.006073665
92	0x000bacbf	1.07216e-39
93	0x0017d207	2.18756e-39
94	0x3bc908d7	0.006135087
95	0x002a909e	3.90897e-39
96	0x3bd14d63	0.006387399
97	0x801540b1	-1.951752e-39
98	0x3bc6a11b	0.0060616857
99	0x004e9a9b	7.21863e-39
100	0x804cea7b	-7.063613e-39
101	0x3bc1772f	0.0059041004
102	0x8010f0cc	-1.55575e-39
103	0x8024e144	-3.386888e-39
104	0x80121fcc	-1.664446e-39
105	0x001f855c	2.894741e-39
106	0x8041809e	-6.015446e-39
107	0x3bbb0c38	0.0057082437
108	0x004611ae	6.434827e-39
109	0x801fe734	-2.92984e-39
110	0x8013453b	-1.76971e-39
111	0x80100224	-1.470136e-39
112	0x80342f4b	-4.792411e-39
113	0x0042ada5	6.123435e-39
114	0x803c81db	-5.556713e-39
115	0x3bbe4de2	0.005807624
116	0x802b9992	-4.004017e-39
117	0x802f2e53	-4.332886e-39
118	0x00091fd7	8.37941e-40
119	0x804f44d4	-7.279695e-39
120	0x802bc53b	-4.019679e-39
121	0x3bdb31f0	0.0066893026
122	0x000134f4	1.10831e-40
123	0x3bb81581	0.005617798
124	0x3bcf0705	0.0063179755
125	0x3bbc6417	0.0057492363
126	0x3bbd82fe	0.0057834378
127	0x000dfaab	1.283784e-39
128	0x800cca25	-1.174542e-39
129	0x8017c81e	-2.184005e-39
130	0x0001a2db	1.50257e-40
131	0x0034c85c	4.847321e-39
132	0x001cbe57	2.639675e-39
133	0x0023dd3b	3.293605e-39
134	0x3bc2248a	0.005924766
135	0x00223071	3.139784e-39
136	0x800d8efe	-1.245157e-39
137	0x8028118c	-3.679714e-39
138	0x000c4000	1.124985e-39
139	0x3bc6d076	0.006067331
140	0x3bbfb0c4	0.0058499295
141	0x004fea58	7.339071e-39
142	0x00128755	1.701587e-39
143	0x802dd233	-4.208003e-39
144	0x0051389e	7.458986e-39
145	0x80310015	-4.499969e-39
146	0x8014caa4	-1.909404e-39
147	0x003bf90d	5.507637e-39
148	0x8053229b	-7.63476e-39
149	0x000187d3	1.4056e-40
150	0x3bcdf8a5	0.0062857443
151	0x3bc19f35	0.0059088715
152	0x0019576d	2.32725e-39
153	0x8041d95d	-6.047283e-39
154	0x00539dbf	7.678935e-39
155	0x3bd598db	0.006518466
156	0x804c715c	-7.020163e-39
157	0x001348cc	1.770989e-39
158	0x3bc1b0f6	0.005910988
159	0x800c7a53	-1.145908e-39
160	0x3bd201cb	0.006408905
161	0x00098ade	8.76336e-40
162	0x3bbffa23	0.005858676
163	0x80338c78	-4.734001e-39
164	0x800a03e1	-9.19746e-40
165	0x3bc5683b	0.006024388
166	0x8001c32d	-1.61851e-40
167	0x004fea9c	7.339166e-39
168	0x8024c584	-3.376933e-39
169	0x0012f900	1.742363e-39
170	0x001ac890	2.459671e-39
171	0x3bbaebfb	0.0057044006
172	0x804a292d	-6.810598e-39
173	0x004da47f	7.130343e-39
174	0x0039fb70	5.324822e-39
175	0x0051e065	7.519173e-39
176	0x000093f3	5.3074e-41
177	0x804452d7	-6.274531e-39
178	0x8004f756	-4.5607e-40
179	0x3bbf52fb	0.0058387495
180	0x00055fe1	4.93572e-40
181	0x800fdcd1	-1.456746e-39
182	0x8025c34c	-3.467973e-39
183	0x000dfcec	1.284593e-39
184	0x001ba78a	2.53966e-39
185	0x3bd010c2	0.006349654
186	0x0026c7ac	3.561378e-39
187	0x3bc1e873	0.0059176027
188	0x3bc636cb	0.0060490123
189	0x3bc192c9	0.0059073907
190	0x3bc371df	0.005964502
191	0x00063b4e	5.72287e-40
192	0x003455d2	4.806232e-39
193	0x8027dde5	-3.661185e-39
194	0x8026fbee	-3.580124e-39
195	0x80479d74	-6.576804e-39
196	0x0030c12f	4.477405e-39
197	0x8023e475	-3.296197e-39
198	0x3bc4489f	0.0059901024
199	0x0005a3ce	5.1794e-40
200	0x802666c5	-3.526616e-39
201	0x001fb308	2.911125e-39
202	0x800d7b9d	-1.238206e-39
203	0x3bcd5da3	0.006267266
204	0x3bd04fe9	0.0063571823
205	0x8021db9a	-3.10935e-39
206	0x002f8c61	4.366627e-39
207	0x80103667	-1.488884e-39
208	0x001ff384	2.934257e-39
209	0x001a766b	2.430203e-39
210	0x804ea22f	-7.221349e-39
211	0x00227326	3.163714e-39
212	0x804a3e4e	-6.818177e-39
213	0x802e7f3c	-4.270076e-39
214	0x3bd0973c	0.006365685
215	0x3bc62e31	0.006047987
216	0x001411c7	1.843087e-39
217	0x00346936	4.813188e-39
218	0x8000cfb3	-7.4508e-41
219	0x3bccb9f7	0.0062477547
220	0x001aff45	2.479296e-39
221	0x004711a5	6.52665e-39
222	0x3bc5d645	0.006037506
223	0x004f7792	7.297898e-39
224	0x3bd40720	0.006470576
225	0x8043b791	-6.21883e-39
226	0x3bd0a3e5	0.006367194
227	0x8020f372	-3.026068e-39
228	0x0000aa21	6.1031e-41
229	0x3bc4c8ff	0.006005406
230	0x803c36d0	-5.529793e-39
231	0x004ab2cd	6.859968e-39
232	0x0014c588	1.907571e-39
233	0x003ded26	5.687038e-39
234	0x80453bdc	-6.358123e-39
235	0x3bc396cc	0.005968904
236	0x003f237d	5.798367e-39
237	0x004cb9ff	7.04622e-39
238	0x80129f3a	-1.710159e-39
239	0x0014411d	1.860068e-39
240	0x001e71ec	2.795932e-39
241	0x80109bd6	-1.525271e-39
242	0x8051d5f9	-7.515434e-39
243	0x3bc0c4fe	0.0058828583
244	0x80409c8d	-5.933632e-39
245	0x804dcd19	-7.144908e-39
246	0x001cd122	2.646417e-39
247	0x80371ca4	-5.061227e-39
248	0x80102c79	-1.485322e-39
249	0x3bd0378c	0.006354278
250	0x004e74d0	7.205073e-39
251	0x3bc1a9ae	0.00591012
252	0x3bc858b3	0.0061140894
253	0x3bc07026	0.005872744
254	0x3bc4824c	0.005996978
255	0x800c0cdb	-1.106638e-39

mlp.mlp.4.bias f4 [64]
0	0x31f5ec9e	7.1573387e-09
1	0xb11d7b44	-2.2916575e-09
2	0x31821a1a	3.7864654e-09
3	0xb2452a8f	-1.1476586e-08
4	0xb03a8032	-6.784858e-10
5	0x807ee2a3	-1.1652574e-38
6	0xb163d82b	-3.3155725e-09
7	0x322acc99	9.9418225e-09
8	0x31db2c99	6.378809e-09
9	0x31b971ba	5.397138e-09
10	0x0011ddfb	1.640835e-39
11	0x3235637a	1.0558205e-08
12	0xb1c270ef	-5.658982e-09
13	0xb142a21d	-2.8322866e-09
14	0x30c452f6	1.4284456e-09
15	0x3086f47c	9.81927e-10
16	0x31a451c9	4.782326e-09
17	0x00611edd	8.919115e-39
18	0x803e167c	-5.701867e-39
19	0x80acf6e3	-1.5884272e-38
20	0xb1e3448e	-6.6143633e-09
21	0xb1c9e632	-5.87604e-09
22	0x80d42d9f	-1.9485491e-38
23	0x801fe054	-2.927374e-39
24	0xb1cfea57	-6.0511343e-09
25	0xb29a4e20	-1.7963487e-08
26	0xb2c875bb	-2.3336602e-08
27	0x80392c36	-5.250483e-39
28	0x80317d41	-4.544872e-39
29	0xb1550552	-3.0998604e-09
30	0x31b4fd72	5.267503e-09
31	0x0052ab34	7.591927e-39
32	0x32275aac	9.741296e-09
33	0xb01b9eb5	-5.661421e-10
34	0xb17855c7	-3.6137509e-09
35	0x31ee07f4	6.927616e-09
36	0xb2054878	-7.758096e-09
37	0x31273a92	2.4334992e-09
38	0x31a9b5a6	4.9391984e-09
39	0x30b1bbfb	1.2931872e-09
40	0xb20ca33a	-8.186186e-09
41	0x3252147e	1.2228268e-08
42	0x00179f5e	2.169387e-39
43	0xb1ed8c26	-6.913541e-09
44	0xb202f9ab	-7.623764e-09
45	0xb1a08732	-4.671983e-09
46	0xb18fc5f1	-4.184351e-09
47	0x31e172fd	6.5614345e-09
48	0xb1d70eb5	-6.2589955e-09
49	0xb0f26665	-1.763692e-09
50	0xb0c1b235	-1.4093248e-09
51	0x3157bfb3	3.1395586e-09
52	0x31ae4250	5.0716054e-09
53	0x0048156c	6.61984e-39
54	0x3259de47	1.2681602e-08
55	0x80046d3c	-4.06528e-40
56	0x31fbc3da	7.327327e-09
57	0xb20d2f5c	-8.2180485e-09
58	0x002bf4b5	4.03671e-39
59	0xb1a1a103	-4.7040216e-09
60	0x325e174d	1.2927399e-08
61	0x323516f4	1.0540806e-08
62	0x3139eb3b	2.7054756e-09
63	0x2f873b3b	2.4598443e-10

mlp.mlp.5.weight f4 [64]
0	0x3d02b663	0.03191222
1	0x3d030cf1	0.031994764
2	0x3d02a8fd	0.03189944
3	0x3d060591	0.032720152
4	0x3d07dbb2	0.033168502
5	0x00227610	3.16476e-39
6	0x3d03e214	0.032198027
7	0x3cff8cb3	0.03119502
8	0x3d03b0f9	0.032151196
9	0x3cfd5a43	0.03092683
10	0x804f73dc	-7.296567e-39
11	0x3d005a6f	0.031336244
12	0x3d0e0d77	0.03468081
13	0x3d05494d	0.03254061
14	0x3d090cfc	0.03345965
15	0x3d0276e6	0.03185167
16	0x3d02084f	0.031746205
17	0x0000b35b	6.434e-41
18	0x8044f14b	-6.331373e-39
19	0x000ed847	1.363283e-39
20	0x3d040138	0.032227725
21	0x3d030492	0.03198678
22	0x000bd22f	1.08559e-39
23	0x002e06c4	4.22686e-39
24	0x3cfad71c	0.03062015
25	0x3d023119	0.031785104
26	0x3d08c822	0.033393987
27	0x802840ea	-3.696707e-39
28	0x8014e7d8	-1.91988e-39
29	0x3d00f286	0.03148129
30	0x3d007f0d	0.031371165
31	0x802acfb5	-3.931602e-39
32	0x3d02a18e	0.03189235
33	0x3cfe9042	0.031074647
34	0x3d0231ff	0.03178596
35	0x3d0404c6	0.032231115
36	0x3cfdcc96	0.030981343
37	0x3d004a59	0.031320903
38	0x3d009a93	0.031397413
39	0x3d0bf8e2	0.0341729
40	0x3d00dd0d	0.03146081
41	0x3d04da14	0.032434538
42	0x0009d01e	9.01178e-40
43	0x3d071742	0.032981165
44	0x3d093e41	0.033506636
45	0x3d09b558	0.03362021
46	0x3d03cab6	0.032175742
47	0x3d077350	0.033068955
48	0x3d04664c	0.03232412
49	0x3d05337b	0.0325198
50	0x3d051729	0.03249279
51	0x3d00c5cf	0.031438645
52	0x3d019dd0	0.031644642
53	0x80517234	-7.479644e-39
54	0x3d0706b9	0.032965396
55	0x802de549	-4.21485e-39
56	0x3cffc4a8	0.031221703
57	0x3d0c613d	0.03427242
58	0x0003a112	3.33288e-40
59	0x3cfd7997	0.030941768
60	0x3d098adf	0.033579703
61	0x3d04fbe3	0.03246678
62	0x3d0123ed	0.031528402
63	0x3d0a9494	0.0338331

mlp.mlp.5.bias f4 [64]
0	0x3e7de709	0.24795164
1	0x3e7e90f9	0.2485999
2	0x3e801a95	0.2502028
3	0x3e7f259b	0.24916689
4	0x3e80fdc5	0.2519361
5	0x3e6065b1	0.21913792
6	0x3e7fff42	0.24999717
7	0x3e7c22cb	0.24622647
8	0x3e7bdb19	0.24595298
9	0x3e7b4622	0.24538472
10	0x3e636852	0.22207764
11	0x3e7adb13	0.24497633
12	0x3e817f0f	0.2529225
13	0x3e802fd0	0.25036478
14	0x3e80134b	0.2501472
15	0x3e7d1f1f	0.24718903
16	0x3e8017d1	0.2501817
17	0x3e6130db	0.21991293
18	0x80168871	-2.069327e-39
19	0x3e610fe5	0.2197872
20	0x3e7d4f92	0.24737385
21	0x3e7df3d2	0.24800041
22	0x3e634281	0.22193338
23	0x00118a8c	1.610905e-39
24	0x3e7c7c91	0.24656893
25	0x3e800186	0.25001162
26	0x3e7fb2b2	0.2497051
27	0x802c7573	-4.082895e-39
28	0x802af7e7	-3.946021e-39
29	0x3e7c9b7f	0.24668692
30	0x3e79738e	0.24360487
31	0x004ab37c	6.860214e-39
32	0x3e7e092b	0.24808185
33	0x3e7b3ba8	0.24534476
34	0x3e803850	0.25042963
35	0x3e7daf25	0.24773844
36	0x3e793010	0.2433474
37	0x3e7d191b	0.24716608
38	0x3e7adffe	0.24499509
39	0x3e806c20	0.25082493
40	0x3e7cd169	0.24689259
41	0x3e7cdb4f	0.24693035
42	0x803ffa5f	-5.875452e-39
43	0x3e8016fe	0.25017542
44	0x3e7da5d8	0.24770296
45	0x3e7f8523	0.24953131
46	0x3e7df8d9	0.24801959
47	0x3e7ea87c	0.24868959
48	0x3e7cb90d	0.24679966
49	0x3e7eaa8b	0.24869744
50	0x3e7f453e	0.24928758
51	0x3e7f04c7	0.24904166
52	0x3e7c480d	0.2463686
53	0x3e604b17	0.21903645
54	0x3e7f6213	0.24939756
55	0x803c613b	-5.54501e-39
56	0x3e7be718	0.24599874
57	0x3e7e802f	0.24853586
58	0x004c6c94	7.018448e-39
59	0x3e7b3eaf	0.2453563
60	0x3e7fab08	0.24967587
61	0x3e80927d	0.25111762
62	0x3e7e9fb5	0.24865611
63	0x3e8068da	0.25079995

mlp.mlp.5.running_mean f4 [64]
0	0x3b18f440	0.0023338944
1	0x3b199fa3	0.0023441098
2	0x3b1947b9	0.0023388697
3	0x3b1b6e5d	0.0023716905
4	0x3b1dcc32	0.0024078009
5	0x806802e5	-9.55193e-39
6	0x3b19b71f	0.0023455096
7	0x3b15f932	0.0022884128
8	0x3b19f359	0.0023490994
9	0x3b15ffc9	0.0022888056
10	0x0062d968	9.077869e-39
11	0x3b175310	0.002309028
12	0x3b219323	0.002465435
13	0x3b1b7e2e	0.0023726332
14	0x3b1e3629	0.0024141169
15	0x3b18be25	0.0023306694
16	0x3b191b5a	0.002336225
17	0x00504d85	7.374648e-39
18	0x8005b73a	-5.24907e-40
19	0x8067ff2e	-9.550597e-39
20	0x3b19e21c	0.002348072
21	0x3b195391	0.0023395757
22	0x8087db93	-1.247656e-38
23	0x803b1348	-5.425211e-39
24	0x3b1589a3	0.0022817634
25	0x3b18abf6	0.0023295856
26	0x3b1d5d9d	0.0024012097
27	0x8032ef59	-4.677637e-39
28	0x8038da46	-5.22109e-39
29	0x3b16dc6d	0.0023019568
30	0x3b17c4c6	0.0023158058
31	0x00249a26	3.361376e-39
32	0x3b1a0c84	0.0023505995
33	0x3b16c671	0.0023006464
34	0x3b18af46	0.002329783
35	0x3b199543	0.0023434914
36	0x3b1541f5	0.002277491
37	0x3b179857	0.0023131573
38	0x3b166c1d	0.0022952624
39	0x3b2042b2	0.0024453816
40	0x3b188c65	0.002327704
41	0x3b1a7edd	0.0023574152
42	0x8012e86f	-1.73642e-39
43	0x3b1c928b	0.0023891057
44	0x3b1dd4a5	0.0024083045
45	0x3b1e3cb4	0.0024145069
46	0x3b1a48fd	0.002354204
47	0x3b1d1e61	0.0023974406
48	0x3b19f6bb	0.002349301
49	0x3b1ac235	0.0023614292
50	0x3b1aa8cd	0.0023599148
51	0x3b185eb6	0.0023249811
52	0x3b17b579	0.0023148938
53	0x0083ef90	1.2116389e-38
54	0x3b1c37b8	0.0023836922
55	0x8029fa40	-3.855028e-39
56	0x3b172a4c	0.0023065982
57	0x3b20c02a	0.0024528601
58	0x0035e38b	4.948908e-39
59	0x3b15975b	0.002282581
60	0x3b1e86e4	0.0024189288
61	0x3b1bdbc8	0.0023782123
62	0x3b19556a	0.0023396858
63	0x3b1e925f	0.002419613

mlp.mlp.5.running_var f4 [64]
0	0x36e198e6	6.7233223e-06
1	0x36e38441	6.7805236e-06
2	0x36e2827f	6.7505166e-06
3	0x36e8e45b	6.940723e-06
4	0x36f00120	7.1526883e-06
5	0x00000004	6e-45
6	0x36e3e2d2	6.7915325e-06
7	0x36d8e5ca	6.4640526e-06
8	0x36e48694	6.8105965e-06
9	0x36d8e6c9	6.4641686e-06
10	0x00000004	6e-45
11	0x36dccbcd	6.5802365e-06
12	0x36fbd4b2	7.505144e-06
13	0x36e91f5c	6.947592e-06
14	0x36f1683c	7.194494e-06
15	0x36e0f40c	6.704131e-06
16	0x36e1fbe0	6.7348446e-06
17	0x00000004	6e-45
18	0x00000004	6e-45
19	0x00000004	6e-45
20	0x36e45e2c	6.8058926e-06
21	0x36e29a4d	6.753288e-06
22	0x00000004	6e-45
23	0x00000004	6e-45
24	0x36d7885e	6.4233745e-06
25	0x36e0b80c	6.697146e-06
26	0x36eec149	7.115454e-06
27	0x00000004	6e-45
28	0x00000004	6e-45
29	0x36db70b7	6.5398303e-06
30	0x36de1c52	6.6194125e-06
31	0x00000004	6e-45
32	0x36e4c219	6.8175254e-06
33	0x36db2652	6.5311697e-06
34	0x36e0c8c9	6.6990947e-06
35	0x36e361ca	6.7765113e-06
36	0x36d6cb88	6.401391e-06
37	0x36dd8549	6.6018297e-06
38	0x36da36eb	6.5032996e-06
39	0x36f79ebf	7.379654e-06
40	0x36e059b3	6.6861626e-06
41	0x36e61835	6.857352e-06
42	0x00000004	6e-45
43	0x36ec5bce	7.0440356e-06
44	0x36f02b57	7.157603e-06
45	0x36f163d9	7.1939835e-06
46	0x36e58984	6.8407408e-06
47	0x36edf94d	7.092173e-06
48	0x36e4929c	6.811997e-06
49	0x36e6e8e5	6.8816466e-06
50	0x36e6b842	6.8759846e-06
51	0x36dfcaa6	6.6695093e-06
52	0x36dde9ee	6.6135462e-06
53	0x00000004	6e-45
54	0x36eb40ca	7.011088e-06
55	0x00000004	6e-45
56	0x36dc45aa	6.564621e-06
57	0x36f92755	7.425357e-06
58	0x00000004	6e-45
59	0x36d7bf58	6.4297747e-06
60	0x36f252c6	7.221798e-06
61	0x36ea274e	6.978319e-06
62	0x36e29b22	6.7533847e-06
63	0x36f272e6	7.225538e-06

mlp.mlp.8.weight f4 [1, 64]
0	0x3e7ffbec	0.24998444
1	0x3e805644	0.25065815
2	0x3e81261e	0.25224394
3	0x3e80aaed	0.25130406
4	0x3e822013	0.25415096
5	0x3e6065ae	0.21913788
6	0x3e810ef1	0.25206712
7	0x3e7e1c44	0.2481547
8	0x3e7dfef4	0.24804288
9	0x3e7d406e	0.24731609
10	0x3e636857	0.22207771
11	0x3e7ceb30	0.24699092
12	0x3e82abaa	0.25521594
13	0x3e8140c3	0.25244722
14	0x3e813242	0.25233656
15	0x3e7f33b6	0.2492207
16	0x3e8122c7	0.25221846
17	0x3e6130e1	0.21991302
18	0x0000dbe5	7.8883e-41
19	0x3e610fe6	0.21978721
20	0x3e7f6a38	0.24942863
21	0x3e8009af	0.25007388
22	0x3e634284	0.22193342
23	0x803aee7d	-5.412012e-39
24	0x3e7e7113	0.24847822
25	0x3e810ae2	0.25203615
26	0x3e80fa6f	0.25191066
27	0x802ba1b6	-4.006937e-39
28	0x004a2941	6.810626e-39
29	0x3e7ea5a3	0.24867873
30	0x3e7b8362	0.24561837
31	0x004b2aaa	6.902967e-39
32	0x3e801677	0.2501714
33	0x3e7d4182	0.2473202
34	0x3e813fed	0.25244084
35	0x3e7fd265	0.24982603
36	0x3e7b30ae	0.24530289
37	0x3e7f27cb	0.24917524
38	0x3e7ce63a	0.246972
39	0x3e8198de	0.2531194
40	0x3e7ede22	0.24889424
41	0x3e7f0579	0.24904431
42	0x00161c00	2.030425e-39
43	0x3e8134e7	0.25235674
44	0x3e7fef57	0.24993645
45	0x3e80e770	0.25176573
46	0x3e800c60	0.2500944
47	0x3e80730f	0.25087783
48	0x3e7edc85	0.24888809
49	0x3e806cc8	0.25082994
50	0x3e80b0eb	0.25134978
51	0x3e80879a	0.25103456
52	0x3e7e5945	0.24838741
53	0x3e604b17	0.21903645
54	0x3e80cf90	0.25158358
55	0x804ad863	-6.873452e-39
56	0x3e7def8d	0.24798413
57	0x3e8072a3	0.2508746
58	0x002362f5	3.249741e-39
59	0x3e7d38b1	0.24728657
60	0x3e80f986	0.2519037
61	0x3e81a8e9	0.2532418
62	0x3e805b77	0.25069782
63	0x3e81905d	0.25305453
