model/dfm_epoch_60.pt (torch, 79687 bytes, 15 tensors)

embedding.embedding.weight f4 [98, 32]
000000 f0 da 3f 3e 6f 97 8d be 30 3a 9a 3d 11 41 ef bd
       0.18735862 -0.27654597 0.0753063 -0.11682332
000010 12 cb 8a 3e 74 0f 82 be e1 5f ca bd 44 81 ef 3d
       0.27108055 -0.25402415 -0.09881569 0.11694577
000020 6b 64 87 bd b1 25 90 be 0d f1 93 be 98 60 90 3e
       -0.0661095 -0.28153756 -0.28894845 0.28198695
000030 3e 37 8d 3e 53 84 80 3e 12 89 b7 bd 72 1d b3 bc
       0.2758121 0.25100955 -0.08961691 -0.021864627
000040 82 23 42 be b0 18 8f 3e db fb 16 3e 69 6f 9d 3e
       -0.18958858 0.27948523 0.14744513 0.30749062
000050 c9 6e 67 3e f6 19 23 be 72 c8 8d 3e 82 24 5d be
       0.22600855 -0.15927872 0.2769199 -0.21595958
000060 bb 82 9a be 15 18 7c 3e 61 9a 84 be 28 31 33 be
       -0.30177864 0.24618562 -0.25899032 -0.1749922
000070 ed 1f a7 3e 2e ce 69 3d 6b bc 50 3d a7 b5 92 3e
       0.32641545 0.057081394 0.05096094 0.28654215
000080 ee cd a6 3d 9e 28 85 be 0c a9 f3 3d f3 3c 29 be
       0.08144747 -0.2600755 0.118974775 -0.16527157
000090 9d 73 89 3e 31 ae 5c be 4d 96 ad be 17 6c d3 3c
       0.26846018 -0.21550824 -0.33903733 0.025808377
0000a0 e3 e9 47 be 0f ec 45 be 37 c9 7a bd df c6 84 3e
       -0.19522814 -0.1932833 -0.06122705 0.25932977
0000b0 03 92 9b 3e be de 0d 3e f7 07 b1 bd ef 81 35 bb
       0.30384836 0.138545 -0.08644097 -0.0027695855
0000c0 e9 09 5e be db 52 94 3e 36 f4 66 3e 10 02 b2 3e
       -0.21683468 0.28969464 0.22554097 0.347672
0000d0 4b a0 62 3e 56 66 85 be 6c 28 06 3e 17 09 67 be
       0.2213146 -0.2605464 0.13101357 -0.22562061
0000e0 87 c1 a2 be 07 65 f8 3d 8f 0e c7 be 7d a6 13 be
       -0.31788275 0.121286444 -0.38878295 -0.14418979
0000f0 ee 69 47 3e a6 b5 04 3e 44 90 7c 3e a4 3a 74 3e
       0.19474003 0.12959918 0.24664408 0.23850495
000100 f6 7d b0 3e 58 d8 28 be 2f 29 c0 3d e3 1f 67 3c
       0.344711 -0.16488779 0.09382855 0.0141067235
000110 8f 28 37 3d f5 41 95 be 1c d7 ab be c6 16 09 3e
       0.044716414 -0.29151884 -0.33562553 0.13387594
000120 b3 c7 42 be e5 9b a1 be c1 d6 b4 be d7 0c 93 3e
       -0.19021492 -0.3156425 -0.35320094 0.28720734
000130 63 2c 3b 3e c7 aa 80 3e 67 9a 11 be ac d4 59 be
       0.18278651 0.25130293 -0.14219056 -0.21272534
000140 13 5c 87 be 01 e2 76 3e 07 e0 f0 bc 55 85 91 3e
       -0.26437435 0.24109651 -0.0294037 0.28422037
000150 17 5c 8a 3e 1c 35 a7 be 54 96 95 3e 6d b2 9f be
       0.27023384 -0.32657707 0.29216254 -0.31190816
000160 73 71 18 be cc 1e af 3e 51 92 76 be c1 c2 a6 be
       -0.14887027 0.34203184 -0.24079253 -0.3257046
000170 dd c6 59 3e f2 de a2 3e 68 fc 76 3e 8d 92 81 3e
       0.21267267 0.3181072 0.24119723 0.25307122
000180 38 70 29 3d 91 b7 b1 bd 6d b4 04 3d 97 a5 b7 bd
       0.041366786 -0.08677591 0.03239863 -0.08967131
000190 93 8a 99 3d 45 b7 5f be 56 cd 05 be c2 77 a2 bb
       0.07497134 -0.21847256 -0.1306661 -0.004958124
0001a0 62 31 a5 bd 27 a4 84 bd 60 0f ad bd b8 ef 08 3e
       -0.0806606 -0.06476622 -0.08450198 0.13372695
0001b0 37 81 c2 3d 31 45 05 3e 00 29 21 be f7 8a 34 bd
       0.09497302 0.13014676 -0.15738297 -0.04407784
0001c0 7e d1 b2 bd cf 46 29 3e ba 22 9e 3d 49 4b 7b 3d
       -0.08731364 0.16530918 0.07721467 0.061351094
0001d0 20 79 86 3d 52 4d 2f be 5b 73 ef 3d ea aa c5 bc
       0.065660715 -0.17119339 0.11691924 -0.02412935
0001e0 52 cb 3f be e7 28 e0 3d bd 29 f5 bd 4d 56 17 be
       -0.18729904 0.109453015 -0.119708516 -0.14779015
0001f0 71 38 4f 3e 0d 15 00 3e bc 5f c1 3d ea 03 9e 3c
       0.20236374 0.1250803 0.09442088 0.019288976
000200 78 11 0c 3e a7 00 e0 bc 5d 73 3c 3d 71 ab 2d bc
       0.13678539 -0.027344061 0.046008456 -0.010599957
000210 b6 84 80 3e 2d bb 86 be e4 00 02 be ab f0 af 3c
       0.2510125 -0.2631468 -0.12695652 0.021477064
000220 1d c3 55 bd 88 7e 2e be 39 83 d6 bd 34 1c d9 3d
       -0.052188028 -0.17040455 -0.104742475 0.106010824
000230 a7 e9 88 3e 0b f5 05 3e e0 13 6e be 77 85 43 bd
       0.26740763 0.13081758 -0.23249769 -0.047734704
000240 04 ad 26 be 17 e3 2c 3e 1b e5 83 bb 5d d6 98 3d
       -0.16276938 0.16883503 -0.0040251142 0.074627616
000250 2f 42 5c 3e 5d 42 56 be a3 e2 21 3e 61 74 1d be
       0.21509622 -0.20923753 0.15809111 -0.15376426
000260 1a 3d e3 bd db 0a 17 3e 81 7e 05 be dd c6 71 be
       -0.110956386 0.14750235 -0.13036539 -0.23611017
000270 44 f1 a3 3d 5b 40 92 3d 17 c6 ca 3d 36 12 85 3e
       0.08005002 0.07141181 0.09901064 0.25990456
000280 aa 5c f7 3c 2a f9 03 bd 34 57 f8 3b 21 ca 70 bc
       0.030195553 -0.032220043 0.007578755 -0.014696629
000290 e1 54 f3 3c 65 52 26 bd 7c 7a e6 bc 3a 10 b1 3b
       0.02970356 -0.04060592 -0.028134577 0.0054035457
0002a0 9b c5 64 bc 93 da ec bc c9 54 d7 bc a8 72 f8 3c
       -0.013963128 -0.028912818 -0.026285546 0.03032811
0002b0 7d 66 52 3d 45 29 c4 3c 06 ab fb bc 6c 09 10 bc
       0.05136727 0.02394546 -0.030721199 -0.008791309
0002c0 36 08 ee bc 64 97 0f 3d fc 49 3a 3d a8 46 00 3d
       -0.02905665 0.035056487 0.045480713 0.031317383
0002d0 ec 4f fa 3c 6e 6d be bc d2 26 e6 3c f7 02 d5 bc
       0.030555688 -0.02324554 0.028094683 -0.02600239
0002e0 64 a5 21 bd 0e b0 ff 3c d7 18 20 bd f7 ff 1e bd
       -0.03946437 0.03121188 -0.03908619 -0.038818326
0002f0 aa 96 ce 3c ec 55 b4 3c 62 2e c8 3c 71 76 33 3d
       0.025218327 0.022013627 0.02443618 0.043814126
000300 76 8c 43 3e 32 3c 8a be a5 d2 89 bc 5b 0b e0 bb
       0.1909655 -0.2699905 -0.016824076 -0.006837291
000310 00 c3 62 3e 08 36 96 be 35 96 87 bd a2 d1 9c 3d
       0.22144699 -0.29338098 -0.066204466 0.07657172
000320 fe ce 1f be 0f a7 2d be 81 b2 13 be f3 7f 7d 3e
       -0.15606305 -0.16958259 -0.14423563 0.2475584
000330 eb af a9 bc 77 da 20 3e 04 8c 6f be c9 bd b0 bd
       -0.020713767 0.15708338 -0.23393255 -0.08629949
000340 de 36 96 bd 25 ba 9a 3d 9e 86 30 3e 90 db 36 3e
       -0.07334684 0.075550355 0.17238852 0.17857194
000350 ed 74 8b 3e d5 90 d2 3a 48 2a 0d 3e b5 83 8c be
       0.27237645 0.0016064892 0.1378566 -0.27444234
000360 6c 6c 90 be 27 9b 87 3e ef fa 71 be b8 a9 36 be
       -0.2820772 0.2648556 -0.2363088 -0.1783818
000370 70 d5 21 3e e1 fb e8 3d bc 22 92 3e e3 1f d6 3c
       0.15804076 0.11376167 0.28542125 0.026138252
000380 26 76 43 3e af 83 f9 bd f9 a7 21 bd be f5 0e be
       0.19088039 -0.1218332 -0.03946683 -0.1396093
000390 49 cb 81 3d e0 a7 57 3d 54 01 f2 bd 4b e8 ca 3c
       0.06337602 0.052650332 -0.118166596 0.024768969
0003a0 d8 a4 89 bd ec d1 ec bc 8b 5e 6b be 54 1d 72 3d
       -0.067208946 -0.028908692 -0.22985284 0.05911
0003b0 c1 3a 8d 3c 22 d8 80 3e c4 53 85 be aa 17 1c be
       0.01723993 0.25164896 -0.2604047 -0.15243402
0003c0 0b c0 90 be 4f e0 80 3d 25 e7 27 3e 46 98 ad 3d
       -0.28271517 0.062927835 0.16396768 0.084763095
0003d0 f9 71 61 3e de 78 5a be cd 5f 6e 3e 9f 4a ff 3c
       0.22016133 -0.2133517 0.23278733 0.031163512
0003e0 15 fe 72 be 2f 6c 83 3e 55 67 86 be a9 58 93 bd
       -0.23729737 0.25668475 -0.2625071 -0.07194645
0003f0 d5 2d 96 3e e6 67 8e 3e 01 b5 17 3e 11 bf 5f 3e
       0.29331842 0.27813643 0.14815141 0.2185023

linear.fc.weight f4 [98, 1]
000000 52 42 84 bf 39 76 81 bf 19 cd 9f be f0 76 a2 be
       -1.0332739 -1.0114204 -0.31211165 -0.31731367
000010 7a b7 30 3f c5 c8 86 3f 70 ec 81 bf 49 a3 c6 3f
       0.69029963 1.053002 -1.015028 1.5518581
000020 91 16 9d bf c3 10 d7 3d c8 9b 08 3f 22 fb 1d 3f
       -1.2272512 0.10501244 0.53362703 0.61711323
000030 1d 31 a9 be 90 4e 16 be 2e 25 7c bf bc b8 4b 3d
       -0.33045283 -0.14678407 -0.9849423 0.049736723
000040 72 d4 6b 3f a0 c3 3a bf a7 7f 18 bf 0f 67 da 3e
       0.9212104 -0.7295475 -0.5956978 0.42656752
000050 2d 96 d6 3e 12 d4 ef be fd f1 ab 3e d6 96 84 bd
       0.4191145 -0.46841484 0.3358306 -0.06474082
000060 a3 59 9e 3e 8a a1 93 3e 46 2a 50 3d 19 dc 6f 3e
       0.30927762 0.28834182 0.050821565 0.23423804
000070 1c 0f d9 bf b2 60 2b bf 27 bc 02 bd e6 1d 9e 3b
       -1.6957736 -0.6694442 -0.031917717 0.0048253415
000080 72 fd 40 be 50 7e 76 be 5c b6 50 3a 4f 42 ff 39
       -0.18846682 -0.24071622 0.0007961744 0.00048686794
000090 1e a7 5d 3a c7 dd 30 3e 7f 9b 97 39 6a 52 3f 3c
       0.00084553834 0.17272101 0.00028916818 0.011677364
0000a0 2a ad 8f bc 40 76 cb 3a a1 19 2c bd 0e ca 18 3e
       -0.017538626 0.0015522912 -0.04201663 0.14920828
0000b0 43 3a 14 bf 35 dc 74 bb 1a 94 21 bc 38 75 52 3f
       -0.579014 -0.00373627 -0.00986197 0.8221011
0000c0 2e ab 0d 3b 93 29 91 3e 79 8a 9b bf 48 63 ba 3b
       0.0021616924 0.2835203 -1.2151634 0.005688105
0000d0 9e 48 8b 3b a2 d8 10 3d c8 8c d2 3a 53 82 40 bb
       0.0042506 0.035362847 0.0016063685 -0.0029374554
0000e0 53 7a 0a 3f 66 9a 34 3b da c9 0e bf 56 b4 a3 3d
       0.540929 0.002755785 -0.5577675 0.07993381
0000f0 e3 4b 82 bd 9e a0 d4 bc 42 da 61 3d b3 88 b8 3b
       -0.063621305 -0.025955494 0.055139787 0.00563153
000100 42 3a 06 bc 1c d1 82 39 a4 89 b4 3a 9d 7a 00 bf
       -0.008192601 0.0002495133 0.001377393 -0.50187093
000110 25 40 1c 3f e5 98 63 bf 3c f7 fb be a9 7a 53 3e
       0.61035377 -0.88905174 -0.49212062 0.2065226
000120 b7 d7 8f 3c 04 29 43 be dc a3 74 3a 6f 79 04 3f
       0.017558916 -0.19058615 0.0009332278 0.5174779
000130 3e 22 fc 39 40 2d 64 39 cd bd 93 3e d9 d0 64 3d
       0.00048090698 0.00021760631 0.28855744 0.055863235
000140 7e 02 08 3e 49 36 f8 3d 79 ff 70 bb 67 94 19 3b
       0.132822 0.12119729 -0.0036773367 0.0023434402
000150 69 b7 f8 3e 82 8e eb 3e 40 7e ce 3e 99 54 86 bc
       0.4857743 0.46007162 0.40330696 -0.016397761
000160 1e f4 3d be f1 0e 47 be f7 dd 98 3e cc fb ef 39
       -0.18550155 -0.19439293 0.29856846 0.00045773236
000170 6a 1b 5f 3d f6 c4 6f 3c 4b aa 71 3d da 43 38 bb
       0.054469503 0.0146343615 0.059000295 -0.0028116615
000180 a5 ed a2 39 18 a7 41 3e
       0.00031076107 0.18911397

mlp.mlp.0.weight f4 [64, 160]
000000 a1 19 cf b9 01 ae aa 37 6f 4d c9 b7 31 a1 ad 36
       -0.00039501212 2.0346606e-05 -2.3997125e-05 5.174567e-06
000010 72 6c a0 36 00 40 a1 b7 46 03 e9 ba 07 42 ce b9
       4.7809963e-06 -1.9222498e-05 -0.0017777465 -0.00039340576
000020 81 8e c9 ba c9 c7 b4 39 13 20 78 3a 97 61 f0 37
       -0.0015377552 0.00034481127 0.00094652286 2.8655673e-05
000030 14 9a 3a b8 77 ed 69 ba a8 0a 34 b7 46 8b 09 b8
       -4.4489352e-05 -0.00089236296 -1.0731317e-05 -3.2793054e-05
000040 18 c4 45 38 36 04 6f b7 36 c4 a5 39 dc 0b b6 b8
       4.7151087e-05 -1.42464905e-05 0.0003161744 -8.680645e-05
000050 37 b6 92 37 c2 79 a2 b9 61 04 05 bb a0 e5 ec 37
       1.7489407e-05 -0.00030989764 -0.00202968 2.824032e-05
000060 fa e6 d0 37 9e 41 61 ba ab f4 8c ba 91 e2 19 b8
       2.4903089e-05 -0.00085928466 -0.0010754069 -3.668905e-05
000070 c5 00 82 ba 88 80 9d 38 cf 53 a3 3a fe e1 1d b8
       -0.0009918442 7.510284e-05 0.001246089 -3.764219e-05
000080 39 35 58 3b 96 54 27 3a 8b 99 dc 39 5c e4 fb 3a
       0.0032990708 0.0006383149 0.00042076068 0.0019217837
000090 ff 91 1c 3b 11 65 27 ba 72 55 19 ba 72 ed 8e 3a
       0.0023890731 -0.00063856045 -0.0005849219 0.0010904504
0000a0 ed 2a df 39 26 9d 4e bb 90 29 9d ba a4 e9 33 38
       0.00042565857 -0.0031526773 -0.0011990536 4.289452e-05
0000b0 be 7a 3f 3b 6b 94 75 39 ca 7b 37 ba d7 6a 9d b9
       0.0029217447 0.00023420311 -0.0006999342 -0.00030024975
0000c0 f7 22 f0 ba 10 a1 6e b8 2b 31 f3 ba 19 48 25 3a
       -0.0018320967 -5.6893623e-05 -0.0018554082 0.0006304994
0000d0 d9 60 55 3b 84 06 6a ba 36 d9 9c 3a 9e 94 86 bb
       0.0032558946 -0.00089273625 0.0011966589 -0.004107072
0000e0 64 32 eb 3a 6b 50 c5 3a de 1b 03 ba 5a b4 f4 ba
       0.0017944095 0.0015053874 -0.0005001406 -0.0018669472
0000f0 11 b9 15 bb 30 96 0a b8 58 84 24 3a 31 19 8b 3b
       -0.0022845904 -3.3041637e-05 0.0006275824 0.0042449464
000100 ac 2a a0 3a b4 28 d2 3a 7f cd 1b bb 59 a8 66 3b
       0.0012219748 0.0016033859 -0.0023773608 0.0035195558
000110 0b d8 9e ba 7c e3 84 bb c7 ad d2 b8 7d d1 1e 3a
       -0.0012118829 -0.0040554386 -0.00010045949 0.0006058438
000120 05 38 4f bb 65 2d 2e 3b f1 04 91 39 bf f1 7f 3a
       -0.0031619084 0.002657735 0.00027660237 0.0009763501
000130 4d a4 a6 ba 70 69 78 3b 59 90 41 ba d3 e2 86 bb
       -0.001271376 0.0037904643 -0.0007383875 -0.004116395
000140 a3 81 0f b9 fc 2f 66 3b ec 01 9a 3b 2d 0b 9e 3a
       -0.00013685836 0.0035123816 0.004699936 0.0012057774
000150 99 5c 06 3c 1c b2 b2 b9 a0 df 2a 3b 82 ac 39 3b
       0.008200788 -0.00034083507 0.0026073232 0.0028331582
000160 5e e7 a8 bb 3a 19 9f 3b 57 a2 98 3b 43 8e 4a ba
       -0.0051545342 0.004855302 0.0046580243 -0.0007726887
000170 8c 67 89 3b a1 df 54 3b b6 96 da 3a 83 75 f9 ba
       0.004193252 0.0032481926 0.0016676995 -0.0019032214
000180 2b e2 48 3b e8 ed fa ba fb 91 8b 3a 63 68 79 3a
       0.0030652385 -0.0019144388 0.0010648364 0.0009514151
000190 1b 6f 20 3b ab de 3d bb f9 e0 cf 3a b9 76 c3 3a
       0.0024480287 -0.0028971832 0.0015859894 0.0014912701
0001a0 ef 85 b3 ba 1c bb 2d 3b 58 c7 52 3a 41 a6 2f 3b
       -0.0013696532 0.002650923 0.0008040569 0.0026801976
0001b0 b0 07 9b 38 25 79 e2 3a bd d0 53 3b 7a 79 44 39
       7.392408e-05 0.0017278536 0.0032320463 0.0001873727
0001c0 9e 1c ed b8 c8 93 c6 b9 56 1f 03 3b b3 04 25 bb
       -0.00011306371 -0.00037875609 0.0020007691 -0.0025179803
0001d0 b3 b2 45 bb 5f 2d 40 bb 4b c9 11 3b ee dc 8f ba
       -0.0030166327 -0.0029323918 0.0022245224 -0.0010975876
0001e0 c7 09 a4 ba d7 15 91 3a 04 c2 7b ba c0 29 8d ba
       -0.0012515121 0.0011069131 -0.0009603801 -0.0010769889
0001f0 69 72 42 b9 3e ba 41 bb a9 cb 70 b9 f1 28 4c bb
       -0.00018543903 -0.0029560472 -0.00022964053 -0.0031152333
000200 a2 66 27 3c b9 7f c3 ba bb 7d 77 bb 2e 5e 03 37
       0.010217341 -0.0014915384 -0.003776415 7.830136e-06
000210 fc 45 0a 3c 81 56 99 bb 4e 30 8a 3b e5 79 3a 3c
       0.008439537 -0.0046795015 0.004217184 0.011381601
000220 d8 8e 86 bc b4 c0 a2 39 dc 8e cb 3b 27 b9 44 3c
       -0.016425535 0.00031042623 0.0062120985 0.012007034
000230 2f a8 6e bb 33 3b 08 3b 62 42 f6 3b bf c7 f8 3b
       -0.0036416163 0.0020787239 0.0075152377 0.007592171
000240 4c 9f 40 bb 0d 0b e0 3a e2 f5 b1 3a 5a 1d ca 3a
       -0.0029391823 0.0017093137 0.0013577307 0.0015420124
000250 84 8a 69 3b 77 0f 32 bb 38 f1 79 bb ce c0 b1 bb
       0.003563554 -0.0027169862 -0.0038138162 -0.0054245954
000260 7a cd c9 ba e7 72 ae bb ce b1 09 bb 17 a4 4b bc
       -0.001539632 -0.005323756 -0.002101052 -0.012429259
000270 bd 6c 65 3b b0 00 c5 ba 6f 22 85 bb e5 0f 0c 3c
       0.003500744 -0.0015030112 -0.0040629427 0.008548711
000280 40 88 87 36 c4 e7 0b b7 54 fb fe b7 a1 05 fb 37
       4.039175e-06 -8.339008e-06 -3.0396193e-05 2.9924153e-05
000290 1d 81 23 36 82 0c e1 b7 4f 89 e2 b9 1e 42 55 3a
       2.4364047e-06 -2.6827915e-05 -0.00043208382 0.00081351574
0002a0 0d b9 dc b9 55 91 0e b7 56 a9 2f ba d1 1f 8f 37
       -0.00042099543 -8.497697e-06 -0.0006700953 1.7061744e-05
0002b0 33 45 8a b7 ef b0 d6 b8 9b 59 ea 36 8e a3 26 b7
       -1.6483105e-05 -0.000102372716 6.984175e-06 -9.932452e-06
0002c0 7b db 4b 37 cd a4 a7 b6 4f d8 71 b5 30 ae 18 37
       1.2150845e-05 -4.996173e-06 -9.0094267e-07 9.100462e-06
0002d0 8a 02 37 b7 6c 99 56 37 7d 75 0a ba 01 0a a8 b7
       -1.0908241e-05 1.2791115e-05 -0.00052817893 -2.0031819e-05
0002e0 64 3e cb 36 52 34 d5 37 f6 41 37 39 60 c5 c1 b7
       6.0571347e-06 2.5415942e-05 0.00017476812 -2.3099303e-05
0002f0 dc 9f 27 b8 dc e8 f8 b7 d1 8b a2 b9 cc cd ba 37
       -3.9964783e-05 -2.9672337e-05 -0.0003100322 2.226876e-05
000300 79 8f 67 3b 8a 40 6c 3a 72 be ee 39 24 c5 07 3b
       0.003533332 0.00090123026 0.0004553679 0.002071687
000310 fe 33 11 3b 66 15 90 ba 69 14 eb b9 1f 67 8a 3a
       0.0022156234 -0.0010992705 -0.000448379 0.0010559297
000320 c7 03 7d 3a c4 44 3e bb 6a 8d c7 b9 fd 3c a0 b8
       0.0009651747 -0.0029032687 -0.000380616 -7.6407545e-05
000330 b1 a6 60 3b a7 4a 85 39 e0 f6 9c ba 62 7c a2 ba
       0.0034279043 0.00025423357 -0.001197543 -0.0012396688
000340 eb 38 07 bb 6f 4b 87 38 ac b8 03 bb 18 5a 98 3a
       -0.002063329 6.451352e-05 -0.0020099087 0.001162353
000350 46 64 75 3b 99 c7 94 ba 0c 83 a4 3a 1f 0e 4d bb
       0.00374438 -0.0011350989 0.0012551262 -0.0031288934
000360 62 51 f5 3a 1d d9 ca 3a 8d 02 0b ba 14 d0 16 bb
       0.001871627 0.0015476082 -0.00053028093 -0.0023012208
000370 6f 96 27 bb 1a 49 22 3a 6b 26 13 3a af 9e c6 3b
       -0.0025571843 0.00061907026 0.00056133297 0.006061397
000380 94 15 95 3a ba 2d 78 3a 49 1b a5 bb 88 d2 0f 3c
       0.0011374229 0.0009467263 -0.005038653 0.008778222
000390 df 49 ad ba c2 90 a6 3b 31 d5 09 bb 63 59 37 bb
       -0.0013220868 0.0050831744 -0.0021031613 -0.0027976863
0003a0 52 41 eb bb 44 f7 b5 3a 17 2a b5 3b 6a 9f 89 3b
       -0.0071794176 0.0013882895 0.005528699 0.004199912
0003b0 0f a9 7b ba a2 9b 62 39 8a eb 78 ba 89 ab ab bb
       -0.0009600082 0.00021611017 -0.0009495547 -0.0052389544
0003c0 91 6a ad 3b 25 ea 16 3b 6e f9 dd 3b cd 9b ac 3b
       0.0052922447 0.0023027745 0.006774119 0.0052675963
0003d0 31 d9 25 3c 3b b5 ca bb 3c ba 54 38 e7 e6 1b bb
       0.010122583 -0.006186155 5.0718183e-05 -0.0023788752
0003e0 f8 e3 0d bc 55 b1 a7 3b a5 3c d9 3a 6e 59 8c ba
       -0.008660309 0.005117575 0.001657386 -0.0010707804
0003f0 05 c9 81 3b bc 19 b7 3b c4 05 8e ba f9 b0 bc bb
       0.003960731 0.0055877846 -0.0010835459 -0.0057584015

mlp.mlp.0.bias f4 [64]
000000 b0 c8 fe b3 a4 f7 d5 b4 56 be d5 32 06 d0 49 31
       -1.18643015e-07 -3.9854524e-07 2.4883018e-08 2.9367597e-09
000010 06 35 a1 33 6d 66 15 33 d1 9a 43 35 0c b1 c8 33
       7.5067916e-08 3.478492e-08 7.286845e-07 9.3454304e-08
000020 97 1d 12 b4 22 40 1c b3 36 e4 34 32 87 e5 94 33
       -1.3608074e-07 -3.637991e-08 1.0529268e-08 6.933538e-08
000030 80 c8 ed 34 72 d6 6a 32 42 cf 19 b3 9e ad 88 31
       4.4290573e-07 1.3669352e-08 -3.581159e-08 3.977859e-09
000040 c0 c4 4f 34 ed be 04 b5 3c c2 3e b3 63 0d 1c 33
       1.9349955e-07 -4.9451666e-07 -4.4414477e-08 3.6333756e-08
000050 4e ba a2 b4 0f 1c d0 b3 91 bb 98 b1 21 4d fa 34
       -3.0310406e-07 -9.6908586e-08 -4.445106e-09 4.6622247e-07
000060 93 91 55 b0 b2 c6 e9 33 2f c0 8c b4 73 bb 2a b3
       -7.769582e-10 1.08860505e-07 -2.6216864e-07 -3.9751693e-08
000070 31 08 b5 b3 f1 d2 c8 b1 aa d5 58 34 84 5a ab 32
       -8.429959e-08 -5.8447474e-09 2.0194298e-07 1.9948182e-08
000080 e9 d5 eb 33 f0 3d 09 33 95 66 36 33 7e 2b 53 32
       1.098195e-07 3.195413e-08 4.2468475e-08 1.2291705e-08
000090 d0 c5 82 33 e8 f5 50 b4 79 16 98 b3 a5 ad ed 32
       6.0895786e-08 -1.946097e-07 -7.082139e-08 2.7669396e-08
0000a0 cb 25 95 b4 23 a0 5e b2 76 ff 8e b3 98 82 c5 32
       -2.778091e-07 -1.2958512e-08 -6.658858e-08 2.2993206e-08
0000b0 84 28 98 34 5b 8e 76 b4 03 6f 06 b5 77 77 ab b4
       2.8341685e-07 -2.2962324e-07 -5.0080433e-07 -3.1938154e-07
0000c0 70 76 a8 b3 51 82 bf 33 0a 46 20 33 58 e0 d7 32
       -7.844653e-08 8.917835e-08 3.7316603e-08 2.5131314e-08
0000d0 c5 29 80 b4 4a 60 16 32 1a 8b 14 34 94 96 e8 33
       -2.387225e-07 8.753043e-09 1.3834179e-07 1.0830732e-07
0000e0 6d 82 31 34 66 cd bb b2 15 bc e7 31 4b 08 89 b2
       1.6531858e-07 -2.186307e-08 6.7443673e-09 -1.595267e-08
0000f0 c2 9c 44 b4 ad 92 09 34 c2 76 10 b2 20 12 f0 b1
       -1.831095e-07 1.281248e-07 -8.408906e-09 -6.98698e-09

mlp.mlp.1.weight f4 [64]
000000 17 c0 88 3d 04 36 a9 3d 55 40 3c 3d ea 01 5a 3d
       0.06677263 0.08262256 0.04595979 0.05322448
000010 d2 05 5a 3d 41 dc a2 3c a6 58 14 3d 5a 94 18 3d
       0.053228207 0.019880416 0.036217354 0.037250854
000020 56 cc 5f 3d c6 6e 46 3d 28 65 17 3e 5e 2b ef 3c
       0.05463823 0.048445486 0.14784682 0.029195484
000030 c4 2e 12 3d d0 33 c4 3c 37 55 30 3d 7f 01 7e 3d
       0.03568913 0.023950487 0.043050017 0.062013146
000040 47 57 5d 3d bc 84 d8 3d f4 70 74 3d 79 dc ee 3c
       0.054038312 0.10572192 0.059678033 0.029157864
000050 e8 e8 16 3d 49 be e0 3d f3 82 b0 3c bb fc 23 3d
       0.03684321 0.10973794 0.021546816 0.040035944
000060 0c e6 55 3c 62 a0 49 3d d7 4b 5d 3d 80 5f 1c 3d
       0.013055336 0.04922522 0.054027405 0.038177013
000070 44 a6 3f 3d 2a 23 85 3d 4f 51 3a 3d 5b 43 7c 3d
       0.046789423 0.06500848 0.0454877 0.061587673
000080 8e ba 24 3d 7e 12 10 3d 62 d5 3b 3d 77 1b fb 3c
       0.040216975 0.035173886 0.045857795 0.030652745
000090 00 d6 05 3d b2 6a 06 3d 18 5d 81 3d 75 81 89 3d
       0.03267479 0.032816596 0.06316584 0.06714145
0000a0 02 9a 32 3e b4 4e 73 3d dc 29 56 3d 6d 77 18 3d
       0.17441562 0.05940123 0.052286014 0.03722327
0000b0 f0 53 5d 3d ce 66 13 3d b1 53 2e 3d 08 55 5a 3d
       0.054035127 0.035986714 0.042560283 0.05330375
0000c0 34 e6 36 3d 69 da 43 3d 59 75 46 3d 05 44 d5 3c
       0.044653133 0.047815714 0.048451755 0.02603341
0000d0 5e f4 1e 3d e4 b0 70 3d fe e9 14 3d da 27 8e 3d
       0.038807265 0.058762446 0.036355965 0.06941195
0000e0 2b 6b 43 3d f1 e3 20 3d 47 d6 4f 3d 44 ca 24 3d
       0.047709625 0.039279882 0.05074146 0.040231958
0000f0 7b 2c 0b 3d 87 c7 28 3d 21 af 1c 3d 2b a5 6e 3d
       0.033977967 0.04120591 0.038252953 0.058262985

mlp.mlp.1.bias f4 [64]
000000 cc 11 ce 3c b5 bb e0 3c d9 ea 21 3d bc 40 db 3c
       0.02515497 0.027433256 0.03953061 0.026764266
000010 01 4e df 3c 2f d5 80 3c 99 a4 14 bb c6 81 4b 3c
       0.027258875 0.015726654 -0.0022681116 0.012421077
000020 43 69 90 3c ea 32 10 3d 9e d0 81 3d d4 dd 01 3c
       0.017628318 0.035204805 0.06338619 0.007926423
000030 b6 56 57 3c 03 24 30 3c 43 2a 19 3c 98 ac 24 3d
       0.013143232 0.010750773 0.009348455 0.04020366
000040 f4 d5 a3 3c c9 d8 cc 3c 16 18 1c 3d c2 ad 65 3c
       0.019999482 0.025005715 0.038108908 0.014018478
000050 ea b6 0f 3c 01 bc 47 3d 13 b5 19 3c 2e db df 3b
       0.008771637 0.04876328 0.00938155 0.006831548
000060 c9 d0 74 3b 05 22 87 3c 7b 69 ee 3c f4 29 42 3c
       0.003735589 0.016495714 0.029103031 0.011850823
000070 d6 bc 9b 3c 65 f2 95 3c e4 50 b8 bb d0 46 25 3d
       0.019010942 0.01830406 -0.0056248773 0.040350735
000080 8a 31 c5 3b 56 80 25 3c 2a 2b 85 3b 8b 65 40 3c
       0.0060178684 0.010101398 0.0040639834 0.01174296
000090 fd 40 38 3c 4e ee 0e 3c 4c 4c cd 3c e2 e5 83 3c
       0.011245963 0.008723808 0.025060795 0.016100828
0000a0 a1 f1 60 3c f2 5c 20 3d 39 06 16 3d 97 9b 5d 3c
       0.013729484 0.03915114 0.03662703 0.013525865
0000b0 cb 60 ea 3c 1f b1 4f 3c 95 9f cb bb 3e 3c e2 3c
       0.028610608 0.012676506 -0.006214092 0.027616616
0000c0 59 24 72 bb 81 19 c2 3c 1c 15 0c 3d 57 4a 1c 3c
       -0.0036947934 0.023693802 0.03419982 0.009539208
0000d0 7c 11 0a 3c 74 10 c5 3c a6 db 21 3c 2c 75 a7 3c
       0.00842702 0.024055697 0.009879028 0.020441614
0000e0 f6 8e cd 3c 20 c9 04 3c 14 42 16 3d 22 5b 64 3c
       0.025092583 0.008104593 0.03668411 0.013937743
0000f0 cf 52 10 3c e7 00 57 3c d6 50 02 3c b8 e0 f6 3c
       0.008808806 0.013122774 0.007953843 0.030136451

mlp.mlp.1.running_mean f4 [64]
000000 78 01 8d 3c 3a 79 93 3c 0b 03 c2 3b 03 c4 55 3c
       0.017212614 0.018002141 0.005920773 0.013047221
000010 23 fb 23 3c 99 ed ce 3b 9c 22 34 bc e3 b6 ab bb
       0.010008606 0.006314945 -0.01099458 -0.0052403077
000020 da c0 e5 3b fd 3e a5 3b 62 5a ae 3b ab 08 da bb
       0.007011515 0.005042909 0.005320833 -0.0066538653
000030 e7 ac b0 bb 1b cd 1d 3c 10 01 45 3c 6c b8 e6 3a
       -0.0053917053 0.0096314205 0.012024179 0.001760257
000040 19 d4 53 3c 3f 9d 44 bc 1d ab 99 3b 87 8e 0d bc
       0.012928986 -0.012000381 0.0046895877 -0.008639938
000050 ab 1d e0 bb bc aa be 3b b9 c4 57 bc 70 f6 1f bc
       -0.006839474 0.005818693 -0.013169461 -0.009763345
000060 ff 01 4b bc e7 62 cd 3b 57 e6 37 3c 38 73 99 bb
       -0.012390613 0.0062678936 0.011224351 -0.0046829246
000070 5b f8 33 3c 27 ef 4a 3b 95 05 1e bc 82 04 d2 3b
       0.0109845055 0.00309653 -0.009644886 0.006409229
000080 b7 2a 00 bc 08 89 fd bb 57 04 4d bb 78 71 b2 3b
       -0.007822684 -0.0077372827 -0.0031283104 0.0054456554
000090 d1 1c 9a bb 3a 89 b2 bb f5 a2 9d 3c 4e 36 91 ba
       -0.004703142 -0.0054484876 0.019242743 -0.0011078806
0000a0 1e 46 86 3c 9a fa 0e 3b 1f f2 54 3b b0 f5 b5 bb
       0.016390856 0.002181685 0.0032492948 -0.00555297
0000b0 88 43 2d 3c 4f f4 9c bb 09 da 2b bc 2a 38 58 3c
       0.010575183 -0.004789866 -0.010488995 0.013196984
0000c0 e4 21 1c bc 30 56 17 3c f5 fa 84 3b 51 6d ca 3a
       -0.0095295645 0.009236857 0.0040582367 0.0015443956
0000d0 1c 0e d7 bb 02 9e 5a 3c db 45 18 bc 93 84 f5 3b
       -0.0065629613 0.013343336 -0.009293999 0.0074926107
0000e0 ea 79 15 3c d7 09 b5 bb 8e 6f 57 3b a1 32 7c bc
       0.009123305 -0.0055248546 0.0032872888 -0.01539293
0000f0 ce 74 a3 bb 85 b1 56 bb af 66 b2 bb 4d a5 95 b8
       -0.0049882894 -0.0032759618 -0.0054443697 -7.135663e-05

mlp.mlp.1.running_var f4 [64]
000000 4e b3 c2 37 22 90 03 38 0c a3 ee 37 a6 bf c3 37
       2.3210097e-05 3.1367068e-05 2.8447736e-05 2.3335055e-05
000010 f7 82 42 37 f8 1f 55 37 21 74 3c 37 33 ff ac 36
       1.1593794e-05 1.2703233e-05 1.1232712e-05 5.1557085e-06
000020 01 8b 0a 38 fd 48 10 38 0f 08 95 38 7f ba 16 37
       3.303122e-05 3.440025e-05 7.106375e-05 8.984119e-06
000030 67 45 bf 36 93 eb d4 38 dd 99 c6 37 c4 dc 13 38
       5.700323e-06 0.00010152827 2.3675088e-05 3.5253135e-05
000040 87 89 91 37 51 f3 91 38 5b 2d 17 38 5a 8a bb 38
       1.7349388e-05 6.95946e-05 3.6043446e-05 8.942625e-05
000050 7a c4 f0 36 cb 6d 81 38 2e 04 9b 38 1a 1d b8 36
       7.1754303e-06 6.17165e-05 7.3917545e-05 5.487015e-06
000060 a9 ad 99 37 59 85 f9 37 05 39 b2 37 85 ab c0 36
       1.8319888e-05 2.9745208e-05 2.1245805e-05 5.7420134e-06
000070 b1 c2 9b 37 9f af d4 37 96 a6 36 37 95 11 08 38
       1.85681e-05 2.535415e-05 1.0886832e-05 3.24413e-05
000080 a9 fa ad 37 2e 8c d4 36 d0 a1 06 37 1d 59 90 38
       2.073993e-05 6.3344114e-06 8.024697e-06 6.883054e-05
000090 2d 39 da 36 94 52 a1 36 60 90 ec 37 b8 4c d5 37
       6.5035624e-06 4.8077873e-06 2.8200622e-05 2.5427304e-05
0000a0 2e 45 0f 38 1e 84 18 38 11 0b 0e 38 b3 51 de 36
       3.4158285e-05 3.6362668e-05 3.3865745e-05 6.6256266e-06
0000b0 8e f5 aa 37 65 8c a8 36 f5 a9 2b 37 7e 95 d7 37
       2.0379925e-05 5.0231342e-06 1.02319655e-05 2.569961e-05
0000c0 62 cf 11 37 23 7f f4 37 7b 75 76 38 a8 ea 33 37
       8.690959e-06 2.914627e-05 5.8760383e-05 1.0723867e-05
0000d0 08 92 f3 36 43 d7 95 37 2a 15 68 37 ea 1b 32 38
       7.2589646e-06 1.7862423e-05 1.3833205e-05 4.2464504e-05
0000e0 13 ba de 37 f9 89 fc 36 c0 60 1f 38 6e 0f 13 37
       2.655111e-05 7.5262474e-06 3.799866e-05 8.765475e-06
0000f0 e7 3c 1c 37 64 44 8a 36 72 d0 42 37 b4 20 20 39
       9.3125045e-06 4.120682e-06 1.16118335e-05 0.00015270972

mlp.mlp.4.weight f4 [64, 64]
000000 d2 3d 0c bb b4 0a 06 b9 d8 e6 26 bc bd 8f fb bb
       -0.0021399152 -0.00012783223 -0.010186873 -0.007677047
000010 03 e7 be bb 3f 7c 86 bb df a1 85 3b c3 c8 4a 3b
       -0.0058258786 -0.0041041668 0.0040781344 0.0030942417
000020 5b cd 01 3a 5f db 26 bc b4 bd 12 3c 19 85 9f 3b
       0.000495156 -0.010184138 0.008956362 0.0048681614
000030 c8 62 df 3a 09 20 22 3b 45 3a d8 ba e9 70 53 bc
       0.0017042989 0.0024738333 -0.0016496858 -0.012905338
000040 47 26 3d bb 32 cf 15 3c 7f 8b 46 bc cf 69 a9 3b
       -0.0028861926 0.0091436375 -0.012118219 0.005170084
000050 67 36 6d 3b d6 65 86 bc a3 42 81 3b 9d 2a af 3b
       0.0036195756 -0.016405981 0.0039447113 0.005345656
000060 f2 c9 e1 3a 71 20 1d 3a ad 97 05 bc 6e 1b 03 3b
       0.0017226322 0.0005993909 -0.008153838 0.0020005363
000070 ff 97 31 bb fc 20 34 bc 2f 82 5a 3b 6b 19 56 bc
       -0.0027098653 -0.010994192 0.0033341756 -0.013067584
000080 70 d7 f7 3b bd a9 52 3b dd 81 49 3a f0 ae 2f 3b
       0.007563524 0.003214463 0.00076868926 0.0026807152
000090 aa dc 96 3b 67 06 a3 3b fc bc fe ba 55 19 35 bc
       0.004603942 0.0049751285 -0.0019434984 -0.011053403
0000a0 b1 bc 1e ba b8 16 4c bc d5 e6 36 bc 22 e2 e4 3a
       -0.0006055339 -0.012456588 -0.011163433 0.0017462412
0000b0 e0 23 01 bc b0 5e 79 3a 8e 4a f1 3a c8 af 01 bc
       -0.007882088 0.0009512706 0.001840906 -0.007915445
0000c0 96 54 2e 3b c9 2d ed b9 60 88 15 bc 71 23 9e 39
       0.002660071 -0.00045238275 -0.009126753 0.00030162514
0000d0 4a eb 81 3b d8 9c c0 bb 69 74 e5 3b bf 3f 62 3a
       0.003964816 -0.005878072 0.0070024026 0.0008630715
0000e0 9d 7e 2b ba ab 53 ac 3a 61 70 2d bc 1d 91 54 3b
       -0.0006541999 0.0013147494 -0.010585875 0.0032435127
0000f0 f9 14 04 3c 0f 1f 19 3b 57 f1 83 ba 70 74 2a bc
       0.008061641 0.002336446 -0.0010066432 -0.010403737
000100 f8 0f 30 bc fe 2f e5 bb cf 2b 59 bb 26 7c a8 bb
       -0.010745995 -0.0069942465 -0.0033137684 -0.005141753
000110 27 9a 4b bc 53 53 11 3b a3 ae 35 3b 03 6a 13 3c
       -0.0124268895 0.002217491 0.00277225 0.008997443
000120 30 d8 09 3a 21 dc b8 36 31 f3 9f bd 50 c5 ec 39
       0.00052583497 5.5092537e-06 -0.07810057 0.00045160437
000130 a2 4f 43 3b 46 87 8f bb de 25 d5 ba fd 1c a3 b9
       0.0029802104 -0.0043801395 -0.0016261896 -0.0003111138
000140 48 76 1e bc 00 23 bd ba 9c e6 bc ba ab fc d4 bb
       -0.009671755 -0.0014429986 -0.0014411989 -0.006499847
000150 bc ca af 3b 7d 54 e8 3a bb 7c 31 bb 61 7b d7 3b
       0.005364744 0.0017725375 -0.0027082402 0.006575987
000160 0e e4 5a bb 66 ae 1f 3b e3 3d c9 bb 5e f1 80 3b
       -0.0033400091 0.0024365424 -0.0061414107 0.003935023
000170 ea 62 ab bb b5 5c ad 3b f3 7f 6a 3b d7 0b da b9
       -0.0052302973 0.0052905926 0.003578183 -0.00041589022
000180 bc 71 9d bb 8f 04 63 3b be 1c 79 3a a7 a0 bc bb
       -0.004804818 0.0034640168 0.0009502879 -0.005756456
000190 a8 8e e9 3b 2b 7c 55 ba 96 36 08 bc 70 f5 68 3b
       0.0071276017 -0.00081438076 -0.008313796 0.0035546683
0001a0 38 9d cd bb 8c ec 9b ba db 56 1a 39 3c 27 b0 3b
       -0.0062748455 -0.0011896058 0.0001471894 0.005375771
0001b0 b9 14 d3 bb 4e af 67 3b 22 52 3f ba 59 09 c0 bb
       -0.0064416793 0.0035352292 -0.00072983105 -0.0058604893
0001c0 57 97 49 3c f0 39 0b bb 16 09 15 ba 1b 2d fe 3b
       0.012304149 -0.002124425 -0.0005685253 0.007756842
0001d0 4e d5 94 3b 8a 4d 3a bc ee ad 15 3b ec 59 10 3b
       0.0045420295 -0.011371026 0.0022839266 0.0022026254
0001e0 43 60 63 bb 0c 6f fd 3b 25 36 8c b9 2c 63 f8 3b
       -0.0034694828 0.007734185 -0.00026743222 0.0075801816
0001f0 87 8e 3c bb d9 db 08 3c 0d 98 26 b9 36 e5 83 3b
       -0.0028771476 0.008353197 -0.00015887637 0.004025127
000200 64 aa f2 ba d7 5f 2b 3a 1d 85 5a bc 5e aa 2f bc
       -0.0018513915 0.00065374136 -0.013337401 -0.010721771
000210 9e 70 02 bc c8 d4 c5 bb 5b e4 7a 3c 9c 42 bd 3b
       -0.00796142 -0.0060373284 0.015313233 0.0057757627
000220 13 46 28 3a 52 a4 71 bc 73 4b f9 3b 81 8d 10 3c
       0.0006419133 -0.01474865 0.007607871 0.0088228
000230 2c 6d 21 3b a7 35 e9 3b 5b b9 23 bb 38 19 8f bc
       0.0024631722 0.0071169916 -0.0024982307 -0.01746808
000240 2d 70 d2 38 be cc 0b 3c 80 97 8a bc 39 48 72 3b
       0.00010034475 0.008532701 -0.016917944 0.0036969318
000250 46 bc d5 3b 58 cc 9f bc 04 d9 e4 3b 64 d8 e8 3b
       0.006522688 -0.019506618 0.006983878 0.007105874
000260 d6 b0 ea 3a 09 8e b1 b9 52 1d 3f bc 41 01 d3 3a
       0.0017905484 -0.00033865895 -0.011664705 0.0016098396
000270 46 85 8b bb 60 ce 84 bc c8 d8 90 3b b3 b7 97 bc
       -0.004257831 -0.016211689 0.0044203736 -0.018520212
000280 40 11 2b 3c 0f 14 e7 3a fa a6 a5 3a fd 9e fc 3b
       0.010441124 0.0017629879 0.0012638264 0.0077093826
000290 06 7f 80 3b 09 6c 93 3b 7f 57 e5 ba 18 9b 85 bc
       0.0039213924 0.004498963 -0.0017497389 -0.016309306
0002a0 d5 ff d0 b8 79 0a 8d bc 11 06 7f bc d9 ec f2 b8
       -9.965865e-05 -0.017216908 -0.015565411 -0.000115835755
0002b0 3c a3 5a bc 2c 76 b3 ba 5f 21 32 bb cf a8 3b bc
       -0.013344582 -0.0013691834 -0.0027180535 -0.011453821
0002c0 4d 82 e6 3a 6e ca 17 bb ab 5e 3c bc 7d d2 58 b9
       0.001758644 -0.002316143 -0.01149718 -0.00020677778
0002d0 e5 25 84 3c 54 84 01 bc 24 ed 1a 3c 46 80 d8 3a
       0.01613135 -0.007905085 0.009455953 0.0016517721
0002e0 52 f8 3c 3a 76 0c ec 3a 3d d2 76 bc 97 6e 65 3b
       0.00072086335 0.0018009085 -0.015064773 0.0035008544
0002f0 0c a8 a1 3b 02 cc 9e 3a d3 02 6d bb 06 80 78 bc
       0.004933363 0.0012115242 -0.0036165013 -0.015167242
000300 01 3f 4f bb 90 b5 46 bb 2f bc ae 3b 0d 29 01 3b
       -0.0031623247 -0.0030320622 0.005332492 0.0019708306
000310 0a 52 91 ba 44 c0 05 3b 42 9d 8c b9 a1 c3 bc 3a
       -0.0011087072 0.0020408789 -0.00026820047 0.0014401564
000320 01 a3 f5 b7 46 55 cd 3b 1d ae 02 bc 4c 1a 00 bb
       -2.928218e-05 0.006266269 -0.007976082 -0.0019546924
000330 67 c3 10 3b 1d 4d 06 bb 2d 04 07 ba 2c f3 0c 3c
       0.0022089125 -0.002049274 -0.00051504635 0.008602899
000340 50 28 f5 ba 0a 45 09 bc 55 1b 06 3c ad 1c 71 bb
       -0.0018704031 -0.008378277 0.008185227 -0.0036790774
000350 41 4e a8 39 6d eb 55 3c f0 13 09 bb c3 5a 09 ba
       0.0003210176 0.013056618 -0.0020916425 -0.000523966
000360 cb ff 73 ba e1 32 00 39 b0 e4 fd 3a 51 09 14 3b
       -0.00093078305 0.00012225985 0.0019370522 0.002258856
000370 fe a9 89 ba fa c5 0e 3c 07 24 a6 3a ff b8 0e 3c
       -0.0010502932 0.0087141935 0.0012675532 0.008711099
000380 1f fd 68 bb 72 53 19 39 6f 05 58 3b eb 18 23 bb
       -0.0035551263 0.00014622303 0.0032962223 -0.0024886678
000390 33 05 26 ba a7 46 9a ba 98 8c 24 bb 32 13 18 3c
       -0.0006333172 -0.0011770324 -0.0025108214 0.00928192
0003a0 bf e8 b0 bb fc 2d 08 3c 37 31 e4 3b f1 46 02 3b
       -0.0053988392 0.008311745 0.0069638747 0.001987871
0003b0 a5 a4 f0 3a 4c b1 1b 3b 46 ab a3 3a 6f 63 09 3b
       0.0018359615 0.00237568 0.0012486957 0.0020963808
0003c0 79 f1 e5 3a db b1 35 ba 79 b9 a4 3b 9c 52 3f 3a
       0.0017543278 -0.00069311046 0.005026993 0.00072983815
0003d0 fe d4 03 b8 cb 58 2e ba b0 fb 80 bb 62 ca b3 38
       -3.14312e-05 -0.00066508044 -0.0039362535 8.573082e-05
0003e0 8d 39 47 ba 82 cb 32 3b 42 94 d5 3b 40 f7 d4 3a
       -0.00075998233 0.0027281945 0.006517918 0.0016248003
0003f0 0e 35 2d bb 6d 22 1c 3b 3c 1f 4d 3b 5f 09 d0 3b
       -0.0026429328 0.002382423 0.0031299135 0.0063487734

mlp.mlp.4.bias f4 [64]
000000 53 97 d7 b4 8e 79 15 b4 75 44 04 35 97 84 ff b2
       -4.0156974e-07 -1.3920928e-07 4.927345e-07 -2.9746202e-08
000010 61 42 f8 33 e0 3e 9d 32 e8 bd ae 32 24 d8 f5 b3
       1.1560474e-07 1.8305798e-08 2.0342625e-08 -1.1448017e-07
000020 7c ec f8 34 5d 09 1a 34 58 13 93 33 18 af 08 33
       4.6365665e-07 1.4345774e-07 6.8487395e-08 3.1824214e-08
000030 8b 2a 41 34 75 42 8f 33 5a e6 4e 34 ec fb 8f b1
       1.7990003e-07 6.671045e-08 1.9269046e-07 -4.190488e-09
000040 0c cd 85 33 1e b8 22 33 27 7d 22 30 7d 7b c0 b3
       6.230593e-08 3.7886018e-08 5.911311e-10 -8.963159e-08
000050 60 87 8a 34 12 a0 43 b4 81 35 ac 32 b2 36 22 2d
       2.5803e-07 -1.8219023e-07 2.0047766e-08 9.220779e-12
000060 66 ca 0a 35 92 8e 06 b5 cf 5b 35 b4 77 6d 04 a0
       5.1703535e-07 -5.0126357e-07 -1.6890338e-07 -1.1217054e-19
000070 74 c4 28 ae 36 d9 3d b5 e9 71 70 34 62 3d 09 ac
       -3.8373263e-11 -7.072407e-07 2.2393182e-07 -1.9502945e-12
000080 8d 33 0a b5 75 0a 4d 34 c1 5f 16 32 88 2f 80 33
       -5.148402e-07 1.9095917e-07 8.752921e-09 5.9691104e-08
000090 d5 0c 8a 35 41 8a d0 34 d9 92 6c 33 d2 5a bd 34
       1.0285536e-06 3.8843612e-07 5.508159e-08 3.5270074e-07
0000a0 b2 2c 8b 33 95 b8 5b 34 59 da 0d 2f 97 5a 07 35
       6.480822e-08 2.0463115e-07 1.2901448e-10 5.0423245e-07
0000b0 59 2a 6b b0 d5 b6 23 b5 d9 ab 98 b4 7b 6c 17 35
       -8.555268e-10 -6.098829e-07 -2.8437242e-07 5.6409743e-07
0000c0 a7 5d d5 33 d1 1a 84 b5 95 26 7c 35 12 6c b7 b4
       9.935621e-08 -9.842571e-07 9.393346e-07 -3.4165038e-07
0000d0 36 cb 4c b3 f6 45 3c b2 76 ea 3f 33 f4 6e 0c 30
       -4.768227e-08 -1.09589475e-08 4.4683894e-08 5.1089377e-10
0000e0 c6 25 a3 32 c6 bc 1e b5 6e bd 76 30 5a 15 ca b2
       1.8992875e-08 -5.913429e-07 8.9763474e-10 -2.3525605e-08
0000f0 16 92 9b b3 da 2c de b5 92 11 41 31 5a 47 10 35
       -7.244323e-08 -1.6553342e-06 2.8095184e-09 5.374801e-07

mlp.mlp.5.weight f4 [64]
000000 70 0f cd 3e b5 21 53 3f e0 9d 4a 3f de 03 5c 3e
       0.4005084 0.8247331 0.7914715 0.2148585
000010 80 b7 9c 3e 40 93 00 3f cb c6 06 3e f8 7d b4 3e
       0.3060875 0.50224686 0.13161771 0.35252357
000020 c0 9a 2e 3f a6 4c 43 3f a9 aa dc 3e 27 13 34 3e
       0.6820488 0.7628883 0.43098953 0.17585431
000030 94 02 4b 3f e5 f4 55 3f 16 b4 4d 3f e0 a7 df 3d
       0.7930081 0.83576804 0.80352914 0.109206915
000040 15 ea 36 3e 9d a6 b6 3e 0c 27 15 3f 0c 08 e7 3e
       0.17862733 0.3567399 0.58262706 0.45123327
000050 32 aa 54 3f b5 e7 0a 3f 40 ff d5 3e 15 1f fc 3e
       0.830722 0.54259807 0.41796303 0.49242464
000060 31 68 09 3f de db 0f 3f 67 3e 55 3f d5 a7 f0 3e
       0.5367461 0.56194866 0.83298343 0.47003046
000070 47 59 10 3f 5b 77 33 3f b9 95 27 3f fa c3 07 3f
       0.56386226 0.70103997 0.65462834 0.5303341
000080 4d 18 58 3f 6c 8e 0b 3f b8 d5 9d 3e 63 9b fa 3e
       0.8441208 0.54514194 0.30827117 0.48946676
000090 34 0e 48 3f 3b bc 30 3f d2 27 02 3e 4d 2e 2c 3f
       0.7814667 0.69037217 0.12710503 0.6725815
0000a0 e2 77 d0 3d b4 2d 21 3f 2c 16 16 3f 1c 34 58 3f
       0.10179116 0.6296036 0.5862758 0.8445451
0000b0 8f 40 dc 3d b0 9f 3a 3f b3 66 ae 3e dd 63 26 3f
       0.10754501 0.72899914 0.34062728 0.6499613
0000c0 23 ad 46 3f 40 0e 47 3f 83 28 4e 3f 1d 47 52 3f
       0.77607936 0.7775612 0.80530566 0.8213976
0000d0 95 e5 45 3e da 02 a7 3e 79 fd 53 3f 66 63 16 3f
       0.1932586 0.32619363 0.82808644 0.5874542
0000e0 87 00 9e 3e 43 cb 0e 3f e3 6d 0c 3f 49 4e c4 3d
       0.30859777 0.557789 0.54855174 0.09585244
0000f0 7f a4 2e 3e bb 06 2a 3f 93 a4 f2 3d d4 5a d4 3e
       0.17054938 0.6641652 0.11847796 0.41475546

mlp.mlp.5.bias f4 [64]
000000 48 37 d1 3d 87 b6 ed 3d cd ca da 3d de 57 a9 3c
       0.10215622 0.1160708 0.106832124 0.020671781
000010 a0 27 8f 3a df 09 13 bd 98 22 53 3d 8e 64 f9 3d
       0.0010921843 -0.035898086 0.051546663 0.121773824
000020 91 f1 f7 3d 8e 3e ee 3d 53 92 b5 bc 07 dd 21 3d
       0.12106622 0.11633025 -0.0221645 0.03951743
000030 95 87 f2 3d f6 ff d9 3d 8d 3c e0 3d 6b 6b 94 3d
       0.118422665 0.10644524 0.10949049 0.07247051
000040 4b 3f aa 3d 08 bf 1c bc 18 cd 41 bd 8d a9 ae bc
       0.083128534 -0.00956703 -0.047314733 -0.021321082
000050 6e 99 e5 3d 29 16 cf 3d af ed 93 bc 68 7f 11 bd
       0.11210905 0.101116486 -0.018057672 -0.035521895
000060 e3 7e e0 3d cb c5 d1 3d 26 d2 d8 3d 5b 4f 0e bd
       0.10961702 0.10242804 0.10586958 -0.034743648
000070 80 12 31 bd 6d 4b ea 3d c2 29 d8 3d b8 38 1f bd
       -0.043230534 0.114401676 0.1055484 -0.03887245
000080 37 7b de 3d cb a4 f4 3d d5 c6 ed 3d 28 a3 f6 3d
       0.10863345 0.11945494 0.1161019 0.12042838
000090 54 ab ec 3d e9 00 e8 3d 1a a7 61 3d b6 5c e4 3d
       0.11556116 0.113282986 0.055091 0.11150496
0000a0 97 45 7f 3d 15 7c dc 3d 01 87 43 bd 5a 32 e9 3d
       0.062322225 0.10765854 -0.04773617 0.11386557
0000b0 ae ec 70 3d bb 28 d2 3d 30 a8 ed 3d 69 0b d6 3d
       0.058819465 0.10261675 0.11604345 0.10451395
0000c0 95 8c e4 3d 13 8d e8 3d 1a 15 db 3d 9b 4f dc 3d
       0.111596264 0.11355033 0.10697384 0.10757371
0000d0 1c 1d d4 3c 5d 47 05 bb 83 fd dc 3d ba 34 43 bd
       0.025892787 -0.0020336725 0.10790541 -0.047657706
0000e0 fd 9f ac ba 4d 84 eb 3d d0 d1 3d bd 0e 7d a0 3d
       -0.0013170239 0.11499844 -0.04634267 0.07836352
0000f0 9c a9 24 3d 27 15 f4 3d 20 d1 45 3d bc 5f d5 3d
       0.040200815 0.11918097 0.04829514 0.104186505

mlp.mlp.5.running_mean f4 [64]
000000 b8 70 c5 bb 4d a3 1d bc a4 cf 0e bc 54 a1 39 3b
       -0.0060254 -0.0096214535 -0.008716498 0.0028324919
000010 a6 3e 41 3b 48 01 1b 3b 6f ce 22 bb 2e d0 85 bb
       0.0029486804 0.0023651887 -0.0024842282 -0.004083655
000020 44 e7 02 bc 02 b8 c6 bb da a2 22 3b 9b 92 39 bb
       -0.007989708 -0.006064416 0.0024816305 -0.0028316143
000030 c0 f0 c4 bb 1e 68 3c bb 4f e7 0a bc 5d 9c 7a bb
       -0.006010145 -0.0028748582 -0.008478 -0.0038240172
000040 34 ca 9d bb d0 37 3a 3b 4f 51 db 38 6b ac 56 bb
       -0.0048153643 0.0028414614 0.00010457879 -0.0032756578
000050 c6 44 e1 bb 4d 4c e3 bb af 3f 32 3b 2e aa fe 38
       -0.0068746535 -0.006936586 0.0027198603 0.00012143362
000060 53 68 e0 bb 1e 0b e2 bb d4 2c 10 bc 03 9f 33 38
       -0.006848374 -0.006898298 -0.00879975 4.2825017e-05
000070 53 e2 75 38 ed af d5 bb 54 ed fe bb ba 78 08 39
       5.8623333e-05 -0.006521216 -0.0077797566 0.00013014945
000080 ee ca 0c bc dc 4e 9e bb 09 0b a5 bb a7 60 92 bb
       -0.008593304 -0.004831178 -0.005036716 -0.0044670883
000090 64 8b ae bb 3a 35 01 bc c8 d9 32 bb 33 1a a2 bb
       -0.0053266753 -0.007886225 -0.0027290452 -0.004946971
0000a0 03 e7 22 bb 46 50 f2 bb e3 08 72 39 e4 d0 d0 bb
       -0.0024856932 -0.0073948232 0.00023082229 -0.006372558
0000b0 f4 51 26 bb a8 35 04 bc 83 56 ac bb 12 61 f6 bb
       -0.0025378438 -0.008069433 -0.0052593364 -0.007518896
0000c0 04 56 7f bb c3 2c e2 bb c0 43 13 bc 64 8a 1b bc
       -0.0038961181 -0.0069023087 -0.008988321 -0.009493444
0000d0 88 e9 37 3b 0b ff 3d 3b 0e 37 1d bc aa 5b ac 38
       0.002806278 0.0028991129 -0.009595646 8.218673e-05
0000e0 ff 05 3d 3b 9b 10 b8 bb 8e dc 7f 39 e2 f1 2d bb
       0.0028842685 -0.005617214 0.00024400858 -0.0026541878
0000f0 0b 03 30 bb fb a0 0c bc e5 cf 64 bb 30 83 cb bb
       -0.0026857283 -0.008583303 -0.0034913954 -0.006210707

mlp.mlp.5.running_var f4 [64]
000000 6c c9 de 38 f6 7e 03 39 ab 36 40 39 85 87 40 38
       0.00010623303 0.0001254043 0.00018330912 4.590258e-05
000010 be 53 4f 38 c9 50 5c 37 3e 63 d4 37 34 1a 87 38
       4.9430637e-05 1.3131831e-05 2.5318583e-05 6.442182e-05
000020 18 fc da 38 c1 72 fe 38 1b fe 1d 38 5b da 0e 38
       0.00010442006 0.000121330384 3.766837e-05 3.4058798e-05
000030 d7 c1 ff 38 fc fa e1 38 df 4c 51 39 28 cb 04 38
       0.00012195453 0.000107755855 0.0001996043 3.1660456e-05
000040 e0 e7 72 38 71 fa 40 38 3c 3e c0 32 8a 8f 0a 38
       5.7913247e-05 4.600961e-05 2.2380043e-08 3.3035445e-05
000050 83 1a c8 38 4c 26 07 39 74 36 3b 38 07 1f a7 32
       9.541681e-05 0.0001288887 4.4634988e-05 1.9455468e-08
000060 67 d5 07 39 cd c5 0a 39 6a 6d 6e 39 75 f1 a2 30
       0.00012954102 0.00013234392 0.00022738209 1.1855678e-09
000070 be 7a 13 32 33 e9 a2 38 ee 8f 1c 39 b5 5b c4 31
       8.5844345e-09 7.768199e-05 0.00014930937 5.7147767e-09
000080 45 d6 5b 39 ae 3c b7 38 ec 1a 7a 38 13 ad ab 38
       0.00020965289 8.7374225e-05 5.9629718e-05 8.186153e-05
000090 11 66 ef 38 d9 4e 27 39 72 99 f0 37 18 3b a2 38
       0.000114154194 0.00015955734 2.8681683e-05 7.735769e-05
0000a0 63 88 d8 37 88 99 18 39 e0 4f d8 32 53 25 0e 39
       2.5812717e-05 0.00014553044 2.5182032e-08 0.0001355608
0000b0 aa 13 c1 37 30 69 2b 39 28 47 85 38 4f 7f 1c 39
       2.301655e-05 0.00016347016 6.355188e-05 0.00014924745
0000c0 1f e4 f1 38 fc 87 b8 38 86 8b 3f 39 f0 a3 48 39
       0.000115342664 8.799133e-05 0.00018267156 0.00019134558
0000d0 e6 a5 3a 38 56 03 49 38 5c 8d 50 39 f9 50 08 33
       4.450036e-05 4.792524e-05 0.00019889086 3.173861e-08
0000e0 fb 07 45 38 2f 0a 85 38 23 c0 9b 33 48 c5 e7 37
       4.6975892e-05 6.343831e-05 7.2526994e-08 2.7629212e-05
0000f0 74 47 0c 38 71 ff cc 38 67 9f 2a 38 4f bf e4 38
       3.3445147e-05 9.775058e-05 4.0679613e-05 0.00010907521

mlp.mlp.8.weight f4 [1, 64]
000000 94 0c f2 3d c8 98 5e 3e f3 86 47 3e 91 07 4f 3d
       0.11818805 0.21737969 0.19485073 0.050544325
000010 d7 47 27 3d 0e 09 6e 3b 2e 73 74 3d f3 39 ec 3d
       0.040839996 0.0036321315 0.059680156 0.115344904
000020 e4 d5 2d 3e 8d 13 3e 3e 04 bd 92 3c 43 96 73 3d
       0.16976124 0.18562146 0.017912395 0.059469473
000030 55 cc 4e 3e c6 25 5e 3e 88 97 4c 3e ca 55 ac 3d
       0.20195134 0.21694097 0.1997968 0.084148005
000040 b8 db c4 3d ce ca fc 3c 0b e5 bd bc f7 b9 bc 3c
       0.096122205 0.030858424 -0.023180505 0.023037894
000050 84 81 5f 3e 9d 9a 07 3e ba c3 cd 3c 65 38 2d bb
       0.2182675 0.13242574 0.025117744 -0.002643132
000060 5e 48 0a 3e d0 81 09 3e b1 69 59 3e dd 98 74 bb
       0.13504168 0.13428426 0.21231724 -0.003732256
000070 a8 20 b3 bc 32 15 2a 3e dd ad 1b 3e 7f 03 bd bb
       -0.021866158 0.16609648 0.15203042 -0.005768239
000080 57 e7 62 3e 5a 35 0a 3e 73 7f e3 3d a0 9e 05 3e
       0.22158562 0.13496915 0.111082934 0.13048792
000090 3b 64 3d 3e dc b5 27 3e 40 b3 83 3d 43 54 21 3e
       0.18495266 0.16377968 0.064306736 0.157548
0000a0 e7 db 88 3d 32 d3 18 3e 2e d9 cd bc 47 30 64 3e
       0.06682568 0.14924315 -0.025127973 0.22284041
0000b0 80 56 85 3d 02 41 2c 3e b8 6f e6 3d 8e ba 1a 3e
       0.06510639 0.16821674 0.112517774 0.15110227
0000c0 c8 0f 46 3e 81 fb 42 3e b5 27 48 3e 34 1d 56 3e
       0.19341958 0.19041254 0.19546397 0.20909578
0000d0 74 b5 5a 3d 15 ad 14 3d c3 99 5a 3e 21 df b6 bc
       0.053395703 0.036297876 0.21347718 -0.022323193
0000e0 87 fd 17 3d 47 dd 0d 3e d1 bc 9b bc 30 07 a3 3d
       0.037107017 0.13853942 -0.019010933 0.07960355
0000f0 3a 05 6e 3d de d2 26 3e 9e d2 84 3d 4e f5 f6 3d
       0.058110453 0.16291377 0.064854845 0.12058507
