model/dfm_epoch_90.pt (torch, 79687 bytes, 15 tensors)

embedding.embedding.weight f4 [98, 32]
00000000: 7039 5b3e d01a 4fbe 30ac 993d dcc2 8fbd
00000010: b888 323e f185 83be c968 69be 28fd bb3d
00000020: 7cfb 22be 6e96 78be 30ba 66be 3915 803e
00000030: f260 353e a0ae 633e 4806 14be 872e 82bd
00000040: 12de 67be eb0e 523e a8e3 4c3d e327 7b3e
00000050: beae 783e 2298 4cbe cb88 723e c510 7dbe
00000060: 640b 60be f5cd 7b3e ca46 8fbe 1122 5ebe
00000070: 31e6 6a3e f732 2b3e c672 4b3e e584 623e
00000080: ffee 563e 6128 60be fa5e ab3d 3c6e a1bd
00000090: 0edf 443e 9624 89be 3907 7fbe c2f1 c93d
000000a0: f43d 31be b4fd 86be feb5 77be 8568 893e
000000b0: c6a4 493e d8f7 773e 7607 1dbe 6d15 8abd
000000c0: f6ef 7cbe fec2 633e ea81 623d 6ce7 873e
000000d0: 1e91 873e fb5b 65be ddd1 833e 7d70 88be
000000e0: 3965 73be 893f 883e 9e38 9bbe b4c8 64be
000000f0: 9f56 7d3e 19f1 3e3e 8a57 763e 7701 753e
00000100: 2c85 763e 98de 72be c5e6 a43d fd5e 9abd
00000110: b2bf 2f3e a93d 93be 1f2b 84be 1b96 e63d
00000120: b2ce 34be 985a 8ebe e875 7ebe adbd 933e
00000130: 435e 503e 1f67 803e 5f58 26be eed9 89bd
00000140: 4242 85be 5a36 733e 5f3a 653d 0f61 943e
00000150: e123 8e3e 08fe 68be 18bf 863e 71ff 92be
00000160: 206a 82be 94a0 8c3e 76f7 a9be e737 80be
00000170: 319d 863e 6337 3f3e 92db 793e 6075 813e
00000180: cc6c bb3d 4a5e bfbd a6e8 0c3d 1286 07bd
00000190: cb5e ac3d 6d68 ebbd 0ec8 d3bd 976c 2b3d
000001a0: ca8e 97bd 101a e1bd 5a4d cebd cb94 e93d
000001b0: ee8a a53d 378a cf3d b0ed 84bd 303d e6bc
000001c0: ece2 d2bd ea8e c03d ffc6 c53c 3d55 e73d
000001d0: c938 e23d 20d2 bbbd bd84 dc3d c9c1 e5bd
000001e0: 2f66 cfbd 0642 e13d 747e 03be a448 c2bd
000001f0: 2f6d d73d a22f 9b3d 3f6d c43d 0c7d cd3d
00000200: d6ca d13d 3505 f2bd 32d3 3a3d 645e 4abd
00000210: 4e29 1a3e aced 16be 4b15 04be 7a5b 483d
00000220: ba8b c3bd 7809 09be 7857 01be 87b6 083e
00000230: cc4a ee3d 564f 033e 3e13 aebd 7da7 14bd
00000240: 73c8 02be d935 ec3d aa21 1d3d 7259 0a3e
00000250: 76b5 0c3e 9cf9 e8bd c883 0c3e b2a1 09be
00000260: 77f2 08be e3de 0b3e 6f37 22be e83c ddbd
00000270: 279d 053e a43c c23d 4b2b ed3d de41 053e
00000280: d2c0 323d 3b9a 0dbd 2994 253c 5b1b c1bb
00000290: a7b1 c3ba 011f 2bbd 853e 21bd 1b06 9d3c
000002a0: db00 c5bc 9ee3 34bd 3023 18bd ec03 473d
000002b0: 2ef2 ae3c 2a2a 163d 3c24 b4bc ccf5 17bc
000002c0: c3cc 21bd ec89 173d a16e 4e3b deb1 403d
000002d0: 5690 2c3d e073 0ebd 8672 1a3d 3cf3 40bd
000002e0: 33d6 09bd dedb 2b3d f034 4ebd 4a60 36bd
000002f0: fecf 213d ac1a e73c 9547 213d f341 0e3d
00000300: 18c9 273e 24a9 2cbe 411b 6f3d 32f5 5dbd
00000310: dfe3 1b3e 733b 80be 283a 37be 65e4 963d
00000320: 68c3 06be 9d78 49be f207 32be 5a69 663e
00000330: 2204 f83d c90e 303e bc15 e8bd 22eb 42bd
00000340: 7d4f 28be aaf2 273e 814b 1f3d 3b19 583e
00000350: 88e7 473e 1dc1 0ebe 7318 3f3e 075c 6dbe
00000360: 4676 36be 77d5 3e3e bf5d 63be 6081 32be
00000370: 1e52 383e e171 013e 274b 363e b0f7 153e
00000380: f8bd f43d 1e8e e5bd 8048 333d f3a8 2cbd
00000390: 64ea c13d 93cc aebd 121c 0ebe 82ae 593d
000003a0: a465 bcbd 3cd7 0dbe a426 04be 2d8c f53d
000003b0: f7b2 d53d 4e06 073e d33b a5bd fad1 15bd
000003c0: 6027 1dbe 2561 003e 989d f83c 1202 0a3e
000003d0: 1885 0f3e bc7e 16be 3767 0c3e 1559 d7bd
000003e0: 7079 ffbd b950 133e faf3 28be a88d ecbd
000003f0: b73d 103e 0c21 d43d e790 e33d 71e4 213e
0.2140863 -0.20225072 0.07503545 -0.07019588 0.17434967 -0.25688127 -0.22793879 0.09179145
-0.15916246 -0.24276134 -0.22531962 0.25016192 0.17712763 0.22234583 -0.14455521 -0.06356531
-0.22643307 0.20513503 0.050021797 0.24526934 0.24285409 -0.19979909 0.23684995 -0.24713428
-0.21879345 0.24590285 -0.27983695 -0.21692683 0.22939374 0.1671866 0.19868001 0.22121008
0.20989607 -0.21890403 0.08367725 -0.07882354 0.19225714 -0.26785725 -0.24905099 0.09860565
-0.1730879 -0.26365435 -0.24190518 0.26837555 0.19691762 0.24215639 -0.15334877 -0.06742368
-0.24700913 0.22242352 0.055299677 0.26543748 0.26477903 -0.22398369 0.2574605 -0.26648322
-0.23769082 0.26610973 -0.30316633 -0.22342187 0.24740075 0.18646659 0.24056831 0.2392634
0.24074239 -0.23717725 0.08051828 -0.07537649 0.1716297 -0.2875798 -0.2581415 0.11259099
-0.17656973 -0.27803493 -0.24849665 0.2885565 0.20348458 0.25078675 -0.16244648 -0.0673102
-0.26027113 0.23751202 0.05596387 0.289803 0.27761748 -0.22753155 0.26317668 -0.2871051
-0.25471592 0.2746626 -0.3319661 -0.2504265 0.26291803 0.18673472 0.24400166 0.25284863
0.09151611 -0.09344156 0.03440156 -0.033086844 0.08416518 -0.11494527 -0.10340892 0.041851606
-0.07400282 -0.10991299 -0.100733474 0.11405333 0.08083139 0.10133784 -0.06490648 -0.028105348
-0.10297188 0.09402259 0.02414274 0.11295555 0.11045987 -0.091709375 0.10767505 -0.11218602
-0.10126912 0.10998921 -0.12841207 -0.09486511 0.10518872 0.075774446 0.095911495 0.100336164
0.10243766 -0.118173994 0.045611568 -0.049406424 0.15054819 -0.14739102 -0.12898748 0.048915364
-0.09548135 -0.13382518 -0.12631023 0.13350879 0.1163536 0.12823233 -0.08499764 -0.03629254
-0.12771778 0.11533708 0.038362183 0.13510683 0.13741097 -0.11375734 0.13722146 -0.13440588
-0.13373743 0.13659243 -0.15841459 -0.108026326 0.1304823 0.094842225 0.11580523 0.13013408
0.04364092 -0.034570914 0.010106125 -0.0058931536 -0.0014930264 -0.041777615 -0.039366264 0.01916795
-0.02404826 -0.044162385 -0.037142932 0.048587725 0.021355715 0.036661305 -0.021989934 -0.009274911
-0.039501917 0.036996767 0.0031499045 0.047044627 0.042129837 -0.034778476 0.037706874 -0.047106966
-0.033651542 0.04195773 -0.050343454 -0.044525422 0.039504997 0.02821096 0.039374907 0.034730863
0.16385305 -0.16861397 0.0583756 -0.054188915 0.15223645 -0.25045356 -0.17893279 0.073677815
-0.13160479 -0.19674917 -0.17385843 0.22501126 0.12110163 0.1719314 -0.113322705 -0.04758752
-0.16436572 0.16401163 0.038890366 0.21103375 0.19521916 -0.13940854 0.1866167 -0.23179637
-0.17818555 0.18636118 -0.2220373 -0.17432165 0.18000075 0.12641098 0.17802106 0.14645267
0.11950296 -0.11208747 0.043770313 -0.04215331 0.094685346 -0.08535113 -0.13877895 0.05314494
-0.09199074 -0.13851637 -0.12905365 0.11989627 0.104345255 0.13185999 -0.08068051 -0.036577202
-0.15347052 0.12537058 0.030348584 0.13477352 0.14015615 -0.14696783 0.13711248 -0.10515038
-0.12474334 0.14386262 -0.1649932 -0.11550456 0.14086042 0.10357866 0.11111622 0.158098

linear.fc.weight f4 [98, 1]
00000000: 9d34 b9be cdc5 dbbe 1fa0 1ebd 9c5f 143e
00000010: effe b83e c223 b23d 0127 acbe 1236 4b3f
00000020: 3785 5e3d b92b 2e3d 7745 2f3d 6608 303d
00000030: cfb7 b43c 6e5e b63c 6da9 b83c 7ffe af3c
00000040: a424 cb3e c8a8 263d 867e f03c 44a4 4a3e
00000050: 8846 7d3e 7e24 22bc d203 563e eef5 de3c
00000060: ae7f c03c 9b5e ae3c 55f2 d33c a0c3 f63c
00000070: bb5e 7c3c ad3c e33c 237a 193c d855 7b3b
00000080: f7dd f93c 8b59 7a3c 0442 883a 4465 9b39
00000090: 62af 0a3a 7755 663c 048a 6139 174f ac3b
000000a0: 14eb be3b 14a0 c03a 8869 e73b 30ca 0f3d
000000b0: 2b83 033d 31c3 9f3b 48a3 a33c efda e03c
000000c0: 5da5 433b 8af1 e03c ddbd a53c 5cf4 883b
000000d0: 7953 553b 5779 033c 69c6 923a 74c5 423b
000000e0: 691f e93c 8a25 073b fc98 f43c dacf a83c
000000f0: 7b12 e03b b8e7 c83b ff6d b83c feae 593b
00000100: 0ae6 383b 9ef5 7f39 d988 3a3a ec05 823c
00000110: 7f43 0e3d 6b2f 8d3c 3d2f 4b3c 4c54 4c3c
00000120: a878 973b a045 173c 3ebd 1d3a f140 163d
00000130: b421 de3a 2682 5039 e15f d73c 3d9b 123d
00000140: ee76 c43c ae0c d53c c1ff 8a3b 7090 113b
00000150: 42ad 103d c198 003d 4d96 8f3c 4068 b13b
00000160: b2c8 193c be7f 9d3c 095f cf3c 47bb 323c
00000170: 1af1 043c 14af 803c d809 4b3c 0b95 253c
00000180: 33c3 c939 f8d0 943c
-0.36172953 -0.42924348 -0.038726922 0.14489597 0.36132 0.086982265 -0.33623508 0.7937938
0.054326262 0.042522166 0.042790856 0.04297676 0.022060303 0.022261824 0.022541726 0.021483658
0.39676392 0.040688306 0.029357206 0.19789225 0.24733937 -0.009896396 0.20899895 0.027216878
0.023498382 0.021285346 0.025872389 0.030122578 0.015403445 0.027738893 0.009367499 0.0038350727
0.030501349 0.015280138 0.0010395651 0.00029639353 0.00052904163 0.014058462 0.00021509087 0.0052584517
0.0058263633 0.0014696144 0.007062141 0.03510493 0.032107513 0.0048755636 0.01997532 0.027448146
0.0029853203 0.027458925 0.020232135 0.0041795205 0.0032550974 0.008024535 0.0011198047 0.0029719742
0.02845736 0.002062174 0.029858105 0.020606924 0.0068381405 0.0061311387 0.022513388 0.0033215876
0.0028213286 0.00024410195 0.0007115729 0.015871964 0.034732338 0.017234525 0.012401399 0.01247127
0.0046225376 0.0092329085 0.0006017274 0.036683027 0.00169473 0.0001988491 0.026290836 0.035792578
0.023982491 0.026007023 0.004241914 0.0022211336 0.03532148 0.031395677 0.017527724 0.005414039
0.009386228 0.019225951 0.025313871 0.010908908 0.008114124 0.015708484 0.012392484 0.010106335
0.00038483142 0.01816605

mlp.mlp.0.weight f4 [64, 160]
00000000: 2f73 fcb8 44dd e3b9 7450 6439 e6b7 66b9
00000010: bba2 e239 d4fe 8db9 0097 1fba ef3f 5b39
00000020: 02aa d8b9 39ff 11ba ed0a f4b9 e2bf e739
00000030: c6f8 fd39 4457 113a 2367 50b9 e9fe bfb8
00000040: 4943 02ba c1be df39 f05e 1739 3927 013a
00000050: dbd7 033a 082f 29ba 4c84 1a3a 8a06 ebb9
00000060: 44f4 f3b9 007b 103a 002a 32ba 9cbf 23b9
00000070: b399 013a c555 033a 4e49 993a d0bf f139
00000080: 2b43 e13a cca2 c3ba 7fc7 e539 37c6 b2b9
00000090: 64b8 c139 4d4a e7ba 8545 d4ba f8d1 4f3a
000000a0: b62c 86ba 4cdf ebba 0f2b c9ba b7f5 fa3a
000000b0: 8d02 953a 1604 ca3a 085e 80ba 3452 cbb9
000000c0: 0cdf d8ba 26af c73a a8d2 7b39 a66f fc3a
000000d0: b995 e53a 2029 baba 9af1 cf3a 7fa3 f9ba
000000e0: 64e4 c8ba dbc9 e23a 219e 0ebb 3f75 e7ba
000000f0: e904 d83a afdd 963a c40c d13a b388 ca3a
00000100: 1dc6 d13a 8cec 9aba 694d 143a 0908 25ba
00000110: 82f3 623a d97b 023b 10dc 01bb 2e8d 313a
00000120: d75a 94ba 088d d1ba e2db e6ba da26 d739
00000130: 41e6 b93a 3302 fa3a 2aa6 85ba f670 09ba
00000140: 2ef2 4dbb 4d09 db3a 6b2d f039 d79a b23a
00000150: baa5 f33a b171 67bb 8747 f63a 74af 0f3a
00000160: 8d4f c4ba 266d 093b 736a 15bb 05fd 75ba
00000170: 8ff0 1b3b 45b8 e23a 39e5 773a a181 623b
00000180: 1c2e 4c3a b9a1 77ba 8de0 9739 723e 92b9
00000190: fc56 6f3a dfa9 1cbb 8aac 70ba 31f1 c139
000001a0: b742 25ba 2f8f 1eba 979e 62ba 9119 e13a
000001b0: 4236 533a ab04 5c3a 9fb3 84b9 41bb 88b9
000001c0: 517c 24ba 719b 193a d41b 3e39 9dd9 0c3a
000001d0: a488 1439 7867 93ba f1e7 5f3a 8004 a0ba
000001e0: f6fe 51ba fb74 6d3a 1abd a2ba ce7a 78b9
000001f0: d3c2 753a 3cd0 d239 a275 5e3a 59c0 6fb9
00000200: 5450 1d3a 91e1 20ba 4e4e 6839 2e63 59b9
00000210: 8daf 063a c341 42ba 351b 32ba af64 9039
00000220: e365 fcb9 4c81 3aba 825d 2fba a250 3e3a
00000230: f450 0a3a 5476 2d3a 1db7 d8b9 ac58 3db9
00000240: 1921 30ba f31d 223a ca94 1c39 f04a 3f3a
00000250: 2cfc 3b3a 1a47 1bba b72c 373a d503 3eba
00000260: a564 2cba c1cd 3d3a e9e8 59ba bb11 25ba
00000270: 888b 303a 5d9c 033a 8fb6 243a 9587 2a3a
00000280: 0a25 8bb9 d2d2 77ba 0442 f639 c421 fab9
00000290: fce7 703a 5572 18ba dc73 acba ff83 ed39
000002a0: 01e4 6aba e91f a0ba bc06 83ba 0827 763a
000002b0: ed77 883a d0c3 9e3a 15f2 d3b9 3cc8 48b9
000002c0: 4fcf 8aba e43f 6f3a 524b a639 7980 8a3a
000002d0: a8bf 8a3a a8d9 b9ba 8e6e a73a 7880 76ba
000002e0: c03c 82ba aced 9d3a a49b c2ba 1ce7 adb9
000002f0: 8278 8d3a 6ead 8f3a b8a2 263b e371 833a
00000300: 6e7f 8a3a cab5 8dba 4407 a039 1306 8ab9
00000310: 50f0 743a 854d afba 60e8 9eba fef0 f839
00000320: 4810 5cba 9996 a8ba b416 9bba afbe a43a
00000330: c0d2 833a f39e 9a3a 37e0 3aba 3304 9ab9
00000340: 5e11 9cba 46a0 8e3a 43d2 5f39 6f78 ac3a
00000350: a409 a93a de8d 87ba 6606 a63a c875 abba
00000360: fa07 9cba befa a93a bd51 d0ba 5ecd 90ba
00000370: 85cb 9a3a ddbf 643a 1c46 8e3a 9a94 9e3a
00000380: 4b01 053b cfe3 4dba 15d1 423a 5f61 73ba
00000390: d20a 3539 2432 0d3c 2084 3ebb 14ab 523a
000003a0: f9c5 9aba 8105 ceba 3168 16bb 8ce5 05bb
000003b0: 150e 183b 6aea 2f3b 73a3 91ba da39 47ba
000003c0: 93f0 c5bb 6d9c 143b 0d93 303a 9d98 313a
000003d0: 0ecf 113b 82e5 f4bb 2928 1c3b 6333 983b
000003e0: 4864 c8ba a93c 463b d2b7 41bb da79 5ab9
000003f0: 4d8e 763b 521f 383b ebd7 5f38 9d90 ed3b
-0.00012037751 -0.0004346167 0.00021773746 -0.00022003017 0.00043227323 -0.00027083477 -0.00060878694 0.00020909285
-0.00041325396 -0.0005569342 -0.00046547447 0.00044202717 0.0004844127 0.00055443146 -0.00019874847 -9.1550704e-05
-0.0004969133 0.00042675997 0.00014435849 0.0004926804 0.00050294184 -0.00064538466 0.00058943476 -0.00044827565
-0.00046530564 0.00055114925 -0.00067964196 -0.00015616271 0.00049438624 0.0005010034 0.001169482 0.00046110013
0.0017186155 -0.0014925837 0.0004382692 -0.00034098487 0.0003694921 -0.0017646045 -0.0016195035 0.0007927711
-0.0010236714 -0.0017995625 -0.0015347915 0.0019146715 0.0011368558 0.0015412595 -0.0009793648 -0.00038780423
-0.0016545965 0.0015234693 0.00024015701 0.0019259348 0.0017515934 -0.001420293 0.001586485 -0.0019045918
-0.0015326855 0.0017302589 -0.0021761733 -0.0017658843 0.0016480956 0.0011510159 0.0015949239 0.0015452116
0.0016004477 -0.0011819764 0.0005657287 -0.0006295448 0.00086575013 0.0019910245 -0.0019815005 0.00067730516
-0.0011318576 -0.0015987465 -0.0017613138 0.00041036942 0.0014183001 0.0019074142 -0.0010196615 -0.0005242968
-0.0031424868 0.0016711146 0.00045810206 0.0013626468 0.0018588819 -0.0035315568 0.0018789627 0.00054811616
-0.0014977321 0.0020969599 -0.0022799044 -0.0009383711 0.0023794507 0.0017297348 0.0009456459 0.0034562128
0.0007788853 -0.0009446401 0.00028968268 -0.00027893815 0.0009130088 -0.0023904962 -0.0009180984 0.0003699153
-0.0006304192 -0.00060485577 -0.00086448475 0.0017173757 0.0008057096 0.00083930296 -0.0002531083 -0.00026079456
-0.0006274628 0.00058596494 0.00018130179 0.0005373003 0.00014165282 -0.0011246046 0.0008541337 -0.0012208372
-0.00080107094 0.0009058264 -0.0012415976 -0.00023696871 0.00093750394 0.00040209468 0.00084861566 -0.00022864471
0.00060010445 -0.00061371276 0.00022154415 -0.0002073168 0.00051378534 -0.0007410312 -0.00067942153 0.00027540835
-0.00048141097 -0.00071146036 -0.0006689654 0.000725994 0.0005276345 0.00066170585 -0.0004133516 -0.00018057477
-0.0006718799 0.00061842724 0.00014932748 0.00072972383 0.00071710604 -0.0005923376 0.0006987559 -0.0007248496
-0.00065762765 0.00072404376 -0.00083125994 -0.00062968925 0.0006734659 0.00050205534 0.0006283307 0.00065051886
-0.00026539742 -0.0009453717 0.00046969962 -0.00047708873 0.0009189842 -0.00058153766 -0.0013157087 0.00045302507
-0.0008960367 -0.0012216541 -0.0009996514 0.00093899714 0.0010411717 0.00121128 -0.0004042542 -0.0001914808
-0.0010590347 0.0009126647 0.00031718105 0.0010566852 0.0010585682 -0.0014179247 0.0012774037 -0.00094032986
-0.0009936318 0.0012048981 -0.001484741 -0.0003316932 0.001079336 0.001096172 0.0025426578 0.0010028448
0.0010566541 -0.0010811624 0.0003052299 -0.00026325937 0.00093436707 -0.0013374543 -0.0012123697 0.000474818
-0.000839476 -0.0012862264 -0.0011832328 0.0012569035 0.0010057315 0.0011796638 -0.00071287475 -0.00029376298
-0.0011907031 0.0010881505 0.00021345266 0.0013158451 0.001289655 -0.0010341962 0.0012666702 -0.0013081366
-0.0011904233 0.0012968404 -0.00158935 -0.0011047532 0.0011809921 0.00087260996 0.0010854634 0.001209873
0.002029496 -0.00078540755 0.00074316683 -0.0009284224 0.00017265536 0.0086179115 -0.0029070452 0.0008036357
-0.0011808268 -0.0015718193 -0.0022950287 -0.002043101 0.0023201753 0.0026842603 -0.0011111334 -0.0007599868
-0.0060406416 0.0022676245 0.00067357795 0.00067747553 0.0022248658 -0.0074736485 0.0023827648 0.0046447976
-0.0015288675 0.0030248559 -0.0029559028 -0.00020835493 0.003762144 0.002809484 5.3368432e-05 0.0072499053

mlp.mlp.0.bias f4 [64]
00000000: 52e7 2e33 b51c 9433 729b 0402 4c4e fb85
00000010: e793 810c d491 4100 d495 90b4 a864 e3b4
00000020: 0502 5180 5421 7200 b41b 1f94 9bed 0f34
00000030: 800a bc34 1717 db05 e421 7a0a 273a 21b4
00000040: 4258 6234 042e 8db4 7a86 0b05 b3bf 28b5
00000050: 997c 8bb4 20fd 6634 cc31 6034 3168 21b4
00000060: 16f2 2334 73be 1580 7537 b910 deac e7b1
00000070: ed4f 2780 9175 14b3 9a78 fab3 05b2 e212
00000080: 56da c1b2 52ac b8b3 b52c 1d34 8b9f a998
00000090: 3fe6 5ab1 ade5 b433 6eb0 d1b2 cb17 ee34
000000a0: 7f4e c1b4 32a1 2c21 7dec 4a97 2e9f f934
000000b0: 47a1 5099 ad48 0734 f83e ba33 c9ba 4600
000000c0: 3561 6234 4363 4c00 6bcf 092f 700b 9134
000000d0: 2fec 03b5 612e 2813 8014 43b3 b675 9a81
000000e0: d054 b90c 8cd9 9034 2ad7 5604 6887 88b4
000000f0: d25f ccb4 a15b d633 beeb 9034 b023 d734
4.0722917e-08 6.897009e-08 9.742439e-38 -2.3632688e-35 1.9964613e-31 6.02162e-39 -2.6931104e-07 -4.2355282e-07
-7.4394e-39 1.0481202e-38 -8.032912e-27 1.3404353e-07 3.5025369e-07 2.0603143e-35 1.2043436e-32 -1.5015449e-07
2.1079998e-07 -2.6296777e-07 6.560448e-36 -6.2863836e-07 -2.5981424e-07 2.1512506e-07 2.0879742e-07 -1.5032198e-07
1.5268628e-07 -1.996866e-39 7.305508e-29 -6.7426376e-09 -3.610256e-39 -3.456586e-08 -1.16634695e-07 1.430649e-27
-2.2567445e-08 -8.5995126e-08 1.4638029e-07 -4.3846573e-24 -3.1854055e-09 8.423681e-08 -2.4411033e-08 4.4348266e-07
-3.6006165e-07 5.8489207e-19 -6.556821e-25 4.6495683e-07 -1.0785918e-23 1.2599294e-07 8.672754e-08 6.49549e-39
2.1083254e-07 7.015106e-39 1.2533767e-10 2.7016677e-07 -4.9144995e-07 2.1227448e-27 -4.542062e-08 -5.673957e-38
2.8554808e-31 2.6980376e-07 2.5254378e-36 -2.5430495e-07 -3.806768e-07 9.981819e-08 2.6993615e-07 4.0072837e-07

mlp.mlp.1.weight f4 [64]
00000000: d710 b23c c2b6 0b3d 6f54 8217 df41 3d17
00000010: 8379 bc23 c265 0016 a3fb 283d a30c 323d
00000020: 83d8 3f93 373d e195 9af4 312b 8fea 273d
00000030: 73b4 213d 1dc1 0f20 b173 891c 8dbb e03c
00000040: 8bf8 013d 5628 113d 8a58 8e1a 9be6 3d3d
00000050: 9e99 2c3d bbd6 083d f42b 2d3d 8f63 393d
00000060: 8223 343d 186d 590b 7e0b 5ba2 6b11 243d
00000070: 86a4 d10c 1c5d 613c 19e5 303d 1cf6 16a4
00000080: 2f32 2c3d 279f 233d 9c21 263d 7f85 0f2d
00000090: 2b3e 183d adf3 283d 49e5 5e3c 3cb1 063d
000000a0: 2747 233d 9ebc f5ae ac76 9ca7 6deb 223d
000000b0: c58e 02a9 437b 2a3d 8b7a 253d 57b0 ce9c
000000c0: db44 333d 4319 f691 857b d93a dbe7 223d
000000d0: 32a8 203d c1d5 9123 973e 203d 9e80 4219
000000e0: 4d63 eb9e 63da 243d 48ee 519a 3dbe 453d
000000f0: 34e5 1e3d 7aa1 1a3d 0d83 2c3d 6bab 123d
0.021736545 0.03410984 8.422367e-25 6.1152335e-25 2.0434463e-17 1.0371867e-25 0.041255604 0.043469083
-2.4214338e-27 -9.0973356e-26 6.3222485e-13 0.040995177 0.03947873 1.2176467e-19 9.095805e-22 0.027433181
0.03173117 0.035438858 5.8872866e-23 0.0463625 0.04213869 0.033407908 0.042278245 0.045260962
0.043979175 4.1874753e-32 -2.9686118e-18 0.040055674 3.2300568e-31 0.013755109 0.043187235 -3.2734528e-17
0.042040046 0.0399467 0.040559396 8.158251e-12 0.037168663 0.041248012 0.0136044705 0.032883868
0.039862778 -1.1174815e-10 -4.3427362e-15 0.0397753 -2.898963e-14 0.041621458 0.04040007 -1.3677519e-21
0.043766838 -3.8827525e-28 0.0016592598 0.039771896 0.039222904 1.581146e-17 0.03912219 1.0055539e-23
-2.4922663e-20 0.040247332 -4.341267e-23 0.04827713 0.038792804 0.037751652 0.042117167 0.03580801

mlp.mlp.1.bias f4 [64]
00000000: 166d 413c d4ed c43c 687e 3fa5 6415 3ea7
00000010: c5af ec2b 8904 b5a6 0012 bb3c b2e9 c43c
00000020: b954 86a7 0c29 95a7 3b3c 082e 1836 b33c
00000030: f3ff b93c 44f7 d4ab d334 92aa b8fd 843c
00000040: 0846 b93c 2f20 d23c b230 bca9 79c5 a93c
00000050: bac2 bc3c 31e0 c33c 02a3 c13c af8c ad3c
00000060: 1cfd ab3c 0cc4 00a8 b639 a1a2 2b09 b23c
00000070: e3e3 44a7 6952 df3b 629a 9e3c 8305 14a7
00000080: 5d6a ae3c d48e 923c b9dd c63c 9189 83af
00000090: b92c bc3c 5241 ad3c f84d ea3b 0f72 c53c
000000a0: 474e ed3c b75e fcb0 2442 28ab 0483 a33c
000000b0: a438 3fac 7077 be3c 3015 bb3c 0802 cea6
000000c0: e902 bd3c 7f7e 26a7 5e67 7c3a f7e0 b03c
000000d0: 88fa b23c 58e3 9aa7 4346 b13c f628 dda7
000000e0: 59d2 c9a9 f364 b53c 6511 b8a7 eb06 a33c
000000f0: f17e ba3c 9439 b83c b730 b03c 2bb7 db3c
0.011805793 0.024039187 -1.6609437e-16 -2.6379393e-15 1.6817594e-12 -1.2560627e-15 0.022835732 0.024037216
-3.7284328e-15 -4.140031e-15 3.0976315e-11 0.02187638 0.022705054 -1.5132136e-12 -2.5971464e-13 0.016234264
0.022616401 0.025650112 -8.3573244e-14 0.020724045 0.023042072 0.023910614 0.023637298 0.021185247
0.020994715 -7.147938e-15 -4.370024e-18 0.021732887 -2.7324002e-15 0.006815244 0.019360725 -2.0542114e-15
0.021290952 0.017890371 0.024275647 -2.3926508e-10 0.022970544 0.021149311 0.007150408 0.024102239
0.02896799 -1.8362333e-09 -5.977738e-13 0.019959934 -2.7174174e-12 0.023250312 0.022837251 -1.4294672e-15
0.023072677 -2.3105701e-15 0.000962844 0.021591647 0.021847978 -4.2990073e-15 0.021639949 -6.138423e-15
-8.9626826e-14 0.022142863 -5.108912e-15 0.01990076 0.022765609 0.022488393 0.021507604 0.02682074

mlp.mlp.1.running_mean f4 [64]
00000000: 4e12 a63c 6294 d13c 846f ad27 9a6e 7a2d
00000010: 7f0c e030 1d22 fe27 4cb5 9dbc 18ab b1bc
00000020: 1704 7ea5 79b5 4425 1b91 0a32 03c1 a6bc
00000030: ab20 acbc d18b d8ad b954 8caa 82ed c23c
00000040: 9b9c c73c 852d ce3c 3cf1 5129 faf3 a1bc
00000050: 5ed4 aebc c1cf cd3c deb5 a8bc b8a7 a3bc
00000060: 9f0f a1bc 137b 7ba0 fe2c b831 e63c a1bc
00000070: 4975 189d 3adc 6e3c f63e 9fbc 4ce7 842f
00000080: 3604 a1bc b7c9 9ebc fd8d a6bc 8eae d433
00000090: ced4 a7bc aeac afbc 7ac9 703c 4728 ca3c
000000a0: 0b19 d83c 7af3 d434 1a1e 0a33 03c2 a0bc
000000b0: 3aa1 3633 4da8 a2bc b51b abbc fcf3 e4af
000000c0: a207 99bc 954e 0aa2 83e8 523b 5ead a3bc
000000d0: 2df5 a0bc 4279 3131 80aa a2bc 4b1d 98ac
000000e0: 7cc2 17af b32a 9fbc a352 5bad 393c 9dbc
000000f0: 1d72 9cbc 8233 a8bc e41d a3bc 2982 cf3c
0.0202724 0.02558345 4.813805e-15 1.4235413e-11 1.6301697e-09 7.0536148e-15 -0.019251488 -0.02168803
-2.2032374e-16 1.7061775e-16 8.06565e-09 -0.020355707 -0.021011671 -2.4618448e-11 -2.4927784e-13 0.023794893
0.024366667 0.02516819 4.661656e-14 -0.019769657 -0.021341499 0.025123479 -0.020594534 -0.019977435
-0.019660769 -2.1301249e-19 5.36022e-09 -0.019682359 -2.0177668e-21 0.014578873 -0.019439202 2.4175006e-10
-0.019655328 -0.019383295 -0.020331377 9.9037706e-08 -0.020487215 -0.021444645 0.014696473 0.024677409
0.026379129 3.966523e-07 3.2158006e-08 -0.019623762 4.2521812e-08 -0.019855643 -0.020887235 -4.164632e-10
-0.018680397 -1.8744088e-18 0.0032182045 -0.019980129 -0.019648159 2.5825817e-09 -0.019856691 -4.323352e-12
-1.3802465e-10 -0.01942954 -1.2467058e-11 -0.019193755 -0.019097382 -0.020532373 -0.019911714 0.02533062

mlp.mlp.1.running_var f4 [64]
00000000: ebad 6437 f049 3e37 87af 6711 0a34 991a
00000010: f277 6520 11bb 010f c661 2537 4155 3937
00000020: 1cdf c00a 1d9b 210b 0cbe 2623 46c7 2337
00000030: 5f58 3e37 352a c41b cbdd e514 b4d4 8037
00000040: 0cc1 3437 f4bc 2837 2877 2012 6fc1 1237
00000050: 9177 3037 5a94 3237 ca4d 2a37 1b51 2a37
00000060: 2c9b 1f37 6532 d400 ef99 8b22 52ca 2237
00000070: 3b06 0000 3f9d 1037 54d2 2d37 09c3 971e
00000080: 9c67 3737 8f25 2637 8b11 3d37 5761 1c28
00000090: aa15 4837 5bbb 1b37 7364 1337 d942 2537
000000a0: 9595 1837 f9ef 3d2a e37c 1b25 861e 2137
000000b0: e075 4e25 a059 2637 e8e5 3137 e0bb 8b1f
000000c0: 178f 3037 3b9c 0104 657b 2335 cf69 2637
000000d0: eb06 2e37 6f95 8621 bdfb 2137 d705 1719
000000e0: 6924 041e 7b43 2637 d100 8a1a eb15 2437
000000f0: 1bac 2e37 be27 3837 61c7 3737 96ae 2637
1.3630352e-05 1.1342097e-05 1.8276775e-28 6.336339e-23 1.9436741e-19 6.396219e-30 9.857531e-06 1.1046709e-05
1.8572852e-32 3.1124166e-32 9.039122e-18 9.761954e-06 1.1345458e-05 3.2452756e-22 2.3210573e-26 1.5357837e-05
1.0773783e-05 1.0057574e-05 5.063397e-28 8.747315e-06 1.0518256e-05 1.0644168e-05 1.0150901e-05 1.0151673e-05
9.513267e-06 1.9487203e-38 3.783901e-18 9.703059e-06 2.235e-42 8.619681e-06 1.0360574e-05 1.6068412e-20
1.0931773e-05 9.903116e-06 1.1269362e-05 8.680847e-15 1.1925973e-05 9.282342e-06 8.78527e-06 9.850331e-06
9.094733e-06 1.686983e-13 1.348642e-16 9.603455e-06 1.790759e-16 9.9152385e-06 1.0603551e-05 5.91796e-20
1.0523733e-05 1.5235615e-36 6.0901795e-07 9.9190065e-06 1.0372819e-05 9.119748e-19 9.65496e-06 7.807696e-24
6.995551e-21 9.910083e-06 5.707678e-23 9.780265e-06 1.041128e-05 1.0976508e-05 1.09540715e-05 9.93502e-06

mlp.mlp.4.weight f4 [64, 64]
00000000: 580e 3ebb d054 a0bb f776 2b1d c200 499a
00000010: 40cc 5d27 83dd 4022 503e c63b 7a06 db3b
00000020: b85b 651f 3e38 5f9f ee36 c8a7 0210 cb3b
00000030: 12ae bb3b f55b 3027 3660 5729 1fce 74bb
00000040: 73e0 96bb 7e3d a9bb 7485 0a1f fec8 d43b
00000050: 3fc4 c33b d855 9fbb ca7d c53b 4e66 d83b
00000060: 72bb c13b 07e6 56a1 aef2 831b 2913 c03b
00000070: 169c 0a1e 0fbd d9ba fc2c bf3b 3237 8b9c
00000080: f9e4 c93b ff9f b43b 48d4 c63b f556 29a8
00000090: cc78 b13b 1d51 c13b 5f2e e2ba 6f67 9ebb
000000a0: da0c bcbb 29e6 2bac f499 cea2 a6bb bf3b
000000b0: fded c625 4be6 cc3b aaca bf3b 69a9 059f
000000c0: 7f71 d93b dd56 f523 9aeb 46b9 0d4e cb3b
000000d0: 8d68 c23b 77fc 1021 f583 b33b b108 56a0
000000e0: d795 8321 4369 ba3b 56ad 0a9f 7695 db3b
000000f0: f4b5 c13b ca76 b93b 1745 cc3b 6961 acbb
00000100: 967a 9fbb 5f68 04bc b2e4 99a8 0341 daa7
00000110: d8a6 66ac fff6 23a7 6c26 063c 3a26 143c
00000120: 212d 6da1 6ea6 9aad ffef 1da9 0c05 053c
00000130: 55cd 033c c84c 07a8 39ae 45aa 14b0 cabb
00000140: fa8d f4bb 8ba5 08bc 9d23 85a7 cbfe 103c
00000150: bbee 133c 9fed 02bc 8017 0c3c c9d0 103c
00000160: 604c 143c 9a8d 07aa 56f0 13af d778 013c
00000170: 6708 15ab 50a6 55bb 43f6 023c a019 0baf
00000180: 71d7 033c 6caf f43b 79ee 093c 5d97 1dae
00000190: 71a9 0b3c eb24 103c ea71 4bbb 8331 02bc
000001a0: b9b2 1bbc 7a34 5ab3 55b5 81b1 fcf6 093c
000001b0: 1792 bdb3 6322 043c b0d8 093c dc5a 63a9
000001c0: ec98 0e3c 5928 c225 61b8 02ba e8fd 013c
000001d0: d7f8 013c 9dd1 daae 23e0 033c 4a16 cfa1
000001e0: ab65 49ac b8d1 013c e7a4 a1a5 90e6 133c
000001f0: 1d82 0f3c 1a13 023c a0a5 053c 8975 0dbc
00000200: 16b9 92bb ba68 f4bb 1703 10a4 88ee d69d
00000210: 9df9 8b27 ae39 d521 5dbd 043c c764 0a3c
00000220: 957e b0a0 5765 d721 60c8 22af d451 043c
00000230: 7377 fe3b b713 3d27 619e efaa 239d bcbb
00000240: bfe0 e5bb f230 00bc 1fe0 4b21 b1db 0e3c
00000250: 7e24 0c3c 34df eebb cf85 073c a088 fe3b
00000260: 0ec2 053c 917f e623 9ec7 3521 2870 063c
00000270: 836f bea2 2e5b 32bb c6b2 033c baea 5cae
00000280: 7369 003c 0633 e63b 08d9 023c 48a3 07b2
00000290: d77e f13b cde2 0d3c 3b88 34bb 1fb4 eebb
000002a0: 25bb 10bc ad8c 0f2e f6f8 84ad 21e4 053c
000002b0: d511 f8b0 3af5 083c 0f97 033c e7a2 f61f
000002c0: b72f 033c 39e2 55a2 35c0 edb9 9297 e23b
000002d0: e46a fd3b b439 c9aa d5bd fa3b f018 0822
000002e0: 8a59 2bac 082e 003c 3421 f29e e226 193c
000002f0: f8ba ed3b 1c1a ff3b b0f9 ed3b 0a1c 02bc
00000300: 9809 aaba aa78 12bb 673f 951d c525 4f98
00000310: 8c83 54a6 b634 c59e 5b51 473b 370e 553b
00000320: 162a 0f1e 0630 a09f 650b df25 cd98 453b
00000330: 7dda 493b f78f e026 97d9 c4a7 66c5 ddba
00000340: 3048 07bb 241b 19bb ee83 771d 0124 5c3b
00000350: b54b 4d3b 569b 10bb 5e50 503b 0b91 543b
00000360: d514 473b dcdc 5620 22cc aa9b 6b23 3a3b
00000370: 5eee 019d 99e9 41ba 17df 453b 751c 801b
00000380: 6548 463b 55df 383b b404 483b 34b5 7a26
00000390: d0f4 3b3b eb0f 413b fe64 46ba ab5c 0cbb
000003a0: 90f8 28bb 2a3b 322c 459f 121f 6593 3e3b
000003b0: 7f33 6d22 b9fd 4b3b 7a73 493b abd3 2d9d
000003c0: b5b3 4f3b 934b 5fa3 e1f8 83b8 bf78 3e3b
000003d0: 6601 443b 7f67 5f20 ec72 3d3b 8ef1 0120
000003e0: 6eef 8920 7cd0 3d3b ee3e e69d b6da 613b
000003f0: 8798 403b f0e3 3f3b 7b44 4d3b f13b 1abb
-0.0029000249 -0.004892923 2.2693165e-21 -4.1566438e-23 3.0780635e-15 2.613812e-18 0.0060499087 0.0066841217
4.8568504e-20 -4.726861e-20 -5.5570706e-15 0.0061969766 0.005727538 2.4474757e-15 4.782304e-14 -0.0037354303
-0.004604393 -0.005164801 2.9333027e-20 0.0064936867 0.005974322 -0.0048625283 0.006026958 0.0066039925
0.005912238 -7.281046e-19 2.182896e-22 0.005861659 7.337937e-21 -0.001661213 0.00583422 -9.212516e-22
0.006161329 0.005512237 0.0060677864 -9.40024e-15 0.0054160114 0.005899562 -0.0017256251 -0.0048341076
-0.0057388367 -2.4428326e-12 -5.5999416e-18 0.005851227 3.4508792e-16 0.006253039 0.005853017 -2.8303978e-20
0.0066358442 2.6599741e-17 -0.0001897052 0.0062043727 0.0059328736 4.912323e-19 0.005478377 -1.8129381e-19
8.916568e-19 0.0056888177 -2.9366017e-20 0.0067011667 0.005911583 0.0056599127 0.006233822 -0.0052606356
-0.0048669083 -0.008081525 -1.7085593e-14 -6.057764e-15 -3.2777583e-12 -2.275469e-15 0.008187871 0.009042317
-8.035845e-19 -1.7581683e-11 -3.5069166e-14 0.008118879 0.00804456 -7.510655e-15 -1.755756e-13 -0.006185541
-0.007463214 -0.00834025 -3.6953528e-15 0.00884981 0.009029086 -0.007991224 0.008550525 0.008838841
0.009051412 -1.2039537e-13 -1.3454957e-10 0.007902346 -5.2947094e-13 -0.003260035 0.007993284 -1.265108e-10
0.008046971 0.007467201 0.008418673 -3.5832105e-11 0.008524285 0.008797864 -0.003104324 -0.007946375
-0.00950306 -5.0804807e-08 -3.775009e-09 0.008420702 -8.827572e-08 0.008064839 0.008413479 -5.0482933e-14
0.008703452 3.3680976e-16 -0.0004986581 0.007934071 0.007932863 -9.950727e-11 0.008049044 -1.4032765e-18
-2.8620255e-12 0.007923536 -2.804079e-16 0.009027138 0.008759049 0.0079391245 0.008157164 -0.00863398
-0.0044776304 -0.0074587734 -3.122764e-17 -5.6891964e-21 3.885088e-15 1.4448709e-18 0.008101788 0.008446879
-2.9899325e-19 1.4595791e-18 -1.4805002e-10 0.00807615 0.0077657043 2.6239706e-15 -4.2564826e-13 -0.005756037
-0.007015317 -0.0078241695 6.9075697e-19 0.008719371 0.008553622 -0.0072897915 0.008271649 0.007767752
0.008163942 2.4990676e-17 6.1589377e-19 0.008205451 -5.161767e-18 -0.0027214992 0.008038228 -5.0230688e-11
0.007837641 0.0070251254 0.007986315 -7.89516e-09 0.007369857 0.008660031 -0.002754702 -0.0072846557
-0.008833681 3.263938e-11 -1.5117223e-11 0.008172066 -1.8049443e-09 0.008359248 0.008031621 1.0445455e-19
0.008006982 -2.8986644e-18 -0.00045347368 0.0069150412 0.0077336896 -3.5744812e-13 0.0076520243 1.8444639e-18
-2.4350266e-12 0.007823475 -2.5636479e-20 0.009347649 0.0072549544 0.007785095 0.007262431 -0.007941255
-0.001297283 -0.0022349753 3.950553e-21 -2.6773192e-24 -7.3730555e-16 -2.0879987e-20 0.0030413482 0.0032509693
7.57906e-21 -6.7842084e-20 3.8692055e-16 0.003015089 0.0030800395 1.5582144e-15 -5.463684e-15 -0.0016919791
-0.0020642392 -0.0023362124 3.2758384e-21 0.0033590796 0.0031325642 -0.0022065244 0.0031786184 0.0032435085
0.0030377407 1.8199581e-19 -2.8256059e-22 0.0028402458 -1.719624e-21 -0.00073971745 0.0030192786 2.1194214e-22
0.0030255553 0.0028209288 0.0030520381 8.698175e-16 0.0028679855 0.002945895 -0.00075681496 -0.002141754
-0.002578292 2.5328164e-12 3.1048447e-20 0.0029079553 3.2146751e-18 0.0031126572 0.0030738995 -2.300579e-21
0.0031692807 -1.2104858e-17 -6.292924e-05 0.002906367 0.002990806 1.8923079e-19 0.002890761 1.1006649e-19
2.3367144e-19 0.0028963378 -6.094556e-21 0.0034462637 0.0029387788 0.0029280148 0.0031321335 -0.0023534263

mlp.mlp.4.bias f4 [64]
00000000: e7a3 da33 d02b d3b3 b83c 7bb4 852a f0b0
00000010: e38e 9131 c4f1 6fac 2d18 60af 7c7a ab32
00000020: 5b2a 3bb3 b62d afb2 b03d 112e 3284 b8b2
00000030: 5981 59b3 74ff a833 a0d0 dcb2 dab0 c632
00000040: 384e 6e32 579e 47b0 b40d 0180 1b91 d92e
00000050: f2ae adb3 c2ad c333 56ea 1030 7fb9 5380
00000060: df39 8833 ddad 9fb3 ce06 c4b3 1828 3980
00000070: ee70 4e80 d7b5 92b3 b276 8b2f bec9 1e00
00000080: cf06 62b4 fdbf 9fb3 9c7a a632 6a66 93b3
00000090: 49a7 e82f c6b3 8133 b4d4 bc31 ed35 4cb2
000000a0: 02df 2733 0ebf 1734 a668 2580 a616 ac32
000000b0: 19f2 fa31 f0e5 61b4 58bd 98b1 cef2 df32
000000c0: a83e d8b2 f220 35b3 c357 0ab3 cf8f 3132
000000d0: e3fb 1d31 ef53 1831 b7da 8534 3d6d 0480
000000e0: e50c b2b0 70b6 0134 c70f 5200 ea10 39b3
000000f0: d2d5 b031 8c2c 99b2 0d2c 1831 02e6 b9b2
1.018123e-07 -9.8334226e-08 -2.3398286e-07 -1.7474383e-09 4.2362998e-09 -3.409815e-12 -2.038127e-10 1.996272e-08
-4.3577852e-08 -2.0393468e-08 3.3023972e-11 -2.1480535e-08 -5.064189e-08 7.869576e-08 -2.5706242e-08 2.3130657e-08
1.3871208e-08 -7.262079e-10 -9.6751e-41 9.8937934e-11 -8.0877626e-08 9.1120015e-08 5.2719906e-10 -7.68889e-39
6.34352e-08 -7.43564e-08 -9.128199e-08 -5.249006e-39 -7.20368e-39 -6.831731e-08 2.536829e-10 2.827436e-39
-2.1050367e-07 -7.438937e-08 1.93807e-08 -6.86385e-08 4.2319417e-10 6.039731e-08 5.4957017e-09 -1.1886624e-08
3.9085542e-08 1.4132476e-07 -3.435454e-39 2.0033735e-08 7.303481e-09 -2.1038409e-07 -4.445308e-09 2.6071032e-08
-2.5174202e-08 -4.217231e-08 -3.2210448e-08 1.0335454e-08 2.2989688e-09 2.2166622e-09 2.4932316e-07 -4.06529e-40
-1.2954869e-09 1.2080432e-07 7.53617e-39 -4.3089052e-08 5.1465827e-09 -1.7831802e-08 2.2143951e-09 -2.164143e-08

mlp.mlp.5.weight f4 [64]
00000000: 99b1 933d 6c96 133e 934b 033e 294a c33c
00000010: 83e2 803c 4c6e 3939 0f42 023d d571 913d
00000020: 6ab7 dc3d 5c70 f83d 98ed 263a 42c4 f63c
00000030: da75 083e 37cc 173e a0c9 063e 7b6e 483d
00000040: 593f 693d 6713 f43b fefe 573a 4bc9 fa3b
00000050: f8b3 153e 1fd7 a93d bf42 803b cb9d 6638
00000060: 8703 ad3d 10b4 ab3d 7ae2 133e 7963 e137
00000070: ae18 fa39 ebee db3d a0a9 c53d 15a4 3b39
00000080: 6575 1c3e fa3c af3d 652f 893d 7e14 aa3d
00000090: ace6 f93d b475 d63d 7547 0c3d 8525 d23d
000000a0: 4519 173d eeb3 c13d 9808 6e3a fce2 1e3e
000000b0: 461d 133d 39ca dd3d e8e8 8c3d 7135 c53d
000000c0: 1a41 023e 74ac 003e 62f8 053e 6ee1 0e3e
000000d0: 3425 d63c f1ec 483c f573 133e 6a33 7d3a
000000e0: ec8e 583c 8bd4 b33d 09f0 a639 edfe 3b3d
000000f0: 1036 ef3c c3c7 d63d cdc9 0b3d ad74 973d
0.072116084 0.1441285 0.12821798 0.023839073 0.01573301 0.00017684064 0.03180128 0.0710179
0.10777171 0.12130806 0.00063678017 0.03012288 0.13326207 0.14823996 0.13162851 0.048933487
0.05694518 0.007448602 0.0008239596 0.0076533905 0.14619434 0.08292984 0.0039142068 5.498323e-05
0.084479384 0.083839536 0.14441863 2.686841e-05 0.00047702104 0.10738929 0.09651494 0.00017894835
0.15279157 0.08556552 0.06698493 0.0830469 0.122022 0.10471669 0.034247834 0.102610625
0.036889333 0.09458147 0.000908026 0.15516275 0.03591659 0.108295865 0.06880361 0.09629334
0.12720147 0.12565786 0.13083032 0.13953182 0.026140787 0.0122635225 0.14399703 0.00096588454
0.013217669 0.08780774 0.00031840827 0.045897413 0.029200584 0.1048732 0.034128 0.07395301

mlp.mlp.5.bias f4 [64]
00000000: 210e 273e d3aa 8b3e 5001 823e a889 8f3d
00000010: 74c0 633d 5475 543c 778b ae3d 5582 253e
00000020: e8b4 6c3e 1e53 7e3e 8bbb e43c 1d8a a73d
00000030: 6996 873e 75d5 8c3e e117 843e be81 f33d
00000040: b270 093e 2d88 2e3d 26c2 28b9 3570 293d
00000050: eba0 8b3e fc2c 3b3e 23b9 153d b92b 74b7
00000060: 7495 3e3e cd10 3d3e 1b4f 873e da7f 4fb7
00000070: a64b bab8 0dd2 693e 5a6e 553e ffe6 34b8
00000080: 52a5 8a3e 6130 413e 46ea 1c3e 3086 3b3e
00000090: 387e 7b3e 0394 643e ac08 b73d 31b6 603e
000000a0: 4c9c c13d 7918 523e e909 54b9 b55e 8c3e
000000b0: c9e6 bd3d 8ea4 693e dbf8 1f3e 8127 553e
000000c0: f8c0 833e a296 813e 67b6 813e 11b7 873e
000000d0: 412c 983d e6dd 4b3d ba1c 893e 0edc 63b9
000000e0: 98e0 513d 554a 453e 2c4c 28b9 e892 e73d
000000f0: 8d69 a33d 1850 653e 1967 b73d a87a 2a3e
0.16313984 0.27278766 0.25391626 0.07008678 0.05560346 0.012967426 0.085226946 0.16162999
0.23115885 0.24836394 0.027921459 0.0818064 0.2648194 0.27506605 0.25799468 0.11889981
0.13421896 0.042610336 -0.00016094054 0.041366775 0.27271208 0.18278879 0.036553513 -1.4553713e-05
0.186117 0.1846344 0.2642754 -1.2367929e-05 -8.883262e-05 0.22834034 0.20842877 -4.3130476e-05
0.27079254 0.18866111 0.15323743 0.18312907 0.24559867 0.22322087 0.08937201 0.219445
0.094536394 0.20517148 -0.00020221587 0.27416006 0.092725344 0.22816679 0.15622275 0.20815851
0.2573316 0.25310236 0.25334474 0.26506856 0.07430316 0.049772166 0.2677973 -0.00021730384
0.05123958 0.19266637 -0.00016050105 0.11307317 0.079791166 0.22393835 0.08955211 0.16648352

mlp.mlp.5.running_mean f4 [64]
00000000: 2e28 3e3b 8170 763b ba10 6e3b 3d2d cb3a
00000010: 7173 963a 0098 d436 aafd f23a 8191 3d3b
00000020: 63e6 613b 5e11 6c3b 4be7 3b38 91d8 eb3a
00000030: df1d 6f3b 7f41 7d3b 19f4 703b 5193 1b3b
00000040: e53b 293b 3f15 213a b27c bd9f ed52 213a
00000050: d4a6 7a3b 3038 4f3b 31f7 a739 8681 991a
00000060: d165 4f3b 4cdd 4e3b 69b9 783b 9cb1 f112
00000070: 325d a61e 2dec 613b b9ce 573b 16f0 2798
00000080: e351 7c3b 74d1 4e3b d2bb 373b c901 4f3b
00000090: 53ea 6a3b 1841 633b 9514 ff3a c9d0 5d3b
000000a0: 41aa 063b 4015 593b a192 361f dbf2 793b
000000b0: d27e 033b b3f0 603b 3622 3c3b 7877 5b3b
000000c0: ae4f 663b f70e 6f3b 0f07 733b 4df7 7a3b
000000d0: e63f d53a f0e6 753a c4b7 793b 3971 241f
000000e0: 844f 833a 8688 543b f446 bc25 9427 163b
000000f0: ca8a e63a 8461 623b 87e4 fc3a d5c9 3f3b
0.0029015648 0.0037603679 0.0036325888 0.0015501153 0.0011478496 6.3357875e-06 0.0018538733 0.0028925838
0.0034469597 0.0036021094 4.4799683e-05 0.0017993619 0.003648631 0.0038643775 0.0036766587 0.002373893
0.0025823053 0.00061448285 -8.0250905e-20 0.00061540195 0.003824641 0.0031619184 0.00032036894 6.3488573e-23
0.003164638 0.0031565009 0.003795231 1.5253022e-27 1.7614478e-20 0.0034473047 0.0032929613 -2.1705457e-24
0.0038500957 0.003155795 0.0028035534 0.0031586757 0.0035845235 0.003467625 0.001946109 0.003384637
0.0020548257 0.0033124238 3.8661288e-20 0.0038139138 0.0020064604 0.0034323155 0.0028706915 0.0033487957
0.0035142708 0.0036477426 0.0037083065 0.0038294375 0.0016269654 0.00093804207 0.0038103918 3.4822006e-20
0.0010018204 0.0032430007 3.266088e-16 0.0022911774 0.001758897 0.0034542987 0.0019294181 0.0029264588

mlp.mlp.5.running_var f4 [64]
00000000: 9812 fa37 5db3 7e38 de83 6438 41b2 fb36
00000010: c85d 8836 f244 0b2f 628e 3837 50a1 f537
00000020: a7e8 4238 5d4d 5b38 42bf d231 4aa0 2b37
00000030: 998e 6e38 266e 8338 610a 6b38 f968 9e37
00000040: aad7 bc37 f2c8 9935 cb9a 9e00 8b05 9a35
00000050: 5198 8038 f143 1338 9831 a734 0400 0000
00000060: e45c 1638 ca6d 1638 de2c 8038 0400 0000
00000070: 434f 0600 de8f 4038 64b5 2d38 0400 0000
00000080: e566 8538 fb29 1838 93a3 e537 5a17 1438
00000090: 2360 5a38 6631 3d38 db46 4a37 cbca 3738
000000a0: 71ab 5f37 aa89 2a38 e2cc a503 d4a8 8638
000000b0: 59e8 5537 c10b 4338 530b ee37 441e 2e38
000000c0: e9d0 6038 c401 6238 58a0 6938 9015 7b38
000000d0: e6bf 0c37 c543 3536 a91b 7f38 9b09 0600
000000e0: 5589 4e36 b818 1d38 63a6 f40b 25e0 9137
000000f0: 7f4c 2337 62da 3e38 17b4 4737 1912 0038
2.981098e-05 6.0725364e-05 5.4482247e-05 7.5011344e-06 4.0640334e-06 1.266647e-10 1.1000406e-05 2.9281393e-05
4.646988e-05 5.228572e-05 6.133548e-09 1.02297145e-05 5.6876426e-05 6.2670835e-05 5.6038032e-05 1.888395e-05
2.2511773e-05 1.1457871e-06 1.4565538e-38 1.1475507e-06 6.131887e-05 3.5110806e-05 3.1142258e-07 6e-45
3.5849298e-05 3.5865036e-05 6.111873e-05 6e-45 5.79447e-40 4.5910354e-05 4.1415347e-05 6e-45
6.3611e-05 3.627872e-05 2.7375097e-05 3.5307698e-05 5.2064785e-05 4.5107117e-05 1.2056636e-05 4.3819466e-05
1.3331753e-05 4.0659368e-05 9.744867e-37 6.4210646e-05 1.2749887e-05 4.650257e-05 2.8377084e-05 4.151302e-05
5.3600324e-05 5.3884243e-05 5.570086e-05 5.9863145e-05 8.38933e-06 2.7010549e-06 6.08225e-05 5.54459e-40
3.077633e-06 3.7454738e-05 9.423573e-32 1.7389722e-05 9.733368e-06 4.5502915e-05 1.1903255e-05 3.0534433e-05

mlp.mlp.8.weight f4 [1, 64]
00000000: 4997 1e3e 2785 903e b089 833e ba3e 863d
00000010: 25f5 543d 7e00 473c e009 a33d 7821 1d3e
00000020: 2815 683e e8ac 7d3e efd5 d43c 3daf 9c3d
00000030: 18f3 893e 1011 923e 323e 863e 7c5c e43d
00000040: 9649 013e 7c72 223d 0a60 41bc 282d 1e3d
00000050: e99e 913e 43d0 323e 0056 0b3d 49b5 a9ba
00000060: c299 363e 39ff 343e af0f 8d3e 8153 dfba
00000070: cc13 33bc 1bb2 643e dd7b 4e3e c920 42bb
00000080: ba76 923e e79e 393e dc48 143e 9651 333e
00000090: a0cd 7b3e beda 5f3e 0db8 aa3d 1dc4 5a3e
000000a0: 7d20 b53d 23e2 4a3e 4ff7 50bc f305 953e
000000b0: f680 b13d d3fe 643e 5917 173e c520 4e3e
000000c0: 2aaa 843e c56d 823e 1dcb 833e 7495 8b3e
000000d0: e513 8e3d 6250 3e3d 893d 8e3e 2271 3abc
000000e0: eae9 433d a33e 3d3e cfa3 12bc ad8a d93d
000000f0: 5aa5 983d 6cd1 5f3e 8a5b ab3d 0f33 223e
0.15487398 0.28226587 0.25690985 0.06554933 0.0519916 0.012146113 0.07960868 0.15344799
0.2266432 0.2477299 0.025980918 0.076506115 0.26943278 0.28528643 0.26219326 0.111504525
0.12625727 0.039659962 -0.011802683 0.038617283 0.2844155 0.17462258 0.034017563 -0.0012947704
0.17832091 0.17675485 0.27551028 -0.0017038436 -0.010930013 0.22333567 0.20164438 -0.0029621592
0.28606206 0.18127023 0.14480919 0.17511591 0.24590158 0.21860787 0.08335886 0.21363874
0.08844087 0.19812827 -0.012754275 0.291061 0.086671755 0.22362833 0.14755 0.20129688
0.25911075 0.25474373 0.257409 0.2726246 0.06937388 0.046463378 0.27781323 -0.011379512
0.0478305 0.18480925 -0.008950188 0.106221534 0.07453413 0.21857232 0.08367069 0.1583979
