model/dfm_epoch_25.pt (torch, 40519 bytes, 15 tensors)

embedding.embedding.weight f4 [398, 16]
-0.098078944 0.09657164 0.005940973 -0.033513475 0.16952215 -0.071506664 -0.03428441 0.15701656
0.01761537 0.13499075 0.04130166 0.14949538 -0.20997658 0.030860677 -0.020538554 0.002054173
0.03375178 0.03690921 -0.025057577 -0.04477499 0.12645163 -0.14493202 0.0021055087 0.18006532
-0.21223308 0.13215114 0.18251686 0.17775661 -0.053056356 0.1613169 0.17510019 -0.18697701
-0.1427128 -0.025793849 -0.10985559 -0.10666268 -0.027681656 -0.08706759 -0.071415104 0.06697871
-0.15311773 -0.020568915 0.16489388 0.11004883 -0.1571961 -0.009004806 0.13408013 -0.14899917
-0.10557839 -0.03420891 -0.04042918 -0.020117745 -0.040364157 -0.046706535 -0.05148015 0.072012536
-0.061045446 0.06599287 0.17077048 0.056883205 -0.11245895 -0.030975446 0.10585198 -0.10214597
-0.23049414 0.05750013 -0.022645101 -0.14558654 0.19393666 -0.19597787 0.08854768 0.07462671
-0.19990098 0.10450195 0.100658566 0.27915236 -0.2012989 0.23212065 0.08808669 -0.07028203
-0.11781192 0.107037246 -0.024499983 0.053581618 0.11150144 -0.05085088 0.13954891 0.18778844
-0.04959646 0.23127906 0.076036945 0.23865625 -0.119836114 0.15851788 0.116865516 0.0039602234
-0.03593449 0.017346388 0.047301967 -0.017630288 0.07325551 -0.01996461 0.038028903 0.031914815
-0.07833943 0.05478533 -0.0507326 0.060403697 -0.106551506 0.028943047 -0.02557691 0.040543735
-0.16275229 0.08824324 -0.08219464 -0.1771591 0.06537406 -0.1459037 -0.054900177 0.09177723
-0.044650294 0.19687453 0.21246307 0.16914143 -0.049994905 0.16045478 0.17285033 -0.0807399
-0.077651255 -0.0027271723 0.110452555 0.059166506 0.113186166 -0.014208521 -0.054363035 0.09085666
0.008821772 -0.099046804 -0.007465354 -0.0008127122 -0.09304074 -0.046246685 0.041788433 0.0020385948
-0.07259358 0.03533824 -0.09005635 -0.15809269 0.06316229 -0.16991301 -0.020760374 0.029934445
0.10774682 0.19019945 0.13853177 0.1237841 -0.10099133 0.03818625 0.034542225 -0.015491282
0.03510814 -0.009491655 0.048596237 -0.058272842 0.03142306 -0.113236494 -0.07078031 -0.05180342
-0.09263908 -0.10377906 -0.061088264 0.06350452 -0.075618334 -0.012178336 -0.074787006 0.022994189
-0.0011436979 0.08146724 0.07777912 0.063287556 0.04253611 0.019386752 -0.06312751 0.010585988
-0.023690052 -0.00025898873 -0.08831666 0.09425849 0.022771733 0.0658377 0.03814036 0.09435479
0.26364726 -0.059646044 0.041126758 0.07773797 0.064519376 0.15421757 0.17182282 0.024917547
-0.08117205 -0.1614473 -0.16165763 -0.05680542 -0.14187741 -0.12618019 -0.12121848 0.13706487
-0.037610058 0.0041603446 0.08064346 0.06951905 0.14079478 -0.010797947 -0.040392105 0.022261454
-0.0061654868 -0.06934972 0.010350221 -0.017733203 -0.05054552 -0.06105014 -0.028769763 0.0039601857
-0.02736638 -0.016630333 0.025529325 -0.06521138 0.025238851 -0.14586028 -0.027661227 0.047822595
-0.050253905 -0.017302293 -0.01827975 0.093170404 -0.044824 0.029515803 0.05122114 -0.096059255
-0.05887189 0.080530375 0.0029806052 -0.08670232 0.011438875 0.016062286 0.008009193 0.0062722275
-0.07369873 0.006339669 -0.0023417065 -0.005982934 0.0048370464 -0.025906269 0.0026850277 -0.08670986
00000000: 9ddd c8bd 5ac7 c53d 7eac c23b 6d45 09bd
00000010: 3797 2d3e 1672 92bd cf6d 0cbd f3c8 203e
00000020: 1c4e 903c 043b 0a3e ee2b 293d 5115 193e
00000030: 1a04 57be 88cf fc3c 7840 a8bc 4e9f 063b
00000040: 4e3f 0a3d 1d2e 173d 8c45 cdbc fb65 37bd
00000050: 897c 013e 0f69 14be 93fc 093b 0b63 383e
00000060: a153 59be a152 073e b3e5 3a3e d405 363e
00000070: 9f51 59bd 4230 253e 774d 333e e776 3fbe
00000080: 4e23 12be 9f4d d3bc f8fb e0bd f771 dabd
00000090: a4c4 e2bc 7e50 b2bd 1542 92bd 222c 893d
000000a0: e5ca 1cbe 2480 a8bc f1d9 283e 4861 e13d
000000b0: 04f8 20be e588 13bc 4d4c 093e 3d93 18be
000000c0: 7c39 d8bd a41e 0cbd 1199 25bd f8cd a4bc
000000d0: e354 25bd 5a4f 3fbd dadc 52bd 4f7b 933d
000000e0: ca0a 7abd 4527 873d 75de 2e3e 5dfe 683d
000000f0: e150 e6bd 38c0 fdbc ecc8 d83d e831 d1bd
00000100: a806 6cbe 4285 6b3d 3882 b9bc a314 15be
00000110: 5597 463e 6cae 48be 7c58 b53d e3d5 983d
00000120: d8b2 4cbe 1e05 d63d 1426 ce3d 0fed 8e3e
00000130: 4d21 4ebe 09b1 6d3e cb66 b43d 06f0 8fbd
00000140: 6047 f1bd 5836 db3d 30b4 c8bc 6678 5b3d
00000150: de5a e43d 0349 50bd e9e5 0e3e 9d4b 403e
00000160: a825 4bbd 6bd4 6c3e 42b9 9b3d 4e62 743e
00000170: a36c f5bd 8352 223e 3057 ef3d c3c4 813b
00000180: 0b30 13bd 031a 8e3c b5bf 413d 656d 90bc
00000190: fc06 963d d28c a3bc 32c4 1b3d 1cb9 023d
000001a0: 6c70 a0bd 9566 603d fdcc 4fbd de69 773d
000001b0: ad37 dabd f819 ed3c ab86 d1bc 3011 263d
000001c0: 89a8 26be dfb8 b43d aa55 a8bd 3269 35be
000001d0: d6e2 853d c867 15be 02df 60bd b3f5 bb3d
000001e0: 3ae3 36bd 7a99 493e eb8f 593e 6933 2d3e
000001f0: 75c7 4cbd 424e 243e adff 303e f65a a5bd
00000200: 9f07 9fbd 5cba 32bb f334 e23d 9458 723d
00000210: 26ce e73d dbca 68bc c6ab 5ebd 0e13 ba3d
00000220: 3289 103c 0dd9 cabd ee9f f4bb 310c 55ba
00000230: 258c bebd 2a6d 3dbd 592a 2b3d f299 053b
00000240: f1ab 94bd d5be 103d 776f b8bd 0de3 21be
00000250: 3b5b 813d adfd 2dbe a911 aabc 1539 f53c
00000260: 5daa dc3d a5c3 423e 46db 0d3e 8582 fd3d
00000270: 8bd4 cebd 2f69 1c3d 267c 0d3d 25cf 7dbc
00000280: 8ecd 0f3d e382 1bbc d90c 473d 81af 6ebd
00000290: 77b5 003d 89e8 e7bd 44f5 90bd d32f 54bd
000002a0: 8fb9 bdbd 1e8a d4bd b037 7abd a80e 823d
000002b0: c9dd 9abd a587 47bc ee29 99bd 4f5e bc3c
000002c0: 22e8 95ba 4cd8 a63d a94a 9f3d e89c 813d
000002d0: 583a 2e3d f7d0 9e3c ff48 81bd da70 2d3c
000002e0: a411 c2bc e1c8 87b9 5ddf b4bd 980a c13d
000002f0: c98b ba3c ebd5 863d 1139 1c3d 163d c13d
00000300: c6fc 863e 694f 74bd 8874 283d 1635 9f3d
00000310: bc22 843d 36eb 1d3e 52f2 2f3e e21f cc3c
00000320: 883d a6bd 7152 25be 9489 25be cdac 68bd
00000330: 5048 11be 6135 01be 6541 f8bd bc5a 0c3e
00000340: 010d 1abd 8053 883b 6628 a53d 0160 8e3d
00000350: 822c 103e dfe9 30bc 3172 25bd a75d b63c
00000360: da07 cabb 3a07 8ebd f993 293c 3945 91bc
00000370: d208 4fbd b60f 7abd 91ae ebbc 72c4 813b
00000380: 752f e0bc 563c 88bc e022 d13c 8b8d 85bd
00000390: b5c1 ce3c 665c 15be cc99 e2bc a0e1 433d
000003a0: 0ad7 4dbd 8abd 8dbc 6abf 95bc 20d0 be3d
000003b0: 5f99 37bd 20cb f13c 42cd 513d b7ba c4bd
000003c0: a723 71bd 1ced a43d 4256 433b fc90 b1bd
000003d0: 1f6a 3b3c 0e95 833c fe38 033c 4287 cd3b
000003e0: 5cef 96bd 00bd cf3b 5177 19bb 7d0c c4bb
000003f0: 1680 9e3b 6239 d4bc 4af7 2f3b f094 b1bd

linear.fc.weight f4 [398, 1]
0.30604193 -0.2547892 0.37635034 0.43714553 -0.9749229 -0.6624237 0.1675226 -1.4804088
0.3167526 -0.9358027 0.39014593 0.29504606 2.1307733 0.39620575 -0.28139898 -0.06510723
-1.1859763 0.10189567 1.1242309 0.34965348 -1.1905293 -0.94169754 0.4398933 1.0471201
1.1467123 0.11589133 0.5957457 -0.47592497 1.0447309 -0.47027278 -0.22399533 -1.1597774e-13
0.010081813 -0.85403275 -0.04190102 -2.1118517 0.9917026 -0.22415476 0.27137753 -0.5392699
0.4079555 2.9456215 -0.5721508 -0.016263835 0.0006019223 -0.028181534 3.243232e-05 -1.2528784
-0.8676759 0.29449373 -1.1170286 0.0029006072 -1.2539595 0.05581569 0.88321036 -0.23923619
-1.0051937 0.044736803 1.1019924 0.3851778 -0.18505466 4.4923336e-12 -0.46935496 0.14958516
1.2253559e-12 -0.17275056 -2.06903 0.29933473 0.17916496 0.32787135 -0.26637504 -0.014581203
1.510655 1.7496803 0.10098513 -5.5282734e-10 0.1457008 0.60171926 -0.10579708 -0.12612523
1.0002881 0.12284134 -0.5443951 -2.6359372 -5.4176086e-13 -0.5525942 -0.05755836 -0.9378633
0.10767531 0.494767 1.698737 0.31262642 -1.7081994 -9.980492e-11 -0.42047486 -7.2318856e-10
-0.049556073 -0.55260503 0.10729494 0.30752975 0.58660465 -0.41481078 -0.115996204 0.17650896
-0.37341544 0.8130904 -0.0016431032 -0.73722166 -0.00054460845 -0.00045110408 0.3627444 -1.335177
-0.3325222 0.056413833 0.31034487 -0.5546248 0.0018958272 0.3591102 0.31008106 -0.88037825
2.0089567 -0.5742786 -0.17944472 -0.4962223 1.1282243 -1.1088982 0.0068787932 0.34656912
8.024292e-12 -0.7105284 -0.16457905 0.76261234 0.5839505 -2.5252137 -0.13757068 -0.30452126
-1.554817 -0.6872708 -0.9835483 -0.82597023 -0.33919808 -0.39174166 -1.381676 0.6690283
-1.2563255 0.8049626 0.15735434 0.63050586 -1.5457387 0.54557514 0.039151203 0.52681816
0.46971607 0.085332684 0.8428464 -1.8084447 -0.046217527 -0.33252573 -0.5772683 -0.21519665
0.31674013 0.4205546 0.54196054 -0.57113314 -0.8025642 -0.75269186 -0.14806344 1.3588912
0.14458069 -0.08599463 -0.5095353 -0.7898647 1.1030483 -0.62328196 0.2615242 0.90826285
0.001789383 0.16022348 -0.43164173 -0.31061608 0.5529745 0.019537892 0.0042000352 -0.05852713
0.4380897 0.049948398 -8.891754e-09 0.22189642 -0.02272439 0.12154262 0.15193292 -0.15220907
-0.72226447 0.0001706649 1.6945937e-12 -0.8701961 0.33511066 -0.60952795 -0.034951303 -8.044981e-12
0.0878198 0.43472737 0.9994138 -7.712835e-06 -1.532178 0.015905779 0.28983885 0.8567554
0.70193475 -0.05166542 0.0010246207 0.21833709 -1.4549577 -0.10902722 2.9187375e-12 0.3402645
-0.4569333 0.6142231 0.63330996 -5.879155e-10 0.75414246 0.73660904 0.17821957 -0.19221203
-1.064804 -0.09395021 0.43087882 0.19749634 0.65135616 0.14215066 0.6331448 -0.3225296
0.88779795 -1.2684141 0.15690976 0.89706767 0.70141107 -0.09188822 -0.3908041 0.06851365
-0.28041825 1.1088133 1.2815568 -1.123251 -0.9607338 -0.25366205 0.21376115 0.0016277021
-0.04105092 -0.41985613 -0.30202994 0.48443538 -0.62604266 1.43079975e-11 0.36826733 0.009384513
00000000: 87b1 9c3e bb73 82be feb0 c03e 8ad1 df3e
00000010: 8c94 79bf 9994 29bf 0b8b 2b3e 097e bdbf
00000020: 662d a23e c490 6fbf 35c1 c73e 4710 973e
00000030: 975e 0840 7bdb ca3e 8713 90be f056 85bd
00000040: 12ce 97bf adae d03d cce6 8f3f c805 b33e
00000050: 4463 98bf 1713 71bf b239 e13e 0808 863f
00000060: 78c7 923f 6f58 ed3d ca82 183f 70ac f3be
00000070: beb9 853f 98c7 f0be 085f 65be 4f94 02aa
00000080: 302e 253c e4a1 5abf 67a0 2bbd 9428 07c0
00000090: 39e0 7d3f d388 65be fff1 8a3e 980d 0abf
000000a0: 8bdf d03e 1085 3c40 7a78 12bf bc3b 85bc
000000b0: 52ca 1d3a f6dc e6bc f007 0838 525e a0bf
000000c0: 0220 5ebf e2c7 963e cbfa 8ebf 1d18 3e3b
000000d0: bf81 a0bf fe9e 643d 131a 623f 55fa 74be
000000e0: 30aa 80bf f03d 373d 160e 8d3f 0636 c53e
000000f0: f87e 3dbe 580f 9e2c 4b4f f0be da2c 193e
00000100: 1974 ac2b 86e5 30be fd6a 04c0 6742 993e
00000110: 0577 373e c1de a73e 4f62 88be 00e6 6ebc
00000120: 255d c13f 86f5 df3f 4bd1 ce3d c4f5 17b0
00000130: 9732 153e 460a 1a3f 24ac d8bd f926 01be
00000140: 7109 803f 3e94 fb3d 7a5d 0bbf 32b3 28c0
00000150: fc7d 18ab d076 0dbf 51c2 6bbd cf17 70bf
00000160: df84 dc3d 1a52 fd3e 3770 d93f 9210 a03e
00000170: 47a6 dabf 2d79 dbae 7b48 d7be dfc9 46b0
00000180: 4ffb 4abd 8677 0dbf 73bd db3d 8a74 9d3e
00000190: b92b 163f 1462 d4be 6b8f edbd c4be 343e
000001a0: 4f30 bfbe b126 503f 655d d7ba 8fba 3cbf
000001b0: 0ec4 0eba 2a82 ecb9 a2b9 b93e 14e7 aabf
000001c0: 5a40 aabe 3112 673d 86e5 9e3e e4fb 0dbf
000001d0: 687d f83a 4bdd b73e f2c2 9e3e 7860 61bf
000001e0: bf92 0040 ec03 13bf 5bc0 37be d910 febe
000001f0: a769 903f 60f0 8dbf 8067 e13b 8271 b13e
00000200: 332a 0d2d 30e5 35bf 6987 28be 903a 433f
00000210: c87d 153f 1a9d 21c0 54df 0cbe 36ea 9bbe
00000220: 3e04 c7bf fbf0 2fbf d2c9 7bbf c972 53bf
00000230: 5fab adbe 5d92 c8be c2da b0bf 7045 2b3f
00000240: 46cf a0bf 0712 4e3f 7f21 213e d568 213f
00000250: c4da c5bf d0aa 0b3f 035d 203d 8edd 063f
00000260: a07e f03e e7c2 ae3d c8c4 573f 1e7b e7bf
00000270: 974e 3dbd d040 aabe dbc7 13bf 835c 5cbe
00000280: c32b a23e ef52 d73e edbd 0a3f c835 12bf
00000290: d974 4dbf 6ab0 40bf f19d 17be 26f0 ad3f
000002a0: f60c 143e f41d b0bd e870 02bf 9334 4abf
000002b0: b030 8d3f 688f 1fbf 80e6 853e ea83 683f
000002c0: bb89 ea3a a011 243e 2500 ddbe 1209 9fbe
000002d0: bd8f 0d3f ee0d a03c 73a0 893b 25ba 6fbd
000002e0: 4b4d e03e b196 4c3d 59c2 18b2 d138 633e
000002f0: 8028 babc 56eb f83d 4e94 1b3e b2dc 1bbe
00000300: 53e6 38bf 83f4 3239 2c7e ee2b 2cc5 5ebf
00000310: a093 ab3e 060a 1cbf 1929 0fbd 6087 0dad
00000320: deda b33d 9694 de3e 95d9 7f3f 6066 01b7
00000330: 691e c4bf d64c 823c c265 943e 5254 5b3f
00000340: ffb1 333f 1f9f 53bd 914c 863a c293 5f3e
00000350: 0e3c babf aa49 dfbd 4d63 4d2c 2637 ae3e
00000360: 29f3 e9be ba3d 1d3f 9a20 223f e09a 21b0
00000370: 7b0f 413f 6992 3c3f 317f 363e 3bd3 44be
00000380: 7f4b 88bf f868 c0bd 269c dc3e 7b3c 4a3e
00000390: 47bf 263f f18f 113e c715 223f 9a22 a5be
000003a0: ba46 633f 655b a2bf f4ac 203e 3aa6 653f
000003b0: ad8f 333f e42f bcbd 7a17 c8be e250 8c3d
000003c0: fb92 8fbe 98ed 8d3f 0e0a a43f b0c6 8fbf
000003d0: a6f2 75bf fedf 81be 34e4 5a3e 9f58 d53a
000003e0: 0225 28bd 62f7 d6be aba3 9abe ea07 f83e
000003f0: 5544 20bf 7eb5 7b2d 898d bc3e 80c1 193c

mlp.mlp.0.weight f4 [16, 80]
0.052862156 0.045776483 0.10742398 0.03530791 0.11026401 0.1202939 0.005417433 -0.0428029
-0.06336178 0.016941585 0.019826356 -0.06446227 -0.08140256 -0.011843918 -0.053754706 -0.023280874
0.06496897 0.039485015 -0.12683162 0.0595622 -0.03266589 0.06666371 -0.09555054 0.018739926
0.065625854 0.07236318 0.007924015 -0.0709518 -0.03762306 -0.045128774 0.14949407 -0.12774505
0.074071884 0.07891872 0.11054215 0.11651857 -0.016144956 -0.013996893 0.13365144 -0.04079928
0.014798078 -0.082728945 0.06224493 -0.11608261 -0.057816062 -0.06502377 -0.11916705 0.112658374
0.118473284 0.07257348 0.07093738 0.0063421065 0.15182507 0.07037934 -0.051088598 0.0049789688
-0.022755813 0.0071867243 -0.050622378 0.0045453114 0.09887959 0.041003115 -0.0074724294 0.02859418
-0.12283317 0.14420626 0.07695688 -0.029688586 0.015921835 0.045305464 0.064097814 -0.045701053
0.07418576 -0.038976822 -0.008606677 -0.064496234 0.029813068 0.007612691 -0.010383464 0.050686587
-0.010145943 0.02559672 -0.06886238 0.032578543 -0.00695529 0.055725522 0.074456565 0.0028352619
0.035608117 0.0026747498 0.103398435 0.111676574 -0.008048592 0.016082752 -0.011023982 0.05905769
-0.11567738 -0.09374182 0.04824458 0.08263846 -0.07409194 0.12505016 -0.019294498 -0.06337043
-0.007223491 0.0160731 0.13078341 -0.0150351925 -0.033597156 0.00750125 0.036338087 -0.04080823
0.115437835 -0.05680874 0.004334191 0.047988307 -0.0045930003 0.12794149 0.07518972 -0.0506057
-0.07766165 -0.004882207 0.014218077 -0.039852735 0.06633795 -0.08841626 -0.05588867 0.09655897
-0.038395055 -0.02569437 -0.08099588 0.061523534 0.017646167 0.07034907 0.010362562 -0.033704143
0.110626474 0.055206522 0.0071065747 -0.010901079 0.108773485 0.0973224 -0.045584887 0.020989059
-0.121436074 0.10271227 0.063017964 -0.14154713 -0.056357715 0.0033877778 0.05360683 -0.14539984
0.010310258 -0.01340816 -0.042180687 -0.10730265 0.037696745 0.052020244 0.0018634715 -0.07097492
0.047653005 0.073882334 0.06493699 0.020293687 0.07214698 0.07512559 -0.02687372 -0.096046485
-0.086451404 -0.065966345 -0.013800598 0.08279865 -0.11737597 0.035689335 -0.05800695 -0.0729543
0.07665615 0.0756559 0.078582756 -0.08867708 0.084459536 -0.056631625 0.01028775 -0.072002314
0.067130044 0.04143862 -0.011709528 0.051776767 -0.004300062 0.056898743 0.093637526 0.0408461
-0.12226409 0.07870722 -0.08732453 0.06996878 -0.12786919 0.0288842 0.038628887 0.06679419
-0.07426102 0.09158244 0.086081445 -0.005268305 -0.05514939 -0.0977424 0.13188058 -0.09051457
-0.0084818285 -0.06377525 -0.058323357 -0.07248977 -0.054457374 -0.010532477 0.039811015 0.03889173
0.019166343 -0.02671206 0.122070014 -0.089159355 -0.124283165 -0.10496838 -0.025877826 0.114213906
0.11403376 -0.08491924 -0.041042536 0.05348994 0.019483773 -0.061070357 -0.05084598 -0.014620989
-0.095667355 0.07914222 -0.008293205 0.13591576 -0.073707774 -0.04349601 -0.026201386 0.069242015
-0.06116315 0.019011183 -0.08609863 0.05878065 -0.010742493 0.083703764 -0.040570546 -0.07125561
-0.10214828 0.06168599 -0.019329086 -0.051241774 0.01618808 0.053713206 -0.040069304 0.016363818
00000000: fd85 583d 1f80 3b3d 1b01 dc3d 079f 103d
00000010: 19d2 e13d a65c f63d b984 b13b 1852 2fbd
00000020: d2c3 81bd 14c9 8a3c e26a a23c cb04 84bd
00000030: 63b6 a6bd fe0c 42bc e52d 5cbd 88b7 bebc
00000040: 740e 853d 0abb 213d 26e0 01be 7ef7 733d
00000050: abcc 05bd fc86 883d 00b0 c3bd 7984 993c
00000060: d966 863d 2633 943d bad3 013c 2d4f 91bd
00000070: a31a 1abd f3d8 38bd f914 193e 99cf 02be
00000080: 00b3 973d 23a0 a13d ec63 e23d 4aa1 ee3d
00000090: 6d42 84bc 3953 65bc ecdb 083e 251d 27bd
000000a0: a373 723c cb6d a9bd 8af4 7e3d b8bc edbd
000000b0: 89d0 6cbd 2f2b 85bd db0d f4bd 6fb9 e63d
000000c0: 1fa2 f23d 68a1 943d 9e47 913d 72d1 cf3b
000000d0: 0878 1b3e 0b23 903d 4742 51bd 9e26 a33b
000000e0: 666a babc 9d7e eb3b 6959 4fbd d6f0 943b
000000f0: 6281 ca3d e2f2 273d 48db f4bb 573e ea3c
00000100: f58f fbbd ceaa 133e 929b 9d3d 7a35 f3bc
00000110: 826e 823c 3992 393d b745 833d 0731 3bbd
00000120: b4ee 973d 29a6 1fbd 0503 0dbc 9a16 84bd
00000130: 893a f43c e173 f93b 681f 2abc bd9c 4f3d
00000140: 2b3b 26bc 36b0 d13c b807 8dbd 1471 053d
00000150: 34e9 e3bb 7240 643d af7c 983d cdcf 393b
00000160: d1d9 113d db4a 2f3b 8fc2 d33d b0b6 e43d
00000170: 3ede 03bc fabf 833c ef9d 34bc 7ae6 713d
00000180: 43e8 ecbd b6fb bfbd 1c9c 453d 5a3e a93d
00000190: 84bd 97bd 260d 003e 7f0f 9ebc 5bc8 81bd
000001a0: 09b3 ecbb bcab 833c 16ec 053e 2b56 76bc
000001b0: 2c9d 09bd 0ccd f53b 3fd7 143d 8826 27bd
000001c0: ac6a ec3d 48b0 68bd d405 8e3b 638f 443d
000001d0: e180 96bb 1803 033e 11fd 993d ec47 4fbd
000001e0: 120d 9fbd ecfa 9fbb f0f2 683c 9f3c 23bd
000001f0: 31dc 873d 9613 b5bd 85eb 64bd b6c0 c53d
00000200: 2244 1dbd 007d d2bc 2be1 a5bd 1a00 7c3d
00000210: b28e 903c 2c13 903d bcc7 293c 5b0d 0abd
00000220: 2290 e23d 3c20 623d 45de e83b 709a 32bc
00000230: a2c4 de3d f750 c73d 38b7 3abd 3ff1 ab3c
00000240: 7ab3 f8bd d05a d23d 900f 813d bbf1 10be
00000250: 59d7 66bd 7b05 5e3b d692 5b3d b2e3 14be
00000260: 5bec 283c e6ad 5bbc a8c5 2cbd 7ec1 dbbd
00000270: e767 1a3d 2e13 553d ba3f f43a 4d5b 91bd
00000280: cc2f 433d 9f4f 973d affd 843d f23e a63c
00000290: ccc1 933d 72db 993d 4726 dcbc 05b4 c4bd
000002a0: 6f0d b1bd 5d19 87bd e71b 62bc 5792 a93d
000002b0: d062 f0bd fb2e 123d b298 6dbd 1069 95bd
000002c0: e6fd 9c3d 7bf1 9a3d ffef a03d 549c b5bd
000002d0: 1ff9 ac3d 90f6 67bd f38d 283c f375 93bd
000002e0: 7a7b 893d 8bbb 293d 52d9 3fbc e013 543d
000002f0: 89e7 8cbb a80e 693d 08c5 bf3d 3d4e 273d
00000300: 9865 fabd 4031 a13d 34d7 b2bd cb4b 8f3d
00000310: 24f0 02be 8f9e ec3c 5339 1e3d 64cb 883d
00000320: 2916 98bd 938f bb3d 784b b03d bfa1 acbb
00000330: 54e4 61bd 2b2d c8bd b40b 073e b45f b9bd
00000340: 5ef7 0abc 999c 82bd 79e4 6ebd 8475 94bd
00000350: b20e 5fbd 6990 2cbc e010 233d ef4c 1f3d
00000360: bc02 9d3c 40d3 dabc d8ff f93d 2e99 b6bd
00000370: 2c88 febd a9f9 d6bd bcfd d3bc fbe8 e93d
00000380: 888a e93d 23ea adbd 381c 28bd 4418 5b3d
00000390: 6f9c 9f3c e924 7abd e043 50bd df8c 6fbc
000003a0: 3fed c3bd 5115 a23d 39e0 07bc 802d 0b3e
000003b0: 1af4 96bd df28 32bd 4aa4 d6bc c2ce 8d3d
000003c0: 3686 7abd 57bd 9b3c 7b54 b0bd fbc3 703d
000003d0: 4801 30bc e16c ab3d 4d2d 26bd 76ee 91bd
000003e0: 1e33 d1bd 73aa 7c3d 0858 9ebc e5e2 51bd
000003f0: dd9c 843c 6102 5c3d b61f 24bd 6a0d 863c

mlp.mlp.0.bias f4 [16]
-8.975728e-05 -0.00012859507 0.00011390927 -0.00025620707 -2.3767408e-05 -7.4694355e-05 0.000113345865 -0.000190091
-7.847347e-05 0.00021440521 -1.2146615e-05 -0.00013511698 -9.148696e-05 -0.0007554872 -0.00017468416 -0.00021959937
00000000: 133c bcb8 7ad7 06b9 93e2 ee38 8853 86b9
00000010: 1f60 c7b7 3aa5 9cb8 19b4 ed38 2a53 47b9
00000020: 2092 a4b8 f6d1 6039 50c9 4bb7 30ae 0db9
00000030: b0dc bfb8 e30b 46ba 6c2b 37b9 4244 66b9

mlp.mlp.1.weight f4 [16]
1.025782 1.0378734 0.85725224 1.1507206 0.93826014 0.88515604 1.0885913 0.8333583
0.9495257 0.9507195 0.9585061 1.0942615 1.0991356 0.8863094 0.99325395 0.8681867
00000000: d34c 833f 09d9 843f e274 5b3f d04a 933f
00000010: d131 703f 9699 623f f656 8b3f f856 553f
00000020: 1e14 733f 5a62 733f a860 753f c310 8c3f
00000030: 7ab0 8c3f 2ce5 623f e445 7e3f 7c41 5e3f

mlp.mlp.1.bias f4 [16]
-0.107078314 -0.14211364 -0.22651704 0.032455355 -0.09709523 -0.20548525 -0.013174139 -0.248228
-0.07237195 -0.14805187 -0.29624277 -0.03853209 -0.017904561 -0.1950018 -0.1615534 -0.19880831
00000000: e04b dbbd 3d86 11be 15f4 67be e8ef 043d
00000010: ddd9 c6bd ba6a 52be 58d8 57bc 7b2f 7ebe
00000020: bf37 94bd e99a 17be 22ad 97be d3d3 1dbd
00000030: 96ac 92bc 8dae 47be 416e 25be 6894 4bbe

mlp.mlp.1.running_mean f4 [16]
-0.03363903 0.003367963 0.012142598 0.0014737318 0.0026636438 0.03534044 0.0068478915 -0.0091967415
-0.0071935942 -0.04762537 -0.019405073 0.037981734 0.054969516 -0.09880295 -0.031480316 -0.10136573
00000000: 14c9 09bd 0bb9 5c3b bff1 463c 3c2a c13a
00000010: 8790 2e3b 23c1 103d 4764 e03b eead 16bc
00000020: 3eb8 ebbb d212 43bd 63f7 9ebc bc92 1b3d
00000030: b727 613d 3359 cabd 81f1 00bd d698 cfbd

mlp.mlp.1.running_var f4 [16]
0.006463864 0.005183685 0.0040182383 0.0024128077 0.0030785084 0.003035578 0.0020804747 0.002601922
0.0021314137 0.003108599 0.004549369 0.003225519 0.0022310165 0.002157163 0.0034865516 0.0031856992
00000000: d2ce d33b e7db a93b 6dab 833b 3220 1e3b
00000010: cdc0 493b 8cf0 463b 9358 083b 0285 2a3b
00000020: 30af 0b3b a3b9 4b3b e012 953b 3b63 533b
00000030: 3f36 123b 315f 0d3b a17e 643b 2ac7 503b

mlp.mlp.4.weight f4 [16, 16]
-0.3210448 -0.09629838 0.014677133 -0.07658427 0.115551546 0.07079575 -0.270784 0.16951686
0.14446132 0.019893918 -0.14864738 -0.03314867 -0.2971195 0.09053156 -0.11756275 -0.118087925
-0.17861094 -0.0152176805 0.18271412 -0.08554862 0.15540034 0.21313106 -0.2668105 0.09453105
0.18915325 0.09466256 -0.1390289 -0.21019669 0.053670138 0.07261214 -0.18300287 0.15457614
0.24940331 0.25532436 0.08061387 -0.12790999 -0.18999583 0.013411389 0.060885414 -0.13199452
-0.10870453 -0.16055366 0.12055874 -0.12312728 0.27729478 0.080449015 -0.04432916 0.12353466
0.028957112 0.059425533 0.1112952 0.3395684 0.1054922 -0.15341854 0.1953952 0.054301642
-0.08473537 0.12397055 -0.13087341 0.2655321 0.12988962 0.029530708 0.0014168338 -0.28416273
-0.09741593 -0.07558031 -0.19317693 -0.13439494 -0.073276296 0.1942293 -0.2392543 0.22170503
0.0016798899 0.018825931 -0.18560319 -0.17630428 -0.11025944 0.080039226 0.073214315 0.15977228
-0.15127793 -0.29786554 0.26333553 -0.025483033 -0.17202994 0.27006316 -0.04473772 0.106552325
0.28077218 0.033143785 -0.22834371 -0.12478627 0.050216947 0.04911853 0.07727714 0.028576775
-0.20886144 -0.27562267 0.0018971475 -0.031676345 0.02144405 -0.044173513 -0.09974425 0.0844864
0.048240557 0.123979926 -0.24923554 -0.048845712 -0.018705197 -0.06089595 -0.1049164 0.1236006
0.1268117 -0.097359605 0.2636915 -0.14929585 0.040505704 0.25818163 -0.038420204 -0.05184629
0.041799124 0.10306363 -0.248707 -0.18772928 -0.2412903 0.16793732 -0.1987001 -0.08738834
0.030252958 -0.19397421 0.22029099 -0.03420478 -0.09577507 0.0081974715 -0.037824366 -0.03804612
-0.033641826 -0.15533832 -0.14972918 -0.06818442 -0.25731105 0.13168578 -0.0023049337 0.26930058
0.33130375 -0.083795205 -0.07718502 0.20841104 -0.005848042 -0.07176717 0.11508431 0.009665772
-0.032481942 -0.05733609 0.08150309 -0.08074424 -0.12239116 -0.0018338005 0.061112855 0.16001055
-0.02052501 0.10221407 -0.10312324 -0.06864269 -0.0091989385 -0.013278192 -0.088197716 0.09331373
-0.21825978 -0.12069496 0.27879822 0.19349897 0.21628006 -0.086111695 0.31716144 -0.12635492
0.05792576 -0.27604318 0.18881755 -0.2233469 0.15024528 0.039973047 -0.18779759 0.04465893
0.07500149 0.14519121 0.039129134 -0.14274661 -0.13597202 -0.14149605 -0.27877435 -0.044671975
-0.22382654 -0.2446873 0.20451464 -0.010413765 0.1763251 0.00683715 -0.21494095 0.07703521
-0.15945043 0.1980012 -0.2865232 -0.22594348 0.1087511 0.14531222 -0.20473257 0.069207326
-0.11149654 0.09137645 0.027604327 -0.32427606 0.27624556 -0.12360916 -0.105989136 -0.08161826
0.023667624 0.14579844 0.12064145 -0.15917319 -0.06468119 0.14912625 -0.29046345 -0.055752542
-0.115447596 0.123018935 -0.14530508 0.1638229 -0.06408412 -0.0439018 0.07719284 0.01933225
-0.24662817 -0.024634 0.25730896 0.120449245 -0.028037371 -0.21406041 0.24121754 -0.09873104
0.15641423 0.07679165 -0.037625484 -0.024088679 -0.11151079 -0.093873784 0.073065415 -0.029927779
-0.09856506 -0.12788577 0.24970917 0.16601789 0.039433263 0.05265253 0.06450888 -0.02155936
00000000: fc5f a4be 1638 c5bd 5c78 703c 37d8 9cbd
00000010: 4aa6 ec3d 5dfd 903d 33a4 8abe d495 2d3e
00000020: abed 133e 92f8 a23c 0537 18be e6c6 07bd
00000030: 0c20 98be 9c68 b93d bdc4 f0bd 15d8 f1bd
00000040: c9e5 36be 9453 79bc 6919 3b3e 1d34 afbd
00000050: 4421 1f3e 073f 5a3e 639b 88be 7f99 c13d
00000060: 64b1 413e 72de c13d 985d 0ebe cd3d 57be
00000070: 38d5 5b3d acb5 943d 1b65 3bbe 3549 1e3e
00000080: 9563 7f3e e0b9 823e e218 a53d d6fa 02be
00000090: 448e 42be 71bb 5b3c fc62 793d 9229 07be
000000a0: 7ba0 debd 2e68 24be 80e7 f63d 282a fcbd
000000b0: 95f9 8d3e 74c2 a43d 7e92 35bd bdff fc3d
000000c0: 7737 ed3c 3068 733d bdee e33d e9db ad3e
000000d0: 4b0c d83d c019 1dbe ae15 483e 666b 5e3d
000000e0: bd89 adbd 46e4 fd3d ae03 06be d3f3 873e
000000f0: c901 053e 62ea f13c 0eb5 b93a c77d 91be
00000100: 0182 c7bd d9c9 9abd 2cd0 45be d49e 09be
00000110: e211 96bd 0ce4 463e 14ff 74be a506 633e
00000120: c02f dc3a d738 9a3c c30e 3ebe 1c89 34be
00000130: b4cf e1bd 9beb a33d 63f1 953d 589b 233e
00000140: 9ae8 1abe d581 98be ead3 863e cbc1 d0bc
00000150: 9e28 30be b845 8a3e e63e 37bd 1b38 da3d
00000160: 5fc1 8f3e c7c1 073d efd2 69be f28f ffbd
00000170: 49b0 4d3d 8330 493d 7a43 9e3d d719 ea3c
00000180: c6df 55be 6a1e 8dbe b5a9 f83a 0ebf 01bd
00000190: 6fab af3c 49ef 34bd b746 ccbd 3507 ad3d
000001a0: e497 453d 30e9 fd3d 9a37 7fbe 7112 48bd
000001b0: a43b 99bc 086e 79bd 69de d6bd 5022 fd3d
000001c0: edda 013e 7964 c7bd 9302 873e 03e1 18be
000001d0: 4fe9 253d 6230 843e 815e 1dbd c65c 54bd
000001e0: 8f35 2b3d 0613 d33d 0cad 7ebe 1b3c 40be
000001f0: ce14 77be c3f7 2b3e 0a78 4bbe a8f8 b2bd
00000200: 0dd5 f73c 2da1 46be f693 613e 501a 0cbd
00000210: b825 c4bd b04e 063c b9ed 1abd 40d6 1bbd
00000220: 03cc 09bd 0211 1fbe 9b52 19be 46a4 8bbd
00000230: 46be 83be a3d8 063e 5f0e 17bb c4e1 893e
00000240: a5a0 a93e d29c abbd 2e13 9ebd b469 553e
00000250: efa0 bfbb abfa 92bd 53b1 eb3d 305d 1e3c
00000260: c90b 05bd 3fd9 6abd 18eb a63d 3c5d a5bd
00000270: 37a8 fabd 225c f0ba 7951 7a3d ced9 233e
00000280: 1124 a8bc 9c55 d13d 4732 d3bd 8a94 8cbd
00000290: 25b7 16bc c68c 59bc 01a1 b4bd 451b bf3d
000002a0: 7e7f 5fbe eb2e f7bd a4be 8e3e 9824 463e
000002b0: 8578 5d3e 545b b0bd fc62 a23e 2f63 01be
000002c0: 9043 6d3d 8855 8dbe 6359 413e 0db5 64be
000002d0: e6d9 193e c7ba 233d 034e 40be 48ec 363d
000002e0: 629a 993d 01ad 143e df45 203d 2b2c 12be
000002f0: 403c 0bbe 57e4 10be 83bb 8ebe f6f9 36bd
00000300: c932 65be 4f8f 7abe 496c 513e 7f9e 2abc
00000310: 918e 343e 2c0a e03b 7b19 5cbe a3c4 9d3d
00000320: f946 23be d4c0 4a3e 2bb3 92be ba5d 67be
00000330: e6b8 de3d bacc 143e 6aa5 51be 92bc 8d3d
00000340: 4c58 e4bd 9423 bb3d 7822 e23c 8307 a6be
00000350: 0f70 8d3e cd26 fdbd d510 d9bd 7927 a7bd
00000360: 9be2 c13c 304c 153e dd12 f73d 4cfe 22be
00000370: 9277 84bd 8db4 183e a0b7 94be c75c 64bd
00000380: ca6f ecbd 5af1 fb3d dbca 14be 31c1 273e
00000390: 893e 83bd 60d2 33bd 4817 9e3d ab5e 9e3c
000003a0: 188c 7cbe 3ecd c9bc 00be 833e 18ae f63d
000003b0: a1ae e5bc a732 5bbe bb01 773e 8033 cabd
000003c0: 0d2b 203e f144 9d3d 2e1d 1abd 9f55 c5bc
000003d0: c55f e4bd e640 c0bd 52a3 953d 1a2b f5bc
000003e0: 7adc c9bd 7df4 02be c3b3 7f3e 9800 2a3e
000003f0: c684 213d 2eaa 573d 3b1d 843d 419d b0bc

mlp.mlp.4.bias f4 [16]
7.0768356e-06 -0.0031196054 -0.001109983 -1.5790245e-05 -1.9394127e-05 -3.8820176e-06 -0.0018870407 -6.115339e-07
-0.00015949209 0.003357077 -0.0013949211 5.7980615e-05 -6.505629e-05 7.2990997e-06 2.2752296e-05 8.2235865e-06
00000000: 8e75 ed36 4b72 4cbb d97c 91ba 4b75 84b7
00000010: 92b0 a2b7 4742 82b6 9456 f7ba 4a28 24b5
00000020: 553d 27b9 6802 5c3b c9d5 b6ba 3630 7338
00000030: d46e 88b8 caea f436 2fdc be37 09f8 0937

mlp.mlp.5.weight f4 [16]
1.028073 1.0929905 0.9679909 0.9465156 1.0256197 1.0891709 1.0453836 1.1038331
1.0551172 1.0247608 1.0090898 1.0551391 1.0718429 1.0329322 0.98436624 0.9973584
00000000: e597 833f 1de7 8b3f 40ce 773f d94e 723f
00000010: 8247 833f f469 8b3f 21cf 853f 674a 8d3f
00000020: 150e 873f 5d2b 833f db29 813f cc0e 873f
00000030: 2632 893f 1f37 843f 6dff 7b3f e152 7f3f

mlp.mlp.5.bias f4 [16]
0.033524647 0.102566645 -0.061135612 -0.06276799 0.029828545 0.09740219 0.04484665 0.0972623
0.046716154 -0.028643291 -0.023247894 0.054265946 0.07461522 0.034865104 -0.03942278 -0.033961494
00000000: 2451 093d 760e d23d 5669 7abd 818c 80bd
00000010: fe5a f43c cd7a c73d 1fb1 373d 7531 c73d
00000020: 7059 3f3d 56a5 eabc 5e72 bebc f845 5e3d
00000030: ddcf 983d b6ce 0e3d c879 21bd 351b 0bbd

mlp.mlp.5.running_mean f4 [16]
-0.3729713 -0.063485526 0.12737258 0.3909689 -0.27128813 -0.020641038 -0.27003434 -0.18700308
-0.20642914 0.17152365 0.12500162 -0.32450506 -0.26294246 -0.24434495 0.062459923 0.13578773
00000000: 18f6 bebe b304 82bd f56d 023e 132d c83e
00000010: 47e6 8abe 6517 a9bc f141 8abe bc7d 3fbe
00000020: 2962 53be e5a3 2f3e 6d00 003e 8725 a6be
00000030: 65a0 86be 9035 7abe fad5 7f3d f00b 0b3e

mlp.mlp.5.running_var f4 [16]
0.78694457 0.9068302 0.2339594 0.36943996 0.40551147 0.4581645 0.3764628 0.6203073
0.22012503 0.11562834 0.4471785 0.6307045 0.77126837 0.42753658 0.52442414 0.3153706
00000000: 3375 493f 0626 683f 0e93 6f3e 3c27 bd3e
00000010: 339f cf3e 8a94 ea3e bbbf c03e 76cc 1e3f
00000020: 7568 613e 8dce ec3d 95f4 e43e da75 213f
00000030: d871 453f 13e6 da3e a940 063f 4178 a13e

mlp.mlp.8.weight f4 [1, 16]
0.26648647 0.07841547 -0.13435093 -0.12715524 0.26196817 0.089266054 0.2282019 0.08275853
0.1659256 -0.06646591 -0.11193757 0.17910302 0.121509396 0.19746034 -0.16241176 -0.120063424
00000000: ea70 883e 4a98 a03d 4a93 09be fc34 02be
00000010: b120 863e 1fd1 b63d c2ad 693e 4e7d a93d
00000020: 67e8 293e 471f 88bd 863f e5bd c866 373e
00000030: ebd9 f83d 0b33 4a3e 454f 26be d0e3 f5bd
