model/dfm_epoch_5.pt (torch, 40519 bytes, 15 tensors)

embedding.embedding.weight f4 [398, 16]
000000 60 68 b4 bd fd d0 d2 3d 8c 3f 40 3d 80 14 b2 bb
       -0.088089705 0.102937676 0.046935603 -0.0054345727
000010 ca ee 14 3e a8 bd ac bc 98 df b2 bc 4e be 01 3e
       0.14544216 -0.021086529 -0.021835133 0.12670252
000020 86 04 41 3d b4 75 c4 3d 18 48 f4 39 fb a6 f3 3d
       0.047123455 0.095927626 0.0004659302 0.11897083
000030 bc ac 44 be ee 64 e4 ba 05 9e 4d bd 2c 66 97 3c
       -0.19206518 -0.0017425099 -0.050199527 0.018481337
000040 b2 2f 41 3d 1a 3c 15 3d df 98 53 bc 65 57 0b bd
       0.047164626 0.03643427 -0.012914865 -0.034018893
000050 c1 4b bc 3d b3 e5 cf bd ab 93 c7 3c 93 dd e8 3d
       0.091941364 -0.101512335 0.024362406 0.11370387
000060 ed 0d 3c be 0b 2f bf 3d c5 9e 1b 3e 38 b9 0c 3e
       -0.18364687 0.093351446 0.15197285 0.1374253
000070 7d 4f dc bb e5 dd 0a 3e 0e 3b 27 3e 80 19 3c be
       -0.006723343 0.13561209 0.16331121 -0.18369102
000080 9a 86 29 be 85 d7 f2 3b 6d 3d a3 bd 9c bc dd bd
       -0.16555253 0.007410946 -0.079707004 -0.1082699
000090 fc 62 ed 3b e5 87 b0 bd 6b dd 19 bd 70 d0 6c 3d
       0.007244466 -0.0861967 -0.037564676 0.05781597
0000a0 49 9f 2f be be 14 84 bc 11 3b 22 3e c3 28 f9 3d
       -0.17150606 -0.016123172 0.15842845 0.12165978
0000b0 66 c6 16 be f6 9e 48 3c b5 c9 0e 3e bd e1 2c be
       -0.1472412 0.0122449305 0.13944133 -0.16882987
0000c0 52 19 e9 bd 00 23 dd bb 23 48 83 bc 6a 3d 28 3b
       -0.113817826 -0.006748557 -0.016025608 0.0025671371
0000d0 92 41 58 bc 56 fc f5 bc 45 cd f3 bc 59 ae 06 3d
       -0.013199227 -0.03002755 -0.029760966 0.032881115
0000e0 2e e9 45 bc 71 f8 8f 3d b5 01 f6 3d 88 4d 51 3d
       -0.01207952 0.07029808 0.12012044 0.05109933
0000f0 5f ba 8c bd be 42 0c bd 73 61 c7 3d 26 95 b1 bd
       -0.06871485 -0.034243338 0.09735384 -0.08671026
000100 9c d5 25 be 11 aa 20 3d 57 e3 a0 bb 4d c3 b0 bd
       -0.16194767 0.039224688 -0.0049099135 -0.08631001
000110 7c ba 0b 3e c9 39 03 be b7 4b cb 3d dd b2 8b bc
       0.13645357 -0.12815012 0.09926551 -0.017053062
000120 1e 28 c1 bd 32 e8 36 3d db a1 25 3c ba b3 49 3e
       -0.0943148 0.044655032 0.01010939 0.19697466
000130 51 dd d7 bd 04 c7 3d 3e d5 da a7 3c 4a 89 e9 bb
       -0.1054026 0.1853295 0.02049009 -0.007126962
000140 47 0d 84 bd 15 e8 b7 3d 96 0f 95 bc 2b 26 b8 3d
       -0.06447845 0.08979813 -0.018195909 0.08991655
000150 16 93 a3 3d aa 34 8b bc 17 7e 1b 3e a1 00 03 3e
       0.07987039 -0.016992886 0.15184818 0.12793209
000160 08 ed d7 3b 48 59 33 3e ac 8a 27 3c 62 4f 31 3e
       0.0065895356 0.17514527 0.010225933 0.17315438
000170 87 9b c1 bd 07 28 0e 3e e7 06 a5 3d 52 54 44 3d
       -0.094534926 0.13882457 0.08057957 0.047931977
000180 73 db 70 bd a6 cc 82 3d f6 0e 58 3d 71 6a 09 bd
       -0.058803033 0.0638669 0.052748643 -0.033548776
000190 f4 51 f9 3d 47 6f d0 bb 39 98 88 3d 76 8e d8 3c
       0.121738344 -0.0063609215 0.06669659 0.026435118
0001a0 eb c1 c7 bd 16 67 6c 3d 05 f9 c4 bc c5 25 c2 3d
       -0.09753784 0.057715498 -0.024044523 0.0947986
0001b0 b8 70 1b be 50 f5 04 3d 7f 91 07 bb be 2a 35 bc
       -0.15179718 0.03246051 -0.0020686088 -0.011057554
0001c0 e7 3d 12 be 09 8b 86 3d e8 52 96 bd 09 84 1e be
       -0.14281426 0.065694876 -0.07340032 -0.15480055
0001d0 88 f7 9e 3c ce 2f bb bd ea 15 91 bd ed d8 1f 3d
       0.019405141 -0.091399774 -0.07084258 0.039025236
0001e0 16 c1 5a 3c fd 45 2f 3e 7a c5 1d 3e b9 dd da 3d
       0.013351699 0.17116542 0.15407363 0.106868215
0001f0 ac 7e b6 3c 71 3e f4 3d e9 04 11 3e 3c 83 5e bd
       0.022277199 0.11925972 0.1416203 -0.054324374
000200 71 f8 a7 bd 5a 9e f6 3c 9d 51 db 3d 26 16 54 3d
       -0.08201683 0.030104805 0.10708926 0.051778935
000210 c2 06 01 3e ac 05 5e bc 77 fc 5e bd 98 8d d6 3d
       0.12600234 -0.013551157 -0.054439988 0.104762256
000220 50 c7 75 bc 9b 9c dc bd e1 59 e7 3c dd 68 9b 3c
       -0.015001133 -0.107720576 0.0282411 0.018970901
000230 aa 1c 04 be f7 f7 37 bd c2 52 98 3d 21 97 9f bc
       -0.1290156 -0.044914212 0.0743766 -0.019481244
000240 9c f6 e6 bc 78 fe 52 3c 85 21 bd bd 2d 62 05 be
       -0.028193764 0.012878053 -0.09234909 -0.13025732
000250 44 ab 1b 3d 49 cf 05 be 2c 3e 5f 3b 56 32 fc b9
       0.03800513 -0.13067354 0.0034064157 -0.0004810269
000260 0f b9 0b 3e eb 93 2f 3e a1 f3 03 3e f3 dc d3 3d
       0.13644813 0.1714627 0.12885906 0.10344877
000270 26 06 f9 bd 08 42 94 3c 9a 1e 1d 3d dc d5 30 bc
       -0.12159376 0.018097892 0.038359262 -0.010793176
000280 30 ac e5 3c 26 8e 87 3c 6d 2c 8f 3d f3 24 9b bd
       0.028036207 0.016547274 0.069908954 -0.07575407
000290 cf c2 45 3d 20 80 0f be 6e 9d ae bd 8f 67 18 bd
       0.048281487 -0.1401372 -0.08526121 -0.037208136
0002a0 cb d3 f9 bd 88 0a d3 bd e1 f3 8c bd 53 4f 61 3b
       -0.121985994 -0.10304743 -0.06882454 0.0034379556
0002b0 19 1d e3 bc d4 19 91 3b e3 25 e7 bd ae 03 41 3d
       -0.027723836 0.004428128 -0.11286523 0.04712265
0002c0 ef 91 0c 3c 28 21 08 3e fb 77 9f 3d 46 32 a2 3d
       0.008579715 0.13293898 0.07786556 0.07919745
0002d0 0c ca 05 3d eb b5 58 3c 38 40 86 bd f9 17 2d bc
       0.03266339 0.013226966 -0.065552175 -0.010564798
0002e0 c0 5a 9d bc c0 5c b8 3b 5d 3f 0e bd 50 00 da 3d
       -0.019208312 0.005626291 -0.034728397 0.10644591
0002f0 4b 86 29 3c 41 51 ca 3d 2f d0 46 3d 6f a7 96 3d
       0.010346959 0.09878779 0.048538383 0.07356154
000300 db e9 23 3e 41 90 e7 bd 47 66 4e 3b 3b b0 b7 bc
       0.16007178 -0.11306811 0.0031494068 -0.0224229
000310 35 31 4a 3d 53 53 b2 3d 6e 29 fc 3d b9 02 50 3d
       0.049363334 0.08707299 0.123125896 0.050783847
000320 61 86 de bc 47 93 ac bd 40 1a 9a bd 3f a6 ee 3b
       -0.027163686 -0.084265284 -0.07524538 0.0072830017
000330 0c 12 c3 bd 58 ea 8a bd 2e 90 3a bd 14 ce ae 3d
       -0.095249265 -0.06782979 -0.045547657 0.085354
000340 a4 e0 4c bd 8a 8b 06 3b 78 00 b9 3d a7 2c 84 3d
       -0.05001892 0.002052995 0.090332925 0.06453829
000350 e1 1b 19 3e 23 be 7c bc b8 2c 19 bd f4 77 2e 3d
       0.14952041 -0.0154261915 -0.037396163 0.042594865
000360 db 01 94 3a 00 bf 7e bd 97 c3 3e 3d 68 6d fe bc
       0.0011292057 -0.06219387 0.046573248 -0.031058028
000370 a1 3e ff bc 48 45 62 bd c7 55 30 bd 1d 1f a8 bb
       -0.031157793 -0.055241853 -0.043050554 -0.005130662
000380 58 a0 88 36 d8 f5 a6 bc 29 ac 81 3b c0 29 3d bd
       4.0717823e-06 -0.0203809 0.0039572907 -0.046182394
000390 27 d9 dc 3c 3c 56 18 be ad 01 15 3b cd a1 a8 3d
       0.026959015 -0.14876646 0.0022736595 0.08233986
0003a0 b6 2c 69 bd a7 4f 1b bd 6c f6 7d ba f9 d6 a1 3d
       -0.056927405 -0.03791776 -0.0009687904 0.07902331
0003b0 92 45 87 bd 2d 69 57 3d 03 86 47 3d f1 2a d6 bd
       -0.06605066 0.052590538 0.048711788 -0.10457409
0003c0 15 01 5a bd 3b 3e 07 3e bc a5 9c bc b3 43 9a bd
       -0.05322369 0.13207333 -0.019121997 -0.07532444
0003d0 81 70 96 39 ae c8 fd 3c 58 ff 3e 3b 66 cf 3a 3d
       0.0002869405 0.03097948 0.0029143896 0.045607947
0003e0 ff 5d 77 bd 29 71 9a ba ee eb 49 bc 38 6c 27 bd
       -0.060392376 -0.0011782992 -0.012324316 -0.04087469
0003f0 ef e8 92 bc 11 ae 9b bc f1 8d c6 ba e6 d8 90 bd
       -0.017933337 -0.0190039 -0.0015148503 -0.0707262

linear.fc.weight f4 [398, 1]
000000 29 79 9c 3e 0e 71 82 be f9 a2 cc 3e 8a 3b e5 3e
       0.30561188 -0.2547688 0.39968088 0.44771987
000010 93 74 82 bf bf 2f 33 bf 43 4f 61 3e a4 14 c1 bf
       -1.0191826 -0.6999473 0.22002892 -1.5084424
000020 95 a3 c0 3e 7e 4d 75 bf 0d ec d9 3e e6 5c ac 3e
       0.37624803 -0.9582137 0.42562905 0.33664626
000030 52 4d 11 40 64 8a e0 3e 2c 4b 87 be 28 f4 7b bd
       2.2703443 0.43855584 -0.2642454 -0.061512142
000040 2a 46 9a bf 06 4b ed 3d 64 7d 9f 3f 24 59 c2 3e
       -1.2052662 0.11586575 1.2460141 0.37958634
000050 21 f4 9c bf 23 8d 77 bf 41 bc f2 3e 4f 53 92 3f
       -1.2262002 -0.9669973 0.4740925 1.1431674
000060 34 92 a3 3f 55 53 06 3e 2b 78 23 3f e8 e1 f8 be
       1.2778993 0.13117726 0.63855237 -0.48609853
000070 a0 22 ad 3f 78 10 01 bf 5e a1 7e be 1c f7 ab 36
       1.3526192 -0.50415754 -0.24866244 5.1249644e-06
000080 30 cd 0e 3e 04 0c 94 bf 03 79 63 be 56 c4 1b c0
       0.1394546 -1.1566167 -0.22214131 -2.4338584
000090 ea 2d a6 3f 47 bf f4 be b9 8a 08 3f dc db 53 bf
       1.2982762 -0.47802183 0.53336674 -0.82757354
0000a0 f9 aa 2f 3f d9 6b 51 40 15 ca 5c bf a5 cd 24 be
       0.6862026 3.2722075 -0.8624585 -0.16094072
0000b0 af ab 90 3d 88 50 45 be be 88 2a 3d 8a 53 c8 bf
       0.07063996 -0.19269001 0.041634314 -1.5650494
0000c0 73 d9 95 bf b3 53 0f 3f 1d 99 b6 bf 41 7e cd 3d
       -1.1706985 0.5598709 -1.4265476 0.10033847
0000d0 98 77 c8 bf ad 08 7e 3e 69 e6 97 3f 6e e6 fd be
       -1.5661497 0.24807997 1.1867191 -0.49589866
0000e0 5b f3 a7 bf 9f 24 69 3e c6 a1 b4 3f e0 46 29 3f
       -1.3121141 0.22767876 1.4111869 0.6612377
0000f0 55 71 dc be bc 64 65 39 f8 b5 40 bf 38 6f c5 3e
       -0.43055215 0.00021876668 -0.7527766 0.38561416
000100 0b 9e 53 b9 61 95 d4 be 77 01 19 c0 c2 bc 10 3f
       -0.00020181404 -0.41520217 -2.3907144 0.5653802
000110 fe b1 d8 3e c9 fc 18 3f e2 0f 07 bf 86 56 1f be
       0.42323297 0.5976072 -0.5275861 -0.1556035
000120 2f d3 e9 3f 04 63 04 40 d7 81 a3 3e 1e ee 0b bc
       1.8267573 2.0685434 0.31934997 -0.008540658
000130 82 d7 c2 3e 3c c9 64 3f a7 0a a7 be c4 7f b5 be
       0.38055044 0.8936956 -0.32625315 -0.3544904
000140 6f 4e a7 3f b3 35 b3 3e ee 40 55 bf 15 83 3d c0
       1.3070811 0.35001907 -0.833022 -2.9611256
000150 67 f2 af 37 9b 7b 57 bf 6c 95 80 be 1c 1a 9f bf
       2.0974503e-05 -0.8417298 -0.25114 -1.2429843
000160 86 68 a8 3e c2 b2 47 3f a0 17 01 40 e1 97 14 3f
       0.32892245 0.7800714 2.017067 0.5804425
000170 53 b4 01 c0 d1 a1 c7 3b dc 29 33 bf a2 16 92 bc
       -2.026631 0.006092288 -0.6998575 -0.017833058
000180 8d 74 72 be 61 7c 57 bf d6 21 a8 3e 1d 1e 13 3f
       -0.23677273 -0.8417416 0.32838315 0.57467824
000190 bf b3 60 3f 5d 95 31 bf 2c 62 ae be 24 ff d6 3e
       0.8777427 -0.69368535 -0.34059274 0.41991532
0001a0 a3 f5 25 bf 1f a1 8e 3f c7 c3 b3 bd 57 8d 84 bf
       -0.64827937 1.114292 -0.08777576 -1.0355633
0001b0 32 bd 8d bd a4 73 88 bd 66 f0 22 3f df 09 d3 bf
       -0.06920852 -0.06662682 0.6364807 -1.6487387
0001c0 81 52 1a bf 19 1d 7f 3e da ee 13 3f d9 08 58 bf
       -0.6028214 0.24913444 0.57786334 -0.843885
0001d0 15 c5 b9 3d 66 e8 21 3f 56 db 13 3f be 86 97 bf
       0.090707935 0.63245237 0.57756555 -1.1837995
0001e0 84 21 15 40 a7 5d 5d bf bb df d8 be f5 18 48 bf
       2.3301706 -0.8647103 -0.42358193 -0.7816308
0001f0 cd 0f b8 3f fd 88 b5 bf ba 4b 00 3e d4 56 1e 3f
       1.4379822 -1.418243 0.12528887 0.6185124
000200 90 90 8c 38 2d fe 80 bf ea 4b cf be 0f 94 45 3f
       6.702647e-05 -1.0077568 -0.40487605 0.77179044
000210 11 f0 18 3f 7e 74 2a c0 f8 c6 20 be c4 b9 a0 be
       0.5974131 -2.66336 -0.157009 -0.31391728
000220 18 fc ce bf 4e 54 38 bf f2 58 82 bf 08 ff 59 bf
       -1.6170683 -0.7200364 -1.0183394 -0.8515477
000230 20 24 b4 be 2d 0e cb be 64 06 b5 bf 20 c7 33 3f
       -0.3518381 -0.39659253 -1.4142575 0.70225716
000240 f1 8f a6 bf f2 1b 56 3f 46 19 26 3e 74 65 2c 3f
       -1.3012677 0.8363639 0.16220579 0.67342305
000250 4a 52 ca bf 54 9f 12 3f 0f 8a 3f 3d 5f 28 0a 3f
       -1.5806363 0.57274365 0.046762522 0.5396785
000260 ae 89 f9 3e 1c a6 cb 3d 45 d3 68 3f 0b db ec bf
       0.48737854 0.09943792 0.9094737 -1.8504347
000270 0e 97 1b bd 5c a6 a8 be 4d 37 18 bf 0e 29 5f be
       -0.037985854 -0.32939422 -0.5945938 -0.21793005
000280 de e0 a9 3e d4 ec e7 3e 5d 62 13 3f 8c 0e 18 bf
       0.33179373 0.45297873 0.57571965 -0.59397197
000290 12 b2 50 bf b1 6f 41 bf b5 6b c4 be 34 1f d6 3f
       -0.81521714 -0.7556105 -0.38363424 1.6728272
0002a0 4e 17 c2 3e c1 26 98 be 83 be 4b bf d0 8c 8b bf
       0.37908405 -0.29717067 -0.7958757 -1.0902348
0002b0 1f c5 b4 3f 61 99 6a bf 62 9f 05 3f 29 34 9b 3f
       1.4122657 -0.9164029 0.52196324 1.2125293
0002c0 23 4f b7 3d 41 74 cc 3e ab 45 36 bf f7 02 14 bf
       0.08950641 0.39932445 -0.71200055 -0.57817024
0002d0 11 96 57 3f f3 a8 2e 3e d1 53 e1 3d 69 72 81 be
       0.8421336 0.17056637 0.11002315 -0.252826
0002e0 2b 10 38 3f 73 32 73 3e fa b2 80 3c 01 5e f3 3e
       0.7189967 0.23749714 0.015710343 0.47532657
0002f0 6c 7c 37 be c4 4c b2 3e 4e fe c6 3e 2f 2d c7 be
       -0.17918557 0.34824193 0.38865894 -0.3890166
000300 0b 8f 82 bf 3a 8e 62 3d 3c e1 c2 37 a0 2e 96 bf
       -1.0199903 0.05531142 2.3231485e-05 -1.1732979
000310 6e 10 1b 3f 98 e4 66 bf 1f d9 54 be 9a 9e 18 b8
       0.60571945 -0.90192556 -0.2078595 -3.6387333e-05
000320 ba 90 99 3e 25 21 37 3f 2e 31 a7 3f d5 7e 09 bd
       0.2999323 0.7153495 1.3061883 -0.033568222
000330 91 9d ec bf 78 aa 23 3e a7 f7 0d 3f 1f 68 94 3f
       -1.8485585 0.15982997 0.5545601 1.1594275
000340 e6 b0 7f 3f d0 6a 76 be bd db a1 3d c9 2f f1 3e
       0.998793 -0.24064183 0.0790324 0.4710677
000350 7b 99 e2 bf 42 63 a9 be 9d 26 28 b9 fd 89 1c 3f
       -1.7703089 -0.3308354 -0.00016036113 0.61148053
000360 38 48 3d bf a2 28 68 3f 3a 4c 6d 3f a4 52 3f 3c
       -0.7393832 0.90687 0.9269444 0.011677418
000370 ed cd 86 3f 74 78 84 3f 63 17 d8 3e 8c f6 e0 be
       1.0531594 1.0349259 0.42205343 -0.439381
000380 c9 c3 af bf 7c 3f 9e be 56 0f 36 3f 30 47 e4 3e
       -1.3731624 -0.3090781 0.7111715 0.44585562
000390 96 25 72 3f 17 75 c0 3e dc 40 6d 3f 7b 73 17 bf
       0.945886 0.37589332 0.9267709 -0.59160584
0003a0 5b 81 98 3f 98 59 ca bf 8f 47 ca 3e 5d ba 99 3f
       1.1914476 -1.5808592 0.3950772 1.2009999
0003b0 15 8d 7f 3f 18 af 9c be 02 dc 2a bf 75 0f 8a 3e
       0.9982465 -0.30602336 -0.66741955 0.26964918
0003c0 ac 34 0b bf 28 86 b5 3f b3 0f cc 3f 65 69 b7 bf
       -0.54377246 1.4181566 1.5942291 -1.4329039
0003d0 40 1c a2 bf c0 47 03 bf aa 5f ee 3e 35 61 b3 3d
       -1.2664871 -0.51281357 0.4655736 0.08758775
0003e0 01 be 61 be b5 fd 32 bf 71 85 11 bf 91 dc 44 3f
       -0.22045137 -0.69918376 -0.5684424 0.7689906
0003f0 b0 57 6b bf ec 17 45 ba ea 80 24 3f 87 e5 0b 3e
       -0.91930676 -0.0007518518 0.6425921 0.13661776

mlp.mlp.0.weight f4 [16, 80]
000000 81 a3 81 3d 7a 54 0e 3d 55 18 ca 3d 14 c4 df 3c
       0.06330014 0.034748532 0.09867922 0.027315177
000010 97 0d cf 3d e2 be e3 3d 8e a8 88 3c 37 24 29 bd
       0.10110014 0.111203924 0.016681936 -0.041294303
000020 8a ca 97 bd 10 03 93 3b 12 49 f6 3c 7a 3e 4b bd
       -0.07411678 0.004486449 0.03006414 -0.04962013
000030 dc 02 93 bd ad 12 d1 ba 9a 68 35 bd 61 9a 09 bd
       -0.0717828 -0.0015951 -0.04428921 -0.033594493
000040 66 ad 51 3d 28 92 2e 3d ec 46 fc bd c2 ed 48 3d
       0.051190756 0.042619854 -0.12318215 0.04905487
000050 ac 00 a9 bc 4a f1 46 3d cb be b4 bd 51 fd 16 3c
       -0.020630203 0.048569955 -0.08825453 0.009215669
000060 c7 7d 76 3d db db 8d 3d 91 86 2c 3b 04 dd 72 bd
       0.060178544 0.069267 0.0026325325 -0.05929281
000070 8c e2 2f bd 5e 91 0e bd 2a 4b 11 3e 3b a6 00 be
       -0.04294066 -0.0348066 0.14188829 -0.12563412
000080 87 fb 4d 3d 50 13 ae 3d d9 7a 03 3e 23 b4 03 3e
       0.050288703 0.08499777 0.12839831 0.12861685
000090 f9 11 24 bb 57 88 52 bd a4 75 03 3e f7 37 6b bd
       -0.0025035127 -0.051399555 0.12837845 -0.05742642
0000a0 ce 34 ba 3c a0 20 9c bd 18 ef 78 3d 51 8c f6 bd
       0.022730257 -0.0762341 0.060774893 -0.12038482
0000b0 c9 63 87 bd 41 d9 74 bd f3 37 06 be 1e 6b b7 3d
       -0.066108294 -0.059777502 -0.1310728 0.08955978
0000c0 fb 91 f1 3d 86 99 9d 3d 4e f9 8c 3d 10 59 a0 3c
       0.11795422 0.07695298 0.068834886 0.019573718
0000d0 c1 87 1d 3e 5b 1f 8d 3d 1c de 4f bd fd 5e a2 3a
       0.15383817 0.06890746 -0.05074893 0.0012387928
0000e0 01 0d 9e bc 13 1d 6f 3c c3 8e 65 bd 0a 63 2a bc
       -0.01929331 0.014594334 -0.05604435 -0.010399589
0000f0 93 ff d5 3d 11 a9 2d 3d 83 a7 9f bb f9 cc ec 3c
       0.104491375 0.042397562 -0.004872264 0.028906332
000100 0a 01 e3 bd 4f f4 03 3e 34 2d 7c 3d 7a 6f 24 3d
       -0.110841826 0.12886165 0.061566547 0.040145375
000110 60 ed 0e 3d 7b 58 5d 3d 9b 2f ac bc de 12 8b bc
       0.034894347 0.05403946 -0.021018794 -0.01697677
000120 5e 12 b6 3d cd 93 2f ba 9b 90 63 3c ef c8 c9 bc
       0.08890222 -0.0006697744 0.013889457 -0.024631945
000130 37 84 37 3d a7 07 bd bc 06 b1 b9 3b 9f ef 8b 3d
       0.044803824 -0.023074938 0.005666855 0.068328135
000140 6c f7 f6 bb 3b b4 b4 3c 3f 95 92 bd 0c 4a ff 3c
       -0.007536819 0.022058597 -0.07157373 0.031163238
000150 d1 f0 26 bc d1 a5 60 3d ca fb a2 3d a3 55 88 3a
       -0.010189251 0.054845635 0.07958181 0.0010401498
000160 f3 15 07 3d 2b f9 a4 bb a6 3a d9 3d 8a d3 f1 3d
       0.032979917 -0.005034586 0.106068894 0.11807926
000170 56 95 bb bb 6f b9 98 3c ff 31 14 bc a7 8d 67 3d
       -0.0057245893 0.01864311 -0.009045123 0.056531575
000180 da 57 ff bd a1 4e cc bd d1 bb e5 3c e7 89 8b 3d
       -0.12467928 -0.09975935 0.02804366 0.06813412
000190 91 8d a1 bd 2c 29 f8 3d 70 f2 f8 bc 1f bd 66 bd
       -0.0788833 0.12117228 -0.03038904 -0.056332704
0001a0 00 f4 a9 bc a9 b7 3f b8 b0 a2 0a 3e a3 47 3b bc
       -0.020746231 -4.5708995e-05 0.13538623 -0.011430654
0001b0 1a 08 46 bd 61 64 9b 3b eb 2b 46 3d 2b 25 47 bd
       -0.04834757 0.0047421907 0.048381727 -0.04861943
0001c0 d1 b0 dd 3d 12 1c c9 bc 3e a5 b2 3c 32 37 92 3d
       0.10824741 -0.024549518 0.02180731 0.07139434
0001d0 e3 b6 66 3a fe 8f d2 3d a6 76 8d 3d 90 d5 4f bd
       0.0008801056 0.102813706 0.06907396 -0.05074078
0001e0 e8 c4 9b bd f6 29 83 bc f4 ed 72 3b 99 b1 cd bc
       -0.07605916 -0.01601122 0.00370681 -0.0251091
0001f0 3a b6 72 3d e3 21 cf bd 00 2c 9d bd fa 1b f2 3d
       0.059255816 -0.10113885 -0.07674408 0.11821742
000200 18 9f eb bc 96 d5 ce bc 7b 1a c9 bd 83 be 4f 3d
       -0.028762385 -0.02524833 -0.09819504 0.050718796
000210 44 2a ed 3c fc ce 9f 3d c8 26 ae 3c 6e 00 2d bd
       0.028950818 0.07803151 0.021258727 -0.042236738
000220 40 5c ef 3d 5f a2 7c 3d 33 cb 90 bc 28 08 95 bb
       0.11687517 0.061678287 -0.017675018 -0.0045480914
000230 94 4f fd 3d 06 d2 c6 3d aa a0 28 bd 65 40 ca 3c
       0.12368694 0.097080275 -0.041168846 0.024688909
000240 f9 04 d7 bd 2b b5 aa 3d 65 60 ac 3d 26 9f aa bd
       -0.10498995 0.08335336 0.08416823 -0.083311364
000250 83 de 56 bd 60 d7 44 bc f0 f9 bb 3c d7 9f d8 bd
       -0.052458297 -0.01201424 0.022946328 -0.10577362
000260 e6 51 05 bd ea 83 3e 3c 4c a9 65 3c 42 19 cb bd
       -0.032548808 0.01162813 0.014017414 -0.09916927
000270 3b 6e bc 3c b2 be 4e 3d 70 01 9e 3c 0b 81 b0 bd
       0.02300178 0.05047483 0.019287795 -0.08618363
000280 ca 3e 4b 3d 7d 79 94 3d 61 9a 83 3d 76 3d a2 3c
       0.049620427 0.072497346 0.0642593 0.019804697
000290 f6 15 92 3d f0 0c 97 3d 64 cc c9 bc 54 99 c1 bd
       0.07133095 0.073755145 -0.024633594 -0.09453073
0002a0 83 4a b5 bd d6 85 8b bd cd 17 44 bc 7c 61 b4 3d
       -0.088521026 -0.068126366 -0.011968565 0.08807656
0002b0 33 88 ed bd b1 7a 1a 3d 48 90 67 bd 81 81 99 bd
       -0.115982436 0.037714664 -0.05653408 -0.07495404
0002c0 ee 15 8c 3d 64 c0 a0 3d 02 d1 c5 3d 2d 55 be bd
       0.0684012 0.078491956 0.09659006 -0.0929359
0002d0 8f 4c c1 3d b0 e7 8f bd 2d 20 98 3c c8 f9 aa bd
       0.094384305 -0.07026613 0.01857003 -0.08348423
0002e0 26 89 90 3d bd 0d 40 3d 5c 0b 88 bc 32 47 6c 3d
       0.07057409 0.0468881 -0.01660698 0.057685085
0002f0 5c 0a ef 3a 78 95 84 3d ac dd a8 3d fa b2 3f 3d
       0.001823734 0.064738214 0.082454056 0.046801545
000300 ce 3d 08 be c6 ff b0 3d ab bf c0 bd e8 6f 88 3d
       -0.13304827 0.08642535 -0.09411558 0.066619694
000310 40 35 05 be 83 78 26 3d 43 0c 38 3d 47 49 94 3d
       -0.13008595 0.040642273 0.04493357 0.07240539
000320 bc 63 93 bd 1b 9b ce 3d 0f 52 c0 3d 3b 7a 47 bc
       -0.07196757 0.10088178 0.093906514 -0.012175138
000330 d3 21 5b bd 27 81 bd bd ff 25 14 3e d8 97 d8 bd
       -0.053499054 -0.092531495 0.1446762 -0.10575837
000340 20 5e 8e 3b a5 9c 57 bd c2 ff 78 bd f2 c2 32 bd
       0.0043447167 -0.052639622 -0.060790785 -0.043642946
000350 8d c4 1b bd a4 1c b5 bb 6d 75 18 3d 68 26 63 3c
       -0.038029242 -0.005527096 0.03722136 0.013864137
000360 97 a7 2b 3d 0a 05 ac bb e3 ee c9 3d 89 29 e2 bd
       0.041907873 -0.005249624 0.09860017 -0.110430785
000370 b8 e4 cb bd 7f b5 c2 bd de 0a b6 bb a8 d6 05 3e
       -0.09955734 -0.09507274 -0.0055554947 0.13070166
000380 c2 8b c2 3d 54 2e b6 bd ab a2 d9 bc 64 4a 36 bd
       0.09499313 -0.08895555 -0.026566824 -0.04450454
000390 d5 c4 43 3c aa 6e 81 bd e5 0c 4b 3c 71 57 2b bd
       0.011948784 -0.063199356 0.012393211 -0.041831437
0003a0 09 18 df bd ce e1 78 3d 40 27 ad 3b 4b 6f b2 3d
       -0.10893256 0.06076222 0.00528422 0.08712634
0003b0 9c 66 f9 bd 7c 61 b1 3b f9 e4 b4 bd 8e 1c 0b 3d
       -0.12177774 0.0054132324 -0.088327356 0.03396278
0003c0 7c cc 85 bd 75 85 b5 3c b4 4c ab bd a8 95 82 3d
       -0.06533143 0.022158364 -0.08364239 0.06376201
0003d0 db bd 0d bc e9 9d b8 3d 39 ec 24 bd 43 78 9c bd
       -0.008651222 0.09014494 -0.040264342 -0.076401256
0003e0 0f d5 c8 bd 7c b5 7b 3d 8e 80 be bc c9 ff 5b bd
       -0.09806263 0.061452374 -0.023254659 -0.053710733
0003f0 fe e4 45 3c d6 d8 4a 3d e8 e2 36 bd 73 22 a7 3c
       0.012078522 0.049523197 -0.04464999 0.020402169

mlp.mlp.0.bias f4 [16]
000000 d9 bc 7a b9 ef 2a 38 bb 48 60 16 b7 c0 f3 79 39
       -0.00023912209 -0.0028101762 -8.963114e-06 0.00023837294
000010 66 c3 b1 38 71 d9 09 bd ad ce 19 b9 3d ee d8 3a
       8.4764135e-05 -0.033654634 -0.0001466821 0.0016550493
000020 6b 8a 0f 3d 84 cd 05 3d fc e8 ce bc 47 d9 f9 39
       0.035044115 0.032666698 -0.02525758 0.00047654865
000030 ec dc 17 3d 71 f1 bf b9 a1 d9 1f ba 61 e5 a4 3c
       0.037075922 -0.00036610247 -0.0006097798 0.020128908

mlp.mlp.1.weight f4 [16]
000000 52 9e 75 3f 95 73 86 3f b1 b9 67 3f bd ac 8b 3f
       0.959447 1.0504023 0.9051772 1.091209
000010 d5 ee 7e 3f 2c 40 74 3f 01 8f 83 3f 20 87 6e 3f
       0.9958318 0.9541042 1.0278016 0.93174934
000020 a3 4b 75 3f 57 e6 7c 3f 8b 03 7d 3f 6b 32 85 3f
       0.9581854 0.9878897 0.9883353 1.0406011
000030 4a 7f 8b 3f 8c 9c 74 3f 43 4a 72 3f 29 11 70 3f
       1.089822 0.9555137 0.94644564 0.93776184

mlp.mlp.1.bias f4 [16]
000000 7a f0 2e bc 4f cc 2f 3d f4 6b 82 bd 17 a7 b1 3d
       -0.010677451 0.042919453 -0.06368247 0.08674448
000010 f4 bc 3a 3d 06 99 e8 bc 24 94 52 3d 1a 05 37 bd
       0.045590356 -0.02839328 0.05141081 -0.0446826
000020 66 26 0c bc c0 f2 04 3b 6e bb 00 bd a9 30 95 3d
       -0.008554077 0.0020286292 -0.031428747 0.07284672
000030 b2 9f a8 3d 51 6a a7 bc db b0 21 bd 33 af 25 bc
       0.082335845 -0.020436438 -0.039475303 -0.0101125715

mlp.mlp.1.running_mean f4 [16]
000000 ce ff e1 bc 71 d8 bb ba b4 19 07 3d ac d0 00 bb
       -0.027587797 -0.0014331472 0.032983497 -0.0019655628
000010 85 1b b4 bb 67 dc 3a bb b8 42 b1 3c ec 08 42 3c
       -0.0054964446 -0.0028512718 0.02163826 0.011842947
000020 2c ec 58 3d 9d 34 11 3c 19 b5 e1 bc 93 12 02 3d
       0.052959606 0.008862642 -0.027552174 0.031755995
000030 db b5 9c 3d e3 69 60 bd df 8e ee bc 65 39 da bc
       0.07651874 -0.05478848 -0.02912086 -0.026638696

mlp.mlp.1.running_var f4 [16]
000000 d5 48 72 3b 67 26 63 3b 52 76 0a 3b d8 d0 29 3b
       0.003696968 0.003466034 0.0021127653 0.0025911834
000010 bd 85 3a 3b 6a ca 1b 3b a0 23 97 3a 5c 31 f8 3a
       0.0028461062 0.0023771771 0.0011531003 0.0018935609
000020 0a 3f 10 3b f8 fd 37 3b 1a 3d 14 3b 26 39 1c 3b
       0.002201023 0.002807496 0.0022619427 0.0023837774
000030 7c 01 22 3b f3 f5 e4 3a 7b af 19 3b 7a a7 5e 3b
       0.0024720123 0.0017468318 0.0023450542 0.0033974336

mlp.mlp.4.weight f4 [16, 16]
000000 8b f0 7e be 9f da 51 bd 3e be b3 3d 41 da 02 bd
       -0.24896447 -0.051233884 0.0877652 -0.031946424
000010 33 15 55 3e 58 19 a6 3d 90 69 6d be f5 dd 63 3e
       0.20808868 0.08110303 -0.231848 0.22252639
000020 15 8d 3e 3e 44 0e 6c 3d bb bd c2 bd f2 20 a4 3c
       0.18608506 0.057630792 -0.095088445 0.02003524
000030 bb 08 6f be 56 90 15 3e b6 9b 56 bd 1f f5 e5 bd
       -0.23343174 0.14605841 -0.05239459 -0.11228394
000040 56 7f 19 be 56 86 59 3c 5b eb 6a 3e 4e 9c 43 bd
       -0.14989981 0.013276657 0.22941343 -0.047756486
000050 a9 16 5f 3e 54 80 23 3e 87 02 74 be f2 67 a0 3d
       0.21785988 0.15966922 -0.23829089 0.07832326
000060 89 ec 32 3e f8 9c f9 3d 59 ab eb bd ce 70 38 be
       0.17473044 0.121881425 -0.11507291 -0.18011782
000070 59 90 b6 3d d0 58 d4 3d 54 8c 1d be 45 73 18 3e
       0.08914251 0.10368502 -0.15385562 0.14887722
000080 96 1d 5b 3e db fc 83 3e cf 60 d8 3d 37 9b f5 bd
       0.21398005 0.2577885 0.1056534 -0.119924955
000090 37 b1 48 be 99 d2 0a 3d 07 9c 37 3d c5 ac e5 bd
       -0.19598852 0.033892248 0.044826534 -0.11214594
0000a0 d5 82 b2 bd 90 82 21 be 60 0f ee 3d 18 d0 e1 bd
       -0.087163605 -0.15772462 0.11624026 -0.11026019
0000b0 4a f6 8e 3e c1 67 d7 3d 6d f8 80 bd 82 08 17 3e
       0.2792228 0.10517836 -0.062973835 0.14749339
0000c0 bb e9 2b bc f8 92 57 3d 70 ee 0d 3e ae eb a5 3e
       -0.010492737 0.052630395 0.13860488 0.32406372
0000d0 e4 11 10 3e 75 3a 08 be 0d 99 31 3e 09 f8 9d 3d
       0.14069325 -0.1330355 0.1734354 0.077133246
0000e0 2d 2f 48 bd 10 c6 1f 3e 2d ca 0d be c9 c7 80 3e
       -0.048873115 0.15602899 -0.13846655 0.25152424
0000f0 4a ff 05 3e ae 29 72 3d 79 00 17 bd db 20 96 be
       0.13085666 0.05912178 -0.036865685 -0.29321942
000100 7e e7 61 bd cf b0 1c bd bb ff 23 be 5e 5a 83 bd
       -0.05515241 -0.038254555 -0.16015522 -0.064137205
000110 e8 81 ce bc ee 6f 7b 3e 3b 2d 43 be a8 24 8e 3e
       -0.025208429 0.24554417 -0.19060223 0.27762341
000120 ef 4d 77 bc f5 b6 80 3d 68 87 06 be 34 38 cc bd
       -0.015094264 0.06284896 -0.13137591 -0.099716574
000130 24 db 8b bd 0b 78 02 3e 0f 6c c2 3d 4b 58 54 3e
       -0.06828907 0.12741105 0.09493267 0.20736806
000140 6d 78 db bd c9 06 91 be 6d d6 9b 3e de 5f ab 3c
       -0.10716329 -0.2832549 0.3043703 0.020919736
000150 a9 7f 0f be 46 26 82 3e 92 77 da 39 35 ee d9 3d
       -0.14013542 0.25419825 0.00041669287 0.106411375
000160 5a 3f 8e 3e 45 b6 32 3d 3c 57 5f be 45 e6 ac bd
       0.27782708 0.043630857 -0.21810621 -0.08442358
000170 1d 4b ae 3d 6b 36 94 3d ee 1d ec 3d 61 15 8c 3c
       0.085104205 0.07236942 0.11529146 0.017100038
000180 44 65 39 be 35 e2 76 be 2a ae 0a 3d 36 d0 97 bc
       -0.18105036 -0.24109729 0.033857502 -0.0185319
000190 c0 cf 58 3d 58 e7 87 bd 9d 26 c8 bd 00 60 be 3d
       0.0529325 -0.06635922 -0.0977299 0.09295654
0001a0 73 95 18 3d 06 a3 24 3e d3 27 54 be 1b 0a e6 bc
       0.0372519 0.16077814 -0.20718317 -0.02808099
0001b0 cf 90 51 bc 36 8a 5d bd 4a 79 87 bd a0 75 17 3e
       -0.012790873 -0.054086886 -0.06614931 0.14790964
0001c0 df e4 15 3e 02 a2 f4 bd 69 f4 78 3e 6d b9 1c be
       0.14638089 -0.11944963 0.24311985 -0.1530511
0001d0 48 2a 9e 3c f1 26 2b 3e aa 66 3a bd 9f 38 e1 bd
       0.01930727 0.16714074 -0.045508064 -0.10997128
0001e0 c0 aa 5e bd 61 19 88 3d 9d bb 85 be aa 2d 60 be
       -0.05436206 0.06645466 -0.261197 -0.2189242
0001f0 b7 aa 90 be 28 42 10 3e ca f2 65 be 7e a2 25 be
       -0.28255245 0.14087737 -0.22455898 -0.16175267
000200 00 06 81 3d 88 66 50 be a6 76 6a 3e 7e ce 6b 3a
       0.062999725 -0.20351613 0.22896823 0.00089953083
000210 a7 d6 90 bd 2d e5 6f bc dc ef 3f bc c3 ce 15 bd
       -0.07072192 -0.014642042 -0.011714902 -0.036574136
000220 44 78 a9 bd a4 b7 1c be 8c 2c 03 be 88 69 16 bd
       -0.08274892 -0.15304428 -0.12809962 -0.036721736
000230 53 cd 8d be 59 77 0c 3e f0 9e 05 3d 40 30 81 3e
       -0.27695712 0.13717403 0.032622278 0.25232124
000240 c7 fd 80 3e 34 d4 97 bc d1 83 51 be f0 ab 71 3e
       0.25193617 -0.018533804 -0.2046044 0.23600745
000250 7f dd c5 bc 8c a8 67 be d1 1b e5 3d 72 8a 51 bb
       -0.02415347 -0.2262289 0.11186946 -0.003197339
000260 65 44 45 bd ca 60 39 be 89 11 d2 3d e6 ba c6 bc
       -0.04816093 -0.18103328 0.10257251 -0.024259042
000270 fc fb 45 bd 49 64 6a bc 75 71 1c 3d 6a 7e 30 3e
       -0.048336014 -0.014306136 0.03819414 0.17235723
000280 b9 de 94 bd 84 64 f8 3d 1c be b1 bd 48 3f 9a bd
       -0.072690435 0.12128547 -0.086788386 -0.07531601
000290 69 c4 40 3c 50 74 51 3a 19 c4 f7 bd 2c 41 d5 3d
       0.011765578 0.0007990049 -0.120979495 0.10412821
0002a0 89 6f 2d be cd 27 d9 bd 50 08 8a 3e e9 7a 54 3e
       -0.16937079 -0.106032945 0.26959467 0.20750012
0002b0 55 cc 78 3e 18 68 89 bd 96 23 7c 3e 96 57 d9 bd
       0.24296696 -0.067093074 0.2462295 -0.10612409
0002c0 2b ab 91 3d 4c 43 80 be c2 3f 5d 3e 71 71 4d be
       0.07112726 -0.25051343 0.21606353 -0.20062806
0002d0 0b 1f 28 3e 10 c8 d7 3b 73 23 2f be bc ec 11 3d
       0.16418092 0.0065851286 -0.17103367 0.035626158
0002e0 c1 52 d2 3c ec fc 1b 3e 90 cb 6c 3d b1 50 fd bd
       0.025674226 0.15233201 0.05781132 -0.12368906
0002f0 ff fd fd bd 3b db 1e be 71 bd 78 be cc 20 a7 bd
       -0.124019615 -0.15513317 -0.24291016 -0.081605524
000300 14 87 39 be dc 26 5f be a3 b8 56 3e 6d c2 8e 3c
       -0.18117934 -0.21792167 0.20968871 0.017426694
000310 ac fd 37 3e cc 79 8c bd 49 9e 53 be 78 0f 55 3d
       0.17967862 -0.068591684 -0.2066585 0.052016705
000320 a1 9b 82 be 87 b8 44 3e af 28 77 be 07 b9 45 be
       -0.2550936 0.19211017 -0.24136613 -0.19308864
000330 f2 90 ff 3d 59 e4 15 3e 45 ad 23 be 95 27 3c 3c
       0.12478818 0.14637889 -0.15984066 0.0114840465
000340 f3 84 95 bd 91 91 f2 3d cb 72 15 3d ad 7c 93 be
       -0.07300749 0.11844171 0.03648643 -0.28806058
000350 f3 b5 97 3e 89 4e 27 be 48 80 98 bd 34 37 b5 bd
       0.29631004 -0.16338553 -0.07446343 -0.0884842
000360 fc 25 80 bc 55 03 13 3e 66 65 15 3e f6 5f f7 bd
       -0.015643112 0.1435674 0.14589462 -0.1207885
000370 e4 a3 2a bd 54 91 1d 3e 71 54 85 be da 49 96 bd
       -0.041660205 0.1538747 -0.26040986 -0.07338305
000380 70 42 21 be 72 16 1e 3e 31 3c fc bd 1a 3a 3c 3e
       -0.15748 0.1543825 -0.12316168 0.18381539
000390 d3 38 1a bd 29 db b7 bc cd d2 86 3d 5c 24 17 3d
       -0.037651848 -0.02244337 0.06583176 0.03689991
0003a0 25 1c 23 be 79 fe f9 bb d3 a9 89 3e cc 89 11 3e
       -0.15928705 -0.0076292125 0.26887378 0.14212722
0003b0 1f 91 e5 bb 82 4e 3f be fd c2 59 3e 76 6f 8d bd
       -0.007005825 -0.18682292 0.21265788 -0.06906025
0003c0 ad 62 c4 3d 4e 29 c8 3d cc 7f 09 bd 72 34 04 bd
       0.095891334 0.09773503 -0.033569142 -0.03227658
0003d0 d0 4e d9 bd 09 1a af bd e5 b9 5a 3d e9 45 b6 bc
       -0.106107354 -0.08549888 0.05339994 -0.022250133
0003e0 ef c4 62 bd c4 22 fc bd 3b 5b 83 3e b2 bf 4b 3e
       -0.05536359 -0.123113185 0.2565554 0.19897345
0003f0 e0 25 72 3d 79 a3 74 3d a3 32 ed 3c 26 66 93 bc
       0.05911815 0.059726212 0.02895481 -0.017993044

mlp.mlp.4.bias f4 [16]
000000 03 a7 1a 3d bd 3d d1 bd 47 ff a3 bd 0c d1 24 bd
       0.03775693 -0.10216854 -0.08007675 -0.040238425
000010 1a 26 ed bc 52 37 bb 3c b8 d2 b9 bd 6b 37 cf bc
       -0.028948832 0.022853527 -0.090733945 -0.02529498
000020 88 57 60 bd b6 28 d5 3d 6a 88 ad bd 81 ba 7f 39
       -0.054770976 0.104081556 -0.084732845 0.00024388173
000030 74 6e 3e bd af 5b 15 3d 00 96 18 3d 6c 7a 31 3c
       -0.046492055 0.03646439 0.037252426 0.01083241

mlp.mlp.5.weight f4 [16]
000000 c4 41 89 3f 52 d3 8a 3f 57 10 7b 3f f7 1f 74 3f
       1.0723195 1.084574 0.9807181 0.95361274
000010 6f 5a 89 3f 1c ea 8b 3f bc 0c 8a 3f 43 0e 8c 3f
       1.0730723 1.093082 1.0785136 1.0941852
000020 ae 91 8a 3f 08 f1 78 3f 88 80 81 3f 99 75 8a 3f
       1.0825708 0.97242785 1.011735 1.0817138
000030 25 d9 8a 3f 38 ae 89 3f e0 7c 80 3f a7 36 80 3f
       1.0847517 1.0756292 1.0038109 1.0016679

mlp.mlp.5.bias f4 [16]
000000 d9 41 9f 3d ac 31 ba 3d 3d f5 32 bd db f4 54 bd
       0.07776231 0.090915054 -0.04369091 -0.051991325
000010 2a cb 9c 3d 36 26 c6 3d 02 2a a6 3d 42 61 c8 3d
       0.07655938 0.09675257 0.08113481 0.097841755
000020 3d ed ae 3d e2 8d 0c bd 03 32 be bc ae 35 ad 3d
       0.08541343 -0.034314997 -0.023217207 0.08457504
000030 a4 de b6 3d 6e b0 a4 3d b2 6b da bc ad 03 ef bc
       0.08929184 0.08041464 -0.026662681 -0.029176557

mlp.mlp.5.running_mean f4 [16]
000000 69 aa da 3c 33 35 ad 3d 47 6f a8 3d cd 0e b4 3e
       0.026692586 0.084574126 0.082243495 0.35167542
000010 05 80 cd 3c 9a 14 40 3e f9 7b 88 be dd 9c ca be
       0.025085459 0.18757859 -0.26657084 -0.39572802
000020 3f 94 5f be eb c7 22 3e a9 47 5b 3d 88 d0 8d be
       -0.21833895 0.15896575 0.053535137 -0.2769816
000030 fb 05 89 be ed 3b 9f bd 8e 54 25 3e c3 ac 16 3e
       -0.26762375 -0.07775102 0.16145536 0.14714341

mlp.mlp.5.running_var f4 [16]
000000 6d 9f 28 3f f5 66 43 3f 8e 74 4e 3e 2d 06 78 3e
       0.65868264 0.76328975 0.2016165 0.24221106
000010 4e d7 bb 3e 70 e3 b8 3e 3a 8e b9 3e de 5d 18 3f
       0.36687702 0.3611102 0.36241323 0.5951823
000020 72 a8 5b 3e 07 4f 9e 3e 39 43 bc 3e 91 1f 02 3f
       0.21450976 0.30919668 0.36770037 0.50829417
000030 3b fa 1f 3f 02 79 85 3e 03 d9 ea 3e 65 fa 9d 3e
       0.62491196 0.26068884 0.45868692 0.30855098

mlp.mlp.8.weight f4 [1, 16]
000000 68 68 9e 3e b2 3e 97 3d 99 3f 15 be 22 97 09 be
       0.3093903 0.07385005 -0.14575042 -0.13436559
000010 b0 ab 9d 3e 27 eb ba 3d 73 cb 84 3e 70 fc 9f 3d
       0.3079505 0.09126883 0.2593647 0.078118205
000020 60 f4 42 3e c4 ef da bc 6a e5 e7 bd 38 b2 4f 3e
       0.19038534 -0.026725657 -0.11323054 0.20282829
000030 4f 59 06 3e 00 35 73 3e 9a d9 38 be c1 e8 fb bd
       0.13120006 0.23750687 -0.18051758 -0.12300254
