model/dfm_epoch_70.pt (torch, 79687 bytes, 15 tensors)

embedding.embedding.weight f4 [98, 32]
00000000: fa79 573e c925 84be cf8f 9c3d d39e d4bd
00000010: 42cc 823e 139f 87be 5ff0 2cbe bee2 d83d
00000020: 5da0 2dbe a9aa 92be f303 99be 1178 8f3e
00000030: 9efe 843e f801 893e 2785 f8bd f329 66bd
00000040: 19bd 5dbe 21c0 833e ee5a ee3d 3129 943e
00000050: f9f4 803e 0378 3ebe 92b2 963e 2586 70be
00000060: 4141 93be 0654 913e 85fa abbe 725e 4bbe
00000070: f6cc 9c3e 3a71 e73d 3031 d13d c1c6 8d3e
00000080: fe65 013e 933b 8cbe 6bb9 e33d 571c 12be
00000090: 515e 893e 2f0a 74be 2f78 acbe 7074 cb3d
000000a0: efc1 63be 6d0b 77be 11a7 28be 27f0 8a3e
000000b0: 9c5c 953e 73f4 693e 9122 f6bd 4f07 2dbd
000000c0: c112 79be 370d 923e c514 2b3e 9b27 a93e
000000d0: b513 833e 3489 89be 5a58 773e d8ef 7dbe
000000e0: 331d a4be 80db 5a3e bb00 d0be 4828 33be
000000f0: 6d6f 713e 031a 313e 4690 863e 5643 813e
00000100: a315 ad3e f8b3 5abe f1e7 dd3d 6b6e c9bc
00000110: 1b0e ba3d 7498 9cbe 32fc afbe 99a2 073e
00000120: 33ad 7dbe 4d50 abbe 207b b5be a841 9a3e
00000130: cb45 543e f801 9d3e 2549 2dbe 49d1 14be
00000140: f0d8 91be 365d 913e 08b9 603c 0617 9e3e
00000150: 9a94 9a3e e05a a1be 114f b33e 1663 a5be
00000160: 14af 5abe ce3e bd3e d77d afbe 52d8 a6be
00000170: c7e9 7f3e bfa1 973e 755c 853e 5515 8b3e
00000180: 53f8 983d 6627 e0bd 8568 0b3d 8884 87bd
00000190: 00b4 b63d 8aa8 18be f520 ddbd d613 e53c
000001a0: 8b29 a3bd f50a c9bd 967a d3bd 3539 fd3d
000001b0: 6063 bd3d 08b8 e03d 70cc dcbd c016 10bd
000001c0: fed8 c7bd 4efc e13d 5460 983d 027f ca3d
000001d0: d5ec c23d 578d d8bd dfeb e73d dbe4 93bd
000001e0: ec50 18be 952c ee3d 67e4 19be bf99 d4bd
000001f0: 270c 1e3e 8992 af3d d875 cd3d 0026 7e3d
00000200: 6775 003e 07e9 b5bd e295 373d 2d8a 29bd
00000210: e655 593e b91d 56be 67d9 08be e782 113d
00000220: c0f1 cbbd f39e 19be 6486 07be be8a f23d
00000230: fee2 553e 8dec 0a3e 468c 27be 98e1 42bd
00000240: 6452 17be d5b4 0d3e 678b 203d 3828 ea3d
00000250: 4b0d 2c3e 3c87 0ebe 796c 193e 6496 16be
00000260: 4c62 0ebe 2cd9 1a3e 3540 3ebe 5a3d 27be
00000270: 7310 e63d f9c1 ca3d 223a e83d 8544 473e
00000280: 2207 e43c 4bf3 03bd f45b 293c 714c 4abc
00000290: 80de 0b3d 284c 0bbd 7caa 00bd e7c4 453c
000002a0: 242c c3bc a1e1 06bd a30c 00bd 7117 043d
000002b0: 7f9c f83c 9f50 023d ba37 c2bc 000e 2ebc
000002c0: 9719 febc ae2d f23c ac1a 923c 1f10 113d
000002d0: a76c 0c3d e89d d8bc f637 0c3d 4c52 0abd
000002e0: fa72 14bd 4f11 113d 228a 3cbd 03f3 e8bc
000002f0: 70c1 fc3c f688 c33c c2cd f53c 679a 013d
00000300: 3679 4e3e 9597 81be 9a1e 193d c183 5bbd
00000310: 56c4 603e c405 96be 75d6 0fbe 7c20 b13d
00000320: 7fc1 32be 6d86 4abe d67a 57be f84b 813e
00000330: c823 d63c be98 633e b70b 4ebe 9b4a b7bd
00000340: 8d49 02be e04e 033e e0d7 f33d ceca 553e
00000350: 811d 883e ba66 63bd 0d5a 623e 4284 8cbe
00000360: c215 8bbe 99d6 8c3e 9892 9dbe 811d 43be
00000370: 32af 4a3e 0be6 213e 96d5 873e 956d 963d
00000380: e645 343e 55fe 0fbe 618d 343c c8b7 a4bd
00000390: 7d42 c93d d891 c03a b454 0fbe 3d4d 653d
000003a0: df2b dfbd 1bf8 bfbd db48 38be 00e4 b93d
000003b0: b4bf 4a3d 8a92 373e 0979 31be 3b70 c3bd
000003c0: e519 7bbe f7ee cf3d f243 993d 67c8 ea3d
000003d0: 42aa 4a3e 024f 4ebe 1d9f 3d3e 21e6 edbc
000003e0: dab9 3ebe a5dd 463e 6dc9 60be d8f6 c8bd
000003f0: ca3d 7b3e e492 533e 3dbe 163e 9ff1 513e
0.21042624 -0.25810078 0.07644617 -0.10381856 0.2554646 -0.26488551 -0.1688857 0.10590123
-0.16955705 -0.28645828 -0.29885826 0.2802129 0.25975507 0.26759315 -0.12134772 -0.05619235
-0.21654166 0.2573252 0.11638437 0.28937677 0.251869 -0.18600468 0.29433113 -0.23488672
-0.28760722 0.28384417 -0.3358957 -0.19860247 0.30625123 0.11300893 0.1021446 0.276907
0.12636563 -0.27389202 0.1111935 -0.14268623 0.2682977 -0.2383201 -0.33685443 0.09934318
-0.22241949 -0.24125452 -0.16469981 0.27136347 0.29172218 0.22847156 -0.12018312 -0.0422433
-0.2432356 0.28525707 0.16707142 0.3303803 0.25600973 -0.2686249 0.24154797 -0.24798524
-0.32053527 0.21372795 -0.40625557 -0.17495835 0.23577662 0.17295079 0.26281947 0.25246686
0.3380557 -0.21357715 0.10835255 -0.024588784 0.09084722 -0.30585063 -0.34372097 0.1324562
-0.24773102 -0.33459702 -0.354455 0.30128217 0.20729749 0.30665565 -0.16922434 -0.14532961
-0.28485823 0.28391427 0.01371599 0.3087694 0.301915 -0.31514645 0.3502126 -0.3230216
-0.2135585 0.3696198 -0.34275696 -0.32586914 0.24991523 0.2961559 0.26047102 0.27164713
0.07469239 -0.10945015 0.034035224 -0.06617075 0.08921051 -0.14908043 -0.10797302 0.02796356
-0.07966908 -0.09816543 -0.10326116 0.12364427 0.0924747 0.10972601 -0.10781181 -0.035177946
-0.09758185 0.110344514 0.07440248 0.09887506 0.095178284 -0.105738334 0.11324286 -0.07221385
-0.14874619 0.11629597 -0.15028535 -0.10380887 0.15434323 0.08572871 0.100322425 0.06204796
0.12544785 -0.08882337 0.044820674 -0.04139154 0.21224174 -0.20909776 -0.13364182 0.03552523
-0.099582195 -0.1500204 -0.1323486 0.11842869 0.20887372 0.135668 -0.16362104 -0.047578424
-0.14777523 0.13838513 0.039195444 0.11433452 0.16801946 -0.13918775 0.14982785 -0.14705807
-0.13904685 0.15121907 -0.1857918 -0.16331998 0.11233606 0.099002786 0.11339213 0.19459732
0.027835432 -0.032214444 0.010336865 -0.012347327 0.03414774 -0.034008175 -0.031412587 0.012070871
-0.023824759 -0.03293002 -0.03126205 0.032248918 0.03034806 0.031815168 -0.023708213 -0.010623455
-0.031018062 0.029562797 0.017834984 0.035415765 0.034283306 -0.026442483 0.034233056 -0.03376989
-0.036242463 0.035416897 -0.04603017 -0.02843619 0.030853957 0.023869019 0.03000534 0.03164139
0.20163426 -0.2531096 0.0373827 -0.053592447 0.21949896 -0.29301274 -0.14046653 0.08648774
-0.17456625 -0.19777842 -0.21042952 0.25253272 0.026140109 0.22226235 -0.20121656 -0.08949777
-0.1272337 0.12823057 0.11906409 0.20878145 0.2658501 -0.05551789 0.22104664 -0.27444655
-0.27165037 0.27507475 -0.30775905 -0.19054224 0.19793394 0.1581041 0.2653014 0.0734512
0.17604789 -0.14061864 0.0110200355 -0.08042866 0.09827135 0.0014691902 -0.13997155 0.055981863
-0.108970396 -0.09373494 -0.17996542 0.09076691 0.04949923 0.17926994 -0.17331327 -0.09542891
-0.24521597 0.10153001 0.07483663 0.11464005 0.1979151 -0.20147327 0.18517728 -0.029040398
-0.18625584 0.19420488 -0.21951838 -0.09812707 0.2453529 0.20661503 0.14721008 0.20502327

linear.fc.weight f4 [98, 1]
00000000: 290e 71bf 992c 6fbf b1ee 8bbe 9f8b 60be
00000010: bf74 213f 3cec da3e 225d 6abf 48b5 b83f
00000020: 2284 51bf fe74 693d e219 0e3e 5412 2b3e
00000030: 7ea3 67bd c026 2dbc 4048 9dbe ba66 a63c
00000040: 5fea 553f ece5 0ebf 2254 f1be 71e6 c13e
00000050: e4a2 c83e 3a65 c8be 69b8 a03e e52e 54bc
00000060: 7a1b e73d 1100 af3d 73ed 173d 3cfa d23d
00000070: 3864 7abf e6e1 81be 0287 0b3c c154 883b
00000080: 2bc2 76bd 611b e1bc 1389 433a abd9 e539
00000090: 869c 463a 141a ba3c c7b6 9d39 a396 d03b
000000a0: b79d d23b 4ee5 c03a e3dd ea3b a641 b73d
000000b0: 8270 97be 93d2 ba3b 6940 7d3c f3d6 593e
000000c0: 667c 7a3b 4b86 d13d 6425 febe 4ecf a53b
000000d0: 5d22 733b 6500 163c 44d9 d33a 4da9 773b
000000e0: a55d 283e 4d66 253b 850f 94be 7c1e 173d
000000f0: 25be a93b aa13 dc3b f510 173d 5176 8f3b
00000100: dc38 813b 2c4f ad39 9088 aa3a bc33 21be
00000110: b043 a33e d2e4 a4be bfd3 dabd 9d85 0a3d
00000120: e447 c63b 984f 41bc ad51 593a dbca 703e
00000130: 3bfb 203b 0801 1939 f289 e63d 770e 3e3d
00000140: f6e6 443d c6bb 453d 32ef a13b 3168 243b
00000150: c1e5 813e 5c56 653e 26ce 6d3d 1e41 d43b
00000160: 1b51 a4bc 59b9 1fbd 579c e43d 5bad 3b3c
00000170: 7f4c 223c 3558 873c 5c65 763c 847e 233c
00000180: beed e739 6681 073d
-0.9416223 -0.93427426 -0.27330545 -0.21928261 0.63068765 0.42758358 -0.9154836 1.4430323
-0.81842244 0.056996338 0.13877061 0.1670621 -0.056552403 -0.010568321 -0.30719185 0.020312656
0.83560747 -0.5581958 -0.471345 0.37871125 0.39186776 -0.3913973 0.31390694 -0.012950634
0.112845376 0.085449345 0.037091684 0.10301635 -0.9780917 -0.2536766 0.008516075 0.004160494
-0.060243767 -0.027478876 0.00074590853 0.0004384046 0.00075764244 0.022717513 0.00030081553 0.0063656135
0.0064274925 0.0014716776 0.0071675642 0.08948068 -0.29578024 0.005701372 0.015457251 0.21273403
0.003822112 0.102306925 -0.49637902 0.005060113 0.003709934 0.0091553675 0.0016162773 0.003779012
0.16441973 0.0025237978 -0.2891809 0.036894307 0.0051801377 0.0067162113 0.036881406 0.004378118
0.0039435457 0.0003305612 0.001301067 -0.15742391 0.3188758 -0.32205826 -0.106849186 0.03381883
0.0060510505 -0.011798762 0.00082900637 0.23514883 0.0024563808 0.00014591601 0.1125678 0.046400513
0.048071824 0.048274778 0.0049418444 0.0025086517 0.253706 0.22396225 0.058057927 0.006477489
-0.020058205 -0.03899512 0.11162632 0.011454905 0.009905933 0.016521553 0.015038814 0.009978894
0.00044236885 0.03308239

mlp.mlp.0.weight f4 [64, 160]
00000000: 0c4d f238 a29d 4238 92ad 14b9 548d 0f39
00000010: 0b3b c5b8 eab2 e3b8 91ec aa38 5fa8 4936
00000020: 9e36 d237 7f67 87b8 85d3 5eb8 3317 5638
00000030: 2446 5ab9 9cc8 f737 8948 a8b7 0d70 d8b8
00000040: 768a 4839 7d47 36b9 7bf9 91b8 3fd1 a5b9
00000050: 33db 9bb8 d09f 0839 17a6 dc37 db48 4539
00000060: c097 6239 60fe 7c38 b348 4c38 97d4 05b9
00000070: 06de 6338 d701 1eb9 8e9e d6b8 437f 9238
00000080: 94ed 293b a4fe f3b9 0502 ee39 f7f5 833a
00000090: 66e3 20bb 2f45 e039 c5dd f0ba 87fd 943a
000000a0: face a7ba e9bf e4ba eff7 1abb 4748 953a
000000b0: 8cfc 6dba 8026 8f3a c745 923a 4432 9aba
000000c0: 5c68 68ba afa4 383a 908e 9bba 9440 033b
000000d0: e563 7d3a 93de 93ba 5167 d23a c4c9 0fbb
000000e0: e434 403a 83f9 fa3a 454f 0aba cd42 82ba
000000f0: 6992 a5b8 24a6 073b d8bb 823a 211b 393a
00000100: 5698 c03a 120e beba 7742 8bbb 44f2 ab3a
00000110: 2f00 94bb 7c64 da3a 99e5 123b 8efc 2939
00000120: 272b 61bb 6acf 2e3b c5c7 2cba 4126 743b
00000130: a22f 62bb 2c06 923b d206 6bbb 02ad 23bb
00000140: 9a66 07bb c6be 84bb 10ec 523b 35a2 c63b
00000150: 71d4 ff3b a348 90bb 596a d33a 38ff b93a
00000160: 9ed5 a2bb c43c b43b 55f3 5cbb 2bf7 9d3b
00000170: dbf7 2c3c 0526 453b 53f9 d63a ced5 84bb
00000180: 7ea3 513c 2d40 f5bb 41e0 7f3a 5e76 be39
00000190: 2942 1f3c 2f27 cdbb acec 503b 773a 2e3b
000001a0: cde5 e1ba d46c 093c 5103 9c3a 1b62 5e3c
000001b0: e6f6 c439 0bf6 ec38 cfd7 f83b c75f 8c39
000001c0: befb 27ba 2a37 5a3a 45a3 ac3a 8f2c 2ebc
000001d0: c3cf a4bb 0b67 e2bb 30ba 553b dc18 5ebb
000001e0: 84c4 7bbb 3126 ba3a 23be a3b9 f7f0 0dbc
000001f0: cd7a 1a3b f8ec b2bb 4709 433b f2cc 19bc
00000200: 957c 2f3b 3cfa 3bba 19c6 b4ba 538e e237
00000210: 328c 003b f265 6ebb b9de 1d3a b70b a63b
00000220: b490 b6bb 2a2c b138 0b4a ff3a 4704 9f3b
00000230: f4ac a439 222a 123a 3d33 863b 11e0 063b
00000240: b93b 2cba 5bde e239 7e57 6939 19a0 a33a
00000250: 91fc 6d3a a6a4 2eba d448 cab9 ca23 0ebb
00000260: 63c3 e9b9 eeb9 81ba 6e8e 4fba 2234 a1bb
00000270: 8cfa 5d3a f4ff c6ba 6e51 cdba 8592 f93a
00000280: c17e 6ab7 5760 4634 0f50 7235 f5f8 0d35
00000290: a685 6f37 9cca 1c35 60e3 35b8 7312 4eb5
000002a0: c5cf 85b7 da82 fa36 8c05 e937 c963 6bb6
000002b0: bf40 b537 2f7a 32b7 334c d536 a609 7f37
000002c0: 5908 e3b7 cb71 9b37 dae9 1b37 638c 5938
000002d0: c7ed cf37 626e 40b7 0d61 72b7 211c 83b8
000002e0: c834 04b8 7283 91b7 1771 b0b7 d1c0 dc36
000002f0: 07f0 99b7 a757 9635 a9fa 2b38 4ddd d333
00000300: f20d 503b 0ed4 e8b9 13e1 453a e4b0 dd3a
00000310: 2bd3 20bb 38b7 4a39 21b0 15bb 9427 c33a
00000320: d1fd d1ba 4cee 13bb 3ec6 33bb a798 a23a
00000330: f2bb efb9 7add ca3a 5c27 ac3a 9471 bbba
00000340: f933 b7ba 40ee 823a 4782 feba d6e6 173b
00000350: 7b3d cd3a 8ca0 d0ba 5086 0a3b 3beb 3abb
00000360: 581e 9b3a 2852 1d3b 2322 60ba d0c0 d7ba
00000370: e5f9 11ba a2d1 1c3b eb7d 9f3a 4605 d23a
00000380: a671 863a 6a9f 63ba dd7a 8bbb 59d3 c13a
00000390: efbc 95bb 14a0 233b 8431 2b3b a1fd 27b9
000003a0: 855d 5cbb 9a1b 153b 73d2 e4b9 5abf 553b
000003b0: 4d90 7bbb 9c74 8c3b a20c 76bb 6621 36bb
000003c0: 4691 b4ba d345 70bb 2a0c 503b 63f9 b33b
000003d0: f4ed 093c 0c9d 80bb 1b15 c83a 54e6 db3a
000003e0: ea2a adbb f140 af3b 02df 58bb 397b 8e3b
000003f0: af76 263c 035d 433b f321 c13a 04e4 95bb
0.0001155381 4.640001e-05 -0.0001417904 0.00013690192 -9.4046896e-05 -0.00010857529 8.1502956e-05 3.004934e-06
2.5059384e-05 -6.456579e-05 -5.3125917e-05 5.1043182e-05 -0.0002081623 2.953811e-05 -2.0060937e-05 -0.00010320554
0.00019125067 -0.00017383504 -6.960608e-05 -0.00031627153 -7.431805e-05 0.00013029505 2.6303385e-05 0.00018814525
0.00021609571 6.0318387e-05 4.8705097e-05 -0.00012763064 5.4327793e-05 -0.0001506874 -0.00010233848 6.985527e-05
0.002592896 -0.00046538294 0.00045396402 0.001006781 -0.0024549603 0.00042776155 -0.0018376639 0.0011367061
-0.0012802773 -0.0017452213 -0.0023646315 0.0011389338 -0.0009078465 0.0010921508 0.0011159711 -0.0011764248
-0.00088656484 0.0007043583 -0.0011868048 0.0020027505 0.00096660695 -0.0011281542 0.0016052519 -0.002194033
0.00073321 0.0019147847 -0.00052760943 -0.0009938121 -7.895084e-05 0.0020698393 0.0009974195 0.00070612325
0.0014693837 -0.0014500043 -0.0042498666 0.0013118465 -0.0045166234 0.0016662027 0.0022414683 0.0001621118
-0.0034357996 0.0026673921 -0.0006591047 0.0037254246 -0.0034513255 0.004456302 -0.003586222 -0.0024974947
-0.002066052 -0.0040510623 0.0032184161 0.006061817 0.0078073074 -0.00440319 0.0016129717 0.0014190441
-0.004969313 0.005500408 -0.0033714373 0.0048207245 0.01055714 0.0030082476 0.0016401209 -0.004053808
0.012795327 -0.007484457 0.00097608945 0.00036327814 0.009720364 -0.0062607746 0.0031879349 0.002658514
-0.0017234624 0.008387763 0.0011902844 0.013573195 0.00037567987 0.00011299186 0.0075940858 0.0002677424
-0.0006408057 0.000832426 0.0013171217 -0.010630741 -0.00502965 -0.0069092563 0.0032612197 -0.003388933
-0.0038416693 0.0014202056 -0.00031231446 -0.0086634075 0.002357173 -0.005460378 0.0029760168 -0.009387242
0.0026777138 -0.0007170772 -0.0013791948 2.7007574e-05 0.0019614813 -0.0036376682 0.0006022263 0.0050673145
-0.005571449 8.448244e-05 0.0019477023 0.004852805 0.00031409378 0.0005575736 0.0040954635 0.0020580331
-0.00065701787 0.00043271747 0.00022253205 0.0012483626 0.0009078468 -0.0006662108 -0.00038582704 -0.0021688812
-0.00044586798 -0.000989733 -0.0007917647 -0.004919545 0.00084678154 -0.0015182481 -0.0015664527 0.0019040859
-1.3976999e-05 1.8475235e-07 9.0268526e-07 5.2888873e-07 1.4276628e-05 5.8409364e-07 -4.3365522e-05 -7.676783e-07
-1.5951586e-05 7.4658137e-06 2.7778347e-05 -3.5075811e-06 2.1607031e-05 -1.0638075e-05 6.3567654e-06 1.5201431e-05
-2.7064396e-05 1.8530429e-05 9.293168e-06 5.1867577e-05 2.4787047e-05 -1.1469792e-05 -1.444692e-05 -6.251806e-05
-3.152041e-05 -1.7346556e-05 -2.1033497e-05 6.5789577e-06 -1.8350793e-05 1.1201381e-06 4.1003022e-05 9.8657075e-08
0.0031746593 -0.0004440848 0.0007548492 0.001691368 -0.0024539928 0.00019332475 -0.0022840577 0.0014889115
-0.0016021078 -0.0022572456 -0.0027431394 0.0012405113 -0.00045725662 0.0015477382 0.0013134289 -0.0014300817
-0.0013977281 0.0009989217 -0.0019417488 0.002317836 0.0015658581 -0.0015916987 0.0021137185 -0.0028521556
0.0011834605 0.0024005268 -0.00085500086 -0.0016460661 -0.0005568548 0.0023928662 0.0012168264 0.00160233
0.0010257259 -0.00086831173 -0.00425659 0.0014787718 -0.004569642 0.002496724 0.0026122043 -0.00016020845
-0.0033625078 0.0022752048 -0.00043644346 0.0032615275 -0.003838557 0.004286362 -0.003754415 -0.0027790903
-0.0013776205 -0.0036662712 0.0031745532 0.0054923757 0.008418549 -0.0039249714 0.0015265079 0.0016777017
-0.005284657 0.005348318 -0.0033091907 0.0043481854 0.010160132 0.0029810078 0.0014734849 -0.0045743007

mlp.mlp.0.bias f4 [64]
00000000: c9ad 3d34 81bf bdb5 e601 9533 4e0f dc33
00000010: 0655 35b4 ac0c c2b3 a5c4 65b1 dc1a cbb4
00000020: e6a3 5fb3 f26f 57b4 0c9c 3eb3 2202 4eb4
00000030: 5a68 57b2 eb9a 8930 898a dcb3 0579 be34
00000040: 1015 70b5 1497 20b4 ea5f b1b4 240c 7233
00000050: c5ba 9934 3e54 41b4 25c3 bd34 175a 8b34
00000060: c23c 4734 ab12 10b3 cc2b 3b33 f492 a434
00000070: 3596 6f33 c09a 81b4 66ad fab3 5222 0ab5
00000080: a4dc 9334 4c3f bab4 a3a3 7a34 fd76 5d31
00000090: 121f c1b3 9ef8 edb4 c6aa bfb3 8b5a 57b4
000000a0: f479 f534 94ce 59b4 cc92 b833 d490 0335
000000b0: 6a94 9d34 75ee 5fb4 373e 33b3 65fe b4b4
000000c0: 3f84 c3b3 ba5f 49b4 1d77 04b4 c70a e733
000000d0: 469f db34 66bc 3035 495d 13b4 8768 e6b3
000000e0: 0224 71b4 8268 e232 c4d7 6d32 8b39 d1b3
000000f0: 291c 0e33 4e7d be33 2a7b 9634 9859 bbb3
1.766522e-07 -1.4137332e-06 6.9386985e-08 1.0247332e-07 -1.688787e-07 -9.036134e-08 -3.3435665e-09 -3.783124e-07
-5.20703e-08 -2.0064161e-07 -4.4379746e-08 -1.9186021e-07 -1.2538374e-08 1.0012092e-09 -1.0269748e-07 3.547831e-07
-8.9437617e-07 -1.4956123e-07 -3.3038606e-07 5.6356058e-08 2.8634364e-07 -1.8005173e-07 3.534598e-07 2.5956317e-07
1.8555423e-07 -3.354459e-08 4.3579163e-08 3.0654303e-07 5.5783136e-08 -2.4140718e-07 -1.1673073e-07 -5.145895e-07
2.754142e-07 -3.4691254e-07 2.3342595e-07 3.222737e-09 -8.9929145e-08 -4.4325583e-07 -8.925194e-08 -2.0056375e-07
4.572354e-07 -2.0284853e-07 8.59487e-08 4.9012056e-07 2.9351514e-07 -2.0855244e-07 -4.173327e-08 -3.371271e-07
-9.1044505e-08 -1.8754409e-07 -1.2336791e-07 1.0758736e-07 4.0907815e-07 6.5839265e-07 -1.3724379e-07 -1.0729223e-07
-2.2457974e-07 2.6357387e-08 1.3844275e-08 -9.742788e-08 3.3087563e-08 8.870357e-08 2.802929e-07 -8.724163e-08

mlp.mlp.1.weight f4 [64]
00000000: 22f5 8d3d 6f7d 953d 34e9 323d e8e1 2d3d
00000010: 6d9b 303d 885e 003d 1d0a 163d 20dc 113d
00000020: 97f5 d33c caca 4f3d 5379 c33d b651 0a3d
00000030: 634c 013d 9e03 3c3c 3f29 2a3d 79fd 783d
00000040: d480 8b3d f333 673d b010 723d 7f90 193d
00000050: 76eb 093d bd95 8b3d 9fb2 163d 1f94 1b3d
00000060: 94be 173d 288a d13c 89ee 3a3d 1493 043d
00000070: 021d 163d e338 743d c167 0a3d e7e0 683d
00000080: 97aa 213d ec56 0b3d 2d3d 133d 1705 0d3d
00000090: 7689 053d 30e3 0d3d 1ab7 8a3d 4266 773d
000000a0: 949f ab3d 72e9 763d 138e 733d 1cd1 0a3d
000000b0: a1aa 353d 048c 093d 3745 0e3d f6a3 2d3d
000000c0: 4c2c 193d 95b8 243d 9fdb 3d3d b3f5 f33c
000000d0: 6812 093d 7e24 5f3d da68 0d3d 7575 203d
000000e0: 6977 343d e4e3 f33c e9d5 593d a2b1 233d
000000f0: ddd0 0e3d 599d 123d b45b 153d e931 513d
0.06931521 0.07299315 0.04367943 0.04245177 0.043116976 0.031340152 0.03663074 0.03561032
0.025873942 0.050730504 0.09544625 0.033769332 0.03156699 0.011475472 0.04154324 0.060788605
0.068116814 0.056446027 0.059097946 0.037491318 0.03367182 0.0681567 0.03679144 0.037983056
0.037046984 0.025578573 0.04563764 0.032366827 0.036648758 0.059624564 0.033790354 0.05685511
0.039469328 0.034018442 0.035947014 0.034428682 0.032601796 0.03464049 0.06773205 0.060400255
0.083800465 0.060281225 0.059461664 0.03389083 0.044352178 0.033580795 0.034733977 0.042392693
0.03739576 0.040215094 0.046352025 0.029780244 0.03346482 0.05447816 0.034523822 0.039174516
0.04405919 0.029771753 0.053182516 0.039964326 0.034867156 0.03579459 0.036464408 0.05107299

mlp.mlp.1.bias f4 [64]
00000000: 8f8c a13c c2db 8b3c 31b9 ea3c c3fa ce3c
00000010: ee0a dd3c 07a3 d53c 1cbb 473c 7560 683c
00000020: 50ae 8d3c 1b9e be3c d0fc 283c aa0f 343c
00000030: 6b4a 833c 7a94 e23b e758 a13c b5f8 c73c
00000040: 42a8 973c 96f1 5e3c d63e b23c ae32 4c3c
00000050: d05d 3e3c 6adf c43c 9af1 463c fa24 713c
00000060: d1ff 143c 73ce 8c3c b1bc c73c e1dc 6d3c
00000070: 6c6f b43c b58b b93c b63d 723c 8a48 c03c
00000080: 5e28 4e3c 5c7b 6f3c 277b 6f3c c745 993c
00000090: 70a0 3f3c 9e28 373c 2be2 843c 1f7d ae3c
000000a0: 2a68 9d3c 55ad b73c 3f05 b13c 0855 713c
000000b0: 11f5 d23c a188 4a3c b6a7 463c c9e7 ca3c
000000c0: 440e 483c fb50 a53c c248 013d 0970 123c
000000d0: 4d71 6a3c 908a 913c 7942 413c d87b a63c
000000e0: f98c 9d3c f8a1 513c eb97 be3c 95b0 673c
000000f0: 2659 2e3c acb5 673c 47a3 4e3c 2f76 023d
0.019720344 0.017072562 0.02865276 0.025266057 0.02698275 0.026078714 0.012190606 0.014183153
0.017295033 0.02326875 0.010314181 0.010990063 0.016026696 0.0069146724 0.019695712 0.024410585
0.018512849 0.013607403 0.021758478 0.012463255 0.011619046 0.024032313 0.012142563 0.014718289
0.0090941945 0.017188286 0.024381967 0.014517994 0.022025786 0.022649625 0.014785221 0.02347209
0.0125828665 0.0146168135 0.014616764 0.01871003 0.011695966 0.0111791175 0.016221127 0.021299897
0.019214708 0.022421518 0.021608947 0.014729746 0.025751622 0.012361676 0.012124946 0.024768727
0.012210432 0.020180216 0.031563528 0.008937844 0.01430924 0.017766267 0.0117956335 0.020322725
0.01923226 0.012794964 0.0232658 0.0141412215 0.010641372 0.014142435 0.012612171 0.03185099

mlp.mlp.1.running_mean f4 [64]
00000000: d3de a13c 1a81 ab3c 6864 2a3c b580 363c
00000010: a5cd 2d3c 624e 5c3c 91f9 63bc ad08 39bc
00000020: aa91 9b3c 70bf 353c 26c9 da3b 2d47 6abc
00000030: a35f 55bc 7e4b 393c 1b43 ad3c 5ea1 063c
00000040: bdb8 9f3c d406 8d3c 9e15 1a3c 1975 67bc
00000050: 8dff 5ebc c384 053c 5d24 64bc 1702 4abc
00000060: 2a39 55bc 71a3 9d3c cf5e 553c 523b 3dbc
00000070: 0a82 873c e8a5 003c 25dc 42bc dff6 283c
00000080: 8097 57bc 221a 5ebc 788d 41bc 02f7 9f3c
00000090: 3285 5cbc f8ce 58bc 2059 af3c 3e1d cf3b
000000a0: 4dc6 aa3c c28a 023c a72b 0d3c b772 56bc
000000b0: 8c3e 263c b79b 33bc 0538 34bc 12be 693c
000000c0: 376e 03bc ae2b a93c 2e46 243c b95b 53bc
000000d0: 3e95 4abc 0f7b 933c 0842 80bc f725 a83c
000000e0: 4cd4 ac3c c277 41bc 01e9 2d3c 4c27 15bc
000000f0: 30a7 5fbc 2296 2abc e351 12bc b9ed 133c
0.019759571 0.020935584 0.010399915 0.011139085 0.0106081115 0.013446422 -0.013914482 -0.011293572
0.018990356 0.011093006 0.006676811 -0.014299196 -0.01302329 0.011309503 0.021150162 0.008217184
0.01949727 0.01721517 0.009404568 -0.014127039 -0.013610733 0.008149329 -0.013924685 -0.0123296
-0.013014117 0.019242974 0.013023092 -0.011549788 0.0165415 0.007852055 -0.011893307 0.010312765
-0.013158679 -0.013556035 -0.011813514 0.019526962 -0.013459491 -0.013232939 0.021404803 0.0063206246
0.02084651 0.007967653 0.008616365 -0.013088874 0.010146748 -0.010962418 -0.010999684 0.014266508
-0.008021883 0.02065071 0.010026498 -0.012900286 -0.012364684 0.018003015 -0.015656486 0.020525916
0.021097325 -0.011808338 0.0106146345 -0.009103607 -0.0136507 -0.010411771 -0.008930656 0.0090288455

mlp.mlp.1.running_var f4 [64]
00000000: f5c6 ef37 245e 0838 12f1 8b37 d0ac 9437
00000010: c1c2 9937 1676 8937 c227 5837 3ca9 1837
00000020: 2035 c837 60cd 8c37 55f4 c438 be3f 5e37
00000030: f72a 2937 e254 2637 1d52 ed37 8480 8a37
00000040: 9ffc f637 04bc be37 bb6e 9a37 4bc3 4937
00000050: ee83 5837 3725 aa37 af9c 5a37 a418 1037
00000060: 1bce 6a37 d959 cd37 433d bb37 3eda 1837
00000070: a887 ba37 0390 7c37 721e 1137 6f73 8937
00000080: 5549 4437 bf22 4837 cad7 2537 b8c8 c637
00000090: 23df 4337 cb1c 4237 d33a 1338 4387 6137
000000a0: 21f3 1838 8cae 9e37 42ef 9837 4dba 3637
000000b0: 8325 a137 a3c5 2837 ca4f 1837 6cd8 c737
000000c0: 66f6 ee36 7c0a dc37 b039 7f37 1941 4637
000000d0: 9a39 2737 10fb c337 59ae 8237 3987 d937
000000e0: 5101 df37 75f9 1737 320d 8d37 93fe af36
000000f0: 99eb 5f37 1267 0437 fe74 ff36 9155 7b37
2.8583667e-05 3.2512602e-05 1.6682348e-05 1.7723447e-05 1.832971e-05 1.638666e-05 1.288386e-05 9.099309e-06
2.3866596e-05 1.6784936e-05 9.391519e-05 1.3247072e-05 1.00831885e-05 9.914134e-06 2.8290839e-05 1.6510727e-05
2.9443121e-05 2.2737317e-05 1.8409793e-05 1.2026004e-05 1.2905321e-05 2.0282909e-05 1.3030293e-05 8.588806e-06
1.3995475e-05 2.4479743e-05 2.2320664e-05 9.1107195e-06 2.2236098e-05 1.5053901e-05 8.649762e-06 1.6385426e-05
1.1699584e-05 1.1929019e-05 9.885009e-06 2.3696906e-05 1.1674859e-05 1.1570005e-05 3.5102315e-05 1.3442538e-05
3.6466055e-05 1.8916347e-05 1.8231225e-05 1.0891422e-05 1.9210163e-05 1.0059596e-05 9.078483e-06 2.3823428e-05
7.1216373e-06 2.6230926e-05 1.5212616e-05 1.1816876e-05 9.967387e-06 2.3362722e-05 1.5578395e-05 2.5931384e-05
2.6584285e-05 9.058383e-06 1.6814654e-05 5.2450428e-06 1.334669e-05 7.891811e-06 7.613212e-06 1.4980688e-05

mlp.mlp.4.weight f4 [64, 64]
00000000: 4a17 03bc 2b1a ffbb c09a a6bb 3f25 17bc
00000010: 045e 23bc cb39 dbbb f1fc 4d3b 0d07 883b
00000020: 2046 52bb e79c cdba 5fd8 893b 7579 283b
00000030: ee1f 773b a422 11ba 14b5 a5bb a4c7 c7b9
00000040: 70b2 01bc ffa8 88bb 08c6 75ba ffbe 303b
00000050: eba1 243b 7e5c 0bba 0439 293b ed75 763b
00000060: d5f5 463b 842f 4ebb feba 22bc 7142 733b
00000070: 611b d8bb a2db 153a ebb4 7c3b 3fe8 b4ba
00000080: aad0 443b 6d4d 343b eb55 933b fdd2 75bb
00000090: 7888 293b d70a 273b 55c3 eebb f3ef 163b
000000a0: d347 11bc 835d b6ba cb5a 60ba 9156 823b
000000b0: 0639 24bc 181b 6c3b ed65 853b 8a80 19bc
000000c0: 6e00 993b 6c5b a1bb 78a2 babb 848a 0a3b
000000d0: b05e 753b 6e84 33bc 9f84 283b 6df7 91bb
000000e0: 33c1 b0bb a66f 623b 3c47 aeba 6dc4 a03b
000000f0: 5ae9 2e3b ff64 873b d733 923b 4c16 7dbb
00000100: da3e 54bc 81ff 3ebc caaa 67bb 5eb1 48bc
00000110: 8f02 6cbc b716 0cbc b36d 003b 5833 063c
00000120: 2ea0 a0bb 2b26 a63a e715 9bbd a869 c23a
00000130: 49d7 9b3b 2fa9 3fba d5ee 07bc 1b49 553b
00000140: 29f4 5bbc a6a0 04bc 64da 113b 47f6 643a
00000150: 7e36 953a 9e91 5d3b f9d0 97b9 e64a aa3b
00000160: 191a 3e3b fd37 80bb 2854 63bc 913f d03b
00000170: 54e3 17bc 6f46 963b 8150 bc3b 1a00 a73a
00000180: 4769 343b 465c 533b 517a 043c 0928 c4bb
00000190: 1cd5 193b f7a2 923a 2920 3fbc 6df4 cf3b
000001a0: 581c 54bc 2d4c 0c3b abf8 2a3b c321 bb3b
000001b0: ce75 4bbc ff9a e93b 21b8 ab3b 2489 50bc
000001c0: e02c 133c 4821 fbbb 6cec 92bb 2252 4d3a
000001d0: 5c90 8a3b dc7e 9fbc 1c92 8f3a e93a dbbb
000001e0: 12a3 05bc 6238 d13b 1f8b b93a 8d42 163c
000001f0: eb3a 503a 6ce0 1e3c 3f9d ed3b 9c4b 96ba
00000200: 3655 e5b9 7c49 0cb9 2b9f 52bc 7e50 19bc
00000210: 2ed5 19bc 1cb3 c7bb 53ab 063c f3fb a83b
00000220: 3890 1dbb f691 5fbc 89e2 ef3b 9062 0b3c
00000230: a08a b03b 77c1 7d36 98b7 0fbb ef35 81bc
00000240: e4bb 82ba b3bf 443a 1137 7cbc 51d3 123c
00000250: 271c ef3b 7e88 8dbc 15aa 093c 351e 0b3c
00000260: a355 063c 81bb 1abb 4367 22bc 12af c23b
00000270: fcf1 76bb bbf2 7abc eef6 b23b c552 77bc
00000280: 2aa8 2f3c ec07 ee3b 5e9b 983b ad11 bcba
00000290: 82b3 e03b 488a ef3b 501c 3fba 1482 72bc
000002a0: e228 e938 3efa 81bc bae2 7bbc 27d6 bf3b
000002b0: d9ff 20bc 4087 9c3b f70b 953b 20d4 1bbc
000002c0: dd17 903b 005f 0dbb 031e 5fbc af72 d63b
000002d0: e4c3 d53b ffff 1bbc 6abf 013c d609 f2ba
000002e0: af0f 1bbb 48ce 9a3b fd36 68bc a25b e13b
000002f0: 0881 033c fd79 9b3b c5d6 a83b fa74 71bc
00000300: ee7c 6cbb ae0e 77bb 58f3 0bbb 703c 5ebb
00000310: afa2 6ebb 264a 29bb 01ef 013b 9333 093b
00000320: abd4 cdba a6a3 9eba 96e3 103b 7bed e53a
00000330: af6a 063b 9715 d9b9 8857 20bb 67fa 55ba
00000340: c819 70bb e785 1ebb c30a 8fba 333d ff3a
00000350: d655 eb3a 7d2b 97ba 6402 f83a 3217 0d3b
00000360: 4189 003b a17e c8ba c312 6ebb 2089 003b
00000370: 81ae 2ebb 6753 1fba afd9 043b 7004 a7ba
00000380: d657 013b d8f4 f13a ab23 0f3b b762 f9ba
00000390: d5ee e03a 7396 e53a e3b4 62bb 590b e2b7
000003a0: ccc1 a4bb 673b 9fba 7f7b 86ba c6f2 0a3b
000003b0: dbf1 62bb 9fc1 fb3a 3451 023b 6b43 5ebb
000003c0: 5c0f 0d3b 2d27 1dbb 7cc5 20bb 8725 bf3a
000003d0: 84b4 063b e02a 83bb d71f f13a 2dcc 11bb
000003e0: d22b 29bb 7ac1 e73a 4c86 a5ba 1107 103b
000003f0: 0958 ea3a 4d98 093b 548e 0f3b 5a56 05bb
-0.008001158 -0.007785102 -0.0050843656 -0.009225189 -0.009971146 -0.006690239 0.0031431282 0.004151231
-0.0032085255 -0.0015687019 0.0042067016 0.002570716 0.003770824 -0.0005536473 -0.0050569866 -0.00038104982
-0.007916078 -0.0041705365 -0.0009375517 0.0026969311 0.0025120925 -0.00053162116 0.0025821337 0.003760691
0.003035893 -0.0031461427 -0.009932278 0.003711846 -0.0065950607 0.0005716627 0.0038559984 -0.0013802125
0.00300316 0.002751197 0.004496326 -0.0037509792 0.0025868695 0.0025488639 -0.007286469 0.0023031204
-0.008867222 -0.0013913367 -0.0008558451 0.0039776047 -0.010023361 0.0036026891 0.0040709884 -0.009369025
0.0046692407 -0.0049242284 -0.0056956373 0.002113969 0.0037440471 -0.010956867 0.0025713814 -0.0044545443
-0.005394125 0.003455141 -0.0013296376 0.0049062283 0.0026689381 0.0041319127 0.004461746 -0.0038618026
-0.012954438 -0.011657597 -0.00353496 -0.012249319 -0.014404907 -0.0085503375 0.0019596636 0.008190952
-0.0049019074 0.001267617 -0.07572537 0.0014832513 0.0047558886 -0.0007311282 -0.008296688 0.0032544795
-0.013424912 -0.008094942 0.0022255415 0.0008734208 0.0011384038 0.0033808718 -0.0002895666 0.005196917
0.0029007255 -0.0039129243 -0.013875045 0.006355234 -0.009270508 0.004586033 0.0057469015 0.0012741119
0.002752857 0.0032251044 0.008085803 -0.005986218 0.002347297 0.0011187483 -0.011665382 0.0063462765
-0.012946211 0.002140771 0.002608816 0.005710812 -0.012418224 0.0071290727 0.0052404557 -0.012728009
0.008982867 -0.0076638795 -0.00448375 0.0007832368 0.0042286348 -0.019469671 0.0010953578 -0.0066903722
-0.008156555 0.006384895 0.0014155841 0.00917114 0.000794335 0.009697061 0.007251411 -0.0011466625
-0.0004374177 -0.00013378815 -0.012855331 -0.00935757 -0.009389205 -0.0060943495 0.008219558 0.005156988
-0.002404226 -0.01364564 0.0073207063 0.008507386 0.005387619 3.781255e-06 -0.0021929499 -0.015772788
-0.0009974209 0.0007505372 -0.015393988 0.008961515 0.007297057 -0.017276999 0.008402367 0.008491089
0.008199128 -0.0023610296 -0.009912315 0.00594128 -0.0037680855 -0.0153166605 0.005461565 -0.015095417
0.010721246 0.007264128 0.004657193 -0.001434853 0.0068573365 0.0073101856 -0.00072902907 -0.014801521
0.00011117921 -0.015866395 -0.01537388 0.0058543864 -0.009826624 0.0047768652 0.0045485455 -0.009511024
0.004397376 -0.0021571517 -0.013617995 0.006544433 0.006523596 -0.009521483 0.007919172 -0.0018466066
-0.0023660471 0.0047242977 -0.0141732665 0.0068773786 0.008026369 0.0047447667 0.0051525556 -0.014737362
-0.0036085206 -0.0037697959 -0.002135476 -0.0033910535 -0.0036412885 -0.002583155 0.0019826295 0.0020935282
-0.0015703639 -0.0012103214 0.0022108308 0.0017542088 0.0020510366 -0.0004140555 -0.0024466235 -0.0008162618
-0.003663646 -0.0024188699 -0.0010913241 0.0019473195 0.0017954658 -0.0011533346 0.0018921611 0.0021528718
0.001961306 -0.0015296527 -0.00363271 0.0019612983 -0.0026654305 -0.00060777966 0.002027135 -0.0012742411
0.0019736192 0.001845981 0.0021841328 -0.0019026612 0.0017161021 0.0017516151 -0.003459268 -2.6946584e-05
-0.005027985 -0.0012148441 -0.0010260193 0.0021201833 -0.003462902 0.0019207484 0.0019884827 -0.0033914696
0.0021524047 -0.002397965 -0.0024531772 0.0014583328 0.0020554373 -0.004002914 0.001839633 -0.0022246942
-0.0025813472 0.0017681562 -0.0012628525 0.0021976868 0.001787902 0.002099532 0.0021904903 -0.002034566

mlp.mlp.4.bias f4 [64]
00000000: 2add 45b3 3639 97b5 77aa 8eb4 96c7 11b1
00000010: 4027 6031 cda6 9131 eeb0 caaf 2fb8 1733
00000020: d906 edb2 db1a f333 793e 6832 8556 5e31
00000030: b254 17b4 c820 4034 4f5a 9a35 808a 6b31
00000040: 67c4 6032 1d1e 21b2 d41d 0b00 016f d630
00000050: 9b6c 34b4 8494 17b4 dba8 06b1 5e08 5280
00000060: 112d 12b2 2276 81b4 3f72 0b34 4212 3980
00000070: 3197 4380 3c06 93b3 41cb b7b3 0394 1200
00000080: d61f 4434 3ef4 f932 3cbf 50b0 260c 8033
00000090: 225f 7fb4 473c 5c34 ce4a 8fad d37e 4834
000000a0: 99f8 2b30 5597 f534 ed96 3180 23c3 39b5
000000b0: 5113 ddb0 8141 c634 2e61 b7b3 973a db33
000000c0: b4ad 4ab4 0e9c 2034 fd48 a633 96dc 10b4
000000d0: f8a0 ecb1 ef61 7d32 4241 bd33 eb6c 0480
000000e0: 7dbe 3032 db79 a1b2 797f 0405 9168 42b1
000000f0: 9e4b 60b1 0624 62b3 c8a6 acb1 daa1 a730
-4.6068784e-08 -1.1267027e-06 -2.657359e-07 -2.1213729e-09 3.2618601e-09 4.2390185e-09 -3.6869302e-10 3.532494e-08
-2.7593545e-08 1.1320454e-07 1.3518382e-08 3.2354432e-09 -1.4093783e-07 1.7893319e-07 1.1500177e-06 3.427573e-09
1.3083173e-08 -9.37828e-09 1.020891e-39 1.5602099e-09 -1.6803317e-07 -1.4117e-07 -1.959555e-09 -7.533512e-39
-8.508565e-09 -2.4114075e-07 1.2986946e-07 -5.241173e-39 -6.207215e-39 -6.846355e-08 -8.558573e-08 1.706136e-39
1.8265504e-07 2.9098484e-08 -7.594172e-10 5.962674e-08 -2.3783335e-07 2.0511025e-07 -1.6290438e-11 1.867259e-07
6.2562716e-10 4.5744915e-07 -4.554081e-39 -6.920183e-07 -1.6085356e-09 3.6928034e-07 -8.5392784e-08 1.02086396e-07
-1.8875909e-07 1.4957934e-07 7.743254e-08 -1.3491294e-07 -6.886804e-09 1.4748806e-08 8.812869e-08 -4.06414e-40
1.028786e-08 -1.879828e-08 6.230023e-36 -2.8290155e-09 -3.2639274e-09 -5.265249e-08 -5.0248197e-09 1.219685e-09

mlp.mlp.5.weight f4 [64]
00000000: fd16 013e f4c5 0d3f 2204 023f 0a68 253d
00000010: aab3 8a3d c93a 4f3e 8318 9c3c d432 d63d
00000020: 8e1b b83e 4341 ef3e cd26 103e 6c3a eb3c
00000030: f809 033f 4763 133f ac8b 063f 3ed2 ba3c
00000040: 104f 103d 4260 bc3d 229e 953e 2a75 243e
00000050: 7fd1 103f d010 683e 6ab6 063e abd1 423e
00000060: 9109 643e 2dbb 773e 4c8d 123f acab 2d3e
00000070: fd4f 893e 4270 c53e 00d3 a93e e3fd 6a3e
00000080: 44b0 173f 2a03 6d3e 9dc1 a33d bca1 423e
00000090: 35f3 fc3e 65f3 bf3e 09d7 9e3c 9277 b63e
000000a0: f1cd 883c 84e8 9c3e cbf9 973e 190b 183f
000000b0: fc38 8b3c ea42 d73e 6cac c33d f7a6 a73e
000000c0: d257 f93e 034e fa3e eaa6 073f 5e77 0d3f
000000d0: fad1 083d cdf3 9b3d 2988 103f 233c 993e
000000e0: 46da 8a3d 3ac0 753e 6782 803e 8709 a63c
000000f0: 1918 dc3c 8810 b03e b4c5 923c c4e4 093e
0.12606426 0.5538018 0.50787556 0.040382423 0.067725495 0.20237269 0.019054657 0.104589134
0.35958523 0.46729478 0.14077301 0.028714381 0.51187086 0.5757336 0.5255687 0.02280533
0.03523165 0.09198047 0.29222208 0.1606032 0.56569666 0.22662663 0.13155523 0.19025294
0.22269274 0.24192496 0.5724685 0.16960019 0.2681884 0.38562208 0.33168793 0.22948413
0.59253335 0.23145738 0.07995913 0.1900701 0.49404302 0.37490383 0.019389646 0.356381
0.016699763 0.30646145 0.29682764 0.59391934 0.016994946 0.4204324 0.09554371 0.32744572
0.48699814 0.48887643 0.52989066 0.55260265 0.033403374 0.07614861 0.56457764 0.29928693
0.067799136 0.2399911 0.2509949 0.020268215 0.02686696 0.34387612 0.017916538 0.13466173

mlp.mlp.5.bias f4 [64]
00000000: 200e e33d 7189 033e 9f6d f33d 4122 393d
00000010: 4e31 953c 8461 6dbc 7d9b 903d 5e62 f53d
00000020: 681e ff3d 454b 043e 2f25 65ba 0cce 813d
00000030: 1ce1 0c3e 7967 063e a183 f83d d0b0 cf3d
00000040: 0282 e73d 7246 0f3c aa2b d8bc 64d0 5d3b
00000050: eff5 073e 0932 d23d 1c53 213b 2d91 82bc
00000060: 8f48 db3d 295d d33d 9120 f53d 0cbf 7bbc
00000070: bb86 bbbc 3166 023e dfbb e13d 0e47 9ebc
00000080: 05a7 fb3d 6000 f73d 5d0f f23d 98b1 f33d
00000090: ae46 033e d888 f03d 2d3b 9b3d b1ff fb3d
000000a0: d1a3 a43d 39b2 e23d b00c dfbc 1b41 0a3e
000000b0: 389c a03d 4247 e63d 8c51 ea3d 02ba e03d
000000c0: 2efc 063e 821c 053e e00e f33d af8c f83d
000000d0: 8663 563d 13e9 643c db39 f93d 6162 e0bc
000000e0: 2362 7d3c 0600 f43d df40 d4bc e085 c53d
000000f0: cd30 813d 2398 fd3d 94f7 9b3d a240 e43d
0.110866785 0.12845398 0.11886143 0.045198683 0.018211987 -0.014488582 0.07060907 0.11981653
0.124569714 0.12919338 -0.00087411975 0.063381284 0.13757747 0.13125409 0.12134481 0.10141146
0.11304094 0.008744823 -0.026388008 0.0033846134 0.1327741 0.1026345 0.0024616187 -0.015938366
0.10707199 0.10320503 0.11969102 -0.015365373 -0.022891393 0.12734295 0.11022162 -0.01932099
0.12287716 0.120606184 0.118193366 0.11899108 0.12819931 0.11744851 0.07579646 0.12304629
0.08039058 0.110691495 -0.02722773 0.13501398 0.07842296 0.1124406 0.11441335 0.10972978
0.13182136 0.12999156 0.118680716 0.12136208 0.052341007 0.013971585 0.12169238 -0.02739066
0.015465292 0.11914067 -0.02590984 0.09644675 0.06308136 0.123825334 0.07615581 0.1114514

mlp.mlp.5.running_mean f4 [64]
00000000: 2b06 60bb eb88 fabb df05 afbb 63e7 c8ba
00000010: 673b b4ba 3430 a53a 42a6 7aba a249 4fbb
00000020: 663c d1bb 3d1a a6bb 579f b63a 5def 92ba
00000030: 7b1c 5dbb 3d52 77bb 8653 b0bb fd9f 98ba
00000040: 97ba b5ba 81aa a43a e733 5b36 438a b5ba
00000050: 4275 80bb fc0e 6bbb 6cdc bd3a 22b0 ae35
00000060: 1ec1 6cbb 286c 75bb b83c c2bb e10b 2b34
00000070: 9bbe ef35 9dca 35bb b07f 8bbb 3051 0235
00000080: 9977 c7bb ab42 19bb 554a 0ebb 7887 15bb
00000090: 7a8c abbb 50da 94bb 68aa 84ba 43fc 27bb
000000a0: c40d 79ba 7f6d 8ebb fc1f b736 2c9a 83bb
000000b0: f6a3 77ba d374 a0bb a8ae 3fbb f6f2 8cbb
000000c0: 39ff 53bb 32a0 5cbb 71c9 afbb 8456 c1bb
000000d0: 9804 9eba 1616 6c3a 49ad babb c87b b236
000000e0: 65f6 19ba 5f19 16bb 0fad 1b37 85d6 8eba
000000f0: 7256 8fba 7d00 95bb 4415 79ba 72f7 64bb
-0.0034183364 -0.0076457164 -0.005341276 -0.0015327748 -0.0013750613 0.0012602867 -0.00095615175 -0.0031629582
-0.006385374 -0.005069046 0.0013932985 -0.0011210252 -0.00337389 -0.0037738227 -0.0053810505 -0.001164436
-0.0013864812 0.0012563021 3.2663754e-06 -0.0013850409 -0.003920228 -0.0035867086 0.0014485247 1.3015272e-06
-0.003612585 -0.00374485 -0.0059276484 1.5929938e-07 1.7862361e-06 -0.0027739175 -0.004257165 4.854692e-07
-0.006087255 -0.0023385684 -0.0021711786 -0.0022816341 -0.005235252 -0.0045426264 -0.0010121586 -0.0025632537
-0.00095006474 -0.004346549 5.4575485e-06 -0.0040161815 -0.00094467343 -0.004896739 -0.002924839 -0.004301424
-0.003234817 -0.003366482 -0.00536459 -0.005900206 -0.0012055812 0.00090059766 -0.0056969267 5.3192234e-06
-0.00058732025 -0.0022903306 9.279013e-06 -0.0010897672 -0.0010935797 -0.0045471773 -0.0009501765 -0.0034937528

mlp.mlp.5.running_var f4 [64]
00000000: 5e3d 1638 c000 af38 02e4 0239 b059 1937
00000010: f0d5 6637 94e2 1037 2360 a136 51ad 0338
00000020: a073 c438 d254 f538 39b7 3f37 4584 eb36
00000030: 5cb0 f038 19be 0239 0a29 0639 729d fe36
00000040: 0736 4837 395c 3237 0b82 162d 6766 c337
00000050: f904 ff38 7530 8e38 e10f 5537 096b ed2b
00000060: c4bd 8e38 8caa 9438 95e6 0e39 f342 f828
00000070: 7889 cf2c 56cd bd38 2571 bb38 3efa 4d2b
00000080: 8bbf 1339 5759 8338 555c c237 3271 6538
00000090: 7485 f938 7673 cf38 0472 ab36 ab8c b238
000000a0: 9262 9936 9bdf b138 5321 052d b2f0 0539
000000b0: 776b 9d36 8406 de38 a4b2 f037 b6d0 b838
000000c0: dcea e638 c8b0 e338 9f67 0439 df7f 0b39
000000d0: 508d f836 874f 2237 a9cd 0e39 b7b6 fe2c
000000e0: 6bc2 2837 bb35 8738 a482 e42d ba5c da36
000000f0: 66f9 d636 195f c638 aceb a036 1b05 1d38
3.581994e-05 8.34479e-05 0.00012482706 9.140393e-06 1.37588795e-05 8.635823e-06 4.8093657e-06 3.1394247e-05
9.367545e-05 0.000116983094 1.1427147e-05 7.018944e-06 0.00011476941 0.00012468583 0.00012794524 7.588119e-06
1.1933508e-05 1.0631099e-05 8.555388e-12 2.3293496e-05 0.00012160274 6.7801135e-05 1.2699486e-05 1.6869571e-12
6.806434e-05 7.088957e-05 0.00013628074 2.7562566e-14 5.898556e-12 9.050469e-05 8.93793e-05 7.317791e-13
0.00014090368 6.2632076e-05 2.3169598e-05 5.4703276e-05 0.00011898103 9.8920355e-05 5.1094703e-06 8.513903e-05
4.5712304e-06 8.4816675e-05 7.567574e-12 0.00012773534 4.691475e-06 0.000105869985 2.8693416e-05 8.812679e-05
0.000110110006 0.000108571316 0.00012627103 0.00013303709 7.407427e-06 9.674469e-06 0.0001361879 7.2393996e-12
1.0058847e-05 6.44731e-05 2.5978615e-11 6.507701e-06 6.406731e-06 9.459089e-05 4.7958074e-06 3.743647e-05

mlp.mlp.8.weight f4 [1, 64]
00000000: bd6a fe3d 39b3 6d3e 4771 573e ffde 563d
00000010: 50f2 323d 46d4 423c cfe9 7d3d cfab f93d
00000020: 4cf1 3a3e 4b22 4e3e 4fb5 ca3c d20d 7b3d
00000030: 8ec7 603e 6ebd 6f3e 4fa0 5c3e 0609 b23d
00000040: c251 cb3d aa72 103d dd2c b1bc ace8 003d
00000050: d58b 703e 1708 113e 4b79 fe3c 14f9 20bb
00000060: 2edd 133e fc4c 133e 9993 693e b9ab 61bb
00000070: 5ad0 a6bc 49cd 383e 401f 283e 4382 b0bb
00000080: e73f 733e 6ea8 153e 071d ed3d 78b4 0f3e
00000090: bb78 4d3e f0bb 353e 9aa6 873d 63e2 2f3e
000000a0: 085f 8d3d 59d9 243e e9ff bfbc 241c 763e
000000b0: 2828 8a3d d684 3a3e 160f f13d 482f 273e
000000c0: ba87 573e a5df 533e 8910 583e 6a59 663e
000000d0: bb94 613d 51d2 223d ddf1 6a3e 9ba4 aabc
000000e0: 01c7 243d cbba 183e 2e1e 90bc 79bc a83d
000000f0: bc5a 753d 07af 343e 886f 883d 7f0e 023e
0.124227025 0.232129 0.21039306 0.05245876 0.04368812 0.01189143 0.061990555 0.12190973
0.1825611 0.20130269 0.024744658 0.061292477 0.21951124 0.23412105 0.21545528 0.08693127
0.099277034 0.035265602 -0.021627838 0.031471893 0.23490842 0.14163242 0.031063696 -0.0024562525
0.14439842 0.14384836 0.2281021 -0.003443463 -0.020363022 0.1804706 0.16418171 -0.005386622
0.23754846 0.14615032 0.11577802 0.14033687 0.20065586 0.17747474 0.066235736 0.17176203
0.069028914 0.16098537 -0.023437457 0.24034172 0.067459404 0.18214735 0.117704555 0.1632663
0.2104787 0.20690782 0.21100058 0.22495046 0.05507348 0.039751355 0.22943826 -0.020830443
0.040228847 0.14915006 -0.017592516 0.08239073 0.059900984 0.17644893 0.06661898 0.12700842
