model/dfm_epoch_150.pt (torch, 79687 bytes, 15 tensors)

embedding.embedding.weight f4 [98, 32]
000000 71 5e 9e 3d ef 3d 35 bd cf 2a 3d 3c a1 54 8c bc
       0.07732857 -0.044248518 0.011545851 -0.017130198
000010 fe 3e 77 3d 3c 62 f4 bd b5 6e 39 bd 1f 55 68 3c
       0.06036281 -0.11932799 -0.045271594 0.014180451
000020 56 39 d5 bb 0b 84 74 bd 86 23 05 bd c8 bc e3 3d
       -0.006507079 -0.05969624 -0.03250458 0.111199915
000030 e5 d3 91 3d c7 b3 c3 3c 5c 92 5f bd 31 ea 3a bc
       0.07120494 0.023889435 -0.05458294 -0.011408375
000040 8b c5 9c bd 15 36 16 3d f4 92 2a 3c 81 23 9c 3d
       -0.07654866 0.03667267 0.010411013 0.07623959
000050 45 a1 86 3d c4 a3 81 bd 8c 42 ab 3c 6f 28 d3 bd
       0.065737285 -0.06330064 0.020905755 -0.103104465
000060 96 05 41 bd 74 be 1b 3d 30 cf e5 bc 66 ac bc bd
       -0.047124468 0.038023427 -0.028052896 -0.0921257
000070 91 42 88 3d d8 08 22 3d a4 69 b0 3d 6e 9d a8 3d
       0.066533215 0.039559215 0.08613899 0.08233152
000080 56 57 aa 3d 91 50 43 bd 13 22 4c 3c e7 72 97 bc
       0.08317439 -0.047684256 0.012459296 -0.018487407
000090 c5 14 85 3d 62 60 03 be db c5 47 bd 44 2f 7b 3c
       0.06498102 -0.12829736 -0.048772674 0.015331093
0000a0 ea bc e6 bb 11 9d 83 bd 8e 8c 0f bd 18 dc f4 3d
       -0.0070415633 -0.064264424 -0.035046153 0.11956042
0000b0 ae e8 9c 3d 2b 3c d3 3c bf 98 70 bd e0 9d 49 bc
       0.07661568 0.025785526 -0.05873942 -0.012305707
0000c0 b1 a6 a8 bd 82 f8 21 3d 93 75 38 3c 3d fe a7 3d
       -0.08234919 0.039543636 0.011258501 0.08202789
0000d0 4e e4 90 3d e6 84 8b bd 73 e7 b8 3c 72 0c e3 bd
       0.07074796 -0.06812458 0.022571301 -0.11086358
0000e0 0c f8 4f bd 1c db 27 3d 58 03 f8 bc b2 e3 ca bd
       -0.050773665 0.040980443 -0.030275032 -0.09906711
0000f0 54 a5 92 3d 0e 8a 2e 3d f1 b9 bd 3d ce 5e b5 3d
       0.0716044 0.042612128 0.09263981 0.08855973
000100 6d 6f cf 3d 0a ab 6d bd 76 6a 78 3c 43 36 b8 bc
       0.10128675 -0.058024444 0.015162101 -0.022486812
000110 34 f2 a1 3d b8 e6 1f be 21 2d 73 bd 9e 9e 98 3c
       0.07907525 -0.15615356 -0.05936921 0.018630322
000120 26 33 0c bc 01 3e a0 bd 56 b5 2e bd 3d 04 15 3e
       -0.008557117 -0.07824326 -0.042653404 0.14552398
000130 e6 fd be 3d 33 7b 00 3d 9b 7a 92 bd e0 6c 75 bc
       0.09325771 0.031367492 -0.071522914 -0.014979571
000140 2e 58 cd bd 92 17 45 3d 7d 1d 60 3c 8c 82 cc 3d
       -0.100265846 0.04811818 0.013678906 0.09985837
000150 9d 6a b0 3d 6d e4 a9 bd 8f e9 e0 3c a1 33 0a be
       0.08614085 -0.08295522 0.02745512 -0.13496257
000160 0c 16 7d bd d2 50 4c 3d 06 d7 16 bd 13 0c f7 bd
       -0.061788604 0.049881764 -0.036826156 -0.1206285
000170 3c 86 b2 3d 6c 83 54 3d 10 fc e6 3d be cf dc 3d
       0.087170094 0.051883146 0.11278546 0.10781811
000180 0a dd d0 3c 3f 2a 6e bc b8 1d 77 3b 7d af b7 bb
       0.025496025 -0.014536439 0.0037706923 -0.0056056366
000190 f1 cd a2 3c b9 cb 21 bd 76 9e 73 bc 80 0d 98 3b
       0.019873591 -0.039500926 -0.014869323 0.004640281
0001a0 76 53 0b bb 6a ed a0 bc 86 9c 2e bc 6e ae 16 3d
       -0.0021259463 -0.019644458 -0.010657435 0.036787443
0001b0 c4 3d c0 3c d6 31 00 3c f7 0b 93 bc df 23 74 bb
       0.023466952 0.007824382 -0.017950041 -0.0037252826
0001c0 c4 c1 ce bc 6c 29 45 3c b9 4f 5f 3b f9 ee cd 3c
       -0.025238879 0.0120338015 0.0034074618 0.025138365
0001d0 b7 57 b1 3c 4a b4 aa bc 2a 40 e0 3b 69 9b 0b bd
       0.021648271 -0.020837922 0.0068435865 -0.034083758
0001e0 9c ba 7d bc d8 6b 4c 3c bc a7 16 bc 85 36 f9 bc
       -0.015486386 0.012476884 -0.009195264 -0.030421505
0001f0 3f 86 b3 3c 17 ac 54 3c 99 e6 e8 3c 72 86 de 3c
       0.0219146 0.012980483 0.02843027 0.027163718
000200 61 b1 18 3d 2e 01 af bc 65 69 b7 3b a3 ee 07 bc
       0.037278537 -0.021362867 0.005597281 -0.0082966415
000210 83 85 ee 3c ed d9 6b bd ad 01 b3 bc 1f 3f e1 3b
       0.029116398 -0.057580877 -0.021851385 0.0068739797
000220 61 30 4f bb f1 db eb bc 96 b0 80 bc 95 b8 5b 3d
       -0.003161453 -0.0287914 -0.015709203 0.053642828
000230 6c a2 0c 3d c4 6a 3d 3c 7c ae d7 bc 76 37 b5 bb
       0.034334585 0.011561099 -0.026328318 -0.005530293
000240 ea 29 17 bd 21 26 91 3c 70 79 a5 3b c4 8f 16 3d
       -0.036905207 0.017718377 0.005049877 0.0367582
000250 a9 d6 01 3d db 0c fa bc b2 d7 25 3c 7e ab 4b bd
       0.031698857 -0.030523708 0.010122227 -0.049724095
000260 bd 56 ba bc d2 72 96 3c 68 50 5e bc 03 ef 35 bd
       -0.022746438 0.018365297 -0.013568975 -0.044417392
000270 4e 69 03 3d 0e 79 9c 3c fb 1b 2a 3d 08 96 22 3d
       0.03208285 0.019100692 0.04153059 0.039693862
000280 8e 6c d5 3b f1 d8 73 bb 4c ce 7d 3a f7 77 bc ba
       0.006513185 -0.0037208165 0.0009681925 -0.0014379014
000290 4b 7c a6 3b 9d 0d 25 bc 27 6e 79 bb 0e 17 9c 3a
       0.005080735 -0.010074046 -0.003806004 0.0011908726
0002a0 b6 2c 0f ba e9 99 a4 bb d1 f5 32 bb d4 be 19 3c
       -0.00054616795 -0.0050232303 -0.0027307163 0.009383876
0002b0 88 7b c4 3b 1f 7d 03 3b 7a 73 96 bb 90 c5 7a ba
       0.0059961714 0.0020063592 -0.0045914026 -0.0009566182
0002c0 2d 46 d3 bb 6e fe 49 3b 50 37 65 3a 7b 6d d2 3b
       -0.0064475746 0.0030821818 0.0008743899 0.0064217425
0002d0 ac 53 b5 3b 4b 8f ae bb b2 15 e6 3a a5 7d 0e bc
       0.005533656 -0.0053271404 0.0017554073 -0.008696948
0002e0 61 de 81 bb 57 6b 51 3b 43 77 1a bb c5 7b fe bb
       -0.003963277 0.0031954849 -0.002356962 -0.0077662193
0002f0 ee 89 b7 3b b3 d8 59 3b 94 e1 ed 3b b6 50 e3 3b
       0.0056011593 0.0033240735 0.007259557 0.0069371117
000300 38 5c 81 3d 90 9e 14 bd 38 af 1b 3c 4f f3 66 bc
       0.063164175 -0.03628403 0.009502225 -0.014096095
000310 30 48 4a 3d 20 ee c6 bd 7c fa 17 bd 87 5f 3f 3c
       0.04938525 -0.097133875 -0.037104115 0.01168049
000320 13 ce af bb 49 0b 48 bd de ae da bc cc 75 b9 3d
       -0.005365142 -0.048838887 -0.026694711 0.09055671
000330 53 14 6e 3d 77 f3 a0 3c d4 11 37 bd 72 d5 19 bc
       0.05812485 0.019647343 -0.044694737 -0.009389268
000340 25 14 80 bd 8c 69 f6 3c ea a1 0c 3c c3 12 7f 3d
       -0.06253842 0.030079626 0.008583525 0.062273752
000350 ee 3f 5c 3d f6 f2 53 bd 99 e5 8c 3c ad 12 ac bd
       0.053771906 -0.051745377 0.017199324 -0.084019996
000360 9c 3d 1e bd 3a a7 ff 3c 86 e8 bc bc ff da 99 bd
       -0.038632974 0.03120767 -0.023060095 -0.07512473
000370 47 e3 5e 3d a6 ea 04 3d 05 02 90 3d e3 9f 89 3d
       0.054415967 0.03245034 0.07031635 0.06719949
000380 b7 ac 70 3d b7 95 09 bd b2 5a 0f 3c f2 b5 54 bc
       0.058758464 -0.033590045 0.008749651 -0.012982832
000390 f9 cf 3b 3d f9 e2 b9 bd f5 ce 0c bd 49 23 30 3c
       0.045852635 -0.09076495 -0.034377057 0.0107506
0003a0 8c 9e a1 bb 43 ba 39 bd 84 ff c9 bc 90 30 ad 3d
       -0.0049322303 -0.04534365 -0.024657972 0.08456528
0003b0 1f b9 5d 3d 71 6a 94 3c 86 bb 29 bd ea 93 0d bc
       0.054131623 0.018117161 -0.041438602 -0.0086412225
0003c0 9d 44 6e bd d1 1e e4 3c fd 47 01 3c 03 57 6d 3d
       -0.058170903 0.027846726 0.0078906985 0.05794431
0003d0 74 8b 4c 3d a7 fe 44 bd 47 db 81 3c 4b 8e a0 bd
       0.04993768 -0.048094418 0.01585163 -0.0783964
0003e0 6a 89 12 bd c1 5a ec 3c 29 55 ae bc b8 6e 8f bd
       -0.03577558 0.028851869 -0.021280842 -0.0700354
0003f0 85 08 4f 3d 33 e9 f5 3c 2c 13 86 3d de 28 80 3d
       0.050545234 0.030018425 0.065466255 0.06257795

linear.fc.weight f4 [98, 1]
000000 f8 45 fe 3e c6 67 07 3f 31 a8 15 3f 6b 73 26 3e
       0.49662757 0.5289272 0.58459765 0.16254966
000010 fb 96 6a 3e 4c fa 4b 3d 4b f6 a3 3e 21 cd 97 3e
       0.22909157 0.04979925 0.32023844 0.29648688
000020 0f 41 9a 3d 2e 5a e3 3c 47 10 ea 3c 35 1a db 3c
       0.0753194 0.027752962 0.028572215 0.026745895
000030 ab 7f 5a 3c b3 dd 4f 3c 63 24 46 3c ad 9e 43 3c
       0.0133361025 0.012687135 0.012093636 0.011939687
000040 e8 b9 4a 3e a6 ec 0e 3e 62 07 29 3e 8d c2 1b 3e
       0.1979748 0.13957462 0.16506723 0.15210934
000050 a3 56 40 3e 38 f3 51 3e f7 45 33 3e 21 22 f5 3c
       0.1878305 0.20502937 0.17507158 0.0299235
000060 38 5a bd 3c 17 84 ae 3c bc 90 cb 3c 3f a8 f2 3c
       0.023114309 0.02130322 0.024849288 0.029621242
000070 08 59 08 3d 42 87 c9 3c 4c 89 00 3c d1 d8 2c 3b
       0.03328803 0.024600629 0.007845234 0.002637435
000080 21 92 d7 3c 1f 66 54 3c c6 71 10 3a 47 74 a4 39
       0.026314797 0.012963801 0.00055101176 0.0003136715
000090 d2 5b 51 3a 64 97 44 3c e1 08 1e 39 86 a9 92 3b
       0.00079863996 0.011998985 0.00015071362 0.004475775
0000a0 59 55 a4 3b a1 73 86 3a 5b 79 d0 3b c8 86 0d 3d
       0.005015057 0.0010257849 0.006362123 0.034552366
0000b0 d6 af 06 3d 07 f9 81 3b d4 b7 8c 3c 73 78 cc 3c
       0.032882534 0.003966454 0.0171775 0.024959778
0000c0 59 97 2a 3b 74 8e cc 3c f6 f7 9a 3c 96 87 84 3b
       0.0026030152 0.02497027 0.018917065 0.0040444834
0000d0 96 86 17 3b 03 c5 e9 3b 1c 82 90 3a bc 50 16 3b
       0.002312099 0.0071340813 0.0011025104 0.0022936305
0000e0 61 cb d7 3c 89 64 ea 3a 4c f2 01 3d 70 92 9c 3c
       0.026342096 0.0017882745 0.031725213 0.019112796
0000f0 b7 a2 cc 3b d9 8b b3 3b 5a 4d b8 3c 2d bb 41 3b
       0.006244983 0.0054793176 0.022497822 0.0029561028
000100 54 89 46 3b ca b6 8f 39 ab 66 1f 3a bd 90 80 3c
       0.0030294256 0.00027411274 0.00060806674 0.015694017
000110 05 af 15 3d a5 b8 90 3c 15 d6 4c 3c 9e 7e 33 3c
       0.036543865 0.01766617 0.012502213 0.010955481
000120 ac 84 8c 3b db 58 08 3c 2a 36 08 3a a9 07 11 3d
       0.0042882767 0.008321966 0.00051960594 0.035407696
000130 8f c0 c3 3a d9 49 79 38 05 74 c6 3c fd d0 0f 3d
       0.0014934706 5.9435002e-05 0.024225244 0.035111416
000140 07 99 bb 3c 4e c0 b0 3c aa 3b 7a 3b 85 93 bd 3a
       0.022900118 0.021576073 0.0038182535 0.001446352
000150 07 a9 14 3d d6 00 0b 3d 1d 23 8c 3c a2 c5 95 3b
       0.03629401 0.033936344 0.017106587 0.004570679
000160 c4 66 08 3c a0 8d 90 3c 91 62 c3 3c 16 0e 20 3c
       0.0083252825 0.017645657 0.023850711 0.009768983
000170 01 aa 02 3c c4 4d 50 3c 4b 7c 33 3c 68 5a 05 3c
       0.007975102 0.012713853 0.010954927 0.00813923
000180 a2 06 f7 39 be d7 7b 3c
       0.00047116453 0.015371261

mlp.mlp.0.weight f4 [64, 160]
000000 a0 07 05 80 a6 6b 21 80 01 db 01 00 2c 63 4e 80
       -4.61913e-40 -3.069188e-39 1.70399e-40 -7.198745e-39
000010 d9 3e 03 80 64 6c 0f 80 85 a2 0b 00 b1 63 0f 80
       -2.98052e-40 -1.416416e-39 1.068491e-39 -1.413295e-39
000020 62 ec 1c 80 44 b4 33 80 ed 57 0b 00 c9 b8 3b 00
       -2.656192e-39 -4.748277e-39 1.041732e-39 5.484583e-39
000030 6c 66 36 00 58 8f 52 80 f6 5d 07 80 0f e3 1d 80
       4.995859e-39 -7.581933e-39 -6.76555e-40 -2.744683e-39
000040 30 fc 14 80 9f e4 31 00 67 a6 33 80 11 4c 1d 00
       -1.927178e-39 4.581953e-39 -4.743304e-39 2.690517e-39
000050 54 b8 0b 80 bc fd 4e 80 79 7f 15 00 62 dd 17 00
       -1.076315e-39 -7.254191e-39 1.974274e-39 2.191634e-39
000060 1f 74 0e 00 6e ac 19 00 3e cd 35 80 98 7c 31 00
       1.327353e-39 2.357744e-39 -4.940908e-39 4.544635e-39
000070 22 c6 09 00 d0 95 13 80 e8 66 35 00 af c5 40 80
       8.97596e-40 -1.798617e-39 4.904197e-39 -5.948387e-39
000080 f2 29 4c 80 13 da 34 80 34 df 0b 00 9b f3 0b 80
       -6.994545e-39 -4.853676e-39 1.09026e-39 -1.09758e-39
000090 46 6b 4d 80 a1 86 28 80 0f 5c 20 80 7e 47 2c 80
       -7.109816e-39 -3.721716e-39 -2.97176e-39 -4.066408e-39
0000a0 a7 f8 31 00 ae 4f 09 00 0f 48 3a 00 2d 50 4e 00
       4.589139e-39 8.55103e-40 5.352309e-39 7.19193e-39
0000b0 ef e7 2a 80 f4 a3 41 80 84 7b 0f 80 f8 ab 45 00
       -3.940293e-39 -6.028123e-39 -1.421841e-39 6.39834e-39
0000c0 80 05 41 00 64 5d 31 00 32 7f 39 80 07 ae 33 00
       5.97128e-39 4.533442e-39 -5.280252e-39 4.74604e-39
0000d0 6d d9 0c 80 3d 6f 38 80 88 f4 37 00 6c be 12 00
       -1.180024e-39 -5.182693e-39 5.138674e-39 1.72135e-39
0000e0 8f 78 2b 80 42 be 50 00 a9 a1 07 80 39 85 25 80
       -3.992175e-39 7.415091e-39 -7.00841e-40 -3.445705e-39
0000f0 91 94 24 80 c8 98 1c 80 4a 9e 15 00 bd 4f 4c 80
       -3.359373e-39 -2.626201e-39 1.985329e-39 -7.008102e-39
000100 3b b7 2d 80 3e 46 20 00 b7 d7 02 80 a2 7f 25 80
       -4.198328e-39 2.963934e-39 -2.61055e-40 -3.4437e-39
000110 b8 fb 27 00 35 6b 3f 80 6b e4 3e 00 11 a7 02 80
       3.671884e-39 -5.824095e-39 5.775742e-39 -2.43603e-40
000120 4d ef 29 00 81 4c 50 00 22 86 15 00 7a bc 33 00
       3.8511e-39 7.374284e-39 1.976663e-39 4.751223e-39
000130 d7 49 46 80 ae fe 25 80 ff a8 4e 80 36 17 0f 00
       -6.454973e-39 -3.489275e-39 -7.223793e-39 1.385859e-39
000140 8f a1 3c 00 59 06 16 80 a8 71 12 80 b1 d8 3b 00
       5.568086e-39 -2.022658e-39 -1.693811e-39 5.496029e-39
000150 da c3 06 00 d3 82 42 00 f8 f1 34 80 1b 23 35 80
       6.21271e-40 6.108074e-39 -4.862248e-39 -4.879875e-39
000160 e2 e0 52 80 f2 d3 48 80 91 05 4e 80 09 72 16 00
       -7.611183e-39 -6.688187e-39 -7.165166e-39 2.061289e-39
000170 14 0a 39 80 8d 05 23 80 97 5f 4d 00 0e 3d 38 00
       -5.238239e-39 -3.216234e-39 7.105624e-39 5.16469e-39
000180 45 85 4d 00 2a a8 3c 80 ea 2a 4f 00 e4 3d 09 80
       7.119141e-39 -5.570456e-39 7.270399e-39 -8.48722e-40
000190 bd 42 35 80 c0 0a 4b 80 db 88 22 00 4e 3a 3b 00
       -4.891222e-39 -6.891519e-39 3.171501e-39 5.43921e-39
0001a0 16 2c 34 00 d3 f9 24 00 6b 61 3f 80 01 30 21 00
       4.791261e-39 3.395698e-39 -5.820583e-39 3.047792e-39
0001b0 8e 93 35 00 95 92 16 00 90 f0 1d 00 63 32 13 80
       4.920214e-39 2.072965e-39 2.749527e-39 -1.76295e-39
0001c0 f4 cd 09 00 a0 72 50 80 97 39 23 00 89 6f 41 00
       9.00402e-40 -7.38796e-39 3.234902e-39 6.009319e-39
0001d0 c2 0c 52 80 6c c1 32 80 b9 70 35 00 e1 1b 2c 80
       -7.535087e-39 -4.661162e-39 4.907719e-39 -4.050763e-39
0001e0 85 7f 00 00 e4 9c 1c 80 bd 3d 23 80 69 93 1d 00
       4.5745e-41 -2.627676e-39 -3.23639e-39 2.71611e-39
0001f0 ff f2 2e 00 ec 8e 26 80 f0 26 1b 00 e6 5f 27 00
       4.311603e-39 -3.54102e-39 2.493527e-39 3.615986e-39
000200 53 21 07 00 c1 0e 40 00 b6 6a 07 80 d7 34 00 80
       6.54803e-40 5.882764e-39 -6.81129e-40 -1.8955e-41
000210 86 d3 49 00 35 66 06 80 b1 e6 4e 80 52 54 06 80
       6.779872e-39 -5.87678e-40 -7.245925e-39 -5.81261e-40
000220 7c a2 51 80 d8 a2 48 00 3d 01 05 80 b2 5a 2b 80
       -7.496964e-39 6.670573e-39 -4.59622e-40 -3.981462e-39
000230 c0 ab 33 80 d9 65 0e 80 9b ad 34 80 2e e2 01 80
       -4.745223e-39 -1.322233e-39 -4.837724e-39 -1.72973e-40
000240 6f a0 14 00 03 37 44 80 a5 a2 3d 80 8b 51 0b 80
       1.894263e-39 -6.264548e-39 -5.660311e-39 -1.039443e-39
000250 7e 35 24 80 1e 26 26 00 d8 66 22 00 04 4d 2c 80
       -3.325267e-39 3.503423e-39 3.1593e-39 -4.06839e-39
000260 43 ba 05 80 42 c8 1e 00 ab 48 4c 00 61 57 3d 80
       -5.25996e-40 2.826904e-39 7.005566e-39 -5.633311e-39
000270 a1 4e 1e 00 8c 48 49 00 2f 13 37 00 72 df 2c 80
       2.783272e-39 6.730016e-39 5.057834e-39 -4.120919e-39
000280 6d c0 2e 80 df 4c 16 00 3c 7e 36 80 25 bd 34 80
       -4.293462e-39 2.047957e-39 -5.004401e-39 -4.843298e-39
000290 13 36 27 00 ca 7c 43 00 4e 3e 20 00 2a f6 07 80
       3.600983e-39 6.197744e-39 2.961087e-39 -7.31155e-40
0002a0 44 ef 52 00 cc c3 0b 00 44 4a 4c 80 32 6c 38 80
       7.616343e-39 1.080429e-39 -7.006139e-39 -5.181601e-39
0002b0 dc 8c 19 80 9c cf 01 00 cc 76 44 00 45 64 06 80
       -2.346418e-39 1.66312e-40 6.28743e-39 -5.86983e-40
0002c0 24 4f 1d 00 2e 01 0b 00 f6 28 39 80 a3 f9 3a 80
       2.69162e-39 1.010614e-39 -5.249317e-39 -5.416012e-39
0002d0 bd 95 0c 80 f5 14 35 80 6c 85 08 80 59 ca 00 80
       -1.155742e-39 -4.874799e-39 -7.82547e-40 -7.2589e-41
0002e0 e2 dc 1d 80 54 84 03 00 17 77 06 80 67 f7 32 80
       -2.742467e-39 3.22977e-40 -5.93734e-40 -4.680526e-39
0002f0 19 9f 2e 80 47 74 2a 00 41 ff 2a 00 dc 8d 50 80
       -4.281506e-39 3.898803e-39 3.948659e-39 -7.397729e-39
000300 82 a0 03 00 e0 b3 0a 00 13 9b 08 00 fe ee 50 80
       3.33086e-40 9.82882e-40 7.90314e-40 -7.432574e-39
000310 d9 50 47 00 59 74 03 00 cb 44 12 80 db 80 00 80
       6.549323e-39 3.17244e-40 -1.677717e-39 -4.6225e-41
000320 6b a3 4e 80 50 02 4f 00 b1 88 33 00 dd de 1b 00
       -7.221792e-39 7.255834e-39 4.732646e-39 2.559507e-39
000330 2f a5 4b 00 a7 9e 01 00 14 6e 27 00 9c 44 52 80
       6.946919e-39 1.48749e-40 3.621073e-39 -7.555123e-39
000340 b9 b9 13 00 34 8d 39 80 6e df 13 00 8e 41 0f 00
       1.811499e-39 -5.285277e-39 1.825026e-39 1.401049e-39
000350 5b 5b 50 00 e4 ee 31 80 cc a3 1a 80 4b 9b 44 00
       7.379612e-39 -4.585637e-39 -2.446482e-39 6.300522e-39
000360 ba 51 4e 00 1c 8f 4e 80 27 b7 2b 80 24 45 12 00
       7.192487e-39 -7.214507e-39 -4.014629e-39 1.677842e-39
000370 9b e9 34 80 12 cb 1d 80 38 49 2b 00 3b 70 4c 00
       -4.859248e-39 -2.736077e-39 3.975192e-39 7.019758e-39
000380 66 03 10 80 d7 dc 2a 00 4e a4 31 00 ca 5f 18 80
       -1.470587e-39 3.936313e-39 4.558881e-39 -2.238415e-39
000390 89 0f 17 80 d2 f1 47 00 cd fd 38 80 37 a6 25 00
       -2.11779e-39 6.607069e-39 -5.233834e-39 3.45754e-39
0003a0 ed 79 14 00 77 d7 10 00 17 54 49 00 51 ab 12 80
       1.880449e-39 1.546662e-39 6.734157e-39 -1.714496e-39
0003b0 89 9e 50 80 b2 0b 3d 80 54 27 2a 00 02 3e 11 80
       -7.403711e-39 -5.606161e-39 3.871199e-39 -1.583448e-39
0003c0 51 1d 33 80 30 ae 36 80 cd a8 28 80 e4 3a 48 80
       -4.694127e-39 -5.021603e-39 -3.733974e-39 -6.633282e-39
0003d0 03 ec 50 00 fe ed 38 80 6f d2 51 80 5a ad 16 00
       7.431505e-39 -5.228163e-39 -7.514165e-39 2.082568e-39
0003e0 91 18 42 80 ad ec 50 00 89 2f 21 80 46 1d 34 00
       -6.069956e-39 7.431743e-39 -3.047624e-39 4.785947e-39
0003f0 f2 db 49 80 d0 82 10 80 ac ad 4d 80 81 3a 0b 80
       -6.782893e-39 -1.516295e-39 -7.133635e-39 -1.031178e-39

mlp.mlp.0.bias f4 [64]
000000 1b 48 04 00 a5 02 4e 00 c3 9f 06 00 ce 15 0f 80
       3.93209e-40 7.164117e-39 6.08325e-40 -1.385354e-39
000010 26 fb 3c 80 aa 1c 40 80 18 84 d0 b2 53 18 51 80
       -5.600225e-39 -5.887754e-39 -2.4274456e-08 -7.447401e-39
000020 30 74 4c 80 89 0e 15 00 a3 ef 48 80 f2 ae 9a b3
       -7.021178e-39 1.93376e-39 -6.698121e-39 -7.203006e-08
000030 a1 d7 e1 34 3c fb 05 00 a9 85 4c 80 52 44 08 80
       4.2066407e-07 5.49303e-40 -7.027446e-39 -7.59193e-40
000040 7a f6 50 00 6d ea 0a 00 d6 21 48 80 17 99 13 00
       7.435259e-39 1.002451e-39 -6.624294e-39 1.799793e-39
000050 76 eb 51 98 ab 59 07 80 48 46 be 32 7b f5 89 b3
       -2.7131494e-24 -6.75015e-40 2.2150871e-08 -6.424212e-08
000060 9b 5a 50 80 f0 be 15 80 01 ea 2d 80 88 84 0f 34
       -7.379343e-39 -1.997041e-39 -4.216542e-39 1.3366127e-07
000070 a3 54 0a 80 59 cf 0b 00 de 5b 2b b4 00 58 4c 00
       -9.48717e-40 1.084573e-39 -1.5959037e-07 7.011066e-39
000080 33 cb 10 33 4c 1e 29 00 02 13 ea b2 8b 5b 06 80
       3.371242e-08 3.776124e-39 -2.7249829e-08 -5.83852e-40
000090 c5 b0 0e 80 f9 90 84 32 16 35 42 80 79 30 43 00
       -1.34911e-39 1.5432748e-08 -6.080186e-39 6.170367e-39
0000a0 14 41 4a 00 98 81 50 00 86 a8 3c 80 e3 6e 9a 30
       6.819172e-39 7.393329e-39 -5.570585e-39 1.1236491e-09
0000b0 9d cc 22 00 02 ab 17 00 99 dc 4c 80 69 a5 06 00
       3.195808e-39 2.173562e-39 -7.058633e-39 6.10351e-40
0000c0 74 98 51 00 ae 17 46 80 eb 03 4e 80 f2 8b d1 33
       7.493365e-39 -6.43698e-39 -7.164574e-39 9.757777e-08
0000d0 c4 42 19 00 21 08 42 00 d7 68 2e a7 ea b4 27 80
       2.319838e-39 6.064059e-39 -2.4204185e-15 -3.646484e-39
0000e0 7e d2 37 00 a8 47 03 33 58 db 0c 80 68 e4 af 33
       5.126463e-39 3.0565985e-08 -1.180712e-39 8.1906194e-08
0000f0 49 23 3b 34 f6 c6 4c b3 a5 e8 ab 32 2c f2 3d 80
       1.7428569e-07 -4.7678405e-08 2.0012815e-08 -5.68884e-39

mlp.mlp.1.weight f4 [64]
000000 ad 23 1d 80 c7 80 0f 80 58 fc 4f 80 a5 cc 4e 80
       -2.676027e-39 -1.423729e-39 -7.345528e-39 -7.236581e-39
000010 13 4a 1a 00 83 6a 18 80 27 09 12 3d 1f 71 46 00
       2.414296e-39 -2.242261e-39 0.03565326 6.469065e-39
000020 af f1 02 80 cd 2b 49 00 5b 8f 3b 00 81 b1 20 3d
       -2.70371e-40 6.719704e-39 5.46972e-39 0.03923178
000030 ce be 0d 3d 3f 77 0f 00 f7 73 4a 00 d0 24 0d 80
       0.034605794 1.42031e-39 6.837427e-39 -1.207067e-39
000040 25 44 31 80 0c 71 29 00 fb 80 3c 00 6a 21 51 80
       -4.524385e-39 3.805809e-39 5.556399e-39 -7.450662e-39
000050 c7 41 a4 a2 e5 cd 15 00 ad 56 1f 3d f3 7c 12 3d
       -4.4521934e-18 2.002406e-39 0.03890102 0.035763692
000060 69 41 0d 80 87 3f 36 80 11 7c 44 80 0a ca 20 3d
       -1.217326e-39 -4.981906e-39 -6.28932e-39 0.03925518
000070 fc e4 23 80 4c 33 24 00 c2 79 15 3d 3e 8c 44 00
       -3.296386e-39 3.32448e-39 0.03649307 6.295123e-39
000080 88 86 21 3d d6 12 33 86 a8 b0 0d 3d c2 4b 31 00
       0.03943494 -3.3679997e-35 0.0345923 4.527116e-39
000090 66 62 05 80 00 3c 17 3d ce 9e 23 80 9a c7 45 00
       -4.94476e-40 0.036922455 -3.271211e-39 6.408253e-39
0000a0 fd 0f 4f 80 45 85 21 80 9d 7e 21 00 3e 42 13 3d
       -7.26074e-39 -3.07838e-39 3.075992e-39 0.035951845
0000b0 d7 e5 28 00 27 65 22 80 2b 5b ee 85 c8 d6 09 80
       3.755871e-39 -3.158693e-39 -2.2414902e-35 -9.03568e-40
0000c0 1d d2 2f 80 31 c1 27 80 4b 9b 19 00 dc 31 0d 3d
       -4.391643e-39 -3.650888e-39 2.351596e-39 0.034471378
0000d0 e2 48 21 80 45 d9 2f 00 91 63 a6 b1 b8 85 49 80
       -3.056717e-39 4.39421e-39 -4.8425552e-09 -6.75196e-39
0000e0 1a 15 27 80 72 1c 11 3d 38 8c 27 00 44 11 0f 3d
       -3.589154e-39 0.03542752 3.631885e-39 0.034928575
0000f0 05 39 0b 3d 1d 05 12 3d 4c 47 16 3d 7e 55 31 00
       0.033989925 0.035649408 0.036689088 4.530608e-39

mlp.mlp.1.bias f4 [64]
000000 34 19 19 80 a5 91 25 80 1c 8c 3f 00 91 e5 07 80
       -2.304929e-39 -3.450161e-39 5.835898e-39 -7.25201e-40
000010 28 ac 51 80 b7 a6 45 80 17 5f b6 3c 9d c5 16 80
       -7.500433e-39 -6.396455e-39 0.02226214 -2.091271e-39
000020 e3 50 2e 80 c0 05 32 00 3b 33 2d 00 92 38 cd 3c
       -4.25345e-39 4.593838e-39 4.150975e-39 0.025051389
000030 1e 50 b1 3c 9e ad 35 00 1d 8e 3e 80 b5 82 24 00
       0.021644648 4.929563e-39 -5.744781e-39 3.352967e-39
000040 4c 7a 2e 00 9b 18 42 80 b7 d5 27 00 38 3c 49 80
       4.268305e-39 -6.06997e-39 3.658251e-39 -6.725594e-39
000050 2f cd 42 a1 ca 9a 4a 80 9f f5 ca 3c 23 83 b8 3c
       -6.6001315e-19 -6.851355e-39 0.024775324 0.022523468
000060 c8 0e 4c 80 81 08 46 80 22 fb 0e 80 22 2e cb 3c
       -6.9848e-39 -6.431535e-39 -1.375786e-39 0.024802271
000070 53 c4 42 80 5a 67 31 80 70 7f bc 3c 3c 4c 3f 80
       -6.13157e-39 -4.537015e-39 0.023009986 -5.812984e-39
000080 5f 68 ce 3c 3f f9 58 05 e0 f4 af 3c 9a fa 1a 00
       0.025196252 1.02020505e-35 0.02147907 2.477622e-39
000090 ac d5 3c 80 70 32 bd 3c 8f bb 3a 80 1f 5f 2f 00
       -5.586781e-39 0.02309534 -5.393742e-39 4.350391e-39
0000a0 f1 1d 10 00 20 71 4e 80 ad 49 23 00 ce f1 b7 3c
       1.480109e-39 -7.20375e-39 3.240672e-39 0.022454169
0000b0 75 06 0b 00 1a eb 4b 80 46 d4 0b 84 57 0a 08 80
       1.012507e-39 -6.972001e-39 -1.6436843e-36 -7.38393e-40
0000c0 7b 88 0b 00 be 2c 2b 80 4d cf 45 00 6c bb b0 3c
       1.05915e-39 -3.964977e-39 6.411015e-39 0.021573745
0000d0 fb ed 4d 00 c1 de 0a 80 88 2b b8 30 7d af 3e 00
       7.156705e-39 -9.98264e-40 1.3400134e-09 5.756754e-39
0000e0 6f a9 49 00 7c e3 b4 3c c1 e6 4d 00 32 d8 b1 3c
       6.764773e-39 0.02208113 7.154112e-39 0.021709535
0000f0 66 6e ad 3c ff 61 b6 3c aa 7b bc 3c 8c 88 11 80
       0.021170806 0.022263525 0.023008186 -1.610187e-39

mlp.mlp.1.running_mean f4 [64]
000000 45 f0 20 80 cc 59 0b 00 d7 50 38 80 ef 98 29 80
       -3.024928e-39 1.042404e-39 -5.171788e-39 -3.820118e-39
000010 bc fd 22 80 3f ef 3b 80 2f 01 3a bc c3 ff 03 80
       -3.21343e-39 -5.50412e-39 -0.011352821 -3.67257e-40
000020 64 32 2c 80 6e 0e 24 80 31 56 0b 80 bb fb 47 bc
       -4.058839e-39 -3.311254e-39 -1.04111e-39 -0.012206013
000030 78 bc 38 bc 25 75 2f 80 0b 65 3e 80 98 ce 25 80
       -0.011275403 -4.358292e-39 -5.730048e-39 -3.472025e-39
000040 af 22 24 00 09 78 4d 00 07 cc 0c 00 68 a2 14 80
       3.31852e-39 7.114394e-39 1.175217e-39 -1.89497e-39
000050 3f 04 20 a1 91 46 00 80 7e 20 48 bc 71 d9 3b bc
       -5.421573e-19 -2.5314e-41 -0.012214778 -0.011465416
000060 c8 ab 1b 80 72 20 1f 00 31 0c 22 80 89 bc 48 bc
       -2.541182e-39 2.85854e-39 -3.12678e-39 -0.0122519815
000070 e1 8e 01 80 77 7f 20 00 1f 53 3f bc e7 2d 01 80
       -1.43091e-40 2.984462e-39 -0.011677532 -1.08302e-40
000080 fa 89 48 bc 4d 6c 81 84 ec 32 37 bc 12 19 34 00
       -0.012239927 -3.0427213e-36 -0.011181574 4.78444e-39
000090 51 bf 38 00 19 3a 3f bc 88 47 2e 80 c9 b4 3d 00
       5.211419e-39 -0.011671566 -4.250093e-39 5.666819e-39
0000a0 cf 15 17 00 b4 8c 29 00 c8 5b 18 80 7c 5c 3c bc
       2.12004e-39 3.81573e-39 -2.236977e-39 -0.011496659
0000b0 72 f8 07 00 9b 51 0d 00 91 46 ae 81 f2 4b 26 80
       7.31974e-40 1.223136e-39 -6.4018763e-38 -3.516993e-39
0000c0 77 ec 51 00 66 38 24 80 7d 27 2a 80 e0 4b 35 bc
       7.523503e-39 -3.32631e-39 -3.871257e-39 -0.011065453
0000d0 f3 02 37 00 32 2f 30 00 9d a0 ba b0 42 19 05 80
       5.05201e-39 4.425034e-39 -1.357893e-09 -4.68238e-40
0000e0 64 75 2d 00 56 fb 39 bc 7c af 22 80 e4 4d 37 bc
       4.174709e-39 -0.011351427 -3.185359e-39 -0.011188004
0000f0 be 6c 35 bc 07 67 3b bc 5e e7 3d bc dd b8 16 80
       -0.011073289 -0.011438138 -0.011590807 -2.086697e-39

mlp.mlp.1.running_var f4 [64]
000000 04 00 00 00 04 00 00 00 04 00 00 00 04 00 00 00
       6e-45 6e-45 6e-45 6e-45
000010 04 00 00 00 04 00 00 00 28 6b 2a 37 04 00 00 00
       6e-45 6e-45 1.0157739e-05 6e-45
000020 04 00 00 00 04 00 00 00 04 00 00 00 08 72 40 37
       6e-45 6e-45 6e-45 1.1470642e-05
000030 f9 e2 2b 37 04 00 00 00 04 00 00 00 04 00 00 00
       1.024524e-05 6e-45 6e-45 6e-45
000040 04 00 00 00 04 00 00 00 04 00 00 00 04 00 00 00
       6e-45 6e-45 6e-45 6e-45
000050 ea 70 28 05 04 00 00 00 4a c5 3f 37 3a 86 2d 37
       7.920061e-36 6e-45 1.1430422e-05 1.0342856e-05
000060 04 00 00 00 04 00 00 00 04 00 00 00 66 dd 40 37
       6e-45 6e-45 6e-45 1.149564e-05
000070 04 00 00 00 04 00 00 00 74 4a 2f 37 04 00 00 00
       6e-45 6e-45 1.0448148e-05 6e-45
000080 9f 72 3f 37 04 00 00 00 71 1e 28 37 04 00 00 00
       1.14111745e-05 6e-45 1.0020668e-05 6e-45
000090 04 00 00 00 81 fc 31 37 04 00 00 00 04 00 00 00
       6e-45 1.0608813e-05 6e-45 6e-45
0000a0 04 00 00 00 04 00 00 00 04 00 00 00 32 42 2e 37
       6e-45 6e-45 6e-45 1.03866205e-05
0000b0 04 00 00 00 04 00 00 00 04 00 00 00 04 00 00 00
       6e-45 6e-45 6e-45 6e-45
0000c0 04 00 00 00 04 00 00 00 04 00 00 00 d8 d9 25 37
       6e-45 6e-45 6e-45 9.885487e-06
0000d0 04 00 00 00 04 00 00 00 fa f0 d3 22 04 00 00 00
       6e-45 6e-45 5.744681e-18 6e-45
0000e0 04 00 00 00 dd 73 2d 37 04 00 00 00 35 25 28 37
       6e-45 1.033858e-05 6e-45 1.0022243e-05
0000f0 80 5d 25 37 02 82 2e 37 93 a3 35 37 04 00 00 00
       9.856536e-06 1.0401478e-05 1.0826526e-05 6e-45

mlp.mlp.4.weight f4 [64, 64]
000000 0c 65 47 80 d6 e0 1b 00 1b 71 4d 80 ba 66 42 00
       -6.556569e-39 2.560214e-39 -7.111908e-39 6.097994e-39
000010 62 48 12 80 0d fb 47 80 26 d5 c3 3b 55 81 05 80
       -1.679005e-39 -6.61038e-39 0.005976337 -5.05573e-40
000020 0c 43 41 00 6e 6f 32 00 47 86 01 00 7b 0c dd 3b
       5.993359e-39 4.631748e-39 1.40005e-40 0.0067458726
000030 89 ef b7 3b 45 84 4e 00 6e d5 39 80 5f 3c 1c 80
       0.0056132716 7.210618e-39 -5.311187e-39 -2.593051e-39
000040 d7 9c 0f 80 da e9 4d 00 5d a6 36 80 88 4a 02 80
       -1.433796e-39 7.155223e-39 -5.018797e-39 -2.10408e-40
000050 26 a9 0d a1 9b 97 06 80 28 74 c7 3b 97 ac bd 3b
       -4.7996524e-19 -6.05399e-40 0.006086845 0.0057883966
000060 74 e2 03 80 fd df 1c 80 45 68 4e 80 cc 9e dd 3b
       -3.56743e-40 -2.651746e-39 -7.200574e-39 0.006763315
000070 63 27 07 00 33 fb 24 80 42 8c c4 3b 27 d1 3b 80
       6.56978e-40 -3.396191e-39 0.0059981653 -5.493324e-39
000080 da 01 db 3b 04 f4 06 85 4e a1 bb 3b b9 16 38 00
       0.0066835703 -6.345468e-36 0.005726016 5.150939e-39
000090 8d 11 53 80 5b 7c c5 3b 0f 0c 34 80 b1 2a 0c 00
       -7.628642e-39 0.006026787 -4.779772e-39 1.117341e-39
0000a0 84 6c 07 00 67 58 51 00 75 54 4a 00 16 89 bc 3b
       6.81777e-40 7.470388e-39 6.826124e-39 0.0057536466
0000b0 40 d5 34 80 fc 96 19 80 64 47 0c 84 8e 18 37 80
       -4.851945e-39 -2.35005e-39 -1.6489702e-36 -5.059761e-39
0000c0 de 3b 4e 80 96 4b 10 00 21 4f 1c 00 ee f6 ba 3b
       -7.184645e-39 1.496483e-39 2.59978e-39 0.005705706
0000d0 1e 09 39 00 e3 c5 26 80 b8 9a a5 af 21 1e 4e 00
       5.237894e-39 -3.560737e-39 -3.012326e-10 7.173977e-39
0000e0 4f ed 24 00 66 0c c4 3b 33 20 28 00 4d 04 bb 3b
       3.391208e-39 0.0059829233 3.684971e-39 0.0057073
0000f0 73 79 b0 3b 21 9f c7 3b 80 b3 c5 3b c3 f8 22 80
       0.0053855716 0.0060919677 0.006033361 -3.211646e-39
000100 a7 a6 51 00 9c 93 4c 80 76 97 4f 00 da 82 15 80
       7.498459e-39 -7.03245e-39 7.309338e-39 -1.975486e-39
000110 66 90 1b 00 78 c0 20 00 7f e0 cd 3b 9b db 49 80
       2.531359e-39 3.00778e-39 0.0062828655 -6.782771e-39
000120 7b 11 16 80 7f e9 2b 00 17 01 0c 00 9f 04 e5 3b
       -2.026652e-39 4.032689e-39 1.102417e-39 0.0069890763
000130 20 ca c4 3b b6 b9 01 80 24 a8 20 80 db 85 0d 80
       0.0060055405 -1.58456e-40 -2.999053e-39 -1.24188e-39
000140 cc 79 4e 80 f1 5a 4a 00 26 0a 32 80 2b c7 2f 80
       -7.206861e-39 6.82845e-39 -4.595415e-39 -4.387716e-39
000150 10 08 00 a1 33 a8 40 00 90 27 d1 3b cf 0b c5 3b
       -4.337876e-19 5.93781e-39 0.00638289 0.0060133706
000160 6d 5b 40 00 ac 91 53 00 10 13 31 00 b9 9e df 3b
       5.910269e-39 7.674603e-39 4.506778e-39 0.006824341
000170 8e 5c 23 00 0d 90 00 80 fd a3 d5 3b 0b db 11 00
       3.247445e-39 -5.1676e-41 0.006519793 1.639781e-39
000180 a1 68 ea 3b 5a 7d ca 84 29 8c bb 3b 92 ba 0f 80
       0.007153586 -4.760509e-36 0.0057234955 -1.444461e-39
000190 74 a2 43 80 e9 35 cf 3b ab 3a 27 80 e0 2e 0c 80
       -6.211255e-39 0.0063235653 -3.60263e-39 -1.118842e-39
0001a0 79 11 06 00 b4 19 37 00 cd 13 0c 00 5a 03 ca 3b
       5.57281e-40 5.060173e-39 1.109129e-39 0.0061649503
0001b0 77 f8 0e 80 c8 64 07 80 f5 3f 3a 84 eb 3e 26 80
       -1.37483e-39 -6.79002e-40 -2.1893563e-36 -3.51232e-39
0001c0 fa 16 38 80 c8 fd 50 00 f4 0b 4f 80 fa 59 c1 3b
       -5.15103e-39 7.437879e-39 -7.259292e-39 0.0059006186
0001d0 5b 12 42 80 0d 9a 49 00 5e c1 96 af c9 52 4e 80
       -6.067727e-39 6.759254e-39 -2.7422237e-10 -7.192866e-39
0001e0 dd 26 43 80 9f 76 cb 3b 32 88 39 80 c7 17 ca 3b
       -6.16692e-39 0.006209209 -5.283481e-39 0.0061673853
0001f0 98 2e b3 3b b1 ae c2 3b b5 fc cf 3b 54 dc 51 00
       0.005468201 0.005941235 0.0063472637 7.517714e-39
000200 3d 71 2c 80 7b 9e 00 00 7b e0 43 00 52 78 38 80
       -4.081384e-39 5.6852e-41 6.233507e-39 -5.18595e-39
000210 6c bd 40 00 a2 9a 3b 00 ea b8 c0 3b d5 e4 52 80
       5.945424e-39 5.473766e-39 0.0058814185 -7.6126e-39
000220 bc 5f 3f 00 2d b5 27 80 d6 d1 0b 80 f2 34 d6 3b
       5.819979e-39 -3.646578e-39 -1.085465e-39 0.0065370733
000230 fe c7 be 3b 24 13 4a 80 29 cb 05 80 e7 34 2d 80
       0.005822181 -6.802693e-39 -5.32058e-40 -4.151575e-39
000240 20 59 46 00 1a c2 47 80 98 98 14 80 22 9f 22 00
       6.460457e-39 -6.589951e-39 -1.89145e-39 3.179493e-39
000250 78 c1 03 a1 5e 8d 19 00 68 39 d3 3b d1 06 b6 3b
       -4.464058e-19 2.3466e-39 0.0064460523 0.005555012
000260 87 f6 00 00 51 e7 28 80 b2 bd 49 00 98 d0 d4 3b
       8.8437e-41 -3.7564e-39 6.772041e-39 0.006494593
000270 2f e2 34 80 e8 2a 2b 00 ff d3 c6 3b 75 47 24 80
       -4.856585e-39 3.964318e-39 0.0060677524 -3.331712e-39
000280 03 80 da 3b da 99 04 85 07 e2 c2 3b 9b 7b 2c 80
       0.006668092 -6.234868e-36 0.0059473547 -4.085103e-39
000290 00 17 45 80 0f c6 cd 3b 75 9a 33 80 4a ed 4e 00
       -6.3449e-39 0.006279714 -4.739019e-39 7.248292e-39
0002a0 53 6e 3b 80 05 5f 05 80 c7 96 4a 00 83 f2 c4 3b
       -5.457871e-39 -4.93264e-40 6.849915e-39 0.006010355
0002b0 1d 8e 15 00 a0 d7 35 00 5a 34 5d 84 c1 71 3d 00
       1.979526e-39 4.944633e-39 -2.6002464e-36 5.642772e-39
0002c0 d2 14 17 80 6c 50 2b 80 2d 1f 22 00 e2 ec bc 3b
       -2.119685e-39 -3.977776e-39 3.13359e-39 0.0057655433
0002d0 ef c8 1c 00 58 ab 0f 80 fd 8b bc af a5 da 0d 00
       2.643475e-39 -1.438999e-39 -3.4296468e-10 1.272296e-39
0002e0 c5 3b 1b 00 82 9d bf 3b 7f 12 22 80 82 7f b9 3b
       2.501e-39 0.005847634 -3.129042e-39 0.005660952
0002f0 44 01 ba 3b 0a 0e c8 3b 89 37 cb 3b a1 10 1e 00
       0.0056764204 0.006105189 0.0062016887 2.76103e-39
000300 03 38 34 00 b0 c0 27 80 82 10 10 80 ec 57 12 00
       4.795539e-39 -3.650708e-39 -1.47529e-39 1.68458e-39
000310 ea 3f 18 00 b9 1c 16 80 59 fe cc 3b c0 b7 12 80
       2.22698e-39 -2.030685e-39 0.0062559065 -1.718956e-39
000320 75 44 26 80 41 fc 37 00 41 ba 25 80 a2 72 d1 3b
       -3.514307e-39 5.141444e-39 -3.464729e-39 0.006391839
000330 b0 b4 c1 3b 0b bb 21 80 89 12 17 00 ce 2f 10 80
       0.005911432 -3.09767e-39 2.118866e-39 -1.486517e-39
000340 e3 85 07 00 b8 4e 1a 00 7f 8b 37 80 5e 3e 22 00
       6.90878e-40 2.415962e-39 -5.100994e-39 3.14478e-39
000350 2c fe e5 a0 25 40 2e 80 d1 cc de 3b 32 ab ca 3b
       -3.8962306e-19 -4.247444e-39 0.0067993184 0.006184959
000360 87 8e 37 00 42 4b 39 80 c3 1f 19 80 ec 48 d9 3b
       5.102081e-39 -5.26162e-39 -2.307281e-39 0.0066310074
000370 4e eb 1a 00 54 e3 46 00 b3 f4 c9 3b 95 2b 4c 00
       2.472134e-39 6.510035e-39 0.0061632036 6.995132e-39
000380 98 a6 d3 3b 6c 38 db 84 dc bd bb 3b 04 dd 20 80
       0.0064590685 -5.1538468e-36 0.00572942 -3.018021e-39
000390 9a f2 18 00 89 60 ca 3b 48 d8 4f 80 ad 8b 53 00
       2.291081e-39 0.0061760587 -7.332591e-39 7.672452e-39
0003a0 09 a3 14 00 2d 60 25 00 12 12 45 80 93 f1 ca 3b
       1.895196e-39 3.432415e-39 -6.343132e-39 0.0061933487
0003b0 74 f2 3e 00 97 81 4f 00 74 6a 4f 02 93 30 14 00
       5.780777e-39 7.301492e-39 1.5238509e-37 1.854135e-39
0003c0 8d 24 36 00 bd b1 01 00 29 84 4e 80 29 60 bd 3b
       4.972229e-39 1.55596e-40 -7.210579e-39 0.0057792854
0003d0 85 fb 3f 80 46 88 4d 80 74 fe b8 af 1c a5 1e 80
       -5.875864e-39 -7.120219e-39 -3.3650205e-10 -2.814295e-39
0003e0 bc 20 10 80 50 30 c6 3b a8 3f 4e 00 da f1 c6 3b
       -1.481111e-39 0.00604824 7.186004e-39 0.0060713114
0003f0 65 2b bc 3b 3e d4 cb 3b af 59 ca 3b 96 48 24 80
       0.0057424777 0.0062203696 0.006175242 -3.332117e-39

mlp.mlp.4.bias f4 [64]
000000 4d a2 66 31 29 13 0a 32 f2 d7 66 b2 16 fc c7 b2
       3.3561662e-09 8.037014e-09 -1.3436862e-08 -2.3281284e-08
000010 f5 6c 9a 30 50 76 81 00 32 f9 b4 b2 cc d2 8f 30
       1.1235942e-09 1.1889222e-38 -2.1068079e-08 1.0464531e-09
000020 82 b5 3b b2 2b 3d 91 b0 46 0c 5f 80 91 fa ce b1
       -1.0926103e-08 -1.0567524e-09 -8.728775e-39 -6.023875e-09
000030 0a 67 43 b1 67 79 39 31 03 f7 e5 31 f5 0b 3c 30
       -2.8434806e-09 2.6990052e-09 6.692859e-09 6.8410994e-10
000040 dc 7a 5d 31 c3 ae 26 80 6a ac 25 80 92 f1 91 00
       3.222957e-09 -3.552442e-39 -3.459764e-39 1.3402806e-38
000050 61 72 3f 31 76 89 49 b0 ff 9d 95 80 41 4a 38 80
       2.7859175e-09 -7.331872e-10 -1.3740167e-38 -5.169425e-39
000060 1d 3e dd 31 f9 f2 b2 af fb f2 1c b2 36 2c 39 80
       6.439008e-09 -3.2550654e-10 -9.1356425e-09 -5.250483e-39
000070 39 e7 49 80 1d 7a 28 b1 36 7f 45 30 f4 68 43 00
       -6.786938e-39 -2.451663e-09 7.184896e-10 6.190628e-39
000080 88 1a cb b1 04 90 e2 31 31 13 0d b2 ac f5 63 30
       -5.911094e-09 6.5938384e-09 -8.211644e-09 8.293124e-10
000090 a3 30 8d b2 44 85 41 31 a2 53 84 30 a4 6c b2 30
       -1.6436678e-08 2.816095e-09 9.628034e-10 1.2982082e-09
0000a0 35 44 f4 af 02 be 6b b1 a2 ca 00 80 3d 64 0b 31
       -4.4431805e-10 -3.4305008e-09 -7.2691e-41 2.028414e-09
0000b0 76 5f 26 b1 b8 e9 cc b1 0b ca 73 31 7a 01 c7 b1
       -2.4210443e-09 -5.963752e-09 3.5476002e-09 -5.79183e-09
0000c0 32 7f ce b1 7b a3 d6 30 61 45 b0 b0 ee b6 94 30
       -6.0098495e-09 1.5617013e-09 -1.2825404e-09 1.0820409e-09
0000d0 a6 4b 3b 32 6c b4 6c 00 44 9d 16 b1 3c 6d 04 80
       1.0902033e-08 9.982957e-39 -2.1917268e-09 -4.06528e-40
0000e0 52 8b a7 b1 92 8e d3 b1 a0 5e 44 00 ec f9 1e 30
       -4.8761786e-09 -6.1571166e-09 6.278759e-39 5.7835225e-10
0000f0 70 fc 0b 32 72 e7 19 32 48 9c 31 b2 eb 45 05 32
       8.1482625e-09 8.958397e-09 -1.033829e-08 7.757516e-09

mlp.mlp.5.weight f4 [64]
000000 89 6f 01 3d 64 3f 09 3d c3 7a 03 3d ae 43 05 3d
       0.03160051 0.03350772 0.032099497 0.032535248
000010 89 21 01 3d 0c 00 1e 80 4c fa 06 3d c8 b2 05 3d
       0.031526122 -2.755082e-39 0.032953545 0.032641202
000020 b7 6e 06 3d 98 83 05 3d d6 75 41 00 d1 60 00 3d
       0.03282043 0.0325962 6.011579e-39 0.03134233
000030 55 5e 05 3d 2d 47 07 3d d2 b1 02 3d 01 a3 01 3d
       0.032560665 0.033026863 0.031907864 0.031649593
000040 e5 10 05 3d 1f 1b 1f 00 18 f6 1e 00 45 bd 30 80
       0.032486815 2.85663e-39 2.843347e-39 -4.476001e-39
000050 12 15 08 3d 97 c5 01 3d 87 1f 0b 00 76 16 4f 00
       0.03322322 0.031682577 1.0215e-39 7.263062e-39
000060 30 c0 03 3d 2a 81 0a 3d d4 47 06 3d c7 75 03 80
       0.032165706 0.033814587 0.032783344 -3.17757e-40
000070 c9 96 1e 00 9b 40 04 3d a6 b5 05 3d 65 21 4f 00
       2.809156e-39 0.032288175 0.032643937 7.266984e-39
000080 3d 09 08 3d d8 95 08 3d 19 fc 00 3d 38 b1 09 3d
       0.033211935 0.033346027 0.03149042 0.033616275
000090 39 1d 05 3d ea d4 08 3d 5b 7a 0b 3d 3d de 06 3d
       0.032498572 0.033406176 0.034052234 0.032926787
0000a0 b6 e6 03 3d 1f e0 02 3d d3 33 19 00 ce cf 08 3d
       0.032202445 0.03195202 2.314478e-39 0.033401303
0000b0 7c 83 fe 3c e2 5f 07 3d 94 8d 05 3d b4 93 08 3d
       0.031068556 0.033050425 0.032605723 0.033343986
0000c0 01 8c 02 3d f4 c6 fa 3c e3 82 01 3d 3d 70 ff 3c
       0.0318718 0.030612446 0.031618964 0.03118145
0000d0 1b 95 0a 3d 61 e4 3a 80 1f 8c 01 3d 5d 0a 2e 00
       0.033833604 -5.408386e-39 0.03162777 4.22815e-39
0000e0 89 5b 08 3d df af 05 3d 47 51 18 80 65 4f 0c 3d
       0.03329042 0.032638427 -2.233209e-39 0.034255404
0000f0 16 9c 02 3d 7c 5c 0b 3d 6a d1 03 3d 11 39 05 3d
       0.031887136 0.034023747 0.032182135 0.032525126

mlp.mlp.5.bias f4 [64]
000000 5c b3 7c 3e 32 f1 7e 3e 19 b5 7d 3e 53 82 81 3e
       0.24677795 0.24896696 0.24776115 0.25294742
000010 4e 8b 7b 3e e6 46 5e 3e a5 b6 7e 3e b3 7c 7e 3e
       0.2456486 0.21706733 0.24874361 0.24852256
000020 fc c0 7f 3e 5f 49 7f 3e e1 02 5e 3e c4 40 7a 3e
       0.24975961 0.24930333 0.21680786 0.24438769
000030 06 31 7b 3e 01 83 7e 3e 94 e6 7c 3e 03 42 7b 3e
       0.2453042 0.24854662 0.24697334 0.245369
000040 86 31 81 3e 48 1f 5f 3e 65 b0 03 80 f3 67 60 3e
       0.25233096 0.21789277 -3.38785e-40 0.21914653
000050 fc 6b 7f 3e 68 c5 78 3e b7 79 61 3e 86 04 42 00
       0.24943537 0.24294055 0.22019087 6.062765e-39
000060 34 af 7f 3e 93 e0 7e 3e fb b4 7e 3e ec 49 25 00
       0.24969178 0.24890356 0.24873726 3.424432e-39
000070 be f9 4a 80 76 5c 7c 3e 60 1d 7f 3e 17 87 23 80
       -6.885417e-39 0.24644646 0.2491355 -3.262703e-39
000080 68 35 7b 3e 82 76 80 3e ad 07 7d 3e 93 a3 7e 3e
       0.24532092 0.25090414 0.2470996 0.24867086
000090 df f1 7e 3e 0b a2 7d 3e 59 23 80 3e 27 a9 80 3e
       0.24896954 0.24768846 0.25026968 0.25129053
0000a0 67 73 7e 3e 71 70 7c 3e ae 13 08 80 59 eb 7d 3e
       0.2484871 0.24652268 -7.41744e-40 0.2479681
0000b0 9e b1 79 3e 85 ad 7f 3e 97 0a 7c 3e ba 59 7e 3e
       0.24384162 0.24968536 0.24613415 0.24838915
0000c0 24 53 7e 3e 7c 16 7b 3e 1d da 7f 3e 03 2a 7c 3e
       0.24836403 0.24520296 0.24985547 0.24625401
0000d0 6d 81 7f 3e 98 bb 5f 3e 59 1b 7a 3e 04 80 4c 00
       0.24951716 0.21848905 0.24424495 7.025421e-39
0000e0 79 cb 7e 3e 9a 50 7f 3e 80 e7 46 80 ef b1 81 3e
       0.24882306 0.24933091 -6.511531e-39 0.25331065
0000f0 6c f5 7a 3e 61 51 81 3e 2f 1f 7d 3e df 35 7f 3e
       0.24507684 0.252574 0.24718927 0.24922894

mlp.mlp.5.running_mean f4 [64]
000000 24 69 18 3b 79 9e 1e 3b 6a 0d 1b 3b a5 38 1c 3b
       0.0023256028 0.0024203344 0.0023659118 0.0023837474
000010 f2 45 18 3b 3f 14 6b 00 64 c0 1c 3b 14 9b 1c 3b
       0.002323505 9.833661e-39 0.0023918385 0.0023896145
000020 a2 db 1c 3b 35 1e 1c 3b 15 bf 74 80 fe 06 18 3b
       0.0023934622 0.0023821716 -1.0721465e-38 0.0023197527
000030 0d cb 1a 3b 9d 98 1d 3b fb ec 18 3b 32 54 19 3b
       0.0023619563 0.0024047263 0.002333461 0.0023396132
000040 2d 0e 1c 3b 7c 3c 48 80 12 dc 0f 00 c6 50 82 00
       0.002381216 -6.633853e-39 1.456479e-39 1.196759e-38
000050 49 bd 1d 3b 40 86 18 3b d8 fb 56 80 61 ff 3b 80
       0.0024069122 0.0023273379 -7.988197e-39 -5.509907e-39
000060 85 01 1a 3b 59 d8 1f 3b 50 d6 1c 3b 07 05 2e 80
       0.002349944 0.0024390428 0.002393145 -4.226236e-39
000070 1e 01 36 80 b3 b8 1a 3b 90 c5 1b 3b 6b 88 0d 00
       -4.959518e-39 0.0023608624 0.002376888 1.242799e-39
000080 a0 f7 1d 3b 22 54 1d 3b bd 22 19 3b b2 5f 1e 3b
       0.0024103895 0.0024006446 0.0023366653 0.0024165926
000090 cc d4 1b 3b 13 2c 1e 3b 22 c9 1f 3b 5f 1d 1e 3b
       0.002377796 0.0024135157 0.002438136 0.0024126393
0000a0 02 46 1b 3b 7d fc 19 3b 45 78 29 80 04 e0 1e 3b
       0.002369285 0.0023496442 -3.8084e-39 0.002424241
0000b0 3d e5 16 3b ef 8e 1c 3b ef 9f 1b 3b 1b 9c 1d 3b
       0.002302482 0.0023888906 0.002374645 0.0024049345
0000c0 8d 91 18 3b 27 d7 15 3b 16 ef 19 3b c4 d2 17 3b
       0.0023280114 0.0022863836 0.0023488454 0.0023166398
0000d0 82 b8 1f 3b 32 08 76 00 ff c5 17 3b ba bc 27 80
       0.002437145 1.0839528e-38 0.0023158786 -3.649287e-39
0000e0 1e 7d 1d 3b 7e b2 1c 3b 3c 07 39 00 f7 65 21 3b
       0.0024030874 0.00239101 5.237218e-39 0.0024627426
0000f0 cf 63 18 3b 40 66 20 3b 89 3b 1a 3b b4 6f 1b 3b
       0.002325285 0.0024475008 0.002353402 0.0023717703

mlp.mlp.5.running_var f4 [64]
000000 e4 94 e1 36 68 60 f4 36 d8 7d e9 36 d5 ef ec 36
       6.7228557e-06 7.28299e-06 6.9585913e-06 7.061268e-06
000010 72 2e e1 36 04 00 00 00 55 a1 ee 36 57 16 ee 36
       6.7109295e-06 6e-45 7.1117342e-06 7.0955534e-06
000020 95 e9 ee 36 8b ad ec 36 04 00 00 00 d6 61 e0 36
       7.1201453e-06 7.053551e-06 6e-45 6.68711e-06
000030 d2 f6 e8 36 ef 11 f1 36 77 23 e3 36 9f 38 e4 36
       6.9428725e-06 7.1844474e-06 6.769256e-06 6.801521e-06
000040 b6 72 ec 36 04 00 00 00 04 00 00 00 04 00 00 00
       7.046702e-06 6e-45 6e-45 6e-45
000050 bf 98 f1 36 1d de e1 36 04 00 00 00 04 00 00 00
       7.2001417e-06 6.73138e-06 6e-45 6e-45
000060 c2 2a e6 36 81 1e f8 36 e7 cc ee 36 04 00 00 00
       6.859512e-06 7.394527e-06 7.1168065e-06 6e-45
000070 04 00 00 00 bb 6e e8 36 fc b6 eb 36 04 00 00 00
       6e-45 6.9270295e-06 7.024848e-06 6e-45
000080 1b 45 f2 36 ea 75 f0 36 58 90 e3 36 c5 94 f3 36
       7.220207e-06 7.1662844e-06 6.781931e-06 7.2592834e-06
000090 17 d8 eb 36 e7 eb f2 36 12 d9 f7 36 96 9b f2 36
       7.028702e-06 7.2396247e-06 7.386444e-06 7.2302746e-06
0000a0 7a fa e9 36 87 30 e6 36 04 00 00 00 78 ff f4 36
       6.9731004e-06 6.8601835e-06 6e-45 7.301507e-06
0000b0 59 10 dd 36 34 f2 ed 36 74 39 eb 36 25 53 f1 36
       6.5882164e-06 7.0913466e-06 7.010234e-06 7.192039e-06
0000c0 16 08 e2 36 41 df d9 36 ab fe e5 36 54 ad df 36
       6.736266e-06 6.493094e-06 6.854379e-06 6.666096e-06
0000d0 6f cc f7 36 04 00 00 00 44 c0 df 36 04 00 00 00
       7.384973e-06 6e-45 6.6683006e-06 6e-45
0000e0 51 d3 f0 36 84 4d ee 36 04 00 00 00 dd d7 fc 36
       7.177158e-06 7.1019767e-06 6e-45 7.535315e-06
0000f0 a8 82 e1 36 e9 c0 f9 36 e2 fa e6 36 60 93 ea 36
       6.720733e-06 7.443236e-06 6.8837408e-06 6.9909e-06

mlp.mlp.8.weight f4 [1, 64]
000000 22 e4 7e 3e a1 a6 80 3e 93 ce 7f 3e 7f a7 82 3e
       0.24891713 0.25127128 0.24981146 0.25518414
000010 6a 9f 7d 3e f8 37 5e 3e ef 76 80 3e 7d 69 80 3e
       0.24767843 0.21701038 0.2509074 0.2508048
000020 2f 0d 81 3e 70 c8 80 3e c6 f6 5d 3e 70 64 7c 3e
       0.2520537 0.25152922 0.21676168 0.24647689
000030 c0 59 7d 3e 10 5f 80 3e 79 eb 7e 3e a0 60 7d 3e
       0.24741268 0.25072527 0.24894513 0.24743891
000040 1e 4c 82 3e 0e 19 5f 3e b4 c4 38 80 05 6f 60 3e
       0.25448698 0.21786901 -5.213352e-39 0.2191735
000050 99 d7 80 3e c1 e4 7a 3e 24 7f 61 3e 1e 4f 2b 00
       0.25164488 0.24501325 0.22021157 3.977308e-39
000060 d7 f0 80 3e 45 ac 80 3e d1 7b 80 3e 50 1c 23 80
       0.25183746 0.2513143 0.25094464 -3.224399e-39
000070 40 e1 2a 00 14 84 7e 3e 0b b1 80 3e 54 32 06 80
       3.937895e-39 0.24855071 0.25135073 -5.69067e-40
000080 9a 88 7d 3e 0b 9a 81 3e 72 2e 7f 3e 27 76 80 3e
       0.2475914 0.25312838 0.24920061 0.25090143
000090 be 81 80 3e 28 ec 7f 3e 0c 59 81 3e e9 bf 81 3e
       0.25098985 0.2499243 0.2526325 0.25341728
0000a0 29 49 80 3e 03 92 7e 3e 4c ef 48 80 ce 35 80 3e
       0.25055817 0.24860387 -6.697999e-39 0.2504105
0000b0 cf c6 7b 3e bc fd 80 3e bf 42 7e 3e f2 3d 80 3e
       0.24587558 0.25193584 0.24830149 0.2504726
0000c0 5a 2c 80 3e 59 0f 7d 3e 47 0d 81 3e 70 77 7e 3e
       0.25033838 0.24712886 0.25205442 0.2485025
0000d0 af e4 80 3e b6 b9 5f 3e 76 ff 7b 3e 71 05 38 80
       0.25174472 0.21848187 0.2460917 -5.14474e-39
0000e0 9e 83 80 3e ea ca 80 3e d9 a5 33 80 ac e7 82 3e
       0.25100416 0.2515481 -4.743105e-39 0.25567377
0000f0 7b 0e 7d 3e d9 74 82 3e ff 51 7f 3e 56 bc 80 3e
       0.24712555 0.25479773 0.24933623 0.2514369
