model/dfm_epoch_0.pt (torch, 20103 bytes, 15 tensors)

embedding.embedding.weight f4 [98, 16]
00000000: f1fb 8abe c7fa 1abe 79d8 8fbe 49a0 403d
00000010: b284 1fbe 61be 0fbe 96e1 48bb 90ea 46be
00000020: e9d9 ddbd 1623 ff3b a1a3 3bbe 89b1 58be
00000030: 7997 b9bd b442 403e 386e 2d3e 738d 64bd
00000040: c883 9abb a1fc 11be dfc3 23be ae03 2abe
00000050: 1f44 05be a9a0 193e f872 b53d 8662 2fbd
00000060: 0a33 09be b43c eb3d a0c6 5abe 7d76 5bbe
00000070: 431b a43c 1023 843d e35b 3ebe 43ed 24be
00000080: 8a88 6bbe 3a4f 96bc 2722 8abe 9a9a 44bc
00000090: cea0 66bd d397 8c3e 8533 b2bd 357c 54be
000000a0: 88c7 db3d bf69 f73d bcf7 583d dd3e 6abe
000000b0: 504f 58be da40 293e e978 c63d 8466 3bbd
000000c0: bee5 293e 0c3b d23d 5e6d 58bd c2c9 213e
000000d0: a02b b7bd 319d 93bd 7fd8 59be 1531 e03c
000000e0: 5059 013e 8634 243e e78b 09bd ba2f 03be
000000f0: 4daf ac3d 14be d33a f7d5 2fbd 42d4 82be
00000100: bdde 06be 1a4f 2f3e 54de da3c e812 27be
00000110: 3253 57be 8152 e03d 9be5 aebd 03f6 ab3d
00000120: 7550 27be 2714 4f3a 31ca 3c3d 03e1 91be
00000130: 0682 f23d 4ef0 1c3e 8e80 1d3e 647d febd
00000140: 8e19 f93b 8ea6 3ebe f48f 33be 032b 35bd
00000150: fee8 81be beea 8bbd 5b39 643d 79d3 863d
00000160: abcd cabd b00a c5bd 5c41 2cbe 5871 793d
00000170: 5a19 743e 9c8e 233e f651 66be 6243 31bd
00000180: 6874 7bbd bed0 9ebd 81b6 92be 4889 82bd
00000190: 1484 babb 257c 563e c9d9 a03d 8426 bf3d
000001a0: e740 06be 9aa4 7e3e 45ef 193c 68ac 273e
000001b0: dbd3 d83c 1060 b13c e57b 2bbe a1d2 86be
000001c0: 9395 523e f641 c53d a4c8 5e3d 6c9a 123d
000001d0: 90ae 56be 07d8 a3bd 7604 69be 3052 f9bd
000001e0: 64ff a5bd e726 9ebd aa3d 37be badd 3cbc
000001f0: 670b 59be c086 dcbd 877c 3b3e c1ea a0bc
00000200: 00f3 bbbc 326d 58be c3fd 023d be7a 85bd
00000210: 8b46 d4bd 3ca1 893e 479d a53d 74fb 1dbd
00000220: 8727 b53d c281 8a3d 49aa 8e3d 0571 cd3d
00000230: e0d9 cc3d a8aa a73d 1ac0 ebbd 44fa 623e
00000240: d3d8 ef3d 3fdf bd3d 07c5 18be cc71 4b3d
00000250: a669 943d 7565 803d d421 473e a738 6dbe
00000260: 3c73 1cbd e8e0 783e 3644 48be 2611 53be
00000270: ca0d 043e 495a 223e a56c 18be cdcc 49be
00000280: a34f 903d 5a9e ba3d 5e6a 1e3e 3ccd 263d
00000290: 5529 233d b570 5b3e ce36 233e 3325 84bc
000002a0: 29f5 e5bd 66b6 ebbd 0a52 6dbe 6162 1d3e
000002b0: d1d5 93bd a43d f33c 6f5b e0bd a2b7 61be
000002c0: 5e57 d3bc 5c85 513e 0f50 493d 66af 54be
000002d0: c5d8 2f3d e27c 693d dad9 04be d6c1 01be
000002e0: 81cb 63be a6d3 92bd 092e f9bd 0e98 cd3d
000002f0: 5a7b 153e 8946 603e 6a08 46be c0a1 c53d
00000300: beaa d9bc 1d89 0bbe 1193 083e 6930 8e3c
00000310: fd99 81be a4be 8d3e 5a25 403b ac06 e43c
00000320: da40 403e 8c25 21be f846 4abe 1582 ebbd
00000330: ac9d a83d 9d08 a83c a549 43be 0a77 cc3d
00000340: 978a 243d 0e47 b03d babe ae3d 8403 2abe
00000350: b3b2 26be 19aa ff3d 310b 3abc 365d 34be
00000360: 1eb7 0cbe 749b 483e d6eb 46bc 1714 35be
00000370: 951d 9b3b 0458 0cbd eea1 91bd a675 9b3d
00000380: 1121 b43d ed53 1abd d0cd 83be 3276 693d
00000390: 1eba cc3d a6fb 0dbe a516 57be 1298 903d
000003a0: d9d0 a33d 9a7e 28bd 8c84 4ebe 6a81 a3bd
000003b0: 8772 523e 81dd 313e 8b43 4cbe f292 34be
000003c0: 8939 41bd d6cb 2f3e bff9 06be 1822 babd
000003d0: 794e 0cbe eb2e 50be f4d2 98bd dd98 103d
000003e0: a12e 52bd 11bc 4fbe 8e52 2cbe b2bb 58ba
000003f0: ffb6 6ebd 06d9 fabd 418b b03c 65ef 11be
-0.2714534 -0.15134726 -0.28094843 0.04702786 -0.15577963 -0.14037468 -0.0030652038 -0.19425416
-0.10832579 0.007786165 -0.18324138 -0.21161474 -0.09062094 0.18775445 0.16936576 -0.05579896
-0.0047154166 -0.14256527 -0.15992688 -0.16602966 -0.13014267 0.15002693 0.08859819 -0.04281857
-0.13398376 0.114861876 -0.21364832 -0.21431918 0.02003253 0.06452 -0.1858974 -0.16106133
-0.23001304 -0.018348325 -0.2697918 -0.0119997505 -0.0563057 0.27459583 -0.08701233 -0.20750506
0.10731417 0.12080716 0.052970633 -0.22875543 -0.21124005 0.16528645 0.096910305 -0.045752063
0.16591546 0.102651685 -0.052838676 0.15799621 -0.08943868 -0.07207716 -0.21273993 0.027367154
0.12631726 0.16035661 -0.033580687 -0.12811175 0.084318735 0.001615467 -0.042928662 -0.25552565
-0.13170905 0.17120019 0.026717342 -0.16315806 -0.2102783 0.10953236 -0.085398875 0.083965324
-0.16339286 0.0007899426 0.046091262 -0.28491983 0.11841206 0.15326044 0.15381071 -0.1242626
0.0076019233 -0.18618223 -0.17535383 -0.044230472 -0.2537307 -0.06831883 0.05571876 0.06583304
-0.09902509 -0.09621179 -0.16821808 0.06089911 0.23837796 0.1597237 -0.22492203 -0.043277152
-0.06139031 -0.07754658 -0.28654864 -0.063738406 -0.0056920145 0.20945795 0.07854039 0.09333518
-0.13110696 0.24867478 0.009395425 0.16374362 0.026468208 0.021652251 -0.16746481 -0.26332572
0.2056487 0.09631722 0.054390565 0.0357918 -0.20965028 -0.08000188 -0.22755608 -0.12173879
-0.081053525 -0.07722264 -0.17894617 -0.011527473 -0.21195756 -0.10767889 0.18309222 -0.01964319
-0.02294302 -0.21135405 0.031980287 -0.06517552 -0.103650175 0.26880825 0.08086639 -0.038569883
0.0884543 0.067630306 0.06966073 0.100313224 0.10002494 0.08186847 -0.1151125 0.22165781
0.11711278 0.092710964 -0.1491891 0.049669072 0.07246713 0.062693514 0.19446498 -0.23166142
-0.038195834 0.24304545 -0.1955727 -0.2061201 0.12895885 0.15854754 -0.14885195 -0.19707032
0.070464395 0.091122344 0.15470263 0.04072307 0.03983434 0.21429713 0.15938875 -0.01613102
-0.11228401 -0.11509399 -0.23175827 0.1536956 -0.072185166 0.029692478 -0.109549396 -0.22042707
-0.025798496 0.20461029 0.049148615 -0.20770034 0.042931337 0.057003863 -0.12973729 -0.12671599
-0.222456 -0.07169275 -0.12166984 0.10038768 0.14597836 0.21901907 -0.19339147 0.09649992
-0.026570674 -0.13626523 0.13337351 0.017357068 -0.25312796 0.2768451 0.0029319138 0.027835213
0.18774739 -0.15736979 -0.19753635 -0.114994206 0.082331985 0.02051192 -0.19071062 0.099836424
0.040171232 0.086073026 0.08532472 -0.16602904 -0.16279106 0.124836154 -0.011355207 -0.17613682
-0.13741729 0.1959055 -0.012141189 -0.17683445 0.004733751 -0.034263626 -0.07110964 0.07590799
0.087953694 -0.037677694 -0.2574296 0.056997485 0.099964365 -0.13865528 -0.21004732 0.07060255
0.07998819 -0.04113636 -0.2016775 -0.07983668 0.20551501 0.17369653 -0.1994764 -0.1763418
-0.04717401 0.17167601 -0.13181208 -0.09088534 -0.1370181 -0.20330398 -0.07462111 0.03530203
-0.051314 -0.20286585 -0.16828367 -0.0008267715 -0.058279987 -0.12248425 0.021550776 -0.14251478

linear.fc.weight f4 [98, 1]
00000000: ebdd 0640 8501 403f c966 d63e ed18 c83f
00000010: e01f 7fbf a19b cebf 0cfa 48bf 6152 0040
00000020: d7d7 5c3f ee91 d43c eb0b 183d 954a b2be
00000030: a39d a4be dc68 a13f 1bdd 9b3e 8d7c a43f
00000040: 0e48 003f b191 0ebf 7d18 0b40 23b9 d33d
00000050: cae7 903f a8aa 073f 484e 413f eaeb 33bf
00000060: 0870 d8bd 061e 0840 a4aa d43f 669a 2c3f
00000070: f8eb 783f 3910 68be 5eb0 043e 048a e73e
00000080: 3bd0 06bf 6b81 aa3e 45e0 ad3f 9133 703f
00000090: eb4f 893f 53db 12bf cc41 093d cd52 70bf
000000a0: 6784 f53f 3376 fa3f 0c7e e73e 0c59 3e3e
000000b0: 6627 35be a2ac 68be a520 863f b5fc 99be
000000c0: da69 afbe b604 24be 56d7 acbf 4e18 31bd
000000d0: b045 fd3e e2f6 43bf 9c2d 513f f819 fa3f
000000e0: e58f b6bf 2149 803d 2469 37bf 8801 743f
000000f0: b0ff f4bf 8c73 fd3f 26af 863e f514 8e3f
00000100: 3702 0140 73e4 6a3f 97e8 d63e d4dd dfbe
00000110: 06b0 1b3d 910f 063f b347 993f bd7f 603f
00000120: e6a8 283f 80f6 e93e 3cf2 993f 72a2 49be
00000130: 946c 1ebf 4ffa 0140 c57b aebd 305f b03f
00000140: a374 33be ccff 9e3d 4e3a 193f 5af1 2fbf
00000150: 676a 28be b27b a5bf 91d0 b5be cd9d 353f
00000160: 13f1 a9bf 205f f13f 9441 b1be 7448 b73e
00000170: 4d37 efbd a282 dfbd de17 823e b7cd 893e
00000180: 7691 3b3c 3308 1ebf
2.1072948 0.7500232 0.41875294 1.5632607 -0.9965801 -1.6141244 -0.7850654 2.005028
0.86266845 0.025948491 0.03712074 -0.34822527 -0.32151517 1.2610126 0.30442128 1.285051
0.50109947 -0.5569106 2.1733696 0.103380464 1.1320736 0.52994776 0.7551007 -0.7028185
-0.10568243 2.1268325 1.6614575 0.67423093 0.9723506 -0.22662438 0.12957904 0.45222485
-0.52661484 0.33301863 1.3584067 0.93828684 1.0727514 -0.5736591 0.033510014 -0.93876344
1.9181031 1.9567322 0.45213354 0.18588656 -0.1769081 -0.22722104 1.0478712 -0.30075613
-0.34260446 -0.16017422 -1.3503215 -0.04323607 0.4946723 -0.7654859 0.8171022 1.9539175
-1.4262663 0.06263948 -0.71644807 0.95314837 -1.914053 1.9800887 0.26305503 1.1100146
2.0157602 0.91754836 0.41974327 -0.4372393 0.038009666 0.523675 1.1975006 0.87694913
0.6588272 0.45695877 1.2027049 -0.19690874 -0.6188443 2.0309026 -0.08519701 1.3779049
-0.17524962 0.07763633 0.5985459 -0.6872765 -0.1644684 -1.2928374 -0.35510686 0.7094391
-1.3276695 1.8857155 -0.34620345 0.35797465 -0.1168047 -0.10913588 0.25408834 0.2691476
0.011448255 -0.6173126

mlp.mlp.0.weight f4 [16, 80]
00000000: 8bdc 23bd d7e8 56bd df09 173d d36e 8cbd
00000010: 1f52 dfbd 622a 323b dcb4 2cbd 6916 3e3d
00000020: ae6e 6cbd d41b 923c 3ddc 3fbd ee2e 4e3d
00000030: 9d7f 073d 557c 673d de4b 103d a0e3 d2bb
00000040: c08b f43d 197e 8e3d 3c8d adbd a3ab 973d
00000050: a1de e53d a54e a43c 285c adbd 5f2d a5bd
00000060: 2270 8fbc 0690 4d3d 59b9 0ebd dac2 ad3d
00000070: f110 443b eb92 0abe 2823 5f3d 0a6d 93bb
00000080: 1050 c93c ab4e c0bd cdbe 893d d449 e83d
00000090: 9766 3abc 0742 2fbd 7547 cb3d ae36 653d
000000a0: ad5b 69bd 628a 743d 63e8 bebc 3deb 31bd
000000b0: 678f 853d 61f3 563d e6d9 c1bb c643 de3d
000000c0: 26c2 7e3d a229 2dbd 7040 b93d 5946 ebbd
000000d0: cecd ee3d 6fa3 60bc 33d6 eaba 3d8b 933d
000000e0: 4ebc fbbd b258 69bd f98f 76bd 4f1f b13d
000000f0: 2a14 813d b812 9dbc 3db6 94bd 0960 403a
00000100: 250a dd3c 8b6f ab3b e337 163d 0d5e 0cbd
00000110: f5c4 f2bd 2e92 873c d8ee 0c3d 3eaa d83c
00000120: 0bd6 80bd c666 813d 483b 93bd 9cf2 e4b8
00000130: f6d5 a23d 407d e23d fcf7 25bd 5a24 853d
00000140: e09f e1bd c7e8 2c3d 5851 aebd 2420 8fbd
00000150: a5df f2bd 06d9 4e3d 7f10 4b3d dcb6 f8bd
00000160: 46f1 cc3d 7090 a9bd fd1f cf3d 897c 833d
00000170: 9326 b0bd bec0 8e3d a635 7c3d 7877 a03c
00000180: 38d8 44bd cf56 b63d 56e4 eebd 492c b7bc
00000190: a141 a0bc c15d 86bd cc38 103c 5095 bdbd
000001a0: 7b48 103d 91d9 1ebc d6a8 3f3d e646 893c
000001b0: 0c41 ecbd be0a 12be 0035 a5bd 8829 e5bd
000001c0: bb7b e53c 6e40 0cbd a5d7 a7bd 2af1 a2bd
000001d0: 442e 80bd 9301 803d 2a52 93bc 201e 8fbd
000001e0: c807 02bd 22bc 893d 25ad 93bc dd01 e2bd
000001f0: 8e34 78bc c125 08bd 91ef 43bd aa10 a03d
00000200: 6308 c13d 5255 95bd c932 153d 4e9d a1bd
00000210: 67f5 ccbd 7269 35bc 3b28 9b3c a109 353d
00000220: 630e 873d c3ee c9bd ffa4 27bd 7332 5b3d
00000230: 2881 96bd 167d 133d 0335 5dbd c79b 903d
00000240: 7fa9 653c cec4 783d 5ed6 fcbc 117d 9d3d
00000250: c129 e5bc bb57 d0bd cae1 c03d 1002 b33c
00000260: e413 dcbd 66a0 ebbc 151c 833d d273 76bd
00000270: 11e2 d03c beac 1abc 26a7 ae3d aeb9 f4bd
00000280: e95b 823d db82 10bd 55f2 893d 118c a5bc
00000290: 54bc 963d 8a8c 6fbd d43c 92bd 130d d1bd
000002a0: 2a24 19bd e23c 7bbd 0a46 5b3c be30 bc3d
000002b0: eb3c d1bd 5a45 cf3d 7fae ee3c 1583 da3d
000002c0: efde a43b 398f df3d 1bf6 a53d 6591 c0bd
000002d0: f0ba f9bc 313f 30bd 35c0 be3d d6fc 983d
000002e0: 808b 0bbd 5047 01be 1866 3ebd 697a a3bd
000002f0: c24a e03d 2563 fa3c d741 833d fc68 93bd
00000300: a2ce a8bd 582b c6bc a932 97ba d43b c13d
00000310: 4a74 43bd 3d81 2b3d d3be 9f3d f7ad 9abc
00000320: 527e debc a37b bbbd 6aa0 5e3d 63ba 9a3d
00000330: 21bf 993d becc 85bc fee9 88bd 41cb 02bd
00000340: 6060 d23d 17e9 603d e689 e33d 138c 803c
00000350: 418d d23d 944f 383d 1870 493b 0840 023d
00000360: 7295 f83d 5b65 a13d 1b0d 803d 67c2 efbc
00000370: 3495 f2bd fb87 e43d 8f88 c2bd 8300 8abd
00000380: f9ec ed3c 6442 c13d 3f5f 6c3d ba7d 8abd
00000390: 72e6 1dbb 2935 b13d e4c4 ccbc dd08 b23d
000003a0: 5cc8 a63d fa82 b0bd bca0 0ebd 0da4 50bd
000003b0: 6bab 13bc 0a23 85bd 40fc b23d 8706 8b3c
000003c0: b373 78bd a724 a63c e684 ba3d e8c0 81bd
000003d0: de17 69bd 8bbc 9fbd 042b 96bc 017a 853d
000003e0: 4e76 d03d 22b8 c23b 6c1e 0bbd 8e4e b0bd
000003f0: 4616 5abd 7f38 bfbc c52d db3d 1ea6 77bd
-0.040005248 -0.052468147 0.03687465 -0.068570755 -0.10904335 0.0027185907 -0.04216467 0.04640809
-0.05772274 0.017835535 -0.046840895 0.050337724 0.033080686 0.056515057 0.035228603 -0.0064358264
0.11940718 0.06957645 -0.08474204 0.07405784 0.11224104 0.020057032 -0.08464843 -0.080652945
-0.017509524 0.05018618 -0.03484473 0.084844306 0.0029917324 -0.13532607 0.054476887 -0.0044990825
0.02457431 -0.09390005 0.067258455 0.113422066 -0.011376998 -0.042787578 0.09925739 0.05596035
-0.056972194 0.059702285 -0.02330417 -0.04343723 0.065214925 0.052478198 -0.005915868 0.108527705
0.062196873 -0.042276032 0.090454936 -0.11488027 0.11660348 -0.013710841 -0.001791662 0.07204292
-0.12291776 -0.056969352 -0.060195897 0.0864855 0.06302674 -0.019173965 -0.07261322 0.0007338529
0.026982376 0.005231803 0.03667439 -0.03426938 -0.11853973 0.016549196 0.034407467 0.026448365
-0.062908255 0.063184306 -0.071890414 -0.00010917077 0.07950966 0.11059046 -0.0405197 0.06501074
-0.11016822 0.04221418 -0.08511609 -0.06988552 -0.11859063 0.05049994 0.04957628 -0.12144253
0.10006957 -0.082795024 0.10113523 0.064202376 -0.086011074 0.069703564 0.0615746 0.019588217
-0.048057765 0.08903276 -0.116646454 -0.022359984 -0.019562544 -0.06560851 0.008802604 -0.09256995
0.035225373 -0.009695427 0.046791874 0.01675744 -0.11535844 -0.1426191 -0.080667496 -0.11189562
0.0280131 -0.034241132 -0.08195428 -0.07956155 -0.062588245 0.062503 -0.017983515 -0.06988168
-0.031745702 0.067253366 -0.018026898 -0.11035512 -0.015149249 -0.03323913 -0.04783589 0.078156784
0.09425428 -0.07291664 0.036425386 -0.078913316 -0.10007744 -0.011072503 0.018940082 0.044198636
0.06594541 -0.09859993 -0.040928837 0.05351491 -0.07348853 0.036007963 -0.054005634 0.07060962
0.014017462 0.060734563 -0.030863937 0.0768987 -0.027974011 -0.10172983 0.09418066 0.02185157
-0.10745981 -0.028763007 0.064018406 -0.06016905 0.025498422 -0.009440599 0.08527975 -0.11949478
0.06365187 -0.035281043 0.06735674 -0.02020839 0.073601395 -0.058483638 -0.07140508 -0.10207572
-0.037388004 -0.06133736 0.013383398 0.09188984 -0.10216697 0.1012065 0.02913594 0.10669533
0.0050314586 0.109159894 0.081035815 -0.09402732 -0.030484647 -0.043029014 0.09314004 0.074701
-0.034068584 -0.1262486 -0.046484083 -0.07982332 0.10951759 0.030564854 0.06409042 -0.071977586
-0.08242537 -0.02419059 -0.0011535484 0.094352394 -0.047718324 0.041871298 0.07800069 -0.018881781
-0.027159844 -0.09154441 0.0543522 0.07555082 0.07507158 -0.01633298 -0.066852555 -0.03193212
0.10272288 0.05490979 0.111102864 0.015691793 0.10280848 0.044997767 0.003073698 0.031799346
0.121378794 0.0788066 0.062525 -0.029267503 -0.118448645 0.11158749 -0.09498703 -0.06738379
0.029043661 0.09436491 0.05770802 -0.06762262 -0.0024093655 0.086527176 -0.024996229 0.08693097
0.08143684 -0.08618732 -0.034821257 -0.0509377 -0.009013037 -0.06500824 0.08739519 0.016970886
-0.060657214 0.02028115 0.091073796 -0.06335622 -0.056907527 -0.077996336 -0.018331058 0.06517411
0.10178815 0.0059423605 -0.03396456 -0.08608733 -0.053243898 -0.02334237 0.10702089 -0.060461156

mlp.mlp.0.bias f4 [16]
00000000: 6748 1d3d e8c4 b7ba 104b b53c 2b1a c0b9
00000010: 8947 c33b 984c 8ebc e5b6 52b9 9bb3 373c
00000020: 53d0 f0bb 5aec 0439 9004 fd3c 1ad8 813c
00000030: 881d 6b39 a8e0 563c fcdf cebc 6f41 e5b8
0.038399126 -0.0014020475 0.02213052 -0.0003664059 0.0059594554 -0.017370507 -0.00020095294 0.011212255
-0.007349053 0.00012676549 0.030885965 0.015850116 0.00022422348 0.013115086 -0.025253288 -0.00010931759

mlp.mlp.1.weight f4 [16]
00000000: 97cf 813f 31cf 823f 85b1 713f f8ae 853f
00000010: a139 743f 157a 863f 40db 7a3f f72d 853f
00000020: eb02 7a3f 826d 813f 9368 813f e0a7 7a3f
00000030: 086c 853f e1cc 743f 695c 853f 8288 723f
1.0141476 1.021948 0.944115 1.0444021 0.95400435 1.0506006 0.979908 1.0404652
0.976607 1.0111544 1.0110039 0.97912407 1.0423594 0.9562512 1.0418826 0.94739544

mlp.mlp.1.bias f4 [16]
00000000: b8b2 cf3c 2c74 bc3b 0f3e 5abd d056 503d
00000010: 7ae5 4fbd 4c19 7c3d b054 e8bc d84c 2ebc
00000020: 3547 19bd 91b3 803c be0f 423d 0511 28bc
00000030: 2e3f 623d ff19 3dbd b88d 043d 8ad3 46bd
0.025353774 0.0057511535 -0.05328184 0.05086404 -0.050755955 0.061547562 -0.028360695 -0.010638438
-0.037421424 0.015710624 0.047378294 -0.010257964 0.055236034 -0.04616737 0.032361716 -0.048541583

mlp.mlp.1.running_mean f4 [16]
00000000: 8ba2 df3c 064b 743d 6967 79bd 684a 9b3c
00000010: a57b 93bd bfa5 fc3c b4dd 50bd 030a 0cbd
00000020: 6888 013c d9fd c63c 32fb d73d 2b64 9dbd
00000030: 70ab d03c 1144 2abc d456 f2bb 0a96 a33c
0.027299186 0.05964186 -0.060889635 0.018956378 -0.07201318 0.030840753 -0.050992683 -0.034189235
0.007906057 0.024290966 0.105459586 -0.07685121 0.025472373 -0.010392205 -0.0073956046 0.019969005

mlp.mlp.1.running_var f4 [16]
00000000: e89d 973b 90a5 d03b 50b8 263c effa af3b
00000010: 7383 a43b 4c95 353c ffd3 643b 3bdf 973b
00000020: 5f50 393c cbf6 f63b 5556 e53b 4658 c33b
00000030: 4463 f53b 759c cb3b c8cb 523c 8c9a 803b
0.004626978 0.006367393 0.010175779 0.00537049 0.005020553 0.011082958 0.0034916399 0.0046347654
0.011310666 0.0075367442 0.006998817 0.0059614507 0.00748864 0.0062137195 0.012865968 0.0039246734

mlp.mlp.4.weight f4 [16, 16]
00000000: aa35 e83d 37a9 413e 723e 2cbe 14b9 3c3d
00000010: b00c 9c3d fe61 cfbc 75a5 9b3d 15a6 49be
00000020: 31eb 513e dcee bcbb 640f 01be 2354 4fbc
00000030: f80c 7a3e bd94 0f3e debb 003d cb08 1f3c
00000040: 1a15 4fbe b74c 4c3e 0c72 b83d db8e bb3d
00000050: aa15 20be 9faa 94bc 3934 82bd 9f0e 153e
00000060: c612 4a3e 6b21 6bbd 3098 e53d 834d 44be
00000070: d51a f53d 9036 01be 0877 84be 271b cebd
00000080: a4bf eb3d f614 42be a0ad 6bbc 1205 5e3d
00000090: 5614 5fbe 450d 413e e159 89bd 7edc f5bc
000000a0: 644b acbd ea80 013e 0734 263c dc1a b8bd
000000b0: 62eb 0d3d cc0d 713d 0c3e 83be ec2a 923d
000000c0: 43b8 da3d 45de 9ebd 8efc 523e 3e36 abbd
000000d0: 9f41 c63d bcaf da3d 35a6 a2bd c51d 1f3e
000000e0: 9f7b f43d a86c b03d 522b 9abc bfca 2fbc
000000f0: e2f3 68be 451f 843e d97d 4e3e be15 693e
00000100: 8d4b 473e 4b57 933e 8c1b 7abe c646 943c
00000110: d309 a33d eb08 3dbe 55bc 533e ffd4 fe3d
00000120: 26f9 0abd f856 20bd 6a69 873e 3cff 48be
00000130: b839 2a3e cb1c cfbd 43bc df3d a757 583e
00000140: f963 adbc f4b4 88bd 05bf 59ba 2231 6cbe
00000150: d671 5fbe 8aa1 1bbd a4e6 393e 812b c5bd
00000160: 35b3 163d 3b2f 88be ada5 eabd 41db 253e
00000170: e867 9abe 6bee abbd 19a1 6d3d 8368 49be
00000180: 6106 883d 76c5 db3b 4d68 443c 9dbf 693e
00000190: 1319 723d d849 5fbd ce39 06bd 2922 2ebe
000001a0: 837a 203e 486c 593e 30ce 2cbd d394 223e
000001b0: 09ce adbd d370 3ebe 1802 4fbd a186 933d
000001c0: 4c7e 87be a39b 26bd 23ff fcba 6937 7cbe
000001d0: 23d3 54bd 415f 5abe 301b efbd cfd7 443e
000001e0: adf1 ffbd 6751 edbd 8a2d 80be 2a0b 583e
000001f0: ac36 c4bd f7f0 56bd 13cb 8d3d 9c9f 333e
00000200: 92b2 28bb 2754 e7bd 856b 403e a06e 1fbe
00000210: 0cce e43d 1ad6 b1bc 36ec 1dbe f270 753e
00000220: 1668 febc 735a 05be 95e5 65be 31c8 703e
00000230: 60c4 163e 65b8 f2bd bdfb 5b3e ada2 18be
00000240: c7cd 1cbe a281 083e 8550 83bd fc37 0ebd
00000250: ef1b 0abe bcb4 09bb dbfd 04be 6168 d43c
00000260: b0b7 2abe 2ce4 053e 2d86 e33d bd78 083e
00000270: 27a3 8f3e 6925 92bd 7845 933d ba73 63be
00000280: 62c7 3ebe f11b 7b3d 324f 2e3e 29fd 04bd
00000290: 0546 543e 367b 0c3e 116e 5a3e 7c95 35be
000002a0: 881a 923d 1daa b43d e240 4f3e 937c 0cbe
000002b0: 1cfe 0cbe 7038 6cbe da07 4abd b50a 7ebd
000002c0: 90f1 0fbe 464e c23d 9a8e 94bc 488b 443d
000002d0: 1eec d53c 71e6 21be d3b2 64bd 2ee3 383e
000002e0: 9c37 2d3d 1e42 003e d599 3bbd 24ad 1d3e
000002f0: 9160 5bbc 2690 ed3c 35eb ab3d 2674 2ebe
00000300: de57 8e3e b6a4 c7bd 30af 8e3d 7531 cabd
00000310: 3e05 103e ab13 153d 6a43 25be 60f9 09be
00000320: 081f 8bbc 5cbc 543e 609a 83bd 5f5a bdbd
00000330: aabe 163e 2a3c c53d 3c9a 593d 5c1d 873c
00000340: dff2 57be 4649 8bbd 5ab1 21bd 6969 f0bc
00000350: 33bb 3c3e 4ec9 a13d 4653 67be 9690 d43d
00000360: b54a 0bbe d6c5 1abe 39d8 37be 5ba3 4a3e
00000370: 886e 74be 67fa 873e 2fe5 d3bb c1df 0e3e
00000380: 6a5f 49be b69a 34be d42f 99bd 79dd cdbd
00000390: f549 be3d 6695 64be 9ef4 32be ec43 7b3e
000003a0: d12a 423e 7f1b 9d3d 09b5 32be cc89 ee3d
000003b0: aab2 cf3c e332 ec3d 081f e73d 922f 933d
000003c0: 711d 823d 3cc2 373e 252e 54bc e203 423e
000003d0: 0e0b 08be dff1 7a3e 5e00 2fbe 023a 26be
000003e0: b1e1 0b3e 7e6d 37be 8611 49bd 547d 51be
000003f0: 5f0e e2bd 663f f4bc 30e9 1f3d 7617 153e
0.113383606 0.18912207 -0.16820696 0.04607494 0.076196074 -0.025315281 0.07599918 -0.19692262
0.20499875 -0.005765779 -0.12603527 -0.012654337 0.2441901 0.14021583 0.031429164 0.009706686
-0.20222893 0.1995114 0.09006128 0.09158107 -0.15633264 -0.018147765 -0.06357617 0.14556359
0.19733724 -0.057404917 0.11210668 -0.19170193 0.119680084 -0.1261847 -0.25872064 -0.10063773
0.11511162 -0.18953308 -0.014384657 0.054204054 -0.21785101 0.18852718 -0.06706596 -0.030012365
-0.08412817 0.12646833 0.01014424 -0.08989498 0.034648307 0.05885105 -0.25633276 0.07137093
0.106796764 -0.07757238 0.20604154 -0.08359955 0.09680485 0.1067805 -0.07941858 0.155387
0.11937641 0.086144745 -0.018819485 -0.010729491 -0.22749284 0.25805107 0.20165195 0.227622
0.19462414 0.28777537 -0.24424571 0.018100154 0.07960858 -0.18460433 0.20677312 0.124429695
-0.033929013 -0.03914544 0.26447612 -0.19628614 0.1662358 -0.10112914 0.1092458 0.21127187
-0.021165835 -0.06675139 -0.0008306357 -0.23065618 -0.21820769 -0.037995853 0.18154389 -0.09627438
0.036792 -0.26598534 -0.114573814 0.1619692 -0.301574 -0.08395084 0.058014963 -0.19668774
0.06641842 0.006706889 0.011987758 0.22827001 0.059105944 -0.054513782 -0.03276997 -0.17005219
0.15671735 0.21232712 -0.042188823 0.15877084 -0.08486564 -0.18597727 -0.050539106 0.07203413
-0.26463544 -0.04067577 -0.0019302111 -0.24630512 -0.05195917 -0.21325399 -0.116751075 0.1922295
-0.12497268 -0.11587792 -0.25034744 0.21098009 -0.0958074 -0.052475896 0.06923499 0.17541355
-0.0025741202 -0.11295348 0.18791015 -0.15569544 0.11172113 -0.021708537 -0.15422139 0.23968866
-0.031055491 -0.13022785 -0.2245086 0.23513867 0.14723349 -0.11851577 0.2148275 -0.14905806
-0.15312873 0.13330701 -0.06411842 -0.03472136 -0.13487218 -0.0021012267 -0.12987463 0.025928678
-0.16671634 0.13075322 0.111095764 0.13327308 0.28054163 -0.07136042 0.071909845 -0.22212115
-0.18630746 0.061305944 0.17022398 -0.032467995 0.20729835 0.13718876 0.2133105 -0.17732805
0.07133967 0.08821509 0.20239595 -0.13719396 -0.1376881 -0.23068404 -0.049323894 -0.06202193
-0.14056993 0.09487586 -0.018134404 0.04798439 0.026113566 -0.15810563 -0.055834603 0.18055412
0.04228936 0.12525222 -0.045801003 0.15398079 -0.013389722 0.0289994 0.083944716 -0.17036495
0.27801412 -0.09748213 0.06967008 -0.098727144 0.140645 0.03639571 -0.16138998 -0.13474035
-0.01698257 0.20774978 -0.06425929 -0.092457525 0.1472117 0.09630616 0.053125605 0.016493492
-0.21088742 -0.06801085 -0.039475776 -0.029347138 0.18430786 0.07899724 -0.2259036 0.1037914
-0.13602717 -0.15114531 -0.17953576 0.19788878 -0.2387029 0.2655823 -0.00646653 0.13952543
-0.19665304 -0.17637143 -0.074798256 -0.10052008 0.0929145 -0.22322616 -0.17476127 0.24537629
0.18961646 0.0767126 -0.17451872 0.116473764 0.025353748 0.11533143 0.112852156 0.07186808
0.06353272 0.17945188 -0.012950455 0.18946794 -0.13285467 0.24506329 -0.17089984 -0.16233066
0.13660313 -0.17912862 -0.049088977 -0.20457965 -0.11037897 -0.029815387 0.039040744 0.14559731

mlp.mlp.4.bias f4 [16]
00000000: fea5 993b 0b1d 8cbd 528b c0bb 83a9 fe3b
00000010: 95b2 933d 858d 2a3c c2db 2e3d 8ef5 22be
00000020: 7abd 91bd 6407 c83d f0cc 1abd 6fa4 1e3c
00000030: 6746 5bbd fe19 783d 3f24 723d 7e38 72ba
0.0046889773 -0.06841477 -0.0058759833 0.007771672 0.07211796 0.010409717 0.042690046 -0.15913984
-0.07116218 0.09767035 -0.0377931 0.009682759 -0.053533938 0.060571663 0.0591166 -0.00092399854

mlp.mlp.5.weight f4 [16]
00000000: aff5 753f 8618 763f 1093 753f 3926 883f
00000010: e160 763f 6b30 883f 1451 753f 3808 883f
00000020: b03f 893f 8a18 773f 0f34 773f 1afa 893f
00000030: a9db 753f c3c8 883f 3ac5 883f 535b 773f
0.9607801 0.9613117 0.95927525 1.0636665 0.96241575 1.0639776 0.9582684 1.0627508
1.0722561 0.9652182 0.9656381 1.077945 0.960383 1.0686268 1.0685189 0.96623725

mlp.mlp.5.bias f4 [16]
00000000: 1737 29bd c7eb 2ebd d643 33bd 6dce 723d
00000010: 7feb 1fbd e96c 873d 4fd1 2fbd f7b6 703d
00000020: 0a28 903d 577e 13bd 0141 1abd 0e0c 903d
00000030: e9ef 2dbd 2e3b 813d 7874 823d 6b7e 16bd
-0.041312303 -0.042705324 -0.043765865 0.059278894 -0.039042946 0.0661257 -0.04292422 0.05876824
0.07038887 -0.03600916 -0.03765965 0.07033549 -0.042465124 0.06310116 0.06369871 -0.036741655

mlp.mlp.5.running_mean f4 [16]
00000000: d6da 7c3e cabb 1bbe 9594 e9bd 9b5a d33e
00000010: 8590 e13e ca8d fbbe e072 3e3e d128 14bf
00000020: e5e4 73bd b6e7 e93d 5b79 98bb e4a4 be3d
00000030: 5bcf bb3d 66dc cabd 4a96 553c e9ba eebb
0.24692854 -0.15208355 -0.11405293 0.41280064 0.44055572 -0.49131614 0.18598509 -0.5787478
-0.059544463 0.114211485 -0.0046531386 0.09308794 0.09170409 -0.09905319 0.01303632 -0.007285465

mlp.mlp.5.running_var f4 [16]
00000000: 7d0a 203e 7333 813e 4f1c 343e d7a4 693e
00000010: e0dd 593e 581f 863e d79d 053e cfac 1c3f
00000020: f529 af3e d3f7 e83d ca45 673e 7a15 b23d
00000030: c655 ea3d 390a f53e 2b07 9b3e a58f 323e
0.15629001 0.25234565 0.17588924 0.22816788 0.21276045 0.26195788 0.13048492 0.61201185
0.34211698 0.11375394 0.22585216 0.086955026 0.11442141 0.47859362 0.30278906 0.17437609

mlp.mlp.8.weight f4 [1, 16]
00000000: 7ffd 3fbe ddc1 45be e6b6 2abe d425 853e
00000010: cf1d 07bd aac6 953d 4a67 37be 5605 3e3e
00000020: 4332 a93d ad13 e4bb c598 ccbd 08cd 133e
00000030: 0561 9fbd e658 4e3e 5548 643e 3b75 59bd
-0.18749045 -0.19312234 -0.16671333 0.26005423 -0.032987412 0.07313283 -0.17910495 0.18556723
0.0826154 -0.0069603533 -0.09990076 0.14433682 -0.07782177 0.201511 0.22293217 -0.053090315
