model/dfm_epoch_80.pt (torch, 79687 bytes, 15 tensors)

embedding.embedding.weight f4 [98, 32]
0	0x3e6ac86d	0.22928019
1	0xbe74b9e4	-0.23899037
2	0x3da8d469	0.08243639
3	0xbdb08192	-0.086184636
4	0x3e5f8a04	0.21829993
5	0xbe8ae6f7	-0.27129337
6	0xbe714c58	-0.23564279
7	0x3de00ff9	0.109405465
8	0xbe5f3c21	-0.21800281
9	0xbe8ef00c	-0.27917516
10	0xbe9126b8	-0.28349853
11	0x3e8b09ac	0.27155817
12	0x3e5f810f	0.21826576
13	0x3e8c0ece	0.27355045
14	0xbe16fbaf	-0.14744447
15	0xbd97af8c	-0.0740653
16	0xbe7361d0	-0.23767781
17	0x3e789ec5	0.24279316
18	0x3d96b99d	0.07359622
19	0x3e8c36bc	0.2738551
20	0x3e8956f8	0.26824164
21	0xbe5508e8	-0.20804179
22	0x3e98a369	0.29812172
23	0xbe81deb4	-0.25365222
24	0xbe866943	-0.26252183
25	0x3e97c90d	0.29645577
26	0xbeb65adf	-0.35616204
27	0xbe6264d5	-0.22108777
28	0x3e8ac539	0.27103594
29	0x3e2afea3	0.16698699
30	0x3e2a9d2f	0.16661523
31	0x3e818de3	0.25303563
32	0x3e393abe	0.18088815
33	0xbe849b8c	-0.25899923
34	0x3dd04c6d	0.10170827
35	0xbddc7b40	-0.107656956
36	0x3e74da26	0.23911342
37	0xbe85efac	-0.26159418
38	0xbe9b2812	-0.3030401
39	0x3df08e3d	0.1174588
40	0xbe725fd8	-0.23669374
41	0xbe8e5a91	-0.27803472
42	0xbe8115de	-0.25211996
43	0x3e8e0501	0.27738193
44	0x3e7d6c36	0.2474831
45	0x3e91679c	0.2839936
46	0xbe18a5bb	-0.14906971
47	0xbd8cb7a4	-0.06870964
48	0xbe84aa52	-0.25911194
49	0x3e87417a	0.26417142
50	0x3dbaa73d	0.091139294
51	0x3e99a6c2	0.3001004
52	0x3e8fa226	0.28053397
53	0xbe836bf4	-0.256683
54	0x3e9dbdff	0.30809018
55	0xbe894854	-0.26812994
56	0xbe9355c8	-0.28776383
57	0x3e92585a	0.28583032
58	0xbec66718	-0.3875053
59	0xbe5593b0	-0.2085712
60	0x3e8648b3	0.2622734
61	0x3e4f8965	0.20267256
62	0x3e87c948	0.26520753
63	0x3e829487	0.25503942
64	0x3e984c65	0.29745784
65	0xbe81566d	-0.2526125
66	0x3dcc1f2c	0.09966883
67	0xbd83e9a4	-0.06441048
68	0x3e15b9c2	0.14621642
69	0xbe9e71ac	-0.309461
70	0xbea0d4d4	-0.31412375
71	0x3e063656	0.13106665
72	0xbe810bbf	-0.25204274
73	0xbea67cab	-0.3251699
74	0xbea0d0b3	-0.31409225
75	0x3e9cd924	0.30634415
76	0x3e61c6b3	0.22048454
77	0x3ea161e1	0.31519988
78	0xbe37feb7	-0.1796826
79	0xbdb54874	-0.0885171
80	0xbe932db3	-0.28745803
81	0x3e92f3ec	0.28701723
82	0x3d4e6b80	0.05039549
83	0x3ea2ea2d	0.31819287
84	0x3e9fb42c	0.31192148
85	0xbe8be69f	-0.27324387
86	0x3eaf2e49	0.34215
87	0xbea2d942	-0.3180638
88	0xbe892503	-0.2678605
89	0x3eafd669	0.3434327
90	0xbece92e5	-0.40346447
91	0xbe98da8f	-0.29854247
92	0x3e8e2570	0.27762938
93	0x3e71eb5e	0.23624942
94	0x3e87d963	0.2653304
95	0x3e8d8ee6	0.27648085
96	0x3dcf9b83	0.101370834
97	0xbdf2d005	-0.11856083
98	0x3d2ea018	0.042633146
99	0xbd379de6	-0.044828318
100	0x3db8e68c	0.09028348
101	0xbdfa81ae	-0.12231766
102	0xbe00f34c	-0.1259281
103	0x3d58efe1	0.05296314
104	0xbdd9892f	-0.10621869
105	0xbe01d16b	-0.12677543
106	0xbe015683	-0.12630658
107	0x3e0173b9	0.12641801
108	0x3dae7691	0.085187085
109	0x3e04e7a1	0.12978984
110	0xbd96ab7a	-0.07356925
111	0xbd135ed7	-0.03597912
112	0xbde64c78	-0.11245054
113	0x3dec154f	0.11527502
114	0x3d39ae33	0.045332145
115	0x3e03e8c2	0.12881759
116	0x3dfd1611	0.123577245
117	0xbdd64e5c	-0.104641646
118	0x3e1107b6	0.14163098
119	0xbdea651b	-0.114450656
120	0xbe041efc	-0.12902445
121	0x3e0d09e7	0.13773309
122	0xbe2f3a0f	-0.17111991
123	0xbdd4e0ba	-0.10394426
124	0x3e048c35	0.1294411
125	0x3dbe55b1	0.09293688
126	0x3ddbe788	0.107375205
127	0x3dc78dd4	0.097438484
128	0x3de8a751	0.11360038
129	0xbdfc970b	-0.12333497
130	0x3d3e905d	0.046524394
131	0xbd557673	-0.052114915
132	0x3e326793	0.17422323
133	0xbe2925e8	-0.16518366
134	0xbe0a59f6	-0.1351088
135	0x3d530f59	0.05152831
136	0xbdecb1dd	-0.11557362
137	0xbe120065	-0.14257963
138	0xbe0a734b	-0.13520543
139	0x3e04d0da	0.12970296
140	0x3e1bd468	0.15217745
141	0x3e11ab3d	0.14225478
142	0xbddc657d	-0.10761545
143	0xbd1c6a09	-0.03818706
144	0xbe0bf888	-0.13669026
145	0x3e03a8cf	0.12857364
146	0x3d46914b	0.048478406
147	0x3e0e1cf7	0.13878237
148	0x3e18f7c4	0.14938265
149	0xbdeea337	-0.116522245
150	0x3e1db015	0.15399201
151	0xbe121535	-0.14265902
152	0xbe188f43	-0.148984
153	0x3e17cf31	0.14825131
154	0xbe494f07	-0.19659053
155	0xbdfb54d8	-0.12272042
156	0x3e05b7d7	0.1305841
157	0x3dc7d91d	0.09758208
158	0x3df46500	0.11933327
159	0x3e1c0e21	0.15239765
160	0x3d24bf99	0.040221784
161	0xbd35c6fe	-0.044379227
162	0x3c83209c	0.01600676
163	0xbc673a50	-0.014113024
164	0x3cc86e7b	0.024466744
165	0xbd31bf3c	-0.043395266
166	0xbd44cb85	-0.048045654
167	0x3cadc921	0.02121407
168	0xbd249329	-0.040179405
169	0xbd466ad4	-0.048441723
170	0xbd45f836	-0.048332416
171	0x3d4bcc55	0.049755413
172	0x3cd4075e	0.02588242
173	0x3d49b9de	0.049249522
174	0xbcc2d22b	-0.023781857
175	0xbc5fee8d	-0.013667715
176	0xbd2c3a36	-0.0420477
177	0x3d3121aa	0.043244995
178	0x3c505a9a	0.012716914
179	0x3d4f9eea	0.05068866
180	0x3d3f0de6	0.046644114
181	0xbd2278db	-0.039666038
182	0x3d5baef7	0.053633656
183	0xbd3b852f	-0.04578131
184	0xbd3beea8	-0.045881897
185	0x3d57accd	0.05265503
186	0xbd82010a	-0.063478544
187	0xbd2299c5	-0.039697427
188	0x3d4262c4	0.04745747
189	0x3d1275f3	0.035757016
190	0x3d2978eb	0.041375082
191	0x3d100786	0.035163425
192	0x3e48a020	0.19592333
193	0xbe615b26	-0.22007427
194	0x3d8c7a8d	0.06859312
195	0xbd8b4719	-0.0680067
196	0x3e482e88	0.19549
197	0xbe8f16f6	-0.27947205
198	0xbe4b822f	-0.1987388
199	0x3dbfe740	0.09370279
200	0xbe415e9c	-0.18883747
201	0xbe5debbe	-0.2167196
202	0xbe661c66	-0.2247177
203	0x3e7f27e7	0.24917565
204	0x3db29687	0.08720117
205	0x3e6e18a1	0.23251583
206	0xbe1a5f43	-0.15075402
207	0xbd87dce6	-0.0663393
208	0xbe3278d1	-0.174289
209	0x3e334631	0.17507245
210	0x3d872545	0.065989055
211	0x3e6df615	0.23238404
212	0x3e77b558	0.24190271
213	0xbdfcefc5	-0.1235042
214	0x3e7fbaac	0.24973553
215	0xbe8655ec	-0.26237428
216	0xbe713e93	-0.23559026
217	0x3e7ecf9d	0.24883886
218	0xbe9e9c8c	-0.3097881
219	0xbe44c824	-0.19216973
220	0x3e5e53a9	0.21711601
221	0x3e252fb3	0.16131477
222	0x3e63fd95	0.22264703
223	0x3e057328	0.1303221
224	0x3e0fd04d	0.14044304
225	0xbe010a2e	-0.1260154
226	0x3d202524	0.03909792
227	0xbd461f00	-0.048369408
228	0x3dda7342	0.10666515
229	0xbd5f6227	-0.054536965
230	0xbe131dba	-0.14366809
231	0x3d6d8d9c	0.057996377
232	0xbdf05ef9	-0.117368646
233	0xbe06bab0	-0.13157153
234	0xbe1254f2	-0.14290217
235	0x3deac77d	0.114638306
236	0x3da378c9	0.07982022
237	0x3e15bb0d	0.14622135
238	0xbdcafce7	-0.099115185
239	0xbd42c148	-0.04754761
240	0xbe3d144b	-0.18464772
241	0x3dfa2c18	0.122154415
242	0x3d25184f	0.040306386
243	0x3e09aae9	0.13444103
244	0x3e2370f0	0.15961051
245	0xbe2d3811	-0.16915919
246	0x3e222788	0.15835392
247	0xbdab158d	-0.0835372
248	0xbe116c1e	-0.142014
249	0x3e1e96d4	0.15487224
250	0xbe441a9d	-0.19150777
251	0xbde1e616	-0.110302135
252	0x3e367f1f	0.1782193
253	0x3e048a38	0.12943351
254	0x3dfdb275	0.123875536
255	0x3e2f7f54	0.17138416

linear.fc.weight f4 [98, 1]
0	0xbf3d833f	-0.7402839
1	0xbf43c081	-0.7646561
2	0xbe46f762	-0.19430307
3	0xbd29b6ce	-0.0414341
4	0x3f03aedf	0.5143871
5	0x3de945be	0.113902554
6	0xbf348565	-0.70516044
7	0x3f99a19d	1.2002445
8	0xbe8f88dd	-0.28034106
9	0x3d2ce9aa	0.042215027
10	0x3d35bf6b	0.044372004
11	0x3d3bd567	0.045857813
12	0x3ca567ac	0.020191036
13	0x3cb67099	0.022270488
14	0xbaaf31cd	-0.0013366282
15	0x3cb122e0	0.021623075
16	0x3f27b219	0.6550613
17	0xbe86eb99	-0.26351622
18	0xbe7c42aa	-0.24634805
19	0x3e95bf7f	0.29247662
20	0x3eaa0e3b	0.33213982
21	0xbe76231e	-0.24036834
22	0x3e893699	0.26799467
23	0x3cb14995	0.021641532
24	0x3cea3552	0.028589878
25	0x3cbdcba0	0.023168385
26	0x3cdc845b	0.02691858
27	0x3d105579	0.035237763
28	0xbe8fc790	-0.28081942
29	0xbb5783c8	-0.0032884944
30	0x3c1d6601	0.009606839
31	0x3b6d536f	0.003621306
32	0x3ca1c61c	0.019747786
33	0x3c712a6a	0.014719585
34	0x3a28a64f	0.00064334733
35	0x39c2b1d5	0.0003713506
36	0x3a1b4530	0.00059230905
37	0x3c6c521a	0.014423871
38	0x398e71d0	0.00027169148
39	0x3bc63bbf	0.0060496028
40	0x3bce1615	0.0062892535
41	0x3ad6bd99	0.0016383409
42	0x3bf7da80	0.007563889
43	0x3d2f7e0e	0.042844824
44	0xbd1c225f	-0.038118716
45	0x3bb60fc6	0.0055560796
46	0x3ca592a3	0.020211523
47	0x3d0589f6	0.032602273
48	0x3b66736b	0.003516401
49	0x3cfd46b7	0.030917509
50	0xbd4ed074	-0.050491765
51	0x3b8c7cb2	0.004287326
52	0x3b44ce43	0.0030030168
53	0x3c0b23ab	0.008492391
54	0x3ad9162f	0.0016562397
55	0x3b57af00	0.0032910705
56	0x3d07865c	0.03308712
57	0x3b0efa20	0.0021816567
58	0xbd24e156	-0.04025396
59	0x3caf34a3	0.021387404
60	0x3bf0cff6	0.0073490096
61	0x3bdb9f26	0.0067023216
62	0x3cc771c8	0.024346247
63	0x3b6d9022	0.003624924
64	0x3b54043b	0.0032351154
65	0x399345a1	0.00028089902
66	0x3a5ac742	0.0008345732
67	0x3b9663ef	0.0045895497
68	0x3da9ac2b	0.082847916
69	0xbc7be455	-0.015374263
70	0x3c1cc511	0.009568469
71	0x3c5d0faf	0.013492509
72	0x3baab747	0.0052098366
73	0x3c21e9fe	0.009882448
74	0x3a5543c6	0.0008135404
75	0x3d6c4481	0.057682518
76	0x3ae869ab	0.0017731687
77	0x39797f11	0.00023793826
78	0x3d009e84	0.031401172
79	0x3d1833a6	0.03715863
80	0x3cc7e9e9	0.02440353
81	0x3cd2d251	0.025735052
82	0x3ba550d9	0.005045038
83	0x3b0b5455	0.0021259983
84	0x3d8ed74e	0.0697466
85	0x3d6843c9	0.05670527
86	0x3c94f18c	0.018181585
87	0x3bbd1f4e	0.005771554
88	0x3c207744	0.00979406
89	0x3c8f7ec7	0.017516507
90	0x3cf5f176	0.030022364
91	0x3c3e882f	0.011629148
92	0x3c10d05a	0.008838737
93	0x3c82ad06	0.015951645
94	0x3c5055d6	0.012715777
95	0x3c2750d2	0.01021214
96	0x39ab4eb2	0.00032674294
97	0x3c9389b9	0.018010007

mlp.mlp.0.weight f4 [64, 160]
0	0xba89f10e	-0.001052411
1	0xb9d3fc0c	-0.00040432846
2	0x39c20a0a	0.00037010043
3	0xb9dccb80	-0.0004211329
4	0x39c13651	0.00036852297
5	0x3943c520	0.00018670084
6	0xbac750e2	-0.00152066
7	0x39400a1f	0.00018314317
8	0xb9de9676	-0.00042455242
9	0x3820d312	3.8343547e-05
10	0x3a41aa67	0.00073877577
11	0x38d8eebb	0.000103441496
12	0x3a0a8217	0.0005283667
13	0x39616ca3	0.00021498142
14	0xb7e2a603	-2.7018605e-05
15	0x38c87567	9.558611e-05
16	0xb9c87555	-0.00038234392
17	0x39cd79f2	0.00039191503
18	0x39cc284e	0.0003893994
19	0x39f87922	0.00047392497
20	0x3958d945	0.00020680304
21	0xba895cfa	-0.001047998
22	0x394a9dd7	0.00019323021
23	0xb981487a	-0.00024658797
24	0xb9f173cd	-0.0004605338
25	0xb9886448	-0.00026014657
26	0xba3c7ee7	-0.0007190541
27	0x3971a834	0.00023046212
28	0xb9675a32	-0.00022063477
29	0x3a3feeaf	0.00073216384
30	0x3b0ef9a9	0.002181629
31	0x380ed632	3.4054923e-05
32	0x3ac540ff	0.0015049278
33	0xb98571b4	-0.00025452452
34	0xb4293606	-1.5759005e-07
35	0x39903819	0.00027507616
36	0xba5ed7ad	-0.0008500766
37	0xb9d4ea37	-0.00040610295
38	0xba943f97	-0.0011310455
39	0x399f0ae1	0.0003033495
40	0xba3b21f7	-0.0007138545
41	0xbaa03223	-0.0012221973
42	0xbaa85c03	-0.0012844804
43	0x3a8077c4	0.0009801318
44	0xb8dd6608	-0.00010557106
45	0x3a6d242b	0.0009046222
46	0x391dc629	0.00015046507
47	0xb987107c	-0.00025761488
48	0xba48f9f8	-0.0007666643
49	0x3a58771c	0.0008257495
50	0xb9b138f9	-0.0003380252
51	0x3a979684	0.0011565243
52	0x3a6eae52	0.0009104955
53	0xba72e939	-0.000926632
54	0x3a942904	0.0011303728
55	0xbaaedce1	-0.0013340974
56	0xb7edbbc2	-2.8340033e-05
57	0x3aa8dbdb	0.0012882905
58	0xba803034	-0.0009779991
59	0xba95b6a7	-0.0011422232
60	0x39e4e389	0.00043657076
61	0x3a7df27f	0.0009687319
62	0x3a429d51	0.00074239547
63	0x3a3a70af	0.0007112128
64	0x3b4af59b	0.0030969146
65	0xbb3f2a03	-0.0029169328
66	0xbb1772d3	-0.0023109212
67	0x378eb4c5	1.7011896e-05
68	0xbb3fe250	-0.002927918
69	0x3bf739ed	0.007544747
70	0x38735024	5.801035e-05
71	0x3a56a92c	0.0008188661
72	0xbb01c6ed	-0.0019802407
73	0x3b9fbff2	0.0048751766
74	0xbacb714a	-0.0015521434
75	0x3ab0c3f7	0.0013486136
76	0xba977168	-0.0011554183
77	0x3b1f8669	0.002434159
78	0xbb8d89e2	-0.0043194154
79	0xbaa0c5e0	-0.0012266003
80	0xbc016aac	-0.007898968
81	0xbb89847b	-0.004196701
82	0x3a915f7e	0.0011091081
83	0x3b926599	0.004467678
84	0x3bbdf025	0.0057964497
85	0xbc4fbf80	-0.0126799345
86	0x3b06b86f	0.0020556708
87	0x3b895cc7	0.004191968
88	0xbb43c1e4	-0.0029870206
89	0x3b32a8e9	0.0027261323
90	0xbb53c34c	-0.003231245
91	0x3be1615c	0.006878061
92	0x3c4e4303	0.012589219
93	0x3b8bb58b	0.004263585
94	0x3aa72890	0.0012753177
95	0x3b599c03	0.0033204562
96	0x3b16592b	0.0022941332
97	0xbacd0d76	-0.001564427
98	0x3992ccb3	0.00027999803
99	0xb921d6b9	-0.00015434147
100	0x3b13990c	0.0022521643
101	0xbc011e0a	-0.007880697
102	0xb9b79823	-0.0003501783
103	0x39b9c6df	0.0003543412
104	0xba0eae65	-0.0005442857
105	0x3a197f91	0.00058554957
106	0xb9a246ab	-0.000309517
107	0x3b959a03	0.004565479
108	0x3afe7dd1	0.0019416158
109	0x39f831a7	0.0004733924
110	0x3a7821f2	0.00094655075
111	0xb9230ef6	-0.00015550465
112	0xb9cda749	-0.00039225284
113	0xb964c1c8	-0.00021815964
114	0x3925f865	0.0001582816
115	0xba1c8913	-0.00059713534
116	0xbb43db4b	-0.0029885347
117	0xbb70fce4	-0.0036771828
118	0x3a51884c	0.0007993027
119	0xbb4ac421	-0.0030939656
120	0xba076622	-0.000516506
121	0x3a292db2	0.00064536475
122	0xba829a23	-0.0009964149
123	0x3a14455d	0.0005656088
124	0x3a696995	0.00089039776
125	0xba298d97	-0.0006467937
126	0x3a8d2b2a	0.001077031
127	0xbb701057	-0.0036630833
128	0x3b08d949	0.0020881465
129	0xbaebe8f2	-0.00179985
130	0x3904ca73	0.00012663919
131	0xb9dd8298	-0.00042249705
132	0x3ab42770	0.0013744663
133	0xbb2ede04	-0.0026682625
134	0xbab09859	-0.0013473138
135	0x3b4bc494	0.0031092511
136	0xbb4d609f	-0.0031338108
137	0xbae637d7	-0.0017564249
138	0xba1b36ca	-0.0005920945
139	0x3b38828e	0.0028153989
140	0x3a91f52c	0.0011135689
141	0x3b069995	0.002053832
142	0x3a473898	0.00075996807
143	0x387524ea	5.844693e-05
144	0xbac4f3a1	-0.001502622
145	0x3ae5cd07	0.0017532416
146	0x39fa158a	0.00047699764
147	0x3aff5d3f	0.0019482746
148	0x3afc85ee	0.0019265988
149	0xbac0e4b2	-0.0014716594
150	0x3aecbe37	0.001806206
151	0xbb0e716c	-0.0021735085
152	0xbad524c1	-0.0016261564
153	0x3ac91aaa	0.001534303
154	0xbb333e2c	-0.002735029
155	0xbb2dc6db	-0.0026516232
156	0x3af5a255	0.0018740395
157	0x3a24e961	0.00062908797
158	0x39a5ec21	0.00031647182
159	0x3aec9fc2	0.0018052983
160	0xbaba5052	-0.0014214611
161	0xba2a3076	-0.00064922066
162	0x3a26d80a	0.000636459
163	0xba3790d0	-0.0007002475
164	0x3a3c945c	0.0007193738
165	0x39a931e9	0.00032271378
166	0xbae6942b	-0.0017591765
167	0x3960eee9	0.00021451306
168	0xba027448	-0.00049764337
169	0x384dbd11	4.905189e-05
170	0x3a5a4a88	0.0008327146
171	0x394bb86a	0.00019428288
172	0x3a81fde1	0.0009917581
173	0x398d2890	0.00026923837
174	0xb8824345	-6.211413e-05
175	0x3944df2b	0.00018775153
176	0xba41243d	-0.00073677656
177	0x3a40310c	0.00073315273
178	0x3a0aa4d2	0.00052888424
179	0x3a6d2257	0.00090459496
180	0x39f687d7	0.00047021985
181	0xbabe8b27	-0.001453732
182	0x3973739b	0.00023217352
183	0xba0c076f	-0.0005341684
184	0xba6380c8	-0.00086785527
185	0xb9a822e1	-0.00032069444
186	0xba664296	-0.0008783726
187	0x39ddd9c5	0.00042314656
188	0xb98bdcde	-0.00026676705
189	0x3a933d1e	0.0011233424
190	0x3b2a5f82	0.0025996868
191	0x386a52ba	5.5866993e-05
192	0x3b0636d3	0.0020479455
193	0xba50389c	-0.0007943006
194	0x39bf054e	0.0003643431
195	0x39bb98b4	0.00035781192
196	0xbabac84c	-0.0014250367
197	0xba816141	-0.0009870903
198	0xbadc9c3d	-0.0016831231
199	0x3a3ac335	0.0007124425
200	0xba9af332	-0.0011821745
201	0xbae31762	-0.0017325694
202	0xbae335dd	-0.0017334778
203	0x3ace3269	0.0015731576
204	0x390d9bf1	0.000135049
205	0x3ac3eaee	0.0014947334
206	0xb9942a5b	-0.00028260317
207	0xb9f1a2ab	-0.000460883
208	0xbaa80c36	-0.0012821022
209	0x3ab4827d	0.0013771799
210	0xba1031a0	-0.0005500559
211	0x3ad8cc93	0.001654046
212	0x3ab82bca	0.0014051136
213	0xbac3dc83	-0.0014943037
214	0x3add5f40	0.0016889349
215	0xbaeb6f6b	-0.0017962282
216	0xb9e51aa3	-0.0004369813
217	0x3af1eeaf	0.0018457974
218	0xbacfa215	-0.0015841151
219	0xbaeb87f4	-0.0017969594
220	0x3a7b3c46	0.00095838716
221	0x3ab6c9a1	0.0013945588
222	0x3aa41c31	0.0012520609
223	0x3a8c3dc9	0.0010699566
224	0x3b5841d1	0.0032998214
225	0xbb4e5cd6	-0.003148844
226	0xbb296406	-0.0025846972
227	0x38997364	7.317102e-05
228	0xbb4f12c7	-0.0031596886
229	0x3c03ed0e	0.008052124
230	0x3a1dc9cf	0.00060191465
231	0x3a5947fe	0.0008288621
232	0xbb0a44fa	-0.0021098242
233	0x3bb6d8c2	0.0055800388
234	0xbad10668	-0.0015947344
235	0x3ab35757	0.0013682646
236	0xbad00861	-0.0015871638
237	0x3b29936d	0.0025875226
238	0xbb954546	-0.004555377
239	0xbaac22d1	-0.0013132935
240	0xbc085ee3	-0.008323404
241	0xbb9df654	-0.0048206244
242	0x3a99e5bd	0.0011741441
243	0x3b9f4ce6	0.004861462
244	0x3bd22485	0.006413045
245	0xbc5b4878	-0.013383977
246	0x3b0e897e	0.0021749432
247	0x3b924282	0.0044634948
248	0xbb5ae5dc	-0.0033401167
249	0x3b3ea83b	0.0029091972
250	0xbb5f4544	-0.0034068385
251	0x3bfe1ead	0.0077551217
252	0x3c615552	0.013753252
253	0x3b971d0f	0.0046116184
254	0x3ab5b945	0.0013864419
255	0x3b4f1f33	0.003160429

mlp.mlp.0.bias f4 [64]
0	0xb3e883e8	-1.08273355e-07
1	0x354ff570	7.747067e-07
2	0xb280a98d	-1.4978264e-08
3	0xb2f4a83e	-2.8481846e-08
4	0xb2eaf96a	-2.7354606e-08
5	0xb29c5260	-1.819825e-08
6	0x328891ee	1.5898845e-08
7	0x3420e604	1.498484e-07
8	0xb213b5c7	-8.5978575e-09
9	0xb2201eca	-9.320226e-09
10	0xb20af0e1	-8.087427e-09
11	0xb4003ad6	-1.1942333e-07
12	0xb3b37456	-8.3564984e-08
13	0x2a6a2585	2.0796392e-13
14	0x3060459c	8.1589646e-10
15	0x348785f2	2.5243168e-07
16	0x330aa3e1	3.2279676e-08
17	0x34fd967e	4.723442e-07
18	0xb295a6f3	-1.7421803e-08
19	0xb434ec73	-1.6849826e-07
20	0xb26d613b	-1.3817323e-08
21	0xb51eaf28	-5.911447e-07
22	0x34a4ab96	3.0672226e-07
23	0x331fb8d4	3.7188173e-08
24	0xb4e356ca	-4.2345192e-07
25	0xb1722548	-3.5236827e-09
26	0xb2c738d2	-2.3192488e-08
27	0xb41d1eb5	-1.4632936e-07
28	0xb1a358c3	-4.7540154e-09
29	0xb48ad8ae	-2.5862158e-07
30	0xb304fec0	-3.096534e-08
31	0xb38b9e8c	-6.5015314e-08
32	0xb520b079	-5.9861446e-07
33	0x34984b5e	2.8367043e-07
34	0xb42d7802	-1.6155539e-07
35	0x33b7b111	8.55381e-08
36	0x34d4157d	3.9503712e-07
37	0xb440d2fd	-1.795815e-07
38	0x348324b0	2.4427345e-07
39	0x3418f5db	1.4245545e-07
40	0xb4cafcda	-3.7809406e-07
41	0xb39efef2	-7.4038226e-08
42	0xb286a635	-1.5675235e-08
43	0x33baa4cc	8.691276e-08
44	0xb38e43db	-6.624733e-08
45	0x346ee401	2.2248425e-07
46	0xb446409e	-1.8463695e-07
47	0x3285812a	1.5541975e-08
48	0x350d03ce	5.253213e-07
49	0xb214962f	-8.648882e-09
50	0x339e76d8	7.379066e-08
51	0x34a7d0c5	3.1258074e-07
52	0xb43bf51d	-1.7504904e-07
53	0xb3a9ddb7	-7.9100055e-08
54	0xb433cce5	-1.6745214e-07
55	0x331cb853	3.6489222e-08
56	0xb3ee2a9d	-1.109049e-07
57	0x34074c49	1.2600607e-07
58	0xb2705f72	-1.399154e-08
59	0xb46596ae	-2.1382104e-07
60	0x34283a6b	1.5667472e-07
61	0xb4094fa7	-1.2788097e-07
62	0x33f53bd2	1.1419583e-07
63	0xb31bf663	-3.6312837e-08

mlp.mlp.1.weight f4 [64]
0	0x3d52a475	0.05142637
1	0x3d6a44b8	0.05719444
2	0x3c8c5f4b	0.017135283
3	0x3c96b114	0.018394984
4	0x3ca10312	0.019654784
5	0x3c2b6e0a	0.010463247
6	0x3d2f8c98	0.04285869
7	0x3d2dc98f	0.04242855
8	0x3bc29e5a	0.005939287
9	0x3c7c3bb2	0.015395092
10	0x3bd0f2df	0.0063766087
11	0x3d15c224	0.0365621
12	0x3d29d6e6	0.04146471
13	0x38f066fb	0.000114632734
14	0x3cadce9b	0.021216681
15	0x3cfa53e4	0.03055758
16	0x3d5dd217	0.054155435
17	0x3d5ab3ce	0.05339413
18	0x3ca979c6	0.020687949
19	0x3d329dc2	0.04360748
20	0x3d12fb98	0.03588447
21	0x3d3cf2ba	0.04612992
22	0x3d33a7f1	0.043861333
23	0x3d317ff1	0.043334905
24	0x3d3ddf15	0.046355326
25	0x3bcf4474	0.006325299
26	0x3ca858a2	0.020550076
27	0x3d224a54	0.039621666
28	0x3c2be8b4	0.0104924925
29	0x3d24a5f0	0.040197313
30	0x3d1d96e7	0.03847399
31	0x3cc0d7f7	0.02354048
32	0x3d32989f	0.043602582
33	0x3d17bedc	0.037047252
34	0x3d26e9ec	0.04075043
35	0x3cd4abb7	0.025960786
36	0x3d19e8af	0.03757542
37	0x3d1b385d	0.03789555
38	0x3d440fac	0.04786651
39	0x3d0c05f1	0.034185354
40	0x3d70b95a	0.058770515
41	0x3d094dd3	0.033521485
42	0x3cd96a5d	0.026539976
43	0x3d1b2d8d	0.037885237
44	0x3cb0e54a	0.021593709
45	0x3d15a9ee	0.03653901
46	0x3d2210bc	0.03956674
47	0x3c5c2190	0.013435736
48	0x3d3159f9	0.043298695
49	0x3c5ccf15	0.013477107
50	0x3cc606b5	0.02417312
51	0x3d18ebe6	0.037334345
52	0x3d19a322	0.03750909
53	0x3cb75da7	0.022383524
54	0x3d290fdb	0.041274887
55	0x3c92ae49	0.017905371
56	0x3cf3f128	0.029778078
57	0x3d157f53	0.03649838
58	0x3c806f5d	0.015678102
59	0x3d3ca0e5	0.04605188
60	0x3d1abaa2	0.037775643
61	0x3d1cde05	0.03829767
62	0x3d239c12	0.039943762
63	0x3cf3e920	0.029774249

mlp.mlp.1.bias f4 [64]
0	0x3cb36bd5	0.021902004
1	0x3ca0be54	0.019622006
2	0x3c5bd641	0.013417781
3	0x3cad4dfd	0.021155352
4	0x3cb6ac8e	0.022299077
5	0x3c3cf009	0.011531838
6	0x3c97cbf4	0.01852987
7	0x3c83ebc2	0.016103629
8	0x3bcb6704	0.006207349
9	0x3c46cd38	0.012133889
10	0x3bcc1954	0.0062286053
11	0x3ca25c33	0.019819355
12	0x3cb6a123	0.022293633
13	0x37b2b29f	2.130243e-05
14	0x3c816577	0.015795453
15	0x3cf633fb	0.030054083
16	0x3c9a1822	0.018810336
17	0x3cae0a33	0.021245098
18	0x3c6e0bf1	0.014529214
19	0x3ca21292	0.019784246
20	0x3caa8c42	0.020818833
21	0x3c9b8300	0.018983364
22	0x3c41a325	0.011818682
23	0x3c635b1a	0.013876701
24	0x3c5e18f0	0.01355575
25	0x3bd5a0f6	0.006519432
26	0x3cbe98df	0.023266254
27	0x3c9edf19	0.01939349
28	0x3c1744cf	0.009232714
29	0x3c966dc7	0.018362893
30	0x3c8c3ad0	0.017117888
31	0x3cd9f238	0.026604757
32	0x3c4ba524	0.012429509
33	0x3c8fa8eb	0.017536601
34	0x3caae180	0.02085948
35	0x3c8785b2	0.016543243
36	0x3c9972c1	0.018731477
37	0x3ca5777c	0.020198576
38	0x3caf24dc	0.02137988
39	0x3cf138c3	0.029446011
40	0x3cca0552	0.02466074
41	0x3c93d5a4	0.018046208
42	0x3ce943c4	0.028474696
43	0x3caceec1	0.02110994
44	0x3ccda974	0.025105216
45	0x3ca3f1f7	0.020012839
46	0x3c5597c9	0.013036677
47	0x3c7b5e59	0.015342318
48	0x3c8f693e	0.017506238
49	0x3c314e25	0.010821854
50	0x3ce3e427	0.027818752
51	0x3ca39446	0.019968163
52	0x3c9a4ca8	0.01883538
53	0x3cce619f	0.025193034
54	0x3be2f86e	0.006926588
55	0x3c62fde3	0.013854477
56	0x3c9575aa	0.018244583
57	0x3c9b7346	0.018975865
58	0x3c9c62bc	0.019090049
59	0x3c6bba10	0.0143876225
60	0x3ca8d9e4	0.02061171
61	0x3c9af1d0	0.018914133
62	0x3c9f9241	0.019478919
63	0x3cf77fcd	0.030212307

mlp.mlp.1.running_mean f4 [64]
0	0x3cab5344	0.020913728
1	0x3cbf4514	0.023348369
2	0x3c821586	0.015879404
3	0x3c50474d	0.012712312
4	0x3c4517c4	0.012029592
5	0x3c289315	0.010288973
6	0xbc8ca6fd	-0.01716947
7	0xbc85af63	-0.016318982
8	0x3bf8f9e6	0.0075981496
9	0x3c768633	0.015046644
10	0x3bf82e3d	0.0075738714
11	0xbc8c5df8	-0.017134652
12	0xbc91d7ca	-0.017803092
13	0x3965e1d5	0.00021923271
14	0x3c9107dc	0.017703943
15	0x3c6925ed	0.014230234
16	0x3cc3ff36	0.023925405
17	0x3cb1c334	0.021699525
18	0x3c915d61	0.017744722
19	0xbc91bffe	-0.017791744
20	0xbc80ab2c	-0.015706621
21	0x3cb65163	0.022255605
22	0xbc7949e2	-0.015215369
23	0xbc755937	-0.014974884
24	0xbc5eb57a	-0.013593072
25	0x3c02b307	0.007977254
26	0x3c496628	0.012292422
27	0xbc879021	-0.016548218
28	0x3c41c121	0.011825831
29	0x3cb36463	0.021898454
30	0xbc771f83	-0.015083197
31	0x3c4f67e2	0.012659045
32	0xbc84329c	-0.016137414
33	0xbc74af48	-0.014934368
34	0xbc7de4ab	-0.015496413
35	0x3c9d74a4	0.019220658
36	0xbc82baa0	-0.01595813
37	0xbc8b063e	-0.01697075
38	0x3cb388f0	0.021915883
39	0x3c862eb9	0.016379701
40	0x3c9ce064	0.019149967
41	0x3ca7aa6d	0.020467008
42	0x3c5925ae	0.013253612
43	0xbc85f0e5	-0.016350219
44	0x3c4f440a	0.012650499
45	0xbc8b84a9	-0.01703103
46	0xbc64fa16	-0.013975641
47	0x3c3e973b	0.011632736
48	0xbc81cbe0	-0.015844285
49	0x3c6772b2	0.014126467
50	0x3c4ea864	0.01261339
51	0xbc87848d	-0.016542697
52	0xbc89c9af	-0.016819803
53	0x3c5b242a	0.013375321
54	0xbc4f1051	-0.0126381675
55	0x3c878152	0.016541157
56	0x3ca6fb88	0.020383611
57	0xbc87b99d	-0.016568
58	0x3c407144	0.011745755
59	0xbc6d0367	-0.014466143
60	0xbc876119	-0.016525792
61	0xbc83226d	-0.016007626
62	0xbc75e289	-0.0150076235
63	0x3c602f1e	0.013683109

mlp.mlp.1.running_var f4 [64]
0	0x37927007	1.7456723e-05
1	0x37bf7fda	2.282851e-05
2	0x37708cc8	1.4337893e-05
3	0x3708a2dd	8.144151e-06
4	0x36f9b4c0	7.4418203e-06
5	0x36ee8fde	7.109701e-06
6	0x373b10f4	1.1150016e-05
7	0x37273dbb	9.968348e-06
8	0x368fcea0	4.2857864e-06
9	0x375ef94e	1.3290277e-05
10	0x36908516	4.3070277e-06
11	0x37535c42	1.25980605e-05
12	0x3758352a	1.28869815e-05
13	0x315cd23d	3.213372e-09
14	0x3788ea32	1.6321519e-05
15	0x371cff41	9.3577555e-06
16	0x37d9c8d1	2.5961928e-05
17	0x37ab1898	2.039624e-05
18	0x37894d30	1.6367616e-05
19	0x3746faf6	1.1860151e-05
20	0x374f4246	1.2353592e-05
21	0x37a6969f	1.985888e-05
22	0x372bdd03	1.0243853e-05
23	0x3711d0d5	8.691296e-06
24	0x37349caf	1.0765317e-05
25	0x3699364b	4.566076e-06
26	0x370307f6	7.810062e-06
27	0x37357f84	1.081813e-05
28	0x37186d8a	9.08541e-06
29	0x379c1be9	1.8609646e-05
30	0x371be835	9.292785e-06
31	0x370597b4	7.962739e-06
32	0x3712698b	8.726852e-06
33	0x37287546	1.0040885e-05
34	0x3738267d	1.0976216e-05
35	0x37974e6c	1.803712e-05
36	0x3734c097	1.0773677e-05
37	0x373fcffd	1.1432913e-05
38	0x379ca1c5	1.8671979e-05
39	0x372519f4	9.840809e-06
40	0x379c664b	1.8644283e-05
41	0x37a3fc8f	1.9548721e-05
42	0x37153749	8.893964e-06
43	0x3741a728	1.15426155e-05
44	0x3704393a	7.881137e-06
45	0x374abf8a	1.2084734e-05
46	0x371625fa	8.949539e-06
47	0x3706daf2	8.038e-06
48	0x37208b73	9.569211e-06
49	0x37459e0a	1.1778911e-05
50	0x37074750	8.063231e-06
51	0x37392eeb	1.1037783e-05
52	0x3736f782	1.0905673e-05
53	0x37008b2d	7.661799e-06
54	0x37945289	1.7681408e-05
55	0x377a149e	1.49059615e-05
56	0x37a68658	1.98513e-05
57	0x373dd854	1.1315646e-05
58	0x36fba6aa	7.499785e-06
59	0x371fc8eb	9.523918e-06
60	0x37445246	1.1701666e-05
61	0x372f1e9a	1.0437938e-05
62	0x37294401	1.0089018e-05
63	0x370f7250	8.55008e-06

mlp.mlp.4.weight f4 [64, 64]
0	0xbb828363	-0.0039829477
1	0xbb8a6911	-0.0042239507
2	0xbad7a9ea	-0.0016453837
3	0xbb1e08e2	-0.0024114181
4	0xbb29b2c2	-0.0025893901
5	0xbaa62377	-0.0012675364
6	0x3bb4d46c	0.0055184867
7	0x3bac5e55	0.0052602687
8	0xba2c5dc8	-0.0006575254
9	0xbac1a750	-0.0014774594
10	0xba34d92a	-0.0006898815
11	0x3b99c5a6	0.004692751
12	0x3bba7299	0.0056899306
13	0xb6304dac	-2.6271255e-06
14	0xbb049cb5	-0.0020235006
15	0xbb8743a9	-0.0041279388
16	0xbb86bcbd	-0.004111855
17	0xbb7f9a08	-0.0039001722
18	0xbb00724a	-0.0019599372
19	0x3bb79858	0.0056028776
20	0x3b9e6d43	0.0048348024
21	0xbb8c50ce	-0.0042820936
22	0x3bb29f25	0.0054511004
23	0x3bac24bf	0.005253404
24	0x3bb80a9d	0.0056164996
25	0xba34da07	-0.00068989437
26	0xbb342504	-0.0027487883
27	0x3bae963f	0.0053279693
28	0xba8ad9f3	-0.0010593518
29	0xbb7821ee	-0.003786202
30	0x3ba02e21	0.0048883115
31	0xbb59293c	-0.003313615
32	0x3ba4cd0c	0.0050293263
33	0x3b9ab90b	0.004721766
34	0x3bb0682b	0.0053835115
35	0xbb159d43	-0.002282933
36	0x3ba5dc6f	0.005061678
37	0x3ba1310b	0.0049191765
38	0xbb73c651	-0.0037197063
39	0xbb8a4509	-0.0042196554
40	0xbb9a0bcb	-0.004701113
41	0xbb4f828a	-0.00316635
42	0xbb6e7451	-0.0036385248
43	0x3ba2d86c	0.004969647
44	0xbb46dd57	-0.0030344331
45	0x3b9bd211	0.0047552665
46	0x3ba5fe6a	0.005065729
47	0xbadd36fc	-0.0016877349
48	0x3bae4a4f	0.005318917
49	0xbab0e97c	-0.0013497318
50	0xbb5e2254	-0.0033894973
51	0x3ba6786d	0.005080274
52	0x3ba69dd1	0.005084731
53	0xbb481001	-0.0030527117
54	0x3b9e4c7a	0.004830894
55	0xbae05c51	-0.0017117356
56	0xbb26d30b	-0.0025455381
57	0x3b9f1b92	0.0048555816
58	0xbb0b6a8b	-0.0021273221
59	0x3bb718af	0.0055876593
60	0x3ba8e8b1	0.005154692
61	0x3b9f57b8	0.004862752
62	0x3baa598b	0.0051986626
63	0xbb82855c	-0.003983183
64	0xbc7907e1	-0.015199632
65	0xbc87f3af	-0.01659569
66	0xbbbca9d3	-0.0057575493
67	0xbbbcbf01	-0.005760074
68	0xbbc51893	-0.0060148924
69	0xbb772a1b	-0.0037714306
70	0x3c14a1c6	0.009071773
71	0x3c0da967	0.008646346
72	0xbb137872	-0.002250221
73	0xbba6e8e6	-0.0050936816
74	0xbb18b921	-0.0023303705
75	0x3bfbc0d7	0.0076829004
76	0x3c0dc60c	0.008653175
77	0xb7a44cc0	-1.9586063e-05
78	0xbbe0d5a7	-0.006861407
79	0xbbafa163	-0.005359815
80	0xbc78daba	-0.015188867
81	0xbc8376d5	-0.016047874
82	0xbbc013bf	-0.005861729
83	0x3bf4bc74	0.0074687544
84	0x3c06a303	0.008217576
85	0xbbb2549b	-0.0054422147
86	0x3c016f7a	0.007900113
87	0x3c08ad8a	0.008342156
88	0x3c1a6efa	0.009425873
89	0xbb30cd65	-0.0026977893
90	0xbbc99861	-0.006152198
91	0x3c13d0db	0.009021963
92	0xbb8cf278	-0.0043013655
93	0xbb882b75	-0.004155571
94	0x3c01d05b	0.007923211
95	0xbbbf9775	-0.0058469125
96	0x3c040e8c	0.008060109
97	0x3bdf3dd0	0.0068127885
98	0x3c10fd23	0.008849415
99	0xbc0af77a	-0.008481855
100	0x3c068072	0.008209335
101	0x3bef44a6	0.0073018847
102	0xbc69d68a	-0.0142723415
103	0xbb6d3e61	-0.003620051
104	0xbc9471f8	-0.01812075
105	0xbbf30106	-0.0074158935
106	0xbbb6f285	-0.00558311
107	0x3c013afa	0.007887596
108	0xbbce056c	-0.0062872674
109	0x3bf69637	0.007525231
110	0x3c0314f1	0.008000598
111	0xbb98ab8b	-0.0046591214
112	0x3c00f03f	0.007869779
113	0xbb975a4b	-0.004618918
114	0xbbdbea4d	-0.0067112804
115	0x3c0115e9	0.007878759
116	0x3bf118e8	0.0073577054
117	0xbbd263ae	-0.006420574
118	0x3c064ab7	0.008196524
119	0xbbc5bb88	-0.0060343184
120	0xbc22db78	-0.009940021
121	0x3c02a5cd	0.0079741
122	0xbba7f1ca	-0.005125259
123	0x3c002075	0.007820238
124	0x3c0637bd	0.008192
125	0x3bf12b49	0.0073598963
126	0x3c0b19f1	0.008490072
127	0xbbbf337c	-0.005834995
128	0xbc33e267	-0.0109792715
129	0xbc3fa63e	-0.01169735
130	0xbb8024c6	-0.0039106337
131	0xbbbb656f	-0.005718879
132	0xbbc4d837	-0.00600722
133	0xbb440fdd	-0.0029916682
134	0x3c07dc09	0.008292207
135	0x3c0b96a1	0.008519799
136	0xbae492d3	-0.0017438777
137	0xbb63a12d	-0.003473352
138	0xbad53556	-0.0016266506
139	0x3be6966a	0.0070369737
140	0x3c002e07	0.007823474
141	0xb89d9e9a	-7.515885e-05
142	0xbb93711c	-0.0044995677
143	0xbc230441	-0.009949745
144	0xbc1fc921	-0.009752543
145	0xbc188d74	-0.009311069
146	0xbb9dc35c	-0.0048145484
147	0x3c123ec4	0.008926097
148	0x3be67a24	0.0070336033
149	0xbc441f59	-0.0119703645
150	0x3c00dc39	0.007865005
151	0x3c0546d2	0.008134561
152	0x3c081423	0.008305582
153	0xbae6d485	-0.0017610943
154	0xbbd0f134	-0.00637641
155	0x3bf9fb32	0.007628822
156	0xbb24397d	-0.002505868
157	0xbc276f91	-0.010219471
158	0x3bf07cfd	0.0073391185
159	0xbc02a871	-0.00797473
160	0x3c008822	0.007844957
161	0x3be06b9d	0.006848766
162	0x3c000c66	0.007815456
163	0xbba255d0	-0.0049540773
164	0x3bf46248	0.007458005
165	0x3bfae1c5	0.0076563084
166	0xbc25acb2	-0.010111975
167	0xbc25a054	-0.010109026
168	0xbc276ff5	-0.010219564
169	0xbc038d9a	-0.008029366
170	0xbc0ec897	-0.0087148165
171	0x3bf19b0e	0.0073732203
172	0xbbe6687d	-0.007031499
173	0x3becd6e8	0.0072277673
174	0x3bfbdd3e	0.0076862862
175	0xbb819805	-0.0039548897
176	0x3c05097f	0.00811994
177	0xbb4eacd1	-0.0031536112
178	0xbc01a674	-0.007913221
179	0x3bfcb3db	0.00771187
180	0x3bf3d43f	0.007441073
181	0xbbe9cc9c	-0.007134987
182	0x3be62312	0.0070232237
183	0xbb7f78a5	-0.0038981822
184	0xbbbf5699	-0.0058391807
185	0x3beb2754	0.007176319
186	0xbba5f50c	-0.0050646123
187	0x3c09cd6d	0.008410794
188	0x3bf717dc	0.007540686
189	0x3c05d8bf	0.008169352
190	0x3c042601	0.008065701
191	0xbc194f1a	-0.009357238
192	0xbb06b608	-0.0020555276
193	0xbb0fbd69	-0.0021932966
194	0xba506cb6	-0.00079507695
195	0xba894d76	-0.0010475356
196	0xba935698	-0.0011241017
197	0xba0c70fb	-0.00053574116
198	0x3b293078	0.0025816243
199	0x3b1f1c0d	0.0024278194
200	0xb9950c09	-0.00028428462
201	0xba3c779c	-0.0007189454
202	0xb9969ce0	-0.0002872711
203	0x3b1338ea	0.0022464343
204	0x3b31d6ea	0.0027136155
205	0xb4d6cf32	-4.001136e-07
206	0xba82cd4e	-0.0009979398
207	0xbada3827	-0.0016648815
208	0xbb0b1e6e	-0.0021227854
209	0xbb0ae20a	-0.0021191859
210	0xba82b8ba	-0.0009973266
211	0x3b2c46ca	0.002628731
212	0x3b191e2b	0.0023363929
213	0xbb035dd2	-0.0020044935
214	0x3b1a1362	0.0023510088
215	0x3b1bbfcc	0.0023765443
216	0x3b281c39	0.0025651588
217	0xb999b567	-0.0002931759
218	0xba9a2689	-0.0011760752
219	0x3b244a31	0.0025068636
220	0xba030375	-0.00049977686
221	0xbae44c3f	-0.0017417743
222	0x3b141ebe	0.0022601332
223	0xbab6cf1c	-0.0013947221
224	0x3b1617ec	0.0022902442
225	0x3b159d40	0.0022829324
226	0x3b272c90	0.002550874
227	0xba9850f8	-0.001162081
228	0x3b17118e	0.0023051235
229	0x3b1c1240	0.0023814589
230	0xbb00236a	-0.0019552358
231	0xbaf21833	-0.0018470347
232	0xbb1f7b89	-0.0024335107
233	0xbac8baa5	-0.0015314413
234	0xbac67c27	-0.0015143201
235	0x3b1e8612	0.00241888
236	0xbaa431e9	-0.0012527081
237	0x3b175b88	0.0023095328
238	0x3b18eb51	0.002333362
239	0xba3e59db	-0.00072613143
240	0x3b1ecdcd	0.0024231554
241	0xba2c4cff	-0.00065727526
242	0xbabaa96d	-0.0014241167
243	0x3b1bd41d	0.0023777552
244	0x3b207ae0	0.0024487302
245	0xbaac52d4	-0.0013147243
246	0x3b1830c2	0.0023222421
247	0xba5b6564	-0.00083692954
248	0xbaaefa23	-0.0013349693
249	0x3b15af46	0.0022840067
250	0xba6bb125	-0.0008990935
251	0x3b25da5d	0.0025307157
252	0x3b23b1b2	0.002497774
253	0x3b23e0b9	0.0025005771
254	0x3b223764	0.0024752254
255	0xbadeb939	-0.0016992457

mlp.mlp.4.bias f4 [64]
0	0x330253a4	3.0344054e-08
1	0xb409f0fd	-1.284679e-07
2	0x32926ac1	1.7045183e-08
3	0x301be970	5.6720406e-10
4	0xb055d17a	-7.778663e-10
5	0xae39b7c6	-4.2227354e-11
6	0xb140e3d3	-2.806918e-09
7	0x32b168ff	2.0653259e-08
8	0x31ab5bf2	4.987208e-09
9	0x3297d0ee	1.7673724e-08
10	0x3009efaa	5.018089e-10
11	0x310171e7	1.8836717e-09
12	0x340df007	1.321897e-07
13	0x32b5e21d	2.1173998e-08
14	0xb3080f3b	-3.167882e-08
15	0x3168e835	3.3892438e-09
16	0x317591ee	3.5735144e-09
17	0x3003552b	4.7778553e-10
18	0x80072628	-6.56536e-40
19	0xad9bf1a7	-1.7728775e-11
20	0xb3ce2a49	-9.600314e-08
21	0x32b18275	2.0664837e-08
22	0xae083b93	-3.0975732e-11
23	0x0050f4ee	7.434704e-39
24	0xb32aa5df	-3.973207e-08
25	0x3261afd4	1.3136702e-08
26	0x341acbdc	1.4416531e-07
27	0x003ac0e0	5.395649e-39
28	0x00487da4	6.657227e-39
29	0xb2e2cb7f	-2.6402402e-08
30	0xb29da1d9	-1.8350805e-08
31	0x801823c5	-2.216884e-39
32	0xb4b7c02b	-3.4226227e-07
33	0xb2bc29d9	-2.190511e-08
34	0x32667506	1.341437e-08
35	0x328eb94a	1.6615235e-08
36	0x3312605f	3.4080923e-08
37	0x32cace02	2.3609577e-08
38	0xb0eb8c41	-1.7138363e-09
39	0xb310e2cb	-3.373388e-08
40	0x2fc10616	3.511082e-10
41	0xb1e2a28e	-6.595946e-09
42	0x0029ec29	3.849974e-39
43	0xb48ded3f	-2.6435916e-07
44	0xb0d79da4	-1.5688113e-09
45	0x3308a4c5	3.1814825e-08
46	0xb1b369bc	-5.2216063e-09
47	0xb33bb082	-4.3699863e-08
48	0x33715f3c	5.61988e-08
49	0x33b25de2	8.305848e-08
50	0x3371e118	5.6316907e-08
51	0x33820e8d	6.0562435e-08
52	0xb1532389	-3.072474e-09
53	0xafb696e0	-3.321281e-10
54	0xb1df322e	-6.495859e-09
55	0x0001ad14	1.53924e-40
56	0xafd5c681	-3.888552e-10
57	0x327fe6e1	1.4895449e-08
58	0x804c7c93	-7.024187e-39
59	0xb098529f	-1.1082938e-09
60	0x30a0404e	1.1659809e-09
61	0x32bdc566	2.2092262e-08
62	0xb1426a5d	-2.8291176e-09
63	0xb2836714	-1.5297282e-08

mlp.mlp.5.weight f4 [64]
0	0x3d83a5ef	0.06428134
1	0x3e9202a4	0.2851764
2	0x3e76e746	0.24111661
3	0x3ca2747a	0.019830931
4	0x3c7c0921	0.015383036
5	0x3cb753dd	0.022378856
6	0x3cdfcd8a	0.027319688
7	0x3d80cfca	0.062896326
8	0x3e19f6b0	0.1503551
9	0x3e59586d	0.21225138
10	0x3c558090	0.01303114
11	0x3cd4bcca	0.025968928
12	0x3e80baf5	0.25142637
13	0x3e9a1588	0.30094552
14	0x3e8205c4	0.25395024
15	0x3d3302b2	0.043703742
16	0x3d4f401a	0.05059824
17	0x3c50937f	0.012730478
18	0x3d5db21d	0.05412494
19	0x3cd327b5	0.02577577
20	0x3e9625b6	0.29325646
21	0x3dac1b21	0.08403612
22	0x3c887616	0.01665787
23	0x3c9708f7	0.018436892
24	0x3dac99d8	0.08427781
25	0x3db44794	0.08802715
26	0x3e95dc58	0.2926967
27	0x3c62edfb	0.013850684
28	0x3d327cf9	0.043576214
29	0x3e26529b	0.16242449
30	0x3e02a9c3	0.12760071
31	0x3cf19f32	0.029494856
32	0x3e9fbf72	0.3120075
33	0x3db49f8b	0.08819493
34	0x3d728316	0.059207045
35	0x3d9fc0f4	0.07800475
36	0x3e6a488e	0.2287924
37	0x3e1d0997	0.1533569
38	0x3cf37c22	0.029722277
39	0x3e13c3cf	0.14430164
40	0x3d044dc4	0.032300726
41	0x3debf928	0.11522132
42	0x3d667759	0.056266163
43	0x3ea28990	0.31745577
44	0x3cfde882	0.030994657
45	0x3e36c183	0.17847256
46	0x3d7779c6	0.060418867
47	0x3e00a598	0.12563169
48	0x3e6e5d4e	0.2327778
49	0x3e6e813a	0.23291484
50	0x3e834d39	0.25644854
51	0x3e8d36ed	0.27580968
52	0x3cb28ec1	0.021796586
53	0x3c617b50	0.01376231
54	0x3e92e129	0.2868741
55	0x3d6bf17a	0.057603337
56	0x3c5c57ea	0.013448695
57	0x3dbb2c82	0.091393486
58	0x3d17bf99	0.037047956
59	0x3d28af1d	0.041182626
60	0x3ccd86fe	0.025088783
61	0x3e0cbb2c	0.13743275
62	0x3cf64601	0.030062677
63	0x3d8704c8	0.06592709

mlp.mlp.5.bias f4 [64]
0	0x3e12a53f	0.14320849
1	0x3e30e984	0.17276579
2	0x3e2b1bea	0.16709867
3	0x3d7b7781	0.061393265
4	0x3d479f8d	0.048736144
5	0x3b017192	0.001975153
6	0x3d96a3a0	0.07355428
7	0x3e11389d	0.14181753
8	0x3e31ed30	0.17375636
9	0x3e2f9ef4	0.1715048
10	0x3ca84e5d	0.020545179
11	0x3d9327cd	0.07185326
12	0x3e331925	0.1749006
13	0x3e3347b1	0.17507817
14	0x3e2d53e1	0.16926529
15	0x3dd28999	0.10280151
16	0x3def054b	0.116709314
17	0x3d15c7b0	0.03656739
18	0xbbc926c3	-0.006138654
19	0x3cf8565b	0.030314615
20	0x3e32603f	0.17419527
21	0x3e1fb8e2	0.15597871
22	0x3ce765cd	0.028246785
23	0xbb0d3172	-0.0021544364
24	0x3e223e5e	0.15844104
25	0x3e207216	0.1566852
26	0x3e2ad2a6	0.16681919
27	0xbb034c1c	-0.0020034378
28	0xbb99564d	-0.0046794773
29	0x3e2cd487	0.16877948
30	0x3e253a37	0.16135488
31	0xbb5cfe2b	-0.0033720832
32	0x3e2d7009	0.1693727
33	0x3e24ad02	0.16081622
34	0x3e0a09f8	0.13480365
35	0x3e212479	0.1573657
36	0x3e2b8b6e	0.16752407
37	0x3e290c22	0.16508535
38	0x3d9fac11	0.07796491
39	0x3e2a40de	0.16626307
40	0x3da771fb	0.08176037
41	0x3e28444f	0.16432308
42	0xbbdb93df	-0.006700977
43	0x3e327713	0.17428236
44	0x3da3b6b3	0.079938315
45	0x3e2596ad	0.1617076
46	0x3e0c3cc1	0.13695051
47	0x3e265bf0	0.16246009
48	0x3e2f01fc	0.170906
49	0x3e2bdae3	0.16782717
50	0x3e28e719	0.16494407
51	0x3e2e8ca9	0.17045845
52	0x3d849aea	0.0647486
53	0x3d336a10	0.04380232
54	0x3e2e613e	0.17029282
55	0xbbe1199b	-0.0068695075
56	0x3d3817ba	0.044944502
57	0x3e26b8f1	0.16281487
58	0xbbc66323	-0.0060542985
59	0x3dc84283	0.09778311
60	0x3d8fe668	0.070263684
61	0x3e306f12	0.1722987
62	0x3da08c02	0.07839204
63	0x3e157e99	0.14599074

mlp.mlp.5.running_mean f4 [64]
0	0x3a130108	0.00056077586
1	0xbae0d6e9	-0.0017153892
2	0xbabbb153	-0.0014319815
3	0x398e2561	0.000271122
4	0x39498301	0.00019217657
5	0xb8e010fa	-0.000106843145
6	0x39be720f	0.00036324604
7	0x3a15b794	0.0005711254
8	0x3914a709	0.00014176605
9	0xbab62862	-0.0013897533
10	0x38f386e0	0.000116122654
11	0x39adeb9e	0.0003317268
12	0xbabfc879	-0.0014631889
13	0xbaead8c4	-0.0017917384
14	0xbadf730b	-0.0017047835
15	0x39ef416a	0.0004563437
16	0x3a12ee20	0.00056049414
17	0x391b8f73	0.00014835391
18	0x2f76a4f2	2.243217e-10
19	0x39664872	0.00021961497
20	0xbac57d4e	-0.0015067251
21	0x3a1e59dd	0.00060406124
22	0x3929a4f7	0.0001617855
23	0x2dd5c960	2.4304725e-11
24	0x3a3c0331	0.00071721064
25	0x3a2f991e	0.00066985365
26	0xbae3abfc	-0.0017369981
27	0x2a996a30	2.7251942e-13
28	0x2f528cb1	1.9149372e-10
29	0xb9a4f2a6	-0.00031461305
30	0x3a1f16ec	0.0006068784
31	0xab387990	-6.5538634e-13
32	0xbafa708b	-0.0019107027
33	0x3a23f98f	0.00062551437
34	0x3a1899ea	0.0005821275
35	0x3a2a72be	0.0006502083
36	0xbad01d70	-0.0015877914
37	0xb8b36a9c	-8.555243e-05
38	0x39ab4376	0.00032665924
39	0x3992090b	0.00027854028
40	0x39c96d26	0.0003841903
41	0x3a09df09	0.000525937
42	0x2fda9a51	3.9763617e-10
43	0xbaf40b9a	-0.001861918
44	0x39bf46f0	0.0003648321
45	0xba5dcd96	-0.00084611156
46	0x3a2046f6	0.00061140896
47	0x3a418739	0.00073825155
48	0xbab5ad37	-0.0013860826
49	0xbac7756b	-0.0015217488
50	0xbac52e54	-0.0015043714
51	0xbae8b8f0	-0.0017755311
52	0x39880fc9	0.00025951702
53	0x39355f87	0.00017297092
54	0xbaecadb5	-0.001805714
55	0x2fe1d9ca	4.108201e-10
56	0x3937de28	0.00017535
57	0x3a1c0c00	0.0005952716
58	0x31ae873e	5.0794418e-09
59	0x39efbf48	0.00045728148
60	0x39a806e1	0.00032048582
61	0x3a2ab025	0.0006511233
62	0x39b9d1cf	0.0003544227
63	0x3a1d9263	0.0006010888

mlp.mlp.5.running_var f4 [64]
0	0x37eba094	2.8088958e-05
1	0x38d98cd5	0.00010373598
2	0x38bd04f5	9.0131456e-05
3	0x36d86d59	6.4500314e-06
4	0x368d56bf	4.212226e-06
5	0x34e0933b	4.1830376e-07
6	0x37245416	9.7947395e-06
7	0x37e732bb	2.756097e-05
8	0x3874fffe	5.8412545e-05
9	0x38a6e882	7.958805e-05
10	0x35f357d6	1.8130474e-06
11	0x37189df8	9.096686e-06
12	0x38c82dda	9.545284e-05
13	0x38e2d358	0.000108158856
14	0x38c3f258	9.3434646e-05
15	0x3792267e	1.742248e-05
16	0x37b16554	2.1147229e-05
17	0x36334d25	2.6717983e-06
18	0x1ff0fd3b	1.0206289e-19
19	0x36c00d43	5.7235898e-06
20	0x38e59500	0.00010947324
21	0x3814e637	3.5500354e-05
22	0x365a2be3	3.2510077e-06
23	0x1c7330da	8.0465095e-22
24	0x38198d9a	3.660992e-05
25	0x381c2746	3.7229875e-05
26	0x38debd91	0.000106210944
27	0x15febc18	1.0288654e-25
28	0x1fd8715c	9.1667096e-20
29	0x3882ac43	6.230969e-05
30	0x3851287f	4.9867198e-05
31	0x19b97c3a	1.9178726e-23
32	0x38e80202	0.00011062996
33	0x381e7d4e	3.7786835e-05
34	0x37d668ea	2.5559642e-05
35	0x380fea69	3.431217e-05
36	0x38b1526d	8.455371e-05
37	0x387596ec	5.855311e-05
38	0x37340f15	1.0732348e-05
39	0x3869f0e1	5.5775865e-05
40	0x37490638	1.19819815e-05
41	0x383fcefe	4.5730725e-05
42	0x20e792fd	3.923019e-19
43	0x38eac30c	0.0001119432
44	0x373d8d94	1.1298242e-05
45	0x388c1d08	6.681128e-05
46	0x37dd6b63	2.6395259e-05
47	0x38500f5a	4.960536e-05
48	0x38ba9dac	8.89854e-05
49	0x38b807dd	8.775268e-05
50	0x38c7a49c	9.51972e-05
51	0x38d3c8d3	0.000100986705
52	0x36f0220e	7.156522e-06
53	0x3666c43e	3.4386899e-06
54	0x38dcdac9	0.000105311694
55	0x1f67ba34	4.9070176e-20
56	0x366278b8	3.3746892e-06
57	0x38223dc4	3.8681334e-05
58	0x238a6e76	1.5008772e-17
59	0x37882ffe	1.6234811e-05
60	0x3713e647	8.815498e-06
61	0x3864703c	5.4463962e-05
62	0x37370f3d	1.0911198e-05
63	0x37f34217	2.8998633e-05

mlp.mlp.8.weight f4 [1, 64]
0	0x3e0762ab	0.13221233
1	0x3e81f307	0.25380728
2	0x3e6a588f	0.22885345
3	0x3d644ece	0.055739217
4	0x3d39d7c0	0.04537177
5	0x3c480537	0.012208275
6	0x3d884017	0.06652849
7	0x3e056ac1	0.13029005
8	0x3e498c85	0.1968251
9	0x3e6006d4	0.21877605
10	0x3cc46d03	0.023977762
11	0x3d858020	0.065185785
12	0x3e761477	0.24031244
13	0x3e8393eb	0.2569879
14	0x3e70121b	0.23444407
15	0x3dbf2330	0.09332883
16	0x3dd9c53f	0.10633325
17	0x3d119c45	0.03554942
18	0xbc950159	-0.01818912
19	0x3d0f45fe	0.03497886
20	0x3e83a0f0	0.25708723
21	0x3e1a1615	0.15047486
22	0x3cfe7075	0.031059483
23	0xbb060b64	-0.0020453567
24	0x3e1d1fe8	0.15344203
25	0x3e1c8406	0.15284738
26	0x3e7e7bf4	0.24851972
27	0xbb388caf	-0.0028160026
28	0xbc8ba0fb	-0.017044535
29	0x3e484004	0.1955567
30	0x3e33b7d7	0.17550598
31	0xbb94c520	-0.0045401007
32	0x3e8482a9	0.25880936
33	0x3e2005a3	0.1562715
34	0x3dfcc1f6	0.123416826
35	0x3e1939ee	0.14963505
36	0x3e6019e9	0.21884884
37	0x3e436def	0.19084905
38	0x3d90c9c3	0.07069733
39	0x3e3e3cef	0.18577932
40	0x3d97ade2	0.074062124
41	0x3e2ffbdf	0.17185925
42	0xbca157be	-0.019695159
43	0x3e87031a	0.26369554
44	0x3d945cb1	0.07244242
45	0x3e496844	0.1966868
46	0x3e00915b	0.12555449
47	0x3e32d1fe	0.17462918
48	0x3e6b87d2	0.2300103
49	0x3e67d7b1	0.22640873
50	0x3e6ba8b4	0.23013574
51	0x3e7ab179	0.24481763
52	0x3d7077f1	0.058708135
53	0x3d27cc22	0.04096616
54	0x3e7fd91b	0.24985163
55	0xbc8f8e05	-0.017523775
56	0x3d2b5db0	0.041837394
57	0x3e2329d7	0.1593393
58	0xbc6d9824	-0.014501605
59	0x3db57cca	0.08861692
60	0x3d827715	0.06370369
61	0x3e41dfe8	0.1893307
62	0x3d9183c2	0.07105209
63	0x3e0a71b8	0.13519943
