model/dfm_epoch_130.pt (torch, 79687 bytes, 15 tensors)

embedding.embedding.weight f4 [98, 32]
000000 88 84 b1 3d ec 64 52 bd 83 6b 62 3c 76 68 a4 bc
       0.086678565 -0.051365778 0.013819578 -0.020069342
000010 f1 93 8b 3d 19 e6 05 be fd e6 57 bd 39 c3 8a 3c
       0.06815327 -0.13076057 -0.052710522 0.016938793
000020 f5 94 03 bc 10 6b 8c bd 86 74 1d bd cb 10 fb 3d
       -0.00803112 -0.06856358 -0.038441204 0.122590624
000030 1e 17 a3 3d 76 95 ea 3c 92 24 7c bd b9 55 5e bc
       0.07963394 0.028635722 -0.061558314 -0.013570243
000040 9f c8 b0 bd a8 48 30 3d 28 d8 49 3c dd 9d b0 3d
       -0.086320154 0.04303804 0.012319602 0.0862386
000050 27 c3 99 3d ea 7c 93 bd 9c 5b ce 3c d9 f8 e9 bd
       0.075079255 -0.0720156 0.025190167 -0.11424417
000060 a6 d0 5f bd 08 2f 37 3d 37 14 09 bd c1 19 d1 bd
       -0.054642342 0.044722587 -0.033466544 -0.1020999
000070 a0 1e 9b 3d f3 37 3c 3d 90 81 c4 3d 0b f5 bc 3d
       0.07574201 0.045951795 0.095950246 0.09226426
000080 50 aa be 3d d0 64 60 bd 0c 00 72 3c 5a 98 af bc
       0.09309828 -0.054783642 0.014770519 -0.021434952
000090 80 0c 95 3d 9b f3 0f be 11 68 66 bd 8b 22 94 3c
       0.07277775 -0.14057772 -0.05625159 0.018082878
0000a0 cf 74 0c bc 8f 03 96 bd 95 27 28 bd 1e 95 06 3e
       -0.008572771 -0.073248975 -0.041053373 0.13142821
0000b0 d8 66 ae 3d 55 42 fa 3c a6 6c 87 bd 9d fc 6d bc
       0.0851571 0.030549208 -0.0661252 -0.01452556
0000c0 3d 42 bd bd 98 06 3c 3d 90 67 57 3c 36 75 bc 3d
       -0.092411496 0.045904726 0.01314725 0.09202044
0000d0 13 66 a4 3d 7e d8 9d bd d9 23 dc 3c 1f f4 fa bd
       0.080272816 -0.07707308 0.026872562 -0.12253594
0000e0 3f ba 6e bd 05 a9 43 3d 16 40 12 bd e5 df e0 bd
       -0.058283087 0.04776861 -0.03570565 -0.109802045
0000f0 72 b0 a5 3d 18 80 49 3d 4c f5 d2 3d fa 33 ca 3d
       0.08090295 0.049194425 0.10300693 0.09873195
000100 95 7e e6 3d 32 50 88 bd 09 38 93 3c c6 21 d5 bc
       0.11254612 -0.06655921 0.017971056 -0.026017081
000110 96 bf b4 3d 35 b2 2d be 37 15 8c bd 85 07 b4 3c
       0.088256046 -0.16962512 -0.06839984 0.021976242
000120 12 15 2b bc 0a 2b b6 bd cf 84 4c bd f2 b3 22 3e
       -0.010442035 -0.08894928 -0.049931344 0.15888956
000130 58 44 d3 3d 91 4c 18 3d c8 98 a3 bd bb 98 90 bc
       0.1031577 0.037182394 -0.07988125 -0.017650953
000140 fd 3b e5 bd 56 ba 64 3d 58 df 82 3c ba bb e4 3d
       -0.111930825 0.055841766 0.01597564 0.111686185
000150 3f 70 c7 3d 69 7f bf bd 4c 05 06 3d e6 b0 17 be
       0.09738206 -0.093504734 0.032719895 -0.14813575
000160 e8 01 91 bd cd df 6d 3d 78 e8 31 bd 97 be 07 be
       -0.07080442 0.05807476 -0.04343459 -0.13256298
000170 7d 00 c9 3d 6e 9e 74 3d 82 dd fe 3d 45 e5 f4 3d
       0.09814546 0.059721403 0.12444593 0.11957792
000180 66 ed eb 3c eb fa 8a bc 42 42 94 3b f6 d8 d8 bb
       0.028799724 -0.01696535 0.0045245 -0.0066176606
000190 f2 42 b9 3c f7 a0 32 bd 6d 58 8e bc 6b 9b b6 3b
       0.02261493 -0.04361054 -0.01737615 0.0055727265
0001a0 eb 77 2c bb a2 c5 b9 bc 7a 51 4f bc f0 57 27 3d
       -0.0026316594 -0.022677246 -0.012653703 0.040855348
0001b0 41 73 d8 3c 82 40 1a 3c 3a 54 a7 bc 3b ad 91 bb
       0.026422145 0.009414794 -0.020425905 -0.0044456995
0001c0 98 af ea bc d7 4c 68 3c 39 39 85 3b 28 44 ea 3c
       -0.028648183 0.014178476 0.0040656594 0.028596953
0001d0 c2 b9 cb 3c ec 5e c3 bc 99 85 07 3c cf cc 1b bd
       0.02486885 -0.023848973 0.008271598 -0.038037118
0001e0 55 d6 93 bc 67 72 71 3c b1 85 34 bc 94 25 0b bd
       -0.018046537 0.014736748 -0.011018203 -0.033971384
0001f0 63 b7 cd 3c 05 34 78 3c d4 b9 02 3d 4e 18 fb 3c
       0.02511186 0.015149121 0.0319155 0.030651238
000200 df 70 2b 3d f2 83 ca bc 5f 04 da 3b 91 35 1e bc
       0.04185569 -0.02472112 0.006653353 -0.009656326
000210 27 ad 06 3d 78 cf 81 bd 09 ad cf bc 54 8c 05 3c
       0.032879975 -0.063384 -0.025351064 0.008151133
000220 7c 55 7d bb 12 38 07 bd fb 78 97 bc c9 13 73 3d
       -0.003865569 -0.033012457 -0.018490305 0.05934504
000230 4c 6a 1d 3d f3 95 61 3c 3a 6d f3 bc 8f 3b d6 bb
       0.03843145 0.013768661 -0.02971517 -0.0065378617
000240 da 91 2a bd 02 89 a9 3c c7 46 c2 3b f4 45 2a 3d
       -0.041643 0.020695213 0.0059288475 0.04157062
000250 5e 2f 14 3d 37 27 0e bd e3 6d 46 3c a4 5d 62 bd
       0.036177985 -0.034705367 0.01211116 -0.055265084
000260 1a 74 d7 bc ad 40 b0 3c 90 d4 83 bc 2d 32 4a bd
       -0.026300479 0.021515215 -0.016092569 -0.049364258
000270 d7 81 15 3d c7 41 b5 3c 17 0e 3e 3d d7 60 36 3d
       0.036500778 0.022126092 0.046400156 0.044525947
000280 7a 22 00 3c 6e 4b 97 bb 72 b8 a2 3a 48 68 ec ba
       0.00782072 -0.004617146 0.0012414588 -0.0018036449
000290 4f d2 c8 3b b6 4a 41 bc 2c 4e 9b bb 58 7b c7 3a
       0.0061285864 -0.011797598 -0.0047395434 0.0015219254
0002a0 a2 1f 3d ba de 34 ca bb 18 8b 62 bb 5d fe 34 3c
       -0.00072144915 -0.006170853 -0.003456777 0.011046973
0002b0 5c e1 ea 3b 90 a9 28 3b 10 f3 b5 bb 20 f1 9f ba
       0.007167978 0.0025735833 -0.005552657 -0.0012202598
0002c0 b9 d2 fe bb 4e 95 7d 3b 0a 20 91 3a 8b 27 fe 3b
       -0.007776585 0.003869373 0.001107217 0.0077561787
0002d0 d9 85 dd 3b 65 94 d4 bb 40 52 14 3b bc bb 28 bc
       0.0067603406 -0.0064874166 0.0022632033 -0.010298666
0002e0 2c fa a0 bb 4e d3 83 3b f4 27 45 bb 43 02 17 bc
       -0.0049126353 0.004022992 -0.0030083628 -0.009216848
0002f0 54 56 df 3b 78 8f 87 3b d4 c5 0d 3c bb 27 08 3c
       0.006815711 0.004136976 0.008653123 0.008310254
000300 d5 28 8f 3d 48 11 2a bd 12 8d 37 3c da 73 85 bc
       0.0699021 -0.041520387 0.011203067 -0.016290594
000310 46 b8 60 3d b0 11 d7 bd ea 28 2e bd fa 4a 61 3c
       0.054863237 -0.105014205 -0.042519487 0.013750786
000320 b0 99 d5 bb 8f 1c 62 bd fc 6d ff bc 64 78 c9 3d
       -0.006518565 -0.055203017 -0.031180374 0.09837416
000330 81 bb 82 3d fc 8e be 3c f8 46 4c bd e0 79 34 bc
       0.0638342 0.02326154 -0.04987237 -0.011015385
000340 ca 7e 8e bd c0 fd 0d 3d fd 8b 24 3c 21 f8 8d 3d
       -0.06957777 0.034665823 0.010043141 0.069320925
000350 fc 61 78 3d 47 26 6d bd 93 7b a7 3c 4e f3 bb bd
       0.06064032 -0.057897832 0.020444667 -0.09177266
000360 69 1f 35 bd 4e c6 14 3d ee a8 de bc 1d 1b a8 bd
       -0.04421941 0.03632193 -0.027180161 -0.082082964
000370 7c 56 7a 3d 22 8b 18 3d 84 78 9e 3d 18 d5 97 3d
       0.061117634 0.037242062 0.0773783 0.07413691
000380 9d b0 86 3d 29 e6 1e bd 77 37 2b 3c 59 02 78 bc
       0.06576655 -0.038793717 0.010450236 -0.0151372785
000390 1f 59 53 3d cb 68 cb bd 3b 86 23 bd 84 ed 50 3c
       0.051598664 -0.09932097 -0.039922934 0.012751941
0003a0 2e 5f c6 bb 97 a4 54 bd af ad ed bc 72 7f be 3d
       -0.006053827 -0.051914778 -0.029013483 0.09301652
0003b0 6c 68 77 3d 25 e4 b0 3c 8a 02 3f bd 59 fc 27 bc
       0.06040232 0.021593163 -0.04663328 -0.010253035
0003c0 61 09 86 bd 1d 82 05 3d 32 e0 17 3c ee d1 85 3d
       -0.06544758 0.03259479 0.009269761 0.065341815
0003d0 04 e0 68 3d b7 b2 5f bd a4 8d 9b 3c 30 8a b1 bd
       0.056854263 -0.054613795 0.018988438 -0.08668935
0003e0 c6 f6 28 bd 27 4a 0a 3d 8c b6 ce bc 01 cf 9e bd
       -0.041250966 0.033762123 -0.02523353 -0.077543266
0003f0 87 ec 6a 3d 55 7a 0e 3d 52 05 95 3d fb 46 8f 3d
       0.057354476 0.034784634 0.072764054 0.0699596

linear.fc.weight f4 [98, 1]
000000 0f 26 fe 3e 11 d0 07 3f ba c1 15 3f b8 67 26 3e
       0.4963841 0.5305186 0.5849873 0.16250503
000010 83 b2 6c 3e c3 0f 48 3d f1 85 a2 3e 39 2c 98 3e
       0.23114972 0.048843157 0.31742814 0.2972124
000020 62 7a 99 3d 59 0e e4 3c f9 e8 ed 3c 65 13 dc 3c
       0.07494046 0.027838873 0.029041754 0.026864717
000030 4a be 5c 3c af 00 51 3c a0 ba 44 3c e6 37 42 3c
       0.013473103 0.012756511 0.0120073855 0.011854148
000040 4d ef 4c 3e df 65 0f 3e 84 0c 2a 3e 46 78 1b 3e
       0.20013161 0.14003704 0.16606337 0.151826
000050 c8 e2 40 3e 3e cd 51 3e cf ab 33 3e 40 27 f7 3c
       0.1883651 0.2048845 0.17546009 0.030170083
000060 1f ac bb 3c e3 d8 af 3c 1b 35 d0 3c d8 17 f0 3c
       0.022909222 0.021465724 0.025415948 0.029308245
000070 ef 98 08 3d 7a 9d c8 3c 34 de f8 3b 36 0e 39 3b
       0.033348974 0.024489153 0.007594848 0.002823723
000080 fe 3e da 3c b1 0a 57 3c 9f 39 0e 3a fc 36 c4 39
       0.026641365 0.013125108 0.00054254563 0.00037425
000090 b3 ff 34 3a 59 19 45 3c 02 98 70 39 a1 61 a0 3b
       0.0006904557 0.012029969 0.00022944811 0.004894451
0000a0 0d 85 9e 3b c4 f0 88 3a b6 90 c1 3b 0d 33 0a 3d
       0.0048376382 0.001044773 0.0059071435 0.033740092
0000b0 db ee 01 3d 2e 4f 90 3b f8 4a 8f 3c e6 cd ce 3c
       0.03172193 0.00440397 0.017491803 0.025244664
0000c0 a4 73 1c 3b d5 6a cf 3c a9 32 9e 3c ad 48 89 3b
       0.0023872638 0.025319496 0.019311266 0.004189572
0000d0 be 2f 1a 3b be 6e e5 3b 44 4f 74 3a d7 65 14 3b
       0.0023526992 0.007001727 0.0009319673 0.002264371
0000e0 db 8a da 3c 50 28 d0 3a 6b 12 00 3d 5f cc 9f 3c
       0.02667754 0.0015881155 0.031267565 0.019506631
0000f0 3f 36 ce 3b 55 94 b0 3b 4a 65 bc 3c b5 04 3f 3b
       0.0062930877 0.0053887763 0.022997517 0.0029147093
000100 f1 1c 53 3b dd ec 80 39 0a 03 14 3a 5f bc 81 3c
       0.0032213295 0.0002459054 0.0005646205 0.015836893
000110 35 8a 15 3d 0f 07 8e 3c 28 40 48 3c 17 80 3b 3c
       0.036508758 0.01733735 0.012222327 0.011444113
000120 4b 6c 84 3b 2e 6c 0c 3c c9 48 03 3a f9 7a 14 3d
       0.00404123 0.008570714 0.0005008099 0.03625009
000130 92 1a c6 3a 98 a7 7d 38 1c 39 c6 3c 9f 56 10 3d
       0.001511412 6.0475984e-05 0.024197154 0.03523886
000140 99 56 b4 3c 0e 6b b6 3c b8 86 68 3b 50 4d c8 3a
       0.02201395 0.022267845 0.003548069 0.001528183
000150 68 df 16 3d cf 25 07 3d ab 7b 8d 3c b2 ef 9e 3b
       0.03683415 0.03299504 0.017270884 0.0048503513
000160 33 c6 06 3c 1f c2 93 3c 94 a5 c7 3c 7b ef 17 3c
       0.008225965 0.0180369 0.024370946 0.009273405
000170 04 5c 00 3c 25 79 54 3c bb 8d 2e 3c 52 6f fc 3b
       0.007834438 0.012968336 0.010653908 0.0077037
000180 4f c8 9b 39 c4 e5 80 3c
       0.00029713145 0.01573456

mlp.mlp.0.weight f4 [64, 160]
000000 a3 9f 10 80 53 e8 20 80 7f 51 2e 80 31 cf 33 00
       -1.526635e-39 -3.022078e-39 -4.253668e-39 4.757937e-39
000010 83 3a 03 80 e4 41 0f 80 d7 54 2c 80 82 da 23 80
       -2.96497e-40 -1.40117e-39 -4.071197e-39 -3.292628e-39
000020 c1 be 4c 00 01 46 45 00 18 bb 1c 80 3f 2a 2f 00
       7.047927e-39 6.361762e-39 -2.63851e-39 4.331423e-39
000030 63 e1 29 00 52 a0 4d 80 a7 8b 13 80 04 d7 29 80
       3.846109e-39 -7.128845e-39 -1.794972e-39 -3.842388e-39
000040 49 d8 14 80 1b 6d 25 00 c2 66 3c 00 5d 30 29 00
       -1.914298e-39 3.437053e-39 5.546992e-39 3.782605e-39
000050 bb dd 17 80 48 c0 14 80 38 97 13 80 f3 f3 23 00
       -2.191758e-39 -1.905687e-39 -1.799121e-39 3.301755e-39
000060 d4 55 0e 00 23 f8 2f 00 ce d6 27 80 e2 fe 24 00
       1.316486e-39 4.405283e-39 -3.658642e-39 3.397513e-39
000070 58 b5 0d 00 23 51 07 80 d0 5d 38 00 50 d3 15 80
       1.258915e-39 -6.71955e-40 5.176441e-39 -2.00435e-39
000080 d4 b0 02 80 25 a7 2e 00 f9 92 3b 00 70 2b 00 00
       -2.47105e-40 4.284393e-39 5.471018e-39 1.5582e-41
000090 ae 17 4e 80 43 48 49 00 46 85 1e 00 91 9b 4c 00
       -7.171663e-39 6.729914e-39 2.802874e-39 7.035304e-39
0000a0 6c 2f 2e 00 fc 9f 2d 80 df 89 06 80 47 2b 07 00
       4.241445e-39 -4.189989e-39 -6.00472e-40 6.58373e-40
0000b0 99 25 05 00 1a 40 10 80 b7 8d 1f 00 1d 70 02 80
       4.72665e-40 -1.492363e-39 2.897738e-39 -2.2389e-40
0000c0 9c b3 0f 00 7c 42 49 00 59 1d 3d 00 c6 60 50 00
       1.441964e-39 6.727841e-39 5.612493e-39 7.381555e-39
0000d0 be c8 16 80 06 6c 0e 00 1a 0e 09 80 51 5c 1f 80
       -2.092394e-39 1.324448e-39 -8.31578e-40 -2.880017e-39
0000e0 3d 01 4d 00 2d 6f 05 80 23 b0 45 00 82 79 43 80
       7.071777e-39 -4.9906e-40 6.399835e-39 -6.196567e-39
0000f0 4a 57 10 00 73 bc 42 80 31 89 23 80 50 11 19 00
       1.500681e-39 -6.128746e-39 -3.263457e-39 2.302098e-39
000100 3c 7b 1f 80 74 e1 42 00 89 6e 1a 00 05 1e 44 80
       -2.891109e-39 6.14202e-39 2.427375e-39 -6.255583e-39
000110 67 9f 03 00 62 df 33 80 df c2 08 80 64 8f 4f 00
       3.32689e-40 -4.763745e-39 -8.0459e-40 7.306443e-39
000120 23 e2 26 80 db 4d 4c 00 a2 2a 05 80 18 28 43 80
       -3.570871e-39 7.007427e-39 -4.74471e-40 -6.167361e-39
000130 29 df 35 00 ec 74 0e 00 7e 29 1d 80 a7 69 47 80
       4.947336e-39 1.32764e-39 -2.678114e-39 -6.558221e-39
000140 9b 1b 1a 80 bf a5 4b 80 7e 16 38 80 8b 81 21 80
       -2.397626e-39 -6.947121e-39 -5.150856e-39 -3.077043e-39
000150 40 32 0a 00 f1 f3 3c 00 77 8c 42 00 b6 3c 45 00
       9.36381e-40 5.59764e-39 6.111532e-39 6.358428e-39
000160 0b a2 50 80 3b 60 11 80 db 31 1c 00 99 54 38 00
       -7.40497e-39 -1.595724e-39 2.589279e-39 5.173136e-39
000170 5f af 28 80 b9 2d 06 00 80 bb 22 80 35 88 19 80
       -3.736331e-39 5.67415e-40 -3.189669e-39 -2.344749e-39
000180 d4 5a 37 80 b2 90 39 80 e8 b8 51 00 72 10 4f 80
       -5.083535e-39 -5.28653e-39 7.505007e-39 -7.260904e-39
000190 9c 66 4e 00 a2 4b 40 00 e8 cf 43 00 67 9c 2d 00
       7.199978e-39 5.904604e-39 6.227561e-39 4.188704e-39
0001a0 0f 18 02 80 55 f4 2c 80 17 ef 36 80 f1 1e 3c 00
       -1.92302e-40 -4.128412e-39 -5.044886e-39 5.52123e-39
0001b0 a7 60 28 00 23 86 0f 00 c4 9e 28 00 c0 e4 06 80
       3.708092e-39 1.425652e-39 3.730374e-39 -6.33073e-40
0001c0 35 a3 3c 80 2a e9 45 80 ed 8d 27 80 df b5 04 00
       -5.568677e-39 -6.420293e-39 -3.632498e-39 4.32585e-40
0001d0 30 b9 39 80 59 0c 4c 80 f3 dc 43 00 89 03 15 00
       -5.301056e-39 -6.983927e-39 6.23224e-39 1.929814e-39
0001e0 b7 88 0d 00 4c 80 07 00 76 0a 01 00 6d a8 27 00
       1.242905e-39 6.88873e-40 9.5588e-41 3.642004e-39
0001f0 c8 3c 47 00 3f dd 3c 00 29 20 53 80 17 d7 1f 80
       6.542124e-39 5.589498e-39 -7.633883e-39 -2.92406e-39
000200 83 52 10 80 1c 81 36 00 0c 19 2f 80 9b 5d 0b 00
       -1.498968e-39 5.005433e-39 -4.325253e-39 1.04377e-39
000210 f7 0d 4e 00 4a 6f 05 00 a4 11 4d 00 93 a4 11 80
       7.168178e-39 4.991e-40 7.077661e-39 -1.620242e-39
000220 92 36 07 80 e0 56 3a 00 f0 cd 2d 00 5b a2 35 80
       -6.62425e-40 5.357624e-39 4.206474e-39 -4.925523e-39
000230 a3 d3 1f 80 35 e3 25 00 c0 b4 20 00 8e c6 4b 80
       -2.922821e-39 3.47942e-39 3.003577e-39 -6.95889e-39
000240 84 ec 50 80 97 10 4d 00 a6 c4 2f 80 68 76 16 80
       -7.431686e-39 7.077285e-39 -4.386812e-39 -2.062857e-39
000250 c6 12 17 80 b2 21 21 80 7f 0c 1b 00 a2 0e 3c 80
       -2.118951e-39 -3.042659e-39 2.484041e-39 -5.515379e-39
000260 a5 33 46 80 fd 68 49 00 7b ea 2a 00 0b 97 0a 00
       -6.447011e-39 6.741654e-39 3.941207e-39 9.72539e-40
000270 f7 7d 11 00 be 35 48 80 df d0 1b 80 fa 87 36 80
       1.606391e-39 -6.631435e-39 -2.554487e-39 -5.007896e-39
000280 f0 7f 21 80 67 e5 21 00 91 d9 41 80 50 fa 03 80
       -3.076467e-39 3.112865e-39 -6.047355e-39 -3.65302e-40
000290 ac e2 26 00 f1 9d 36 00 ef de 30 80 64 64 42 00
       3.571063e-39 5.015775e-39 -4.488077e-39 6.097156e-39
0002a0 e0 a6 4f 80 fd 5c 00 80 a6 ea 21 00 2e d2 2b 80
       -7.314868e-39 -3.3358e-41 3.114747e-39 -4.024325e-39
0002b0 51 5c 25 80 a2 53 41 00 b3 11 38 00 41 79 12 80
       -3.43103e-39 5.999309e-39 5.149137e-39 -1.696537e-39
0002c0 c5 17 29 00 4f 2d 01 80 3d 68 03 00 a0 2b 10 80
       3.773782e-39 -1.08089e-40 3.129e-40 -1.485018e-39
0002d0 7a 65 00 80 56 4f 3f 80 b7 e8 41 00 5b e4 0c 80
       -3.6403e-41 -5.814097e-39 6.05279e-39 -1.183944e-39
0002e0 d9 81 11 80 0e 74 1f 80 d7 55 05 00 81 33 02 80
       -1.607784e-39 -2.888533e-39 4.89971e-40 -2.02147e-40
0002f0 89 8b 3b 00 b2 b2 1d 00 55 42 27 80 4f af 50 80
       5.46835e-39 2.727333e-39 -3.60538e-39 -7.409729e-39
000300 39 32 3a 80 ed 91 06 80 7a 5e 48 80 3d 47 4c 80
       -5.344475e-39 -6.03361e-40 -6.646048e-39 -7.005053e-39
000310 2e 5b 35 00 7b 01 0b 00 dc 3b 0f 00 30 95 1b 00
       4.89999e-39 1.010722e-39 1.399006e-39 2.533077e-39
000320 87 e2 27 80 30 0c 02 80 01 09 51 80 3c cb 2a 80
       -3.662847e-39 -1.88043e-40 -7.441905e-39 -3.929998e-39
000330 64 7f 4a 00 e7 13 09 80 f6 42 1e 80 76 90 20 00
       6.841526e-39 -8.33659e-40 -2.779086e-39 2.990559e-39
000340 cd 0d 31 00 dc cf 3d 80 33 b7 41 00 8e e7 25 80
       4.50489e-39 -5.676531e-39 6.035027e-39 -3.48098e-39
000350 0b 33 0e 80 e2 f8 01 80 51 8e 1c 80 f0 98 1c 00
       -1.304008e-39 -1.81118e-40 -2.622447e-39 2.626258e-39
000360 e6 48 03 00 f9 f2 0c 80 b2 18 1a 00 d2 68 1a 00
       3.01658e-40 -1.189188e-39 2.396582e-39 2.425325e-39
000370 f1 97 14 80 7c 97 24 00 90 8e 3b 00 c1 15 2c 80
       -1.891216e-39 3.36042e-39 5.469436e-39 -4.048566e-39
000380 2a 46 42 00 9e cf 27 80 8b 86 0f 80 4d 1e 2b 00
       6.086313e-39 -3.656063e-39 -1.425797e-39 3.959796e-39
000390 89 52 4b 00 01 e9 0f 00 b8 4b 16 00 0e 51 4d 80
       6.91727e-39 1.461118e-39 2.047544e-39 -7.10041e-39
0003a0 86 cd 0d 80 79 c9 39 80 36 7b 44 80 b2 7b 04 00
       -1.26759e-39 -5.306898e-39 -6.289013e-39 4.11716e-40
0003b0 dc 45 36 80 dd 8c 49 80 49 91 26 00 d1 32 06 00
       -4.984178e-39 -6.754523e-39 3.541867e-39 5.69242e-40
0003c0 2d 9c 25 00 fd 44 4d 00 ad 59 28 00 09 85 24 80
       3.453939e-39 7.096082e-39 3.70559e-39 -3.353802e-39
0003d0 00 05 29 00 84 1f 0c 00 7c f8 37 80 9e be 29 00
       3.767049e-39 1.113332e-39 -5.140092e-39 3.833636e-39
0003e0 c4 54 18 00 e8 0b 27 00 cc 74 46 00 bb df 48 00
       2.23446e-39 3.585856e-39 6.470384e-39 6.692415e-39
0003f0 a3 e9 16 80 fe 2a 26 00 bb 5d 26 80 9f fd 50 80
       -2.104194e-39 3.505172e-39 -3.523373e-39 -7.437822e-39

mlp.mlp.0.bias f4 [64]
000000 21 48 04 00 9b 02 4e 00 30 95 05 80 c8 15 0f 80
       3.93217e-40 7.164103e-39 -5.12696e-40 -1.385346e-39
000010 26 c6 30 80 43 2e 09 80 3c 22 79 b2 e3 0c d0 0d
       -4.479186e-39 -8.43115e-40 -1.4501492e-08 1.2822092e-30
000020 03 74 4c 80 69 76 4a 00 9a ba 3c 80 55 d8 c1 b2
       -7.021115e-39 6.838304e-39 -5.57707e-39 -2.2566534e-08
000030 70 c7 0a b3 c1 39 06 80 86 19 51 80 46 44 08 80
       -3.2312016e-08 -5.71731e-40 -7.447831e-39 -7.59176e-40
000040 75 62 4c 00 70 1f 17 00 d7 ec 3b 80 99 7e 04 1b
       7.014817e-39 2.123494e-39 -5.503256e-39 1.095969e-22
000050 da 00 25 34 a9 8e 13 80 f0 6a a2 b3 32 98 2e b4
       1.5367132e-07 -1.796051e-39 -7.563165e-08 -1.6260381e-07
000060 da 61 88 b3 f0 be 15 80 07 ea 2d 80 0d 75 2d 33
       -6.3507926e-08 -1.997041e-39 -4.21655e-39 4.038616e-08
000070 33 d9 28 80 49 04 18 00 52 54 05 b4 de 57 4c 00
       -3.751336e-39 2.205589e-39 -1.2417266e-07 7.011019e-39
000080 d0 b5 80 34 62 f8 1e 34 63 36 dd b3 77 d9 05 00
       2.3974144e-07 1.4805258e-07 -1.0301007e-07 5.37189e-40
000090 ce 34 3f 0c 00 90 93 33 66 e3 4c 80 a2 de 4d 00
       1.4729995e-31 6.8714144e-08 -7.061073e-39 7.151199e-39
0000a0 d7 0b 3e 00 6b e0 48 00 86 73 30 80 95 6c 94 34
       5.698048e-39 6.692662e-39 -4.449546e-39 2.7646152e-07
0000b0 9d cc 22 00 e9 df 23 00 da 29 3b b3 a2 8f 05 80
       3.195808e-39 3.294566e-39 -4.3577394e-08 -5.10703e-40
0000c0 41 1d f6 31 ae 17 46 80 d8 03 4e 80 e4 1d 5c 33
       7.162868e-09 -6.43698e-39 -7.164548e-39 5.1249927e-08
0000d0 af 69 f6 32 6d b6 4c 00 e2 b1 56 33 ef b4 27 80
       2.8686229e-08 7.04494e-39 4.998754e-08 -3.646491e-39
0000e0 6e 07 44 00 e8 91 ef b3 2c 13 2a 00 77 f6 2b b4
       6.247479e-39 -1.1155845e-07 3.863968e-39 -1.601528e-07
0000f0 a6 58 8b b3 ce bd 9f b2 72 f4 66 32 1e bd 31 80
       -6.488817e-08 -1.859635e-08 1.3443342e-08 -4.567782e-39

mlp.mlp.1.weight f4 [64]
000000 b5 3c 42 80 62 52 02 00 87 b0 0f 80 0b 6c 31 00
       -6.08292e-39 2.13224e-40 -1.440859e-39 4.538698e-39
000010 75 c5 03 80 44 52 23 80 fe d5 fa 3c 3e 6c 1d 9a
       -3.46341e-40 -3.243754e-39 0.030619618 -3.2554276e-23
000020 6b e6 37 00 cd ba 3a 00 40 6e 20 00 3b 02 03 3d
       5.13361e-39 5.39347e-39 2.978286e-39 0.03198455
000030 5b 22 05 3d 4a 53 19 80 65 0b 4d 00 97 c2 28 80
       0.032503467 -2.325766e-39 7.075421e-39 -3.743226e-39
000040 40 de 11 80 41 55 05 80 79 89 2e 00 0a eb 7e a5
       -1.640932e-39 -4.89761e-40 4.273749e-39 -2.2110622e-16
000050 cc ad 07 3d 30 2a 12 80 71 bd 08 3d 80 57 0a 3d
       0.03312473 -1.668173e-39 0.03338379 0.033774853
000060 0c 59 f7 3c 99 b3 3f 80 2e 9d 37 00 ed 56 0b 3d
       0.030193828 -5.850064e-39 5.107338e-39 0.034018446
000070 ee f0 16 80 5f fd 20 80 f6 c8 05 3d 50 07 4d 80
       -2.10681e-39 -3.029628e-39 0.032662354 -7.073956e-39
000080 6c a1 05 3d d4 10 0b 3d cb 69 0d 3d 4f 41 1b 80
       0.032624647 0.033951595 0.03452472 -2.502987e-39
000090 9d 31 b5 17 02 34 f0 3c 85 5b 16 80 ff 0d 07 80
       1.1709375e-24 0.029321674 -2.053212e-39 -6.4787e-40
0000a0 a3 86 09 80 07 a6 02 00 d7 aa 19 80 99 12 0b 3d
       -8.74818e-40 2.4323e-40 -2.357173e-39 0.033953283
0000b0 74 19 21 00 75 73 c7 87 2a d7 05 3d 49 d9 0d 00
       3.039702e-39 -3.0010052e-34 0.0326759 1.271809e-39
0000c0 52 86 f8 3c b6 92 20 80 81 04 1e 00 8a 5c 04 3d
       0.030337486 -2.991366e-39 2.75668e-39 0.032314815
0000d0 56 71 cd 3c e3 1c 22 00 cb 3a e7 3c ac 5d 42 80
       0.025078457 3.13277e-39 0.028226277 -6.094746e-39
0000e0 67 7e 08 80 dc 7a 14 3d dc 7c 08 80 bd 07 f7 3c
       -7.80029e-40 0.03624998 -7.79475e-40 0.030155057
0000f0 dc a8 0a 3d d3 11 03 3d f3 bc ca 3c fd d8 3c 80
       0.033852443 0.03199942 0.024748301 -5.58797e-39

mlp.mlp.1.bias f4 [64]
000000 c5 e0 1b 80 66 3f 17 00 50 af 4c 00 27 e5 50 00
       -2.56019e-39 2.13496e-39 7.042388e-39 7.429044e-39
000010 ff 4e 49 80 e8 33 1d 80 e4 f8 98 3c 0c ba e6 98
       -6.73233e-39 -2.68185e-39 0.018673368 -5.9641466e-24
000020 4f 0f 2d 80 47 d7 3c 80 f4 ea 25 80 83 e0 a1 3c
       -4.138089e-39 -5.587357e-39 -3.482199e-39 0.019760376
000030 c0 0c a6 3c c1 c3 10 00 e3 82 10 80 32 2b 4a 00
       0.020269752 1.539591e-39 -1.516321e-39 6.811322e-39
000040 e2 dd 4d 00 2e 8d 45 00 b7 d5 27 00 6d 10 ce a3
       7.15093e-39 6.387295e-39 3.658251e-39 -2.2341521e-17
000050 49 b5 aa 3c 51 db 2d 80 2f 80 aa 3c a6 44 ae 3c
       0.020838397 -4.211273e-39 0.020813076 0.021272969
000060 8b a7 96 3c f2 b3 21 00 a9 4c 18 80 ac 29 b0 3c
       0.018390438 3.095124e-39 -2.231552e-39 0.021504246
000070 95 42 20 80 09 d1 4f 00 80 11 a8 3c fa df 16 00
       -2.962621e-39 7.329992e-39 0.020516157 2.100729e-39
000080 13 be a6 3c 24 e9 af 3c 88 fa b2 3c 38 e5 08 80
       0.020354306 0.021473475 0.021847978 -8.16912e-40
000090 31 cd 9f 16 ab 6d 90 3c e4 ac 29 00 7d 22 3b 80
       2.581733e-25 0.017630419 3.827277e-39 -5.430666e-39
0000a0 b1 9d 1a 80 3e 20 46 00 86 78 0c 80 51 9e ae 3c
       -2.444292e-39 6.440051e-39 -1.145262e-39 0.021315726
0000b0 45 6a 3f 80 74 72 18 07 b9 5d a7 3c 0c fa 4c 80
       -5.823759e-39 1.1468844e-34 0.020430433 -7.069198e-39
0000c0 19 e8 96 3c f6 20 1e 80 4b 3e 33 80 05 81 a5 3c
       0.01842122 -2.766889e-39 -4.705957e-39 0.020203123
0000d0 74 b4 6a 3c 3b 3b 49 80 5e 52 89 3c 7d af 3e 00
       0.01432525 -6.725239e-39 0.016762909 5.756754e-39
0000e0 7c 3c 4b 80 97 81 bf 3c 5c f8 4e 00 f1 ca 96 3c
       -6.90936e-39 0.023377223 7.252263e-39 0.018407317
0000f0 d4 e9 ae 3c ec ee a2 3c 89 44 66 3c ba db 47 80
       0.021351732 0.019889317 0.014054426 -6.599143e-39

mlp.mlp.1.running_mean f4 [64]
000000 09 60 1c 80 48 33 0e 00 66 e8 22 80 87 8f 35 80
       -2.605845e-39 1.304093e-39 -3.205776e-39 -4.918769e-39
000010 d2 c4 2c 80 db ba 06 80 ac 3b 37 bc 27 92 c9 18
       -4.111368e-39 -6.18044e-40 -0.0111836605 5.210486e-24
000020 31 bd 22 80 7f bb 1c 00 06 c7 14 00 79 6c 3e bc
       -3.190276e-39 2.638655e-39 1.908106e-39 -0.011622542
000030 b1 59 3f bc 3a e9 04 80 2e 17 22 80 fa 9a 38 80
       -0.011679099 -4.51008e-40 -3.130722e-39 -5.198383e-39
000040 f9 fd 09 00 2a dd 44 00 44 76 1f 00 14 f2 7d 23
       9.17628e-40 6.324152e-39 2.889326e-39 1.37664195e-17
000050 2b e3 42 bc 26 41 34 80 98 f0 43 bc 67 3f 47 bc
       -0.011894981 -4.798817e-39 -0.0119592175 -0.012161112
000060 66 a3 35 bc 9c f5 15 00 63 06 1d 80 1e 31 47 bc
       -0.0110863205 2.016653e-39 -2.66552e-39 -0.012157707
000070 74 ca 36 80 d5 fe 12 00 28 5d 42 bc 58 8a 0b 00
       -5.031743e-39 1.744455e-39 -0.0118630305 1.059819e-39
000080 43 f8 3e bc f3 bd 47 bc 0f cd 49 bc 70 77 41 00
       -0.01165587 -0.0121912835 -0.012316956 6.012153e-39
000090 de 99 91 15 ee f9 32 bc 80 24 06 00 3f a7 53 00
       5.8807793e-26 -0.010923846 5.64107e-40 7.682343e-39
0000a0 c8 b1 03 80 ed 41 2b 00 16 93 11 80 b4 0b 48 bc
       -3.39282e-40 3.972576e-39 -1.613968e-39 -0.0122098215
0000b0 77 8a 2a 80 e8 75 51 06 b3 0f 43 bc 5d 47 1f 80
       -3.906763e-39 3.9395155e-35 -0.011905598 -2.872501e-39
0000c0 be 74 35 bc 21 05 19 80 9c a6 01 00 e3 c6 3f bc
       -0.011075197 -2.297727e-39 1.51604e-40 -0.011705133
0000d0 4b a8 1d bc 3f 5e 24 00 fa ec 2b bc 5d 06 06 00
       -0.009622644 3.339887e-39 -0.010493511 5.53296e-40
0000e0 fb 3b 49 00 b5 07 51 bc 80 cd 11 80 db 9d 34 bc
       6.725508e-39 -0.012758185 -1.634923e-39 -0.011023964
0000f0 eb e6 44 bc dc 62 3c bc 07 d4 1c bc 34 88 0f 80
       -0.012017946 -0.011498179 -0.009572036 -1.426393e-39

mlp.mlp.1.running_var f4 [64]
000000 04 00 00 00 04 00 00 00 04 00 00 00 04 00 00 00
       6e-45 6e-45 6e-45 6e-45
000010 04 00 00 00 04 00 00 00 2f 6f 1e 37 04 00 00 00
       6e-45 6e-45 9.443421e-06 6e-45
000020 04 00 00 00 04 00 00 00 04 00 00 00 2b 5f 2b 37
       6e-45 6e-45 6e-45 1.0214552e-05
000030 ec 7d 29 37 04 00 00 00 04 00 00 00 04 00 00 00
       1.0102503e-05 6e-45 6e-45 6e-45
000040 04 00 00 00 04 00 00 00 04 00 00 00 22 2c d7 0a
       6e-45 6e-45 6e-45 2.0720348e-32
000050 a8 b4 30 37 04 00 00 00 81 4d 34 37 b4 12 37 37
       1.053248e-05 6e-45 1.0746881e-05 1.0912005e-05
000060 2b 90 20 37 04 00 00 00 04 00 00 00 82 cf 35 37
       9.57031e-06 6e-45 6e-45 1.0836755e-05
000070 04 00 00 00 04 00 00 00 0a 38 2b 37 04 00 00 00
       6e-45 6e-45 1.0205442e-05 6e-45
000080 7c 68 2c 37 84 5f 35 37 58 49 39 37 04 00 00 00
       1.0276326e-05 1.081068e-05 1.1043936e-05 6e-45
000090 04 00 00 00 19 44 1b 37 04 00 00 00 04 00 00 00
       6e-45 9.254575e-06 6e-45 6e-45
0000a0 04 00 00 00 04 00 00 00 04 00 00 00 e9 b1 32 37
       6e-45 6e-45 6e-45 1.065105e-05
0000b0 04 00 00 00 04 00 00 00 a0 06 2b 37 04 00 00 00
       6e-45 6e-45 1.0193937e-05 6e-45
0000c0 c0 38 1d 37 04 00 00 00 04 00 00 00 f2 03 2e 37
       9.371142e-06 6e-45 6e-45 1.0372127e-05
0000d0 d4 74 fa 36 04 00 00 00 9f b6 0f 37 04 00 00 00
       7.464181e-06 6e-45 8.565984e-06 6e-45
0000e0 04 00 00 00 be 97 42 37 04 00 00 00 bc bc 1b 37
       6e-45 1.1598631e-05 6e-45 9.282663e-06
0000f0 bb 06 33 37 80 82 27 37 b1 54 f8 36 04 00 00 00
       1.06707985e-05 9.98436e-06 7.4008353e-06 6e-45

mlp.mlp.4.weight f4 [64, 64]
000000 f5 70 4c 80 95 90 25 80 57 f6 4f 80 a2 aa 4b 00
       -7.020019e-39 -3.44978e-39 -7.343374e-39 6.948874e-39
000010 29 01 06 80 bb f9 4d 80 c6 50 b1 3b 49 00 1b 98
       -5.51429e-40 -7.16092e-39 0.0054112403 -2.0033424e-24
000020 cd 07 37 80 34 cc 50 00 b9 d2 3e 80 b2 80 c1 3b
       -5.05375e-39 7.420094e-39 -5.769394e-39 0.0059052343
000030 c9 3a b7 3b f3 32 20 80 aa d9 3c 00 08 7a 51 00
       0.0055917245 -2.957013e-39 5.588213e-39 7.482452e-39
000040 d8 54 4e 80 7c af 35 80 55 ad 29 80 c2 90 b8 a3
       -7.193605e-39 -4.930233e-39 -3.827435e-39 -2.0010627e-17
000050 0a 88 c3 3b 8d e1 32 00 62 f5 ba 3b 82 71 c6 3b
       0.005967145 4.672687e-39 0.0057055214 0.0060560117
000060 ff 51 ab 3b a9 40 10 80 9c d0 50 80 1e 5d c0 3b
       0.0052282806 -1.492564e-39 -7.421675e-39 0.0058704754
000070 f8 c3 12 00 ec 5a 18 80 24 f0 b9 3b 83 07 2e 80
       1.723339e-39 -2.236669e-39 0.005674379 -4.227128e-39
000080 67 91 c0 3b da b9 bf 3b 47 cc c5 3b 41 5f 07 00
       0.0058767083 0.0058510127 0.0060363146 6.77019e-40
000090 84 cf 07 16 f0 02 a5 3b d1 ef 52 80 6c 98 17 00
       1.0970694e-25 0.0050357506 -7.61654e-39 2.166895e-39
0000a0 37 96 3a 00 20 5c 4d 00 0b a8 4e 80 28 1f cb 3b
       5.380346e-39 7.104381e-39 -7.223451e-39 0.0061987825
0000b0 00 7a 15 80 71 77 c1 02 6f 51 ba 3b 0a fa 29 80
       -1.972311e-39 2.8427357e-37 0.005685977 -3.854952e-39
0000c0 a7 7e ab 3b 49 fd 03 00 31 43 18 00 13 8b be 3b
       0.005233604 3.66368e-40 2.228156e-39 0.005814919
0000d0 39 52 8c 3b c5 c3 26 00 1c f4 a1 3b 38 67 31 80
       0.0042822626 3.559978e-39 0.00494243 -4.536967e-39
0000e0 0a 42 18 00 c9 69 ce 3b 6d 31 32 80 3d bd a2 3b
       2.227742e-39 0.0062992317 -4.609505e-39 0.0049664066
0000f0 96 2a c4 3b 4f 72 be 3b 77 a2 89 3b 0f 92 21 80
       0.005986522 0.0058119665 0.0042002755 -3.082967e-39
000100 b4 74 0e 80 f6 27 3e 80 b8 2b 41 00 95 62 1c 80
       -1.327562e-39 -5.708136e-39 5.98499e-39 -2.606758e-39
000110 29 fa 34 00 77 66 2f 80 a8 d4 b0 3b aa 25 18 98
       4.865186e-39 -4.353026e-39 0.0053964444 -1.9664555e-24
000120 b6 95 23 00 44 f6 30 80 75 84 39 80 77 64 bd 3b
       3.267949e-39 -4.496447e-39 -5.28214e-39 0.0057797986
000130 b0 04 be 3b f8 08 04 00 5b f7 36 00 cc 21 2b 00
       0.0057988986 3.7056e-40 5.047851e-39 3.96105e-39
000140 cf 3b 0c 00 4c e9 12 00 a2 63 09 00 f8 b1 8b 23
       1.123481e-39 1.73673e-39 8.62261e-40 1.5145783e-17
000150 ed fc cc 3b 3e f7 0e 00 35 d4 c4 3b 95 fc c8 3b
       0.006255737 1.374391e-39 0.0060067424 0.0061336257
000160 97 a4 b6 3b 51 21 23 00 7e 5c 00 80 85 ce c8 3b
       0.00557382 3.226194e-39 -3.318e-41 0.0061281347
000170 f8 b0 36 80 ab 19 24 80 da 04 bd 3b 0d 67 05 00
       -5.022601e-39 -3.315286e-39 0.0057684006 4.96145e-40
000180 27 b1 c4 3b 6e 83 ca 3b 20 cf ce 3b 64 f6 2f 80
       0.0060025635 0.0061802184 0.0063113123 -4.404657e-39
000190 0a 04 1c 96 4a 1d a9 3b d6 99 2c 80 6d 97 29 00
       -1.2602854e-25 0.005160962 -4.095948e-39 3.819577e-39
0001a0 e0 c9 32 00 ff 93 38 00 05 33 17 00 30 0d ce 3b
       4.664194e-39 5.195879e-39 2.130519e-39 0.006288193
0001b0 62 88 12 80 31 b2 73 06 6d a5 c2 3b 04 f5 3b 80
       -1.701964e-39 4.5834135e-35 0.0059401304 -5.50619e-39
0001c0 50 f5 af 3b 6d 9d 10 00 f7 55 31 80 66 ba bb 3b
       0.0053698197 1.525842e-39 -4.530778e-39 0.0057290075
0001d0 93 5d 95 3b ca 78 22 00 84 f4 a5 3b fc 30 30 00
       0.004558274 3.165738e-39 0.005064549 4.425676e-39
0001e0 35 8a 38 80 6d d4 d5 3b 3e 40 18 80 ce d7 b0 3b
       -5.192367e-39 0.0065255673 -2.227098e-39 0.0053968197
0001f0 c4 ee cf 3b 57 f3 b6 3b 6c b8 88 3b 93 c3 41 80
       0.0063456018 0.0055832076 0.0041723754 -6.039466e-39
000200 78 e5 34 00 12 05 05 80 df b6 09 80 aa 3a 31 80
       4.857764e-39 -4.60996e-40 -8.92121e-40 -4.520984e-39
000210 0b be 18 80 ad 21 0c 80 a5 52 b4 3b 12 97 02 17
       -2.272226e-39 -1.114107e-39 0.005503016 4.2195943e-25
000220 36 df 21 00 6c 4c 08 00 60 53 0a 80 5c bf b2 3b
       3.110644e-39 7.62099e-40 -9.48264e-40 0.0054549407
000230 67 a9 b4 3b 7c 49 3d 80 4b f6 21 00 86 b8 02 00
       0.0055133584 -5.628326e-39 3.118925e-39 2.49866e-40
000240 1c a0 09 00 98 56 3a 00 87 ec 3b 80 da 54 c7 23
       8.83956e-40 5.357523e-39 -5.503144e-39 2.161156e-17
000250 3f 49 bf 3b 62 d7 38 00 8b 27 c4 3b be 73 c0 3b
       0.005837589 5.220053e-39 0.005986159 0.0058731725
000260 65 2c a8 3b 25 4c 2e 00 20 63 12 00 87 81 ca 3b
       0.0051322454 4.251748e-39 1.688598e-39 0.0061799916
000270 d6 c2 39 00 da e0 4c 80 f4 29 bd 3b 04 1c 4c 80
       5.304517e-39 -7.060159e-39 0.0057728235 -6.989548e-39
000280 a1 c4 bd 3b ec b3 c8 3b 4e 23 c2 3b 49 bc 07 80
       0.0057912623 0.006124964 0.005924619 -7.10392e-40
000290 35 bd 09 96 f2 0a 98 3b 1f 95 0e 80 e5 7e 41 00
       -1.1126475e-25 0.0046399767 -1.339192e-39 6.014828e-39
0002a0 88 92 3d 00 ee 55 1d 00 60 68 3a 00 9c 8b c2 3b
       5.654531e-39 2.694055e-39 5.363901e-39 0.005937053
0002b0 d7 2e 19 00 3c e8 67 06 f8 7b b3 3b 1a 9c 34 00
       2.31269e-39 4.361689e-35 0.0054774247 4.831444e-39
0002c0 55 e0 a9 3b 9a 4f 3c 00 67 48 09 00 9a a2 b5 3b
       0.005184213 5.538685e-39 8.52493e-40 0.0055430653
0002d0 a4 16 8a 3b 86 a9 0e 80 8c 1d 9d 3b f4 0b 04 80
       0.0042141248 -1.34651e-39 0.004794782 -3.7163e-40
0002e0 e0 66 1e 80 7c 33 d7 3b e6 94 4d 00 14 59 ae 3b
       -2.79197e-39 0.0065674167 7.124748e-39 0.0053206775
0002f0 70 af cc 3b 3f ac ba 3b 54 62 89 3b b9 41 10 80
       0.0062464997 0.005696803 0.00419263 -1.492945e-39
000300 64 98 33 00 97 27 27 80 f9 5c 26 00 51 a2 44 80
       4.738278e-39 -3.595787e-39 3.523101e-39 -6.303042e-39
000310 cc d9 0b 00 09 c8 24 00 0f 2d 82 3b 05 9c 26 18
       1.088321e-39 3.377837e-39 0.0039726566 2.1533767e-24
000320 f2 ef 50 80 56 59 43 00 41 b8 30 80 50 25 8a 3b
       -7.432916e-39 6.185026e-39 -4.474202e-39 0.004215874
000330 03 b9 89 3b 94 ab 51 00 4a bc 0a 00 27 37 2e 80
       0.0042029633 7.500226e-39 9.859e-40 -4.244218e-39
000340 90 8b 04 80 29 47 2b 00 9c 8e 2a 80 0d 09 c0 22
       -4.17408e-40 3.974454e-39 -3.90825e-39 5.2051287e-18
000350 b3 08 8a 3b 39 fd 26 80 6c 2d 8d 3b a1 13 92 3b
       0.004212463 -3.580588e-39 0.004308393 0.0044579064
000360 50 e1 82 3b 98 fc 33 80 56 82 24 80 c6 42 8f 3b
       0.0039941445 -4.774224e-39 -3.352834e-39 0.0043719737
000370 10 70 21 80 c7 2f 4a 80 af 2d 89 3b ea 68 40 00
       -3.070772e-39 -6.812966e-39 0.004186354 5.915108e-39
000380 77 c4 89 3b bf 4f 91 3b b7 e4 92 3b 93 6c 3e 80
       0.0042043286 0.0044345553 0.0044828313 -5.73275e-39
000390 6b 8e fe 93 7d d6 73 3b c5 42 50 80 e2 75 4d 00
       -6.425905e-27 0.0037206702 -7.370792e-39 7.113622e-39
0003a0 76 11 15 80 36 bb 18 00 dd fa 15 00 a3 74 91 3b
       -1.934809e-39 2.27121e-39 2.018538e-39 0.004438953
0003b0 fa 70 4e 00 5e 1b d4 83 f2 f3 8a 3b d8 c5 3d 00
       7.203697e-39 -1.2466523e-36 0.0042405063 5.672938e-39
0003c0 11 52 79 3b a6 39 0a 80 8a a8 42 80 ab ed 8c 3b
       0.00380433 -9.39035e-40 -6.121603e-39 0.004300793
0003d0 68 f4 49 3b 8d 94 53 80 d5 d4 6d 3b 89 49 12 80
       0.0030815843 -7.675636e-39 0.0036290188 -1.679418e-39
0003e0 39 03 2c 00 80 6f a1 3b 43 e1 27 80 7f 2a 81 3b
       4.041918e-39 0.004926622 -3.662393e-39 0.0039418335
0003f0 d9 88 91 3b b9 30 87 3b 3a 88 45 3b 4c 32 2f 80
       0.0044413623 0.0041256812 0.0030141012 -4.334311e-39

mlp.mlp.4.bias f4 [64]
000000 8c ae 86 32 98 9a a3 32 3b f3 0e 32 b8 db 99 2f
       1.5679028e-08 1.9045999e-08 8.320792e-09 2.7986657e-10
000010 0b 4a 32 0a af e6 42 00 f9 d9 fa 30 cc c2 b9 32
       8.584314e-33 6.143896e-39 1.8251846e-09 2.1625418e-08
000020 6d 0a 95 31 20 ed 0b 32 d0 3a 27 00 a4 b0 96 31
       4.337656e-09 8.144781e-09 3.602682e-39 4.3856563e-09
000030 ee 60 a0 b2 b8 23 17 32 bc eb 9b 30 1f a3 94 b1
       -1.867053e-08 8.797478e-09 1.1344734e-09 -4.3259116e-09
000040 8c 91 be b0 e9 ee 52 80 49 77 19 80 42 89 5c 00
       -1.3865686e-09 -7.616216e-39 -2.338679e-39 8.498104e-39
000050 ad e0 bb 31 6f 1f bb 32 9d 99 0a 00 25 7f 44 80
       5.467959e-09 2.178396e-08 9.73461e-40 -6.290425e-39
000060 f7 1c 81 b1 9e fc 3f b2 5d 12 e6 31 00 2c 39 80
       -3.757687e-09 -1.1175102e-08 6.6959687e-09 -5.250408e-39
000070 1b 88 51 80 46 2e 48 31 a4 31 43 32 f4 33 37 00
       -7.4875e-39 2.9130134e-09 1.1361781e-08 5.06959e-39
000080 e1 5b f2 b1 fe 7b 23 b2 4c 6d 84 32 0f 0c 9f 32
       -7.0535724e-09 -9.516041e-09 1.5416525e-08 1.851552e-08
000090 f0 aa 7b 32 42 53 ec 32 57 2f 6e b0 22 32 7b 32
       1.464899e-08 2.7511877e-08 -8.665117e-10 1.4621522e-08
0000a0 4e 48 87 31 8e 55 40 31 a9 ff 0c 80 d0 0f c9 b2
       3.937237e-09 2.798831e-09 -1.19374e-39 -2.340667e-08
0000b0 37 6d 6a b1 ec 58 29 32 97 b9 82 31 38 bd 08 b1
       -3.4113563e-09 9.857313e-09 3.804597e-09 -1.9898163e-09
0000c0 b6 c7 bb b4 f7 8b d0 30 d9 da 9f 31 2c 62 94 31
       -3.4976773e-07 1.5173772e-09 4.652389e-09 4.3185278e-09
0000d0 5c 67 fd b1 49 ff 07 00 e7 90 b6 b1 3b 6d 04 80
       -7.3750197e-09 7.34428e-40 -5.3133706e-09 -4.06526e-40
0000e0 74 f7 01 00 3a 83 e1 b0 bf 0c 4f 00 53 3a a3 b2
       1.80605e-40 -1.6408201e-09 7.259577e-39 -1.900222e-08
0000f0 28 25 02 32 f7 d3 c8 b2 b7 b9 36 30 15 25 23 b0
       7.575444e-09 -2.3379455e-08 6.647513e-10 -5.935175e-10

mlp.mlp.5.weight f4 [64]
000000 53 36 15 3d e6 f1 1e 3d 4a bb 16 3d 47 a7 c7 3c
       0.03642876 0.03880491 0.036799707 0.024371756
000010 25 27 1d 16 cb dc 2c 80 a5 e1 fe 3c d2 aa 0f 3d
       1.2694711e-25 -4.119967e-39 0.031113455 0.035075016
000020 6d 1b 1b 3d e7 37 14 3d d7 ee 12 00 9a 4b e7 3c
       0.037867952 0.036186125 1.738719e-39 0.028234292
000030 2b 45 1e 3d 68 b5 1e 3d 05 29 1d 3d ac aa 0f 3d
       0.038640182 0.03874722 0.038369197 0.035074875
000040 7e 04 0e 3d 48 39 1e 80 74 0b 2f 80 c2 54 4b 00
       0.034672253 -2.775614e-39 -4.320377e-39 6.918068e-39
000050 33 cf 1c 3d 4c 98 13 3d 87 88 4a 00 dc 5d 02 00
       0.038283538 0.036033913 6.844803e-39 2.17341e-40
000060 7c 97 17 3d db 97 1a 3d ec 7d 19 3d f3 0b 4b 80
       0.0370097 0.037742477 0.037473604 -6.891949e-39
000070 c2 fd 46 00 09 e8 17 3d 68 bf 13 3d 66 11 00 00
       6.519516e-39 0.03708652 0.03607121 6.241e-42
000080 6c 5a 1a 3d 68 67 15 3d e9 1f 12 3d 11 a2 16 3d
       0.03768389 0.03647557 0.035674963 0.036775652
000090 fd af 1a 3d c3 c1 17 3d 3c 2d ef 3c e4 a7 16 3d
       0.03776549 0.03705002 0.029196374 0.036781207
0000a0 1e e2 03 3d 87 3c 1a 3d 5b f1 1d 00 2a 0a 1e 3d
       0.032198064 0.03765538 2.749811e-39 0.038583912
0000b0 28 a3 fe 3c 8f b0 15 3d 89 ac 10 3d aa e7 17 3d
       0.031083658 0.036545333 0.035320792 0.037086166
0000c0 68 c5 19 3d ae d2 1b 3d 28 b3 18 3d f6 f1 1a 3d
       0.037541777 0.038042717 0.03728023 0.03782841
0000d0 90 04 e2 3c 57 ab 29 00 1b 4a 1a 3d 3b 1a 21 00
       0.027590066 3.82672e-39 0.03766833 3.039981e-39
0000e0 c9 f8 22 0a c2 b9 13 3d fc 43 18 00 9f 8a 09 3d
       7.8468076e-33 0.036065824 2.22844e-39 0.033579465
0000f0 36 f5 e2 3c c9 10 1b 3d 41 33 f3 3c 6b e8 15 3d
       0.027704816 0.037857804 0.029687526 0.036598604

mlp.mlp.5.bias f4 [64]
000000 04 00 83 3e 2d 36 89 3e 81 45 88 3e 26 92 52 3e
       0.2558595 0.26799145 0.26615527 0.20563564
000010 7b b9 29 3e 7e 9d 41 3d dd 05 6e 3e ab ce 82 3e
       0.16574661 0.047269337 0.23244424 0.255483
000020 21 55 86 3e 1b 88 86 3e d3 29 d0 3d 70 44 60 3e
       0.26236823 0.26275715 0.10164227 0.21901107
000030 db 7d 87 3e e5 96 88 3e 81 d9 88 3e ff 4c 7f 3e
       0.26463208 0.26677623 0.26728442 0.24931715
000040 55 79 80 3e 4c 54 0e 3e d6 89 13 a6 99 f9 fd 3d
       0.2509257 0.13899344 -5.1187673e-16 0.124011226
000050 f5 56 87 3e 35 fe 82 3e 72 16 f1 3d 03 9e 99 a2
       0.2643353 0.2558457 0.11771859 -4.1638035e-18
000060 79 f4 84 3e 1c b3 84 3e f8 30 87 3e 8c 73 6f a1
       0.25967768 0.259179 0.26404548 -8.1129275e-19
000070 02 48 61 a5 69 d8 85 3e 62 b3 85 3e 72 ed 23 a5
       -1.9540036e-16 0.2614167 0.2611342 -1.4218446e-16
000080 e7 a3 87 3e 07 7b 85 3e 68 86 83 3e 3d d4 83 3e
       0.26492235 0.26070425 0.2568848 0.25747862
000090 59 9e 87 3e 34 23 85 3e fb bf 67 3e 92 c8 86 3e
       0.26487997 0.2600342 0.22631828 0.26324898
0000a0 3c 43 76 3e cd 44 85 3e 05 97 e6 a4 a1 48 87 3e
       0.24049085 0.26029053 -1.0000244e-16 0.264226
0000b0 ef 71 72 3e b7 0a 86 3e cf ec 83 3e 1c 16 85 3e
       0.23676275 0.2618005 0.25766608 0.2599343
0000c0 80 8a 86 3e a1 04 87 3e 88 b2 87 3e 79 04 88 3e
       0.26277542 0.2637072 0.26503396 0.26565912
0000d0 19 7d 5e 3e 78 2e 1d 3e eb 32 87 3e d3 4f 0a a6
       0.21727408 0.15349758 0.26406035 -4.798655e-16
0000e0 32 ae 26 3e c6 0a 86 3e dd e5 01 a3 a0 ee 7b 3e
       0.16277388 0.26180094 -7.0417795e-18 0.24602747
0000f0 4f f1 5a 3e 80 81 86 3e c8 cd 69 3e 5a 9a 83 3e
       0.21381114 0.26270676 0.22832406 0.25703698

mlp.mlp.5.running_mean f4 [64]
000000 0a b1 2d 3b 16 ac 35 3b 29 3d 2f 3b 24 e2 00 3b
       0.0026503229 0.002772098 0.0026739335 0.001966604
000010 95 d3 56 14 40 df 0c 00 d9 8b 1a 3b de 82 28 3b
       1.0845966e-26 1.182113e-39 0.002358189 0.0025712769
000020 42 02 32 3b 64 8a 2c 3b 37 13 43 00 9d a2 10 3b
       0.002716199 0.0026327604 6.159871e-39 0.0022069581
000030 90 d8 34 3b 73 80 35 3b 31 d2 33 3b 37 b2 27 3b
       0.0027594902 0.002769497 0.0027438516 0.0025588402
000040 62 3b 28 3b 38 b9 28 80 5c 1f 15 00 e7 88 23 00
       0.002567016 -3.739864e-39 1.939795e-39 3.263354e-39
000050 29 66 33 3b 2f f2 2b 3b 80 12 20 80 ba 50 33 80
       0.0027374125 0.0026236882 -2.945372e-39 -4.71257e-39
000060 27 ac 2e 3b 4c 20 32 3b 15 cf 30 3b 91 b5 2d 80
       0.0026652904 0.0027179895 0.00269789 -4.197731e-39
000070 c6 f4 29 80 34 0e 30 3b cd 57 2c 3b 3d 88 03 00
       -3.853064e-39 0.0026863934 0.002629745 3.2438e-40
000080 51 41 32 3b cb 13 2e 3b f7 c4 2b 3b 43 dd 2d 3b
       0.0027199576 0.002656209 0.002620993 0.0026529587
000090 3e df 31 3b 48 d9 2e 3b d1 98 14 3b 2c 28 2e 3b
       0.002714112 0.0026679803 0.0022674093 0.0026574237
0000a0 b2 d1 1d 3b 97 18 31 3b 1f d7 28 80 33 f3 33 3b
       0.0024081287 0.0027022713 -3.750591e-39 0.002745819
0000b0 4f 3d 1a 3b 2d f8 2d 3b 97 12 2a 3b 6e 03 30 3b
       0.0023535078 0.002654563 0.0025951022 0.0026857513
0000c0 dd f8 31 3b 19 ad 32 3b 54 56 30 3b 78 72 32 3b
       0.002715639 0.0027263819 0.0026906924 0.0027228873
0000d0 d4 bf 0d 3b 4b 98 2b 80 5b 6a 32 3b e7 c4 27 80
       0.002162923 -4.003559e-39 0.0027224037 -3.65222e-39
0000e0 d7 6b 61 08 21 9a 2c 3b 25 0e 2f 00 aa ee 22 3b
       6.783524e-34 0.0026336985 4.321342e-39 0.0024861493
0000f0 c6 25 0e 3b d1 6a 32 3b ad 5b 15 3b 92 cf 2d 3b
       0.0021689995 0.0027224312 0.0022790239 0.0026521427

mlp.mlp.5.running_var f4 [64]
000000 2c 12 0f 37 93 5a 1c 37 1c 85 11 37 bb 6f 9d 36
       8.527695e-06 9.319413e-06 8.673665e-06 4.6919718e-06
000010 04 00 00 00 04 00 00 00 a2 7b e2 36 2e 9b 06 37
       6e-45 6e-45 6.7497176e-06 8.023153e-06
000020 d8 43 16 37 c1 09 0d 37 04 00 00 00 96 40 c6 36
       8.956493e-06 8.406526e-06 6e-45 5.9083786e-06
000030 7f f4 1a 37 8b 19 1c 37 bd 46 19 37 4b 78 05 37
       9.2360415e-06 9.304272e-06 9.135981e-06 7.955426e-06
000040 15 1c 06 37 04 00 00 00 04 00 00 00 04 00 00 00
       7.993561e-06 6e-45 6e-45 6e-45
000050 c0 85 18 37 f0 22 0c 37 04 00 00 00 04 00 00 00
       9.091047e-06 8.352785e-06 6e-45 6e-45
000060 e4 85 10 37 80 58 16 37 db 21 14 37 04 00 00 00
       8.614243e-06 8.961302e-06 8.82937e-06 6e-45
000070 04 00 00 00 1b dc 12 37 f3 b8 0c 37 04 00 00 00
       6e-45 8.753525e-06 8.387712e-06 6e-45
000080 3f 80 16 37 28 92 0f 37 a3 c7 0b 37 62 4e 0f 37
       8.970556e-06 8.557494e-06 8.331527e-06 8.541714e-06
000090 ef eb 15 37 2a dd 10 37 86 4c d1 36 1d c5 0f 37
       8.936025e-06 8.634563e-06 6.237594e-06 8.569358e-06
0000a0 3d 31 ec 36 9e 99 14 37 04 00 00 00 10 5d 19 37
       7.03908e-06 8.857254e-06 6e-45 9.141178e-06
0000b0 b6 87 e1 36 bf 5c 0f 37 10 0d 09 37 35 bc 12 37
       6.7213214e-06 8.545058e-06 8.168878e-06 8.7460985e-06
0000c0 37 0d 16 37 55 45 17 37 d0 63 13 37 41 e8 16 37
       8.9437735e-06 9.016444e-06 8.785122e-06 8.9947725e-06
0000d0 5e 7e be 36 04 00 00 00 96 e5 16 37 04 00 00 00
       5.6771523e-06 6e-45 8.994151e-06 6e-45
0000e0 04 00 00 00 fb 1c 0d 37 04 00 00 00 c4 ba fb 36
       6e-45 8.411002e-06 6e-45 7.5021253e-06
0000f0 08 8b bf 36 5d c7 16 37 04 66 d3 36 e1 2a 0f 37
       5.708429e-06 8.987115e-06 6.300166e-06 8.533448e-06

mlp.mlp.8.weight f4 [1, 64]
000000 63 66 84 3e a7 8d 8a 3e 23 b2 89 3e b7 f7 52 3e
       0.25859365 0.27061197 0.2689372 0.20602308
000010 fa 04 28 3e 7f a3 3e 3d 23 33 6f 3e 0b 48 84 3e
       0.16408148 0.04654264 0.23359351 0.25836214
000020 d5 06 88 3e 70 16 88 3e 96 3d cd 3d 32 cb 61 3e
       0.26567712 0.26579618 0.10021512 0.22050169
000030 73 5c 89 3e 1c ed 89 3e 95 61 8a 3e 38 ef 80 3e
       0.26828346 0.26938713 0.27027574 0.2518251
000040 cd cf 81 3e 9b 2a 0d 3e e9 10 81 a8 5e b6 fb 3d
       0.25353852 0.13785784 -1.432921e-14 0.12290643
000050 1e ed 88 3e 3b 87 84 3e 28 51 ee 3d 75 21 b9 a5
       0.26743406 0.25884423 0.11636573 -3.2115056e-16
000060 99 72 86 3e 26 1c 86 3e 07 d5 88 3e dd 26 d4 a3
       0.26259306 0.2619335 0.26725027 -2.3001545e-17
000070 ee fd df a7 42 75 87 3e e4 ad 87 3e 0d ee b7 a7
       -6.2170245e-15 0.26456648 0.26499856 -5.10508e-15
000080 c6 3d 89 3e b8 ed 86 3e d6 f1 84 3e 86 2d 85 3e
       0.26804942 0.2635324 0.25965756 0.26011294
000090 10 3e 89 3e db 94 86 3e a4 69 69 3e 9e 57 88 3e
       0.26805162 0.26285443 0.22794205 0.26629347
0000a0 01 e4 77 3e 87 58 86 3e 3e 32 75 a8 06 c8 88 3e
       0.2420807 0.26239416 -1.3611127e-14 0.26715106
0000b0 ab 84 74 3e c4 03 88 3e 7d 4c 85 3e 5f c7 86 3e
       0.23878734 0.26565373 0.26034918 0.26323983
0000c0 b8 49 88 3e 7c 93 88 3e d1 68 89 3e 72 b0 89 3e
       0.26618743 0.26675022 0.2683778 0.2689243
0000d0 d8 ea 5e 3e 8d da 1b 3e 21 db 88 3e f3 95 82 a8
       0.21769273 0.1522009 0.26729682 -1.449793e-14
0000e0 75 46 25 3e f8 a3 87 3e 81 85 fa a5 17 49 7e 3e
       0.16140158 0.26492286 -4.3458553e-16 0.24832569
0000f0 0f e6 5b 3e 30 47 88 3e 78 c2 6b 3e 8b ee 84 3e
       0.21474479 0.26616812 0.23023403 0.25963244
