model/dfm_epoch_40.pt (torch, 79687 bytes, 15 tensors)

embedding.embedding.weight f4 [98, 32]
0	0x3e22e67d	0.15908237
1	0xbe8ff26c	-0.2811464
2	0x3da1a16e	0.078921184
3	0xbdfa75ef	-0.12229525
4	0x3e8724a1	0.26395133
5	0xbe71878c	-0.23586863
6	0xbcb343e6	-0.021882962
7	0x3e209abc	0.15684026
8	0x3d88a5e6	0.066722676
9	0xbe847dea	-0.25877315
10	0xbe84bd34	-0.259256
11	0x3e8b6136	0.27222604
12	0x3e88b508	0.26700616
13	0x3e5f62af	0.21814989
14	0xbd54c9db	-0.051950317
15	0x3cbbb932	0.022915456
16	0xbe1d0320	-0.15333223
17	0x3e91d4ae	0.28482574
18	0x3e019aca	0.12656704
19	0x3e9f56c8	0.31120896
20	0x3e40ec59	0.1884016
21	0xbdfaa11d	-0.12237761
22	0x3e7487f8	0.23879993
23	0xbe447d5e	-0.19188449
24	0xbe9280fd	-0.28614035
25	0x3e43c3d6	0.19117674
26	0xbde69c68	-0.11260301
27	0xbe160468	-0.14650118
28	0x3ea4ece3	0.3221198
29	0xb90fc55c	-0.00013711065
30	0x3b3ed138	0.0029116403
31	0x3e8e8a85	0.27840057
32	0x3d1c2c96	0.038128458
33	0xbe634cc1	-0.22197248
34	0x3e030573	0.12795047
35	0xbe34a014	-0.1763919
36	0x3e7c4678	0.24636257
37	0xbe41ccf4	-0.1892584
38	0xbe9d627c	-0.307392
39	0xbdb2a40c	-0.08722696
40	0xbe366879	-0.1781329
41	0xbe0b063f	-0.13576601
42	0x3d39e0cf	0.04538041
43	0x3e74c0f5	0.23901732
44	0x3e94f360	0.2909193
45	0x3d0bd80a	0.034141578
46	0xbd415311	-0.04719836
47	0x3d3ac83e	0.045601122
48	0xbe38095b	-0.17972319
49	0x3e87da94	0.2653395
50	0x3e7193a1	0.23591472
51	0x3eaf7d95	0.342755
52	0x3e365555	0.17805989
53	0xbe706dfb	-0.23479454
54	0xb99c5812	-0.00029820256
55	0xbe4b933f	-0.19880389
56	0xbe8d897a	-0.2764395
57	0x3cace3d3	0.021104729
58	0xbea7b26f	-0.32753322
59	0xbde31556	-0.11088054
60	0x3e0e571f	0.13900422
61	0x3da16ee3	0.07882478
62	0x3e62cd0f	0.22148536
63	0x3e595a9b	0.2122597
64	0x3ea8b8b3	0.32953414
65	0xbde75ebc	-0.11297366
66	0x3d0d1756	0.034446083
67	0x3d5f8858	0.054573387
68	0x3a9e4096	0.0012073691
69	0xbe89fd49	-0.26951054
70	0xbe94f550	-0.2909341
71	0x3e118594	0.14211112
72	0xbde83b9a	-0.11339493
73	0xbe8d8e5b	-0.2764767
74	0xbe9fb17b	-0.31190094
75	0x3e8824a8	0.26590466
76	0x3e19afe3	0.15008502
77	0x3e317940	0.1733141
78	0xbdd5623a	-0.10419126
79	0xbe7b9b5c	-0.24570984
80	0xbe6c1e23	-0.23058371
81	0x3e32dcee	0.1746709
82	0xbda110ea	-0.07864554
83	0x3e807ab3	0.25093612
84	0x3e68997e	0.22714803
85	0xbe9e3370	-0.3089862
86	0x3e366ff6	0.17816147
87	0xbe951b28	-0.2912228
88	0xbda7c0ea	-0.08191092
89	0x3e8c724a	0.27430946
90	0xbe058ca3	-0.1304193
91	0xbe9da673	-0.30791053
92	0x3e2bb573	0.16768436
93	0x3e99ca84	0.3003732
94	0x3e59d9af	0.21274446
95	0x3e662491	0.22474886
96	0xbcbf0619	-0.023318337
97	0xbd3efb46	-0.04662635
98	0x3db5c220	0.08874917
99	0xbdd99c86	-0.106255576
100	0x3d2bd5c4	0.04195191
101	0xbe955e80	-0.2917366
102	0xbe4fc632	-0.2029045
103	0xbd120bcf	-0.035655793
104	0xbe351e9b	-0.17687456
105	0x3cb90fe5	0.022590587
106	0x3be6c23f	0.007042199
107	0x3e0d5228	0.13800871
108	0x3d94b161	0.07260395
109	0x3e489e72	0.19591692
110	0xbe412dbc	-0.18865103
111	0xbc826b43	-0.015920287
112	0xbd61168c	-0.054953143
113	0x3e909075	0.28235212
114	0x3d5d4f07	0.054030444
115	0x3bd2c52d	0.0064321966
116	0xbb19d24d	-0.0023471296
117	0xbe8eca04	-0.278885
118	0x3e185d14	0.14879256
119	0x3d30c31c	0.04315482
120	0xbe66a7cd	-0.22524948
121	0x3d73baec	0.059504434
122	0xbd29b06e	-0.041428022
123	0xbe484fbe	-0.19561669
124	0x3e7f2301	0.24915697
125	0x3e89bf1d	0.2690362
126	0x3d96843e	0.07349442
127	0xbd541be2	-0.051784404
128	0x3e10fd69	0.14159168
129	0x3d443f4f	0.04791194
130	0x3d9a4ca2	0.07534148
131	0x3d2db401	0.042407993
132	0x3e8d85b4	0.2764107
133	0xbe9cbd8a	-0.30613357
134	0xbddb4022	-0.10705592
135	0x3ca6e2fd	0.020371908
136	0x3d86eab7	0.06587737
137	0xbe509769	-0.20370258
138	0xbd0f1d89	-0.034940276
139	0x3db2596a	0.08708461
140	0x3e9ebfe7	0.31005785
141	0x3e0acdff	0.13555144
142	0xbe92a986	-0.2864496
143	0xbc0c137f	-0.00854957
144	0xbe2e4f4a	-0.17022434
145	0x3e6ce238	0.2313317
146	0xbd996e75	-0.07491771
147	0x3ccd5750	0.025066048
148	0x3e8e2c1e	0.27768034
149	0xbe9f7603	-0.31144723
150	0x3e616fe1	0.22015335
151	0xbe1e97f2	-0.1548765
152	0xbd8543d4	-0.06507078
153	0x3e089a53	0.1334012
154	0xbcdd1f37	-0.026992423
155	0xbea3c736	-0.31987923
156	0x3cf4a0f2	0.029861901
157	0xbbd463d5	-0.0064816275
158	0x3d9b183c	0.07572982
159	0x3ea67e3e	0.3251819
160	0x3de4a258	0.11163777
161	0xbdaa4b4d	-0.08315144
162	0x3c405605	0.011739259
163	0x3cb48981	0.022038223
164	0xbc891b5f	-0.016736684
165	0xbddd0b44	-0.10793164
166	0xbd864f0a	-0.06558044
167	0x3b993d6b	0.004676511
168	0x3bb6958b	0.005572026
169	0xbda3e9e8	-0.080035985
170	0xbd036170	-0.032075346
171	0x3d8c5744	0.06852582
172	0x3e5e1843	0.21688943
173	0xbcb665d4	-0.022265352
174	0xbd8dd7f0	-0.069259524
175	0x3d2dd7fa	0.0424423
176	0xbd16be7d	-0.036802758
177	0x3e15d250	0.14631009
178	0x3e210d56	0.15727744
179	0xbb68b182	-0.0035506194
180	0x3d57a3fb	0.05264662
181	0xbc847606	-0.01616956
182	0x3d9aa926	0.07551794
183	0x3b60ca2b	0.003430019
184	0xbe232964	-0.15933758
185	0x3e0345ad	0.12819548
186	0xbce2df2e	-0.027694311
187	0xbe0959d4	-0.13413173
188	0xbd149237	-0.036272254
189	0xbc655284	-0.013996724
190	0xbd3fda2e	-0.04683893
191	0x3e167efd	0.1469688
192	0x3e2fb901	0.17160417
193	0xbe8d4126	-0.27588767
194	0xbda492db	-0.08035823
195	0x3d86dc9a	0.06585045
196	0x3e56a048	0.2095958
197	0xbe921aaf	-0.28535983
198	0x3c518841	0.012788833
199	0x3d9f4415	0.077766575
200	0xbe22f101	-0.15912248
201	0xbe0d6ea0	-0.13811731
202	0xbd5dcb5d	-0.05414902
203	0x3e73a42d	0.23793097
204	0xbd7f86c8	-0.062384397
205	0x3d829209	0.0637551
206	0xbe7a47b4	-0.24441415
207	0xbd5f3571	-0.054494325
208	0xbc93e825	-0.018055031
209	0x3cb48fdb	0.022041252
210	0x3e513648	0.20430863
211	0x3e16e9df	0.14737652
212	0x3e886855	0.266421
213	0x3d568a8f	0.052378234
214	0x3d00739d	0.031360257
215	0xbe890f28	-0.26769376
216	0xbe8c5493	-0.27408275
217	0x3e68f267	0.22748719
218	0xbe10d00f	-0.14141868
219	0xbe2382de	-0.1596789
220	0x3de32ed6	0.110929176
221	0x3d3e750a	0.046498336
222	0x3e94a57d	0.29032508
223	0xbc86a97c	-0.016438238
224	0x3e3b7482	0.18306163
225	0xbd521d9c	-0.05129777
226	0xbdcf1bda	-0.10112734
227	0xbe48f138	-0.19623268
228	0x3c224405	0.009903912
229	0x3dd0d712	0.101972714
230	0xbda218b3	-0.07914867
231	0xbdc7d395	-0.09757153
232	0x3c2d9875	0.010595431
233	0x3d622234	0.0552084
234	0xbe80923d	-0.2511157
235	0x3ca2d4d4	0.019876875
236	0xbca3ff81	-0.020019295
237	0x3eab449f	0.3345079
238	0xbea50e4c	-0.3223747
239	0xbe41e447	-0.18934737
240	0xbe96568c	-0.29362905
241	0x3c43cca7	0.011950648
242	0x3eac1b98	0.33614802
243	0x3d3d02bd	0.04614519
244	0x3e60e2d3	0.21961527
245	0xbe4fbe2b	-0.20287387
246	0x3e876946	0.26447505
247	0x3dbf7295	0.09348027
248	0xbe802231	-0.25026086
249	0x3e973205	0.2953035
250	0xbe80612b	-0.25074133
251	0xbd109ea2	-0.035307534
252	0x3e9ec6d6	0.31011075
253	0x3ea42d62	0.32065874
254	0x3dfb627c	0.12274644
255	0x3e57a9cc	0.21060866

linear.fc.weight f4 [98, 1]
0	0xbf8bc1c4	-1.0918508
1	0xbf87dc08	-1.0614023
2	0xbeae2a3a	-0.3401659
3	0xbec5b5bb	-0.38615212
4	0x3f39773e	0.72447574
5	0x3ff5e8d6	1.9211681
6	0xbf8a06c7	-1.0783318
7	0x3fce22ad	1.6104332
8	0xbfc59f08	-1.5439157
9	0x3e276e38	0.16350639
10	0x3fa57ac3	1.2928089
11	0x3fba00c1	1.453148
12	0xbf54b7af	-0.8309278
13	0xbedcb26e	-0.4310488
14	0xc0059897	-2.0874383
15	0x3e0053a0	0.125319
16	0x3f77e65c	0.96835876
17	0xbf58f251	-0.84744745
18	0xbf2dc121	-0.67872816
19	0x3ee8c0df	0.4545965
20	0x3edc077a	0.42974454
21	0xbf056c19	-0.5211807
22	0x3eb048d2	0.34430557
23	0xbdff47a0	-0.12464833
24	0x3f120060	0.5703182
25	0x3f1d691e	0.6148852
26	0x3d6d389a	0.057915308
27	0x3ec5d3c2	0.3863812
28	0xc018b45f	-2.386009
29	0xbf945be4	-1.1590543
30	0xbe9e3bb2	-0.3090492
31	0x3e11c889	0.14236654
32	0xbeab622d	-0.3347334
33	0xbf330fba	-0.6994587
34	0xbca61326	-0.020272803
35	0xbd415daf	-0.047208484
36	0xbd4caed1	-0.049971405
37	0x3f613feb	0.87988156
38	0x3a9b8eb8	0.0011868095
39	0x3e29cd77	0.16582285
40	0xbeb463c5	-0.35232368
41	0x3d0a5549	0.03377274
42	0xbf04e6bc	-0.5191457
43	0x3e4e854f	0.2016804
44	0xbf576e69	-0.8415285
45	0xbe79bd36	-0.24388584
46	0xbd8fef24	-0.07028034
47	0x40073dfe	2.1131587
48	0xbe67b535	-0.22627719
49	0x3f08d9c8	0.5345731
50	0xc009c75d	-2.1527932
51	0x3c82dacd	0.015973473
52	0x3e62eb7f	0.22160147
53	0x3ef6cf9d	0.4820527
54	0xbd0c33ae	-0.034228973
55	0xbed71bb1	-0.42013314
56	0x3f919038	1.1372137
57	0x3d2bf6b5	0.041983325
58	0xbf4dda17	-0.80410904
59	0x3e0c85ea	0.13722959
60	0xbed8ba3c	-0.42329586
61	0xbe8adef7	-0.27123234
62	0x3d8d146d	0.068886615
63	0x3ecd6885	0.40118805
64	0xbeff430e	-0.49855846
65	0x3a3bca9e	0.0007163676
66	0xbdd90cb5	-0.10598127
67	0xbf758bed	-0.95916635
68	0x3f636324	0.8882315
69	0xbfd1dd09	-1.639558
70	0xbf955d5a	-1.1669114
71	0x3f38417d	0.7197493
72	0x3f0a3868	0.5399232
73	0xbf30fa6a	-0.691321
74	0x3b0bfb8a	0.0021359646
75	0x3f5345fe	0.82528675
76	0xbebd1440	-0.36929512
77	0x39d510b8	0.00040638982
78	0x3f02f7ce	0.5115937
79	0x3d739f1f	0.05947792
80	0x3e8a7fff	0.27050778
81	0x3e6d2111	0.23157145
82	0xbea24124	-0.31690323
83	0x3d0ef880	0.034904957
84	0x3f35147c	0.7073438
85	0x3f32f998	0.699121
86	0x3fcbf6d0	1.5934696
87	0xbe7b221b	-0.24524729
88	0xbf0c2c42	-0.5475503
89	0xbedb0e00	-0.4278412
90	0x3f0ae5c2	0.5425683
91	0xbd34105f	-0.043960925
92	0x3efe4851	0.49664548
93	0x3ae1bab2	0.0017221777
94	0x3eac078e	0.33599514
95	0xbdfe873f	-0.1242814
96	0xbbf60b3b	-0.007508663
97	0x3f2dd539	0.67903477

mlp.mlp.0.weight f4 [64, 160]
0	0x3aef4b62	0.0018256719
1	0x3b23b153	0.002497752
2	0xba84d117	-0.0010133114
3	0x3a3266da	0.0006805487
4	0x39b01a87	0.000335891
5	0xb9eb9379	-0.0004493257
6	0x3a0165e5	0.0004936143
7	0x3ccf52dd	0.025308067
8	0xbcc0db2b	-0.023542007
9	0x3b637812	0.0034709019
10	0xbccbd4ed	-0.024881804
11	0x39e61727	0.00043886268
12	0xb9dc065b	-0.00041966405
13	0xbca26af6	-0.019826394
14	0xb858f3f3	-5.172561e-05
15	0xb9e3b2e4	-0.00043430098
16	0x39f78d95	0.00047216998
17	0x39d5b9dd	0.00040765005
18	0x3c89c2c4	0.016816504
19	0xb9ede202	-0.00045372552
20	0x38dc1ba4	0.00010495566
21	0xbc5b3625	-0.013379608
22	0xbd3d1b19	-0.04616842
23	0x38a9459b	8.071513e-05
24	0xb971e8f5	-0.00023070334
25	0xbd07d41d	-0.03316127
26	0xbcdb7fee	-0.0267944
27	0xba324bd2	-0.0006801459
28	0xbce67370	-0.028131217
29	0x3b67ab47	0.0035349892
30	0xbbb5d8d3	-0.005549529
31	0xba4db93c	-0.00078477315
32	0x3cc0b184	0.023522146
33	0xbbc0dbc9	-0.0058855754
34	0x390fd816	0.00013718041
35	0x3c8f3da8	0.017485455
36	0x3c6c80f7	0.0144350445
37	0x3b4bf2df	0.0031120104
38	0x3bb610da	0.005556208
39	0xbc981c9b	-0.018568328
40	0x3bcb029d	0.00619538
41	0xbcfdf67a	-0.031001318
42	0x3b867875	0.004103715
43	0xbcc12759	-0.023578333
44	0x3c83df4a	0.016097683
45	0xbc15c566	-0.009141302
46	0x3c9102fa	0.017701615
47	0x3cd917a6	0.026500534
48	0x3c8e00dd	0.017334396
49	0xbc487807	-0.012235648
50	0xbc9dd4f4	-0.019266583
51	0xbce03849	-0.027370589
52	0x3b92fe90	0.0044859126
53	0x3c1d9023	0.009616884
54	0xbc351460	-0.011052221
55	0xbd02a050	-0.031891167
56	0x3c8e45f3	0.017367339
57	0x3b3f3214	0.0029174136
58	0xbb1540f4	-0.002277431
59	0x3b68625f	0.0035459024
60	0xbba075f3	-0.004896873
61	0x3cd2077c	0.025638334
62	0x3c3301c3	0.010925713
63	0xbcf7c4f4	-0.030245282
64	0xbbf07abc	-0.00733885
65	0x3d293396	0.04130896
66	0xbcc2d421	-0.023782792
67	0x3d2b00fd	0.04174899
68	0xbc73d139	-0.014881426
69	0xbccf2142	-0.025284413
70	0xbcfe180a	-0.031017322
71	0x3ced388f	0.028957633
72	0xbcc82a55	-0.024434248
73	0x3d1103e9	0.03540412
74	0xbce96947	-0.028492583
75	0xbb7627cf	-0.003756035
76	0xbcadf117	-0.021233125
77	0x3d445259	0.047930095
78	0x3cc939dc	0.024563722
79	0x3c08ac27	0.008341826
80	0x3ccdd7e3	0.025127357
81	0xbc2f8991	-0.010713951
82	0x3d1b3daa	0.037900604
83	0x3b984c7e	0.0046477905
84	0x3c1b1640	0.009465754
85	0x3c450006	0.012023931
86	0xbb485d08	-0.003057303
87	0x3d190c56	0.03736528
88	0xbd1d604a	-0.038421907
89	0x3c9499d2	0.018139753
90	0x3d36e0cf	0.044647988
91	0x3cbc1f9c	0.022964291
92	0x3bf4b2a3	0.007467584
93	0xb9090e45	-0.00013070654
94	0xbaa8c0f4	-0.0012874887
95	0xbbe98223	-0.007126109
96	0xbbd10ba7	-0.006379563
97	0x3a8a29c6	0.0010541014
98	0x3b518cb7	0.0031974742
99	0x3cce9f18	0.025222346
100	0xbca9e7fa	-0.020740498
101	0x3c906841	0.017627837
102	0x3b077b1f	0.002067275
103	0x3c9321eb	0.01796051
104	0xbc9b8d5c	-0.018988304
105	0x3d0927b2	0.033485122
106	0x3c6ff68f	0.0146461865
107	0xbcabc40a	-0.020967502
108	0x3c14bced	0.009078247
109	0x3cd4d7ea	0.025981862
110	0x3b9eaa56	0.004842083
111	0x3c76adea	0.015056113
112	0x3b4c8a4b	0.0031210359
113	0x3cafbc61	0.02145213
114	0x3ce8247e	0.028337713
115	0xbc9e9df5	-0.01936243
116	0xbd08bc00	-0.033382416
117	0xbb989c6b	-0.0046573183
118	0x3ca690c5	0.020332703
119	0x3beccff5	0.007226939
120	0xbcaf0cca	-0.021368403
121	0xbd093439	-0.03349707
122	0xbc100d42	-0.008792223
123	0x3c9f66e3	0.01945824
124	0x3badb8bc	0.005301563
125	0xbd11f5d2	-0.035634823
126	0xbb876674	-0.0041320864
127	0xbc1fbe7c	-0.009750005
128	0x3c8431de	0.01613706
129	0x3c9c2701	0.019061567
130	0xbd1e2dc5	-0.038617868
131	0xbb6fcb48	-0.003658967
132	0x3d107eae	0.03527706
133	0xbbbf6688	-0.00584108
134	0xbb7dd7df	-0.0038733406
135	0x3d44e280	0.04806757
136	0xbd3f4b92	-0.04670293
137	0x3b9a3c83	0.0047069206
138	0x3ca989c8	0.020695582
139	0x3cff6f99	0.031181144
140	0xbc049f8f	-0.008094682
141	0x3d2e02e9	0.042483244
142	0x3c99198f	0.018688945
143	0xbb535c98	-0.0032251235
144	0xbca773f3	-0.020441031
145	0xbc279686	-0.010228759
146	0x39c45bb9	0.00037452372
147	0xbc966200	-0.018357277
148	0xbc4ad463	-0.0123797385
149	0xbc28e429	-0.010308304
150	0xbcf90583	-0.030398136
151	0xbc8ac7f3	-0.016941046
152	0x3beb4461	0.0071797823
153	0xbd542e0f	-0.051801737
154	0xbc92bbba	-0.01791178
155	0xbd21ce87	-0.0395036
156	0x3c362ed4	0.011119563
157	0x3a1f417f	0.00060751283
158	0x394dff79	0.00019645494
159	0x3d11fa5a	0.035639144
160	0xbb88848d	-0.004166192
161	0xbb9a2b14	-0.0047048423
162	0xbab69842	-0.0013930874
163	0x3ab98a8f	0.0014155674
164	0x39d0ea24	0.000398473
165	0xb951eff5	-0.00020021184
166	0xbcb596e1	-0.022166671
167	0x3d0ae473	0.033909272
168	0xbcb2e728	-0.02183874
169	0xbc90a401	-0.017656328
170	0xbc7507f5	-0.01495551
171	0x3a50525e	0.0007946844
172	0xba19630a	-0.0005851245
173	0xbc88bd7b	-0.016691914
174	0xb90404b8	-0.00012590259
175	0xba0c07cd	-0.00053417386
176	0x3a23a1c7	0.0006242063
177	0x39f5ae65	0.00046859976
178	0x3b7c05a8	0.003845552
179	0xba486e76	-0.00076458545
180	0x39929e20	0.00027965102
181	0x3c6e72fd	0.0145537825
182	0xbcdfd67d	-0.027323956
183	0x393b495f	0.00017861043
184	0xb979d600	-0.00023826212
185	0x3c0af645	0.008481567
186	0x3cdcfc99	0.026975917
187	0xba6ea1f6	-0.00091031136
188	0xbbdf99da	-0.0068237605
189	0xbbf42d13	-0.0074516623
190	0xbd060961	-0.03272379
191	0x3bab1568	0.0052210577
192	0x3ce242ac	0.027619682
193	0x3b1f0245	0.0024262827
194	0xb9dee4a9	-0.00042513505
195	0x3b400194	0.0029297816
196	0xbc8aa27c	-0.016923182
197	0x3b138582	0.0022509997
198	0x3cabf36e	0.0209901
199	0xbcb7501d	-0.022377068
200	0x3cc975de	0.024592336
201	0x3b0a4563	0.0021098487
202	0x3cd15ec1	0.025557877
203	0xbc1ffbac	-0.009764593
204	0x3c3ad96b	0.011404376
205	0xbaf2d28c	-0.0018525883
206	0xbcd20a4e	-0.02563968
207	0xbd1222fa	-0.035677887
208	0x3c066bf4	0.008204449
209	0x3b198662	0.0023426046
210	0xbb381519	-0.0028088747
211	0x3bbbb0a7	0.0057278457
212	0x3cbf7654	0.023371853
213	0x3c9befae	0.019035187
214	0xbc542065	-0.012947177
215	0x3bdd5f68	0.006755758
216	0xbc2c1a8a	-0.010504374
217	0x3c949dd9	0.018141674
218	0x3ba5ec00	0.005063534
219	0x3ad58566	0.0016290366
220	0xbbeb90ea	-0.007188906
221	0x3d019f3c	0.031646
222	0xbac352cb	-0.0014901994
223	0x3d1c95c1	0.038228754
224	0x3cf87e42	0.030333642
225	0x3c1582f8	0.009125464
226	0xbc456434	-0.012047816
227	0x3d5a7ed6	0.053343616
228	0x3d03ff49	0.03222588
229	0x3d566ca4	0.0523497
230	0xbc98e52b	-0.018663963
231	0xbd09f2ba	-0.033678748
232	0xbd5801ec	-0.052736208
233	0x3c339acd	0.0109622
234	0x3d43dbb7	0.04781696
235	0x3c6c008e	0.014404429
236	0x3c0610ee	0.008182747
237	0xbb9aa7af	-0.0047196965
238	0xbbff1aed	-0.007785192
239	0xbce5bc8a	-0.028044004
240	0x3d015ccf	0.03158265
241	0xbcd4b513	-0.02596525
242	0x3cddb94e	0.0270659
243	0x3d29b5fc	0.04143332
244	0x3c12d7a5	0.0089625465
245	0xbd19e620	-0.03757298
246	0xbc02cbcf	-0.007983162
247	0x3b438abe	0.0029837335
248	0xbc9bd189	-0.019020813
249	0xbc84e675	-0.016223172
250	0x3d2bb004	0.04191591
251	0xbbfc4c07	-0.007699493
252	0xbbdea456	-0.0067944927
253	0x3d2943a7	0.041324284
254	0xbca28bc3	-0.019842034
255	0x3bda1315	0.006655107

mlp.mlp.0.bias f4 [64]
0	0xb2828329	-1.5193637e-08
1	0xb0dcf099	-1.6075489e-09
2	0xaea97b9f	-7.70719e-11
3	0xb1a605dc	-4.831902e-09
4	0x3233e648	1.0471531e-08
5	0x31760c97	3.5804868e-09
6	0xb4958c90	-2.7855685e-07
7	0x31856861	3.882676e-09
8	0x32a23bdb	1.8886501e-08
9	0x31b31d3a	5.2129083e-09
10	0x33354abc	4.2210317e-08
11	0xb0cfea5e	-1.5127843e-09
12	0x334c3b75	4.7551527e-08
13	0x32b1d685	2.0703064e-08
14	0xb0b91175	-1.3465483e-09
15	0xb2b7dcd0	-2.1404418e-08
16	0x33a97b99	7.892158e-08
17	0xb3bc6b1a	-8.773914e-08
18	0x32c4cd48	2.2910754e-08
19	0xb119515d	-2.231068e-09
20	0x34aabaa8	3.1800778e-07
21	0x33875dbd	6.303478e-08
22	0xb215882a	-8.703902e-09
23	0xb3e43f8f	-1.06286386e-07
24	0xb30b285a	-3.240016e-08
25	0x325f3c35	1.2993998e-08
26	0xb1266d65	-2.4218363e-09
27	0x3226359b	9.67466e-09
28	0x3260a72a	1.3076525e-08
29	0x32fac165	2.9191776e-08
30	0xb41accaf	-1.4416831e-07
31	0x33466e88	4.6200995e-08
32	0x304aaa81	7.372947e-10
33	0x32dda064	2.5800723e-08
34	0x34336f42	1.671115e-07
35	0xb2420f54	-1.1295771e-08
36	0xb2e7266f	-2.6909417e-08
37	0x33e429fa	1.0624713e-07
38	0xb1b4ad29	-5.2583755e-09
39	0x31a23f15	4.721992e-09
40	0x344f2516	1.9291869e-07
41	0xb201c0b2	-7.552602e-09
42	0x2e245b3e	3.7370322e-11
43	0xb1e3f49f	-6.6343797e-09
44	0xb1a737f2	-4.8667e-09
45	0xb2103d27	-8.395808e-09
46	0x3487e757	2.531403e-07
47	0x3244e894	1.1461584e-08
48	0xb4123a27	-1.3618465e-07
49	0xb27f9850	-1.4877585e-08
50	0x32c8de3b	2.3384123e-08
51	0x33101e5f	3.3555235e-08
52	0xb327bde5	-3.9055426e-08
53	0xb4730161	-2.263164e-07
54	0x32fba0e5	2.9293412e-08
55	0xb17c7785	-3.6738765e-09
56	0xb2905891	-1.6804082e-08
57	0x33b00cfc	8.1980005e-08
58	0x3056bed0	7.812391e-10
59	0xb52c1e25	-6.411886e-07
60	0x3392874d	6.823266e-08
61	0xb33891dc	-4.2973497e-08
62	0xb215fe4f	-8.7307646e-09
63	0x31748431	3.5581815e-09

mlp.mlp.1.weight f4 [64]
0	0x3e86873d	0.26275054
1	0x3e918456	0.28421277
2	0x3e6b8d8c	0.23003215
3	0x3e2322fe	0.15931317
4	0x3e835242	0.25648695
5	0x3e0e08e0	0.13870573
6	0x3eab13ac	0.33413446
7	0x3ea65964	0.32490075
8	0x3e52fc7a	0.20604125
9	0x3e6e4a7f	0.23270606
10	0x3f1e0237	0.6172213
11	0x3eaff149	0.34363773
12	0x3e508d0d	0.20366307
13	0x3eee8e96	0.4659316
14	0x3ea9ca94	0.33162367
15	0x3eb4eca8	0.35336804
16	0x3e7b8a00	0.24564362
17	0x3f1e6239	0.61868626
18	0x3e80c3ed	0.2514948
19	0x3ee2fab9	0.4433191
20	0x3e9ebe07	0.31004354
21	0x3f048b6b	0.51775235
22	0x3eadac07	0.3392031
23	0x3ed9813c	0.4248141
24	0x3eca891a	0.39557725
25	0x3e951ff3	0.29125938
26	0x3ea7e46d	0.32791463
27	0x3e7b7cbe	0.24559304
28	0x3e5c302d	0.21502753
29	0x3f0fdc0e	0.5619515
30	0x3ea30345	0.31838432
31	0x3eb24854	0.34820807
32	0x3ef49e5d	0.47777072
33	0x3e8a53b8	0.27016997
34	0x3ef2813a	0.47364217
35	0x3ef62946	0.48078364
36	0x3ecb2f67	0.39684603
37	0x3e925d51	0.2858682
38	0x3e63dbb3	0.22251777
39	0x3f04a98e	0.5182122
40	0x3f45f916	0.773332
41	0x3e4574b3	0.19282798
42	0x3e933514	0.28751433
43	0x3e92b68f	0.28654906
44	0x3e9e042b	0.30862555
45	0x3e45ed38	0.19328773
46	0x3ec3c5f2	0.38236958
47	0x3e6b312b	0.22967975
48	0x3edca9eb	0.43098387
49	0x3e36c2cf	0.17847751
50	0x3e8301e8	0.25587392
51	0x3e88c373	0.26711616
52	0x3e6d2c3d	0.23161407
53	0x3e930526	0.28714865
54	0x3e5774fa	0.21040717
55	0x3e8862b6	0.2663781
56	0x3e5bd475	0.21467765
57	0x3eb45607	0.35221884
58	0x3e696348	0.22791779
59	0x3efaa178	0.48951316
60	0x3ed09ac4	0.40743077
61	0x3e8a96ce	0.2706818
62	0x3edd7b30	0.43258047
63	0x3f074b1b	0.52848977

mlp.mlp.1.bias f4 [64]
0	0x3cd5534b	0.026040694
1	0x3ca60cbb	0.020269742
2	0x3a311448	0.00067550363
3	0x3ceba12b	0.028763374
4	0x3ca9f581	0.020746948
5	0x3bf1c493	0.00737817
6	0xbcedf773	-0.029048657
7	0x3af5b55a	0.0018746064
8	0x3bf17aa9	0.0073693586
9	0x3c58fad6	0.013243398
10	0x39136359	0.00014056022
11	0xbc343269	-0.010998347
12	0x3bcd845c	0.006271882
13	0x3c957134	0.018242456
14	0x3b8d6cdb	0.004315955
15	0x3d23af4d	0.0399621
16	0x3cd714d1	0.026255043
17	0x3c8fbffd	0.017547602
18	0x3d0f1e92	0.034941263
19	0xbc477114	-0.012172956
20	0xbc6681d9	-0.014069044
21	0x3d5ac859	0.053413723
22	0xbb89e7bf	-0.0042085345
23	0x3b8a1a20	0.00421454
24	0xbcc89e13	-0.024489438
25	0xbb780312	-0.0037843627
26	0x3d302f8a	0.043014087
27	0x3c7a6f8d	0.015285385
28	0x3b50538c	0.003178808
29	0xbb8cfc2a	-0.0043025212
30	0xbc44284e	-0.0119725
31	0x3d4ba6b2	0.04971952
32	0xbba152e1	-0.00492321
33	0xbae7cd2c	-0.0017685047
34	0xbcd14602	-0.025546078
35	0xbabb99de	-0.0014312824
36	0xbcd1c520	-0.025606692
37	0xbc9cdedd	-0.019149238
38	0x3c002926	0.007822311
39	0xbc7ad423	-0.015309366
40	0x3c91e789	0.0178106
41	0x3cfc3388	0.03078629
42	0x3c742a46	0.014902657
43	0x3afdaee5	0.0019354491
44	0x3cfdb27a	0.030968893
45	0xb99d9857	-0.00030058876
46	0xbce4a7bc	-0.027912013
47	0x3c12bb76	0.008955827
48	0xbbc1879b	-0.005906058
49	0x3b87bb33	0.004142189
50	0x3c5b1413	0.013371485
51	0x3ba2e734	0.004971409
52	0xbc5f5bd8	-0.013632737
53	0x3c51f8ca	0.012815664
54	0xb8a6b635	-7.9494355e-05
55	0x3c4c15fa	0.0124564115
56	0x39ab795c	0.0003270608
57	0xbc8aaa8b	-0.016927024
58	0x3c84bbf4	0.016202904
59	0xbbb8467b	-0.0056236363
60	0x3b8a5935	0.00422206
61	0xba650a8d	-0.0008737229
62	0xbc51b932	-0.012800502
63	0xbcbfc112	-0.023407493

mlp.mlp.1.running_mean f4 [64]
0	0xbcb9a018	-0.022659346
1	0x3c9a7ab5	0.01885734
2	0x3bbf20d3	0.0058327704
3	0xbc6cb072	-0.014446365
4	0x3b9c07a9	0.0047616553
5	0xbc55cf7d	-0.013049957
6	0xbd83a9af	-0.06428849
7	0xbc64ca60	-0.013964266
8	0xbcbf9031	-0.023384186
9	0x3b8cea90	0.004300423
10	0x3d463984	0.048394695
11	0xbc17624e	-0.009239746
12	0xbd0988f2	-0.033577867
13	0x3cf024c8	0.029314414
14	0xbcf2fa20	-0.029660285
15	0x3b55e0e3	0.0032635264
16	0x3d601e40	0.05471635
17	0xbd6176db	-0.05504499
18	0x3cd7fe3c	0.026366346
19	0xbb2b9c38	-0.0026185643
20	0xbd6ba246	-0.057527803
21	0x3d69b331	0.057055656
22	0xbc9be27c	-0.019028895
23	0xbdaea204	-0.08526996
24	0xbdaf0e9f	-0.085477106
25	0xbcc1a320	-0.023637354
26	0x3bbc557a	0.0057474943
27	0x3c0cdbb8	0.008597307
28	0x3c67954f	0.014134719
29	0xbd51f41f	-0.051258203
30	0xbdb3c954	-0.08778635
31	0x3c3c5a2c	0.011496108
32	0xbc3db057	-0.011577687
33	0xbd40e091	-0.047089163
34	0xbcba6da2	-0.022757355
35	0xbcb8c5df	-0.02255529
36	0x3ca291f1	0.01984498
37	0xbcc3521e	-0.023842867
38	0x3bc07c8c	0.005874222
39	0xbb1f3cc4	-0.0024297694
40	0x3d585f41	0.052825216
41	0xbcfad214	-0.030617751
42	0xbc95f701	-0.018306257
43	0xbc857d40	-0.016295075
44	0x3c1d47c9	0.009599634
45	0xbbbd2a44	-0.0057728607
46	0xbd0921d1	-0.033479515
47	0x3c23fdae	0.010009212
48	0xbd4be575	-0.049779374
49	0x3ce7e6f7	0.028308375
50	0xbcc7338d	-0.024316574
51	0xbd3225b4	-0.043492988
52	0xbcd00cc8	-0.02539672
53	0x3d5326e9	0.05155078
54	0xbd1bcb3d	-0.03803562
55	0xbc4cf9d5	-0.0125107365
56	0xbc3d7c83	-0.01156533
57	0xbd0336a7	-0.032034542
58	0x3b4d7d55	0.0031355221
59	0xbdeb3ba8	-0.11485988
60	0x3cf864e9	0.030321555
61	0xbd883c75	-0.06652156
62	0x3cd4c8c7	0.025974644
63	0x3c966bde	0.018361982

mlp.mlp.1.running_var f4 [64]
0	0x3a2ffb82	0.0006713198
1	0x3a0a8cce	0.0005285264
2	0x3a8d2a7f	0.0010770111
3	0x3a9df3c2	0.0012050795
4	0x3a54c2df	0.0008116196
5	0x3a728596	0.0009251473
6	0x3a9a06ce	0.0011751296
7	0x3aa2881b	0.0012400182
8	0x3aa097a1	0.001225222
9	0x3a89c867	0.0010511995
10	0x3b3c78c2	0.00287585
11	0x3abe3080	0.0014510304
12	0x3a20fdf4	0.00061413576
13	0x3b53f4be	0.0032341923
14	0x3ab98d6c	0.0014156527
15	0x3ad99517	0.0016600218
16	0x3aadff9a	0.0013275028
17	0x3b3b1d25	0.0028551307
18	0x3a6d4716	0.0009051425
19	0x3b62eaa6	0.0034624725
20	0x3a1941a9	0.0005846271
21	0x3ad87d1b	0.0016516777
22	0x3b3dc3d9	0.0028955846
23	0x3af8f144	0.0018992801
24	0x3a98c573	0.0011655524
25	0x3a7333c0	0.00092774257
26	0x3ab2c571	0.0013639164
27	0x3a36d84d	0.00069749804
28	0x3a29f179	0.00064828206
29	0x3b04572f	0.0020193567
30	0x3a495c01	0.0007681251
31	0x3abe03e0	0.0014497004
32	0x3aefb907	0.0018289395
33	0x3a40e5ce	0.00073584623
34	0x3a800b34	0.0009768964
35	0x3b687e3d	0.0035475635
36	0x3a6ddd46	0.0009073805
37	0x3a3bb4fc	0.00071604527
38	0x396cbc2d	0.00022576815
39	0x3b03d635	0.002011669
40	0x3a9d622e	0.0012007409
41	0x3a8dbdb9	0.0010813988
42	0x3aa655b0	0.0012690332
43	0x3ac3ff75	0.0014953451
44	0x3ab39eb4	0.0013703913
45	0x3a5d7b0e	0.00084488175
46	0x3a834c7a	0.0010017299
47	0x3a7d4e52	0.0009662855
48	0x3a8f15ef	0.0010916571
49	0x3a7fb6d3	0.0009754721
50	0x3b297d6b	0.0025862108
51	0x3abefaa9	0.0014570552
52	0x3a01f174	0.0004956939
53	0x3a32096e	0.0006791566
54	0x39d6ab0c	0.000409447
55	0x3a9ef54f	0.0012127551
56	0x3a7485b8	0.0009327787
57	0x39ec6cd3	0.00045094508
58	0x3a81f279	0.0009914181
59	0x3a67e6a0	0.00088463165
60	0x3aa638a3	0.0012681674
61	0x3a060c8e	0.0005113565
62	0x3acb6937	0.0015519027
63	0x3b86759e	0.0041033765

mlp.mlp.4.weight f4 [64, 64]
0	0x3c85fde5	0.016356418
1	0x3c54f4ce	0.012997819
2	0xbc91a07c	-0.01777672
3	0xbcbe18bc	-0.023205154
4	0xbbef0fd6	-0.007295589
5	0xba9472e7	-0.0011325747
6	0x3cbc7be3	0.023008293
7	0x3bdba904	0.006703498
8	0xbb78fa85	-0.0037991118
9	0xbc79c695	-0.0152451
10	0x3ce8635f	0.028367696
11	0x3d170805	0.036872882
12	0x3cdb7d5c	0.026793174
13	0xbc96b3cd	-0.018396283
14	0xbc84541b	-0.016153386
15	0xbbf47d1f	-0.0074612047
16	0xbc9e655c	-0.019335441
17	0x3cf59a48	0.029980794
18	0xbcf04d92	-0.029333863
19	0xbcaeed68	-0.021353438
20	0x3c269cd0	0.010169223
21	0xbd07d65f	-0.033163425
22	0x3c755ee7	0.01497624
23	0x3bb6e0ae	0.005580983
24	0x3c947478	0.018121943
25	0xbb702b1a	-0.0036646784
26	0xbcd3a27f	-0.02583432
27	0xbc86b324	-0.016442843
28	0xbc2c9d5c	-0.010535564
29	0xbcc3266d	-0.023822034
30	0xbca6a9e5	-0.020344684
31	0xbd1afc78	-0.03783843
32	0x3c4491f2	0.011997687
33	0x3d36fc33	0.04467411
34	0x3cafa5ed	0.021441424
35	0x3c8ef99d	0.01745301
36	0x3d0e2812	0.034706183
37	0xbc756a63	-0.014978978
38	0xbbe0edd7	-0.00686429
39	0xbd055a57	-0.032556858
40	0xbcf81e69	-0.030287938
41	0xbd0f07f8	-0.03491971
42	0xbcfa76a1	-0.030574145
43	0xbc7510ab	-0.014957587
44	0x3c99aa30	0.01875791
45	0x3c68ba2e	0.014204545
46	0xbcb0bf7c	-0.021575682
47	0xbcb8526d	-0.022500241
48	0x3cc94729	0.024570065
49	0x3c4abbfa	0.012373919
50	0x3c3ecd61	0.011645646
51	0xbc972a77	-0.018452866
52	0xba357a70	-0.00069228467
53	0xbc9d4263	-0.019196695
54	0xbb9a8426	-0.0047154604
55	0x3b84eaeb	0.0040563247
56	0x3b73258b	0.0037101235
57	0x3cbd3898	0.023098275
58	0xbcaa349b	-0.020777037
59	0x3bc19a5a	0.0059082927
60	0x3d9b4d52	0.07583107
61	0x3b9b4ba2	0.0047392407
62	0x3c828358	0.01593177
63	0x3a7cc326	0.00096421165
64	0xbd724cc4	-0.05915524
65	0xbd0b74ea	-0.034047045
66	0xbcb9932b	-0.022653183
67	0x3c5916ba	0.013250047
68	0xbd21b984	-0.039483562
69	0x3cfaac8a	0.030599851
70	0xbc4f66d4	-0.0126587935
71	0x3d4c350d	0.04985528
72	0xbdac33b8	-0.08408302
73	0x3c8e810e	0.017395522
74	0xbd3d675b	-0.046241146
75	0x3c475ec5	0.012168591
76	0xbcb9e994	-0.022694387
77	0xbd9877c7	-0.07444721
78	0xbd5f35c0	-0.05449462
79	0x3d4bbbe8	0.04973975
80	0xbc9c5b9e	-0.019086655
81	0xbd871af2	-0.06596936
82	0x3c22b331	0.009930418
83	0xbd2b3910	-0.041802466
84	0x3d02339b	0.031787496
85	0x3d2f30d0	0.04277116
86	0xbd880957	-0.066424064
87	0x3d36f413	0.04466636
88	0xbc8cdcf0	-0.017195195
89	0x3c075345	0.008259599
90	0xb8c7d2d4	-9.528329e-05
91	0x3c275306	0.010212665
92	0x3cbb2c47	0.022848262
93	0x3d5a6d85	0.053327102
94	0xbd25abf5	-0.040447194
95	0x3d05ddd9	0.032682274
96	0xbd3b99de	-0.045801036
97	0x3c028e14	0.007968444
98	0xbcc3c049	-0.0238954
99	0xbd754c5c	-0.059887275
100	0x3cfa01c2	0.030518416
101	0xbd384a00	-0.044992447
102	0xbd3a13fe	-0.045429222
103	0x3cacb230	0.02108106
104	0xbbb672cf	-0.0055678855
105	0xbc7a2a05	-0.015268807
106	0x3ce1f9ab	0.027584871
107	0x3ca4539a	0.020059396
108	0xbb7f38d6	-0.003894379
109	0xbd229f13	-0.039702486
110	0xbd01b71a	-0.03166876
111	0xbd0f152f	-0.03493231
112	0x3d5b3d66	0.05352535
113	0xbc5d59b0	-0.013510153
114	0xbc303ea1	-0.010757119
115	0x3d7ace48	0.06123188
116	0xbc37bee6	-0.011214947
117	0xbd58abeb	-0.05289833
118	0x3cc04c1a	0.023473788
119	0xbd2713e9	-0.040790472
120	0xbbfb1601	-0.007662535
121	0xb9f7f99e	-0.0004729749
122	0x3d7750db	0.060379844
123	0xbd0574a1	-0.03258193
124	0xbd73995f	-0.059472438
125	0x3cafb333	0.021447754
126	0xbafca8be	-0.0019276363
127	0x3d73b33a	0.059497096
128	0xbab90ced	-0.0014118232
129	0xbc34ca77	-0.0110345995
130	0x3cd9f6b3	0.026606893
131	0xbce1c727	-0.027560784
132	0xbcebabb0	-0.02876839
133	0xbc77d4e1	-0.015126438
134	0x3d568494	0.05237253
135	0x3d8ce223	0.0687907
136	0xbb0f68b0	-0.0021882467
137	0xbd8f1f38	-0.069883764
138	0x3d0e60bd	0.034760226
139	0x3d463579	0.04839084
140	0x3d4eaae6	0.05045595
141	0x3d84d095	0.06485096
142	0xbcf8d218	-0.030373618
143	0x3a987b20	0.0011633374
144	0x3d17ddb1	0.037076656
145	0x3d004cf7	0.0313234
146	0xbdb09d6d	-0.086237766
147	0xbcc0c89d	-0.02353316
148	0x3cca0abb	0.02466332
149	0xbdf44d6b	-0.11928829
150	0x3d5d9bf4	0.054103807
151	0xba923cd6	-0.0011157047
152	0xbbeadaa3	-0.007167177
153	0xbd409144	-0.047013536
154	0xbd9c4c91	-0.076317914
155	0x3c8f8ebe	0.01752412
156	0xbc9117a2	-0.017711464
157	0xbd8a29f0	-0.0674628
158	0x3c9ecb18	0.019383952
159	0xbd4018f8	-0.046898812
160	0x3d5b6d1d	0.053570855
161	0xbceae670	-0.028674334
162	0x3cc5e30c	0.024156116
163	0x3da57c41	0.0808034
164	0xbc8c5f55	-0.017135302
165	0xbc4f3ff3	-0.012649524
166	0xbced3c97	-0.028959556
167	0x3bab22e6	0.005222666
168	0xbc5a4bb6	-0.013323715
169	0xbd6662f6	-0.05624672
170	0xbc426c3c	-0.011866625
171	0xbd5d58f0	-0.054039896
172	0xbd824c68	-0.063622296
173	0xbd124206	-0.035707496
174	0xbc9e77af	-0.019344179
175	0xbd475dd0	-0.04867345
176	0xbcbb31cf	-0.022850899
177	0xbd564bfd	-0.05231856
178	0x3d02f5c5	0.031972665
179	0x3c0b280b	0.008493434
180	0x3dcb976b	0.0994099
181	0xbce2d874	-0.027691104
182	0x3bfa8efd	0.00764644
183	0xbce4063f	-0.02783501
184	0x3d4ba6d9	0.049719665
185	0x3d161191	0.036637846
186	0xbd0cb6e1	-0.034354094
187	0x3d0ef365	0.034900088
188	0xbca07668	-0.01958771
189	0x3cef4f41	0.029212596
190	0xbca2db5d	-0.019879991
191	0xbbc973bf	-0.006147831
192	0xbc343faa	-0.011001507
193	0xbc6ec892	-0.014574187
194	0x3b2add2d	0.0026071772
195	0x3b9d961b	0.0048091537
196	0xbaefc72d	-0.0018293612
197	0x3b1af322	0.0023643454
198	0xbafbcb51	-0.0019210373
199	0x37d67999	2.5567411e-05
200	0xbc171109	-0.00922037
201	0x3bbbeb36	0.0057348264
202	0xbc2cb957	-0.010542235
203	0xb9abc804	-0.00032764685
204	0x3cb27537	0.021784408
205	0xbc9d5e6d	-0.019210065
206	0xbc06813d	-0.008209524
207	0x3c161d1c	0.009162214
208	0xbc183c9e	-0.009291796
209	0xbb723020	-0.0036954954
210	0x3c3a5fa8	0.011375345
211	0x3baebf14	0.005332837
212	0x3bf3affc	0.0074367505
213	0x3ccef702	0.025264267
214	0xbb365859	-0.0027823655
215	0x3a66a42c	0.0008798267
216	0x3b422e65	0.0029629704
217	0xbb97f147	-0.004636917
218	0x3c7c6e17	0.015407107
219	0x3b663f16	0.0035132817
220	0x3a304627	0.00067243207
221	0x3b9d94e0	0.004809007
222	0xbc16ce6d	-0.009204489
223	0x3c3f56ef	0.011678441
224	0x39dfa43d	0.00042656242
225	0x3c1b9c4f	0.009497716
226	0x39c1e25f	0.00036980488
227	0xbc180ffe	-0.009281157
228	0x3b6d11f6	0.0036174036
229	0xbc4d3708	-0.0125253275
230	0xbc218081	-0.009857298
231	0x3b04baf1	0.0020253027
232	0x3c78e838	0.015192084
233	0x3c8f3498	0.017481133
234	0x3b891f77	0.004184659
235	0xbc1e3132	-0.009655284
236	0xbc0a8774	-0.008455146
237	0x3b002c21	0.0019557553
238	0x3c86210f	0.016373185
239	0xbb140fd4	-0.0022592442
240	0xbb777041	-0.0037756118
241	0xbb2639e8	-0.0025364105
242	0xba5b688b	-0.0008369765
243	0x3bbb23bd	0.0057110474
244	0xbc4ec092	-0.0126191545
245	0xbc717bde	-0.014739005
246	0x3c6c1931	0.014410303
247	0x3a251070	0.00062967
248	0xbb8d3bd1	-0.004310109
249	0x3b93d8ec	0.004511943
250	0x39f67b6a	0.00047012727
251	0x3bea7633	0.0071552037
252	0xbc07c58b	-0.008286844
253	0x3c0f7d7f	0.008757948
254	0xba8f87e1	-0.0010950529
255	0x3adc262b	0.0016796043

mlp.mlp.4.bias f4 [64]
0	0xb1aeec12	-5.0909046e-09
1	0x33554f2a	4.9664926e-08
2	0xb32325e9	-3.7985874e-08
3	0x32c739ce	2.3192936e-08
4	0x318d4502	4.1114854e-09
5	0x317052a3	3.497157e-09
6	0x352584f9	6.166079e-07
7	0x33909eff	6.734444e-08
8	0x328bbab3	1.626663e-08
9	0x32df14eb	2.597013e-08
10	0xb06eab6c	-8.68275e-10
11	0x33af9bdd	8.177424e-08
12	0xb3d1ecde	-9.775407e-08
13	0x329ecb34	1.8486027e-08
14	0x33807c54	5.9830796e-08
15	0x33513e59	4.871831e-08
16	0x33ad944e	8.082917e-08
17	0x3256668b	1.2479755e-08
18	0xaf6f9563	-2.1789996e-10
19	0xb0a41231	-1.1937741e-09
20	0x319dc973	4.5922035e-09
21	0xb0c3aaf8	-1.423671e-09
22	0xb16d09f9	-3.4493708e-09
23	0x30a7ca8c	1.2208416e-09
24	0xb1f67d17	-7.1737634e-09
25	0x314e90ea	3.005932e-09
26	0x33b8e476	8.6097245e-08
27	0xb075907c	-8.9335805e-10
28	0xb1cd83a3	-5.9812506e-09
29	0x33d463c3	9.890166e-08
30	0xb4497609	-1.8762525e-07
31	0xb0f190a5	-1.7576168e-09
32	0x3308406a	3.1723552e-08
33	0xb42c97c9	-1.6073967e-07
34	0x32d630a7	2.4935003e-08
35	0xb4ba8bb9	-3.474686e-07
36	0xb1c1d125	-5.6408163e-09
37	0xb3219f53	-3.7630638e-08
38	0x34ed671f	4.421972e-07
39	0xb1898b4d	-4.0030614e-09
40	0xb4a674ae	-3.1004805e-07
41	0xb2c93088	-2.342155e-08
42	0xb1bec331	-5.5519185e-09
43	0xb387eebd	-6.3298536e-08
44	0xb386ae85	-6.271606e-08
45	0xb18e510e	-4.1419588e-09
46	0xb4275326	-1.5583336e-07
47	0x33410b8a	4.494681e-08
48	0xb3a9ba8d	-7.903609e-08
49	0x33602a8a	5.2192753e-08
50	0x322f67d4	1.0209948e-08
51	0xb3c7c000	-9.301584e-08
52	0xb23d777d	-1.1028416e-08
53	0xb196a3c0	-4.384191e-09
54	0x3254611f	1.2362107e-08
55	0x325e11d7	1.2926157e-08
56	0xb20b6e52	-8.115949e-09
57	0x3218a276	8.884504e-09
58	0xb2def914	-2.5957469e-08
59	0x34e6b035	4.2969046e-07
60	0x34f9bde9	4.6518042e-07
61	0xb447f5fe	-1.862281e-07
62	0xb5e95631	-1.7384938e-06
63	0xb3bda05f	-8.83017e-08

mlp.mlp.5.weight f4 [64]
0	0x3f7315e7	0.94955295
1	0x3f85fe6b	1.0468267
2	0x3f84ea65	1.0384032
3	0x3f431f57	0.76219696
4	0x3f4ceefe	0.80052173
5	0x3f5a22fd	0.8520964
6	0x3f35ee3d	0.7106665
7	0x3f6e3c9f	0.9306125
8	0x3f82f66c	1.0231452
9	0x3f8455ec	1.0338721
10	0x3f5631f2	0.8366996
11	0x3f3f1e20	0.7465534
12	0x3f851f32	1.0400145
13	0x3f863805	1.0485846
14	0x3f8539e0	1.0408287
15	0x3f37fc3e	0.71869266
16	0x3f50334b	0.81328267
17	0x3f50ddd4	0.8158848
18	0x3f5e655a	0.868734
19	0x3f57ad00	0.8424835
20	0x3f86513a	1.0493538
21	0x3f7d2e57	0.98898834
22	0x3f5571d2	0.833768
23	0x3f5a2279	0.8520885
24	0x3f7cf4c8	0.98811007
25	0x3f7ed553	0.99544257
26	0x3f85b71f	1.0446509
27	0x3f58aea7	0.846415
28	0x3f5da088	0.86573076
29	0x3f8366bc	1.0265727
30	0x3f821808	1.0163584
31	0x3f5bec63	0.8590757
32	0x3f85b916	1.0447109
33	0x3f7d20ff	0.98878473
34	0x3f6a72a8	0.915812
35	0x3f799b0c	0.9750221
36	0x3f849f04	1.0361028
37	0x3f829749	1.0202419
38	0x3f369d23	0.7133352
39	0x3f81efa4	1.0151258
40	0x3f2f007d	0.6836012
41	0x3f8138c8	1.0095453
42	0x3f5e7d6c	0.8691013
43	0x3f85dfc2	1.045891
44	0x3f3102a7	0.6914467
45	0x3f83a80f	1.0285662
46	0x3f6caef7	0.92454475
47	0x3f81c11a	1.0137055
48	0x3f84d521	1.0377542
49	0x3f84c471	1.0372449
50	0x3f84ef50	1.0385532
51	0x3f85a2ae	1.0440271
52	0x3f409e26	0.75241315
53	0x3f4e8511	0.80671793
54	0x3f859d94	1.0438714
55	0x3f5e28df	0.86781114
56	0x3f4d0390	0.8008356
57	0x3f7f2422	0.9966451
58	0x3f5d19ae	0.8636731
59	0x3f30650d	0.6890419
60	0x3f3e5c80	0.74359894
61	0x3f824bcf	1.0179385
62	0x3f33ef8c	0.70287395
63	0x3f742c78	0.95380354

mlp.mlp.5.bias f4 [64]
0	0x3dfd20a0	0.12359738
1	0x3dcc71b8	0.09982628
2	0x3dcaa6aa	0.0989507
3	0xbc11f298	-0.0089079365
4	0xbce7aba2	-0.028280083
5	0xbd60905b	-0.054825168
6	0x3cbed1fa	0.023293484
7	0x3e091e73	0.13390522
8	0x3de018ab	0.10942205
9	0x3dd4a181	0.10382367
10	0xbd3ebcc8	-0.046566755
11	0x3c285910	0.01027514
12	0x3dd2197c	0.10258767
13	0x3dbd45bd	0.09241817
14	0x3dcf0820	0.101089716
15	0x3dcc480e	0.09974681
16	0x3df86604	0.12128833
17	0xbd191d78	-0.03738162
18	0xbd7a53bd	-0.061115015
19	0xbd387e58	-0.045042366
20	0x3dc8e46d	0.09809194
21	0x3ddb7fd3	0.1071774
22	0xbd315509	-0.043293986
23	0xbd5ef1fb	-0.05442999
24	0x3df07873	0.11741724
25	0x3ddd17d0	0.107955575
26	0x3dc4b03a	0.09603925
27	0xbd5bf526	-0.05370059
28	0xbd6feb21	-0.058573846
29	0x3dd87e20	0.105709314
30	0x3dd5a6f7	0.10432237
31	0xbd6411eb	-0.05568115
32	0x3dc5226d	0.09625707
33	0x3dece222	0.11566569
34	0x3e0eacc2	0.1393309
35	0x3df7650a	0.120798185
36	0x3dcbc7b2	0.09950198
37	0x3ddf8fb1	0.10916079
38	0x3d246809	0.04013828
39	0x3dd5d206	0.104404494
40	0x3d57f21d	0.05272113
41	0x3ddeb656	0.108746216
42	0xbd78e4bd	-0.060765017
43	0x3dc67eef	0.096921794
44	0x3d1599d2	0.036523648
45	0x3dc6a32f	0.096990936
46	0x3e08796f	0.13327573
47	0x3dd3ecba	0.103478864
48	0x3dca8d73	0.098902605
49	0x3dd01fed	0.10162339
50	0x3dc80c40	0.097679615
51	0x3dc9190b	0.0981923
52	0x39ca116e	0.00038541429
53	0xbd0135a7	-0.031545307
54	0x3dc79a86	0.0974627
55	0xbd792f08	-0.060835868
56	0xbcfc7dc7	-0.030821694
57	0x3dece2ba	0.11566682
58	0xbd742023	-0.05960096
59	0x3dbc8b81	0.09206296
60	0x3c5f675f	0.013635485
61	0x3de3fd13	0.111322545
62	0x3d3208c8	0.043465406
63	0x3dfe2fa7	0.12411433

mlp.mlp.5.running_mean f4 [64]
0	0xbbac11d7	-0.00525115
1	0xbd937024	-0.071991235
2	0xbd1ebd07	-0.03875449
3	0x3c203e34	0.009780455
4	0xbcd1cd43	-0.025610572
5	0x3caff9c0	0.021481395
6	0xbc7b7f09	-0.015350112
7	0xbd81534c	-0.06314716
8	0xbd383650	-0.04497367
9	0xbdaeb9f1	-0.08531559
10	0x3c7bf6ff	0.015378713
11	0xbc499658	-0.012303911
12	0xbdc01a2c	-0.09379992
13	0x3d11bd00	0.035580635
14	0xbd64852a	-0.055791058
15	0xbcfce419	-0.030870484
16	0xbd03731a	-0.03209219
17	0x3d325e3f	0.04354691
18	0x3a2aea78	0.0006519924
19	0xbb582ee9	-0.0032986945
20	0xbcaa65f1	-0.020800563
21	0x3d1a59ae	0.03768318
22	0xbc802fdc	-0.015647821
23	0x3d2d60dd	0.042328704
24	0xbc954fb5	-0.018226484
25	0xbb0808de	-0.0020757238
26	0xbd38612e	-0.045014553
27	0x3c837f03	0.016051775
28	0x3d8448cf	0.064592
29	0xbd85592c	-0.06511149
30	0xbdd48c63	-0.10378339
31	0xbdaf5c89	-0.085625716
32	0x3db4e7af	0.08833253
33	0xbd6542f8	-0.05597207
34	0xbc604f28	-0.013690747
35	0xbd468bbc	-0.048473105
36	0xbc0ead5f	-0.008708327
37	0xbce27db6	-0.027647834
38	0xbccdbe1c	-0.025115065
39	0x3c216fdd	0.00985333
40	0xbd07744e	-0.0330699
41	0xbd0447b7	-0.032294955
42	0x3cf0f32e	0.029412832
43	0xbd2950fa	-0.04133699
44	0xbc4265ef	-0.011865123
45	0x3cec65a5	0.028857062
46	0xbcfe5c10	-0.031049758
47	0xbd3c0251	-0.045900647
48	0xbd229ec5	-0.039702196
49	0xbd92453c	-0.07142112
50	0xbd069e44	-0.032865778
51	0xbdc504db	-0.09620067
52	0xb9dacd66	-0.00041733234
53	0xbc1bb1e8	-0.009502865
54	0xbe23a38c	-0.15980357
55	0x3d7bea42	0.061502703
56	0x3ce1b7f0	0.027553529
57	0xbcd9551f	-0.026529847
58	0x3dc37f29	0.09545738
59	0xbcd47d26	-0.025938582
60	0xbd02eac4	-0.03196217
61	0xbdbfa429	-0.09357483
62	0xbd21f75b	-0.039542537
63	0xbd2eb0ca	-0.042649068

mlp.mlp.5.running_var f4 [64]
0	0x3c256496	0.010094782
1	0x3d1454aa	0.036213554
2	0x3d07eff0	0.033187807
3	0x3accd13e	0.0015626324
4	0x3b67b7b5	0.00353573
5	0x3bdbd183	0.0067083254
6	0x3940640a	0.00018347814
7	0x3b8e17f7	0.004336353
8	0x3ca96660	0.020678699
9	0x3cd41301	0.025887968
10	0x3b79fa27	0.0038143487
11	0x3aa0333f	0.0012222304
12	0x3c56af45	0.013103311
13	0x3c99ade6	0.018759679
14	0x3d19b106	0.03752234
15	0x3a312013	0.00067567936
16	0x3a8d82fe	0.0010796485
17	0x3b79a6b2	0.0038093743
18	0x3c35cf6a	0.011096815
19	0x3b65a89b	0.0035043124
20	0x3cf609b2	0.03003392
21	0x3cb10077	0.021606667
22	0x3b8f8e17	0.004380952
23	0x3c130654	0.008973677
24	0x3c56a0ae	0.013099832
25	0x3cba12f6	0.02271412
26	0x3d24c4e2	0.040226825
27	0x3bf10c59	0.0073562083
28	0x3b9dc3ac	0.0048145857
29	0x3c67f79d	0.014158157
30	0x3cbb1897	0.022838874
31	0x3bb8c58d	0.0056387843
32	0x3d2f7ef9	0.0428457
33	0x3bd7391c	0.0065680873
34	0x3b2e033b	0.0026552218
35	0x3ae21d38	0.001725114
36	0x3d15d604	0.036581054
37	0x3c880836	0.016605478
38	0x395d7863	0.0002112105
39	0x3c21e7e1	0.009881944
40	0x395c3ec0	0.00021004211
41	0x3c7e4d0c	0.015521299
42	0x3c462cdc	0.012095656
43	0x3ca21bae	0.01978859
44	0x3989e55e	0.00026301568
45	0x3d2b4c12	0.041820593
46	0x3b362b16	0.0027796677
47	0x3cc8bac8	0.024503127
48	0x3c12847c	0.00894272
49	0x3c4be97d	0.012445805
50	0x3ce63439	0.028101074
51	0x3d01e64a	0.03171376
52	0x3a83f1d2	0.0010066575
53	0x3b4e9ad0	0.003152538
54	0x3ce671be	0.028130408
55	0x3c0d6d05	0.008631949
56	0x3b255c08	0.0025231857
57	0x3c05695d	0.008142796
58	0x3c4cac03	0.012492183
59	0x39a4f983	0.00031466418
60	0x38e7e841	0.00011058199
61	0x3c1d231b	0.009590889
62	0x38f55b1e	0.00011699482
63	0x3bf8825e	0.0075839004

mlp.mlp.8.weight f4 [1, 64]
0	0x3dd323d7	0.1030957
1	0x3e4d1497	0.20027386
2	0x3e360ab1	0.17777516
3	0x3d1f11d4	0.03883536
4	0x3ce087d9	0.027408527
5	0xbbfac0a0	-0.007652357
6	0x3d4d279d	0.050086606
7	0x3dcd2f61	0.100188024
8	0x3e1ac179	0.15112866
9	0x3e2c4713	0.16823988
10	0x3b4d0c17	0.0031287724
11	0x3d4b355e	0.04961144
12	0x3e3d1853	0.1846631
13	0x3e4e1f3a	0.201291
14	0x3e3b56cf	0.18294834
15	0x3d9ae90f	0.07563984
16	0x3dae8976	0.08522312
17	0x3c86a515	0.01643614
18	0xbd08a5b4	-0.03336115
19	0x3c135934	0.008993436
20	0x3e4ee341	0.20203878
21	0x3dede138	0.11615223
22	0x3c2bc697	0.010484359
23	0xbc379617	-0.011205218
24	0x3df2704b	0.118378244
25	0x3df1fa63	0.118153356
26	0x3e491b3c	0.19639295
27	0xbc40cc81	-0.0117675075
28	0xbcf11263	-0.029427713
29	0x3e18ab2d	0.14909048
30	0x3e0a516b	0.13507621
31	0xbc5cece4	-0.0134842135
32	0x3e52d2fa	0.20588294
33	0x3df244c3	0.118295215
34	0x3dc5e201	0.096622474
35	0x3de976c9	0.113996096
36	0x3e2c6d0a	0.1683847
37	0x3e15d928	0.1463362
38	0x3d62a1d1	0.0553301
39	0x3e1044d8	0.14088762
40	0x3d6d961a	0.058004476
41	0x3e0724bc	0.13197607
42	0xbd0d8c60	-0.0345577
43	0x3e542a18	0.20719182
44	0x3d688e34	0.05677624
45	0x3e1b0292	0.15137699
46	0x3dc73d96	0.097285435
47	0x3e094354	0.1340459
48	0x3e34b42e	0.17646858
49	0x3e31d16b	0.17365043
50	0x3e374123	0.17895941
51	0x3e44dedc	0.19225639
52	0x3d2d2d8d	0.04227977
53	0x3cb821ea	0.022477109
54	0x3e499f04	0.19689566
55	0xbd05d616	-0.03267487
56	0x3cbc23d3	0.022966301
57	0x3df9fb74	0.12206164
58	0xbcfddc05	-0.030988703
59	0x3d90c4aa	0.07068761
60	0x3d458fba	0.04823277
61	0x3e13d478	0.14436519
62	0x3d67bd86	0.056577228
63	0x3dd74258	0.10510701
