model_lr_0.01/dfm_epoch_0.pt (torch, 151559 bytes, 15 tensors)

embedding.embedding.weight f4 [98, 75]
-0.15504456 0.3116789 -0.24452189 -0.12601793 0.042384114 -0.15063722 -0.24905923 0.10191006
-0.17401016 0.14318141 0.20147546 -0.07085556 0.02010817 0.17912526 0.31743822 0.11218473
0.016367812 -0.038493536 -0.09685188 0.022690197 -0.24553627 0.023372067 0.02864954 -0.07922199
0.026586454 0.041893743 0.08659539 0.29215363 -0.20749529 0.26665294 0.055662237 0.14556345
-0.15894213 0.0497737 -0.11712085 0.050648283 -0.22347099 -0.020183211 0.19228879 -0.30235863
-0.31664523 0.32556933 0.12395921 -0.16239898 -0.3109889 -0.048545785 -0.19973965 -0.038042735
-0.2957643 -0.20781714 -0.05608228 -0.16137221 -0.043375965 0.21311237 0.0029388207 0.24895488
0.3319161 0.21830833 -0.15069534 0.20474865 0.19291766 -0.06469579 -0.16736098 -0.13816758
-0.03775251 0.21871634 -0.13228472 -0.21263908 -0.31478387 0.097100616 0.023114968 0.10481392
0.12046632 -0.025639698 0.22355443 -0.19313988 0.022155335 -0.22850563 -0.10194019 0.20754832
-0.09081119 -0.29694813 0.041738663 -0.28044355 0.2641012 0.20098849 -0.1131678 -0.17249593
0.063793816 0.21618874 0.22626728 0.23775153 -0.108947955 -0.24567957 -0.16516176 -0.12430683
0.19295146 -0.20818847 -0.19977273 0.23823805 0.07062375 0.31826505 0.17896566 0.14281815
0.26060736 0.09203712 0.023306984 -0.10205315 -0.048548453 0.10492813 0.011764394 -0.26171964
-0.18598655 0.27322963 -0.14531508 0.012780061 0.2406017 0.15673262 -0.25023162 -0.16018279
-0.13555302 -0.15918037 -0.29548398 -0.27439436 -0.23298968 -0.096253365 0.008086444 -0.15668327
0.20081 0.12693748 0.06457529 0.027871657 0.32089555 0.2121683 0.15344654 0.052960347
0.08221614 -0.31899226 -0.230224 -0.08771574 0.0110530965 0.021668036 -0.21656589 -0.3003762
-0.036732525 -0.26356834 0.16472855 0.07554159 0.30161268 0.31764397 -0.07569634 0.1911582
-0.049419962 -0.13492446 0.25545913 -0.13281956 -0.320865 0.082465865 -0.06017673 0.30072466
0.18179317 -0.0018826027 -0.18617587 0.18539616 0.23126699 0.22598171 0.25466925 -0.3085358
-0.29997826 -0.08107798 0.010404978 0.15553991 -0.15123034 -0.1922122 0.25260985 0.13093026
-0.019650022 0.27346763 0.025729729 0.109567285 0.13905957 0.096637346 -0.1930694 0.027224291
0.06533192 0.207663 -0.31954727 -0.045435876 0.28827897 -0.29253203 -0.23616356 0.20102511
0.07914896 -0.18521272 -0.16564569 -0.006164208 -0.33118105 -0.21251544 -0.2629588 -0.23890199
-0.012974735 -0.13513839 -0.07601778 0.23307419 0.25640535 0.24733041 0.32498384 0.30835024
0.094137825 0.12012709 0.08563738 0.025287203 -0.25837934 -0.24668713 -0.26505405 0.13183953
0.05891979 -0.31239608 -0.26844144 0.012230654 -0.2138954 0.13787623 0.26060024 0.23584218
0.21214025 -0.022489892 0.26984668 -0.19817884 -0.063396744 0.052188482 -0.16958609 -0.26545593
0.19276385 -0.07815612 0.15237324 0.21058096 -0.08766701 -0.08492812 0.2998379 0.10807285
0.021872763 -0.0050013554 0.078403965 -0.019249048 -0.044860862 -0.07041181 0.05959892 -0.20272695
0.056974098 0.11856477 0.18382452 0.24895936 0.053340126 -0.023085881 0.26028046 0.1302691
00000000: 00c4 1ebe 6094 9f3e f263 7abe d80a 01be
00000010: f79a 2d3d a540 1abe 6209 7fbe 39b6 d03d
00000020: b82f 32be 269e 123e 954f 4e3e b81c 91bd
00000030: e4b9 a43c 9d6c 373e 4387 a23e 1cc1 e53d
00000040: ca15 863c 66ab 1dbd 475a c6bd cbe0 b93c
00000050: dc6d 7bbe c776 bf3c 71b2 ea3c 243f a2bd
00000060: d6cb d93c c698 2b3d ed58 b13d 2995 953e
00000070: a579 54be bc86 883e 16fe 633d 960e 153e
00000080: bac1 22be 82df 4b3d 0edd efbd 9374 4f3d
00000090: 94d5 64be 4357 a5bc 5ae7 443e c0ce 9abe
000000a0: 531f a2be 06b1 a63e 54de fd3d eb4b 26be
000000b0: f039 9fbe f2d7 46bd 8d88 4cbe b3d2 1bbd
000000c0: 6b6e 97be 04ce 54be 88b6 65bd c23e 25be
000000d0: ffaa 31bd 213a 5a3e 3b99 403b 07ee 7e3e
000000e0: e8f0 a93e 388c 5f3e e14f 1abe a1a9 513e
000000f0: 358c 453e 3a7f 84bd ad60 2bbe cd7b 0dbe
00000100: 60a2 1abd 2df7 5f3e a575 07be 0fbe 59be
00000110: 5a2b a1be b0dc c63d 9a5b bd3c aea8 d63d
00000120: 0cb7 f63d 580a d2bc 74eb 643e 76c6 45be
00000130: 1b7f b53c 61fd 69be 05c6 d0bd 8c87 543e
00000140: 38fb b9bd 9609 98be 29f6 2a3d 4c96 8fbe
00000150: 4638 873e edcf 4d3e 85c4 e7bd c6a2 30be
00000160: 55a6 823d 9560 5d3e 9cb2 673e 2375 733e
00000170: 1b20 dfbd 6d93 7bbe 2a20 29be 9494 febd
00000180: 1195 453e 5c2f 55be 3991 4cbe adf4 733e
00000190: 2fa3 903d a3f3 a23e c642 373e ec3e 123e
000001a0: 546e 853e f57d bc3d 4aee be3c 3e01 d1bd
000001b0: beda 46bd 8fe4 d63d 72bf 403c 1e00 86be
000001c0: 4273 3ebe c1e4 8b3e 7acd 14be 7663 513c
000001d0: 4b60 763e 847e 203e 5c1e 80be f506 24be
000001e0: 69ce 0abe 2e00 23be ad49 97be 6b7d 8cbe
000001f0: d994 6ebe 7c20 c5bd 017d 043c 9471 20be
00000200: 23a1 4d3e e6fb 013e 0d40 843d 1a53 e43c
00000210: 6c4c a43e a642 593e 1721 1d3e f3ec 583d
00000220: f060 a83d f452 a3be d7bf 6bbe 4fa4 b3bd
00000230: 0c18 353c 2a81 b13c 73c3 5dbe e9ca 99be
00000240: d874 16bd 6ef2 86be 9aae 283e 8db5 9a3d
00000250: fa6c 9a3e 3ba2 a23e af06 9bbd fabe 433e
00000260: 966c 4abd a329 0abe 8acb 823e da01 08be
00000270: 6b48 a4be dde3 a83d e07b 76bd 95f8 993e
00000280: fd27 3a3e aac1 f6ba e3a4 3ebe 7ed8 3d3e
00000290: 41d1 6c3e c067 673e 0264 823e 68f8 9dbe
000002a0: c096 99be 360c a6bd a479 2a3c db45 1f3e
000002b0: 20dc 1abe 46d3 44be 1456 813e 9512 063e
000002c0: 15f9 a0bc f303 8c3e 27c7 d23c d064 e03d
000002d0: a265 0e3e cde9 c53d fcb3 45be 7a05 df3c
000002e0: becc 853d 9ca5 543e b39b a3be f81a 3abd
000002f0: 4d99 933e c2c6 95be dcd4 71be 87d9 4d3e
00000300: da18 a23d 67a8 3dbe 069f 29be 20fd c9bb
00000310: 9090 a9be a69d 59be 89a2 86be b9a2 74be
00000320: fc93 54bc b861 0abe 36af 9bbd 00ab 6e3e
00000330: 9047 833e 2f44 7d3e 4864 a63e 15e0 9d3e
00000340: 55cb c03d 3105 f63d a762 af3d 1c27 cf3c
00000350: 4c4a 84be 8d9b 7cbe 2ab5 87be f100 073e
00000360: e155 713d 61f2 9fbe 2871 89be 1563 483c
00000370: 6507 5bbe 6d2f 0d3e 656d 853e 9d80 713e
00000380: 4b3b 593e b93c b8bc 5829 8a3e 65ef 4abe
00000390: 27d6 81bd 97c3 553d faa7 2dbe d7e9 87be
000003a0: e363 453e 5110 a0bd bb07 1c3e 89a2 573e
000003b0: c38a b3bd cbee adbd 5a84 993e 4c55 dd3d
000003c0: 822e b33c 69e2 a3bb 4292 a03d 2eb0 9dbc
000003d0: 06c0 37bd 1134 90bd ff1d 743d a797 4fbe
000003e0: ac5d 693d 16d2 f23d 7f3c 3c3e 34ef 7e3e
000003f0: 2d7b 5a3d 9a1e bdbc 7b43 853e 4365 053e

linear.fc.weight f4 [98, 1]
0.15476641 0.67995614 -2.0975962 -0.6003597 1.3610176 0.8968858 0.3754785 0.65560126
-1.3376197 -0.46794435 -0.0005997529 0.7378686 1.1024098 0.54311746 1.9021841 -0.42463472
-1.679972 -1.7407236 -0.7050405 1.4799631 -1.3433669 -0.8369284 0.36565417 -1.0862886
1.1491777 -1.8840954 -0.61645454 0.20783763 -0.6619959 -0.4775824 -1.956957 1.504935
-1.0880857 -1.6158357 0.9975905 -0.8398881 -0.01540918 1.6648896 0.6736769 -0.47200167
0.89629465 0.49870157 0.41347414 -0.20671372 -0.35067183 0.7521756 2.521161 0.32001853
1.319871 0.54457384 -0.24544556 -1.2756119 -1.0243939 -0.06266839 0.78085005 -0.21115288
-0.6867309 1.1917897 -0.80317724 -0.7376772 0.67062545 1.3772929 2.114369 0.15469132
2.8815272 -3.683346e-05 0.1033981 0.47415993 0.124733575 -1.0909258 0.1949291 -1.8325139
-2.0700793 0.8691864 -0.5618777 0.30383924 -1.5709585 1.6971364e-05 -0.7289748 2.1209698
-0.64047337 -0.7339978 0.29484582 0.43161896 -0.44973183 -0.5728034 0.50991756 0.70753336
-0.22746624 -0.34318736 0.19397077 -0.42409936 -0.6462692 1.194814 -2.051754 0.72145355
1.07152 0.24427566
00000000: 167b 1e3e 9b11 2e3f 043f 06c0 2cb1 19bf
00000010: d335 ae3f 4f9a 653f b83e c03e 7cd5 273f
00000020: 1f37 abbf 6796 efbe bc38 1dba f5e4 3c3f
00000030: c41b 8d3f bf09 0b3f c57a f33f b969 d9be
00000040: 5309 d7bf 08d0 debf 897d 34bf 6e6f bd3f
00000050: 72f3 abbf f140 56bf 0637 bb3e 810b 8bbf
00000060: 4118 933f 0a2a f1bf f7cf 1dbf 63d3 543e
00000070: 9078 29bf ae85 f4be 917d fabf b6a1 c03f
00000080: 6446 8bbf b4d3 cebf 1762 7f3f e802 57bf
00000090: c976 7cbc 1a1b d53f 1776 2c3f 34aa f1be
000000a0: 9173 653f d055 ff3e e2b2 d33e c3ac 53be
000000b0: 428b b3be 958e 403f b45a 2140 78d9 a33e
000000c0: 88f1 a83f 3169 0b3f 1556 7bbe 4047 a3bf
000000d0: 571f 83bf 4958 80bd cae5 473f 7638 58be
000000e0: 99cd 2fbf 918c 983f 069d 4dbf 6ad8 3cbf
000000f0: 1cae 2b3f 224b b03f d251 0740 6767 1e3e
00000100: f16a 3840 a07d 1ab8 62c2 d33d 17c5 f23e
00000110: 5174 ff3d 75a3 8bbf 7e9b 473e d18f eabf
00000120: 2e7c 04c0 0083 5e3f 38d7 0fbf d190 9b3e
00000130: 2b15 c9bf ba5d 8e37 189e 3abf f8bd 0740
00000140: 10f6 23bf 48e7 3bbf 08f6 963e 29fd dc3e
00000150: 4043 e6be 3ea3 12bf f589 023f e820 353f
00000160: e9ec 68be 41b6 afbe 46a0 463e 8d23 d9be
00000170: e671 25bf aaef 983f f04f 03c0 2eb1 383f
00000180: 9127 893f 6623 7a3e

mlp.mlp.0.weight f4 [64, 375]
0.06269321 0.07801801 -0.0883263 -0.016989678 -0.108165264 -0.04199345 0.04704858 0.07195088
0.09880661 -0.036863048 0.0033233122 0.037179828 0.10778772 0.03590788 0.073064946 -0.01154268
-0.023351543 0.10586743 0.046284523 0.052328054 -0.1001076 -0.101842016 0.058309965 0.08835443
-0.07061408 -0.07620187 -0.0124755185 0.035239108 -0.024914278 -0.008345057 -0.08357372 0.020602908
-0.08221776 0.09188896 -0.10812347 0.07664455 0.080776915 0.08465058 -0.08229607 -0.07248794
-0.047358368 0.04660389 0.05973211 0.053597532 -0.08138189 0.032643706 -0.032548215 0.06136927
-0.08158203 0.01656959 0.06640506 -0.080029465 0.098088145 0.080774836 -0.013265832 0.027001452
0.055905722 -0.097765744 -0.061095964 0.05598655 0.028022032 -0.0637001 0.10337977 0.09912875
0.088069424 0.04899037 -0.1047889 0.043264147 -0.04926081 0.108427666 0.05202293 -0.07371021
0.07950858 -0.06707352 -0.03614415 0.102551624 0.049435135 -0.025296956 -0.011480416 -0.0062828828
0.008518491 -0.08998973 -0.06552582 0.02335481 0.020694492 -0.031037398 0.039236877 -0.029718973
0.040075984 0.036134806 -0.05844444 0.017052067 -0.017486088 0.04047936 -0.07565176 0.041299805
0.02100913 -0.01674831 0.12069991 0.028610956 0.057430677 0.032361403 -0.054405577 -0.056648843
-0.006287958 0.011726267 -0.039742418 -0.00017911242 -0.06245636 0.040862467 0.12130338 -0.0133854095
-0.11690525 0.027028179 -0.01735087 0.039391775 -0.06779914 0.06105009 -0.09765618 -0.011704664
-0.008459798 0.07222256 0.060315065 -0.016387025 0.020079715 0.07015149 -0.0115785785 0.04154296
-0.054017186 -0.073141925 0.10068402 0.0090353275 0.041618958 0.058771774 -0.122291915 -0.065622926
-0.013892392 0.034919776 0.04137432 -0.06193115 -0.0019803657 0.043154184 0.0033256174 0.038718082
0.009609363 0.012424793 -0.050685987 -0.03575589 0.08759959 -0.030159628 0.043827757 0.021070864
-0.015803054 -0.08750552 0.007959783 -0.046330076 0.01641238 0.049120307 -0.060647175 0.0030916336
-0.038127776 -0.006403396 -0.11807546 0.09245399 -0.025875308 0.016442908 0.07448032 -0.09238469
0.054027632 -0.019006254 0.072147794 -0.024503445 0.03287688 -0.050635893 -0.021740679 -0.053740125
0.0054856013 -0.04009642 0.050170854 0.088517785 -0.06323528 -0.1099475 -0.0010064465 -0.06192336
0.04128165 -0.10011489 0.07452798 0.045311827 -0.026978692 0.07962347 0.06379758 -0.06676563
-0.023861898 -0.02702284 0.04418051 0.08462295 0.02024808 -0.036580935 -0.06357296 -0.07337526
0.023837062 -0.006337672 -0.05711273 -0.06754808 0.06461567 -0.01871559 -0.03888175 -0.069880016
-0.072469205 0.016055046 0.06216795 0.037730478 0.10180929 0.094181746 -0.022822188 0.09450045
0.04876067 0.016718812 0.037582964 0.0654927 -0.08550669 0.10217624 0.022648895 -0.09717014
-0.051443797 -0.0058149355 -0.04399917 0.16218795 -0.0029948896 0.056019712 -0.031716708 0.08894784
0.06469553 0.040947445 0.13782816 -0.1278252 -0.050621554 -0.027941382 -0.14558823 0.013170939
0.008223007 0.1768787 0.0525768 -0.050989654 -0.0761445 -0.053073213 0.024904717 0.089417964
0.071212515 0.051363297 -0.035491206 0.0011012849 0.041501246 0.02657428 -0.03601669 0.028111212
00000000: 4c65 803d e8c7 9f3d 6be4 b4bd f02d 8bbc
00000010: c085 ddbd 5301 2cbd 03b6 403d fc5a 933d
00000020: 1f5b ca3d b5fd 16bd edcb 593b e049 183d
00000030: cfbf dc3d 2414 133d 13a3 953d 821d 3dbc
00000040: bc4b bfbc 06d1 d83d d794 3d3d f155 563d
00000050: 3705 cdbd 8c92 d0bd 6ed6 6e3d 2bf3 b43d
00000060: 1d9e 90bd ba0f 9cbd 1e66 4cbc e256 103d
00000070: 0719 ccbc b5b9 08bc b328 abbd 6ec7 a83c
00000080: c961 a8bd 4730 bc3d d66f ddbd d1f7 9c3d
00000090: 5e6e a53d 495d ad3d d88a a8bd 8f74 94bd
000000a0: d9fa 41bd b8e3 3e3d a8a9 743d 1689 5b3d
000000b0: 8cab a6bd 68b5 053d 4751 05bd 585e 7b3d
000000c0: 7b14 a7bd f3bc 873c 60ff 873d 7de6 a3bd
000000d0: 70e2 c83d 476d a53d ef58 59bc 2632 dd3c
000000e0: 66fd 643d 6839 c8bd c33f 7abd 2752 653d
000000f0: 768e e53c 3375 82bd c6b8 d33d 0404 cb3d
00000100: be5d b43d 20aa 483d 909b d6bd bf35 313d
00000110: b4c5 49bd 530f de3d ff15 553d 61f5 96bd
00000120: 65d5 a23d d75d 89bd e30b 14bd 9606 d23d
00000130: 7f7c 4a3d 903b cfbc 5b18 3cbc a4e0 cdbb
00000140: 2491 0b3c 894c b8bd 6732 86bd 9652 bf3c
00000150: 7f87 a93c 2442 febc d9b6 203d 3475 f3bc
00000160: b726 243d 1702 143d 7063 6fbd c7b0 8b3c
00000170: fc3e 8fbc afcd 253d 4fef 9abd fc29 293d
00000180: 571b ac3c c033 89bc 8431 f73d 8661 ea3c
00000190: 6e3c 6b3d 648d 043d 62d8 5ebd 9e08 68bd
000001a0: 370b cebb 871f 403c f2c8 22bd 20d0 3bb9
000001b0: 3dd2 7fbd 675f 273d e86d f83d 7a4e 5bbc
000001c0: 056c efbd 336a dd3c 6923 8ebc 4559 213d
000001d0: 47da 8abd a90f 7a3d f7ff c7bd ebc4 3fbc
000001e0: f79a 0abc 6ce9 933d ee0c 773d 153e 86bc
000001f0: 377e a43c 96ab 8f3d 14b4 3dbc f328 2a3d
00000200: 2041 5dbd 6fcb 95bd 6c33 ce3d e908 143c
00000210: a478 2a3d acba 703d 2f74 fabd 5065 86bd
00000220: ea9c 63bc 0a08 0f3d 1e78 293d 84ab 7dbd
00000230: 06c9 01bb 71c2 303d 9af2 593b da96 1e3d
00000240: 9770 1d3c 5c91 4b3c 1c9c 4fbd c574 12bd
00000250: 6a67 b33d 5311 f7bc bc84 333d ce9c ac3c
00000260: 6875 81bc 1836 b3bd c069 023c 9bc4 3dbd
00000270: 4173 863c 6032 493d 2c69 78bd 019d 4a3b
00000280: df2b 1cbd 94d3 d1bb 8cd1 f1bd 8458 bd3d
00000290: 74f8 d3bc 47b3 863c 2389 983d 2f34 bdbd
000002a0: 144c 5d3d 01b3 9bbc 39c2 933d 73bb c8bc
000002b0: e8a9 063d 9567 4fbd 8219 b2bc 9b1e 5cbd
000002c0: 8fc0 b33b 253c 24bd f47f 4d3d d048 b53d
000002d0: 8081 81bd 282c e1bd beea 83ba 59a3 7dbd
000002e0: f316 293d 0909 cdbd 20a2 983d e598 393d
000002f0: 6b02 ddbc a111 a33d 4ea8 823d 6bbc 88bd
00000300: 077a c3bc 015f ddbc 9ff6 343d cc4e ad3d
00000310: 4ddf a53c e4d5 15bd 8a32 82bd c545 96bd
00000320: f145 c33c 3fac cfbb 0aef 69bd a656 8abd
00000330: 3855 843d 7051 99bc 7842 1fbd 411d 8fbd
00000340: bc6a 94bd df85 833c d2a3 7e3d 468b 1a3d
00000350: 6481 d03d 5ce2 c03d 99f5 babc 7489 c13d
00000360: 45b9 473d e4f5 883c 98f0 193d 0921 863d
00000370: 221e afbd c741 d13d 2d8a b93c 2301 c7bd
00000380: bbb6 52bd 378b bebb 7938 34bd 9914 263e
00000390: e945 44bb ed74 653d 61e9 01bd 492a b63d
000003a0: 177f 843d 82b8 273d d322 0d3e 9ce4 02be
000003b0: 8c58 4fbd 53e5 e4bc 1515 15be ecca 573c
000003c0: cbb9 063c b11f 353e c55a 573d 87da 50bd
000003d0: a6f1 9bbd 4c63 59bd fa04 cc3c c420 b73d
000003e0: ded7 913d 5262 523d 3a5f 11bd fd58 903a
000003f0: 36fd 293d 4eb2 d93c 3d86 13bd 7c49 e63c

mlp.mlp.0.bias f4 [64]
-1.7978053e-06 4.9537584e-07 -1.0558236e-06 -1.7922912e-06 -1.4879087e-06 1.7114552e-06 2.3030383e-07 -1.7385863e-06
1.7914405e-06 1.0966867e-07 2.724224e-08 -1.0698321e-07 8.970704e-07 2.02596e-06 5.0130654e-07 1.9730676e-06
-7.1904014e-07 9.125186e-07 8.5913047e-07 -6.424183e-08 -9.612687e-07 -1.4282599e-06 2.6575614e-07 -5.960074e-07
-1.7168853e-07 8.2203996e-07 -3.1303685e-07 -5.887105e-07 1.1401356e-06 -2.547003e-06 1.8026763e-07 -1.7373516e-07
1.8517188e-06 2.2458247e-08 8.3987175e-07 -1.153421e-06 -7.1226594e-08 -8.486187e-07 4.0298028e-07 -2.869827e-07
-2.583456e-06 5.1509556e-07 -1.5092203e-06 9.450439e-07 -5.87282e-07 -1.264579e-06 8.458952e-08 6.975117e-07
-9.0254126e-08 -1.7515033e-07 -4.207869e-07 -6.938356e-07 -5.638529e-07 -2.2393507e-07 -6.391334e-08 1.8717902e-06
1.4672131e-06 -1.4469596e-06 -6.6009426e-07 -3.3151554e-07 -4.7576577e-08 -1.2760853e-07 1.4648332e-07 8.0689705e-07
00000000: 1f4c f1b5 f8f9 0435 d3b5 8db5 a88e f0b5
00000010: 27b4 c7b5 27b5 e535 6f49 7734 5f59 e9b5
00000020: 6d71 f035 fd82 eb33 5202 ea32 a4be e5b3
00000030: 35ce 7035 baf5 0736 8691 0635 0b69 0436
00000040: 1004 41b5 cdf3 7435 ff9e 6635 52f5 89b3
00000050: f104 81b5 a3b2 bfb5 3fad 8e34 51fd 1fb5
00000060: 6259 38b4 28aa 5c35 750f a8b4 e107 1eb5
00000070: c306 9935 2eed 2ab6 978f 4134 f58b 3ab4
00000080: 9388 f835 35ea c032 8c73 6135 3ecf 9ab5
00000090: 3cf5 98b3 a2cc 63b5 3059 d834 9a12 9ab4
000000a0: 705f 2db6 1945 0a35 6a90 cab5 ecae 7d35
000000b0: b6a5 1db5 9bba a9b5 95a7 b533 a43c 3b35
000000c0: bbd1 c1b3 f510 3cb4 83e8 e1b4 0540 3ab5
000000d0: ad5b 17b5 ce72 70b4 bb40 89b3 393a fb35
000000e0: 0fed c435 2735 c2b5 5531 31b5 26fb b1b4
000000f0: 0057 4cb3 c404 09b4 0749 1d34 8b99 5835

mlp.mlp.1.weight f4 [64]
0.9261782 0.9931572 1.0167537 1.0383121 0.90128815 0.9445537 1.0507923 1.102254
0.955896 1.1121024 1.0245396 0.92664355 0.93962926 0.9380783 1.1254686 0.9072417
1.0766774 0.9916252 1.0345489 0.8872254 0.9494716 0.94239926 1.0989499 0.948643
1.0582355 1.0354326 0.9857195 0.9479577 0.87936294 0.9618784 1.0911216 0.99862176
1.0268655 1.0665166 1.0678238 0.86897093 0.96467245 1.0338975 0.96479565 0.9902002
1.116427 1.0465449 0.996968 1.0588078 0.8971581 0.98342973 1.0037316 0.9840237
1.0325803 0.91849303 0.96148413 1.0585248 0.9054285 0.9421942 0.94014 1.0716279
1.0032264 1.1455553 0.89638823 1.0080353 1.0691015 0.9160946 1.028481 0.9019756
00000000: 041a 6d3f 8d3f 7e3f fc24 823f 69e7 843f
00000010: d2ba 663f 45ce 713f 5d80 863f a916 8d3f
00000020: 9ab5 743f 5f59 8e3f 1d24 833f 8338 6d3f
00000030: 8b8b 703f e625 703f 5b0f 903f fe40 683f
00000040: 91d0 893f 26db 7d3f 196c 843f 3421 633f
00000050: 9210 733f 1441 713f 64aa 8c3f 45da 723f
00000060: 4374 873f 0e89 843f 1d58 7c3f 5bad 723f
00000070: ee1d 613f aa3d 763f dfa9 8b3f ada5 7f3f
00000080: 5470 833f 9e83 883f 73ae 883f e174 5e3f
00000090: c6f4 763f c156 843f d9fc 763f c37d 7d3f
000000a0: 14e7 8e3f 2ff5 853f 4b39 7f3f 0487 873f
000000b0: 27ac 653f 0dc2 7b3f 477a 803f fae8 7b3f
000000c0: 972b 843f 5c22 6b3f d323 763f be7d 873f
000000d0: 2aca 673f a433 713f 04ad 703f 1a2b 893f
000000e0: b969 803f 8ea1 923f b379 653f 4d07 813f
000000f0: 51d8 883f 2d85 6a3f 44a5 833f dfe7 663f

mlp.mlp.1.bias f4 [64]
-0.06571497 0.01063235 0.004812333 0.037722982 -0.009853604 -0.016426746 0.060176086 0.15647344
-0.08904177 0.12065235 0.03676675 -0.11281708 0.0038249164 -0.100112125 0.122905664 -0.056360323
-0.016729817 0.0414643 0.10605379 -0.06281017 -0.10011743 -0.014393892 0.13470885 0.12763967
0.05308778 0.07226922 -0.08899582 -0.045146253 -0.09454488 0.007641453 0.0973493 0.016395507
0.020338072 0.047409616 0.049672868 -0.12222804 -0.04482922 0.041327085 -0.08180374 -0.003786543
0.053872805 0.09534858 0.08064458 0.060264673 -0.06718815 -0.005906435 0.050470494 -0.0825116
0.007835599 -0.0010697457 0.13629702 -0.01548516 -0.07014233 -0.06117368 0.041045014 0.09445649
0.018753808 -0.050619602 -0.077110715 0.053783163 0.06890197 -0.050822504 0.13056275 -0.02927991
00000000: 9295 86bd 4f33 2e3c c6b0 9d3b 6a83 1a3d
00000010: 0371 21bc 6291 86bc 337b 763d 933a 203e
00000020: 885b b6bd 9418 f73d bb98 163d a40c e7bd
00000030: 73ab 7a3b 9607 cdbd f7b5 fb3d 15da 66bd
00000040: f80c 89bc 78d6 293d bb32 d93d 9ea2 80bd
00000050: 5e0a cdbd 5cd4 6bbc 1ef1 093e f9b3 023e
00000060: 9272 593d e301 943d 7143 b6bd 47eb 38bd
00000070: bfa0 c1bd 2765 fa3b 125f c73d df4f 863c
00000080: 079c a63c 9630 423d c775 4b3d b252 fabd
00000090: d89e 37bd 9746 293d b888 a7bd a627 78bb
000000a0: bba9 5c3d 1e46 c33d fc28 a53d 17d8 763d
000000b0: f199 89bd c58a c1bb 26ba 4e3d d7fb a8bd
000000c0: e260 003c b636 8cba 7291 0b3e 78b5 7dbc
000000d0: c8a6 8fbd 4191 7abd d11e 283d 6772 c13d
000000e0: 96a1 993c 8056 4fbd 39ec 9dbd bc4b 5c3d
000000f0: 7a1c 8d3d 422b 50bd 3eb2 053e 6cdc efbc

mlp.mlp.1.running_mean f4 [64]
-0.18154949 -0.10450371 -0.08117663 -0.26902714 0.034430075 -0.0177773 -0.09543794 0.02810913
0.7596363 0.0069555147 -0.26536053 0.014014068 -0.21695088 -0.5048502 0.05971349 0.49254915
-0.2210433 0.0508908 0.23163423 -0.12812297 -0.29467934 -0.16400862 0.19709973 0.016843574
-0.25674984 -0.08729139 -0.3857424 0.055242825 -0.3768707 0.058739174 -0.22142485 -0.04226328
0.11905254 -0.14667283 -0.24538131 -0.20794909 -0.13619143 -0.2709335 -0.06515967 -0.33429387
0.23962682 0.16641502 -0.32754856 -0.15686056 0.26035467 0.36485103 0.44381428 0.22781664
-0.13072477 0.32326305 0.006928387 0.15816475 -0.5032766 0.04650215 0.14280741 0.22468397
-0.088207 -0.21354102 0.1291772 0.05468924 -0.018599793 0.016201288 0.24736638 -0.07550408
00000000: 1ce8 39be 0b06 d6bd ef3f a6bd edbd 89be
00000010: 8d06 0d3d b3a1 91bc f774 c3bd 1e45 e63c
00000020: 8677 423f 16eb e33b 56dd 87be 439b 653c
00000030: 5f28 5ebe dd3d 01bf 2296 743d 672f fc3e
00000040: 2d59 62be df72 503d 8631 6d3e ab32 03be
00000050: 36e0 96be e0f1 27be 83d4 493e 89fb 893c
00000060: b774 83be d4c5 b2bd 0780 c5be 4d46 623d
00000070: 32f5 c0be 7d98 703d 32bd 62be 431c 2dbd
00000080: d1d1 f33d 6731 16be 3d45 7bbe 9bf0 54be
00000090: c475 0bbe ccb7 8abe 6f72 85bd 9128 abbe
000000a0: bc60 753e b368 2a3e 72b4 a7be 0ea0 20be
000000b0: 354d 853e c1cd ba3e a03b e33e c448 693e
000000c0: b7dc 05be bc82 a53e 8607 e33b f1f5 213e
000000d0: bcd6 00bf 0a79 3e3d 1b3c 123e 8e13 663e
000000e0: dfa5 b4bd 7faa 5abe 0747 043e d301 603d
000000f0: 985e 98bc 90b8 843c 9d4d 7d3e e2a1 9abd

mlp.mlp.1.running_var f4 [64]
0.2205544 0.31386957 0.22274071 0.1760513 0.36947358 0.19834656 0.2827929 0.25744975
0.25473833 0.17720668 0.25192374 0.3968311 0.21746807 0.31522903 0.29821375 0.57135826
0.20589036 0.44711268 0.20427519 0.23209852 0.39217722 0.16079432 0.28072467 0.36715943
0.23947804 0.20857091 0.3247189 0.31084666 0.20187967 0.19940811 0.28987393 0.48128933
0.20322706 0.25554714 0.18080412 0.4286269 0.18546218 0.33607224 0.29903215 0.42462534
0.18099089 0.15992427 0.6010585 0.20764704 0.29427096 0.41230872 0.45569345 0.2565684
0.4016062 0.5270152 0.5454092 0.40397775 0.26419836 0.18694142 0.16634135 0.16569579
0.44212645 0.15691335 0.17628735 0.17286666 0.13221282 0.25652453 0.28873426 0.2045172
00000000: 03d9 613e 83b3 a03e 2416 643e cb46 343e
00000010: a42b bd3e 5c1b 4b3e 3bca 903e 74d0 833e
00000020: 106d 823e ab75 353e 26fc 803e 722d cb3e
00000030: f3af 5e3e b365 a13e 79af 983e 8944 123f
00000040: ecd4 523e f4eb e43e 842d 513e 3cab 6d3e
00000050: 74cb c83e 44a7 243e 25bb 8f3e 52fc bb3e
00000060: bb39 753e 9d93 553e 8e41 a63e 4b27 9f3e
00000070: 8bb9 4e3e a431 4c3e 5b6a 943e 8e6b f63e
00000080: c11a 503e 13d7 823e b724 393e fc74 db3e
00000090: cce9 3d3e a911 ac3e be1a 993e 7e68 d93e
000000a0: ad55 393e 30c3 233e f8de 193f 6da1 543e
000000b0: afaa 963e 211a d33e a750 e93e ef5c 833e
000000c0: 549f cd3e 78ea 063f f09f 0b3f 2cd6 ce3e
000000d0: 0245 873e 926d 3f3e 6355 2a3e 28ac 293e
000000e0: 665e e23e e5ad 203e ac84 343e f503 313e
000000f0: cc62 073e 2f57 833e fad4 933e f56c 513e

mlp.mlp.4.weight f4 [64, 64]
0.0016449355 0.0043015485 0.034479707 0.15302345 -0.04402086 0.083969735 0.13137491 -0.011155843
0.088066526 -0.012288658 0.05120815 0.20023727 -0.051593684 0.17948301 -0.15028721 0.10147924
0.090828136 -0.07511366 0.052437328 0.020743217 0.10277332 -0.026125085 0.004271232 -0.018519316
-0.16445515 -0.05877723 0.09140421 -0.010804706 -0.09177439 -0.1106555 0.027337385 -0.029025698
0.08724905 0.044710595 0.17998397 0.025892071 -0.02332905 -0.045177005 -0.039912548 0.015366882
0.19868055 0.025842164 0.084244475 0.14212286 0.04400863 -0.14269702 -0.010488442 0.17373437
0.07439588 0.045190863 -0.04655099 0.036410127 -0.006442603 -0.116936 -0.09053658 -0.030835677
-0.022337412 0.06733777 -0.028811608 -0.017785272 0.05473276 -0.0042714872 0.03440231 -0.06139033
0.055031557 -0.11383323 -0.06598391 0.018283004 -0.086040206 0.1652364 -0.07396824 -0.09454273
0.05357319 -0.014494451 -0.07732823 0.1194521 -0.02677764 0.11587282 0.15128082 0.043142278
0.028685266 0.034703385 0.11655805 0.09845288 0.019403925 0.1103857 0.060209036 -0.14730678
0.07215716 0.22118792 0.071362644 -0.052435286 0.19240437 0.1338436 -0.09985796 0.013518803
0.08101503 0.17271604 -0.07011244 0.033746872 0.13462003 -0.13416821 -0.016362937 -0.029539347
-0.10141049 -0.14521584 -0.21698138 0.018068284 -0.009989513 -0.17134209 0.014504173 0.10029951
0.120607994 -0.07841137 -0.0774493 0.010401054 0.0279326 0.070746906 0.027405519 -0.027776979
-0.114147976 0.01758138 0.09194402 -0.11601514 -0.05764116 0.025025439 0.04756313 0.08094688
0.012912721 -0.012750758 0.014180421 -0.026318287 -0.0075784824 0.1867741 0.02419508 0.046466514
0.17358105 -0.07963787 -0.062498707 0.14505549 0.111418605 0.14568238 0.0073496522 -0.027052414
-0.09033702 -0.023687499 0.14474817 -0.02342443 0.08126202 -0.04770598 0.040031374 -0.1387537
0.15581705 -0.006123765 0.16258284 -0.037948567 0.037375372 0.07946735 -0.122362606 -0.0092349015
0.047036503 0.03595378 0.028335229 0.042946834 0.041172326 -0.034243066 -0.057493903 0.1296554
0.09190048 -0.040701482 0.020509064 -0.12767746 -0.00064197654 -0.14365053 -0.14694828 0.054347657
0.1518661 -0.19586642 -0.042362746 -0.13975729 0.033006378 0.08018832 -0.007155451 -0.09969927
0.003154422 0.07845304 0.19625181 -0.0016563025 0.058276214 0.059845954 -0.073571645 0.060834426
-0.0002535776 0.11066311 -0.21467626 0.05294682 -0.067994095 -0.1247719 0.1827647 -0.053038716
-0.0011989768 -0.10375655 -0.0932763 0.1650721 -0.055644855 0.12748323 -0.15452057 -0.123944916
-0.07390439 0.037210025 -0.14913745 -0.11196665 -0.10367012 -0.17892954 -0.19358797 -0.003631002
-0.03925089 -0.16248602 -0.06362874 -0.006642155 -0.08412242 -0.12656185 0.1520922 -0.02196786
0.10366183 0.16792284 0.19165337 -0.17427078 0.04154657 -0.0018216323 0.08131313 -0.10642107
-0.07006848 -0.21063946 0.007871038 -0.0009308406 0.008581394 0.044446327 0.03308455 0.18373908
-0.12868673 -0.0030651267 -0.078651965 0.075875774 -0.035213772 0.00340049 -0.08662557 0.017864542
-0.12294966 0.021594908 -0.089600205 -0.0050856783 0.038205657 -0.004663976 -0.010733709 -0.17302266
00000000: e09a d73a 01f4 8c3b 983a 0d3d 2eb2 1c3e
00000010: 384f 34bd 53f8 ab3d 2587 063e ffc6 36bc
00000020: 395c b43d 5e56 49bc a3bf 513d 000b 4d3e
00000030: e653 53bd 65ca 373e e4e4 19be 59d4 cf3d
00000040: 1a04 ba3d 31d5 99bd 86c8 563d aeed a93c
00000050: d27a d23d 4604 d6bc b1f5 8b3b d2b5 97bc
00000060: ee66 28be 65c0 70bd 2132 bb3d 3906 31bc
00000070: 36f4 bbbd 5a9f e2bd a7f2 df3c 4dc7 edbc
00000080: a1af b23d 7522 373d b84d 383e 9c1b d43c
00000090: 901c bfbc 860b 39bd 577b 23bd 60c5 7b3c
000000a0: ea72 4b3e f2b2 d33c 5e88 ac3d a888 113e
000000b0: 6542 343d 2b1f 12be b7d7 2bbc 6ce7 313e
000000c0: de5c 983d 0e1a 393d 40ac 3ebd c922 153d
000000d0: 791c d3bb 247c efbd 3e6b b9bd 1a9b fcbc
000000e0: f3fc b6bc 62e8 893d 5206 ecbc 6bb2 91bc
000000f0: 752f 603d d5f7 8bbb 70e9 0c3d 6d74 7bbd
00000100: c568 613d 6621 e9bd 9222 87bd 3dc6 953c
00000110: d935 b0bd bb33 293e a97c 97bd 9e9f c1bd
00000120: 906f 5b3d 227a 6dbc 435e 9ebd 4da3 f43d
00000130: c85c dbbc bb4e ed3d 5ce9 1a3e f5b5 303d
00000140: 5dfd ea3c 2325 0e3d fdb5 ee3d aaa1 c93d
00000150: fbf4 9e3c e611 e23d c09d 763d 97d7 16be
00000160: 22c7 933d 167f 623e 9426 923d 62c6 56bd
00000170: a705 453e 4c0e 093e 5582 ccbd f87d 5d3c
00000180: 35eb a53d 79dc 303e 1c97 8fbd 293a 0a3d
00000190: d5d9 093e 6463 09be 910b 86bc 80fc f1bc
000001a0: 4eb0 cfbd 76b3 14be 5e30 5ebe f003 943c
000001b0: 0eab 23bc 4d74 2fbe e9a2 6d3c d469 cd3d
000001c0: 5301 f73d 2496 a0bd bd9d 9ebd 2f69 2a3c
000001d0: e8d2 e43c c1e3 903d 8a81 e03c 8c8c e3bc
000001e0: 6ac6 e9bd d406 903c 254d bc3d 5999 edbd
000001f0: 2319 6cbd 2602 cd3c 8ed1 423d 7ac7 a53d
00000200: e18f 533c 8ee8 50bc ff54 683c 7399 d7bc
00000210: eb54 f8bb b641 3f3e c334 c63c ac53 3e3d
00000220: 3bbf 313e 2e19 a3bd a5fe 7fbd 6d89 143e
00000230: 702f e43d c32d 153e 5ad5 f03b 069d ddbc
00000240: 9e02 b9bd 490c c2bc dd38 143e 97e4 bfbc
00000250: b46c a63d 5867 43bd f0f7 233d 7315 0ebe
00000260: 818e 1f3e dda9 c8bb 1e7c 263e f56f 1bbd
00000270: eb16 193d c7bf a23d 3f99 fabd fc4d 17bc
00000280: 59a9 403d 4544 133d 481f e83c 05e9 2f3d
00000290: 50a4 283d 7542 0cbd ba7e 6bbd 63c4 043e
000002a0: 5236 bc3d 99b6 26bd a002 a83c e1bd 02be
000002b0: 514a 28ba 2019 13be 9c79 16be a69b 5e3d
000002c0: c982 1b3e 3591 48be 8f84 2dbd 891c 0fbe
000002d0: b231 073d c639 a43d 4678 eabb 222f ccbd
000002e0: 6bba 4e3b fdab a03d 3cf6 483e 4a18 d9ba
000002f0: 0ab3 6e3d 0821 753d bbac 96bd 852d 793d
00000300: 9cf2 84b9 57a3 e23d 18d4 5bbe c4de 583d
00000310: 7d40 8bbd 6988 ffbd ab26 3b3e 203f 59bd
00000320: fc26 9dba 507e d4bd a507 bfbd a908 293e
00000330: dceb 63bd f78a 023e a43a 1ebe d5d6 fdbd
00000340: 2f5b 97bd 8a69 183d 7db7 18be c54e e5bd
00000350: 0051 d4bd 4e39 37be ed3b 46be 1bf6 6dbb
00000360: 8bc5 20bd bc62 26be c94f 82bd 6fa6 d9bb
00000370: 6048 acbd 6e99 01be 0fbe 1b3e f1f5 b3bc
00000380: a74c d43d f7f3 2b3e c840 443e 0a74 32be
00000390: bc2c 2a3d d6c3 eeba 8087 a63d 4af3 d9bd
000003a0: 1080 8fbd dfb1 57be 87f5 003c a803 74ba
000003b0: fa98 0c3c 5a0d 363d aa83 073d 1926 3c3e
000003c0: 74c6 03be 4be0 48bb 4814 a1bd c264 9b3d
000003d0: 513c 10bd c1da 5e3b bf68 b1bd a958 923c
000003e0: 08cd fbbd cee7 b03c 5080 b7bd c3a5 a6bb
000003f0: 897d 1c3d 44d4 98bb 70dc 2fbc da2c 31be

mlp.mlp.4.bias f4 [64]
-6.551127e-06 1.0327075e-07 9.527422e-07 2.188681e-07 -2.9990454e-06 1.1178552e-06 8.3244294e-07 -4.7723297e-06
-5.6299964e-06 8.712223e-07 4.3521763e-06 -3.7358561e-06 1.6628865e-06 -7.197452e-06 -7.0223164e-06 2.4737787e-06
-1.2489445e-06 -1.8368713e-06 -3.5686818e-07 -3.5560631e-06 5.678885e-08 -1.5055048e-07 -5.3870403e-06 4.346094e-06
1.251522e-06 -2.5438544e-07 2.8639581e-06 -1.5921424e-06 4.0936557e-06 5.6177573e-06 8.9128247e-07 5.237277e-06
-4.1489952e-07 -8.426925e-07 2.6702899e-06 -2.9826936e-08 2.527314e-06 1.1972651e-06 2.7340911e-06 -1.3873702e-07
-7.663997e-08 6.8847817e-06 -2.6065395e-06 -4.279953e-06 -3.9893328e-07 4.462405e-06 -2.3470877e-06 -7.240041e-08
-4.2520887e-07 3.8663857e-06 5.5384257e-06 1.9398167e-06 2.8228048e-06 -3.769892e-07 3.08402e-06 -6.8444338e-06
-6.3755857e-07 1.1913016e-06 -1.3244441e-08 8.7811955e-08 3.3932577e-06 6.9999937e-06 -1.8673961e-06 1.0319866e-06
00000000: c1d1 dbb6 b2c5 dd33 f2bf 7f35 0102 6b34
00000010: 3543 49b6 3609 9635 0b75 5f35 0022 a0b6
00000020: 4de9 bcb6 f1dd 6935 e908 9236 85b5 7ab6
00000030: 5830 df35 a481 f1b6 3da1 ebb6 3203 2636
00000040: 68a1 a7b5 6b8a f6b5 9797 bfb4 b3a4 6eb6
00000050: 00e8 7333 00a7 21b4 53c2 b4b6 aad4 9136
00000060: f8f9 a735 7892 88b4 6d32 4036 99b1 d5b5
00000070: 3c5c 8936 2b80 bc36 7740 6f35 debb af36
00000080: 5bbf deb4 6335 62b5 3b33 3336 101b 00b3
00000090: ed9a 2936 b7b1 a035 547b 3736 bef7 14b4
000000a0: 4595 a4b3 d303 e736 02ec 2eb6 849c 8fb6
000000b0: f92c d6b4 c4bb 9536 a982 1db6 8c7a 9bb3
000000c0: 4348 e4b4 00bc 8136 b7d6 b936 cc2d 0236
000000d0: 6b6f 3d36 0065 cab4 0ff7 4e36 3da9 e5b6
000000e0: b124 2bb5 d0e4 9f35 ab89 63b2 2293 bc33
000000f0: b9b7 6336 7de1 ea36 3ea3 fab5 ca82 8a35

mlp.mlp.5.weight f4 [64]
0.99701107 0.86051124 0.85441357 1.1392785 1.1432521 1.1374687 1.1534427 1.1397389
1.1406338 1.1329378 1.1382152 0.9057753 0.89250845 1.1418085 0.8847385 0.85393685
1.1516438 0.8680807 1.1378751 0.86548936 0.8977195 1.1499681 1.1382442 1.1360278
0.87716997 1.1383115 0.90190446 1.1475947 1.1382519 1.1473509 1.1349272 1.138442
0.8661391 0.84960604 1.0595384 1.0499839 1.1355866 1.146362 1.1462553 0.8702705
1.1389844 1.1457168 1.0573846 0.86881775 0.9242858 0.8621168 1.1402402 1.1388091
1.1344641 1.1443223 0.936022 1.131201 1.094447 1.1419284 0.85659224 1.1378279
0.86943215 0.8700395 1.0145271 1.1430426 1.1410749 0.8619513 1.1410199 1.142013
00000000: 1e3c 7f3f 774a 5c3f d9ba 5a3f e1d3 913f
00000010: 1656 923f 9398 913f 03a4 933f f7e2 913f
00000020: 4a00 923f 1b04 913f 09b1 913f e4e0 673f
00000030: 6f7b 643f c826 923f 397e 623f 9b9b 5a3f
00000040: 1069 933f 893a 5e3f e4a5 913f b690 5d3f
00000050: f2d0 653f 2832 933f fcb1 913f 5c69 913f
00000060: 368e 603f 31b4 913f 36e3 663f 62e4 923f
00000070: 3db2 913f 65dc 923f 4b45 913f 78b8 913f
00000080: 4bbb 5d3f c87f 593f f49e 873f df65 863f
00000090: e75a 913f fdbb 923f 7eb8 923f 0cca 5e3f
000000a0: 3eca 913f d9a6 923f 6158 873f d76a 5e3f
000000b0: ff9d 6c3f b0b3 5c3f 64f3 913f 7fc4 913f
000000c0: 1f36 913f 2779 923f 239f 6f3f 32cb 903f
000000d0: d716 8c3f b62a 923f a149 5b3f 58a4 913f
000000e0: 1b93 5e3f e9ba 5e3f 06dc 813f 384f 923f
000000f0: be0e 923f d7a8 5c3f f10c 923f 7b2d 923f

mlp.mlp.5.bias f4 [64]
-0.008435731 -0.13210088 -0.13504864 0.1449718 0.14716631 0.14241101 0.15187533 0.1462085
0.14763182 0.14134467 0.14461529 -0.0931596 -0.100305445 0.14897145 -0.1088817 -0.13727951
0.15404335 -0.124089696 0.14217387 -0.12812784 -0.09425121 0.15217537 0.14377967 0.14151093
-0.1181871 0.14586419 -0.087638624 0.15231556 0.14692529 0.15088388 0.14407417 0.14627041
-0.1305204 -0.13847196 0.060803268 0.064732425 0.14248349 0.14838941 0.14473584 -0.12380323
0.14658391 0.14662279 0.057382643 -0.124293104 -0.063186504 -0.12743606 0.14156617 0.14099315
0.14088427 0.1466635 -0.067484364 0.13736503 0.103118055 0.1446285 -0.13316464 0.14696574
-0.12716387 -0.12310027 0.006229441 0.14948499 0.14383873 -0.13317913 0.14922172 0.14895979
00000000: 0536 0abc 7445 07be 314a 0abe 7d73 143e
00000010: c4b2 163e 31d4 113e 3585 1b3e aeb7 153e
00000020: cc2c 173e a8bc 103e 0816 143e 76ca bebd
00000030: f16c cdbd f98b 183e 5efd debd 0093 0cbe
00000040: 8abd 1d3e bd22 febd 0796 113e f233 03be
00000050: c706 c1bd dcd3 1b3e fa3a 133e 3ee8 103e
00000060: 140c f2bd 6c5d 153e e17b b3bd 9cf8 1b3e
00000070: 9573 163e 4e81 1a3e 2e88 133e e9c7 153e
00000080: 24a7 05be 98cb 0dbe d90c 793d 6f92 843d
00000090: 31e7 113e 65f3 173e a235 143e 8c8c fdbd
000000a0: 181a 163e 4924 163e 100a 6b3d 628d febd
000000b0: ed67 81bd 997e 02be b9f6 103e 8260 103e
000000c0: f743 103e f52e 163e 3e35 8abd 6ba9 0c3e
000000d0: 8f2f d33d 7e19 143e 505c 08be 307e 163e
000000e0: 3f37 02be ff1b fcbd 5720 cc3b 9812 193e
000000f0: 764a 133e 1c60 08be 94cd 183e ea88 183e

mlp.mlp.5.running_mean f4 [64]
0.49644506 0.20405948 0.30807096 -0.7321459 -0.6700818 -0.56926805 0.2144032 -0.7009661
-0.77030975 -0.5515212 -0.53624725 0.4939449 -0.057295974 -0.2685746 0.29284555 0.39809543
-0.03902288 0.3625668 -0.18889599 0.11819302 0.2486712 -0.50998545 -0.3563368 -1.1788267
0.7388634 -0.10596511 0.22763704 -0.10054999 -0.12829909 -0.65125185 -0.32951513 -0.35149917
-0.0036139796 0.2150424 -0.24858862 -0.1135017 -0.5160851 -0.51660806 -0.44214988 0.36694404
-0.7430772 -0.034609415 -0.30534315 -0.110558674 -0.059201334 -0.123270676 -0.5587457 0.085424505
-0.61620563 -0.4157683 0.65189505 -0.36188227 -0.42054018 -0.3283653 0.2527827 0.0655121
-0.31902146 0.6271962 0.16484061 -0.12111012 -0.23060857 -0.16259007 0.08877353 -0.11407454
00000000: 0c2e fe3e f8f4 503e 7abb 9d3e ea6d 3bbf
00000010: 7b8a 2bbf 8dbb 11bf 838c 5b3e 8472 33bf
00000020: 0533 45bf 7e30 0dbf 8047 09bf 59e6 fc3e
00000030: 2faf 6abd 9c82 89be daef 953e 2ad3 cb3e
00000040: 75d6 1fbd 5ba2 b93e f36d 41be 2f0f f23d
00000050: aaa3 7e3e 688e 02bf c771 b6be cbe3 96bf
00000060: 2726 3d3f 3c04 d9bd af19 693e 27ed cdbd
00000070: d660 03be 71b8 26bf 35b6 a8be b3f7 b3be
00000080: 84d8 6cbb 1334 5c3e 048e 7ebe 9473 e8bd
00000090: 271e 04bf 6d40 04bf 7861 e2be 17e0 bb3e
000000a0: 4f3a 3ebf 9ac2 0dbd f055 9cbe 966c e2bd
000000b0: 197d 72bd 5675 fcbd f509 0fbf 0bf3 ae3d
000000c0: a7bf 1dbf 95df d4be 98e2 263f a248 b9be
000000d0: 0b51 d7be 7f1f a8be bc6c 813e 352b 863d
000000e0: c856 a3be ee8f 203f facb 283e 9508 f8bd
000000f0: a724 6cbe 037e 26be e6ce b53d ea9f e9bd

mlp.mlp.5.running_var f4 [64]
0.87656134 1.1205214 0.799498 1.4836526 1.2975432 1.5371875 1.8441576 1.1373115
1.0775863 1.4250969 1.7567103 0.34924188 0.8863072 1.7758683 0.5096924 0.75806093
1.2834992 0.9312922 1.5731164 1.5431496 0.40349373 1.1460161 1.137323 1.1962566
1.0571645 1.81308 0.8999176 1.1224316 1.4631996 1.1231424 1.7261537 0.89730364
1.2015982 0.79458284 1.0470945 1.0908211 1.4896883 0.90976137 1.0698239 0.6957864
1.5625685 1.5187113 0.6122895 0.8972485 0.71979 0.50473297 1.0214567 1.840108
1.0974404 1.4043255 0.42988756 1.2362665 0.93065536 0.94355845 0.7677855 2.0428104
1.2399447 0.5848604 0.9663702 1.1224585 1.9793928 1.7348365 1.6505123 1.8474919
00000000: 5366 603f 3f6d 8f3f e7ab 4c3f 54e8 bd3f
00000010: e515 a63f 8fc2 c43f 5b0d ec3f 6c93 913f
00000020: 59ee 893f 9369 b63f e2db e03f d5cf b23e
00000030: 07e5 623f a74f e33f 337b 023f 4810 423f
00000040: b449 a43f 2a69 6e3f e15b c93f ed85 c53f
00000050: bb96 ce3e a8b0 923f cd93 913f f01e 993f
00000060: 2b51 873f 0113 e83f 0061 663f d7ab 8f3f
00000070: 204a bb3f 21c3 8f3f 9bf2 dc3f b1b5 653f
00000080: f8cd 993f c869 4b3f 3107 863f 07a0 8b3f
00000090: 1bae be3f 1fe6 683f fdef 883f 0f1f 323f
000000a0: 3f02 c83f 2265 c23f 01bf 1c3f 14b2 653f
000000b0: 2844 383f 2e36 013f 18bf 823f a988 eb3f
000000c0: ed78 8c3f f0c0 b33f 391a dc3e fb3d 9e3f
000000d0: 6e3f 6e3f 0c8d 713f 978d 443f 68bd 0240
000000e0: 82b6 9e3f 69b9 153f 0a64 773f b8ac 8f3f
000000f0: be5c fd3f 1f0f de3f fd43 d33f 9d7a ec3f

mlp.mlp.8.weight f4 [1, 64]
0.12782905 0.058311265 0.037449196 0.24346773 0.18865478 0.25673977 0.19626644 0.22396511
0.1648623 0.20378599 0.15325533 0.102884986 0.09532441 0.1450833 0.09693263 0.03415429
0.1632429 0.081719376 0.24580933 0.058948908 0.09319149 0.16534182 0.1964312 0.22190721
0.087394446 0.24473242 0.09161245 0.16104655 0.19851819 0.1634514 0.20710208 0.16854982
0.05389186 0.034147706 0.128319 0.12626995 0.1963438 0.2248785 0.24477188 0.0823225
0.18942705 0.25698912 0.13878827 0.081285045 0.107924856 0.07550252 0.2552006 0.25977525
0.21720484 0.25912797 0.11771609 0.23489058 0.13731074 0.2243788 0.0619222 0.20533803
0.06593941 0.06593168 0.13104416 0.14600103 0.25630063 0.060814403 0.14216773 0.17673986
00000000: 9ee5 023e cbd7 6e3d 5464 193d 9b4f 793e
00000010: b82e 413e 6573 833e 12fa 483e 1c57 653e
00000020: aad1 283e 46ad 503e f7ee 1c3e 5db5 d23d
00000030: 7239 c33d b790 143e 9d84 c63d 5ee5 0b3d
00000040: 2629 273e 7d5c a73d 71b5 7b3e 6974 713d
00000050: 2edb be3d 5e4f 293e 4325 493e a53b 633e
00000060: dcfb b23d 239b 7a3e 4f9f bb3d 63e9 243e
00000070: 5a48 4b3e ce5f 273e 9112 543e 5398 2c3e
00000080: b6bd 5c3d 77de 0b3d 0e66 033e e94c 013e
00000090: 590e 493e 8d46 663e 7ba5 7a3e b398 a83d
000000a0: 2af9 413e 1494 833e 831e 0e3e c678 a63d
000000b0: b507 dd3d 11a1 9a3d a7a9 823e 4301 853e
000000c0: f26a 5e3e 6cac 843e 2215 f13d 2887 703e
000000d0: 309b 0c3e 8ec3 653e 22a2 7d3d 2244 523e
000000e0: 3e0b 873d 3007 873d 7130 063e 4b81 153e
000000f0: d639 833e 8618 793d 6b94 113e 4bfb 343e
