model_lr_0.01/dfm_epoch_100.pt (torch, 151559 bytes, 15 tensors)

embedding.embedding.weight f4 [98, 75]
0	0xbc26e1d7	-0.01018568
1	0x3c8e78b2	0.017391536
2	0xbc2ee8b3	-0.010675597
3	0xbb329c93	-0.002725397
4	0x3c89303e	0.016746636
5	0xbc2a9d77	-0.010413519
6	0xbd7befcf	-0.061507996
7	0x3b0836ba	0.0020784573
8	0xbc5510a5	-0.013004457
9	0x3dd37ab3	0.103261374
10	0x3c6b5e99	0.014365816
11	0xbb9f5f8d	-0.0048636855
12	0xbbcc9f70	-0.0062445924
13	0x3c2a20fa	0.010383839
14	0x3d1fc656	0.039007507
15	0x3bdd3100	0.006750226
16	0x3c42b1ec	0.01188324
17	0xbc76efcb	-0.01507182
18	0xbd646ded	-0.055768896
19	0xb988932d	-0.00026049596
20	0xbb57f71d	-0.0032953687
21	0x3bcfd890	0.006342955
22	0xbc456a2b	-0.012049238
23	0xba81b6b2	-0.0009896366
24	0x3c116d17	0.008876107
25	0x3a8118da	0.0009849325
26	0x3c852921	0.016254963
27	0x3d3f14df	0.046650764
28	0x38f418f4	0.000116394745
29	0x3cbba346	0.022905003
30	0x3c25cb3b	0.010119255
31	0x3ac603b3	0.0015107304
32	0xbd15cb24	-0.036570683
33	0x3a8e397a	0.001085087
34	0xb5fe9edd	-1.897071e-06
35	0x3c398b38	0.011324696
36	0xbcbee058	-0.023300335
37	0xbb09dd63	-0.0021036498
38	0x3d259a67	0.040430453
39	0xbd90dafa	-0.070730165
40	0xbc973c68	-0.018461421
41	0x3d24e94c	0.04026155
42	0x39f71206	0.0004712494
43	0xbcea7aea	-0.028623063
44	0xbd0ca41e	-0.0343362
45	0xbbf6a705	-0.0075272345
46	0xbd91ad68	-0.07113153
47	0xbd33e189	-0.04391626
48	0xbdcd6fc1	-0.10031081
49	0xbd22376e	-0.039603643
50	0xbb91ad9e	-0.0044457456
51	0xbb8380cd	-0.004013157
52	0xbc3fc7be	-0.011705337
53	0x3d162f23	0.036666047
54	0x3c957a13	0.018246686
55	0x3d3986b5	0.045294482
56	0x3d3f3afe	0.04668712
57	0x3da96fd6	0.08273284
58	0x38b03f49	8.404122e-05
59	0x3bb52834	0.005528474
60	0x3cc91ca7	0.024549795
61	0x39b464b7	0.00034407314
62	0xbd7d6aee	-0.061869554
63	0xbca09c38	-0.01960574
64	0xbc9c5c20	-0.019086897
65	0x3b48d68f	0.0030645465
66	0x37c0e2df	2.2993829e-05
67	0xbd5e0ac3	-0.054209482
68	0xbdabc9ac	-0.08388075
69	0x3a8fa11d	0.001095805
70	0xbc813ce7	-0.01577611
71	0x3bb44c59	0.0055022654
72	0x3c063dec	0.008193474
73	0x3cba4dff	0.02274227
74	0x3d7f473e	0.0623238
75	0xbc3fef0f	-0.011714711
76	0x3c9db018	0.019249007
77	0xbc53d706	-0.012929684
78	0xbb586f31	-0.003302526
79	0x3c975dcb	0.018477341
80	0xbc3d2db6	-0.011546543
81	0xbd8aa655	-0.067700066
82	0x3b17138f	0.002305243
83	0xbc7a67fd	-0.015283582
84	0x3de5f72f	0.11228787
85	0x3c88cdb0	0.016699642
86	0xbbbcba67	-0.0057595256
87	0xbbe37d82	-0.006942452
88	0x3c3bbb0a	0.011458168
89	0x3d34056e	0.04395049
90	0x3bfc553d	0.007700591
91	0x3c59d846	0.0132961925
92	0xbc876586	-0.016527902
93	0xbd798ae6	-0.06092348
94	0xb9a290e7	-0.00031007009
95	0xbb81b49f	-0.0039582993
96	0x3bf35556	0.0074259443
97	0xbc594c6e	-0.013262851
98	0xba9b89b8	-0.0011866605
99	0x3c232edf	0.009959905
100	0x3a96df3d	0.0011510622
101	0x3c9697c0	0.018382907
102	0x3d529b0c	0.051417395
103	0x3911d637	0.00013908079
104	0x3cdb504e	0.02677169
105	0x3c369ffe	0.011146544
106	0x3af0ed45	0.0018381259
107	0xbd2360b2	-0.039887138
108	0x3a9bf637	0.0011898939
109	0xb61a10cd	-2.2957568e-06
110	0x3c4abc89	0.012374052
111	0xbcd6197a	-0.026135195
112	0xbb24413a	-0.0025063292
113	0x3d36cf10	0.044631064
114	0xbd9df0f5	-0.077119745
115	0xbca70055	-0.0203859
116	0x3d380302	0.044924743
117	0x3a14ec0b	0.0005680925
118	0xbd02ba35	-0.031915862
119	0xbd1bde27	-0.038053658
120	0xbc0a66a6	-0.008447325
121	0xbd9eb7a4	-0.077498704
122	0xbd450997	-0.04810485
123	0xbddfc296	-0.10925786
124	0xbd32e73b	-0.04367755
125	0xbbac0469	-0.005249549
126	0xbb933ab4	-0.004493082
127	0xbc53f570	-0.012936935
128	0x3d2612a1	0.04054511
129	0x3ca32a36	0.019917589
130	0x3d4a79ef	0.04943269
131	0x3d50bba4	0.050960198
132	0x3db912aa	0.09036763
133	0x38d2d243	0.000100527446
134	0x3bd96fd6	0.0066356463
135	0x3cdc3482	0.026880506
136	0x39d8b6b8	0.00041334867
137	0xbd8b02a0	-0.0678761
138	0xbcb2c896	-0.021824162
139	0xbcaad478	-0.020853266
140	0x3b6325c3	0.003465996
141	0x37e8bd96	2.7744838e-05
142	0xbd72bea5	-0.059263844
143	0xbdbbdd1f	-0.09173035
144	0x3aabf70f	0.0013119894
145	0xbc8e31f2	-0.0173578
146	0x3bcc0cc6	0.0062271086
147	0x3c14a3ce	0.009072257
148	0x3ccd872f	0.025088875
149	0x3d8cf6c2	0.06883003
150	0xbc66905d	-0.014072505
151	0x3cbf9b0e	0.023389366
152	0xbc755816	-0.014974615
153	0xbb7928f4	-0.0038018795
154	0x3cb8fc35	0.0225812
155	0xbc6711da	-0.014103377
156	0xbda90539	-0.08252949
157	0x3b37d23d	0.0028048896
158	0xbc9349a0	-0.017979443
159	0x3e0c4ee4	0.1370197
160	0x3ca26d8a	0.019827623
161	0xbbdef302	-0.006803871
162	0xbc0ae906	-0.008478409
163	0x3c647df1	0.013946042
164	0x3d57e43f	0.052707907
165	0x3c175136	0.009235671
166	0x3c83b274	0.016076304
167	0xbca5d9dc	-0.020245485
168	0xbd98744c	-0.07444057
169	0xb9be4cd9	-0.0003629688
170	0xbb96afcd	-0.004598594
171	0x3c10f054	0.008846361
172	0xbc847b7a	-0.01617216
173	0xbab4314a	-0.00137476
174	0x3c460897	0.012087009
175	0x3ab2b83d	0.001363523
176	0x3cb3f2aa	0.021966297
177	0x3d803acf	0.06261217
178	0x39295db7	0.00016152007
179	0x3d00706a	0.031357206
180	0x3c5f9825	0.013647114
181	0x3b0aabcc	0.0021159528
182	0xbd4783d5	-0.04870971
183	0x3abf2598	0.0014583347
184	0xb633bd17	-2.6783143e-06
185	0x3c789932	0.015173243
186	0xbd010efc	-0.03150843
187	0xbb3d28f0	-0.0028863512
188	0x3d5ea14b	0.05435304
189	0xbdc0d913	-0.094164036
190	0xbccbbdc7	-0.024870766
191	0x3d5ec774	0.054389432
192	0x3a2c8941	0.0006581732
193	0xbd1e3ef3	-0.03863425
194	0xbd3ce2cf	-0.04611474
195	0xbc284902	-0.010271313
196	0xbdc1db97	-0.094657116
197	0xbd6ffedc	-0.058592662
198	0xbe086bad	-0.13322325
199	0xbd597dcc	-0.053098485
200	0xbbcb19a2	-0.006198124
201	0xbbb1ac9d	-0.0054221884
202	0xbc80039c	-0.015626721
203	0x3d49e3df	0.04928958
204	0x3cc7fbc8	0.02441205
205	0x3d772ff1	0.060348455
206	0x3d7fa77c	0.062415585
207	0x3de1a1e3	0.110172056
208	0x38f42587	0.00011641817
209	0x3bfe5585	0.0077616596
210	0x3d0616cd	0.03273659
211	0x39fb244f	0.00047901503
212	0xbda9792c	-0.08275065
213	0xbcda083a	-0.02661525
214	0xbcd148cc	-0.025547408
215	0x3b88b7bc	0.0041722935
216	0x38051d54	3.1736985e-05
217	0xbd944de6	-0.072414204
218	0xbde4e33f	-0.11176156
219	0x3ac7b06c	0.0015235073
220	0xbcad8403	-0.021181112
221	0x3bf6bf6f	0.007530145
222	0x3c345cba	0.011008436
223	0x3cfae51b	0.030626824
224	0x3daa244e	0.08307706
225	0xbb5a01fb	-0.003326534
226	0x3bafd56f	0.0053660194
227	0xbb6c9340	-0.003609851
228	0xba645de9	-0.00087115035
229	0x3ba7b202	0.0051176557
230	0xbb52aac4	-0.0032145241
231	0xbca19bbf	-0.019727586
232	0x3a2675a4	0.0006349927
233	0xbb8c835c	-0.00428812
234	0x3d05533d	0.032550085
235	0x3b984c96	0.0046478016
236	0xbad2c572	-0.0016080572
237	0xbaf93551	-0.0019013082
238	0x3b4dd910	0.0031409897
239	0x3c4de8ed	0.012567741
240	0x3b072d48	0.0020626355
241	0x3b7123d0	0.0036795028
242	0xbb94850f	-0.0045324634
243	0xbc91f698	-0.01781778
244	0xb8ac5e3c	-8.219152e-05
245	0xba8fc0e6	-0.0010967522
246	0x3b04f9bb	0.0020290453
247	0xbb74a469	-0.0037329441
248	0xb9a19986	-0.00030822697
249	0x3b325c51	0.002721567
250	0x39a023a0	0.0003054412
251	0x3baab2c7	0.0052093
252	0x3c752839	0.014963203
253	0x381e9bc9	3.781522e-05
254	0x3bf6c2d1	0.007530548
255	0x3b4dc573	0.0031398206

linear.fc.weight f4 [98, 1]
0	0x3efc8865	0.4932281
1	0x3f07c28f	0.5303125
2	0x3f153701	0.58287054
3	0x3e24b8a8	0.16086066
4	0x3e661a04	0.22470862
5	0x3d4af6a6	0.04955163
6	0x3ea4b37a	0.3216818
7	0x3e974a95	0.2954909
8	0x3d8f9b5f	0.070120566
9	0x3ca8d140	0.02060759
10	0x3c5d153b	0.013493831
11	0x3ceedc79	0.029157864
12	0x3c5b39cf	0.013380482
13	0x3ca33e18	0.01992707
14	0x3c6d9d03	0.014502767
15	0x3c6765e3	0.014123413
16	0x3e4a1c33	0.1973732
17	0x3e0f71be	0.14008233
18	0x3e26bc5b	0.1628279
19	0x3e18710a	0.14886871
20	0x3e41a4d0	0.18910527
21	0x3e50de54	0.20397311
22	0x3e355bf2	0.17710856
23	0x3ced51a9	0.028969603
24	0x3cb21193	0.021736896
25	0x3cb68844	0.022281773
26	0x3cbb388d	0.022854114
27	0x3cee55ea	0.029093701
28	0x3d054d05	0.032544155
29	0x3cc64f4c	0.024207734
30	0x3bf1fc85	0.007384839
31	0x3b44f117	0.0030050927
32	0x3cd80063	0.026367372
33	0x3c62399c	0.01380768
34	0x3a8d3c68	0.0010775449
35	0x3a539ba6	0.00080722047
36	0x3aad9acc	0.0013244986
37	0x3c6dbc14	0.014510173
38	0x39890b5a	0.00026139134
39	0x3b8a195b	0.0042144484
40	0x3bd0d195	0.0063726404
41	0xb7101a98	-8.589261e-06
42	0x3bc909f8	0.0061352216
43	0x3cfa8ee5	0.030585716
44	0x3d092380	0.03348112
45	0x3b69382c	0.003558646
46	0x3c9d2b33	0.019185638
47	0x3cd66fcd	0.026176358
48	0x3b841296	0.004030536
49	0x3ce47950	0.027889878
50	0x3c97b047	0.018516673
51	0x3ad69e9c	0.0016374174
52	0x3ad7e990	0.0016472805
53	0x3bf95bb9	0.007609811
54	0x384b8965	4.852693e-05
55	0x3af12b3b	0.0018399725
56	0x3cf17930	0.029476732
57	0x3ab3cc82	0.0013717564
58	0x3cfdb453	0.030969774
59	0x3c8cc418	0.017183349
60	0x3bf2795e	0.007399722
61	0x3b9c80bb	0.004776088
62	0x3cc65f7c	0.024215452
63	0x3b0948e4	0.0020947987
64	0x3b468811	0.0030293504
65	0x39926241	0.00027920495
66	0x3a2952ee	0.0006459196
67	0x3c732c3a	0.014842087
68	0x3d16b994	0.036798075
69	0x3c8a252b	0.016863426
70	0x3c2e6ccc	0.010646056
71	0x3c2b3a26	0.010450875
72	0x3b9a10af	0.004701696
73	0x3c1b17b6	0.009466102
74	0x3a5be113	0.00083877257
75	0x3d0e84be	0.03479456
76	0x39d182a0	0.0003996091
77	0xb93e8747	-0.00018170207
78	0x3cc2fded	0.023802722
79	0x3d17d348	0.037066728
80	0x3ca4f3a8	0.020135716
81	0x3cbdf7d6	0.023189466
82	0x3ba0ed4b	0.0049111
83	0x3b1c0770	0.0023808144
84	0x3d149827	0.036277916
85	0x3d04eee0	0.03245437
86	0x3c8a8834	0.01691065
87	0x3ba22d63	0.004949258
88	0x3c2c3ae7	0.01051209
89	0x3c82bc52	0.015958939
90	0x3cd69219	0.026192712
91	0x3c2b0336	0.010437777
92	0x3c0fb260	0.008770555
93	0x3c6336f6	0.013868084
94	0x3c2bc5e0	0.010484189
95	0x3c056b0c	0.008143198
96	0x39a7b5d8	0.00031988206
97	0x3c7825e1	0.01514575

mlp.mlp.0.weight f4 [64, 375]
0	0x00cbe377	1.8724205e-38
1	0x005962d5	8.208813e-39
2	0x007e7d27	1.1616169e-38
3	0x00950279	1.3684376e-38
4	0x00113539	1.580296e-39
5	0x80af948f	-1.6124505e-38
6	0x807587b6	-1.0793437e-38
7	0x00701831	1.0294254e-38
8	0x00872bcc	1.2413503e-38
9	0x00888285	1.2536449e-38
10	0x00662e46	9.38382e-39
11	0x00722fd3	1.0486403e-38
12	0x005ae9f9	8.349128e-39
13	0x804ab767	-6.861619e-39
14	0x802e5b5d	-4.257208e-39
15	0x008d6480	1.2984858e-38
16	0x8047bd3a	-6.588202e-39
17	0x00277a3e	3.625437e-39
18	0x0011d576	1.637779e-39
19	0x0022f00a	3.208517e-39
20	0x806399d0	-9.146892e-39
21	0x8023656a	-3.250623e-39
22	0x00090183	8.27062e-40
23	0x80078d06	-6.93438e-40
24	0x8060393e	-8.836742e-39
25	0x80c4b7c4	-1.806568e-38
26	0x0028c5a4	3.74432e-39
27	0x80836013	-1.2064915e-38
28	0x80685089	-9.579782e-39
29	0x005f9432	8.777535e-39
30	0x807585cb	-1.0792749e-38
31	0x8052d590	-7.607122e-39
32	0x8060745b	-8.857948e-39
33	0x803d9f26	-5.659057e-39
34	0x00826818	1.1975956e-38
35	0x00551563	7.813689e-39
36	0x802aab2d	-3.918497e-39
37	0x004a95c8	6.849558e-39
38	0x8074aeb4	-1.0715589e-38
39	0x8049cac2	-6.776727e-39
40	0x004404a9	6.246485e-39
41	0x005ab90b	8.331576e-39
42	0x80b509b3	-1.6625704e-38
43	0x80ab85cb	-1.5751866e-38
44	0x807650c5	-1.0865563e-38
45	0x006cfde6	1.0009315e-38
46	0x809a55c8	-1.4173439e-38
47	0x0073e840	1.0644398e-38
48	0x00a1f6d3	1.4874059e-38
49	0x0066c243	9.436909e-39
50	0x80a257b0	-1.4908807e-38
51	0x8067d02e	-9.533737e-39
52	0x00b3d962	1.6516536e-38
53	0x80a29722	-1.4931567e-38
54	0x006c7723	9.960972e-39
55	0x000b07b6	1.012957e-39
56	0x003607c1	4.961898e-39
57	0x0019c247	2.365581e-39
58	0x006e8518	1.014965e-38
59	0x806b398b	-9.84704e-39
60	0x00062f01	5.67875e-40
61	0x80ae01c7	-1.5980014e-38
62	0x0061e69a	8.990767e-39
63	0x80238dc0	-3.265093e-39
64	0x80662dda	-9.383669e-39
65	0x005e8085	8.678641e-39
66	0x0007afed	7.05959e-40
67	0x801036ce	-1.489028e-39
68	0x00a52f5e	1.5169849e-38
69	0x8045068e	-6.339e-39
70	0x005f1f48	8.735594e-39
71	0x0045b680	6.402118e-39
72	0x0003aaed	3.36823e-40
73	0x803608b0	-4.962233e-39
74	0x000687fb	5.99794e-40
75	0x00467643	6.470909e-39
76	0x802cbafb	-4.107838e-39
77	0x00a62ca3	1.5260705e-38
78	0x805b4e52	-8.385126e-39
79	0x8064f42f	-9.271146e-39
80	0x8007fd83	-7.33791e-40
81	0x00486dff	6.651615e-39
82	0x0032c69c	4.663022e-39
83	0x809943c7	-1.4075145e-38
84	0x8028af91	-3.736401e-39
85	0x800bfba2	-1.10046e-39
86	0x80128d2e	-1.703685e-39
87	0x805cf293	-8.535885e-39
88	0x8072a9da	-1.0530178e-38
89	0x006f0c8b	1.019824e-38
90	0x8068c0c4	-9.620043e-39
91	0x000c6ce5	1.14109e-39
92	0x003d10a3	5.607933e-39
93	0x80b58662	-1.6670432e-38
94	0x8033e6c7	-4.766398e-39
95	0x000c8d9c	1.152826e-39
96	0x008718d2	1.2406696e-38
97	0x0049a2b5	6.76236e-39
98	0x00258200	3.444549e-39
99	0x00790455	1.1113649e-38
100	0x805d2057	-8.552302e-39
101	0x8094eed8	-1.3677334e-38
102	0x800ad89e	-9.96063e-40
103	0x8059dc35	-8.252355e-39
104	0x80280399	-3.67471e-39
105	0x00736fc4	1.0601176e-38
106	0x802b934d	-4.001768e-39
107	0x8069e74b	-9.7257e-39
108	0x0025f6b8	3.48642e-39
109	0x000d30e0	1.211394e-39
110	0x0097ec7a	1.3951992e-38
111	0x80ade88d	-1.5970964e-38
112	0x8024f226	-3.392944e-39
113	0x00685583	9.581567e-39
114	0x804f203b	-7.266566e-39
115	0x000068e0	3.7622e-41
116	0x8064247a	-9.196635e-39
117	0x80478dd3	-6.571197e-39
118	0x000e5942	1.317717e-39
119	0x0099b4c6	1.411568e-38
120	0x809e57b1	-1.4541466e-38
121	0x80154c73	-1.95597e-39
122	0x00921f72	1.3419263e-38
123	0x807e5c5e	-1.1604408e-38
124	0x80b63769	-1.6733938e-38
125	0x8070b9e8	-1.0352266e-38
126	0x8004cdb4	-4.41134e-40
127	0x80b9bf60	-1.7058219e-38
128	0x00737d5a	1.060605e-38
129	0x006e75ff	1.0144234e-38
130	0x808b602d	-1.2799635e-38
131	0x8073d7b6	-1.0638465e-38
132	0x8056135f	-7.904802e-39
133	0x8085b16f	-1.2277772e-38
134	0x0096e073	1.3855842e-38
135	0x80691e24	-9.65354e-39
136	0x0011c516	1.631905e-39
137	0x800b609d	-1.044849e-39
138	0x80576965	-8.027497e-39
139	0x001733b2	2.130761e-39
140	0x00aa736c	1.565344e-38
141	0x800b7406	-1.051812e-39
142	0x00618c2e	8.95833e-39
143	0x8040225d	-5.889799e-39
144	0x00b10667	1.625718e-38
145	0x007bcd4e	1.1369415e-38
146	0x00835e7d	1.2064346e-38
147	0x002893a2	3.72638e-39
148	0x802e7af1	-4.268536e-39
149	0x80631d43	-9.102211e-39
150	0x800680e6	-5.97253e-40
151	0x00438e4e	6.204028e-39
152	0x00209aec	2.994311e-39
153	0x00473436	6.53905e-39
154	0x002b0e5f	3.954082e-39
155	0x003e1e85	5.704749e-39
156	0x006225fb	9.013503e-39
157	0x00081eab	7.45686e-40
158	0x80baf43f	-1.7169021e-38
159	0x807f70de	-1.1703597e-38
160	0x0002bff0	2.52525e-40
161	0x80052f16	-4.76069e-40
162	0x80bfd3b8	-1.761653e-38
163	0x0088b267	1.2553626e-38
164	0x80910fa3	-1.3321756e-38
165	0x0032eef5	4.677496e-39
166	0x808a861d	-1.2721409e-38
167	0x006fa368	1.0252359e-38
168	0x00234851	3.240185e-39
169	0x803a6eb6	-5.366174e-39
170	0x00afe87a	1.6154609e-38
171	0x803c3bfe	-5.531651e-39
172	0x00cdfd4a	1.891714e-38
173	0x003a0429	5.327951e-39
174	0x002b215c	3.960893e-39
175	0x800d7bb3	-1.238236e-39
176	0x003878f0	5.186172e-39
177	0x80b04688	-1.6188349e-38
178	0x00424aac	6.08793e-39
179	0x0079db1b	1.1190695e-38
180	0x80964757	-1.3800916e-38
181	0x005c0a44	8.452548e-39
182	0x000135f4	1.1119e-40
183	0x00972485	1.388026e-38
184	0x007e6b7d	1.1609832e-38
185	0x001e4d1b	2.782725e-39
186	0x807f656f	-1.1699496e-38
187	0x003027d0	4.422386e-39
188	0x001ea0fe	2.812818e-39
189	0x800633aa	-5.69547e-40
190	0x808890c3	-1.2541558e-38
191	0x00135709	1.776097e-39
192	0x80b4eb8c	-1.6614888e-38
193	0x007800dc	1.1020568e-38
194	0x00028725	2.32152e-40
195	0x806f5861	-1.0225444e-38
196	0x802347a6	-3.239945e-39
197	0x00342512	4.788744e-39
198	0x001ece93	2.82917e-39
199	0x0080b878	1.1821118e-38
200	0x000e397d	1.30632e-39
201	0x00af3b68	1.6092523e-38
202	0x0065801b	9.32134e-39
203	0x0016cb86	2.093391e-39
204	0x80bf8c98	-1.7591015e-38
205	0x8040de99	-5.957325e-39
206	0x807be9b5	-1.1379604e-38
207	0x0051013c	7.439118e-39
208	0x8062ae31	-9.062367e-39
209	0x00192642	2.309612e-39
210	0x80a69d22	-1.5301061e-38
211	0x808e7df2	-1.3085821e-38
212	0x8000970f	-5.419e-41
213	0x80beeb78	-1.7533215e-38
214	0x00ad80d8	1.5933761e-38
215	0x8049b05f	-6.767261e-39
216	0x800efa94	-1.375587e-39
217	0x00538ec5	7.673562e-39
218	0x8062f340	-9.08714e-39
219	0x00178f64	2.163655e-39
220	0x0079fc88	1.1202686e-38
221	0x00955853	1.3715174e-38
222	0x803078c6	-4.451429e-39
223	0x80389d40	-5.199198e-39
224	0x80527eb8	-7.575969e-39
225	0x808c5ae5	-1.2889576e-38
226	0x8031b71c	-4.565627e-39
227	0x00778c16	1.0978677e-38
228	0x80859688	-1.2268121e-38
229	0x80831bbf	-1.2040403e-38
230	0x80521274	-7.53713e-39
231	0x807fdb77	-1.1741837e-38
232	0x80b99b5f	-1.7045303e-38
233	0x004cf173	7.066113e-39
234	0x004229d0	6.076142e-39
235	0x80681ef6	-9.561998e-39
236	0x00a2da17	1.4955586e-38
237	0x0049f496	6.791732e-39
238	0x005f44e7	8.74909e-39
239	0x80303c77	-4.429795e-39
240	0x80b2f183	-1.6433356e-38
241	0x00710dd3	1.038237e-38
242	0x00215d81	3.064114e-39
243	0x804aac22	-6.857576e-39
244	0x80138072	-1.790952e-39
245	0x8058a1b7	-8.139536e-39
246	0x8012fada	-1.743028e-39
247	0x002a87ee	3.905853e-39
248	0x0011bde9	1.62933e-39
249	0x805e884b	-8.68143e-39
250	0x807febf7	-1.1747756e-38
251	0x80a074c9	-1.4735574e-38
252	0x8050c189	-7.416267e-39
253	0x80399562	-5.288212e-39
254	0x0063baf4	9.15878e-39
255	0x003ac487	5.39696e-39

mlp.mlp.0.bias f4 [64]
0	0x0006c435	6.21399e-40
1	0x80c6e3b3	-1.8265111e-38
2	0x007dbdfb	1.1547589e-38
3	0x0b404880	3.7032398e-32
4	0x80db4003	-2.0134937e-38
5	0x007e5223	1.1600738e-38
6	0x8098bb0d	-1.4026097e-38
7	0x80384035	-5.165821e-39
8	0x00950855	1.3686478e-38
9	0x804e00b4	-7.163421e-39
10	0x0046db7f	6.507225e-39
11	0x804a4827	-6.82171e-39
12	0x805d855e	-8.588544e-39
13	0x34bddbb8	3.536386e-07
14	0x00ae532d	1.6009214e-38
15	0x003bc67e	5.4895e-39
16	0x0021fa6c	3.120406e-39
17	0xb46624aa	-2.1433758e-07
18	0x80cc54d0	-1.8764866e-38
19	0x803f415e	-5.809086e-39
20	0x00d420f7	1.9480951e-38
21	0x0041bf77	6.037992e-39
22	0x00281d5c	3.683952e-39
23	0x80d72422	-1.9757594e-38
24	0x8094cf74	-1.3666074e-38
25	0x8040a2f5	-5.93593e-39
26	0x0015ada0	1.99083e-39
27	0x80b7afac	-1.6868915e-38
28	0x807b77b9	-1.1338714e-38
29	0x00c05c60	1.7665553e-38
30	0x32c51879	2.2944947e-08
31	0xb502a7cc	-4.867295e-07
32	0xb463dd1f	-2.1221466e-07
33	0x809969a3	-1.4088726e-38
34	0xb513102b	-5.4785295e-07
35	0x802bdcf3	-4.028188e-39
36	0x8027e0e8	-3.662266e-39
37	0x80c7073c	-1.8277859e-38
38	0x000dd394	1.269761e-39
39	0x80ac95a4	-1.5849386e-38
40	0x352f23f3	6.5244893e-07
41	0x00791f48	1.1123317e-38
42	0x32931090	1.7120584e-08
43	0x8041dee4	-6.049265e-39
44	0x00747aec	1.0697014e-38
45	0xafcfc658	-3.7794012e-10
46	0x803235c6	-4.611065e-39
47	0x31d04f2f	6.062599e-09
48	0x00438b60	6.202977e-39
49	0x00b854a2	1.6928092e-38
50	0x88549285	-6.396866e-34
51	0xb3babdf6	-8.6958536e-08
52	0x805e9fb2	-8.689825e-39
53	0x80b9bea0	-1.705795e-38
54	0x808387b5	-1.2079133e-38
55	0x00d74fa6	1.9773204e-38
56	0x007d84d1	1.1527083e-38
57	0xb527e3f9	-6.254409e-07
58	0x807e0039	-1.1571352e-38
59	0x004408f3	6.248024e-39
60	0x807119d2	-1.0386674e-38
61	0x803a9c0c	-5.382438e-39
62	0x80abe292	-1.5785148e-38
63	0x0041c910	6.041435e-39

mlp.mlp.1.weight f4 [64]
0	0x804b4377	-6.911864e-39
1	0x807da728	-1.1539401e-38
2	0x8041e407	-6.051108e-39
3	0x13eea441	6.0241613e-27
4	0x0092643f	1.3443944e-38
5	0x00468833	6.477344e-39
6	0x806db522	-1.0075047e-38
7	0x004a0c25	6.800183e-39
8	0x8021043b	-3.032089e-39
9	0x0027dd07	3.660874e-39
10	0x00a32f87	1.4986235e-38
11	0x0072980a	1.0523788e-38
12	0x8027c492	-3.6521e-39
13	0x3d20a4e4	0.039219752
14	0x80196dbd	-2.335254e-39
15	0x00683b10	9.572079e-39
16	0x0083ada2	1.2092738e-38
17	0x3d37956c	0.044820234
18	0x0059ca26	8.245876e-39
19	0x809e46ab	-1.4535359e-38
20	0x803c565d	-5.541111e-39
21	0x003ad998	5.404517e-39
22	0x00715352	1.0407301e-38
23	0x00090dad	8.31425e-40
24	0x807ef3d1	-1.1658737e-38
25	0x004731c2	6.53817e-39
26	0x00864bf8	1.2333209e-38
27	0x004da843	7.131694e-39
28	0x0003e81d	3.58773e-40
29	0x804fac48	-7.316807e-39
30	0x3d28289d	0.041054357
31	0x3d388187	0.045045402
32	0x3d2e0601	0.042486195
33	0x00319400	4.553032e-39
34	0x3d422d0b	0.047406238
35	0x000d3ff0	1.216798e-39
36	0x8035b4dd	-4.932163e-39
37	0x809cf56c	-1.4414378e-38
38	0x8048a172	-6.670071e-39
39	0x80232d56	-3.230506e-39
40	0x3d3ffe87	0.046873596
41	0x007f196d	1.1672229e-38
42	0x3d3087d1	0.043098275
43	0x0082b5c1	1.2003816e-38
44	0x0040d4e2	5.95384e-39
45	0x3791ea20	1.739437e-05
46	0x0065077e	9.278073e-39
47	0x3d2be5f8	0.041967362
48	0x00775a66	1.0960853e-38
49	0x80711e6c	-1.0388324e-38
50	0x90a1f095	-6.387398e-29
51	0x3d37ccd7	0.044873085
52	0x8038ed8d	-5.228005e-39
53	0x803ecc36	-5.767058e-39
54	0x00311df5	4.510686e-39
55	0x805657c9	-7.929344e-39
56	0x002e0e3d	4.22954e-39
57	0x3d4a8f75	0.049453218
58	0x8049c9f0	-6.776433e-39
59	0x004507f2	6.3395e-39
60	0x0019c5b4	2.36681e-39
61	0x8012303e	-1.670345e-39
62	0x002573e7	3.439491e-39
63	0x0094d273	1.3667148e-38

mlp.mlp.1.bias f4 [64]
0	0x80a5644f	-1.5188841e-38
1	0x004e8429	7.210579e-39
2	0x8047ff1a	-6.611833e-39
3	0x9316b54d	-1.902205e-27
4	0x807f19c7	-1.1672355e-38
5	0x00611e99	8.91902e-39
6	0x8030c6a7	-4.479367e-39
7	0x8090ddbe	-1.3303858e-38
8	0x001a9df7	2.44439e-39
9	0x0036c728	5.03056e-39
10	0x00572225	8.001937e-39
11	0x005ecc30	8.705785e-39
12	0x00398909	5.283782e-39
13	0x3cacb7da	0.021083761
14	0x00864215	1.2329662e-38
15	0x0088d5ba	1.2566298e-38
16	0x806b77b3	-9.869338e-39
17	0x3ce6c540	0.028170228
18	0x80756d27	-1.078391e-38
19	0x00ab8802	1.575266e-38
20	0x801d1727	-2.671535e-39
21	0x004f5dfb	7.288718e-39
22	0x006c06a5	9.920617e-39
23	0x807863c1	-1.1056044e-38
24	0x001ce6c1	2.654173e-39
25	0x8043c937	-6.22516e-39
26	0x0083f5f0	1.2118676e-38
27	0x0099e7e3	1.4134016e-38
28	0x80879c9e	-1.2453976e-38
29	0x800627e4	-5.65323e-40
30	0x3cd8102b	0.026374897
31	0x3cd31eaf	0.025771467
32	0x3cd2b5b3	0.025721407
33	0x008407ce	1.2125085e-38
34	0x3cdd8651	0.027041586
35	0x007b9997	1.1350864e-38
36	0x80a1e0e4	-1.486619e-38
37	0x0072ab2f	1.0530656e-38
38	0x80a131eb	-1.4803422e-38
39	0x00a3c482	1.503968e-38
40	0x3cd71e67	0.026259614
41	0x00787148	1.1060897e-38
42	0x3cd2c02e	0.025726404
43	0x005e7da3	8.677607e-39
44	0x004c53f0	7.009609e-39
45	0xb64be98e	-3.0385304e-06
46	0x800ff171	-1.464145e-39
47	0x3cdde196	0.027085107
48	0x804880ed	-6.658406e-39
49	0x8091b181	-1.3379823e-38
50	0x909707fa	-5.957129e-29
51	0x3cde13e0	0.027109087
52	0x800291b4	-2.3594e-40
53	0x80b55baa	-1.6655108e-38
54	0x00a9bcfa	1.5587991e-38
55	0x80831ac5	-1.2040053e-38
56	0x000ae8e9	1.001907e-39
57	0x3d04daa0	0.03243506
58	0x007208ce	1.0472405e-38
59	0x0056c734	7.969313e-39
60	0x006061c2	8.851277e-39
61	0x008b2c3f	1.2781006e-38
62	0x001ca25b	2.629636e-39
63	0x004d7f10	7.116915e-39

mlp.mlp.1.running_mean f4 [64]
0	0x004b0875	6.890696e-39
1	0x0006ba76	6.17903e-40
2	0x8057df9c	-8.069904e-39
3	0x9022ad14	-3.20822e-29
4	0x800c8484	-1.149564e-39
5	0x0000a506	5.9199e-41
6	0x8029dcef	-3.844511e-39
7	0x00322f1d	4.608676e-39
8	0x0009b4eb	8.9142e-40
9	0x80049489	-4.20626e-40
10	0x8040578f	-5.908882e-39
11	0x801a0d53	-2.392503e-39
12	0x002361a5	3.24927e-39
13	0xbc2bdfda	-0.010490382
14	0x003dbbb9	5.669307e-39
15	0x8064bc79	-9.251161e-39
16	0x804b145b	-6.894964e-39
17	0xbc4a3001	-0.012340547
18	0x8039c01c	-5.303539e-39
19	0x802f986e	-4.37095e-39
20	0x800131bf	-1.09681e-40
21	0x005e6e11	8.672021e-39
22	0x801d0d0b	-2.667908e-39
23	0x800ff1f7	-1.464333e-39
24	0x00134ff5	1.773558e-39
25	0x8046f3a5	-6.515888e-39
26	0x80339882	-4.73832e-39
27	0x000c0876	1.105061e-39
28	0x0051e4b6	7.520721e-39
29	0x800b06d4	-1.01264e-39
30	0xbc383fcb	-0.011245678
31	0xbc3a8028	-0.011383094
32	0xbc377b60	-0.0111988485
33	0x0028dddb	3.753007e-39
34	0xbc396f32	-0.011318015
35	0x800e7aee	-1.329796e-39
36	0x00225869	3.154122e-39
37	0x800002cd	-1.005e-42
38	0x801f94bb	-2.900255e-39
39	0x00368b34	5.009053e-39
40	0xbc415deb	-0.011802177
41	0x002c3cf9	4.062635e-39
42	0xbc4134dc	-0.011792388
43	0x002e3e98	4.246887e-39
44	0x00143aae	1.85776e-39
45	0x35255ba8	6.160067e-07
46	0x000de1b3	1.274827e-39
47	0xbc314e84	-0.010821942
48	0x805a363a	-8.284647e-39
49	0x005ab88b	8.331396e-39
50	0x8de53a5e	-1.4127266e-30
51	0xbc37785c	-0.0111981295
52	0x0026e854	3.573092e-39
53	0x803ecadb	-5.766572e-39
54	0x803d6690	-5.638758e-39
55	0x00071722	6.51147e-40
56	0x00223f0b	3.145022e-39
57	0xbc4e1f48	-0.0125807
58	0x005bf6b0	8.445525e-39
59	0x0056054f	7.899757e-39
60	0x805d497b	-8.567061e-39
61	0x0045dd30	6.415996e-39
62	0x001e0b3e	2.759098e-39
63	0x000b788b	1.053433e-39

mlp.mlp.1.running_var f4 [64]
0	0x00000004	6e-45
1	0x00000004	6e-45
2	0x00000004	6e-45
3	0x00000004	6e-45
4	0x00000004	6e-45
5	0x00000004	6e-45
6	0x00000004	6e-45
7	0x00000004	6e-45
8	0x00000004	6e-45
9	0x00000004	6e-45
10	0x00000004	6e-45
11	0x00000004	6e-45
12	0x00000004	6e-45
13	0x3728f9c7	1.0071736e-05
14	0x00000004	6e-45
15	0x00000004	6e-45
16	0x00000004	6e-45
17	0x375ae336	1.3046714e-05
18	0x00000004	6e-45
19	0x00000004	6e-45
20	0x00000004	6e-45
21	0x00000004	6e-45
22	0x00000004	6e-45
23	0x00000004	6e-45
24	0x00000004	6e-45
25	0x00000004	6e-45
26	0x00000004	6e-45
27	0x00000004	6e-45
28	0x00000004	6e-45
29	0x00000004	6e-45
30	0x373c6eca	1.1231468e-05
31	0x373f8f89	1.14179065e-05
32	0x37360a57	1.0850453e-05
33	0x00000004	6e-45
34	0x373be4c5	1.1199333e-05
35	0x00000004	6e-45
36	0x00000004	6e-45
37	0x00000004	6e-45
38	0x00000004	6e-45
39	0x00000004	6e-45
40	0x374f2448	1.2346609e-05
41	0x00000004	6e-45
42	0x3749df9b	1.2032596e-05
43	0x00000004	6e-45
44	0x00000004	6e-45
45	0x2dd209a2	2.3878514e-11
46	0x00000004	6e-45
47	0x372f2116	1.0438516e-05
48	0x00000004	6e-45
49	0x00000004	6e-45
50	0x00000004	6e-45
51	0x37389633	1.1002226e-05
52	0x00000004	6e-45
53	0x00000004	6e-45
54	0x00000004	6e-45
55	0x00000004	6e-45
56	0x00000004	6e-45
57	0x376018d7	1.3357224e-05
58	0x00000004	6e-45
59	0x00000004	6e-45
60	0x00000004	6e-45
61	0x00000004	6e-45
62	0x00000004	6e-45
63	0x00000004	6e-45

mlp.mlp.4.weight f4 [64, 64]
0	0x007a9723	1.1258148e-38
1	0x8060b079	-8.879514e-39
2	0x00397303	5.275882e-39
3	0x121592c2	4.7197003e-28
4	0x0053fddf	7.713418e-39
5	0x00075773	6.7422e-40
6	0x007ee052	1.1651743e-38
7	0x00630015	9.091744e-39
8	0x808faa0e	-1.319348e-38
9	0x0016d04c	2.095104e-39
10	0x802d1fae	-4.143962e-39
11	0x80038780	-3.24115e-40
12	0x00a0bf51	1.4762311e-38
13	0x3b9b2027	0.0047340575
14	0x007a1be1	1.1213932e-38
15	0x803b3260	-5.436365e-39
16	0x006d4197	1.0033598e-38
17	0x3bcbccf2	0.0062194997
18	0x0074acbb	1.0714882e-38
19	0x0031954f	4.553501e-39
20	0x804d62bb	-7.106751e-39
21	0x0035a10f	4.925058e-39
22	0x808a5372	-1.2703233e-38
23	0x00474671	6.54559e-39
24	0x800b01c9	-1.010831e-39
25	0x801d0056	-2.66335e-39
26	0x0099a3ae	1.4109548e-38
27	0x806d1980	-1.0019217e-38
28	0x0077aff8	1.099155e-38
29	0x005e6445	8.668507e-39
30	0x3bce369b	0.0062931306
31	0x3bee56e7	0.007273543
32	0x3bbdc394	0.005791137
33	0x80706e9c	-1.0325255e-38
34	0x3bdfdbf9	0.0068316427
35	0x800a9645	-9.72262e-40
36	0x00478a78	6.569993e-39
37	0x80a53146	-1.5170533e-38
38	0x80c8a565	-1.8426432e-38
39	0x002f9299	4.368858e-39
40	0x3bd5f6d4	0.0065296683
41	0x808e1fc1	-1.3052032e-38
42	0x3bc9c261	0.006157205
43	0x0068cd98	9.624645e-39
44	0x807ae43a	-1.1285803e-38
45	0xb5d0aa66	-1.55468e-06
46	0x804868e6	-6.649786e-39
47	0x3bd3bdbd	0.0064618276
48	0x002deff1	4.218672e-39
49	0x00beec1f	1.7533449e-38
50	0x0d82428a	8.027887e-31
51	0x3be666b1	0.0070312847
52	0x800473a5	-4.08827e-40
53	0x80068c01	-6.01237e-40
54	0x808eeb31	-1.3125011e-38
55	0x00122e84	1.669726e-39
56	0x002859c8	3.705627e-39
57	0x3be53809	0.0069952053
58	0x80752882	-1.0759285e-38
59	0x80767383	-1.0878026e-38
60	0x00ab8118	1.575018e-38
61	0x0009dde1	9.06115e-40
62	0x800004ff	-1.792e-42
63	0x80bccf82	-1.7339513e-38
64	0x808a1096	-1.2679248e-38
65	0x00708d29	1.0336214e-38
66	0x000bf3b2	1.097612e-39
67	0x1071cf67	4.7688646e-29
68	0x807863a8	-1.105601e-38
69	0x8022ad3c	-3.184552e-39
70	0x0055eea5	7.891627e-39
71	0x8019628d	-2.331241e-39
72	0x8081bdac	-1.191482e-38
73	0x80281061	-3.679295e-39
74	0x003591be	4.919564e-39
75	0x0046b861	6.494627e-39
76	0x007418bb	1.0661789e-38
77	0x3bac5fcf	0.0052604447
78	0x809b3466	-1.4253299e-38
79	0x80840b97	-1.2126443e-38
80	0x001e92df	2.807752e-39
81	0x3babc97e	0.0052425256
82	0x002e5d1d	4.257836e-39
83	0x006bf1e7	9.913176e-39
84	0x805db41f	-8.605316e-39
85	0x80679b76	-9.514825e-39
86	0x802574a6	-3.439759e-39
87	0x0041a085	6.026891e-39
88	0x001b9792	2.533932e-39
89	0x807a2e8d	-1.122063e-38
90	0x003ec34a	5.763857e-39
91	0x004b31e9	6.905567e-39
92	0x002920f8	3.777082e-39
93	0x006cc078	9.987278e-39
94	0x3bbe3897	0.005805086
95	0x3bbcd428	0.0057625957
96	0x3bb4846c	0.00550895
97	0x00581753	8.089891e-39
98	0x3bd0c127	0.006370682
99	0x807cda04	-1.1465811e-38
100	0x80734f5f	-1.0589555e-38
101	0x80906042	-1.3258842e-38
102	0x00596f01	8.21318e-39
103	0x0076e762	1.0919593e-38
104	0x3baf15e0	0.005343184
105	0x80404919	-5.903694e-39
106	0x3bd47141	0.0064832275
107	0x804347cc	-6.178734e-39
108	0x80288d63	-3.72414e-39
109	0xb5db9170	-1.6359099e-06
110	0x80497e31	-6.74926e-39
111	0x3bb27eb0	0.0054472312
112	0x805b12e7	-8.363811e-39
113	0x8035c9ae	-4.93963e-39
114	0x8d4d9b72	-6.3357613e-31
115	0x3bcfe8c0	0.0063448846
116	0x8006723d	-5.91994e-40
117	0x80687d91	-9.595936e-39
118	0x0044bbdc	6.312205e-39
119	0x8031f4cc	-4.587756e-39
120	0x003e11f6	5.700244e-39
121	0x3be1285d	0.0068712668
122	0x001b66f8	2.516497e-39
123	0x0060bc80	8.883829e-39
124	0x0012092f	1.656333e-39
125	0x008c15bb	1.2864765e-38
126	0x007f40fd	1.1686421e-38
127	0x8061ced7	-8.982243e-39
128	0x003658b9	4.990944e-39
129	0x8079277c	-1.112626e-38
130	0x00303446	4.426856e-39
131	0x8044e861	-6.328176e-39
132	0x007b6628	1.1332413e-38
133	0x802e4b08	-4.251349e-39
134	0x800978e2	-8.69884e-40
135	0x0013b6fd	1.810518e-39
136	0x0018bb97	2.271346e-39
137	0x806a899f	-9.783932e-39
138	0x802d713e	-4.173221e-39
139	0x805946af	-8.198716e-39
140	0x80174b40	-2.139211e-39
141	0x002d5642	4.163541e-39
142	0x00773ffc	1.0951377e-38
143	0x8037fc56	-5.141473e-39
144	0x008293da	1.1991654e-38
145	0x803ce6f4	-5.59298e-39
146	0x803d45f0	-5.627054e-39
147	0x8074fe4e	-1.0744145e-38
148	0x002c89ef	4.090243e-39
149	0x8084188f	-1.2131095e-38
150	0x004b0de8	6.892651e-39
151	0x007ce5c8	1.1470032e-38
152	0x0077cabd	1.1001153e-38
153	0x00408fbd	5.929035e-39
154	0x806973b3	-9.684232e-39
155	0x803119b0	-4.509154e-39
156	0x8041ec34	-6.054041e-39
157	0x0073af41	1.0623951e-38
158	0x005945a1	8.198337e-39
159	0x80247c37	-3.350638e-39
160	0x006819bc	9.560123e-39
161	0x809afa0e	-1.4232369e-38
162	0x807dde7c	-1.155925e-38
163	0x00644df9	9.211521e-39
164	0x00504c57	7.374225e-39
165	0x00550fbe	7.811664e-39
166	0x005964d8	8.209535e-39
167	0x0038d1fc	5.218116e-39
168	0x80066568	-5.8739e-40
169	0x005c5205	8.478289e-39
170	0x003c96c0	5.564209e-39
171	0x0049126d	6.710601e-39
172	0x801a3626	-2.407148e-39
173	0x802bfc6a	-4.039475e-39
174	0x8015fdc6	-2.019582e-39
175	0x002f8702	4.3647e-39
176	0x805a7f3e	-8.31084e-39
177	0x8011540c	-1.591354e-39
178	0x8083d7d4	-1.2107875e-38
179	0x8008cd61	-8.0836e-40
180	0x001ddee0	2.743182e-39
181	0x8025f59f	-3.486026e-39
182	0x008b1133	1.2771304e-38
183	0x8049e2e2	-6.785381e-39
184	0x80256f8d	-3.43793e-39
185	0x008fa606	1.3192034e-38
186	0x80377b32	-5.095146e-39
187	0x00726bb0	1.0507878e-38
188	0x802b8a71	-3.99859e-39
189	0x808ff505	-1.3220372e-38
190	0x0031df62	4.580074e-39
191	0x8033cf69	-4.758015e-39
192	0x0051cf98	7.513146e-39
193	0x8015b0e9	-1.992009e-39
194	0x00403451	5.89624e-39
195	0x11e8dfb0	3.6741004e-28
196	0x006cbf48	9.986852e-39
197	0x002fd508	4.39269e-39
198	0x805ab970	-8.331717e-39
199	0x802a81ae	-3.903611e-39
200	0x805a4e46	-8.293274e-39
201	0x8071231e	-1.0390009e-38
202	0x00858499	1.2261688e-38
203	0x004ffa5b	7.344815e-39
204	0x808d68e3	-1.2986431e-38
205	0x3ba7e938	0.0051242374
206	0x809afd7e	-1.4233602e-38
207	0x006cedff	1.000361e-38
208	0x804ede72	-7.242967e-39
209	0x3bd7812a	0.006576677
210	0x8059064c	-8.175618e-39
211	0x80931dcb	-1.3510506e-38
212	0x0003577f	3.06894e-40
213	0x8045889b	-6.385654e-39
214	0x003e310a	5.711393e-39
215	0x8048d6a8	-6.68916e-39
216	0x0037e3a2	5.132612e-39
217	0x80590f7e	-8.178917e-39
218	0x808be884	-1.2848545e-38
219	0x00657cd2	9.320162e-39
220	0x00705688	1.0316617e-38
221	0x8086ff45	-1.239753e-38
222	0x3bbe2e47	0.0058038565
223	0x3bddb095	0.006765435
224	0x3bc5c1e5	0.006035077
225	0x0017376e	2.132101e-39
226	0x3bf8a196	0.007587622
227	0x001d9d23	2.7196e-39
228	0x00345411	4.805603e-39
229	0x00784cc7	1.1047802e-38
230	0x8032f173	-4.67839e-39
231	0x003fd395	5.861538e-39
232	0x3bd11cb1	0.006381594
233	0x803ff023	-5.871781e-39
234	0x3bcc8f85	0.006242695
235	0x80102d68	-1.485657e-39
236	0x0053b437	7.686995e-39
237	0xb60cf850	-2.1006163e-06
238	0x000da061	1.251395e-39
239	0x3bd0555c	0.006357832
240	0x802f45c2	-4.341293e-39
241	0x8026e0fb	-3.570457e-39
242	0x8f7d236d	-1.2480686e-29
243	0x3be6f34a	0.0070480453
244	0x00a74b89	1.5363625e-38
245	0x805891da	-8.133845e-39
246	0x80696019	-9.6772e-39
247	0x801a639d	-2.423457e-39
248	0x000ac2fe	9.88305e-40
249	0x3bf2f5c8	0.0074145533
250	0x003283fc	4.639122e-39
251	0x802df29a	-4.219626e-39
252	0x8081dd0f	-1.192608e-38
253	0x80882e8f	-1.250633e-38
254	0x80654c34	-9.302722e-39
255	0x802a07cc	-3.859888e-39

mlp.mlp.4.bias f4 [64]
0	0xb3a83ba7	-7.83396e-08
1	0xb2aed6e8	-2.0353994e-08
2	0x010c18d6	2.5731758e-38
3	0x3321e59d	3.7694566e-08
4	0xb4527f48	-1.9604079e-07
5	0x33e00c38	1.04330354e-07
6	0xb4916926	-2.708486e-07
7	0x2f077b6c	1.2322027e-10
8	0xb43d01cd	-1.7602652e-07
9	0xb497d390	-2.8279874e-07
10	0xb3eab663	-1.092965e-07
11	0xb314f95a	-3.468572e-08
12	0x3259d7bf	1.2680117e-08
13	0xb3b7fd90	-8.567724e-08
14	0xb4513c06	-1.9486478e-07
15	0x80badde5	-1.7161003e-38
16	0x349e3748	2.9470016e-07
17	0xb22a8269	-9.924954e-09
18	0x33d53f85	9.9301396e-08
19	0x33bef6a8	8.892431e-08
20	0x3339ea8b	4.3286985e-08
21	0xb499caa7	-2.864592e-07
22	0xb2dece6c	-2.5938071e-08
23	0xb393f1a6	-6.8891765e-08
24	0x31b97851	5.397887e-09
25	0x33845dfd	6.1638254e-08
26	0x3433d246	1.6747171e-07
27	0x34349854	1.6819223e-07
28	0xb3bdffd4	-8.847533e-08
29	0x348f04f4	2.663943e-07
30	0xb1d9e7b7	-6.341874e-09
31	0x3340ca3b	4.488741e-08
32	0x815cd5f0	-4.056111e-38
33	0x80c28e77	-1.7867193e-38
34	0x310a85d0	2.0157707e-09
35	0xb3e6cffb	-1.0748041e-07
36	0x338840e0	6.344794e-08
37	0x349b9c49	2.8984712e-07
38	0x34083fbc	1.2689173e-07
39	0xb3729a67	-5.6485444e-08
40	0x334d636a	4.78207e-08
41	0x32d9592f	2.530268e-08
42	0xb2cfc82b	-2.4188997e-08
43	0xb3ea8069	-1.0919832e-07
44	0x3405e821	1.2471038e-07
45	0x343e64c6	1.773179e-07
46	0x332b97d2	3.995212e-08
47	0xb30c5ebb	-3.2682447e-08
48	0x347e89ad	2.370568e-07
49	0x33e649c5	1.0723628e-07
50	0x33c68f1f	9.246127e-08
51	0xb4cb0896	-3.7817944e-07
52	0xb33ee7db	-4.4448694e-08
53	0xb2158b76	-8.704651e-09
54	0x3351f128	4.8880935e-08
55	0x32d0ed15	2.43222e-08
56	0xb456c5e2	-2.0002292e-07
57	0xb5198e28	-5.7203806e-07
58	0x3319656a	3.5715324e-08
59	0x331d8502	3.667538e-08
60	0x33466455	4.619172e-08
61	0x33a0fc6f	7.496498e-08
62	0xb294eef0	-1.7338124e-08
63	0x33cec2e0	9.62807e-08

mlp.mlp.5.weight f4 [64]
0	0x3cd1c075	0.025604466
1	0x3cbb92f1	0.022897216
2	0x00386f3f	5.182695e-39
3	0x3cde8a06	0.027165424
4	0x3cd8c7fd	0.02646255
5	0x3ce92a15	0.02846245
6	0x3cd686b2	0.026187275
7	0x3cf5f482	0.030023817
8	0x3cfa103b	0.030525317
9	0x3cf05d4c	0.029341362
10	0x3cf75d56	0.030195873
11	0x3cee0e68	0.029059604
12	0x3ce55ef7	0.027999384
13	0x3cd02caa	0.025411922
14	0x3cd49d37	0.025953872
15	0x8067e521	-9.541252e-39
16	0x3cd21f6c	0.025649749
17	0x3cf9792b	0.030453285
18	0x3ce5256a	0.027971942
19	0x3ce53501	0.027979376
20	0x3ce4df18	0.02793841
21	0x3ce10550	0.027468354
22	0x3ce7f51e	0.028315123
23	0x3cf306ae	0.029666271
24	0x3d07a452	0.033115692
25	0x3ceacefb	0.02866315
26	0x3ce3198d	0.027722144
27	0x3cd9bf77	0.026580555
28	0x3cd68c6a	0.026190002
29	0x3cd73be1	0.02627367
30	0x3ce6b908	0.028164402
31	0x3cee8ebd	0.029120797
32	0x80524321	-7.554592e-39
33	0x8059ebc8	-8.257942e-39
34	0x3ce9a8bc	0.028522842
35	0x3cee2297	0.029069228
36	0x3ce6a68f	0.028155593
37	0x3ce3259b	0.027727893
38	0x3cd6a5a3	0.026202029
39	0x3cd572fa	0.026055802
40	0x3cf81de4	0.03028769
41	0x3cdc485e	0.026889976
42	0x3d01d051	0.031692807
43	0x3cc2cdef	0.023779837
44	0x3cfd28f5	0.030903319
45	0x3ceb529c	0.028725915
46	0x3ccb3641	0.024806144
47	0x3cd395a6	0.025828194
48	0x3ce38ed9	0.027778076
49	0x3cdd9a5d	0.027051145
50	0x3cee6fe2	0.029106084
51	0x3ccbf7ec	0.024898492
52	0x3cf36879	0.029712902
53	0x3cfb1ee1	0.030654373
54	0x3ce0762d	0.0274001
55	0x3cf12edc	0.02944129
56	0x3ccf3395	0.02529315
57	0x3cc3f197	0.02391891
58	0x3ce8a4fe	0.028398987
59	0x3ce1946b	0.027536592
60	0x3ce96b59	0.02849357
61	0x3cd20af5	0.02563999
62	0x3cfa5c1e	0.030561503
63	0x3cd8b613	0.026454007

mlp.mlp.5.bias f4 [64]
0	0x3e704f15	0.23467667
1	0x3e626aff	0.22111128
2	0x3e53c754	0.20681506
3	0x3e731e4c	0.23742026
4	0x3e715c1d	0.23570295
5	0x3e7530c6	0.23944387
6	0x3e70809b	0.23486559
7	0x3e765f9e	0.24059913
8	0x3e74f3d0	0.23921132
9	0x3e71ca45	0.23612316
10	0x3e7596f2	0.23983362
11	0x3e73a24e	0.23792383
12	0x3e6f5949	0.23373903
13	0x3e6de29f	0.2323098
14	0x3e718a05	0.23587807
15	0x3e49dac3	0.19712357
16	0x3e6fc1c5	0.23413761
17	0x3e763098	0.24041975
18	0x3e723967	0.2365471
19	0x3e660704	0.22463614
20	0x3e732724	0.237454
21	0x3e74e7f8	0.23916614
22	0x3e726d7f	0.23674582
23	0x3e752578	0.23940074
24	0x3e77ad65	0.24187239
25	0x3e752f3f	0.23943804
26	0x3e70b352	0.23505905
27	0x3e713b94	0.23557884
28	0x3e6d1c88	0.23155415
29	0x3e70f231	0.23529889
30	0x3e741eb2	0.23839834
31	0x3e6ec996	0.23319086
32	0x3e4e58b9	0.20151033
33	0x3e50d93b	0.20395367
34	0x3e6deaca	0.23234096
35	0x3e726ef0	0.23675132
36	0x3e6d9c35	0.2320412
37	0x3e6fbf07	0.23412715
38	0x3e729bf0	0.23692298
39	0x3e6f910a	0.23395172
40	0x3e77dc92	0.24205235
41	0x3e72584d	0.23666497
42	0x3e734541	0.23756887
43	0x3e6cba8d	0.23118038
44	0x3e729969	0.23691334
45	0x3e700ef4	0.23443204
46	0x3e69aa12	0.22818783
47	0x3e6f8528	0.23390639
48	0x3e6fa4ce	0.23402712
49	0x3e714666	0.23562011
50	0x3e723183	0.236517
51	0x3e70f2bd	0.23530097
52	0x3e733682	0.23751262
53	0x3e7332ac	0.23749799
54	0x3e6d0fe9	0.231506
55	0x3e71a104	0.23596579
56	0x3e6ef9b2	0.23337439
57	0x3e6c6da0	0.23088694
58	0x3e714506	0.23561487
59	0x3e736780	0.23769951
60	0x3e76dedd	0.24108453
61	0x3e693d7d	0.22777362
62	0x3e7314f2	0.23738459
63	0x3e71f87e	0.23629948

mlp.mlp.5.running_mean f4 [64]
0	0x3b00f736	0.00196786
1	0x3ae7006b	0.0017624026
2	0x008fc4a4	1.3203017e-38
3	0x3b04a330	0.002023887
4	0x3b067139	0.0020514263
5	0x3b08098d	0.0020757646
6	0x3b02bcb4	0.0019948902
7	0x3b08ffff	0.0020904539
8	0x3b099416	0.0020992807
9	0x3b040eed	0.0020150498
10	0x3b06f5e2	0.0020593335
11	0x3b069f29	0.0020541644
12	0x3afaca35	0.0019133749
13	0x3b028dec	0.0019921018
14	0x3b063407	0.0020477788
15	0x800b4381	-1.034406e-39
16	0x3b03ea47	0.0020128654
17	0x3b0f67a7	0.002188185
18	0x3b05d9b4	0.002042395
19	0x3b044455	0.002018233
20	0x3b059fd3	0.0020389452
21	0x3b07f654	0.0020746188
22	0x3b059f5d	0.0020389177
23	0x3b0a01e6	0.002105826
24	0x3b0b5723	0.0021261654
25	0x3b0a4317	0.0021097118
26	0x3b000ebe	0.0019540037
27	0x3b07bf0e	0.0020713243
28	0x3b02a79e	0.0019936333
29	0x3b04b8ae	0.002025168
30	0x3b08a315	0.0020849158
31	0x3b07286a	0.0020623454
32	0x806c5a27	-9.950574e-39
33	0x80186487	-2.240114e-39
34	0x3afaeb04	0.0019143526
35	0x3b041d72	0.0020159152
36	0x3b01695b	0.0019746635
37	0x3b0690c3	0.0020533062
38	0x3afecfdf	0.0019440613
39	0x3afb79eb	0.0019186115
40	0x3b0a2e49	0.0021084717
41	0x3b040f10	0.002015058
42	0x3b059fcd	0.0020389438
43	0x3afb5b8f	0.0019177067
44	0x3b094ec9	0.00209515
45	0x3b050728	0.0020298455
46	0x3afc65ea	0.0019256447
47	0x3b00bbd6	0.001964321
48	0x3b05025c	0.0020295596
49	0x3b04a2b5	0.0020238583
50	0x3b064f73	0.0020494133
51	0x3b004454	0.0019571977
52	0x3b0a32bf	0.0021087376
53	0x3b0a05f5	0.002106068
54	0x3b0350c0	0.0020037144
55	0x3b0b5a86	0.0021263673
56	0x3b02b514	0.0019944357
57	0x3af8f2c8	0.0018993253
58	0x3b06ddcf	0.0020578986
59	0x3b070e81	0.002060801
60	0x3b08387d	0.0020785623
61	0x3af634b9	0.0018784023
62	0x3b0a85cc	0.0021136878
63	0x3b057e3a	0.0020369426

mlp.mlp.5.running_var f4 [64]
0	0x36a7979e	4.9946384e-06
1	0x368659eb	4.003979e-06
2	0x00000004	6e-45
3	0x36b188c8	5.2909345e-06
4	0x36b6ce74	5.448057e-06
5	0x36b9fe5e	5.543042e-06
6	0x36abf452	5.1246398e-06
7	0x36bcbb44	5.624637e-06
8	0x36beaa97	5.6823005e-06
9	0x36afa24a	5.2342994e-06
10	0x36b7c069	5.4762245e-06
11	0x36b6ee9e	5.4518014e-06
12	0x369edc71	4.7344297e-06
13	0x36abff12	5.125891e-06
14	0x36b68c64	5.4403663e-06
15	0x00000004	6e-45
16	0x36af0a1a	5.2165824e-06
17	0x36d07684	6.21268e-06
18	0x36b43888	5.370999e-06
19	0x36b13a35	5.2817873e-06
20	0x36b3fcc2	5.3640406e-06
21	0x36ba4670	5.551432e-06
22	0x36b3f46d	5.3630706e-06
23	0x36c02507	5.7263564e-06
24	0x36c44c64	5.850148e-06
25	0x36c0462b	5.7302145e-06
26	0x36a50417	4.9178593e-06
27	0x36ba3a31	5.5500063e-06
28	0x36abe25c	5.122549e-06
29	0x36b14086	5.2825226e-06
30	0x36bc00f2	5.6029467e-06
31	0x36b836c3	5.4900024e-06
32	0x00000004	6e-45
33	0x00000004	6e-45
34	0x369eb8d3	4.7302833e-06
35	0x36b008b8	5.2462237e-06
36	0x36a8d9cc	5.032145e-06
37	0x36b658f6	5.434379e-06
38	0x36a35cdb	4.8685883e-06
39	0x369fbd3e	4.7606e-06
40	0x36c0344e	5.728135e-06
41	0x36af5fd8	5.226564e-06
42	0x36b42da1	5.36973e-06
43	0x369f4b18	4.7473113e-06
44	0x36be67b9	5.674516e-06
45	0x36b32073	5.3383933e-06
46	0x36a06025	4.7795643e-06
47	0x36a6e147	4.9734113e-06
48	0x36b26a01	5.317154e-06
49	0x36b11991	5.2779874e-06
50	0x36b6c95f	5.4474654e-06
51	0x36a62d8c	4.952488e-06
52	0x36c03d49	5.7291804e-06
53	0x36c0312c	5.7277703e-06
54	0x36ad652b	5.1675793e-06
55	0x36c42d8b	5.846557e-06
56	0x36ac17d0	5.1287716e-06
57	0x369c2625	4.653603e-06
58	0x36b753cc	5.4635802e-06
59	0x36b7c3c8	5.476617e-06
60	0x36bac962	5.566676e-06
61	0x3698c813	4.5532447e-06
62	0x36c1be37	5.773992e-06
63	0x36b3b9aa	5.35623e-06

mlp.mlp.8.weight f4 [1, 64]
0	0x3e722242	0.23645881
1	0x3e6388f7	0.22220217
2	0x3e5490a9	0.20758308
3	0x3e748647	0.23879348
4	0x3e7408ce	0.23831484
5	0x3e75e965	0.24014814
6	0x3e74293d	0.23843856
7	0x3e779082	0.24176219
8	0x3e72d01d	0.23712201
9	0x3e726166	0.23669967
10	0x3e776a21	0.24161579
11	0x3e750137	0.23926245
12	0x3e70fae0	0.23533201
13	0x3e6f8234	0.23389512
14	0x3e729ba0	0.23692179
15	0x3e487d73	0.19579105
16	0x3e706ba0	0.23478556
17	0x3e78f282	0.2431126
18	0x3e724000	0.23657227
19	0x3e676c07	0.22599803
20	0x3e749621	0.23885395
21	0x3e759840	0.2398386
22	0x3e742b17	0.23844562
23	0x3e754710	0.2395289
24	0x3e780186	0.24219331
25	0x3e7721e6	0.24134025
26	0x3e727f71	0.23681428
27	0x3e738c43	0.23783974
28	0x3e6e4887	0.23269854
29	0x3e757751	0.23971297
30	0x3e75e2f0	0.24012351
31	0x3e71b4b5	0.2360409
32	0x3e4e0f70	0.20123076
33	0x3e4f77c9	0.20260538
34	0x3e709c6a	0.23497167
35	0x3e73a50d	0.2379343
36	0x3e6eb32e	0.23310539
37	0x3e70e4e1	0.2352481
38	0x3e741825	0.23837335
39	0x3e72ca2d	0.23709936
40	0x3e7a4d6d	0.24443598
41	0x3e73b519	0.23799552
42	0x3e721067	0.2363907
43	0x3e70211b	0.23450129
44	0x3e746676	0.23867211
45	0x3e6f6418	0.23378026
46	0x3e6c803b	0.23095791
47	0x3e70c9fc	0.23514551
48	0x3e718410	0.23585534
49	0x3e72e7ba	0.23721209
50	0x3e74390e	0.2384989
51	0x3e7300d8	0.2373079
52	0x3e74d9be	0.23911187
53	0x3e7379ca	0.23776928
54	0x3e6da888	0.23208821
55	0x3e73459b	0.23757021
56	0x3e70deb6	0.23522457
57	0x3e6d73af	0.23188661
58	0x3e725e14	0.236687
59	0x3e74c903	0.23904805
60	0x3e7874e1	0.24263336
61	0x3e6b0274	0.22950155
62	0x3e75120a	0.23932663
63	0x3e74888a	0.2388021
