pretrained/model_lr_0.001/dfm_epoch_150.pt (torch, 151559 bytes, 15 tensors)

embedding.embedding.weight f4 [98, 75]
-0.03224145 -0.025257645 -0.0028199637 -0.026425907 -0.024687776 -0.010299539 -0.05296471 -0.057751685
-0.068260215 -0.021759804 -0.061362647 -0.05519547 0.008966578 0.060006447 0.0013753073 -0.117844164
-0.030201381 0.058458798 0.10236737 0.051219016 0.014450267 0.0023869497 -0.017148402 -0.09170226
-0.03917468 -0.0139791025 0.047222696 0.0035590169 0.063950464 0.041978285 0.04033858 -0.0031288767
0.052909374 0.064892024 -0.03059018 -0.025442349 0.06576438 -0.041292302 0.06311189 -0.07541175
0.010156239 -0.044654008 0.038299203 0.069985345 0.03437166 0.022361726 0.0811577 -0.048559543
-0.033884767 0.04583028 -0.016683578 0.065063655 0.088425405 -5.1435567e-05 0.0064037503 0.034725577
0.07336623 0.06041293 -0.040829793 0.07312247 0.03796696 -0.05736175 -0.0013593843 0.046797838
-0.025667196 0.029305456 -0.07279625 -0.039919112 -0.03819674 -0.017541304 0.030590855 -0.06017691
-0.031814046 0.007854704 0.045392044 -0.034780987 -0.027277978 -0.003059889 -0.028532675 -0.026665505
-0.011153981 -0.056998584 -0.062125042 -0.073375754 -0.023514174 -0.065991856 -0.05938885 0.0097109005
0.064539716 0.0014936585 -0.12648572 -0.03259074 0.062883765 0.109898336 0.055128988 0.015626669
0.0025917848 -0.018542513 -0.09847415 -0.04222084 -0.015131407 0.050847948 0.003863312 0.06876242
0.045225408 0.04346857 -0.003396712 0.05693461 0.069761045 -0.03299859 -0.02747691 0.07070271
-0.044490766 0.06786461 -0.08103054 0.011001461 -0.048090458 0.041281614 0.075222954 0.037057545
0.024150154 0.08717887 -0.052262496 -0.03654504 0.04935586 -0.018042656 0.06995201 0.094964705
-5.5779346e-05 0.0069444063 0.03744715 0.07883928 0.06497458 -0.043994036 0.07857934 0.040925004
-0.0617001 -0.00147362 0.050392188 -0.02771785 0.031628422 -0.07823298 -0.04301619 -0.04117166
-0.018970286 0.033008184 -0.06472147 -0.034321643 0.008515038 0.04888556 -0.041810106 -0.032776948
-0.0036707956 -0.034289192 -0.03204107 -0.013390763 -0.06857404 -0.07474692 -0.088299654 -0.028250793
-0.0794079 -0.0714529 0.011659505 0.07765882 0.0017908693 -0.15218663 -0.03917241 0.07566165
0.13224842 0.06631851 0.018775333 0.0031074467 -0.02227551 -0.11850887 -0.050771307 -0.0181673
0.06116398 0.0046327924 0.08274209 0.054392554 0.052272893 -0.004073417 0.068500146 0.08395655
-0.039675083 -0.033017386 0.08508172 -0.053506535 0.081662305 -0.09751629 0.013206673 -0.057847988
0.04964077 0.09052481 0.044564787 0.029027158 0.10492745 -0.06288739 -0.043935858 0.059366573
-0.02167371 0.08418011 0.1142928 -6.6958004e-05 0.0083313435 0.045022346 0.09487358 0.07818282
-0.052909594 0.09456358 0.049211223 -0.07424716 -0.0017693766 0.060614485 -0.03330859 0.03801556
-0.0941489 -0.051733457 -0.049504325 -0.022785207 0.03967756 -0.07787719 -0.041258883 0.010216839
0.058800004 -0.01095179 -0.008574803 -0.0009556135 -0.008972248 -0.008380426 -0.0034920133 -0.018022979
-0.019660303 -0.023258299 -0.007384803 -0.02089563 -0.01878561 0.003039773 0.020431476 0.00046606493
-0.040307436 -0.0102572655 0.01990208 0.03497553 0.01742682 0.0049004396 0.0008091786 -0.005817373
-0.031306013 -0.013314688 -0.00474151 0.016060924 0.001206238 0.021782331 0.01427054 0.013711458
00000000: 9c0f 04bd 1fe9 cebc 24cf 38bb 257b d8bc
00000010: 053e cabc 66bf 28bc 86f1 58bd 088d 6cbd
00000020: 03cc 8bbd 9e41 b2bc 6657 7bbd a514 62bd
00000030: 8ee8 123c 52c9 753d a843 b43a 4858 f1bd
00000040: e368 f7bc 7e72 6f3d fca5 d13d 08cb 513d
00000050: d0c0 6c3c 5f6e 1c3b ce7a 8cbc 65ce bbbd
00000060: a175 20bd 9b08 65bc 966c 413d 653e 693b
00000070: 76f8 823d 6cf1 2b3d 113a 253d d70d 4dbb
00000080: 80b7 583d 1ce6 843d 4298 fabc 796c d0bc
00000090: 7aaf 863d 1e22 29bd ce40 813d 7a71 9abd
000000a0: 5b66 263c 1fe7 36bd a0df 1c3d 7a54 8f3d
000000b0: 4cc9 0c3d f02f b73c 0236 a63d 5fe6 46bd
000000c0: c1ca 0abd 88b8 3b3d 00ac 88bc 1840 853d
000000d0: 6118 b53d 85bc 57b8 8dd6 d13b 683c 0e3d
000000e0: 0941 963d 8c73 773d 243d 27bd 3cc1 953d
000000f0: 3e83 1b3d 28f4 6abd 5e2d b2ba 17af 3f3d
00000100: 0344 d2bc ff11 f03c 3316 95bd 3982 23bd
00000110: 2f74 1cbd c8b2 8fbc ac99 fa3c 107c 76bd
00000120: 724f 02bd 04b1 003c 02ed 393d 8276 0ebd
00000130: 1176 dfbc 6b88 48bb 5bbd e9bc 9e71 dabc
00000140: 30bf 36bc 5977 69bd d476 7ebd 0746 96bd
00000150: cca0 c0bc bd26 87bd b941 73bd 781a 1f3c
00000160: 662d 843d ddc6 c33a 7985 01be de7d 05bd
00000170: 34c9 803d 6112 e13d efce 613d 8003 803c
00000180: efda 293b 78e6 97bc d1ac c9bd c2ef 2cbd
00000190: b9e9 77bc f045 503d 9f2f 7d3b 50d3 8c3d
000001a0: 473e 393d 190c 323d 5f9b 5ebb 4434 693d
000001b0: e1de 8e3d 8829 07bd 4217 e1bc 95cc 903d
000001c0: f33b 36bd 9afc 8a3d 57f3 a5bd 793f 343c
000001d0: 80fa 44bd e916 293d 7e0e 9a3d a7c9 173d
000001e0: 8bd6 c53c d68a b23d 3311 56bd 40b0 15bd
000001f0: 5f29 4a3d 31ce 93bc 0043 8f3d db7c c23d
00000200: 9ef4 69b8 e78d e33b 2f62 193d 7d76 a13d
00000210: 6511 853d 1733 34bd 34ee a03d faa0 273d
00000220: 3eb9 7cbd 7b26 c1ba 0a68 4e3d 8b10 e3bc
00000230: ce8c 013d 9d38 a0bd bf31 30bd 9da3 28bd
00000240: 9367 9bbc 9733 073d b18c 84bd da94 0cbd
00000250: a882 0b3c 3a3c 483d 1341 2bbd 1f41 06bd
00000260: bb91 70bb d372 0cbd 7f3d 03bd ee64 5bbc
00000270: 8c70 8cbd ea14 99bd 73d6 b4bd 356e e7bc
00000280: 9ca0 a2bd e655 92bd 8207 3f3c 960b 9f3d
00000290: 9abb ea3a d0d6 1bbe 4073 20bd 7ff4 9a3d
000002a0: 216c 073e 00d2 873d bace 993c 4ea6 4b3b
000002b0: 217b b6bc c7b4 f2bd 93f5 4fbd 97d3 94bc
000002c0: 1587 7a3d aece 973b af74 a93d baca 5e3d
000002d0: 1a1c 563d 4c7a 85bb ce49 8c3d 69f1 ab3d
000002e0: 5782 22bd 3d3d 07bd 533f ae3d ab29 5bbd
000002f0: 913e a73d 9fb6 c7bd cd60 583c 03f2 6cbd
00000300: 1f54 4b3d 1265 b93d 9189 363d 5dca ed3c
00000310: 34e4 d63d 1bcb 80bd 16f6 33bd 5d2a 733d
00000320: 108d b1bc 9f66 ac3d 5812 ea3d ce6b 8cb8
00000330: 3080 083c 5a69 383d 144d c23d 501e a03d
00000340: bbb7 58bd 8daa c13d b591 493d e50e 98bd
00000350: 6dea e7ba e546 783d 976e 08bd 34b6 1b3d
00000360: 23d1 c0bd 76e6 53bd 0cc5 4abd 0ba8 babc
00000370: f084 223d 147e 9fbd 13ff 28bd 8764 273c
00000380: 46d8 703d 236f 33bc 557d 0cbc 2382 7aba
00000390: 5600 13bc 0e4e 09bc 43da 64bb eda4 93bc
000003a0: a50e a1bc 3088 bebc 38fc f1bb 502d abbc
000003b0: 48e4 99bc ee36 473b e95f a73c 2d5a f439
000003c0: 6919 25bd 170e 28bc b009 a33c 8042 0f3d
000003d0: b1c2 8e3c de93 a03b 0e1f 543a a99f bebb
000003e0: bc3a 00bd d925 5abc ab5e 9bbb 3392 833c
000003f0: a21a 9e3a dc70 b23c fcce 693c 06a6 603c

linear.fc.weight f4 [98, 1]
0.50085264 0.530672 0.5858294 0.16440131 0.23182975 0.049848873 0.32228118 0.29644787
0.07566441 0.027376758 0.029462866 0.026277302 0.013360727 0.012941902 0.012502196 0.011793568
0.20069832 0.14148574 0.16645902 0.15357374 0.18791336 0.20396367 0.17685808 0.03069738
0.024215952 0.021416012 0.02610699 0.029271172 0.03349429 0.023674421 0.0076158945 0.002739526
0.026556471 0.0129625965 0.00047790914 0.00037288052 0.0007483545 0.012413829 0.00020176703 0.0043389997
0.0051429463 0.0012084484 0.0062120073 0.033681355 0.032004442 0.004254864 0.017689984 0.0252938
0.0026153482 0.025278067 0.01920659 0.004382926 0.0023676236 0.0072895214 0.0010790352 0.0021163707
0.027562559 0.001918885 0.031340364 0.018783685 0.0066842656 0.0053421203 0.020993184 0.003206402
0.0030600794 0.0003299875 0.0005208768 0.015921338 0.036935624 0.017005138 0.012007643 0.011025554
0.004142451 0.008063841 0.00058461144 0.036081146 0.0016677473 5.2473206e-05 0.024422603 0.035366002
0.022612613 0.02209508 0.0036278977 0.0015305779 0.03653386 0.032859057 0.017489789 0.00486157
0.008545846 0.018271163 0.02439388 0.009228082 0.008150199 0.012829541 0.011305839 0.008260417
0.00025616586 0.014795442
00000000: e137 003f 1fda 073f eaf8 153f d158 283e
00000010: c764 6d3e 552e 4c3d 0a02 a53e 04c8 973e
00000020: f1f5 9a3d 3945 e03c 1c5c f13c 7f43 d73c
00000030: f3e6 5a3c 450a 543c 03d6 4c3c cf39 413c
00000040: dc83 4d3e a3e1 103e 3c74 2a3e 6f42 1d3e
00000050: 5c6c 403e dadb 503e 491a 353e 1279 fb3c
00000060: 8860 c63c a270 af3c 54de d53c 19ca ef3c
00000070: 4f31 093d dcf0 c13c c18e f93b 9f89 333b
00000080: f58c d93c 1261 543c e18f fa39 2d7f c339
00000090: 382d 443a 5f63 4b3c 6d91 5339 2b2e 8e3b
000000a0: 2986 a83b cd64 9e3a 188e cb3b 76f5 093d
000000b0: 1717 033d 636c 8b3b 96ea 903c f134 cf3c
000000c0: 4366 2b3b f313 cf3c 2357 9d3c a69e 8f3b
000000d0: 222a 1b3b f0dc ee3b 6a6e 8d3a cfb2 0a3b
000000e0: e0ca e13c 1983 fb3a c15e 003d 3ee0 993c
000000f0: af07 db3b f40c af3b e6f9 ab3c 8022 523b
00000100: 9d8b 483b 2c02 ad39 738b 083a 776d 823c
00000110: cf49 173d 5c4e 8b3c b4bb 443c 86a4 343c
00000120: 66bd 873b 331e 043c 9c40 193a d3c9 133d
00000130: 5098 da3a ad16 5c38 e911 c83c f1db 103d
00000140: 163e b93c be00 b53c 06c2 6d3b ac9d c83a
00000150: 87a4 153d 3897 063d bf46 8f3c ce4d 9f3b
00000160: e003 0c3c 68ad 953c add5 c73c 6231 173c
00000170: 6a88 053c ff32 523c 203c 393c b356 073c
00000180: 004e 8639 9568 723c

mlp.mlp.0.weight f4 [64, 375]
0.00014132344 0.00010881368 1.1461104e-05 0.000114289396 0.00010632468 4.2830834e-05 0.00024326134 0.00026733053
0.00032194334 9.3179886e-05 0.000285931 0.00025408922 -3.726898e-05 -0.00027893335 -5.528231e-06 0.00059899414
0.00013169649 -0.00027084613 -0.0005088623 -0.00023403509 -6.122456e-05 -9.615456e-06 7.284624e-05 0.0004488629
0.0001745163 5.852784e-05 -0.00021397106 -1.4309706e-05 -0.00029924215 -0.00018825916 -0.00018056063 1.257804e-05
-0.00024339174 -0.00030619997 0.00013460031 0.00010961954 -0.00030930017 0.00018527737 -0.00029477818 0.0003605373
-4.199963e-05 0.00020177863 -0.00017032758 -0.00033090552 -0.0001527931 -9.653776e-05 -0.00039358682 0.00022427132
0.00014920061 -0.00020751207 7.0708425e-05 -0.00030564182 -0.00043206467 2.1237108e-07 -2.6111493e-05 -0.0001535811
-0.00035057927 -0.00028106704 0.00018308485 -0.0003481944 -0.00016864431 0.0002665385 5.6408403e-06 -0.00021242387
0.00011066923 -0.0001275706 0.00034573453 0.00017879833 0.00016971098 7.406937e-05 -0.00013361253 0.00028006296
0.00013951412 -3.2172815e-05 -0.00020502675 0.0012625823 0.0009901942 0.000111060894 0.0010358063 0.0009680653
0.00040493123 0.0020682681 0.002253744 0.0026609348 0.0008537025 0.0023938932 0.0021548406 -0.00035257774
-0.0023413498 -5.4177766e-05 0.0045758523 0.0011829858 -0.0022813196 -0.0039787977 -0.0020003486 -0.00056759384
-9.399612e-05 0.0006733313 0.0035670938 0.0015325731 0.00054923486 -0.0018454154 -0.00014015738 -0.0024939948
-0.0016416038 -0.0015777479 0.00012324813 -0.0020659433 -0.002530394 0.0011982415 0.0009975167 -0.002564299
0.0016149367 -0.0024616546 0.0029375325 -0.00039938648 0.0017455758 -0.0014985632 -0.0027277605 -0.0013455731
-0.00087711826 -0.0031598557 0.001897071 0.001326668 -0.0017913107 0.00065512914 -0.002537248 -0.0034408085
2.0253567e-06 -0.00025198163 -0.0013593867 -0.0028580024 -0.0023570927 0.0015969466 -0.0028488424 -0.0014856155
0.0022387733 5.352411e-05 -0.0018288778 0.0010063122 -0.001148278 0.0028365534 0.0015615241 0.0014942995
0.000688736 -0.0011983388 0.0023479154 0.0012460249 -0.0003090157 -0.0017742731 0.0010865008 0.00085119234
9.5087875e-05 0.0008906026 0.00083200756 0.00034718632 0.0017854754 0.0019471192 0.002302243 0.00073333323
0.0020690637 0.001860801 -0.00030224398 -0.002023237 -4.6394274e-05 0.00398573 0.0010178192 -0.001971029
-0.0034589444 -0.0017265583 -0.00048699116 -8.050085e-05 0.00057791075 0.0030965907 0.0013201826 0.00047123604
-0.0015916725 -0.00012002429 -0.0021565433 -0.0014147576 -0.0013594446 0.00010551878 -0.001783525 -0.0021882965
0.0010307715 0.00085742935 -0.0022178907 0.0013916409 -0.0021281587 0.002544245 -0.00034237598 0.0015049945
-0.0012906118 -0.0023607176 -0.0011582487 -0.0007534852 -0.0027388667 0.0016366595 0.0011418251 -0.001544725
0.00056230003 -0.0021941157 -0.002985385 1.7342659e-06 -0.00021594737 -0.0011702129 -0.0024751285 -0.0020369638
0.0013760262 -0.0024668055 -0.001279341 0.0019338027 4.5823865e-05 -0.0015772628 0.00086498057 -0.0009874818
0.0024557535 0.00134532 0.0012873046 0.0005912194 -0.0010308756 0.0020289333 0.0010720512 -0.00026484835
-0.0015298794 0.0003776521 0.00029552315 3.2945274e-05 0.00030926714 0.00028879612 0.00012029629 0.0006236537
0.0006808927 0.00080731657 0.00025445202 0.0007242721 0.0006502274 -0.00010471233 -0.00070801534 -1.6070437e-05
0.0014162408 0.00035361468 -0.0006893821 -0.0012241044 -0.00060271344 -0.00016880901 -2.7888002e-05 0.00020038533
0.0010928438 0.0004595957 0.0001633473 -0.00055513054 -4.158138e-05 -0.00075537164 -0.0004928011 -0.00047334755
00000000: 3930 1439 e632 e438 1149 4037 a7ae ef38
00000010: a1fa de38 42a5 3338 f813 7f39 7f28 8c39
00000020: 81ca a839 9269 c338 02e9 9539 4737 8539
00000030: 4351 1cb8 cd3d 92b9 257f b9b6 d105 1d3a
00000040: 0218 0a39 5a00 8eb9 2c65 05ba 5167 75b9
00000050: af65 80b8 1252 21b7 07c5 9838 5c55 eb39
00000060: 5dfe 3639 ca7b 7538 6b5d 60b9 b813 70b7
00000070: 9ae3 9cb9 6f67 45b9 e054 3db9 4506 5337
00000080: f936 7fb9 7789 a0b9 7f23 0d39 8be3 e538
00000090: 9129 a2b9 0447 4239 758c 9ab9 7f06 bd39
000000a0: c228 30b8 8a94 5339 f699 32b9 637d adb9
000000b0: 1637 20b9 5174 cab8 545a ceb9 602a 6b39
000000c0: bc72 1c39 9997 59b9 4c49 9438 8d3e a0b9
000000d0: bd86 e2b9 1e08 6434 010a dbb7 9d0a 21b9
000000e0: f4cd b7b9 2e5c 93b9 77fa 3f39 dc8d b6b9
000000f0: 1dd6 30b9 31be 8b39 7346 bd36 19be 5eb9
00000100: 1717 e838 79c4 05b9 b443 b539 d07b 3b39
00000110: 72f4 3139 b155 9b38 571a 0cb9 6ad5 9239
00000120: 894a 1239 4cf1 06b8 73fc 56b9 3b7d a53a
00000130: 67c9 813a 5de9 e838 e4c3 873a c3c5 7d3a
00000140: f34c d439 c88b 073b 8db3 133b 1463 2e3b
00000150: 01cb 5f3a dde2 1c3b 3a38 0d3b 2fda b8b9
00000160: 5571 19bb ef3c 63b8 08f1 953b 6b0e 9b3a
00000170: 3182 15bb 9360 82bb 4818 03bb 94ca 14ba
00000180: c81f c5b8 8082 303a e7c5 693b 9fe0 c83a
00000190: 87fa 0f3a dee1 f1ba 36f7 12b9 4a72 23bb
000001a0: 152b d7ba 6fcc ceba 2b3c 0139 c764 07bb
000001b0: f7d4 25bb 500e 9d3a 1bbf 823a cc0d 28bb
000001c0: 49ac d33a b653 21bb 9e83 403b bf64 d1b9
000001d0: cecb e43a 706b c4ba 3ac4 32bb f15d b0ba
000001e0: 69ee 65ba 9515 4fbb 24a7 f83a 97e3 ad3a
000001f0: 6aca eaba f9bc 2b3a f547 26bb 307f 61bb
00000200: 5deb 0736 671c 84b9 732d b2ba 534d 3bbb
00000210: 7479 1abb a350 d13a a5b3 3abb fcb8 c2ba
00000220: 62b8 123b 137f 6038 f5b6 efba 3ce6 833a
00000230: d181 96ba 78e5 393b 0eac cc3a 5fdc c33a
00000240: 4a8c 343a 9411 9dba 7cdf 193b a851 a33a
00000250: 6303 a2b9 ba8e e8ba eb68 8e3a 8d22 5f3a
00000260: ea69 c738 5477 693a 151b 5a3a 8f06 b639
00000270: 9d06 ea3a 7b36 ff3a 3ae1 163b 293d 403a
00000280: 2199 073b 1fe6 f33a 8076 9eb9 4998 04bb
00000290: 7997 42b8 ba9a 823b 5868 853a 612c 01bb
000002a0: 75af 62bb af4d e2ba d952 ffb9 91d2 a8b8
000002b0: ef7e 173a 2cf0 4a3b fa09 ad3a 3b10 f739
000002c0: ab9f d0ba 8db5 fbb8 cb54 0dbb 636f b9ba
000002d0: 642f b2ba f749 dd38 2bc5 e9ba 8669 0fbb
000002e0: f41a 873a 1cc5 603a 085a 11bb b867 b63a
000002f0: 9478 0bbb 59bd 263b ed80 b3b9 3c43 c53a
00000300: bf29 a9ba 45b6 1abb 61d0 97ba 8985 45ba
00000310: 8f7e 33bb 2e85 d63a 4ba9 953a 5f78 caba
00000320: 5167 133a 27cb 0fbb 73a6 43bb ecc4 e835
00000330: ee6f 62b9 d461 99ba c435 22bb 957e 05bb
00000340: c75b b43a 21aa 21bb 90af a7ba a777 fd3a
00000350: 0033 4038 28bc ceba ddbf 623a 646e 81ba
00000360: b5f0 203b 7355 b03a c6ba a83a 10fc 1a3a
00000370: 721e 87ba daf7 043b 1284 8c3a 58db 8ab9
00000380: 3c86 c8ba 9bff c539 72f0 9a39 b82e 0a38
00000390: 2225 a239 8f69 9739 9447 fc38 b17c 233a
000003a0: f07d 323a 19a2 533a f967 8539 14dd 3d3a
000003b0: 0674 2a3a 0199 dbb8 1b9a 39ba 00cf 86b7
000003c0: 28a1 b93a 5c65 b939 a6b7 34ba 2172 a0ba
000003d0: 6aff 1dba 5302 31b9 07f1 e9b7 871e 5239
000003e0: c13d 8f3a e4f5 f039 3548 2b39 2e86 11ba
000003f0: ab67 2eb8 2204 46ba 522f 01ba a22b f8b9

mlp.mlp.0.bias f4 [64]
-1.4943277e-08 3.312451e-39 7.150224e-39 6.89406e-39 4.38759e-39 9.6443586e-08 -4.162846e-39 -7.289724e-39
-2.0843335e-07 -7.17505e-39 1.2973943e-07 -2.708134e-39 7.150865e-39 -1.626273e-39 -9.761866e-08 -4.12689e-39
-3.2171464e-08 4.53135e-39 -4.4566733e-08 1.15956034e-07 6.239174e-08 -4.275065e-39 1.9191387e-07 -2.1940729e-33
-3.282563e-39 -1.029686e-07 3.13278e-39 -1.2563214e-07 3.076779e-08 3.348029e-39 -1.650086e-07 8.10285e-40
7.497754e-39 -4.466272e-39 5.642788e-39 6.744686e-39 -6.89229e-40 6.808401e-08 4.468182e-39 -2.352755e-39
4.393265e-39 -2.8455295e-07 -4.21078e-39 -4.247174e-08 2.4332287e-09 -3.61067e-39 -3.060049e-39 -3.939539e-39
5.39249e-39 -2.69695e-40 -7.915331e-08 1.966398e-07 -4.7047246e-09 -5.5590238e-08 3.496195e-39 -4.5928584e-08
2.8160914e-08 7.056072e-39 -7.575583e-39 5.95066e-39 -6.345801e-39 -4.644228e-39 -3.511598e-39 7.44412e-40
00000000: 9d5c 80b2 c411 2400 eadb 4d00 d611 4b00
00000010: d1c6 2f00 6c1c cf33 5254 2d80 c960 4f80
00000020: b9cd 5fb4 1f21 4e80 814e 0b34 2d7d 1d80
00000030: b4dd 4d00 63b5 1180 6da2 d1b3 17f0 2c80
00000040: e62c 0ab3 8f57 3100 a469 3fb3 8103 f933
00000050: 39fc 8533 248d 2e80 e210 4e34 c546 3689
00000060: 73be 2380 961f ddb3 eb1c 2200 80e5 06b4
00000070: 8b25 0433 f174 2400 382d 31b4 bfd2 0800
00000080: b0a4 5100 26a2 3080 cc71 3d00 7171 4900
00000090: 4a81 0780 9535 9233 79a7 3000 869e 1980
000000a0: a3d6 2f00 a9c4 98b4 f1d9 2d80 2c6a 36b3
000000b0: d035 2731 1451 2780 2c52 2180 d5e5 2a80
000000c0: 11b8 3a00 cdef 0280 fefa a9b3 f023 5334
000000d0: 32a7 a1b1 1dc2 6eb3 f811 2600 0343 45b3
000000e0: 81e6 f132 75d5 4c00 a57d 5280 05cc 4000
000000f0: 8319 4580 3892 3280 e83c 2680 1e1b 0800

mlp.mlp.1.weight f4 [64]
0.032660723 -2.276114e-39 -5.327695e-39 5.884872e-39 1.988696e-39 0.030227577 -3.66712e-39 7.288804e-39
0.030899558 -4.633211e-39 0.03191617 -5.326578e-39 -5.169176e-39 -1.537763e-39 0.029918283 -4.739138e-39
0.029726151 7.2889e-39 0.03234969 0.03066448 0.03331278 5.000588e-39 0.032071494 -2.6985547e-27
4.973944e-39 0.03174327 3.734893e-39 0.02839034 0.032458186 2.938338e-39 0.030671071 -4.490879e-39
-5.918034e-39 6.288931e-39 -1.059142e-39 6.78547e-39 1.502879e-39 0.032216802 -6.427095e-39 -6.764522e-39
-6.507432e-39 0.034124263 7.102424e-39 -0.031347252 0.03389109 2.132919e-39 -3.480175e-39 -6.064907e-39
-7.06572e-39 -7.304812e-39 0.031318124 0.031337354 0.028597333 0.033213098 -5.336486e-39 -0.032939974
0.03368457 3.958225e-39 1.081647e-39 6.150268e-39 5.673981e-39 1.047441e-39 -7.20466e-39 6.554206e-39
00000000: 40c7 053d e1c8 1880 7203 3a80 a114 4000
00000010: ada7 1500 d39f f73c 70ee 2780 385e 4f00
00000020: 1221 fd3c 8273 3280 88ba 023d 5500 3a80
00000030: 8f49 3880 a8be 1080 3017 f53c ca9a 3380
00000040: 4284 f33c 7d5e 4f00 1c81 043d 1334 fb3c
00000050: fb72 083d 9b73 3600 665d 033d 31cd 5593
00000060: 5529 3600 3b05 023d 5dab 2800 dc92 e83c
00000070: e0f2 043d e4fe 1f00 e641 fb3c bee6 3080
00000080: 1271 4080 fb7a 4400 7588 0b80 21e3 4900
00000090: 6a5d 1000 c4f5 033d 20fc 4580 bca8 4980
000000a0: 13dc 4680 e2c5 0b3d ab56 4d00 fa65 00bd
000000b0: 62d1 0a3d b639 1700 50e5 2580 7e0a 4280
000000c0: 5af0 4c80 d88a 4f80 6f47 003d 995b 003d
000000d0: f444 ea3c 750a 083d f41b 3a80 11ec 06bd
000000e0: d5f8 093d ec19 2b00 31c7 0b00 72f8 4200
000000f0: c0c8 3d00 d767 0b00 a973 4e80 765e 4700

mlp.mlp.1.bias f4 [64]
0.021092376 -3.325772e-39 -7.043234e-39 -6.112845e-39 7.525397e-39 0.0189393 -3.35844e-40 1.131481e-39
0.019699272 2.014783e-39 0.020586208 2.570945e-39 2.799857e-39 -3.383222e-39 0.018916525 -3.09001e-39
0.018620975 -3.592052e-39 0.020978296 0.019417996 0.021564296 -7.15106e-39 0.020586006 3.5656022e-28
5.047956e-39 0.019975316 6.740852e-39 0.017763983 0.020820525 -2.605218e-39 0.01958517 -5.442219e-39
-1.123574e-39 -1.85315e-40 -2.852595e-39 -7.380078e-39 5.050647e-39 0.02035788 -6.310508e-39 -1.178449e-39
-5.05852e-40 0.02219295 -5.25595e-39 0.02010047 0.021961804 1.301183e-39 2.222232e-39 6.102289e-39
-8.37702e-40 -6.965604e-39 0.02003564 0.020081623 0.0177102 0.021512194 -3.151908e-39 0.02142392
0.021886246 4.537047e-39 7.118795e-39 -3.867353e-39 -6.527299e-39 -6.729649e-39 -2.740388e-39 -5.170438e-39
00000000: ebc9 ac3c e636 2480 acb1 4c80 2090 4280
00000010: bff1 5100 9726 9b3c 32a8 0380 1c52 0c00
00000020: 5e60 a13c 65f0 1500 68a4 a83c c0fe 1b00
00000030: dd7c 1e00 0cd7 2480 d4f6 9a3c b1a5 2180
00000040: 048b 983c 2e1d 2780 adda ab3c 7d12 9f3c
00000050: 9ba7 b03c 3fde 4d80 fca3 a83c 34ff e111
00000060: a6f7 3600 46a3 a33c c166 4900 c685 913c
00000070: ce8f aa3c 4a5e 1c80 1471 a03c b142 3b80
00000080: 113c 0c80 9504 0280 e00f 1f80 a85c 5080
00000090: 26ff 3600 92c5 a63c 21b7 4480 09d5 0c80
000000a0: 1c82 0580 fdcd b53c 733b 3980 bea9 a43c
000000b0: 3ee9 b33c 2b2b 0e00 ae32 1800 b372 4200
000000c0: 2c1f 0980 45d9 4b80 c821 a43c 3782 a43c
000000d0: fb14 913c 573a b03c 3d52 2280 3781 af3c
000000e0: c94a b33c 7167 3100 4e84 4d00 9b1c 2a80
000000f0: 7413 4780 8647 4980 16d7 1d80 144d 3880

mlp.mlp.1.running_mean f4 [64]
-0.012864127 -2.06986e-40 2.084403e-39 6.837562e-39 7.83287e-40 -0.011985317 -1.997073e-39 -2.348059e-39
-0.012177639 -5.872364e-39 -0.012489352 -4.303235e-39 4.361689e-39 1.688988e-39 -0.011859482 -4.689525e-39
-0.011725548 -3.69499e-40 -0.01250573 -0.012101016 -0.0128868325 1.972755e-39 -0.012691596 1.4853094e-28
-4.1699e-40 -0.01235177 -1.253621e-39 -0.01146166 -0.012632613 8.249422e-39 -0.012112831 -4.339049e-39
3.75289e-39 -1.289778e-39 6.398623e-39 3.17325e-39 4.984433e-39 -0.012568762 3.495627e-39 -4.9886e-40
5.3084e-41 -0.013092614 -1.113194e-39 0.012188973 -0.012917982 -1.629829e-39 3.498035e-39 -3.364271e-39
2.79792e-39 1.623494e-39 -0.01236682 -0.012347465 -0.011531143 -0.012785647 -8.39983e-40 0.012677664
-0.012880555 5.921943e-39 -1.459836e-39 3.426756e-39 -6.972418e-39 -9.78366e-40 -7.651656e-39 4.494198e-39
00000000: 0fc4 52bc fe40 0280 78b2 1600 5774 4a00
00000010: 7c87 0800 105e 44bc 07bf 1580 6f91 1980
00000020: b884 47bc c3f1 3f80 24a0 4cbc abdb 2e80
00000030: 9d7e 2f00 3664 1200 464e 42bc 7d10 3380
00000040: 831c 40bc 0306 0480 d5e4 4cbc 5743 46bc
00000050: 4b23 53bc 3d7b 1500 69f0 4fbc 0c49 3c11
00000060: 668a 0480 145f 4abc 96a6 0d80 b0c9 3bbc
00000070: 05f9 4ebc 08d4 5900 e574 46bc 813f 2f80
00000080: 88dd 2800 600b 0e80 c2ac 4500 bb8d 2200
00000090: 9246 3600 35ed 4dbc 6310 2600 9e6e 0580
000000a0: fa93 0000 6782 56bc 221f 0c80 42b4 473c
000000b0: f2a5 53bc 4dbf 1180 1917 2600 38a2 2480
000000c0: 7677 1e00 a4ad 1100 349e 4abc 064d 4abc
000000d0: 1fed 3cbc e47a 51bc 8825 0980 fab5 4f3c
000000e0: f708 53bc f87b 4000 6ee5 0f80 6750 2500
000000f0: 44ec 4b80 49a7 0a80 b451 5380 ffef 3000

mlp.mlp.1.running_var f4 [64]
1.12333255e-05 6e-45 6e-45 6e-45 6e-45 1.0059745e-05 6e-45 6e-45
1.0821717e-05 6e-45 1.1037491e-05 6e-45 6e-45 6e-45 1.03660395e-05 6e-45
9.934405e-06 6e-45 1.1007715e-05 1.0470878e-05 1.1384505e-05 6e-45 1.1050627e-05 6e-45
6e-45 1.0612496e-05 6e-45 9.679981e-06 1.1289658e-05 6e-45 1.0285105e-05 6e-45
6e-45 6e-45 6e-45 6e-45 6e-45 1.0978145e-05 6e-45 6e-45
6e-45 1.1619829e-05 6e-45 1.0602253e-05 1.14868635e-05 6e-45 6e-45 6e-45
6e-45 6e-45 1.0581232e-05 1.0640121e-05 9.596107e-06 1.1301133e-05 6e-45 1.1091394e-05
1.1301622e-05 6e-45 6e-45 6e-45 6e-45 6e-45 6e-45 6e-45
00000000: c476 3c37 0400 0000 0400 0000 0400 0000
00000010: 0400 0000 47c6 2837 0400 0000 0400 0000
00000020: ec8e 3537 0400 0000 aa2d 3937 0400 0000
00000030: 0400 0000 0400 0000 cde9 2d37 0400 0000
00000040: f2ab 2637 0400 0000 c7ad 3837 14ac 2f37
00000050: 1400 3f37 0400 0000 1566 3937 0400 0000
00000060: 0400 0000 530c 3237 0400 0000 3467 2237
00000070: b668 3d37 0400 0000 318e 2c37 0400 0000
00000080: 0400 0000 0400 0000 0400 0000 0400 0000
00000090: 0400 0000 c62e 3837 0400 0000 0400 0000
000000a0: 0400 0000 c9f2 4237 0400 0000 54e0 3137
000000b0: b4b7 4037 0400 0000 0400 0000 0400 0000
000000c0: 0400 0000 0400 0000 0c86 3137 f982 3237
000000d0: f7fe 2037 ff99 3d37 0400 0000 2d15 3a37
000000e0: 199c 3d37 0400 0000 0400 0000 0400 0000
000000f0: 0400 0000 0400 0000 0400 0000 0400 0000

mlp.mlp.4.weight f4 [64, 64]
0.006229097 4.408824e-39 1.450876e-39 3.333304e-39 -6.24658e-40 0.005672079 6.934097e-39 6.845112e-39
0.005885508 3.943877e-39 0.006444552 7.281293e-39 5.649525e-39 2.69503e-39 0.005656492 -5.54414e-39
0.0057704155 5.747962e-39 0.0062599746 0.0059239278 0.0065074135 -2.667955e-39 0.0058796196 9.8160954e-29
-1.650762e-39 0.0059815673 -7.149191e-39 0.005360326 0.0060652574 -3.619498e-39 0.006174502 -2.991883e-39
5.135317e-39 4.92848e-39 3.111379e-39 -9.18139e-40 7.51908e-39 0.0058806874 6.861577e-39 4.998968e-39
6.011049e-39 0.00629362 2.79961e-39 0.0057982923 0.0067580836 -9.67776e-40 2.802384e-39 5.771141e-39
-6.399432e-39 6.245105e-39 0.005836267 0.005922921 0.0054176757 0.0065751616 3.66634e-39 0.0067403996
0.006886842 3.765847e-39 4.65059e-40 -3.993817e-39 4.945973e-39 7.18083e-40 -6.315746e-39 -5.16006e-39
6.360485e-39 5.563815e-39 -6.97085e-39 -1.974516e-39 -6.321119e-39 4.245287e-39 -6.812319e-39 -6.82531e-39
-7.209662e-39 -7.179194e-39 2.84643e-40 -5.33539e-39 4.638811e-39 9.92238e-40 3.16104e-40 4.191244e-39
4.647925e-39 6.44608e-39 1.380308e-39 4.8157e-40 -7.353244e-39 -7.166239e-39 4.49214e-40 7.671146e-39
-1.35293e-40 -7.566073e-39 6.01505e-40 -3.378582e-39 6.564489e-39 -2.44466e-39 -7.022425e-39 7.010919e-39
5.297972e-39 4.756038e-39 4.74432e-39 -6.018447e-39 -7.48869e-39 3.355694e-39 -6.910153e-39 -2.446949e-39
-4.130309e-39 5.688083e-39 5.440445e-39 4.25773e-39 -1.482274e-39 8.20473e-40 -9.47154e-40 3.341187e-39
2.212437e-39 -5.500175e-39 -5.47815e-39 6.826924e-39 4.740024e-39 3.947986e-39 -6.8486e-39 1.903684e-39
-9.9248e-40 -1.520534e-39 1.395627e-39 5.344812e-39 2.27065e-39 6.609684e-39 5.031408e-39 4.48928e-39
0.0060670776 2.572493e-39 -3.673994e-39 5.497399e-39 6.159755e-39 0.00595141 -6.203421e-39 1.605847e-39
0.0059217047 7.305953e-39 0.00588783 5.8013e-40 2.18653e-39 1.094771e-39 0.005746682 -4.903232e-39
0.005893439 -9.8689e-41 0.006499035 0.005742302 0.006283653 -2.149618e-39 0.006079192 1.5550724e-28
5.296045e-39 0.0062327827 2.429435e-39 0.0053551933 0.006064213 1.76681e-40 0.0058954367 3.522117e-39
3.151397e-39 -6.016794e-39 6.843684e-39 6.924928e-39 6.283085e-39 0.0060380814 3.802636e-39 -1.283515e-39
1.113745e-39 0.0062440326 4.547874e-39 0.006292992 0.006747387 -6.427191e-39 -2.56993e-40 -5.078544e-39
-5.032454e-39 -2.767983e-39 0.0062219277 0.0063814484 0.0051933406 0.0062617334 -7.637587e-39 0.0059505478
0.0064577404 5.781728e-39 -5.342812e-39 -6.769381e-39 4.501548e-39 -4.363758e-39 4.99841e-39 -3.198914e-39
2.614617e-39 4.7085e-40 5.446292e-39 4.342816e-39 3.741998e-39 5.941543e-39 -4.45251e-39 -5.791113e-39
-7.207855e-39 -1.480172e-39 -5.402511e-39 -2.677485e-39 5.15572e-39 -3.29839e-39 5.287236e-39 6.998747e-39
1.180047e-39 -6.071613e-39 -4.941159e-39 3.360588e-39 -2.950135e-39 6.07585e-40 -3.758787e-39 6.358947e-39
-5.529643e-39 -5.739646e-39 6.641195e-39 -6.703257e-39 -6.731717e-39 1.919867e-39 -3.599904e-39 -1.59318e-39
-4.894797e-39 7.167681e-39 8.6254e-40 -2.311023e-39 2.353572e-39 -7.29425e-40 5.661948e-39 -2.675229e-39
6.873712e-39 -6.461868e-39 6.053555e-39 -7.110577e-39 -4.391344e-39 -2.567728e-39 -4.889733e-39 6.756447e-39
6.363532e-39 -2.562227e-39 -6.381075e-39 -3.545212e-39 5.87724e-40 -2.37645e-39 7.12866e-40 -1.174535e-39
7.34077e-40 -3.166757e-39 6.41784e-39 -6.881117e-39 -5.142227e-39 -1.338185e-39 3.777704e-39 6.529305e-39
00000000: 741d cc3b 0202 3000 74cc 0f00 e54b 2400
00000010: 4bcd 0680 d9dc b93b 7181 4b00 6389 4a00
00000020: 38db c03b edf1 2a00 d22c d33b 4849 4f00
00000030: 9484 3d00 a658 1d00 185a b93b cf5e 3c80
00000040: c115 bd3b fb96 3e00 7920 cd3b 821d c23b
00000050: 243c d53b 2c0d 1d80 d3a9 c03b 1ade f810
00000060: a7f9 1180 0601 c43b 09d9 4d80 aca5 af3b
00000070: 11bf c63b b069 2780 7a53 ca3b 2794 2080
00000080: 2deb 3700 99aa 3500 42e1 2100 66ff 0980
00000090: 23e0 5100 c8b2 c03b 49b7 4a00 176f 3600
000000a0: 5c74 4100 b63a ce3b 2c7c 1e00 9aff bd3b
000000b0: ea72 dd3b c489 0a80 e883 1e00 98d7 3e00
000000c0: 03af 4580 d000 4400 283e bf3b 1015 c23b
000000d0: c286 b13b 7474 d73b 44ec 2700 92de dc3b
000000e0: 05ab e13b a601 2900 6510 0500 237d 2b80
000000f0: 5cdb 3500 b9d1 0700 bbc5 4480 2630 3880
00000100: 7242 4500 a795 3c00 e5e7 4b80 2680 1580
00000110: b5d4 4480 223a 2e00 f92d 4a80 3052 4a80
00000120: 9b81 4e80 ac2c 4e80 7819 0300 e618 3a80
00000130: 1e83 3200 f5cd 0a00 2b71 0300 7ca3 2d00
00000140: 869c 3200 0c31 4600 bd07 0f00 6c3e 0500
00000150: da11 5080 8f08 4e80 3ae4 0400 0988 5300
00000160: 2479 0180 2263 5280 c08c 0600 1dca 2480
00000170: 207b 4700 b89e 1a80 aa77 4c80 9757 4c00
00000180: 97b0 3900 e6c9 3300 3ca9 3300 fb88 4180
00000190: 6c8b 5180 4f8a 2400 b23e 4b80 19a5 1a80
000001a0: 9ff9 2c80 10f0 3d00 bf3d 3b00 d25c 2e00
000001b0: fa23 1080 25ef 0800 4850 0a80 df61 2400
000001c0: 6017 1800 40e4 3b80 daa6 3b80 b056 4a00
000001d0: 429d 3300 61fd 2a00 1c93 4a80 b2ba 1400
000001e0: a1ce 0a80 a18e 1080 7132 0f00 2933 3a00
000001f0: a6b9 1800 1cf9 4700 85c9 3600 49e2 3000
00000200: 56ce c63b 1003 1c00 9a01 2880 83dc 3b00
00000210: e412 4300 0c04 c33b 9d8c 4380 737c 1100
00000220: dc0a c23b 068e 4f00 b3ee c03b 2b51 0600
00000230: 28cf 1700 c7eb 0b00 aa4e bc3b 3764 3580
00000240: c01d c13b 1b13 0180 dbf5 d43b ec29 bc3b
00000250: 1ae7 cd3b 4368 1780 f533 c73b fc20 4511
00000260: 38ab 3900 5f3c cc3b 4774 1a00 9e7a af3b
00000270: 4eb6 c63b 84ec 0100 822e c13b 3b5a 2600
00000280: d050 2200 6084 4180 6885 4a00 e267 4b00
00000290: af6a 4400 19db c53b 3468 2900 ebf9 0d80
000002a0: ab20 0c00 be9a cc3b 9f85 3100 7135 ce3b
000002b0: 2f19 dd3b 65fc 4580 64cc 0280 ea4c 3780
000002c0: 6fcc 3680 0324 1e80 50e1 cb3b 781b d13b
000002d0: e62c aa3b 3a2f cd3b 7c2a 5380 d0fc c23b
000002e0: 749b d33b 1bf5 3e00 962d 3a80 48b6 4980
000002f0: 7c04 3100 6284 2f80 896d 3600 45d5 2280
00000300: 7d78 1c00 8a20 0500 0c4e 3b00 014a 2f00
00000310: 2bbf 2800 9bb2 4000 c97b 3080 440f 3f80
00000320: 917c 4e80 1e1e 1080 01d4 3a80 bd27 1d80
00000330: 0d24 3800 92ea 2380 aa92 3900 a935 4c00
00000340: 7ed9 0c00 301d 4280 f1cd 3580 f497 2400
00000350: c71f 2080 b39d 0600 f8ed 2880 283e 4500
00000360: 6536 3c80 cc7f 3e80 f350 4800 f4fd 4880
00000370: 4a4d 4980 cfe7 1400 1133 2780 2359 1180
00000380: b44c 3580 940c 4e00 6964 0900 312a 1980
00000390: cda0 1900 57f1 0780 35a7 3d00 7321 1d80
000003a0: 1dd9 4a00 0f5d 4680 d9ea 4100 656d 4d80
000003b0: 48d1 2f80 c8f5 1b80 963e 3580 3a92 4900
000003c0: f04a 4500 72e6 1b80 d77b 4580 9c9a 2680
000003d0: 5666 0600 93e0 1980 2ec3 0700 20ca 0c80
000003e0: 4ffe 0700 a17b 2280 54e2 4500 c1ed 4a80
000003f0: 70fe 3780 5192 0e80 b422 2900 0c19 4700

mlp.mlp.4.bias f4 [64]
6.6839507e-09 7.180557e-39 -2.5899338e-09 -1.8562293e-38 6.266352e-39 -2.4434888e-08 -5.17289e-39 3.686031e-07
-6.4202132e-09 6.21124e-40 2.2861224e-08 -3.7210215e-09 -7.654368e-09 -5.646036e-39 5.332599e-39 -1.2600188e-08
1.2464815e-08 -7.126997e-39 -6.774168e-09 1.5430443e-08 -6.725065e-39 -6.519912e-39 -4.7552215e-09 -6.278736e-09
5.901165e-10 6.862988e-09 -3.4236973e-09 1.4473223e-08 3.2559828e-38 -7.752845e-09 -1.7230132e-08 -3.944529e-39
-3.0126692e-08 8.783668e-09 -4.6785328e-08 6.683083e-09 -7.175989e-39 -7.259285e-39 4.758791e-39 7.490352e-39
2.5236113e-09 8.51901e-40 1.8389447e-09 1.4314736e-08 8.071725e-09 4.610079e-09 2.100338e-08 1.2074969e-08
5.653116e-09 -7.518478e-39 2.3498772e-09 -3.178271e-39 1.6629437e-08 -1.3428378e-09 -5.1192846e-09 -4.279772e-39
-4.1678e-39 -1.416725e-39 -1.420346e-08 -7.560762e-39 1.447455e-09 6.82162e-40 1.3161128e-10 1.6947544e-08
00000000: a7a8 e531 7930 4e00 99fa 31b1 1f20 ca80
00000010: 0a3c 4400 e3e4 d1b2 ea53 3880 6de4 c534
00000020: cb98 dcb1 71c3 0600 5d60 c432 e7b4 7fb1
00000030: 4480 03b2 da7a 3d80 1e11 3a00 3678 58b2
00000040: d624 5632 2b9b 4d80 36c2 e8b1 e78b 8432
00000050: bf3a 4980 ddfe 4680 5f63 a3b1 59bc d7b1
00000060: c235 2230 7bcf eb31 5246 6bb1 e8a5 7832
00000070: c745 3101 5f31 05b2 7601 94b2 bef3 2a80
00000080: a664 01b3 fbe6 1632 03f1 48b3 05a1 e531
00000090: bd23 4e80 ef0b 4f80 93d1 3300 0e90 5100
000000a0: d76b 2d31 c146 0900 1dbe fc30 e0ec 7532
000000b0: d2ab 0a32 af66 9e31 ec6a b432 4672 4f32
000000c0: 563d c231 75de 5180 7a7b 2131 ba9b 2280
000000d0: 85d8 8e32 e88e b8b0 b4e5 afb1 439a 2e80
000000e0: 2162 2d80 416d 0f80 7a03 74b2 5454 5280
000000f0: ccef c630 976d 0700 48b5 102f 0b94 9132

mlp.mlp.5.weight f4 [64]
0.042013578 -4.254585e-39 0.041789837 -5.579099e-39 -7.477954e-39 0.041786492 -2.76663e-39 0.04052493
0.04150116 6.338996e-39 0.041852444 0.03934168 0.04101395 -7.194856e-39 4.981973e-39 0.041640382
0.04145817 2.409742e-39 0.04176726 0.041953918 7.490127e-39 3.276073e-39 0.04058253 0.041367475
0.040641673 0.041860707 0.04124607 0.040932834 4.091391e-39 0.041237064 0.039183497 2.132558e-39
0.04091049 0.04058077 0.041563593 0.042262986 3.432317e-39 -4.368732e-39 3.20335e-40 -5.638414e-39
0.041400135 -6.999982e-39 0.041678052 0.040893532 0.04050839 0.041929185 0.040357675 0.04007188
0.039534654 5.091804e-39 0.04161913 -4.600596e-39 0.041909035 0.04203259 0.040257137 7.22789e-39
1.750838e-39 2.553942e-39 0.04128002 -1.170999e-39 0.041155417 5.185069e-39 0.041618798 0.04092536
00000000: 6e16 2c3d 0d54 2e80 d22b 2b3d 42c0 3c80
00000010: 7e6d 5180 5028 2b3d 3d20 1e80 78fd 253d
00000020: 1ffd 293d 8b06 4500 786d 2b3d be24 213d
00000030: 3efe 273d 5558 4e80 b73f 3600 1b8f 2a3d
00000040: 0bd0 293d 613d 1a00 2514 2b3d dfd7 2b3d
00000050: 6d8f 5100 5cac 2300 de39 263d f170 293d
00000060: e277 263d 2276 2b3d a4f1 283d 30a9 273d
00000070: 228d 2c00 32e8 283d e07e 203d b438 1700
00000080: c291 273d 0538 263d 963e 2a3d f41b 2d3d
00000090: e75f 2500 3f92 2f80 f77c 0300 9b65 3d80
000000a0: 3093 293d 1a39 4c80 9bb6 2a3d fa7f 273d
000000b0: 20ec 253d f0bd 2b3d 174e 253d 6922 243d
000000c0: 17ef 213d e171 3700 d278 2a3d 9718 3280
000000d0: cfa8 2b3d 5d2a 2c3d abe4 243d 6bb4 4e00
000000e0: a010 1300 5acf 1b00 3d15 293d 45c0 0c80
000000f0: 9592 283d dd75 3800 7978 2a3d 5aa1 273d

mlp.mlp.5.bias f4 [64]
0.27567744 -5.489598e-39 0.2747302 0.24423966 5.054621e-39 0.27325988 -2.07863e-40 0.27254975
0.27762282 9.08018e-40 0.27154234 0.2741098 0.27493304 -1.02024e-39 -5.249907e-39 0.27440178
0.27609807 -1.48973e-39 0.2725873 0.27454448 1.349546e-39 3.699743e-39 0.2735582 0.27483553
0.2734669 0.2783425 0.27483818 0.27215815 0.24259132 0.27479938 0.2707357 -7.297312e-39
0.27701005 0.2736022 0.27555433 0.27523166 7.259261e-39 -3.807957e-39 -3.33348e-40 5.234225e-39
0.2765582 3.534781e-39 0.27566853 0.27325216 0.2735547 0.27167985 0.27342454 0.27220255
0.27400625 3.552642e-39 0.27369153 -6.7622e-39 0.2741171 0.27677426 0.27137727 -7.532199e-39
2.474067e-39 6.305727e-39 0.27543825 3.54716e-40 0.2754372 -6.825499e-39 0.2734769 0.2753068
00000000: 9825 8d3e c4c6 3b80 70a9 8c3e f619 7a3e
00000010: 3a0a 3700 b8e8 8b3e 7043 0280 a48b 8b3e
00000020: 9424 8e3e 2fe3 0900 9907 8b3e 1f58 8c3e
00000030: 06c4 8c3e 041c 0b80 9b2a 3980 647e 8c3e
00000040: ba5c 8d3e c338 1080 9090 8b3e 1891 8c3e
00000050: fcb1 0e00 6149 2800 d20f 8c3e 3eb7 8c3e
00000060: db03 8c3e e882 8e3e 97b7 8c3e 5058 8b3e
00000070: dc69 783e 81b2 8c3e df9d 8a3e f075 4f80
00000080: 43d4 8d3e 9615 8c3e 7515 8d3e 2aeb 8c3e
00000090: de0b 4f00 0977 2980 3da1 0380 e4fe 3800
000000a0: 0999 8d3e 887d 2600 6d24 8d3e b5e7 8b3e
000000b0: 5d0f 8c3e 9f19 8b3e 4dfe 8b3e 225e 8b3e
000000c0: 8c4a 8c3e 52af 2600 4c21 8c3e 43a2 4980
000000d0: 1459 8c3e 5bb5 8d3e f6f1 8a3e b504 5280
000000e0: b1f0 1a00 cda9 4400 3e06 8d3e cedc 0300
000000f0: 1b06 8d3e b752 4a80 2a05 8c3e 03f5 8c3e

mlp.mlp.5.running_mean f4 [64]
0.0029790911 3.176685e-39 0.002955908 7.553007e-39 4.871894e-39 0.0029515813 -5.388866e-39 0.0029085302
0.0029473 -2.641207e-39 0.002966523 0.0028541991 0.0029296563 -4.964733e-39 2.61224e-40 0.0029690443
0.0029322042 -3.873298e-39 0.0029572903 0.0029532409 -2.188066e-39 -1.941213e-39 0.002895286 0.0029304721
0.0029193403 0.0029629965 0.0029422774 0.0029224649 3.605112e-39 0.0029422257 0.0028421166 -4.861187e-39
0.002942706 0.0029089588 0.0029505263 0.0029799906 -3.820894e-39 -2.416805e-39 5.036436e-39 4.61768e-39
0.0029378934 4.283959e-39 0.002956465 0.0029139705 0.0029096873 0.0029537785 0.002894371 0.0028746005
0.002869357 -3.983788e-39 0.0029608202 1.353151e-39 0.002971745 0.0029630526 0.0028847242 -4.92161e-39
-4.583731e-39 -4.666072e-39 0.0029431188 -3.467985e-39 0.0029359118 3.285417e-39 0.0029478732 0.0029131714
00000000: db3c 433b 4e97 2200 e8b7 413b b63e 5200
00000010: dc0c 3500 516f 413b f7ad 3a80 0a9d 3e3b
00000020: 7d27 413b 9cc2 1c80 ff69 423b 840d 3b3b
00000030: 7aff 3f3b a80f 3680 30d8 0200 4c94 423b
00000040: 392a 403b 2e2d 2a80 19cf 413b 298b 413b
00000050: 70d3 1780 5023 1580 d7be 3d3b 2a0d 403b
00000060: 6752 3f3b d52e 423b 39d3 403b d386 3f3b
00000070: 9641 2700 5bd2 403b ce42 3a3b 03ef 3480
00000080: 6ada 403b 3ba4 3e3b 9e5d 413b f24b 433b
00000090: 199b 2980 1251 1a80 89d7 3600 3748 3200
000000a0: ac89 403b efa5 2e00 40c1 413b 50f8 3e3b
000000b0: 74b0 3e3b 2e94 413b 7daf 3d3b cb63 3c3b
000000c0: d20b 3c3b 2e61 2b80 520a 423b 09bc 0e00
000000d0: 9cc1 423b c62f 423b a40d 3d3b 7297 3580
000000e0: 94e9 3180 1ccf 3280 57e1 403b 55c3 2580
000000f0: 6d68 403b 68c6 2300 1b31 413b e8ea 3e3b

mlp.mlp.5.running_var f4 [64]
1.0596441e-05 6e-45 1.0431324e-05 6e-45 6e-45 1.0400855e-05 6e-45 1.0094067e-05
1.0374651e-05 6e-45 1.0507713e-05 9.71981e-06 1.0240751e-05 6e-45 6e-45 1.0524468e-05
1.0258338e-05 6e-45 1.0442162e-05 1.0410495e-05 6e-45 6e-45 1.00056095e-05 1.0251965e-05
1.0173242e-05 1.0485897e-05 1.0329861e-05 1.0194042e-05 6e-45 1.0336241e-05 9.642225e-06 6e-45
1.0339321e-05 1.0094965e-05 1.0389986e-05 1.0605961e-05 6e-45 6e-45 6e-45 6e-45
1.0302669e-05 6e-45 1.0426343e-05 1.0130473e-05 1.0112387e-05 1.0412676e-05 1.0005056e-05 9.864263e-06
9.820404e-06 6e-45 1.046805e-05 6e-45 1.0541496e-05 1.0480201e-05 9.9372e-06 6e-45
6e-45 6e-45 1.0342194e-05 6e-45 1.0287874e-05 6e-45 1.0370789e-05 1.0128605e-05
00000000: 5ec7 3137 0400 0000 3202 2f37 0400 0000
00000010: 0400 0000 557f 2e37 0400 0000 b059 2937
00000020: c90e 2e37 0400 0000 494a 3037 4412 2337
00000030: b1cf 2b37 0400 0000 0400 0000 3f92 3037
00000040: 3a1b 2c37 0400 0000 bf30 2f37 bca8 2e37
00000050: 0400 0000 0400 0000 c4dd 2737 dbff 2b37
00000060: bead 2a37 96ec 2f37 6a4e 2d37 1407 2b37
00000070: 0400 0000 d169 2d37 0bc5 2137 0400 0000
00000080: 0c77 2d37 8b5d 2937 a650 2e37 41f0 3137
00000090: 0400 0000 0400 0000 0400 0000 0400 0000
000000a0: a0d9 2c37 0400 0000 cdec 2e37 0df6 2937
000000b0: 5fa8 2937 1ab2 2e37 63db 2737 b07e 2537
000000c0: 50c2 2437 0400 0000 ef9f 2f37 0400 0000
000000d0: 61db 3037 1fd4 2f37 f3b7 2637 0400 0000
000000e0: 0400 0000 0400 0000 6383 2d37 0400 0000
000000f0: 159a 2c37 0400 0000 33fe 2d37 07ee 2937

mlp.mlp.8.weight f4 [1, 64]
0.27883396 -6.1862e-40 0.27785492 0.24425218 1.0016e-39 0.2763934 -2.517447e-39 0.27553985
0.28071195 2.083106e-39 0.27469262 0.27699614 0.2779987 -6.844341e-39 -2.579489e-39 0.27756006
0.2792273 3.922066e-39 0.27570412 0.27771148 3.68863e-39 -3.033665e-39 0.27662474 0.27790955
0.2764842 0.28144547 0.27799156 0.27520946 0.24261224 0.27789757 0.27359736 1.8728e-41
0.28009132 0.27666947 0.2787177 0.27845228 4.205406e-39 -1.23823e-40 -6.696797e-39 -2.792457e-39
0.27964562 -6.714736e-39 0.27888942 0.2763486 0.27649063 0.27487978 0.2764281 0.27510467
0.27697626 -2.198136e-39 0.2768285 2.623735e-39 0.27729666 0.27993414 0.27429545 -7.33896e-40
6.25409e-39 1.592176e-39 0.2785095 -5.775562e-39 0.27851078 3.561645e-39 0.2766327 0.2783937
00000000: 53c3 8e3e 76bc 0680 0043 8e3e 3e1d 7a3e
00000010: 0ee8 0a00 7083 8d3e 9e69 1b80 8f13 8d3e
00000020: 7ab9 8f3e daae 1600 83a4 8c3e 70d2 8d3e
00000030: d855 8e3e 3d87 4a80 9116 1c80 5a1c 8e3e
00000040: e1f6 8e3e 20b5 2a00 1729 8d3e 3330 8e3e
00000050: 662a 2800 a008 2180 c2a1 8d3e 294a 8e3e
00000060: 568f 8d3e 9f19 903e e954 8e3e 41e8 8c3e
00000070: 586f 783e 9748 8e3e f414 8c3e 3534 0000
00000080: 2168 8f3e 9fa7 8d3e 16b4 8e3e 4c91 8e3e
00000090: f6ca 2d00 2b59 0180 f2eb 4880 3c68 1e80
000000a0: b62d 8f3e f41d 4980 98ca 8e3e 907d 8d3e
000000b0: 2e90 8d3e 0bbd 8c3e fc87 8d3e 85da 8c3e
000000c0: d5cf 8d3e 82ef 1780 77bc 8d3e e891 1c00
000000d0: d4f9 8d3e 8753 8f3e 7470 8c3e cefd 0780
000000e0: dc19 4400 5756 1100 cc98 8e3e ebe3 3e80
000000f0: f798 8e3e 6bc8 2600 cda2 8d3e 9e89 8e3e
