model_lr_0.001/dfm_epoch_50.pt (torch, 151559 bytes, 15 tensors)

embedding.embedding.weight f4 [98, 75]
-0.16505286 -0.103197835 0.041704647 -0.09789981 -0.1884128 -0.08961195 -0.06531762 -0.10012327
-0.114072606 -0.18519987 -0.11600514 -0.230799 0.058819424 0.10758145 -0.014831083 -0.16979776
-0.14350513 0.167898 0.23565823 0.20748292 0.019242236 0.011965307 0.012972137 -0.1706568
-0.1339065 -0.03578696 0.20639503 0.019059433 0.16453889 0.12373112 0.06823452 -0.02911639
0.17766404 0.12052846 -0.15293832 -0.13506022 0.014256801 -0.05480673 0.15759957 -0.040351715
0.069297306 -0.11637023 0.15288402 0.154793 0.17511629 0.051551484 -0.040424652 -0.242114
-0.13485721 0.14527698 -0.12526163 0.060216177 -0.02037928 -0.12742943 -0.038722955 0.049872324
-0.023217518 0.091262735 -0.24414742 0.08296622 0.21269082 -0.029881075 0.10878467 0.045754157
-0.12663272 0.13867727 -0.17589417 -0.23195006 -0.16508748 -0.11524781 0.10972182 -0.054215632
-0.09448368 0.09769841 0.20405512 -0.16644584 -0.17395906 -0.064424455 -0.15468565 -0.24793303
0.025558637 -0.23563077 -0.21580401 -0.19126143 -0.054336336 -0.21809994 -0.21529499 -0.027357306
0.21698584 0.054975953 -0.18674885 -0.19220006 0.29382616 0.2148322 0.15668644 0.016756967
0.0860743 -0.11917543 -0.21506263 -0.20720164 -0.12643315 0.22890705 0.03826238 0.1748409
0.17197603 0.25933585 -0.04907919 0.055744715 0.030261934 0.00027867898 -0.2122643 0.18968433
-0.22837122 0.18900286 -0.20472866 0.06314488 -0.09228396 0.25170273 0.18363558 -0.009827546
0.105690695 0.14351414 0.074990146 -0.24904451 0.3557512 0.0013673771 0.17747052 0.23815662
0.072562955 -0.003049027 0.25250855 0.22571915 0.18637484 -0.07571445 0.17164415 0.21736258
-0.104824916 -0.088823654 0.26466095 -0.13964836 0.225251 -0.24831332 -0.047952097 -0.20850101
-0.109728694 0.15861343 -0.22659966 -0.23149137 0.042680465 0.14206396 -0.086978234 -0.024353886
0.0035816983 -0.0068197334 -0.23381788 -0.10694939 -0.16978239 -0.06275238 -0.14295532 -0.15128307
-0.23963326 -0.21118827 0.08334727 0.25444415 -0.031236501 -0.23342507 0.035760537 0.18454854
0.14468554 0.047412973 0.15126163 -0.059415743 -0.052184552 -0.15383114 -0.09545552 0.0045088986
0.16321671 0.074817 0.1089542 0.2621127 0.04343808 -0.03961063 0.13652104 0.14956143
-0.1628881 -0.10622421 0.20378317 -0.17209499 0.15173796 -0.12493283 0.07052864 -0.25779542
0.23065111 0.18364719 0.20389211 0.042008013 0.2321966 -0.23880233 -0.2633837 0.29606593
-0.15432087 0.22603291 0.24481927 -0.11092742 0.05978608 0.23288305 0.06563066 0.17825264
-0.20705658 0.07443296 0.25187477 -0.24800529 0.07549107 0.17344213 -0.16143754 0.1984971
-0.23622803 -0.21689138 -0.01995087 -0.1250295 0.0728904 -0.22132376 -0.21510471 0.020888899
0.099830635 -0.036021702 -0.12336156 -0.008426531 -0.0235571 -0.0799462 -0.009146569 -0.09242067
-0.096330196 -0.11532917 -0.066743694 -0.10032654 -0.09647382 0.035483662 0.024650285 0.017990269
-0.14899965 -0.07376446 0.08006089 0.047670383 0.021655945 0.033108037 0.008683427 -0.013633424
-0.009791097 -0.106812075 -0.016204873 0.10896105 0.004938968 0.10490048 0.08114162 0.11650217
00000000: 9e03 29be 6359 d3bd 7ed2 2a3d b27f c8bd
00000010: 49ef 40be 7886 b7bd 3fc5 85bd 6e0d cdbd
00000020: e69e e9bd 09a5 3dbe 1a94 edbd 9356 6cbe
00000030: a3ec 703d aa53 dc3d 12fe 72bc 77df 2dbe
00000040: 02f3 12be 74ed 2b3e 6450 713e 6776 543e
00000050: e5a1 9d3c 230a 443c 1689 543c a8c0 2ebe
00000060: c91e 09be 5995 12bd 3859 533e 8722 9c3c
00000070: e27c 283e be66 fd3d 8abe 8b3d 7f85 eebc
00000080: 90ed 353e a0d7 f63d dd9b 1cbe 3a4d 0abe
00000090: 5c95 693c 067d 60bd c861 213e d747 25bd
000000a0: bfeb 8d3d 8453 eebd a18d 1c3e 0e82 1e3e
000000b0: af51 333e a627 533d 5294 25bd bbec 77be
000000c0: 0218 0abe 7dc3 143e 9644 00be 3da5 763d
000000d0: 73f2 a6bc dc7c 02be f69b 1ebd ec46 4c3d
000000e0: aa32 bebc f5e7 ba3d c801 7abe 32ea a93d
000000f0: 9fcb 593e 28c9 f4bc 7fca de3d b668 3b3d
00000100: 02ac 01be 6a01 0e3e 9a1d 34be 5184 6dbe
00000110: b10c 29be 0b07 ecbd d5b5 e03d 3611 5ebd
00000120: a980 c1bd 1b16 c83d d3f3 503e c770 2abe
00000130: 5322 32be f8f0 83bd ea65 1ebe 28e2 7dbe
00000140: 5960 d13c 3149 71be bafb 5cbe 09da 43be
00000150: c78f 5ebd 9755 5fbe 4a76 5cbe 6e1c e0bc
00000160: 8931 5e3e 772e 613d 173b 3fbe 18d0 44be
00000170: 6270 963e f9fc 5b3e 6972 203e e845 893c
00000180: b947 b03d 3f12 f4bd 6139 5cbe ab2c 54be
00000190: b177 01be 9c66 6a3e 03b9 1c3d 7e09 333e
000001a0: 7c1a 303e abc7 843e 4307 49bd 9254 643d
000001b0: e0e7 f73c a91b 9239 d05b 59be 9c3c 423e
000001c0: 25da 69be f789 413e 64a4 51be 1a52 813d
000001d0: 5fff bcbd 2edf 803e f70a 3c3e b703 21bc
000001e0: 5d74 d83d 5ff5 123e 6f94 993d 8605 7fbe
000001f0: 0525 b63e 9039 b33a d5ba 353e 54df 733e
00000200: e39b 943d 2fd2 47bb cd48 813e ec22 673e
00000210: 0cd9 3e3e 2d10 9bbd 7cc3 2f3e 4c94 5e3e
00000220: 72ae d6bd 2de9 b5bd a481 873e fbff 0ebe
00000230: 33a8 663e d945 7ebe 6b69 44bd 4a81 55be
00000240: 70b9 e0bd 8f6b 223e be09 68be 130c 6dbe
00000250: b6d1 2e3d 3779 113e a521 b2bd cd81 c7bc
00000260: edba 6a3b 1278 dfbb f46d 6fbe 4808 dbbd
00000270: 6fdb 2dbe 5284 80bd e162 12be f3e9 1abe
00000280: 6c62 75be bd41 58be f9b1 aa3d 8146 823e
00000290: b1e3 ffbc fb06 6fbe a479 123d 4bfa 3c3e
000002a0: 7228 143e 1b34 423d 54e4 1a3e ec5d 73bd
000002b0: 78bf 55bd e985 1dbe 2f7e c3bd 62bf 933b
000002c0: 4822 273e a839 993d 6123 df3d a333 863e
000002d0: 21ec 313d c23e 22bd 2ccc 0b3e a226 193e
000002e0: 23cc 26be 148c d9bd 89ac 503e ab39 30be
000002f0: 3261 1b3e c9dc ffbd 5271 903d c3fd 83be
00000300: ce2f 6c3e 020e 3c3e 18c9 503e 9810 2c3d
00000310: f2c4 6d3e 9988 74be 3ada 86be f495 973e
00000320: 4a06 1ebe 2c75 673e e7b1 7a3e ea2d e3bd
00000330: 40e2 743d e578 6e3e 5e69 863d dc87 363e
00000340: a406 54be 4f70 983d bbf5 803e 19f5 7dbe
00000350: 109b 9a3d d09a 313e e24f 25be d342 4b3e
00000360: c3e5 71be c618 5ebe 0270 a3bc bc07 00be
00000370: 9047 953d b2a2 62be 6944 5cbe 321f ab3c
00000380: 0174 cc3d 7e8b 13bd fca4 fcbd 6f0f 0abc
00000390: d2fa c0bc d5ba a3bd 7edb 15bc 0c47 bdbd
000003a0: c448 c5bd b331 ecbd ebb0 88bd 0078 cdbd
000003b0: 1194 c5bd 5157 113d 65ef c93c 5460 933c
000003c0: 5d93 18be d211 97bd f7f6 a33d 0542 433d
000003d0: cf67 b13c 4b9c 073d ef44 0e3c ba5e 5fbc
000003e0: d66a 20bc 4ac0 dabd 15c0 84bc f926 df3d
000003f0: 11d7 a13b 10d6 d63d 942d a63d b198 ee3d

linear.fc.weight f4 [98, 1]
0.5609562 -0.88863665 1.266459 1.0134604 -0.43801314 -0.66389537 1.0648065 -0.12615003
1.168573 0.2486956 0.029447766 -0.5411504 0.056472033 0.24342154 -0.55739564 0.058101676
1.3136458 -0.28817782 -0.0350935 -0.4947687 0.0076406477 0.585409 0.3153807 0.20646384
0.1715412 0.13481326 -1.681902 0.2510514 -0.69408786 -0.1666882 0.012621446 0.008799394
-1.3473072 0.11473917 0.0009950163 0.00061671814 0.001009079 0.04583586 0.00043651878 -0.15784043
-0.036629386 0.0009288929 0.011144916 -0.4378435 0.39556363 0.004269282 0.060269907 -0.6608716
-0.0037767722 0.018608171 0.1650128 0.0010400979 -0.16391729 -0.23770183 0.0014421564 -0.024389101
0.20470214 0.0025569825 0.37349978 0.09327074 -0.0047639683 0.0066120108 -0.25544333 0.0033022023
-0.020514324 0.0002709241 0.0012958533 0.07799925 0.035316765 0.047749564 -0.40072376 -0.8847504
-0.40502575 -0.14824638 0.0008889617 -0.50444186 0.0019554906 0.00016573218 0.1599959 -0.8169512
0.15560319 0.3443059 0.00760859 0.0035999229 -0.09921493 0.43434832 0.12081218 -0.17066945
-0.3577971 0.15381639 0.12231688 0.034780014 -0.2730643 0.08373393 0.09971607 0.020385051
0.00041928102 -0.15970181
00000000: d39a 0f3f b17d 63bf 541b a23f 12b9 813f
00000010: 4243 e0be 0cf5 29bf 944b 883f 792d 01be
00000020: cd93 953f 0faa 7e3e 713c f13c d588 0abf
00000030: 384f 673d 7f43 793e 7bb1 0ebf 06fc 6d3d
00000040: 8c25 a83f 0b8c 93be 34be 0fbd 5352 fdbe
00000050: 665e fa3b 5ddd 153f 9479 a13e 426b 533e
00000060: 7fa8 2f3e 7d0c 0a3e 9148 d7bf cf89 803e
00000070: beaf 31bf 50b0 2abe 2eca 4e3c 552b 103c
00000080: 9074 acbf 5ffc ea3d 356b 823a 41ab 213a
00000090: 1343 843a 62be 3b3d 8fdc e439 eca0 21be
000000a0: b208 16bd f380 733a 2a99 363c 062d e0be
000000b0: 5187 ca3e 55e5 8b3b 94dd 763d e22e 29bf
000000c0: b983 77bb 2a70 983c 1ef9 283e e553 883a
000000d0: efd9 27be 1c68 73be bd06 bd3a a7cb c7bc
000000e0: 709d 513e 0c93 273b 5d3b bf3e bb04 bf3d
000000f0: 101b 9cbb 91a9 d83b 78c9 82be c369 583b
00000100: a80d a8bc d10a 8e39 9fd9 a93a 12be 9f3d
00000110: 50a8 103d 0c95 433d aa2b cdbe 017f 62bf
00000120: 895f cfbe e6cd 17be 3609 693a 1a23 01bf
00000130: b027 003b 65c8 2d39 f7d5 233e b723 51bf
00000140: 7156 1f3e dd48 b03e 7b51 f93b afec 6b3b
00000150: 3231 cbbd e762 de3e 606c f73d f9c3 2ebe
00000160: 2e31 b7be 0b82 1d3e 4681 fa3d 7d75 0e3d
00000170: 15cf 8bbe b27c ab3d f037 cc3d 8dfe a63c
00000180: f2d2 db39 df88 23be

mlp.mlp.0.weight f4 [64, 375]
1.8702403e-05 -0.0003443926 -0.00063662545 -0.0005273319 -0.0018763344 0.00076914445 0.0016876141 -0.0005388275
-0.00040855355 0.0021264576 -0.00011844905 -4.0976294e-05 -0.0003668468 0.00017302154 0.0010364862 -0.00036115912
-0.0010162557 0.00039210063 -0.00022301657 -0.00022516357 -4.0317107e-05 0.00032334588 -0.00033117752 -0.00046856792
-0.0003469891 0.0018367333 0.00017842745 0.00017277627 0.00029743288 0.0004318354 0.00041508838 -0.00012433494
-0.00038296322 -0.00044190855 0.0008391712 -0.00076768355 0.0005857161 -0.0022069118 0.0010427305 -0.0010589408
-5.5634755e-05 0.00058564753 0.00044427146 0.0006703007 0.00024462637 0.0004966974 0.0013329965 -0.00035846012
-0.000498085 -0.0010752853 8.688613e-05 1.5767102e-05 0.0016707865 0.0007254153 0.00020798412 0.0046745627
-0.0013125116 0.0004958458 -0.0015019941 0.000413552 3.386486e-05 -0.00034849794 0.0019923402 0.0016125502
-0.0002684502 0.00023202805 -0.0005205201 0.0010886617 -0.00076064916 5.3203843e-05 0.00042451968 -0.0021154208
-0.0010225207 -5.6357858e-05 -0.00020064099 -0.0027066374 0.0013053982 -3.1741958e-05 0.0006157954 -0.00155955
-0.000796061 0.0003798402 -0.00026768362 0.002227079 0.004068004 0.0038098188 0.0001254185 -0.0026492956
-2.76045e-05 0.0032915536 0.0035777243 -0.00023384744 0.0013546492 0.00023731812 -3.655894e-05 0.0003247974
-0.0022068797 -0.00063750596 0.0013396216 0.005346809 -0.0020768745 -0.0022514535 -0.0006011928 0.00039865886
0.0003712721 -0.0012375661 0.00018919563 0.0009687483 -0.0025452105 0.0005250775 0.010937845 0.0010315538
0.0007064629 -0.0003817155 0.0013948831 0.00095983886 -0.0021469565 0.0010710631 -2.341534e-05 0.0002522472
0.0006439164 -0.0017887416 -0.0005573066 -7.664112e-05 0.0010417949 -0.0044116643 0.00010334876 0.00087520183
-0.004495792 0.0005611691 -0.0061386595 2.690328e-05 -0.0045911963 0.0008062548 -0.0008964948 -0.00013202563
-0.002343043 0.000855077 0.00019006072 -0.0004583125 -0.00041223248 -0.0003915112 0.000905946 -0.0021241463
0.0011421215 -0.0031062695 -0.0006573545 -6.287783e-05 -0.0012151654 -0.0013822012 -0.0063772476 0.00096011866
-0.0013612845 -0.0019023109 0.0032440093 -0.0015484617 -0.0038381123 -0.0019065873 0.0017493069 -0.0034917118
-0.00093159254 0.004108582 -0.003244908 -0.0066258567 -0.0039800243 -0.005348913 0.005072101 -0.0026879706
-0.0045264177 -0.0064234505 -0.006728084 -0.00027168472 0.0003166908 0.0046842746 6.629569e-05 -0.002949212
-0.005206528 0.0038789685 -0.0011785867 -0.0019156743 -0.0041460874 0.0009016338 -9.384182e-05 -0.00015676844
0.0041364525 0.0025744701 -0.008326061 -0.0015416768 -0.0050988994 -0.0050025512 -0.00035124374 0.0023136113
0.00093529094 -0.007470571 -9.6307434e-05 -0.00023310362 0.00034563558 0.002124215 0.001475826 -0.005643716
0.0023432563 -0.003908998 0.0037521399 0.0046307757 -0.0020970195 -0.0071253134 -0.004600822 -0.0038085198
0.0017039625 -0.0006268967 -0.0043300698 0.005834405 0.0014670802 -0.0048140483 0.0044981297 -0.0024203719
0.0092121735 0.005898588 0.004863672 -0.0026996857 -0.0014366006 -0.0012259054 0.0019248266 0.00558878
-0.0034980893 0.00018880244 -0.002827624 -0.0018704333 0.0009037917 3.0452155e-05 0.0006145366 -0.0007529878
0.00045445448 -0.002695083 -0.0025570341 8.969465e-05 0.0015399943 -0.0002655223 -0.0035077552 0.00020168124
0.0010573494 -0.00017429842 -0.00082023593 0.0017938562 -0.0025998442 0.001955042 -0.00041782434 -0.000962955
-0.0003131368 0.001202087 0.0016253858 0.0028144787 -0.0008289203 0.00057192775 -0.0050700027 -0.001730728
00000000: 1be3 9c37 988f b4b9 36e3 26ba a53c 0aba
00000010: 56ef f5ba 69a0 493a ef32 dd3a 1a40 0dba
00000020: 2133 d6b9 0a5c 0b3b d967 f8b8 f6dd 2bb8
00000030: 5855 c0b9 1e6d 3539 b5da 873a f559 bdb9
00000040: e233 85ba db92 cd39 8ed9 69b9 e319 6cb9
00000050: 2a1a 29b8 c086 a939 e5a1 adb9 1faa f5b9
00000060: 17ec b5b9 8bbe f03a 4118 3b39 472b 3539
00000070: c4f0 9b39 f767 e239 38a0 d939 e85f 02b9
00000080: 74c8 c8b9 f6af e7b9 d3fb 5b3a 5f3e 49ba
00000090: be8a 193a d6a1 10bb 3bac 883a 28cc 8aba
000000a0: 5d59 69b8 2486 193a 1bed e839 1eb7 2f3a
000000b0: 3241 8039 cc34 023a f1b7 ae3a b4ef bbb9
000000c0: eb91 02ba 96f0 8cba a336 b638 9843 8437
000000d0: 4bfe da3a cc29 3e3a 5016 5a39 132d 993b
000000e0: 9508 acba a6fb 013a 8fde c4ba 03d2 d839
000000f0: 1e0a 0e38 9ab6 b6b9 ec91 023b 355c d33a
00000100: c7be 8cb9 8e4c 7339 8373 08ba 6db1 8e3a
00000110: 4d66 47ba 3127 5f38 1192 de39 dfa2 0abb
00000120: 1a06 86ba ca61 6cb8 2863 52b9 d761 31bb
00000130: e519 ab3a ab22 05b8 546d 213a d069 ccba
00000140: c0ae 50ba 4a25 c739 e357 8cb9 2ff4 113b
00000150: e44c 853b 27ae 793b c682 0339 ce9f 2dbb
00000160: 3690 e7b7 1bb7 573b 4178 6a3b f234 75b9
00000170: 7c8e b13a 99d8 7839 dd56 19b8 9249 aa39
00000180: 4ca1 10bb 4d1e 27ba 3e96 af3a 4934 af3b
00000190: 2c1c 08bb 1f8d 13bb 5e99 1dba 1603 d139
000001a0: 4ca7 c239 d435 a2ba d162 4639 99f3 7d3a
000001b0: 8ccd 26bb 5ba5 093a a634 333c 3435 873a
000001c0: ec31 393a fd20 c8b9 83d4 b63a b29d 7b3a
000001d0: f4b3 0cbb ea62 8c3a 0f6c c4b7 0c40 8439
000001e0: 80cc 283a 3574 eaba 3618 12ba 63ba a0b8
000001f0: d68c 883a b98f 90bb f1bc d838 cd6d 653a
00000200: 7051 93bb 6c1b 133a cf26 c9bb 5bae e137
00000210: bf71 96bb d85a 533a bf02 6bba 5c70 0ab9
00000220: bd8d 19bb 3f27 603a 094b 4739 aa49 f0b9
00000230: e820 d8b9 be43 cdb9 027d 6d3a 4335 0bbb
00000240: 3db3 953a 8e92 4bbb 5052 2cba 47dd 83b8
00000250: 2f46 9fba fa2a b5ba 3bf8 d0bb 79b0 7b3a
00000260: 216d b2ba f656 f9ba 7299 543b c1f5 caba
00000270: d788 7bbb 74e6 f9ba 0049 e53a 34d5 64bb
00000280: 1e36 74ba 49a1 863b 86a8 54bb b71d d9bb
00000290: dd6a 82bb ef45 afbb de33 a63b aa28 30bb
000002a0: 5852 94bb cf7b d2bb 4277 dcbb e870 8eb9
000002b0: 8509 a639 8b7e 993b 3a08 8b38 9147 41bb
000002c0: 869b aabb 4b36 7e3b cf7a 9aba 5d17 fbba
000002d0: e7db 87bb 9f5b 6c3a f2cc c4b8 3562 24b9
000002e0: 148b 873b 71b8 283b 086a 08bc 1712 caba
000002f0: ab14 a7bb 71ec a3bb 2327 b8b9 f59f 173b
00000300: 502e 753a b1cb f4bb a9f8 c9b8 476d 74b9
00000310: 6c36 b539 6a36 0b3b 8170 c13a ecee b8bb
00000320: 5191 193b 0d17 80bb 76e6 753b c3bd 973b
00000330: 266e 09bb 767b e9bb 7ec2 96bb 5c98 79bb
00000340: 7e57 df3a 5356 24ba 42e3 8dbb 892e bf3b
00000350: 0b4b c03a 2abf 9dbb 0c65 933b 1a9f 1ebb
00000360: a8ee 163c f148 c13b 705f 9f3b 36ed 30bb
00000370: 514c bcba 8fae a0ba 774a fc3a 1622 b73b
00000380: 3340 65bb 45f9 4539 a94f 39bb 5429 f5ba
00000390: 6fec 6c3a 8173 ff37 da18 213a 2864 45ba
000003a0: d943 ee39 fd9f 30bb ea93 27bb 731a bc38
000003b0: a2d9 c93a cd35 8bb9 5ee2 65bb 657a 5339
000003c0: c296 8a3a e0c3 36b9 1a05 57ba d31f eb3a
000003d0: 2662 2abb 2920 003b 6f0f dbb9 d16e 7cba
000003e0: 832c a4b9 598f 9d3a e60a d53a 1e73 383b
000003f0: e64b 59ba 6ced 153a 4422 a6bb 98d9 e2ba

mlp.mlp.0.bias f4 [64]
-1.3219742e-06 1.0081581e-07 9.025474e-10 -1.0518663e-06 1.8150657e-09 -1.6932128e-07 -1.483182e-07 1.7735172e-06
1.1909207e-08 3.2244344e-07 1.5568371e-07 -6.289384e-08 -2.366697e-07 1.1047188e-09 4.7107628e-07 1.7819525e-06
-1.6203909e-07 -5.727276e-08 3.2753576e-06 -6.2101464e-07 -1.5220924e-07 3.682526e-07 -8.2367154e-07 4.4525896e-07
1.0329858e-09 -6.8838165e-07 -2.0434275e-07 -1.196835e-06 2.4641809e-06 7.16678e-07 3.3099508e-07 1.1900503e-07
-1.742693e-07 -1.3101238e-09 -1.8859521e-07 1.3344807e-06 3.7198853e-07 -1.2464784e-07 8.279359e-08 3.353905e-23
-9.972853e-07 1.605858e-06 -1.4785675e-06 2.1744016e-08 4.372953e-08 1.1409974e-06 7.7717345e-08 5.550258e-09
2.031144e-08 -4.6156693e-08 4.2390946e-07 -1.5418477e-08 -5.407394e-07 4.480411e-07 1.1922168e-06 -1.3264255e-07
1.2987273e-06 1.6509466e-07 -5.307837e-07 1.3229544e-07 9.297079e-07 5.0976706e-08 -5.4343604e-07 2.105468e-08
00000000: b06e b1b5 1480 d833 2117 7830 da2d 8db5
00000010: f275 f930 aece 35b4 6541 1fb4 9609 ee35
00000020: 3f99 4c32 4a1c ad34 032a 2734 4110 87b3
00000030: 461f 7eb4 d6d4 9730 3be8 fc34 6c2b ef35
00000040: f7fc 2db4 11fc 75b3 37ce 5b36 cdb3 26b5
00000050: f56e 23b4 41b4 c534 471a 5db5 ed0b ef34
00000060: f5f8 8d30 3ac9 38b5 4f69 5bb4 f0a2 a0b5
00000070: 4e5e 2536 bd61 4035 9eb3 b134 b58f ff33
00000080: c81e 3bb4 e20f b4b0 a880 4ab4 681c b335
00000090: b7b5 c734 f0d6 05b4 42cc b133 552f 221a
000000a0: 76da 85b5 dc88 d735 3173 c6b5 99c7 ba32
000000b0: 20d1 3b33 5f24 9935 90e5 a633 96b4 be31
000000c0: 5479 ae32 d23d 46b3 ac95 e334 9771 84b2
000000d0: 5427 11b5 4d8a f034 4204 a035 826c 0eb4
000000e0: ee4f ae35 e044 3134 2e7b 0eb5 180d 0e34
000000f0: 0a91 7935 7bf1 5a33 a4e0 11b5 bbdb b432

mlp.mlp.1.weight f4 [64]
0.03706137 0.02201136 0.0077216886 0.038462237 0.0065684146 0.040017586 0.032338113 0.13509369
0.041801587 0.036996488 0.043015853 0.025396276 0.016145427 0.007069421 0.03735723 0.047042616
0.051729504 0.031824328 0.04422502 0.045176443 0.039647985 0.021480517 0.043202635 0.042403195
0.063080624 0.044760548 0.040081605 0.036908578 0.035677556 0.04717175 0.047303386 0.016309168
0.035978448 0.010468571 0.046043567 0.09925171 0.053124204 0.04826901 0.025287528 4.5846477e-06
0.036850497 0.049506415 0.037702013 0.013884959 0.09270494 0.14683446 0.03369379 0.012079974
0.017253762 0.018918363 0.035268676 0.047881678 0.037876014 0.04460397 0.043546773 0.02586817
0.081725925 0.019911261 0.039121628 0.060723376 0.04894697 0.011261596 0.03666446 0.056689363
00000000: aacd 173d 2b51 b43c 3806 fd3b 948a 1d3d
00000010: db3b d73b 7be9 233d f874 043d 0056 0a3e
00000020: 2438 2b3d a189 173d 6431 303d da0b d03c
00000030: 6a43 843c 9aa6 e73b e503 193d c2af 403d
00000040: 51e2 533d 3a5a 023d 4b25 353d ef0a 393d
00000050: ed65 223d e9f7 af3c 3ff5 303d f9ae 2d3d
00000060: 6a30 813d d656 373d 9c2c 243d 732d 173d
00000070: a122 123d 2a37 413d 32c1 413d ce9a 853c
00000080: 235e 133d 5f84 2b3c 2e98 3c3d 7b44 cb3d
00000090: c498 593d bab5 453d ca27 cf3c d3d5 9936
000000a0: 8cf0 163d 3dc7 4a3d 6d6d 1a3d bd7d 633c
000000b0: 16dc bd3d c65b 163e 8002 0a3d 15eb 453c
000000c0: c357 8d3c affa 9a3c e375 103d 941f 443d
000000d0: e123 1b3d a7b2 363d 1a5e 323d 7ce9 d33c
000000e0: ec5f a73d f11c a33c 003e 203d 13b9 783d
000000f0: 9e7c 483d 8f82 383c 792d 163d 1b33 683d

mlp.mlp.1.bias f4 [64]
-0.001352839 0.0042081466 -0.0012923594 0.011378772 0.0048478846 0.00902394 -0.007813763 0.0069051986
0.011227146 0.010970667 0.0049873916 0.02225444 0.018556431 0.0028480836 0.0057111788 0.0042438675
0.0073072854 0.032243714 0.012503712 0.008755635 0.012738644 0.02508151 0.011607752 0.0117966905
-0.005984888 -0.002828666 0.03623124 0.00027968615 -0.00020093314 0.013050902 0.010893407 0.015520249
0.023875883 0.008006106 0.03563058 0.023509515 0.030640878 -0.0009448914 0.029539865 -3.452163e-05
0.0042666933 0.008449255 0.0015472632 0.008239514 -0.029330062 0.021104224 -0.0031112672 0.0014704245
-0.0046082195 -0.0033438706 0.010402657 0.011440334 0.008927328 0.012594796 0.009147173 0.022367582
-0.029243806 0.022663806 0.009024314 0.024863238 0.018074729 0.01150748 0.010112588 0.02274321
00000000: bf51 b1ba 7ee4 893b 6364 a9ba 076e 3a3c
00000010: 01db 9e3b 26d9 133c 4c05 00bc 0145 e23b
00000020: 10f2 373c 50be 333c 466d a33b f14e b63c
00000030: a803 983c eaa6 3a3b d724 bb3b 2410 8b3b
00000040: f471 ef3b fc11 043d 5fdc 4c3c cb73 0f3c
00000050: bfb5 503c bd77 cd3c 712e 3e3c e846 413c
00000060: e11c c4bb 2461 39bb 3567 143d d7a2 9239
00000070: 94b1 52b9 73d3 553c 437a 323c a448 7e3c
00000080: 5b97 c33c 0b2c 033c 5ff1 113d 0797 c03c
00000090: 9402 fb3c 97b2 77ba 96fd f13c 51cb 10b8
000000a0: 9ecf 8b3b be6e 0a3c 8acd ca3a 07ff 063c
000000b0: 9945 f0bc c4e2 ac3c 67e6 4bbb 42bb c03a
000000c0: 8c00 97bb d724 5bbb e86f 2a3c 3d70 3b3c
000000d0: ed43 123c 675a 4e3c 06de 153c 383c b73c
000000e0: b590 efbc 72a9 b93c b7da 133c fdad cb3c
000000f0: 7411 943c df89 3c3c 45af 253c f84f ba3c

mlp.mlp.1.running_mean f4 [64]
-0.010622994 0.009674082 0.007475199 -0.017282438 0.00051824877 -0.015475916 0.009318881 0.011959637
-0.015282265 -0.01904544 -0.011703196 0.019546177 0.014673336 0.0014885366 -0.015372084 -0.010502838
-0.021863945 0.021828026 -0.019852446 -0.013968832 -0.016197838 0.016597643 -0.017353289 -0.015643792
0.0018044667 -0.01914841 0.024234105 -0.010341058 -0.015388459 -0.017595628 -0.012790954 0.012895566
0.017811943 0.0021623785 0.023107247 0.014198638 0.022004863 -0.015413263 0.021486124 -0.00024881546
-0.011866338 -0.014845959 -0.013947223 0.0027850633 -0.010422399 0.024125358 -0.016576724 0.0023352897
0.004164634 0.011150286 -0.015181449 -0.018179942 -0.016024379 -0.018368402 -0.01786713 0.0049977168
-0.011126243 0.009678114 -0.015381368 0.020418273 0.015524799 0.008470647 -0.019203862 0.024733014
00000000: 110c 2ebc 0a80 1e3c 84f2 f43b e693 8dbc
00000010: 16db 073a b28e 7dbc 38ae 183c 5af2 433c
00000020: 7762 7abc 2f05 9cbc c3be 3fbc 4e1f a03c
00000030: 6f68 703c 001b c33a 32db 7bbc 1814 2cbc
00000040: 041c b3bc b0d0 b23c 99a1 a2bc 87dd 64bc
00000050: 54b1 84bc c8f7 873c 7c28 8ebc 6927 80bc
00000060: db83 ec3a 20dd 9cbc 9a86 c63c 8a6d 29bc
00000070: e01f 7cbc b524 90bc 2691 51bc ed47 533c
00000080: 5aea 913c b1b6 0d3b 694b bd3c 67a1 683c
00000090: 8b43 b43c e987 7cbc ab03 b03c 7273 82b9
000000a0: 076b 42bc 773c 73bc e582 64bc 9c85 363b
000000b0: b6c2 2abc 8ba2 c53c e9cb 87bc a90b 193b
000000c0: 7b77 883b b0af 363c 9dbb 78bc 1aee 94bc
000000d0: 8f45 83bc 5579 96bc 165e 92bc e3c3 a33b
000000e0: d84a 36bc f490 1e3c 2202 7cbc 3944 a73c
000000f0: ba5b 7e3c 78c8 0a3c 6b51 9dbc e49c ca3c

mlp.mlp.1.running_var f4 [64]
8.292389e-06 9.741831e-06 3.8236034e-05 1.7369457e-05 7.5024072e-06 1.4155741e-05 1.0690425e-05 3.68563e-05
1.4836085e-05 1.8312116e-05 9.753491e-06 3.1602554e-05 2.0021718e-05 4.092051e-06 1.122036e-05 1.1700706e-05
1.2049155e-05 3.725267e-05 1.9031486e-05 1.5022849e-05 1.6714896e-05 2.5021638e-05 1.4991721e-05 1.5995814e-05
1.02463655e-05 2.932722e-05 4.665444e-05 9.760183e-06 1.26717905e-05 1.7286375e-05 1.5975565e-05 1.6960497e-05
3.4477798e-05 6.9634402e-06 4.80618e-05 2.730117e-05 3.8058544e-05 1.668992e-05 2.7463346e-05 1.332349e-07
9.616696e-06 1.4618088e-05 1.2842424e-05 3.832482e-06 1.27806325e-05 3.3711727e-05 1.0593745e-05 1.9331714e-05
6.7664287e-06 1.0107822e-05 1.6770993e-05 1.35678365e-05 1.4764812e-05 1.9573828e-05 1.6424421e-05 1.8084249e-05
1.6384449e-05 2.0023614e-05 1.3561074e-05 5.1578594e-05 2.2557391e-05 8.575776e-06 1.5842541e-05 2.3394756e-05
00000000: 8a1f 0b37 d870 2337 a15f 2038 a0b4 9137
00000010: 30bd fb36 727e 6d37 075b 3337 2796 1a38
00000020: 80e8 7837 f89c 9937 eda2 2337 fc8c 0438
00000030: 50f4 a737 734e 8936 143f 3c37 264e 4437
00000040: ba26 4a37 c03f 1c38 cea5 9f37 a50a 7c37
00000050: f736 8c37 8fe5 d137 f484 7b37 c02e 8637
00000060: cee7 2b37 ba03 f637 d3ae 4338 abbf 2337
00000070: ed98 5437 3502 9137 4403 8637 6446 8e37
00000080: 419c 1038 7fa7 e936 f795 4938 d104 e537
00000090: 0da1 1f38 5501 8c37 1661 e637 550f 0f34
000000a0: 6557 2137 3640 7537 cb75 5737 c598 8036
000000b0: 666c 5637 b165 0d38 cabb 3137 8a2a a237
000000c0: 2e0b e336 c494 2937 6faf 8c37 6aa1 6337
000000d0: 62b6 7737 7a32 a437 2dc7 8937 a1b3 9737
000000e0: 5671 8937 62f8 a737 5f84 6337 1856 5838
000000f0: a139 bd37 ade0 0f37 99e5 8437 db3f c437

mlp.mlp.4.weight f4 [64, 64]
0.0041207657 -0.002169337 -0.0005677081 0.0034323137 -0.0008033401 0.0044598314 -0.001592176 -0.010699395
0.004645668 0.002915824 0.004686867 -0.00093292544 -0.0010818576 -0.0005622992 0.0046004527 0.0048072035
0.0065246373 -0.0014335811 0.0056806207 0.005636541 0.0045651365 -0.0013625312 0.005535628 0.0053205485
-0.0047996305 0.0048383144 -0.0013370643 0.0038231767 0.0037526188 0.005798047 0.0055207415 -0.0004693273
-0.00021299446 -0.001215456 -0.0007257893 -0.011059181 -0.0036853799 0.0056591546 -0.0026216551 -3.7199232e-08
0.0043298844 0.006858576 0.004242625 -0.0016962056 0.009027625 -0.012991766 0.0032275699 -0.00059895613
-0.000447688 -0.0013136046 0.0046556117 0.005784972 0.0045843604 0.0057249353 0.004079217 -0.0035978984
0.0052155238 -0.0029484725 0.004648276 0.00180079 -0.0058774594 -0.0017401201 0.0034659815 -0.00562997
-0.0027944136 -0.0025184099 0.031709887 -0.0003738862 0.0073390994 -0.012660342 0.03572727 -0.01684904
0.0038437694 0.00071184593 0.0045923362 -0.025679741 -0.007408864 0.025978252 -0.01309537 0.00095520006
0.019370329 -0.0051763887 0.00063972647 -0.007957635 8.489458e-05 -0.0056971135 0.0014567532 0.0041744267
0.010699133 -0.001451997 0.006303498 0.009865001 0.027970258 0.004348477 0.003348134 -0.0071764593
-0.0068259053 0.017862787 0.00096117466 0.006940763 -0.005066636 -0.008667172 -0.012278532 0.005603725
-0.020675285 0.008541846 0.01271069 -0.010993688 -0.030040054 0.050066262 -0.00017944057 -0.0004614107
0.024892988 0.02256277 -0.010186701 0.00021950569 0.009145259 0.0029517517 -0.0016850538 -0.0076807253
-0.019648645 0.008871836 -0.0010734746 0.00064680405 0.027184507 -0.0012162087 0.017011816 0.01759695
0.0028119038 -0.0016720494 -0.00028799238 0.0036875096 -0.0004510992 0.00389659 -0.00048461053 -0.006641534
0.0038133645 0.0036323327 0.0039212424 -0.0031711068 -0.0017922014 -0.00011974658 0.0033289867 0.0041617746
0.005163957 -0.002944592 0.0049625547 0.004512774 0.004325033 -0.0022641984 0.00418732 0.0047102114
-0.002450061 0.0040396396 -0.0035485458 0.0022025835 0.0023673254 0.0053474414 0.0048670955 -0.0011485616
-0.002611994 -0.0007636381 -0.0039845156 -0.007227378 -0.004740472 0.004437107 -0.0028690682 1.5929274e-05
0.003506237 0.005039064 0.0035520692 -0.00014613917 0.0057371645 -0.008481831 0.0035649736 -0.0004529753
-0.00023973026 -0.00065917353 0.0037384448 0.0051114485 0.004396759 0.004789764 0.0041685496 -0.0012713242
0.005047244 -0.0021606425 0.0042298026 -0.0033088445 -0.004343001 -0.0010528672 0.0038307414 -0.005182127
-0.00050131953 -0.00056948134 -0.0005147732 -0.0016208387 -0.00045539407 -0.0030899837 -0.0012118476 0.005692382
-0.0018038964 -0.0019387213 0.00037451705 0.0024471062 0.0063582715 -0.0004807611 0.0028308847 0.0006548005
-1.3601166e-05 0.0035386272 -0.001994302 0.0007724445 -0.0026660634 0.0021251196 -0.001144513 -0.0011438852
-0.0036946132 -0.0018308245 0.0049875057 -0.0026428942 -0.0009882514 -0.0019153102 -0.0019971237 0.0016682867
0.00469558 -0.00031953404 0.00619527 -0.004163445 0.0064751366 -0.0009618204 0.0017457926 -2.0431173e-06
-0.0006661058 0.00035883396 -0.0009453681 0.00018649972 0.0012818514 0.0012831343 -0.0014220097 -5.4098313e-05
0.0037666205 0.00032949963 -0.0016414614 -0.001413699 6.423734e-05 -0.002069027 -0.0015089086 0.003043853
-0.00059811765 9.328081e-05 -0.0015735996 0.007755043 0.00034977382 -0.0005430489 -0.0016201603 -0.00040973877
00000000: 7d07 873b 6f2b 0ebb 3fd2 14ba abf0 603b
00000010: 3e97 52ba c723 923b 90b0 d0ba 844c 2fbc
00000020: b03a 983b 6917 3f3b 4a94 993b 918f 74ba
00000030: 1ecd 8dba 4367 13ba 65bf 963b bf85 9d3b
00000040: a0cc d53b 00e7 bbba 8024 ba3b bcb2 b83b
00000050: 2497 953b f696 b2ba 3764 b53b ff57 ae3b
00000060: 3846 9dbb b98a 9e3b 6f40 afba 438e 7a3b
00000070: 7fee 753b 8bfd bd3b 56e7 b43b 0b10 f6b9
00000080: 4457 5fb9 f04f 9fba e542 3eba 9131 35bc
00000090: 6a86 71bb 6e70 b93b 13d0 2bbb fdc4 1fb3
000000a0: b4e1 8d3b e8bd e03b b805 8b3b 3753 deba
000000b0: 9be8 133c 6bdb 54bc a385 533b 4403 1dba
000000c0: abb7 eab9 422d acba 1a8e 983b dd8f bd3b
000000d0: 6738 963b 3d98 bb3b f4aa 853b b8ca 6bbb
000000e0: fce6 aa3b 293b 41bb 9150 983b 7c08 ec3a
000000f0: b497 c0bb be14 e4ba 8525 633b 9d7b b8bb
00000100: 7b22 37bb e80b 25bb 3ae2 013d 2806 c4b9
00000110: d47c f03b 536d 4fbc c256 123d ff06 8abc
00000120: c0e7 7b3b 2c9b 3a3a 4f7b 963b 525e d2bc
00000130: 0ec6 f2bb 58d0 d43c f68d 56bc 6466 7a3a
00000140: 86ae 9e3c b29e a9bb 51b3 273a be60 02bc
00000150: 6e09 b238 daae babb 87f0 be3a a1c9 883b
00000160: 6b4b 2f3c ef50 beba 938d ce3b d0a0 213c
00000170: e221 e53c ab7d 8e3b 5e6c 5b3b 8128 ebbb
00000180: d8ab dfbb fb54 923c 57f7 7b3a 576f e33b
00000190: 0606 a6bb c100 0ebc e52b 49bc 749f b73b
000001a0: 375f a9bc 19f3 0b3c 7f40 503c df1e 34bc
000001b0: 8f16 f6bc 4812 4d3d 3628 3cb9 7fe9 f1b9
000001c0: 61ec cb3c 8fd5 b83c 1fe6 26bc 1c2b 6639
000001d0: ffd5 153c 2d72 413b 06dd dcba 98ae fbbb
000001e0: 32f6 a0bc 2d5b 113c d5b3 8cba 498e 293a
000001f0: 0bb2 de3c 3169 9fba 5d5c 8b3c 7b27 903c
00000200: eb47 383b ab28 dbba affd 96b9 25aa 713b
00000210: 8281 ecb9 ef5d 7f3b 5313 feb9 3aa1 d9bb
00000220: a4e9 793b 6e0c 6e3b c47d 803b 58d2 4fbb
00000230: 4de8 eaba 7520 fbb8 212b 5a3b 7f5f 883b
00000240: 6936 a93b 0efa 40bb ed9c a23b e4df 933b
00000250: 02b9 8d3b f262 14bb c935 893b 1e58 9a3b
00000260: 3491 20bb f45e 843b b88e 68bb 3859 103b
00000270: 2125 1b3b 9739 af3b 287c 9f3b 558b 96ba
00000280: fd2d 2bbb e32e 48ba 8a90 82bb a4d3 ecbb
00000290: f655 9bbb 2765 913b fa06 3cbb db9f 8537
000002a0: e5c8 653b bc1e a53b d5c9 683b ef3c 19b9
000002b0: d3fe bb3b 61f7 0abc 55a2 693b 517d edb9
000002c0: 1a60 7bb9 63cc 2cba b200 753b f07d a73b
000002d0: b012 903b 74f3 9c3b 5498 883b 90a2 a6ba
000002e0: 5a63 a53b 9199 0dbb 289a 8a3b 33d9 58bb
000002f0: bc4f 8ebb 5c00 8aba 2d0d 7b3b d5ce a9bb
00000300: fc6a 03ba 3f49 15ba d8f1 06ba 5272 d4ba
00000310: f5c1 eeb9 5381 4abb dcd6 9eba 2987 ba3b
00000320: b870 ecba b11c feba d45a c439 a15f 203b
00000330: 0c59 d03b aa0e fcb9 5d86 393b eba6 2b3a
00000340: 9030 64b7 50e8 673b d6b2 02bb df7d 4a3a
00000350: 1fb9 2ebb 9745 0b3b 7c03 96ba 6bee 95ba
00000360: 5321 72bb 47f8 efba 3b6e a33b 6834 2dbb
00000370: 3788 81ba 250b fbba 2de2 02bb 6aaa da3a
00000380: 61dd 993b 2287 a7b9 b101 cb3b 826d 88bb
00000390: 622d d43b ad22 7cba 14d3 e43a 7d1c 09b6
000003a0: 9b9d 2eba e121 bc39 94d2 77ba 238f 4339
000003b0: cc03 a83a d82e a83a ba62 baba 9fe7 62b8
000003c0: 68d9 763b b1c0 ac39 4e26 d7ba de4b b9ba
000003d0: 29b7 8638 8398 07bb 92c6 c5ba 617b 473b
000003e0: ffca 1cba c19f c338 3e41 ceba 041e fe3b
000003f0: d961 b739 655b 0eba 8f5b d4ba 35d2 d6b9

mlp.mlp.4.bias f4 [64]
-8.519656e-08 2.2008408e-08 3.1982413e-08 -4.3889833e-10 5.877287e-08 -1.4872895e-08 -2.4599663e-08 1.5679227e-09
2.7106302e-09 -6.482758e-08 -8.47743e-08 8.5831475e-09 4.147356e-08 -4.2980552e-09 9.526321e-08 -1.7777425e-07
-4.08748e-08 -3.6278003e-09 2.973319e-08 4.5551666e-08 8.209759e-09 -9.674194e-11 -1.4281358e-07 -1.4016007e-08
-1.4094101e-07 -3.9097796e-07 -1.6949683e-08 -1.992841e-08 5.8600507e-09 -9.284667e-08 1.0878806e-08 5.4970517e-09
1.48427e-07 3.1386955e-07 5.4862532e-09 4.087446e-09 -3.4619974e-09 -4.219319e-08 4.2940247e-08 5.304162e-08
2.9102685e-07 -3.7767753e-09 -3.1854654e-08 -3.067265e-07 2.8233805e-07 -1.2157597e-08 -3.4852513e-11 1.0047736e-07
-1.3149947e-08 -4.9503043e-08 -1.8000278e-09 9.107512e-09 -2.1323497e-07 7.906993e-09 -4.6267722e-08 6.9028516e-10
-1.7462544e-07 4.1001333e-10 -4.9003357e-09 1.9329988e-08 9.511964e-08 -6.8602204e-09 -2.5053015e-07 7.1628726e-08
00000000: 4ef5 b6b3 000d bd32 095d 0933 7349 f1af
00000010: 746d 7c33 af83 7fb2 3b4f d3b2 607e d730
00000020: e945 3a31 5737 8bb3 2a0d b6b3 1575 1332
00000030: a920 3233 18ae 93b1 8193 cc33 37e2 3eb4
00000040: 518e 2fb3 f04c 79b1 fa67 ff32 96a4 4333
00000050: e70a 0d32 dfbc d4ae 4c58 19b4 0dcb 70b2
00000060: 9255 17b4 9ae7 d1b4 bf98 91b2 092f abb2
00000070: 8d59 c931 ff62 c7b3 7fe5 3a32 94e0 bc31
00000080: 4e5f 1f34 e781 a834 9881 bc31 8e71 8c31
00000090: 1ae8 6db1 e737 35b3 4d6d 3833 e1cf 6333
000000a0: 6d3e 9c34 dec4 81b1 90d0 08b3 2bac a4b4
000000b0: 3f94 9734 addd 50b2 7148 19ae 03c6 d733
000000c0: 14ea 61b2 2c9d 54b3 d964 f7b0 4377 1c32
000000d0: 95f5 64b4 53d7 0732 e6b7 46b3 80be 3d30
000000e0: ad80 3bb4 3f68 e12f cf5f a8b1 180b a632
000000f0: 9344 cc33 23b7 ebb1 9a80 86b4 4fd2 9933

mlp.mlp.5.weight f4 [64]
0.12101386 0.6521456 0.12777236 0.17634816 0.674977 0.060293082 0.544573 0.055695675
0.33276865 0.5114441 0.6651904 0.11163356 0.5302782 0.5159653 0.58640546 0.7415038
0.17843163 0.5820309 0.21202019 0.29806492 0.5365329 0.3513657 0.7378484 0.11658322
0.77422583 0.78693485 0.1600268 0.38105822 0.36846521 0.73385465 0.06518173 0.6356129
0.7531146 0.7735112 0.047413033 0.33915186 0.50692123 0.4971131 0.64474213 0.61137354
0.713251 0.40053 0.17020841 0.8157387 0.7818674 0.24113554 0.035931244 0.522457
0.43698525 0.6405073 0.2511832 0.3830752 0.7515652 0.056047447 0.5598428 0.332619
0.46142045 0.56086326 0.11482162 0.62407374 0.3060804 0.49832514 0.7690866 0.43022713
00000000: 1dd6 f73d 04f3 263f c2d6 023e 9d94 343e
00000010: 4bcb 2c3f e1f5 763d 2369 0b3f 2621 643d
00000020: a760 aa3e 00ee 023f eb49 2a3f 23a0 e43d
00000030: 50c0 073f 4d16 043f ab1e 163f 31d3 3d3f
00000040: c8b6 363e faff 143f d21b 593e f79b 983e
00000050: 385a 093f 34e6 b33e a2e3 3c3f 2fc3 ee3d
00000060: aa33 463f 9074 493f 11de 233e 101a c33e
00000070: 79a7 bc3e e6dd 3b3f 007e 853d 87b7 223f
00000080: 1ecc 403f d404 463f 2b34 423d 50a5 ad3e
00000090: 97c5 013f 9c85 fe3e d20d 253f fa82 1c3f
000000a0: 9e97 363f 4512 cd3e 1d4b 2e3e 40d4 503f
000000b0: 7628 483f 3cec 763e a42c 133d bebf 053f
000000c0: 88bc df3e 49f8 233f 169b 803e 6f22 c43e
000000d0: 9466 403f 0292 653d dc51 0f3f 0a4d aa3e
000000e0: 4d3f ec3e bc94 0f3f 9927 eb3d 4cc3 1f3f
000000f0: 92b6 9c3e 7924 ff3e dce2 443f bb46 dc3e

mlp.mlp.5.bias f4 [64]
0.07647866 -0.030705709 0.019500148 -0.0039520916 -0.03447257 0.09663005 -0.033728216 0.03621519
0.07030259 -0.02601415 0.07106563 0.024221743 0.08647539 -0.028004114 -0.030889826 0.07047562
0.08169691 -0.033205096 0.00055154756 0.0829964 -0.03262692 -0.016274503 0.079036005 0.07552015
0.069775574 0.07689983 0.074202515 0.082446806 -0.011425995 0.08739105 0.027629465 -0.03415717
0.08004642 0.07373657 0.042511087 0.071560234 -0.029043883 -0.03084636 -0.037086252 -0.028786492
0.0775906 -0.019477809 0.018381352 0.07487315 0.07566246 0.08082213 0.0654745 0.076688774
0.08562853 -0.032983314 0.08192065 -0.016503649 0.07308076 0.032426476 0.07597658 -0.013793171
-0.02555248 -0.024375737 0.08230062 -0.03537193 0.07778277 -0.029021457 0.07859178 0.08079631
00000000: d8a0 9c3d 8a8a fbbc c6be 9f3c 8c80 81bb
00000010: 1c33 0dbd fae5 c53d 9926 0abd 6156 143d
00000020: cefa 8f3d a01b d5bc db8a 913d ad6c c63c
00000030: 021a b13d e268 e5bc a90c fdbc 8655 903d
00000040: b650 a73d 1102 08bd bb95 103a 04fa a93d
00000050: cea3 05bd 1b52 85bc a1dd a13d 4faa 9a3d
00000060: 7fe6 8e3d a87d 9d3d 7df7 973d dfd9 a83d
00000070: 1934 3bbc 14fa b23d 3057 e23c 64e8 0bbd
00000080: 61ef a33d 3303 973d 1b20 2e3d 2c8e 923d
00000090: 70ed edbc 81b1 fcbc c1e7 17bd a6d1 ebbc
000000a0: d2e7 9e3d ed8f 9fbc 7d94 963c 1857 993d
000000b0: ebf4 9a3d 1386 a53d 7f17 863d 010f 9d3d
000000c0: 035e af3d 8319 07bd 04c6 a73d a932 87bc
000000d0: 5eab 953d a0d1 043d 9c99 9b3d c1fc 61bc
000000e0: 6f53 d1bc a0af c7bc 3a8d a83d 28e2 10bd
000000f0: 934c 9f3d 68be edbc baf4 a03d 8978 a53d

mlp.mlp.5.running_mean f4 [64]
-0.0008870444 0.0033847364 -0.00066492637 0.0012313558 0.0021099588 -0.000488081 0.0020642863 -0.00075456226
-0.0011871435 0.0036663013 -0.0016376862 -0.0008078323 -4.2960514e-06 0.00801306 0.010252619 -0.0018922439
-0.00082349766 0.007860926 -0.00063155283 -0.0010442568 9.335383e-05 0.0008482333 0.00028480007 -0.0008696352
-0.0027266457 -0.0032071692 -0.00088748964 -0.0015366152 0.001149302 -0.0017501612 -0.0007519815 0.0077389777
-0.0040585315 -0.0018743069 -0.0007209755 -0.00070400094 0.003378928 0.004521575 0.0029887334 0.0042707026
-0.0018289423 0.0032624125 -0.00071806996 -0.0032514469 -0.0051684068 -0.00091311184 -0.00051921513 -0.00049551827
-0.0011399643 0.00479021 -0.0010249368 0.00430756 -0.002515468 -0.00077017775 -0.0013639401 0.0011226693
0.002028523 0.00023105065 -0.00088405167 0.00063416525 -0.0011227302 0.008180134 -0.0034999563 -0.0012277275
00000000: 8b88 68ba 74d2 5d3b 744e 2eba 7265 a13a
00000010: 3c47 0a3b 1fe5 ffb9 fa48 073b d1cd 45ba
00000020: ed99 9bba 5446 703b a1a7 d6ba b5c4 53ba
00000030: cd26 90b6 3649 033c 9afa 273c 2b05 f8ba
00000040: fedf 57ba 1dcb 003c cb8e 25ba 72df 88ba
00000050: f5c6 c338 f95b 5e3a 3851 9539 3bf8 63ba
00000060: 86b1 32bb 5f2f 52bb 6ca6 68ba 4068 c9ba
00000070: 2da4 963a aa65 e5ba a020 45ba 4097 fd3b
00000080: 6efd 84bb 4eab f5ba d9ff 3cba b48c 38ba
00000090: 0171 5d3b b829 943b a0de 433b 40f1 8b3b
000000a0: 1fb9 efba 33ce 553b dc3c 3cba 3a16 55bb
000000b0: bd5b a9bb e65d 6fba f01b 08ba abe5 01ba
000000c0: db6a 95ba 32f7 9c3b 2c57 86ba 6f26 8d3b
000000d0: 8dda 24bb c1e5 49ba 3cc6 b2ba 8826 933a
000000e0: f8f0 043b 3046 7239 b4bf 67ba 1c3e 263a
000000f0: 9328 93ba f805 063c 865f 65bb b3eb a0ba

mlp.mlp.5.running_var f4 [64]
3.965604e-05 2.8751652e-05 2.802488e-05 4.618408e-06 5.6192057e-06 2.566511e-05 1.038875e-05 1.7899094e-05
8.0185346e-05 1.2999636e-05 0.0001374069 2.7739336e-05 0.0001340052 3.432999e-05 6.71036e-05 0.00016422637
5.4737073e-05 8.0006146e-05 3.1132524e-05 7.9094745e-05 1.1187259e-07 7.8470646e-07 0.00021630988 3.8367318e-05
0.00016847055 0.00018930416 4.9297778e-05 0.000100183424 1.9329952e-06 0.00020695764 1.8764633e-05 4.283292e-05
0.00024688418 0.00016809738 1.5550608e-05 8.132507e-05 9.175081e-06 2.1261409e-05 2.238632e-05 1.8992403e-05
0.00016711198 9.170812e-06 3.3807653e-05 0.00024746184 0.00022685605 6.895704e-05 1.4243475e-05 0.00013550706
0.000109656845 3.5687928e-05 6.998777e-05 1.6523636e-05 0.00015380023 1.6769241e-05 0.0001252704 9.753176e-07
3.3513454e-06 6.376192e-07 3.9263276e-05 1.7811484e-05 7.885169e-05 3.507137e-05 0.00021488132 0.000111316556
00000000: 5954 2638 b42f f137 f916 eb37 d3f7 9a36
00000010: 9c8c bc36 674b d737 574b 2e37 0326 9637
00000020: 2e29 a838 0319 5a37 e214 1039 c5b1 e837
00000030: bf83 0c39 8cfd 0f38 f9b9 8c38 2e34 2c39
00000040: 7c95 6538 f9c8 a738 4b94 0238 abdf a538
00000050: 9b3e f033 9ea4 5235 3ed1 6239 98ec 2038
00000060: 78a7 3039 f37f 4639 16c5 4e38 9119 d238
00000070: 9bb8 0136 c502 5939 be68 9d37 7fa7 3338
00000080: 3c70 8139 4c43 3039 ad72 8237 118d aa38
00000090: acee 1937 875a b237 42ca bb37 e051 9f37
000000a0: c83a 2f39 56dc 1937 b1cc 0d38 c4bd 8139
000000b0: 35e0 6d39 079d 9038 42f7 6e37 e616 0e39
000000c0: 92f7 e538 9faf 1538 66c6 9238 3d9c 8a37
000000d0: 6f45 2139 acab 8c37 045b 0339 a8e7 8235
000000e0: ade7 6036 dc28 2b35 9fae 2438 df69 9537
000000f0: 2e5d a538 9919 1338 c451 6139 9f72 e938

mlp.mlp.8.weight f4 [1, 64]
0.06529369 -0.06036045 0.028853677 0.0105970185 -0.0677662 0.074062206 -0.05262387 0.036837395
0.07545529 -0.030867137 0.11854651 0.032075252 0.11746541 -0.034962155 -0.053143926 0.13987435
0.075320974 -0.053158395 0.021441866 0.08578486 -0.060609438 -0.004878598 0.15327369 0.06435831
0.14472826 0.16543606 0.069429815 0.098341696 0.00418088 0.1822983 0.031156527 -0.07130109
0.16713934 0.14827912 0.03825212 0.076060906 -0.041406877 -0.03880218 -0.06164847 -0.038706515
0.13782836 -0.013715824 0.029677944 0.17429769 0.16692197 0.08267219 0.04971053 0.11653266
0.103123985 -0.062042907 0.08193533 -0.0041219606 0.139819 0.032781366 0.10754358 -0.0048371544
-0.031094998 -0.016889099 0.070487365 -0.05055203 0.08156591 -0.03902612 0.16348365 0.10553683
00000000: b3b8 853d 853c 77bd 8c5e ec3c 1e9f 2d3c
00000010: 01c9 8abd edad 973d 218c 57bd cfe2 163d
00000020: 4e88 9a3d 14dd fcbc 83c8 f23d 5761 033d
00000030: b491 f03d 7a34 0fbd 72ad 59bd 393b 0f3e
00000040: e241 9a3d 9ebc 59bd daa6 af3c f9af af3d
00000050: 9a41 78bd a5dc 9fbb c7f3 1c3e 4ace 833d
00000060: a533 143e 1268 293e 3831 8e3d 5f67 c93d
00000070: c3ff 883b 68ac 3a3e f93b ff3c 4e06 92bd
00000080: 9326 2b3e 7bd6 173e 41ae 1c3d d2c5 9b3d
00000090: 429a 29bd 09ef 1ebd 1b83 7cbd b98a 1ebd
000000a0: e122 0d3e 56b8 60bc 291f f33c 187b 323e
000000b0: 98ed 2a3e 0a50 a93d 459d 4b3d ada8 ee3d
000000c0: ab32 d33d b420 7ebd b6cd a73d 8311 87bb
000000d0: b62c 0f3e c145 063d cf3f dc3d fe80 9ebb
000000e0: f0ba febc 025b 8abc ae5b 903d a50f 4fbd
000000f0: 070c a73d dad9 1fbd 4268 273e b223 d83d
