model_lr_0.001/dfm_epoch_150.pt (torch, 283383 bytes, 27 tensors)

embedding.embedding.weight f4 [98, 75]
0	0x3d3d2628	0.046178967
1	0x3bf189d9	0.007371169
2	0x3da2ea4f	0.07954847
3	0x3d515481	0.05110598
4	0xbd7559aa	-0.059899963
5	0x3d3198ff	0.0433588
6	0x3d44976f	0.04799598
7	0x3de98d9f	0.11403965
8	0x3d08e01a	0.033416845
9	0x3db3a187	0.08771043
10	0xbe00c609	-0.12575544
11	0x3d5197a2	0.05117
12	0x3dca8b91	0.098899014
13	0x3d9ada81	0.075612076
14	0x3dd2a7ef	0.10285937
15	0xbd28a0df	-0.041169044
16	0xbc5402b1	-0.012940095
17	0x3d56c948	0.05243805
18	0xbc6f87cf	-0.014619782
19	0x3d64d8df	0.055870887
20	0xbd2e7125	-0.04258837
21	0xbd2adc03	-0.041713726
22	0xbdb37381	-0.08762265
23	0x3db810a6	0.089875504
24	0x3d303077	0.04301497
25	0xbd8bbde6	-0.0682333
26	0x3dceaf13	0.100919865
27	0x3d92952d	0.07157359
28	0x3d370c72	0.044689603
29	0xbd952f91	-0.07284463
30	0x3dc77ed7	0.0974099
31	0x3d7274ab	0.059193294
32	0x3d30964f	0.043112095
33	0xbd747a76	-0.0596871
34	0x3d68c3b6	0.05682727
35	0xbcc9f051	-0.024650725
36	0xbd9f83f8	-0.07788843
37	0x3d8b2b89	0.06795413
38	0xbd436a02	-0.04770852
39	0xbd8f3ab6	-0.0699362
40	0xbd8b007c	-0.06787202
41	0xbd87e48d	-0.066353895
42	0xbd819739	-0.063276716
43	0x3d5fce30	0.054639995
44	0xbc62dd39	-0.013846689
45	0xbcbb2621	-0.02284533
46	0xbd14c8dc	-0.036324367
47	0x3d6ab1df	0.057298537
48	0x3d991296	0.07474248
49	0xbdb033c6	-0.08603625
50	0xbcf09814	-0.029369392
51	0xbde1e097	-0.11029165
52	0x3d396211	0.04525954
53	0x3d3eb545	0.04655959
54	0xbd86b38f	-0.06577217
55	0x3cfc9082	0.030830625
56	0x3d81b442	0.063332096
57	0xbdb02af8	-0.08601946
58	0x3db66494	0.089059025
59	0x3d953ed0	0.07287371
60	0x3dd576b3	0.10423031
61	0x3befe1e5	0.00732063
62	0x3da1892b	0.07887491
63	0x3d940100	0.07226753
64	0xbb6e7555	-0.0036385853
65	0xbd61198d	-0.054956008
66	0x3dcb895b	0.09938308
67	0xbce912b4	-0.028451301
68	0x3d6d85b4	0.057988837
69	0x3c1a404e	0.0094147455
70	0xbd94c422	-0.07263972
71	0xbdab99bb	-0.08378931
72	0x3d88f4f1	0.06687344
73	0xbd43b1fc	-0.04777716
74	0x3df146ec	0.117811054
75	0x3d4b26cc	0.049597546
76	0x3c02bfde	0.007980315
77	0x3daea4ea	0.085275486
78	0x3d60cf96	0.05488547
79	0xbd83a6b7	-0.06428283
80	0x3d3ed5b7	0.046590533
81	0x3d530d54	0.051526383
82	0x3dfa44b1	0.12220133
83	0x3d134c84	0.035961643
84	0x3dc08747	0.09400802
85	0xbe09ff9d	-0.13476415
86	0x3d611834	0.054954723
87	0x3dd9104f	0.10598814
88	0x3da6088e	0.081071004
89	0x3de1bdf2	0.11022557
90	0xbd354807	-0.044258144
91	0xbc650944	-0.01397926
92	0x3d669e2d	0.056303192
93	0xbc81628d	-0.015794063
94	0x3d75ac2c	0.05997865
95	0xbd3b7f30	-0.045775592
96	0xbd37a299	-0.0448328
97	0xbdc058fc	-0.093919724
98	0x3dc54925	0.09633092
99	0x3d3d6099	0.0462347
100	0xbd95e46c	-0.07318959
101	0x3ddd7e0c	0.10815057
102	0x3d9d3038	0.076752126
103	0x3d449b93	0.04799993
104	0xbd9ffbc8	-0.07811695
105	0x3dd5cc29	0.10439331
106	0x3d82191f	0.06352448
107	0x3d3dc401	0.046329502
108	0xbd83230c	-0.06403169
109	0x3d79d4f8	0.06099412
110	0xbcd9799f	-0.026547251
111	0xbdab055e	-0.08350633
112	0x3d954932	0.072893515
113	0xbd51ecf8	-0.05125138
114	0xbd9999d6	-0.07500045
115	0xbd951870	-0.07280052
116	0xbd91c62e	-0.07117878
117	0xbd8b0b8d	-0.067893125
118	0x3d703959	0.05864844
119	0xbc750f08	-0.014957197
120	0xbcc9ccac	-0.024633728
121	0xbd200fcc	-0.039077565
122	0x3d7be6ff	0.061499592
123	0x3da42101	0.080141075
124	0xbdbcdd58	-0.092219055
125	0xbd014d9a	-0.031568147
126	0xbdf20bf2	-0.11818685
127	0x3d47363e	0.048635714
128	0x3d4ce3f2	0.050022073
129	0xbd907b4e	-0.070547685
130	0x3d07ef87	0.033187415
131	0x3d8b29cf	0.06795084
132	0xbdbcd3d8	-0.092200935
133	0x3dc37f8a	0.095458105
134	0x3da00bfa	0.07814784
135	0x3de4bf7a	0.11169334
136	0x3c01d90c	0.007925283
137	0x3dad31c3	0.08456757
138	0x3d9eb6bf	0.077497
139	0xbb810e86	-0.003938499
140	0xbd71a542	-0.058995493
141	0x3dda1dac	0.10650191
142	0xbcfafbbc	-0.030637614
143	0x3d7ee871	0.062233392
144	0x3c26a333	0.010170746
145	0xbd9f8a5a	-0.0779006
146	0xbdb7f119	-0.089815326
147	0x3d92e9c3	0.07173493
148	0xbd52380f	-0.051322993
149	0x3e0146a7	0.12624608
150	0x3d647897	0.055779066
151	0x3c1272a9	0.00893847
152	0x3dc49389	0.095984526
153	0x3d7cd910	0.061730444
154	0xbd941fbb	-0.072326146
155	0x3d569213	0.0523854
156	0x3d6d6428	0.057956845
157	0x3e0cd352	0.13752487
158	0x3d257cf7	0.04040238
159	0x3dd8b742	0.10581829
160	0xbe1b3c8a	-0.15159813
161	0x3d7d2f4e	0.06181269
162	0x3df4529f	0.11929821
163	0x3dbadc9a	0.09124108
164	0x3dfe1626	0.12406568
165	0xbd4bc7e5	-0.04975118
166	0xbc8067eb	-0.015674552
167	0x3d81b381	0.06333066
168	0xbc911f28	-0.017715052
169	0x3d8a2f13	0.0674726
170	0xbd52cc13	-0.05146415
171	0xbd4e7161	-0.050401095
172	0xbdd881d1	-0.105716355
173	0x3dde103c	0.1084294
174	0x3d54e893	0.051979613
175	0xbda8aca6	-0.08236055
176	0x3df94cfc	0.12172887
177	0x3db0e927	0.0863822
178	0x3d5d1dac	0.053983375
179	0xbdb40d44	-0.08791593
180	0x3df0a65f	0.11750483
181	0x3d925fac	0.07147154
182	0x3d555b54	0.05208905
183	0xbd939003	-0.072052024
184	0x3d8c8819	0.06861896
185	0xbcf450cf	-0.029823689
186	0xbdc07d1f	-0.09398865
187	0x3da7fe66	0.082028195
188	0xbd6c1414	-0.057636335
189	0xbdacddd8	-0.08440751
190	0xbda7c8c8	-0.08192593
191	0xbda40aa5	-0.08009843
192	0xbd9c73c6	-0.076392695
193	0x3d871d8c	0.065974325
194	0xbc896484	-0.016771562
195	0xbce285bc	-0.02765166
196	0xbd33e27d	-0.043917168
197	0x3d8db321	0.06918932
198	0x3db8b95b	0.09019729
199	0xbdd48f53	-0.103788994
200	0xbd115e19	-0.03549013
201	0xbe083204	-0.1330033
202	0x3d5ffcc5	0.05468442
203	0x3d666bba	0.05625508
204	0xbda2974b	-0.07939013
205	0x3d18b353	0.037280392
206	0x3d9c9608	0.07645804
207	0xbdd48ad0	-0.10378039
208	0x3ddc0cf2	0.107446566
209	0x3db42034	0.08795205
210	0x3e00baba	0.1257123
211	0x3c1175e1	0.008878202
212	0x3dc2eee0	0.09518218
213	0x3db2a040	0.087219715
214	0xbb908500	-0.004410386
215	0xbd87ea0f	-0.0663644
216	0x3df57f0b	0.11987122
217	0xbd0cefa4	-0.034408227
218	0x3d8f64a9	0.07001621
219	0x3c3acfaa	0.01140205
220	0xbdb38c9a	-0.08767052
221	0xbdcf0781	-0.10108853
222	0x3da552ef	0.08072459
223	0xbd6c66eb	-0.057715338
224	0x3e117934	0.14206392
225	0x3c965f18	0.018355891
226	0x3b3fc637	0.0029262432
227	0x3d01e097	0.031708326
228	0x3ca683f4	0.020326592
229	0xbcc352fa	-0.023843277
230	0x3c8d2c55	0.017233053
231	0x3c9c4705	0.019076834
232	0x3d3ab786	0.045585178
233	0x3c597ca6	0.013274347
234	0x3d0f4e32	0.034986682
235	0xbd4e18aa	-0.05031649
236	0x3ca6c323	0.02035672
237	0x3d21bdb0	0.03948754
238	0x3cf6e19a	0.030136872
239	0x3d284352	0.041079827
240	0xbc8609d0	-0.0163621
241	0xbba84a45	-0.0051358067
242	0x3caadc74	0.020857073
243	0xbbbe3762	-0.005804942
244	0x3cb61c5a	0.022230316
245	0xbc8aad95	-0.016928473
246	0xbc87cc67	-0.016576959
247	0xbd0f29c4	-0.03495194
248	0x3d12dfba	0.035857894
249	0x3c8c12da	0.017098833
250	0xbcdeaa5b	-0.027180841
251	0x3d251224	0.040300503
252	0x3ce9907e	0.028511282
253	0x3c9180f7	0.01776169
254	0xbcedbf0f	-0.029021768
255	0x3d1f48f9	0.03888795

linear.fc.weight f4 [98, 1]
0	0x3f0623ad	0.52398187
1	0x3f0cff42	0.5507699
2	0x3f117853	0.56824225
3	0x3e40a723	0.18813758
4	0x3e82fe05	0.25584427
5	0x3d7f7eca	0.062376775
6	0x3ea35538	0.31900954
7	0x3e997b20	0.2997675
8	0x3daeee4f	0.085415475
9	0x3d07b276	0.033129178
10	0x3d081b60	0.03322923
11	0x3d03079c	0.03198968
12	0x3c748014	0.014923114
13	0x3c7284cb	0.014802168
14	0x3c700ed3	0.014651972
15	0x3c72d040	0.0148201585
16	0x3e5884ed	0.21144457
17	0x3e1981c5	0.1499091
18	0x3e32de9d	0.17467733
19	0x3e258d70	0.16167235
20	0x3e474c6d	0.19462748
21	0x3e5627d4	0.2091363
22	0x3e3c2264	0.18372494
23	0x3cf53f88	0.02993752
24	0x3cc5de33	0.024153804
25	0x3cb5b09b	0.022178939
26	0x3cd51026	0.026008677
27	0x3cfe61e7	0.031052543
28	0x3d0b0c6c	0.033947393
29	0x3cd3860d	0.025820756
30	0x3c1bda72	0.009512531
31	0x3b3dd37f	0.0028965173
32	0x3cf21b34	0.029553987
33	0x3c6fc118	0.0146334395
34	0x3a367ee6	0.00069616584
35	0x39ec5209	0.0004507455
36	0x39c56839	0.0003765242
37	0x3c492fce	0.012279464
38	0x392b44e9	0.00016333502
39	0x3b930726	0.004486936
40	0x3bb77f69	0.0055999053
41	0x3aa72b81	0.0012754054
42	0x3bfbc8b8	0.0076838396
43	0x3d10e08d	0.0353704
44	0x3d073d14	0.033017233
45	0x3b8e8cf6	0.0043503
46	0x3c9e7bda	0.019346166
47	0x3cd92db8	0.026511058
48	0x3b2f51e5	0.0026751694
49	0x3cddf65b	0.02709501
50	0x3ca06d2c	0.019583307
51	0x3b9fbcfe	0.0048748245
52	0x3b2cab35	0.0026347165
53	0x3c01f16b	0.007931094
54	0x3a8d1d98	0.0010766266
55	0x3b2eff11	0.0026702324
56	0x3ce4afef	0.027915923
57	0x3b04c85f	0.0020261032
58	0x3d0368b4	0.032082275
59	0x3c9c5a16	0.019085925
60	0x3bf12e57	0.0073602605
61	0x3bd56dcf	0.0065133343
62	0x3cb70e77	0.022345765
63	0x3b499a34	0.0030762078
64	0x3b500e8b	0.003174695
65	0x398f19e2	0.0002729437
66	0x3a224f39	0.00061916147
67	0x3c88558b	0.016642353
68	0x3d11dce0	0.035611033
69	0x3c95fd28	0.01830919
70	0x3c48e3cc	0.012261342
71	0x3c318d4e	0.010836912
72	0x3b93ac55	0.0045066276
73	0x3c0db880	0.008649945
74	0x3a1b3cfa	0.0005921867
75	0x3d1dbc09	0.038509402
76	0x3b0a2b41	0.002108291
77	0x38a0c38c	7.665818e-05
78	0x3cdbc3ac	0.026826702
79	0x3d1707a6	0.03687253
80	0x3cc89c80	0.024488688
81	0x3cc91179	0.024544464
82	0x3b6da7f8	0.0036263447
83	0x3ae020c4	0.0017099609
84	0x3d0e9103	0.034806263
85	0x3d03454e	0.032048516
86	0x3c94e25c	0.018174343
87	0x3b8fd1cc	0.0043890234
88	0x3c11b7c8	0.0088939145
89	0x3c999dcf	0.018752007
90	0x3cca4fe8	0.024696305
91	0x3c1834e3	0.009289953
92	0x3c03250b	0.008004437
93	0x3c63d4a1	0.013905675
94	0x3c521330	0.0128219575
95	0x3c10aa4c	0.008829664
96	0x39a3a7ce	0.00031214807
97	0x3c8ed2cb	0.017434498

mlp.mlp.0.weight f4 [128, 375]
0	0x802de3b1	-4.214278e-39
1	0x802f0479	-4.317873e-39
2	0x0038e665	5.225438e-39
3	0x800f7f9f	-1.423314e-39
4	0x00253be7	3.419402e-39
5	0x0016ff07	2.111867e-39
6	0x000688de	6.00112e-40
7	0x0051439d	7.46293e-39
8	0x804ef090	-7.249466e-39
9	0x8018e057	-2.28453e-39
10	0x0033c61a	4.754676e-39
11	0x0012dd20	1.732364e-39
12	0x8016460e	-2.045512e-39
13	0x001c302a	2.588672e-39
14	0x0006fb6f	6.4121e-40
15	0x802d3d3c	-4.154564e-39
16	0x0026e24b	3.570927e-39
17	0x004491d0	6.297121e-39
18	0x8035faf6	-4.957309e-39
19	0x80303e03	-4.43035e-39
20	0x8017a220	-2.170376e-39
21	0x003cadde	5.572502e-39
22	0x80311d7b	-4.510515e-39
23	0x00505df8	7.38055e-39
24	0x8001ae85	-1.54441e-40
25	0x800ebfe3	-1.354533e-39
26	0x804f5142	-7.284154e-39
27	0x8007f8b2	-7.32064e-40
28	0x000c366a	1.121546e-39
29	0x803abfe2	-5.395293e-39
30	0x8027c005	-3.650468e-39
31	0x802b36a7	-3.968532e-39
32	0x004f0551	7.256911e-39
33	0x001b923b	2.532016e-39
34	0x004d0f13	7.076741e-39
35	0x000aa8a2	9.78849e-40
36	0x004dd202	7.14667e-39
37	0x804a894a	-6.845077e-39
38	0x004c0153	6.979973e-39
39	0x0020e1d4	3.019748e-39
40	0x8018829b	-2.250904e-39
41	0x802e5ea0	-4.258378e-39
42	0x0040fc24	5.967923e-39
43	0x800050d7	-2.9e-41
44	0x8006e485	-6.3299e-40
45	0x8006007e	-5.5119e-40
46	0x004c2bcf	6.995213e-39
47	0x0048c7e5	6.683864e-39
48	0x0023e0c3	3.294872e-39
49	0x00143c5f	1.858367e-39
50	0x800a3983	-9.38986e-40
51	0x80494a5d	-6.730668e-39
52	0x802bdee3	-4.028883e-39
53	0x80483e3b	-6.63448e-39
54	0x002b1661	3.956954e-39
55	0x00521723	7.53881e-39
56	0x802ed29a	-4.299982e-39
57	0x8003ef58	-3.61367e-40
58	0x80098b14	-8.76411e-40
59	0x801ce4e8	-2.65351e-39
60	0x803dfef0	-5.69342e-39
61	0x800df105	-1.280323e-39
62	0x0019f858	2.384976e-39
63	0x8028af38	-3.736276e-39
64	0x80250b72	-3.402019e-39
65	0x0006f80a	6.39993e-40
66	0x801e1d68	-2.765614e-39
67	0x000d1b22	1.203595e-39
68	0x0049d04a	6.778711e-39
69	0x803d27d0	-5.616247e-39
70	0x8050cf7a	-7.421268e-39
71	0x8033acd6	-4.745612e-39
72	0x004e87f2	7.211937e-39
73	0x0025c65f	3.469075e-39
74	0x004c70e2	7.019992e-39
75	0x802fbaf8	-4.38334e-39
76	0x80116745	-1.59825e-39
77	0x80137ac8	-1.78892e-39
78	0x00016c7c	1.30752e-40
79	0x00380a3e	5.146462e-39
80	0x8012b4e0	-1.717925e-39
81	0x8027fa5f	-3.6714e-39
82	0x004e597e	7.195272e-39
83	0x0015647b	1.964591e-39
84	0x803fd9f3	-5.863822e-39
85	0x8018b7a1	-2.269926e-39
86	0x00328e28	4.642771e-39
87	0x8030da0b	-4.486323e-39
88	0x80194b2f	-2.322858e-39
89	0x80304d17	-4.435758e-39
90	0x80331986	-4.692766e-39
91	0x00274d7a	3.609378e-39
92	0x80314979	-4.526296e-39
93	0x801748a7	-2.138279e-39
94	0x0001ef97	1.77784e-40
95	0x8007b719	-7.08532e-40
96	0x0025df39	3.47799e-39
97	0x80104e6f	-1.497505e-39
98	0x8039dde4	-5.314223e-39
99	0x803eedf4	-5.779162e-39
100	0x0042532c	6.090979e-39
101	0x001350fc	1.773926e-39
102	0x802e819f	-4.270932e-39
103	0x00014d91	1.19661e-40
104	0x80445cbb	-6.278079e-39
105	0x00423a3f	6.082038e-39
106	0x801971fe	-2.33678e-39
107	0x0030fcc4	4.498779e-39
108	0x804f2afa	-7.270421e-39
109	0x8015485b	-1.954502e-39
110	0x0005f5eb	5.47396e-40
111	0x0038780d	5.185854e-39
112	0x804dbf98	-7.140064e-39
113	0x803fdde3	-5.865234e-39
114	0x004e2725	7.177211e-39
115	0x804d1eaa	-7.082333e-39
116	0x001e20e4	2.766864e-39
117	0x004e6e8d	7.202827e-39
118	0x0007ea1a	7.26828e-40
119	0x803fc4cc	-5.856234e-39
120	0x001b478c	2.505225e-39
121	0x00392009	5.246115e-39
122	0x800ab64c	-9.83751e-40
123	0x8014d4dc	-1.91307e-39
124	0x00348c3f	4.825757e-39
125	0x0009ca24	8.99034e-40
126	0x804d8168	-7.117755e-39
127	0x001ed4f9	2.831465e-39
128	0x0017b83b	2.178306e-39
129	0x80156d8a	-1.96784e-39
130	0x0016e561	2.102667e-39
131	0x804ec997	-7.235486e-39
132	0x0029b680	3.830724e-39
133	0x00340de3	4.780427e-39
134	0x8035651a	-4.90355e-39
135	0x0000a084	5.7582e-41
136	0x004e2f08	7.18004e-39
137	0x003d7481	5.643759e-39
138	0x803eb3b7	-5.75827e-39
139	0x80053b93	-4.80549e-40
140	0x805067cc	-7.384075e-39
141	0x0018b63e	2.269428e-39
142	0x00095caa	8.59761e-40
143	0x001abff7	2.456587e-39
144	0x804764ee	-6.556527e-39
145	0x8005c935	-5.31357e-40
146	0x80458dbc	-6.387494e-39
147	0x8040e57e	-5.959798e-39
148	0x0003af7d	3.3846e-40
149	0x801835c5	-2.223341e-39
150	0x8039c093	-5.303706e-39
151	0x803ab54b	-5.391494e-39
152	0x8007585f	-6.7455e-40
153	0x00146306	1.872233e-39
154	0x001b2a62	2.494762e-39
155	0x800b100c	-1.015947e-39
156	0x801d538e	-2.693203e-39
157	0x804c8745	-7.028023e-39
158	0x8021caa4	-3.103265e-39
159	0x003cf2fc	5.597296e-39
160	0x00177a39	2.156062e-39
161	0x804eb20a	-7.227037e-39
162	0x003fdea7	5.865509e-39
163	0x8042581c	-6.09275e-39
164	0x800aad35	-9.8049e-40
165	0x00175995	2.144352e-39
166	0x002ec0a4	4.293539e-39
167	0x8024df44	-3.38617e-39
168	0x803de355	-5.683517e-39
169	0x0036fe74	5.050397e-39
170	0x8011a489	-1.620228e-39
171	0x8006b884	-6.17205e-40
172	0x8000a2d5	-5.8413e-41
173	0x802c2709	-4.054765e-39
174	0x802356a6	-3.245326e-39
175	0x803bb51b	-5.483263e-39
176	0x00265d8e	3.52331e-39
177	0x004c50bc	7.00846e-39
178	0x8004812e	-4.13683e-40
179	0x8006b662	-6.1644e-40
180	0x000163c5	1.27626e-40
181	0x0015747e	1.970335e-39
182	0x8007dd1a	-7.22165e-40
183	0x80047705	-4.10038e-40
184	0x0035540d	4.897433e-39
185	0x804ae178	-6.87671e-39
186	0x0039c5f7	5.30564e-39
187	0x8037ec6d	-5.135766e-39
188	0x00521703	7.538766e-39
189	0x80135c80	-1.778057e-39
190	0x80127fe8	-1.698923e-39
191	0x802827a3	-3.687639e-39
192	0x8045789d	-6.379917e-39
193	0x803b56dc	-5.449454e-39
194	0x0047e0e3	6.600994e-39
195	0x002998e4	3.820102e-39
196	0x001343cf	1.7692e-39
197	0x004c682c	7.016868e-39
198	0x004ef870	7.252291e-39
199	0x80323974	-4.612385e-39
200	0x802f7b0b	-4.360408e-39
201	0x00358631	4.91542e-39
202	0x8022650f	-3.15866e-39
203	0x002c2fc6	4.0579e-39
204	0x0036a8b8	5.019642e-39
205	0x004972b3	6.745138e-39
206	0x8018686f	-2.241516e-39
207	0x0014ed37	1.921807e-39
208	0x802b32a7	-3.967097e-39
209	0x80005a78	-3.2454e-41
210	0x000b10a3	1.016159e-39
211	0x00299d7f	3.821754e-39
212	0x000f0a90	1.381322e-39
213	0x004ee5ea	7.245646e-39
214	0x804ca8d2	-7.040059e-39
215	0x8018ebc7	-2.288633e-39
216	0x80281ee2	-3.684499e-39
217	0x0036e01c	5.039512e-39
218	0x0033873f	4.732127e-39
219	0x8021341b	-3.049263e-39
220	0x005184fc	7.486381e-39
221	0x004b1a76	6.897155e-39
222	0x0021239a	3.043343e-39
223	0x80514432	-7.463139e-39
224	0x800318e7	-2.8444e-40
225	0x804f5e52	-7.28884e-39
226	0x801b19fc	-2.48888e-39
227	0x8049c52a	-6.77472e-39
228	0x802f9a88	-4.371704e-39
229	0x0001cd96	1.65586e-40
230	0x8047dbfe	-6.599239e-39
231	0x8043ad82	-6.215221e-39
232	0x804d4b17	-7.09827e-39
233	0x002df2fa	4.219761e-39
234	0x00011f7f	1.03134e-40
235	0x001038a4	1.489687e-39
236	0x804981fb	-6.75062e-39
237	0x80344828	-4.80133e-39
238	0x801a3add	-2.408839e-39
239	0x80279f2f	-3.638689e-39
240	0x80075778	-6.74226e-40
241	0x004ecf17	7.237459e-39
242	0x000d61d4	1.228956e-39
243	0x8022f42f	-3.210003e-39
244	0x004a431f	6.819905e-39
245	0x8052324a	-7.548551e-39
246	0x8031894a	-4.54919e-39
247	0x00300da9	4.413004e-39
248	0x8046fade	-6.518479e-39
249	0x8016aac8	-2.081646e-39
250	0x000fac75	1.439398e-39
251	0x004ab218	6.859715e-39
252	0x8051767a	-7.481177e-39
253	0x80210ef8	-3.035941e-39
254	0x801c727d	-2.612465e-39
255	0x80282ac6	-3.688764e-39

mlp.mlp.0.bias f4 [128]
0	0x80204f9f	-2.967299e-39
1	0xb28ef3a5	-1.6641772e-08
2	0x8025951b	-3.451402e-39
3	0x00091d85	8.37109e-40
4	0x0041f563	6.057335e-39
5	0x801589d6	-1.977992e-39
6	0x33b06994	8.214843e-08
7	0x004d8483	7.11887e-39
8	0x33895e9a	6.3967676e-08
9	0x8051c65a	-7.50983e-39
10	0x004da73d	7.131327e-39
11	0xb3611cb9	-5.2413018e-08
12	0x32e17550	2.6246795e-08
13	0x00510a83	7.442446e-39
14	0x801c8bb4	-2.62151e-39
15	0x80305e3e	-4.441912e-39
16	0x00151fc6	1.939944e-39
17	0x800555d4	-4.89967e-40
18	0x803c0eaf	-5.515397e-39
19	0xb336c7e8	-4.255699e-08
20	0x001ad69a	2.464707e-39
21	0x8043f11f	-6.239476e-39
22	0x0007d9e0	7.21007e-40
23	0x001af1e4	2.474497e-39
24	0x00141edb	1.847779e-39
25	0x00517699	7.48122e-39
26	0xb3915aa3	-6.7685754e-08
27	0x004c0635	6.981724e-39
28	0x002633f5	3.508388e-39
29	0x004c00a6	6.97973e-39
30	0x8022fdaa	-3.213404e-39
31	0x0022b596	3.187548e-39
32	0x802b80f0	-3.99518e-39
33	0x0000c46a	7.046e-41
34	0x8007c9b9	-7.15213e-40
35	0x000ee9a7	1.369516e-39
36	0x803de4bd	-5.684021e-39
37	0xb31ae98f	-3.606834e-08
38	0x800af9a9	-1.007916e-39
39	0x804e678b	-7.200313e-39
40	0x000a33a1	9.36876e-40
41	0x000d3bb4	1.215279e-39
42	0x8006fc5a	-6.4154e-40
43	0x00321572	4.599468e-39
44	0x803e91ad	-5.74606e-39
45	0x800eaf20	-1.34852e-39
46	0x003832fb	5.161076e-39
47	0x00115229	1.590677e-39
48	0x00315806	4.531516e-39
49	0x3275f67f	1.4316924e-08
50	0x002a4240	3.880857e-39
51	0x804eb21e	-7.227065e-39
52	0x002ef6d5	4.31298e-39
53	0x801e1e8e	-2.766026e-39
54	0x0048a1e3	6.67023e-39
55	0x8038fc2a	-5.233247e-39
56	0x80120cb8	-1.657602e-39
57	0x32337792	1.04463584e-08
58	0x0042f83d	6.150194e-39
59	0x80133d8b	-1.766952e-39
60	0x800c959b	-1.155694e-39
61	0x804d6093	-7.105978e-39
62	0x33bebcbc	8.881895e-08
63	0x8006296d	-5.65874e-40
64	0x802db230	-4.196519e-39
65	0x33471993	4.6356558e-08
66	0x0040f68c	5.965916e-39
67	0x80247b04	-3.350208e-39
68	0x003ccb7d	5.583128e-39
69	0xb2ec00f6	-2.7474453e-08
70	0x32d61110	2.4920638e-08
71	0x30d6036e	1.5571524e-09
72	0x80457de2	-6.381807e-39
73	0x0050c499	7.417366e-39
74	0x8024a080	-3.363654e-39
75	0x0025a01b	3.455348e-39
76	0x340b63ad	1.2981646e-07
77	0x335cbe34	5.139573e-08
78	0x00105e13	1.503115e-39
79	0x0037c425	5.121316e-39
80	0x802111d7	-3.036971e-39
81	0x8011e08b	-1.641754e-39
82	0x002ab28e	3.921144e-39
83	0x80282175	-3.685422e-39
84	0x80367716	-5.001837e-39
85	0xb3a8ff84	-7.869588e-08
86	0x00347467	4.817203e-39
87	0x0048d302	6.687851e-39
88	0xb25ce993	-1.2858794e-08
89	0xb31c18e2	-3.634421e-08
90	0xb3406ed4	-4.480428e-08
91	0x8006600f	-5.85472e-40
92	0x0021595d	3.062629e-39
93	0x335466bd	4.9453536e-08
94	0xb433bb05	-1.6738711e-07
95	0x00224bb4	3.149564e-39
96	0x3391a9ed	6.782998e-08
97	0x8004a91e	-4.2801e-40
98	0x004814f9	6.619679e-39
99	0xb329cb77	-3.953343e-08
100	0x00188c8b	2.254469e-39
101	0x0008e86d	8.18063e-40
102	0x334c7882	4.7607053e-08
103	0x804ffe35	-7.346196e-39
104	0xb1911a0d	-4.223017e-09
105	0x33ceaa8f	9.623647e-08
106	0x8026d1a0	-3.564948e-39
107	0x804e63e4	-7.199003e-39
108	0x800a28e1	-9.3302e-40
109	0x00516c13	7.477445e-39
110	0x33268a00	3.8775397e-08
111	0x8050d59e	-7.423471e-39
112	0x8004f756	-4.5607e-40
113	0x00198153	2.34228e-39
114	0x000a10b3	9.24346e-40
115	0x801a27a3	-2.401942e-39
116	0xb32f6d37	-4.0844693e-08
117	0x001f4de6	2.874845e-39
118	0x8040dc5a	-5.956519e-39
119	0x002fa489	4.375292e-39
120	0x0015446a	1.953088e-39
121	0x80397226	-5.275572e-39
122	0x8021829f	-3.07743e-39
123	0x003d974e	5.656243e-39
124	0x800330ad	-2.92968e-40
125	0xb2ce15a1	-2.3991392e-08
126	0xb304806b	-3.085044e-08
127	0x00349665	4.829397e-39

mlp.mlp.1.weight f4 [128]
0	0x004c675b	7.016575e-39
1	0x3c897305	0.016778478
2	0x80458e87	-6.387778e-39
3	0x004b0453	6.889213e-39
4	0x801d004d	-2.663337e-39
5	0x00173172	2.129954e-39
6	0x3c8c63f1	0.0171375
7	0x8052326a	-7.548596e-39
8	0x3c9daf23	0.01924855
9	0x00369767	5.01343e-39
10	0x800a0334	-9.19504e-40
11	0x3c9f07ee	0.01941296
12	0x3c97118c	0.018440984
13	0x00107ddd	1.514519e-39
14	0x801471f0	-1.877583e-39
15	0x0036d8b4	5.036855e-39
16	0x802fd130	-4.39131e-39
17	0x002a6f58	3.897033e-39
18	0x80343c87	-4.797159e-39
19	0x3c84af98	0.01619701
20	0x002f25b7	4.329798e-39
21	0x8004bff7	-4.36206e-40
22	0x801fa15e	-2.904788e-39
23	0x0033694b	4.721382e-39
24	0x8011959a	-1.61487e-39
25	0x802b0dea	-3.953918e-39
26	0x3c91d365	0.017800996
27	0x0000c5cf	7.096e-41
28	0x00305dc5	4.441742e-39
29	0x0036c7f7	5.03085e-39
30	0x8034935c	-4.828308e-39
31	0x801285a1	-1.700976e-39
32	0x00155c33	1.96162e-39
33	0x804cdad4	-7.057998e-39
34	0x804f85df	-7.303028e-39
35	0x8050928d	-7.399412e-39
36	0x00471919	6.529324e-39
37	0x3c9b6e3b	0.01897346
38	0x80032a54	-2.90691e-40
39	0x0051d817	7.516194e-39
40	0x000ece4a	1.3597e-39
41	0x004ed96b	7.241164e-39
42	0x00521d8e	7.541113e-39
43	0x8049fbcb	-6.794318e-39
44	0x0035d7f0	4.944745e-39
45	0x804ffe19	-7.346157e-39
46	0x003a2248	5.338757e-39
47	0x000b2698	1.024035e-39
48	0x004ed6ef	7.240272e-39
49	0x3c8d23da	0.01722901
50	0x000cd044	1.176738e-39
51	0x00071721	6.51146e-40
52	0x804ab0ad	-6.859206e-39
53	0x001bca9f	2.552245e-39
54	0x00521e8a	7.541466e-39
55	0x0018dc0f	2.282994e-39
56	0x0002f8c2	2.72908e-40
57	0x3cb0c9f0	0.021580666
58	0x803da697	-5.661726e-39
59	0x00405199	5.906743e-39
60	0x002b467c	3.974211e-39
61	0x802cf805	-4.129734e-39
62	0x3cb5b275	0.022179822
63	0x00011c86	1.02068e-40
64	0x80138ccc	-1.795383e-39
65	0x3c9aa4b2	0.018877361
66	0x0045fd61	6.427544e-39
67	0x003b4d40	5.446006e-39
68	0x0047e08d	6.600874e-39
69	0x3c925e89	0.017867344
70	0x3c965ef2	0.01835582
71	0x3c9595d8	0.018259928
72	0x0033ff70	4.775244e-39
73	0x803e54c8	-5.724215e-39
74	0x0036a69a	5.018882e-39
75	0x000955bf	8.5728e-40
76	0x3cb9b1bf	0.022667764
77	0x3c99b759	0.018764185
78	0x802a7cee	-3.901907e-39
79	0x00133e48	1.767217e-39
80	0x804e26a8	-7.177036e-39
81	0x8010e7b7	-1.552492e-39
82	0x80257aa5	-3.44191e-39
83	0x00456bd5	6.375332e-39
84	0x802df7b3	-4.221455e-39
85	0x3c9e3163	0.019310659
86	0x0014c841	1.908547e-39
87	0x004a4878	6.821824e-39
88	0x3c81f8d1	0.015865715
89	0x3ca58b02	0.020207886
90	0x3c867de8	0.016417459
91	0x000dd9e5	1.272027e-39
92	0x000a51be	9.47679e-40
93	0x3c8a71b4	0.016899921
94	0x3caea80c	0.021320365
95	0x000f9eda	1.434518e-39
96	0x3caca579	0.021074997
97	0x80321dca	-4.602461e-39
98	0x001697a3	2.074778e-39
99	0x3c98a8e3	0.018635219
100	0x00128921	1.702232e-39
101	0x001a6386	2.423425e-39
102	0x3c9c9b66	0.019117068
103	0x8037b3c9	-5.115447e-39
104	0x3c9d8b5d	0.019231493
105	0x3ca5bf05	0.020232687
106	0x804b7702	-6.930354e-39
107	0x8009b018	-8.8969e-40
108	0x0033626d	4.718919e-39
109	0x004f42c0	7.27895e-39
110	0x3cb16f72	0.021659587
111	0x000b29e7	1.025222e-39
112	0x803827d3	-5.157074e-39
113	0x80081193	-7.40988e-40
114	0x001c7ef3	2.616935e-39
115	0x802381a9	-3.260756e-39
116	0x3ca19b76	0.01972745
117	0x00010a09	9.5435e-41
118	0x004a0996	6.799266e-39
119	0x005324b4	7.635513e-39
120	0x0038e555	5.225057e-39
121	0x8002b900	-2.50036e-40
122	0x00519ecf	7.495645e-39
123	0x00508523	7.3946e-39
124	0x00148a51	1.886329e-39
125	0x3c9d88d9	0.019230293
126	0x3ca1349a	0.019678403
127	0x8008576a	-7.66042e-40

mlp.mlp.1.bias f4 [128]
0	0x004eaea7	7.225822e-39
1	0x3c041612	0.008061903
2	0x000f734b	1.418892e-39
3	0x001add52	2.467118e-39
4	0x800a6c6a	-9.57247e-40
5	0x0046c4b1	6.499044e-39
6	0x3c0cd80f	0.008596434
7	0x80252462	-3.410965e-39
8	0x3c22fd8c	0.009948146
9	0x0059dd67	8.252783e-39
10	0x8017608d	-2.146852e-39
11	0x3c1d355f	0.009595244
12	0x3c18f110	0.0093348175
13	0x002a9c7a	3.913224e-39
14	0x0023f2b5	3.301309e-39
15	0x003ef0f0	5.780233e-39
16	0x80194c25	-2.323203e-39
17	0x800263a9	-2.19422e-40
18	0x00097e94	8.71927e-40
19	0x3c036e4a	0.0080219
20	0x0038436c	5.166974e-39
21	0x8019c872	-2.367794e-39
22	0x0031566d	4.530943e-39
23	0x804861ba	-6.647213e-39
24	0x00406b14	5.915884e-39
25	0x00347467	4.817203e-39
26	0x3c0d25b4	0.008614946
27	0x000d9717	1.248062e-39
28	0x0011e65b	1.64384e-39
29	0x804201ea	-6.06183e-39
30	0x004c9019	7.03119e-39
31	0x005345d3	7.647394e-39
32	0x003618ca	4.96801e-39
33	0x0024dfb0	3.386322e-39
34	0x004e1b33	7.172926e-39
35	0x800aa3ed	-9.7716e-40
36	0x003b4106	5.44162e-39
37	0x3c1d5054	0.009601671
38	0x0028af46	3.736296e-39
39	0x801e53e9	-2.785166e-39
40	0x803f8108	-5.831924e-39
41	0x001bac17	2.541293e-39
42	0x003e315f	5.711512e-39
43	0x0004cdcd	4.4117e-40
44	0x801b232b	-2.492174e-39
45	0x003918b3	5.243484e-39
46	0x00169185	2.072583e-39
47	0x0054a479	7.773183e-39
48	0x00007b3d	4.421e-41
49	0x3c0b20d3	0.008491713
50	0x002484a5	3.353662e-39
51	0x00136af8	1.783248e-39
52	0x80339893	-4.738344e-39
53	0x00077139	6.83465e-40
54	0x803d1eba	-5.612988e-39
55	0x8011c095	-1.630289e-39
56	0x80174ab9	-2.139022e-39
57	0x3c1e6b36	0.009669116
58	0x0012ad85	1.715286e-39
59	0x001ab3fc	2.452289e-39
60	0x8008c8cd	-8.06718e-40
61	0x8005d280	-5.3469e-40
62	0x3c38ccad	0.011279267
63	0x8019f298	-2.382914e-39
64	0x0012ac2e	1.714805e-39
65	0x3c127e45	0.008941238
66	0x00441718	6.253098e-39
67	0x801c5b05	-2.604046e-39
68	0x0006eb98	6.35528e-40
69	0x3c0f0ffd	0.008731839
70	0x3c200ba2	0.0097683985
71	0x3c04c51c	0.008103635
72	0x001530d8	1.946067e-39
73	0x001893ad	2.257028e-39
74	0x0020b46e	3.003462e-39
75	0x0003ad17	3.376e-40
76	0x3c141bdf	0.009039848
77	0x3c0dde3c	0.008658942
78	0x002bffa5	4.040634e-39
79	0x0049a226	6.762159e-39
80	0x00470dd1	6.525277e-39
81	0x80239755	-3.26853e-39
82	0x00439586	6.206617e-39
83	0x0001dd55	1.71234e-40
84	0x0046e3af	6.510162e-39
85	0x3c1f6116	0.009727737
86	0x002b0613	3.951105e-39
87	0x8017e821	-2.195489e-39
88	0x3bf728c5	0.007542702
89	0x3c096420	0.008385688
90	0x3c01a55a	0.007912958
91	0x80220de7	-3.127394e-39
92	0x00031e9e	2.8649e-40
93	0x3c008b29	0.007845678
94	0x3c30f1ed	0.010799867
95	0x80117e4c	-1.60651e-39
96	0x3c0c6eef	0.0085713705
97	0x80372af6	-5.066364e-39
98	0x0026e0e6	3.570427e-39
99	0x3c13cfe0	0.009021729
100	0x004d07bf	7.074112e-39
101	0x80222f9a	-3.139483e-39
102	0x3c20f187	0.00982321
103	0x80435ba0	-6.185847e-39
104	0x3c175088	0.009235509
105	0x3c1a09a6	0.009401714
106	0x800f6f85	-1.417538e-39
107	0x80316a9e	-4.538186e-39
108	0x8005e3aa	-5.40848e-40
109	0x8004f2d9	-4.5446e-40
110	0x3c2680a8	0.01016251
111	0x800b87d6	-1.058919e-39
112	0x0002937b	2.36577e-40
113	0x80291162	-3.771491e-39
114	0x004419cd	6.25407e-39
115	0x001f2450	2.859927e-39
116	0x3c252a93	0.010080951
117	0x0012e72d	1.735969e-39
118	0x80121e6a	-1.66395e-39
119	0x001c2016	2.582904e-39
120	0x000d9e26	1.250594e-39
121	0x00303248	4.426141e-39
122	0x00320126	4.592187e-39
123	0x803e482e	-5.719694e-39
124	0x803ca16b	-5.568036e-39
125	0x3c27e6ed	0.010247928
126	0x3c1d237e	0.0095909815
127	0x000fdb04	1.4561e-39

mlp.mlp.1.running_mean f4 [128]
0	0x8008436d	-7.58872e-40
1	0xbc3badb9	-0.011454993
2	0x8021640f	-3.066466e-39
3	0x802a1da4	-3.867724e-39
4	0x00098aeb	8.76354e-40
5	0x005ea7dd	8.692755e-39
6	0xbc41810c	-0.011810552
7	0x002d23ca	4.145436e-39
8	0xbc539b42	-0.012915434
9	0x8051c70c	-7.51008e-39
10	0x0036f6f1	5.047703e-39
11	0xbc524245	-0.012833183
12	0xbc407fb8	-0.0117492005
13	0x003d2e16	5.618498e-39
14	0x8040073a	-5.880064e-39
15	0x801e3537	-2.774155e-39
16	0x0012a1ea	1.711123e-39
17	0x8026c07a	-3.558796e-39
18	0x8012c6cc	-1.724354e-39
19	0xbc37df73	-0.011222708
20	0x0027c843	3.653425e-39
21	0x000e08ae	1.28881e-39
22	0x00217526	3.072596e-39
23	0x0029e040	3.845701e-39
24	0x00221ad9	3.132038e-39
25	0x0033217d	4.695624e-39
26	0xbc3ac803	-0.011400226
27	0x007580ed	1.0791003e-38
28	0x802021b8	-2.950832e-39
29	0x00300090	4.408306e-39
30	0x00032a8c	2.9077e-40
31	0x80166e23	-2.05989e-39
32	0x00297ec8	3.810736e-39
33	0x802fd637	-4.393114e-39
34	0x0042b6d6	6.126732e-39
35	0x800c5b1f	-1.134714e-39
36	0x80627f69	-9.045585e-39
37	0xbc460e2b	-0.012088339
38	0x002ecc8f	4.297815e-39
39	0x002925a8	3.778764e-39
40	0x00335e52	4.717446e-39
41	0x0023bdba	3.282303e-39
42	0x8024cd90	-3.37982e-39
43	0x0037ab96	5.112506e-39
44	0x802c2cea	-4.056874e-39
45	0x003c65c9	5.546643e-39
46	0x00296c84	3.804183e-39
47	0x004c9a85	7.034929e-39
48	0x801fdb32	-2.925533e-39
49	0xbc34da43	-0.011038366
50	0x00373e9a	5.07341e-39
51	0x8013a404	-1.803712e-39
52	0x0014a35c	1.895312e-39
53	0x00249c8a	3.362233e-39
54	0x0029837d	3.812424e-39
55	0x8017e541	-2.194457e-39
56	0x800eb941	-1.352154e-39
57	0xbc5fe573	-0.013665545
58	0x002603e6	3.491147e-39
59	0x000443e8	3.91702e-40
60	0x000006ee	2.486e-42
61	0x802f8198	-4.362758e-39
62	0xbc5e5d3d	-0.013572034
63	0x803adbd6	-5.405321e-39
64	0x00321e48	4.602638e-39
65	0xbc45e41b	-0.01207831
66	0x000a9599	9.7202e-40
67	0x800f9e91	-1.434415e-39
68	0x004160ef	6.00408e-39
69	0xbc413e95	-0.011794706
70	0xbc37e2fd	-0.011223552
71	0xbc44308f	-0.011974468
72	0x800d410b	-1.217194e-39
73	0x8044ba55	-6.311657e-39
74	0x8002420b	-2.07363e-40
75	0x0049d3bd	6.779949e-39
76	0xbc7329d5	-0.0148415165
77	0xbc493d4d	-0.012282682
78	0x003a6281	5.361795e-39
79	0x006663e1	9.40305e-39
80	0x80436a85	-6.19119e-39
81	0x802e7e10	-4.269656e-39
82	0x804dcdbc	-7.145137e-39
83	0x8039364d	-5.254103e-39
84	0x801dcc29	-2.736468e-39
85	0xbc4ac142	-0.012375178
86	0x0014be6e	1.905023e-39
87	0x000f162b	1.385485e-39
88	0xbc2d7c71	-0.010588751
89	0xbc5290fb	-0.012851949
90	0xbc35c6aa	-0.0110947285
91	0x002fe6ac	4.399018e-39
92	0x0010d72b	1.546556e-39
93	0xbc3c1fd0	-0.011482194
94	0xbc56ac84	-0.013102654
95	0x008425d9	1.2135863e-38
96	0xbc63b968	-0.013899185
97	0x80240060	-3.306212e-39
98	0x001ea5cf	2.814546e-39
99	0xbc4aa5d1	-0.012368635
100	0x0033af80	4.746568e-39
101	0x004c1204	6.98596e-39
102	0xbc51b63f	-0.0127997985
103	0x803179a8	-4.543581e-39
104	0xbc4da45b	-0.012551392
105	0xbc517762	-0.012784811
106	0x80236f30	-3.254129e-39
107	0x8010a689	-1.52911e-39
108	0x002f6e74	4.355891e-39
109	0x003df06f	5.688217e-39
110	0xbc5cd566	-0.0134786125
111	0x801303ff	-1.746308e-39
112	0x00291e80	3.776197e-39
113	0x8010a6dc	-1.529226e-39
114	0x800229cf	-1.98669e-40
115	0x800e69cc	-1.32365e-39
116	0xbc4bf974	-0.012449611
117	0x002e0baa	4.228617e-39
118	0x8000a29a	-5.833e-41
119	0x000cc135	1.171336e-39
120	0x00287e71	3.718778e-39
121	0x000ee427	1.367543e-39
122	0x80170018	-2.11225e-39
123	0x8028c134	-3.742728e-39
124	0x001b7280	2.520633e-39
125	0xbc453dee	-0.012038691
126	0xbc4be55f	-0.012444823
127	0x8054943e	-7.767361e-39

mlp.mlp.1.running_var f4 [128]
0	0x00000004	6e-45
1	0x369b93e9	4.636579e-06
2	0x00000004	6e-45
3	0x00000004	6e-45
4	0x00000004	6e-45
5	0x00000004	6e-45
6	0x36b73e65	5.4610887e-06
7	0x00000004	6e-45
8	0x36e9a510	6.963157e-06
9	0x00000004	6e-45
10	0x00000004	6e-45
11	0x36c798a1	5.9484305e-06
12	0x36d16e1d	6.2415043e-06
13	0x00000004	6e-45
14	0x00000004	6e-45
15	0x00000004	6e-45
16	0x00000004	6e-45
17	0x00000004	6e-45
18	0x00000004	6e-45
19	0x369a2e5d	4.594955e-06
20	0x00000004	6e-45
21	0x00000004	6e-45
22	0x00000004	6e-45
23	0x00000004	6e-45
24	0x00000004	6e-45
25	0x00000004	6e-45
26	0x36a8b4b0	5.027825e-06
27	0x00000004	6e-45
28	0x00000004	6e-45
29	0x00000004	6e-45
30	0x00000004	6e-45
31	0x00000004	6e-45
32	0x00000004	6e-45
33	0x00000004	6e-45
34	0x00000004	6e-45
35	0x00000004	6e-45
36	0x00000004	6e-45
37	0x36cea059	6.1579453e-06
38	0x00000004	6e-45
39	0x00000004	6e-45
40	0x00000004	6e-45
41	0x00000004	6e-45
42	0x00000004	6e-45
43	0x00000004	6e-45
44	0x00000004	6e-45
45	0x00000004	6e-45
46	0x00000004	6e-45
47	0x00000004	6e-45
48	0x00000004	6e-45
49	0x36adc56c	5.1787847e-06
50	0x00000004	6e-45
51	0x00000004	6e-45
52	0x00000004	6e-45
53	0x00000004	6e-45
54	0x00000004	6e-45
55	0x00000004	6e-45
56	0x00000004	6e-45
57	0x36cda3d3	6.1285477e-06
58	0x00000004	6e-45
59	0x00000004	6e-45
60	0x00000004	6e-45
61	0x00000004	6e-45
62	0x36f063b1	7.164163e-06
63	0x00000004	6e-45
64	0x00000004	6e-45
65	0x36c1c1f9	5.7744296e-06
66	0x00000004	6e-45
67	0x00000004	6e-45
68	0x00000004	6e-45
69	0x36b10aa2	5.276249e-06
70	0x36c0af29	5.742437e-06
71	0x36b2ee65	5.332566e-06
72	0x00000004	6e-45
73	0x00000004	6e-45
74	0x00000004	6e-45
75	0x00000004	6e-45
76	0x36eef666	7.1216373e-06
77	0x36b2c075	5.3272183e-06
78	0x00000004	6e-45
79	0x00000004	6e-45
80	0x00000004	6e-45
81	0x00000004	6e-45
82	0x00000004	6e-45
83	0x00000004	6e-45
84	0x00000004	6e-45
85	0x36d55287	6.357502e-06
86	0x00000004	6e-45
87	0x00000004	6e-45
88	0x36a73934	4.983647e-06
89	0x36ad997f	5.173671e-06
90	0x369a6bd7	4.602112e-06
91	0x00000004	6e-45
92	0x00000004	6e-45
93	0x36a4a475	4.906726e-06
94	0x36df8850	6.6617868e-06
95	0x00000004	6e-45
96	0x36e56ca1	6.837378e-06
97	0x00000004	6e-45
98	0x00000004	6e-45
99	0x36bb4411	5.5809583e-06
100	0x00000004	6e-45
101	0x00000004	6e-45
102	0x36c81c13	5.9637327e-06
103	0x00000004	6e-45
104	0x36b639d3	5.4307543e-06
105	0x36e8799a	6.928295e-06
106	0x00000004	6e-45
107	0x00000004	6e-45
108	0x00000004	6e-45
109	0x00000004	6e-45
110	0x36f77760	7.3750707e-06
111	0x00000004	6e-45
112	0x00000004	6e-45
113	0x00000004	6e-45
114	0x00000004	6e-45
115	0x00000004	6e-45
116	0x36c47f6c	5.856089e-06
117	0x00000004	6e-45
118	0x00000004	6e-45
119	0x00000004	6e-45
120	0x00000004	6e-45
121	0x00000004	6e-45
122	0x00000004	6e-45
123	0x00000004	6e-45
124	0x00000004	6e-45
125	0x36c9116c	5.992295e-06
126	0x36b86a39	5.4959933e-06
127	0x00000004	6e-45

mlp.mlp.4.weight f4 [64, 128]
0	0x00487e11	6.65738e-39
1	0x00294339	3.78937e-39
2	0x801c65c4	-2.6079e-39
3	0x00400026	5.877525e-39
4	0x801e99a0	-2.810175e-39
5	0x800e24b0	-1.298858e-39
6	0x00228346	3.169499e-39
7	0x0015964f	1.982466e-39
8	0x0040d783	5.954783e-39
9	0x801b5472	-2.509852e-39
10	0x003341f8	4.707275e-39
11	0x00483b03	6.633325e-39
12	0x0033abcc	4.74524e-39
13	0x804d7b0b	-7.115473e-39
14	0x80150789	-1.931249e-39
15	0x803df0e4	-5.68838e-39
16	0x004eb04f	7.226416e-39
17	0x0008f1d1	8.21431e-40
18	0x00231fd4	3.22566e-39
19	0x80294db2	-3.793127e-39
20	0x0008cd0b	8.0824e-40
21	0x80175971	-2.144302e-39
22	0x0000ab52	6.1458e-41
23	0x0033e15e	4.764457e-39
24	0x000c2dfd	1.118523e-39
25	0x800d11a1	-1.200186e-39
26	0x801fbef3	-2.9154e-39
27	0x001b4c48	2.506923e-39
28	0x802db178	-4.196261e-39
29	0x0019c018	2.364798e-39
30	0x002be8ca	4.032435e-39
31	0x003271f4	4.632653e-39
32	0x0007aa07	7.03843e-40
33	0x8033cf9b	-4.758085e-39
34	0x800ec5e1	-1.356683e-39
35	0x003a616c	5.361407e-39
36	0x002b7a98	3.992905e-39
37	0x002afb06	3.947141e-39
38	0x001425d1	1.850276e-39
39	0x80090f58	-8.32024e-40
40	0x000e2271	1.298052e-39
41	0x8028e5b8	-3.755827e-39
42	0x00014955	1.18142e-40
43	0x8052f2af	-7.617569e-39
44	0x00096485	8.62579e-40
45	0x0042546f	6.091432e-39
46	0x80235626	-3.245147e-39
47	0x802690c5	-3.541682e-39
48	0x0037c801	5.1227e-39
49	0x003969f8	5.272638e-39
50	0x80140ec7	-1.842011e-39
51	0x800a18ca	-9.27248e-40
52	0x804fdc50	-7.334037e-39
53	0x8049ec15	-6.788681e-39
54	0x004ab776	6.86164e-39
55	0x804d0bfc	-7.075632e-39
56	0x80036248	-3.10763e-40
57	0x000f841a	1.424922e-39
58	0x00504ca1	7.374329e-39
59	0x801eaeaa	-2.817723e-39
60	0x00499588	6.757633e-39
61	0x8034a946	-4.83617e-39
62	0x0020ab6d	3.000232e-39
63	0x00109129	1.521442e-39
64	0x801e0652	-2.757332e-39
65	0x004f6153	7.289918e-39
66	0x005085b9	7.39481e-39
67	0x0040c661	5.948637e-39
68	0x0014b533	1.901712e-39
69	0x00292972	3.780123e-39
70	0x00437e6f	6.198334e-39
71	0x800b83f6	-1.057529e-39
72	0x804c3b91	-7.000866e-39
73	0x00348375	4.822604e-39
74	0x80014ea3	-1.20045e-40
75	0x801ff7fc	-2.93586e-39
76	0x001474db	1.87863e-39
77	0x804e1fed	-7.174622e-39
78	0x0008808b	7.80796e-40
79	0x0006a67e	6.10739e-40
80	0x001da82b	2.723557e-39
81	0x801aacd3	-2.44972e-39
82	0x803744f1	-5.075684e-39
83	0x002eae05	4.286859e-39
84	0x8048312b	-6.629794e-39
85	0x000f8ad1	1.42733e-39
86	0x800fbd02	-1.445336e-39
87	0x003e7367	5.7352e-39
88	0x00459e78	6.393497e-39
89	0x0049a4cc	6.763109e-39
90	0x004cea6f	7.063597e-39
91	0x801b829e	-2.526415e-39
92	0x802dd174	-4.207735e-39
93	0x8033e42f	-4.765467e-39
94	0x8037c44e	-5.121373e-39
95	0x8045dea8	-6.416523e-39
96	0x001b19fa	2.488877e-39
97	0x002295c4	3.176133e-39
98	0x00029f14	2.40737e-40
99	0x804b384d	-6.907859e-39
100	0x800cbbfa	-1.169459e-39
101	0x0035b136	4.930853e-39
102	0x803edc04	-5.772727e-39
103	0x00140acd	1.840585e-39
104	0x8051ea5c	-7.522747e-39
105	0x803ca023	-5.567576e-39
106	0x800189b6	-1.41237e-40
107	0x80016e2e	-1.3136e-40
108	0x803177db	-4.542935e-39
109	0x0032a115	4.64956e-39
110	0x803fe9a5	-5.869452e-39
111	0x0014af63	1.899627e-39
112	0x805184aa	-7.486266e-39
113	0x002b442e	3.973385e-39
114	0x80073aec	-6.63986e-40
115	0x004bae33	6.950153e-39
116	0x80441db0	-6.255464e-39
117	0x8021d692	-3.107545e-39
118	0x004e345a	7.181949e-39
119	0x8044bac6	-6.311815e-39
120	0x001d7052	2.703522e-39
121	0x803d390d	-5.622431e-39
122	0x802fad57	-4.378451e-39
123	0x002b8731	3.997424e-39
124	0x804fcf67	-7.329406e-39
125	0x8000fab5	-8.9937e-41
126	0x8024f722	-3.394732e-39
127	0x0014150d	1.844262e-39
128	0x801d4f47	-2.691669e-39
129	0x804cf387	-7.066859e-39
130	0x8038bcf4	-5.210571e-39
131	0x80507285	-7.387922e-39
132	0x8020e73e	-3.02169e-39
133	0x0035cf4a	4.941643e-39
134	0x003b82b1	5.465178e-39
135	0x8001e8c3	-1.75335e-40
136	0x004a70e4	6.836324e-39
137	0x001dc991	2.735538e-39
138	0x8007da15	-7.21082e-40
139	0x8012cdaa	-1.726817e-39
140	0x004e62f6	7.198669e-39
141	0x001c696d	2.609214e-39
142	0x002d0089	4.13279e-39
143	0x0002db70	2.6239e-40
144	0x00096bbb	8.65166e-40
145	0x004a904c	6.84759e-39
146	0x003f0801	5.788508e-39
147	0x004b1079	6.893571e-39
148	0x8029941d	-3.818388e-39
149	0x800f5aaa	-1.410057e-39
150	0x802db4c1	-4.19744e-39
151	0x80086a9a	-7.72925e-40
152	0x8014380c	-1.856816e-39
153	0x804a5f44	-6.830002e-39
154	0x004e4c74	7.190595e-39
155	0x8017a265	-2.170473e-39
156	0x00470667	6.522617e-39
157	0x004f2466	7.268061e-39
158	0x8050e805	-7.430073e-39
159	0x801b47e9	-2.505355e-39
160	0x802cd6f8	-4.117878e-39
161	0x000665cc	5.87531e-40
162	0x80534c4d	-7.649718e-39
163	0x00410763	5.971957e-39
164	0x00509c02	7.402805e-39
165	0x804d0a7d	-7.075096e-39
166	0x000b729c	1.051305e-39
167	0x003cc70c	5.581534e-39
168	0x0041ee4c	6.054792e-39
169	0x8050a2f9	-7.405303e-39
170	0x00108ba4	1.519462e-39
171	0x000323bc	2.88326e-40
172	0x0003231d	2.88103e-40
173	0x0049a7c0	6.764169e-39
174	0x803f54ae	-5.816014e-39
175	0x8024b41a	-3.370686e-39
176	0x802f6106	-4.351074e-39
177	0x802d95a7	-4.186282e-39
178	0x002bd135	4.023976e-39
179	0x004e283f	7.177606e-39
180	0x000fe2dd	1.458916e-39
181	0x000d8cd0	1.244375e-39
182	0x004a6a63	6.833991e-39
183	0x00471016	6.526091e-39
184	0x802fef78	-4.402174e-39
185	0x801a7994	-2.431337e-39
186	0x002a39ea	3.877866e-39
187	0x804ae740	-6.878784e-39
188	0x0026b163	3.553383e-39
189	0x8049f8af	-6.793202e-39
190	0x003b41b0	5.441859e-39
191	0x804ea1dc	-7.221233e-39
192	0x8022fedb	-3.213832e-39
193	0x8025c790	-3.469503e-39
194	0x8011cb99	-1.63424e-39
195	0x002280f2	3.168664e-39
196	0x0048289f	6.626728e-39
197	0x804e6758	-7.200241e-39
198	0x8045ffed	-6.428458e-39
199	0x80287bb4	-3.717796e-39
200	0x80123c52	-1.674678e-39
201	0x000ad800	9.95841e-40
202	0x802cba08	-4.107497e-39
203	0x00266b4c	3.52824e-39
204	0x0029ee34	3.850707e-39
205	0x80268218	-3.536418e-39
206	0x8039c2d9	-5.304521e-39
207	0x0043bcb0	6.220667e-39
208	0x803c50c7	-5.539107e-39
209	0x00498f62	6.755427e-39
210	0x003c7b5d	5.554384e-39
211	0x802edd09	-4.303725e-39
212	0x000bd0c8	1.085087e-39
213	0x003b797d	5.461876e-39
214	0x0003ac92	3.37413e-40
215	0x802757a3	-3.613022e-39
216	0x00063608	5.70396e-40
217	0x0004b76b	4.3314e-40
218	0x80344e40	-4.803517e-39
219	0x004e0ca9	7.16771e-39
220	0x8021ddf9	-3.1102e-39
221	0x00487838	6.655282e-39
222	0x804ef3d2	-7.250635e-39
223	0x80180e3a	-2.209155e-39
224	0x801a7590	-2.429896e-39
225	0x804a56c7	-6.826957e-39
226	0x003f6bef	5.824356e-39
227	0x803c625c	-5.545414e-39
228	0x004c57d3	7.011003e-39
229	0x0041659e	6.00576e-39
230	0x0007bc9c	7.10509e-40
231	0x80392e90	-5.251327e-39
232	0x0023ffc2	3.305991e-39
233	0x001214b3	1.660464e-39
234	0x00392d4c	5.250873e-39
235	0x003aaa45	5.38754e-39
236	0x8032c482	-4.662269e-39
237	0x8026e746	-3.572714e-39
238	0x00523f7b	7.553283e-39
239	0x8032f9d5	-4.681398e-39
240	0x801777d9	-2.15521e-39
241	0x800e7919	-1.329139e-39
242	0x002ea91e	4.2851e-39
243	0x800ca2b0	-1.160387e-39
244	0x00061c18	5.61091e-40
245	0x0044e31a	6.326282e-39
246	0x000e7a89	1.329654e-39
247	0x0027a958	3.642333e-39
248	0x001f4f10	2.875263e-39
249	0x004e847e	7.210698e-39
250	0x001b5121	2.508662e-39
251	0x803a6a42	-5.364577e-39
252	0x000ebf37	1.354292e-39
253	0x804382f9	-6.199962e-39
254	0x00112ecd	1.577992e-39
255	0x800ad75b	-9.9561e-40

mlp.mlp.4.bias f4 [64]
0	0x00361b0c	4.96882e-39
1	0x0004ace5	4.29365e-40
2	0x8019dbd3	-2.374745e-39
3	0x313ea3d9	2.7741776e-09
4	0x804a3b63	-6.81713e-39
5	0x00503fcd	7.369727e-39
6	0xb1118a2b	-2.1178816e-09
7	0x802c236e	-4.053472e-39
8	0x804dab07	-7.132686e-39
9	0x004576a4	6.37921e-39
10	0x8052a5a1	-7.589927e-39
11	0x8007e7e6	-7.26038e-40
12	0x0024f2a9	3.393128e-39
13	0x00317495	4.541761e-39
14	0x8021d854	-3.108175e-39
15	0x80301bd6	-4.41809e-39
16	0x30cc5528	1.4867156e-09
17	0x8045392f	-6.357163e-39
18	0x80160af5	-2.024312e-39
19	0xb1dee5b9	-6.487167e-09
20	0x80026c15	-2.22444e-40
21	0x804fd8a8	-7.332726e-39
22	0x802df685	-4.221032e-39
23	0x321a9f90	9.00026e-09
24	0x80074902	-6.69039e-40
25	0x00199d59	2.352333e-39
26	0xb0ef9ded	-1.7434424e-09
27	0x00443601	6.264187e-39
28	0x001f0f59	2.852406e-39
29	0x8015a4cb	-1.987662e-39
30	0x800cac73	-1.163889e-39
31	0x000d9701	1.248031e-39
32	0x00019f7c	1.49048e-40
33	0xb034158f	-6.5514255e-10
34	0x00367bab	5.00348e-39
35	0xaf8ca80e	-2.5585262e-10
36	0x2fbab776	3.396356e-10
37	0xb0e8e2bd	-1.6944665e-09
38	0x80431e86	-6.163928e-39
39	0x8028b5c1	-3.738621e-39
40	0xb0a31f6a	-1.1868739e-09
41	0x2fac2b39	3.131733e-10
42	0xb21df64a	-9.194602e-09
43	0x00008f46	5.1397e-41
44	0x320b3912	8.103841e-09
45	0x0050d0b2	7.421705e-39
46	0x32647a5d	1.3299169e-08
47	0x801748cb	-2.13833e-39
48	0x003fe82f	5.868928e-39
49	0xae55c6b2	-4.860707e-11
50	0x317003ec	3.4926826e-09
51	0xb1deec99	-6.4879484e-09
52	0x3070c332	8.758888e-10
53	0x0017f2c9	2.199311e-39
54	0x003ed6d3	5.770865e-39
55	0xb0a66788	-1.2107515e-09
56	0xb1e7d3c4	-6.74706e-09
57	0x004c90d3	7.031451e-39
58	0x802e1a03	-4.233764e-39
59	0xb11bbe7e	-2.266375e-09
60	0x001b8ef4	2.53084e-39
61	0xb1090746	-1.9940258e-09
62	0x004a584a	6.827499e-39
63	0xb103bd4c	-1.9170612e-09

mlp.mlp.5.weight f4 [64]
0	0x804b9ef8	-6.94469e-39
1	0x0044190c	6.253799e-39
2	0x00433788	6.172899e-39
3	0x3ce668f3	0.028126216
4	0x00316b58	4.538447e-39
5	0x80417fe2	-6.015183e-39
6	0x3ce7481d	0.028232628
7	0x001a6ebd	2.427448e-39
8	0x002d3300	4.150893e-39
9	0x804f02c7	-7.256e-39
10	0x804bff32	-6.979209e-39
11	0x80361853	-4.967843e-39
12	0x804d3039	-7.088632e-39
13	0x803af4f9	-5.414338e-39
14	0x00528044	7.576524e-39
15	0x804b2084	-6.899327e-39
16	0x3cee3766	0.02907915
17	0x001cd6de	2.648474e-39
18	0x00151cb3	1.938841e-39
19	0x3cf63570	0.030054778
20	0x004d8483	7.11887e-39
21	0x800ef95d	-1.375152e-39
22	0x8042c9d8	-6.13355e-39
23	0x3cfdeb06	0.030995857
24	0x0028b150	3.737028e-39
25	0x004c83a8	7.026727e-39
26	0x3c22fdb5	0.009948184
27	0x004b8751	6.936205e-39
28	0x804c080f	-6.982389e-39
29	0x002cbc6c	4.108355e-39
30	0x00456ff9	6.376817e-39
31	0x000f921b	1.429945e-39
32	0x800d92b5	-1.24649e-39
33	0x3cd9f9d4	0.026608385
34	0x801ab5e8	-2.452979e-39
35	0x3ccd8817	0.025089307
36	0x3cd67817	0.02618031
37	0x3ccf741e	0.025323924
38	0x0010ae27	1.531842e-39
39	0x804953b0	-6.734013e-39
40	0x3cd05c59	0.02543466
41	0x3cee9ba8	0.029126957
42	0x3cee50f6	0.02909134
43	0x0049106d	6.709884e-39
44	0x3ce4bcec	0.027922116
45	0x800ffed4	-1.468948e-39
46	0x3cf4c0d5	0.029877106
47	0x004b985f	6.942323e-39
48	0x801a4641	-2.412925e-39
49	0x3ce16bb4	0.027517177
50	0x3cd3d164	0.025856681
51	0x3ce136f5	0.027492026
52	0x3cd48094	0.025940217
53	0x8044bba9	-6.312134e-39
54	0x80421b0b	-6.070844e-39
55	0x3cf15f03	0.02946425
56	0x3cec8634	0.028872587
57	0x80520935	-7.533814e-39
58	0x80339c5f	-4.739706e-39
59	0x3cc66a83	0.02422071
60	0x0049e211	6.785089e-39
61	0x3cd97680	0.026545763
62	0x003790ab	5.10285e-39
63	0x3cdc3c43	0.026884204

mlp.mlp.5.bias f4 [64]
0	0x001a300f	2.404963e-39
1	0x00154820	1.954419e-39
2	0x00162313	2.032963e-39
3	0x3c3502a3	0.011047992
4	0x803482af	-4.822326e-39
5	0x8041d0eb	-6.044253e-39
6	0x3c318a95	0.010836263
7	0x00198cab	2.34635e-39
8	0x8036a4f8	-5.018296e-39
9	0x802ea012	-4.281855e-39
10	0x800805e8	-7.36803e-40
11	0x802e133e	-4.231336e-39
12	0x80045cbf	-4.00613e-40
13	0x0025f4cf	3.485734e-39
14	0x800fc633	-1.448633e-39
15	0x002f1ff2	4.327728e-39
16	0x3c48f0b6	0.012264421
17	0x8045ba31	-6.403442e-39
18	0x80331970	-4.692736e-39
19	0x3c4697da	0.012121165
20	0x800a0002	-9.18358e-40
21	0x0025080a	3.400797e-39
22	0x8007116a	-6.49095e-40
23	0x3c5892b2	0.013218569
24	0x00136c50	1.78373e-39
25	0x804756af	-6.551416e-39
26	0x3ae53775	0.0017487841
27	0x8008b857	-8.00813e-40
28	0x0011164a	1.569199e-39
29	0x00240f77	3.311626e-39
30	0x003439f6	4.796238e-39
31	0x804901c2	-6.704622e-39
32	0x00016d24	1.30988e-40
33	0x3c2950f7	0.010334245
34	0x800a370a	-9.38099e-40
35	0x3c1e6e60	0.00966987
36	0x3c1517aa	0.00909988
37	0x3c15b719	0.009137892
38	0x003dd572	5.678535e-39
39	0x0049c912	6.776122e-39
40	0x3c23ba00	0.009993076
41	0x3c40065f	0.011720269
42	0x3c40bb59	0.011763417
43	0x000d650b	1.230109e-39
44	0x3c379c5d	0.0112067135
45	0x003ebcf3	5.761583e-39
46	0x3c45f0de	0.012081353
47	0x03f4835b	1.4371189e-36
48	0x802e5e1a	-4.25819e-39
49	0x3c2f23f1	0.010689721
50	0x3c20aa03	0.009806159
51	0x3c3175da	0.010831321
52	0x3c268de6	0.010165667
53	0x00205c4a	2.971843e-39
54	0x00480877	6.615192e-39
55	0x3c4a5a80	0.012350678
56	0x3c42f3a5	0.01189891
57	0x8017974e	-2.166494e-39
58	0x8048b94b	-6.678626e-39
59	0x3c0f094e	0.008730246
60	0x80170fba	-2.117858e-39
61	0x3c2a37af	0.010389253
62	0x8041388d	-5.989594e-39
63	0x3c2baa1e	0.010477571

mlp.mlp.5.running_mean f4 [64]
0	0x00361a34	4.968517e-39
1	0x0028a832	3.733757e-39
2	0x0010323d	1.48739e-39
3	0x3ab79175	0.0014005142
4	0x802d5200	-4.162013e-39
5	0x0027595a	3.613638e-39
6	0x3ab8c7f6	0.0014097679
7	0x0007224a	6.55149e-40
8	0x8025f9bb	-3.4875e-39
9	0x002e1ffc	4.235907e-39
10	0x8022b485	-3.187165e-39
11	0x802735e2	-3.600914e-39
12	0x0033ee2b	4.769049e-39
13	0x003a65e3	5.363009e-39
14	0x8037a1fe	-5.109064e-39
15	0x0002f3b6	2.71098e-40
16	0x3ac010b3	0.0014653414
17	0x8023b565	-3.279314e-39
18	0x000f8a93	1.427244e-39
19	0x3ac49b10	0.0014999826
20	0x00267dc0	3.53486e-39
21	0x801b10ea	-2.485626e-39
22	0x80317568	-4.542057e-39
23	0x3acb36d2	0.0015504009
24	0x001fbcaf	2.914587e-39
25	0x80124639	-1.67823e-39
26	0x3a142b95	0.0005652246
27	0x004542f1	6.360663e-39
28	0x801005ea	-1.47149e-39
29	0x0015b1eb	1.99237e-39
30	0x001dcb5d	2.736182e-39
31	0x002dc7a6	4.204218e-39
32	0x0021bc9c	3.098232e-39
33	0x3aaf4201	0.0013371111
34	0x00005d23	3.3411e-41
35	0x3aa996a3	0.001293857
36	0x3aad1a1a	0.0013206631
37	0x3aaac6d1	0.0013029223
38	0x8042f991	-6.15067e-39
39	0x80328c18	-4.642031e-39
40	0x3aa9ee09	0.0012964617
41	0x3abedd5c	0.001456182
42	0x3abc938d	0.0014387235
43	0x802096d5	-2.992844e-39
44	0x3ab9ab9c	0.0014165523
45	0x002e35ee	4.243779e-39
46	0x3ac290fe	0.0014844236
47	0x802cb234	-4.104689e-39
48	0x002f6ccb	4.355296e-39
49	0x3ab89d40	0.001408495
50	0x3aad74e5	0.001323369
51	0x3ab58e1e	0.0013851558
52	0x3aaf1c1c	0.0013359818
53	0x002eee67	4.309955e-39
54	0x000d21fb	1.206051e-39
55	0x3ac2cb2a	0.0014861573
56	0x3abdb747	0.0014474177
57	0x002e07fb	4.227296e-39
58	0x00058bcb	5.09326e-40
59	0x3aa7b75d	0.0012795735
60	0x003000fe	4.40846e-39
61	0x3ab00a68	0.0013430836
62	0x0034fe3b	4.866647e-39
63	0x3ab1cc05	0.0013564831

mlp.mlp.5.running_var f4 [64]
0	0x00000004	6e-45
1	0x00000004	6e-45
2	0x00000004	6e-45
3	0x36264892	2.477817e-06
4	0x00000004	6e-45
5	0x00000004	6e-45
6	0x3628bafc	2.514279e-06
7	0x00000004	6e-45
8	0x00000004	6e-45
9	0x00000004	6e-45
10	0x00000004	6e-45
11	0x00000004	6e-45
12	0x00000004	6e-45
13	0x00000004	6e-45
14	0x00000004	6e-45
15	0x00000004	6e-45
16	0x3636dc91	2.72485e-06
17	0x00000004	6e-45
18	0x00000004	6e-45
19	0x363ec53d	2.8427014e-06
20	0x00000004	6e-45
21	0x00000004	6e-45
22	0x00000004	6e-45
23	0x364c4c99	3.0442955e-06
24	0x00000004	6e-45
25	0x00000004	6e-45
26	0x34da4ca1	4.066142e-07
27	0x00000004	6e-45
28	0x00000004	6e-45
29	0x00000004	6e-45
30	0x00000004	6e-45
31	0x00000004	6e-45
32	0x00000004	6e-45
33	0x3617aac0	2.2600143e-06
34	0x00000004	6e-45
35	0x360e0f0a	2.1168403e-06
36	0x36141d11	2.2070637e-06
37	0x360fd4a5	2.1432436e-06
38	0x00000004	6e-45
39	0x00000004	6e-45
40	0x360ee147	2.1290778e-06
41	0x3633f470	2.681536e-06
42	0x362f48e4	2.611946e-06
43	0x00000004	6e-45
44	0x362a2b88	2.5357313e-06
45	0x00000004	6e-45
46	0x363aa8b4	2.7814358e-06
47	0x00000004	6e-45
48	0x00000004	6e-45
49	0x36283001	2.5061893e-06
50	0x36146567	2.2112742e-06
51	0x362299c1	2.4229378e-06
52	0x3617fae6	2.2646796e-06
53	0x00000004	6e-45
54	0x00000004	6e-45
55	0x363baa0d	2.7964154e-06
56	0x3631a62a	2.6471776e-06
57	0x00000004	6e-45
58	0x00000004	6e-45
59	0x360b0107	2.0713212e-06
60	0x00000004	6e-45
61	0x3618f875	2.2794386e-06
62	0x00000004	6e-45
63	0x361bd678	2.3221637e-06
