model_lr_0.001/dfm_epoch_100.pt (torch, 151559 bytes, 15 tensors)

embedding.embedding.weight f4 [98, 75]
-0.048469163 -0.03859369 -0.0054127923 -0.03967821 -0.049931463 -0.017472545 -0.077603415 -0.08028917
-0.09268295 -0.038610402 -0.09089815 -0.08865525 0.0142163485 0.08941579 0.0028693355 -0.13917448
-0.046463568 0.09151351 0.1267328 0.07178164 0.02247761 0.0041210633 -0.027896775 -0.11529889
-0.06178346 -0.024969675 0.07972725 0.0065998896 0.08612147 0.071326084 0.06097966 -0.006855213
0.070465334 0.080540545 -0.04513608 -0.047837257 0.0901956 -0.067182615 0.090778716 -0.09663266
0.01752764 -0.06837482 0.05819707 0.098301046 0.049751934 0.034012467 0.09787479 -0.061199725
-0.053763438 0.08258237 -0.02744726 0.0875772 0.11383083 -8.192132e-05 0.011006118 0.058355726
0.08958512 0.08793648 -0.06480302 0.092085764 0.056764454 -0.07581474 -0.0021648086 0.07234731
-0.04694411 0.047887046 -0.10099475 -0.062961005 -0.05546657 -0.031488493 0.048436478 -0.08477332
-0.052780043 0.015649108 0.07028308 -0.053967357 -0.043006808 -0.006072306 -0.04459492 -0.05532854
-0.01970272 -0.08730934 -0.090032876 -0.10454423 -0.04346958 -0.10243018 -0.09928453 0.016106049
0.100699976 0.0031810994 -0.15917863 -0.05180858 0.10178102 0.14378333 0.08042117 0.025730561
0.004558876 -0.031704694 -0.13044283 -0.068947986 -0.02800652 0.0889677 0.0073005897 0.097021036
0.08026884 0.06769865 -0.007620933 0.0802374 0.092716806 -0.051485155 -0.053032376 0.10194516
-0.075296305 0.10171538 -0.10960619 0.01977981 -0.077981204 0.064938076 0.11077974 0.05697823
0.03891185 0.11294348 -0.07064512 -0.059776172 0.09167747 -0.0311976 0.09952268 0.12984265
-9.2975264e-05 0.012271199 0.06480424 0.102105476 0.09925684 -0.07314585 0.10463353 0.06325635
-0.08697465 -0.0024684404 0.080427974 -0.052546453 0.053271897 -0.11328932 -0.07144693 -0.061529703
-0.03543664 0.05440898 -0.095285505 -0.05876814 0.017365504 0.078754775 -0.061715122 -0.049327828
-0.0068401713 -0.050673086 -0.063012674 -0.022116099 -0.0984712 -0.10233323 -0.11786774 -0.04886663
-0.11496805 -0.11246353 0.018065175 0.11304783 0.0036497638 -0.17750655 -0.059471633 0.116521224
0.16185181 0.09167298 0.028379636 0.005275478 -0.035260886 -0.14703266 -0.078576006 -0.031849835
0.100927494 0.008355141 0.10973237 0.08994641 0.07764229 -0.008666116 0.08978078 0.102524385
-0.057058886 -0.060556557 0.11450038 -0.08520291 0.11489008 -0.123107746 0.022214131 -0.08640466
0.07358246 0.12469019 0.06293716 0.042935755 0.12453198 -0.0778057 -0.067922525 0.10410391
-0.034781873 0.11091111 0.14434603 -0.00010376281 0.0140275825 0.07360905 0.11463245 0.11129523
-0.082156025 0.117580436 0.07164995 -0.09595306 -0.002746989 0.09154053 -0.059404988 0.060510702
-0.12806125 -0.079770125 -0.07096815 -0.03973564 0.06164969 -0.10731298 -0.06651052 0.019833565
0.089207344 -0.018493261 -0.014734901 -0.0020546955 -0.015161607 -0.019016495 -0.0066236337 -0.029651122
-0.030673096 -0.035428353 -0.0147045 -0.03471765 -0.033820808 0.0054074284 0.03423546 0.0010843298
-0.053473257 -0.017748808 0.034947403 0.048572302 0.027422491 0.008517848 0.0015706327 -0.010562563
-0.04416368 -0.02365312 -0.00951136 0.030398557 0.0024958728 0.032963805 0.027158527 0.02316677
00000000: 9a87 46bd 6b14 1ebd cb5d b1bb 9e85 22bd
00000010: ef84 4cbd 9522 8fbc 8aee 9ebd a66e a4bd
00000020: 8fd0 bdbd f125 1ebd cf28 babd e290 b5bd
00000030: b0eb 683c a01f b73d 760b 3c3b c183 0ebe
00000040: 9550 3ebd 6f6b bb3d 3ec6 013e 4102 933d
00000050: f722 b83c fc09 873b c787 e4bc d321 ecbd
00000060: a710 7dbd 348d ccbc 0a48 a33d e343 d83b
00000070: 7460 b03d 6913 923d cfc5 793d b2a1 e0bb
00000080: 2150 903d 71f2 a43d 9ce0 38bd 00f1 43bd
00000090: 79b8 b83d 0a97 89bd 31ea b93d 58e7 c5bd
000000a0: 2096 8f3c 1908 8cbd 0d60 6e3d 0f52 c93d
000000b0: afc8 4b3d a850 0b3d 9472 c83d 90ac 7abd
000000c0: 0d37 5cbd f220 a93d 14d9 e0bc ad5b b33d
000000d0: 2320 e93d 2ccd abb8 0153 343c 6a06 6f3d
000000e0: 6778 b73d 0b18 b43d 72b7 84bd 7697 bc3d
000000f0: d881 683d c244 9bbd 76df 0dbb d42a 943d
00000100: 7848 40bd 3525 443d 56d6 cebd b3f1 80bd
00000110: ea30 63bd 14fa 00bd 5465 463d a29d adbd
00000120: e32f 58bd 8f32 803c 93f0 8f3d e00c 5dbd
00000130: e827 30bd 32fa c6bb 2aa9 36bd 2ea0 62bd
00000140: 9967 a1bc 3dcf b2bd 2863 b8bd 491b d6bd
00000150: 290d 32bd eac6 d1bd b055 cbbd d5f0 833c
00000160: ca3b ce3d fe79 503b b9ff 22be 3c35 54bd
00000170: 9172 d03d f03b 133e dbb3 a43d e6c8 d23c
00000180: a062 953b c8dc 01bd ce92 05be 9a34 8dbd
00000190: ee6d e5bc b334 b63d c939 ef3b f7b2 c63d
000001a0: fd63 a43d 97a5 8a3d 05b9 f9bb 8253 a43d
000001b0: 4fe2 bd3d 19e2 52bd 7a38 59bd a0c8 d03d
000001c0: f334 9abd 2750 d03d 3679 e0bd 4509 a23c
000001d0: 9cb4 9fbd 41fe 843d 7de0 e23d 0162 693d
000001e0: 0862 1f3d e94e e73d 64ae 90bd dcd7 74bd
000001f0: 66c1 bb3d 1c92 ffbc 8cd2 cb3d 79f5 043e
00000200: b7fb c2b8 240d 493c 16b8 843d ad1c d13d
00000210: 2c47 cb3d 7ecd 95bd 1b4a d63d 8c8c 813d
00000220: c41f b2bd 8fc5 21bb 6cb7 a43d f33a 57bd
00000230: a233 5a3d 3b04 e8bd c552 92bd 9206 7cbd
00000240: 0326 11bd f3db 5e3d 0c25 c3bd dcb6 70bd
00000250: 1a42 8e3c 2f4a a13d ffc8 7cbd fa0b 4abd
00000260: 8423 e0bb 958e 4fbd ca0c 81bd d22c b5bc
00000270: 45ab c9bd 1694 d1bd a464 f1bd 6028 48bd
00000280: 5e74 ebbd 4753 e6bd 6bfd 933c 9f85 e73d
00000290: e030 6f3b 47c4 35be 8798 73bd aea2 ee3d
000002a0: 7bbc 253e 0bbf bb3d 697c e83c ebdd ac3b
000002b0: b86d 10bd bb8f 16be 75ec a0bd f974 02bd
000002c0: 13b3 ce3d 00e4 083c 5dbb e03d d335 b83d
000002d0: ec02 9f3d 53fc 0dbc fcde b73d 4ef8 d13d
000002e0: 94b6 69bd 270a 78bd 2d7f ea3d dd7e aebd
000002f0: 7e4b eb3d ea1f fcbd 69fa b53c edf4 b0bd
00000300: 67b2 963d 925d ff3d 33e5 803d 67dd 2f3d
00000310: 9f0a ff3d 9858 9fbd f71a 8bbd 6e34 d53d
00000320: 7077 0ebd 5d25 e33d 72cf 133e 3c9b d9b8
00000330: f2d3 653c 57c0 963d 6bc4 ea3d c1ee e33d
00000340: 6b41 a8bd 03ce f03d 36bd 923d 0a83 c4bd
00000350: d406 34bb 9a79 bb3d a552 73bd 12da 773d
00000360: 7d22 03be 855e a3bd c057 91bd d7c1 22bd
00000370: 6384 7c3d e8c6 dbbd ab36 88bd 007a a23c
00000380: 57b2 b63d 2e7f 97bc a76a 71bc 12a8 06bb
00000390: 6468 78bc 7bc8 9bbc 110b d9bb e9e6 f2bc
000003a0: 2546 fbbc 521d 11bd 25eb 70bc 1834 0ebd
000003b0: b087 0abd cc30 b13b 7b3a 0c3d 1220 8e3a
000003c0: c606 5bbd f365 91bc 0225 0f3d c0f3 463d
000003d0: 22a5 e03c 728e 0b3c b0dd cd3a 9a0e 2dbc
000003e0: fae4 34bd 30c4 c1bc 89d5 1bbc 6506 f93c
000003f0: cc91 233b 0e05 073d 8f7b de3c 3dc8 bd3c

linear.fc.weight f4 [98, 1]
0.48126706 0.4285798 0.5965438 0.17229012 0.24964559 0.05512952 0.31310293 0.29415455
0.07902594 0.030472131 0.030072676 0.028800271 0.014542331 0.014697793 0.014049198 0.013338758
0.20549941 0.14443158 0.1704385 0.15680857 0.19109811 0.2045721 0.17660673 0.028591495
0.02354986 0.02131764 0.025714383 0.029119028 0.033806242 0.025287062 0.008596203 0.003000621
0.028251866 0.013824347 0.0007899592 0.00038675938 0.0006029328 0.012192313 0.00018048797 0.0046898085
0.0057118097 0.0015718644 0.006751855 0.03386121 0.032316256 0.0042325016 0.017966269 0.026304057
0.0026160986 0.025512965 0.0187729 0.004596476 0.0026386662 0.0073135775 0.0012566008 0.002469963
0.027263751 0.0016817395 0.030824687 0.019311432 0.0062066778 0.0055696676 0.022939915 0.0027958716
0.0029645301 0.00033755763 0.0008272896 0.01605151 0.03546126 0.017048674 0.012147105 0.01173327
0.004318764 0.008842484 0.0006239445 0.034863353 0.0018777106 5.7961075e-05 0.025843326 0.034749873
0.022642927 0.02334062 0.0034983514 0.002261599 0.03604869 0.031714324 0.017790854 0.005166196
0.00878207 0.018346852 0.024205724 0.00960619 0.007820407 0.013502926 0.01133147 0.008962265
0.00028188364 0.015244162
00000000: a368 f63e d06e db3e 18b7 183f d26c 303e
00000010: 18a3 7f3e 7ecf 613d 074f a03e 6d9b 963e
00000020: 5ad8 a13d b1a0 f93c f95a f63c 8cee eb3c
00000030: f542 6e3c 03cf 703c 9b2e 663c ce8a 5a3c
00000040: 706e 523e dfe5 133e 6e87 2e3e 6d92 203e
00000050: 39af 433e 597b 513e 65d8 343e b638 ea3c
00000060: a3eb c03c 55a2 ae3c f8a6 d23c 078b ee3c
00000070: 6a78 0a3d d026 cf3c 17d7 0c3c 11a6 443b
00000080: 7570 e73c 847f 623c 4415 4f3a f7c5 ca39
00000090: 230e 1e3a 44c2 473c 5f41 3d39 f7ac 993b
000000a0: 222a bb3b 0407 ce3a aa3e dd3b 0db2 0a3d
000000b0: 0d5e 043d ccb0 8a3b ff2d 933c 9b7b d73c
000000c0: da72 2b3b 9100 d13c a0c9 993c 099e 963b
000000d0: 79ed 2c3b bca6 ef3b 87b4 a43a 1adf 213b
000000e0: 3b58 df3c d06d dc3a 0e84 fc3c 0233 9e3c
000000f0: 6361 cb3b c281 b63b 7dec bb3c f13a 373b
00000100: 9048 423b 38fa b039 77de 583a 757e 833c
00000110: d33f 113d a9a9 8b3c a704 473c e73c 403c
00000120: 6b84 8d3b 11e0 103c 3590 233a e0cc 0e3d
00000130: 831d f63a 3b1b 7338 62b5 d33c e255 0e3d
00000140: a97d b93c d434 bf3c 9944 653b 5637 143b
00000150: cba7 133d e1e6 013d 20be 913c 3149 a93b
00000160: ace2 0f3c 234c 963c 154b c63c 4863 1d3c
00000170: 2a21 003c 603b 5d3c a1a7 393c 77d6 123c
00000180: c8c9 9339 a6c2 793c

mlp.mlp.0.weight f4 [64, 375]
9.074555e-05 7.614836e-05 1.2801933e-05 7.7937606e-05 0.00011143857 4.2639476e-05 0.00021046976 0.0001909622
0.0002127047 0.000100924495 0.00022363504 0.0001954143 -3.2441294e-05 -0.00022053887 -6.200536e-06 0.00031206562
8.440963e-05 -0.0002105988 -0.00027744216 -0.0001509824 -3.796204e-05 -8.638304e-06 7.43523e-05 0.00025328103
0.00012908968 6.2211475e-05 -0.00016345065 -9.2538e-06 -0.00016621909 -0.0001537032 -0.00015097516 1.1077168e-05
-0.0001849674 -0.0002093779 0.00012740925 9.182128e-05 -0.0002501887 0.00017999779 -0.0001777303 0.00027078108
-2.9745917e-05 0.00013941913 -0.00012530466 -0.00020174772 -0.00015056807 -7.465444e-05 -0.00031763117 0.00021766913
0.0001156603 -0.00020713938 7.165126e-05 -0.00023196622 -0.00036501317 2.4089417e-07 -2.0509644e-05 -0.00014700128
-0.0002824934 -0.00021530493 0.00018013427 -0.00022861331 -0.000106007144 0.00019352471 6.5097584e-06 -0.00018664043
8.627849e-05 -9.913549e-05 0.00022115321 0.00018159434 9.493565e-05 5.55621e-05 -9.488252e-05 0.00022510138
0.00012299583 -3.1335887e-05 -0.0001574781 0.0010151798 0.0008146801 0.00010886461 0.0008315968 0.0010638221
0.0003642217 0.0016401468 0.0017216897 0.0019507293 0.0008174452 0.0019467165 0.001885735 -0.00029696405
-0.001910948 -6.0612405e-05 0.0030010552 0.0010127772 -0.0019545283 -0.002675491 -0.0015017694 -0.00046884984
-8.8213295e-05 0.00057412003 0.002475139 0.0013134005 0.0005339892 -0.0016910172 -0.00013769278 -0.0018005766
-0.0015205863 -0.001294841 0.00014028225 -0.0014907515 -0.0017109074 0.0009440731 0.0010198042 -0.0019231631
0.0014230456 -0.0019014353 0.0020348022 -0.00036062874 0.0014599151 -0.0012299372 -0.0020908508 -0.0010528127
-0.00069027627 -0.0020916546 0.0013129407 0.0011510656 -0.0017685128 0.000578723 -0.0018623127 -0.002429043
1.7269178e-06 -0.00023266212 -0.0012527634 -0.0018758385 -0.001874603 0.0013834543 -0.0019106586 -0.0012078198
0.0016139026 4.4505516e-05 -0.0015282949 0.0009870213 -0.0010099609 0.0021601608 0.0013432738 0.0011718713
0.0006572754 -0.0010090834 0.0018029696 0.0011149127 -0.00032365296 -0.0014663171 0.0012608558 0.0010150896
0.00014381434 0.0010163989 0.0012935763 0.0004500511 0.001983313 0.0020561912 0.002421123 0.0010139262
0.002363853 0.0022795456 -0.00037099794 -0.0023274792 -7.532619e-05 0.0036542905 0.0011900088 -0.0023489208
-0.003280249 -0.0018410865 -0.0005741782 -0.00010870299 0.0007418896 0.0029851734 0.0016273257 0.00064497016
-0.0020493055 -0.0001749902 -0.0022407856 -0.001827037 -0.0015835009 0.00018347046 -0.001831505 -0.00209662
0.0011771529 0.0012362428 -0.0023119363 0.0017218268 -0.0023712155 0.0025341734 -0.0004653695 0.0017461338
-0.0015377668 -0.0024896674 -0.0012811988 -0.0008936833 -0.0025697101 0.0015645857 0.0014144782 -0.0021065862
0.00071409816 -0.0022893602 -0.0029374168 2.1618985e-06 -0.0002831209 -0.001515335 -0.002307822 -0.0022964713
0.0016711177 -0.0023855392 -0.0015290049 0.0019893786 5.6909434e-05 -0.0018907932 0.0012279165 -0.0012878339
0.0026273674 0.0016198463 0.0014155336 0.00081132766 -0.0012673952 0.0022224288 0.0013929607 -0.00040227966
-0.0018213664 0.0007150148 0.00055547996 7.591208e-05 0.00058419246 0.00071321934 0.00025067021 0.0011675927
0.0012116625 0.001369901 0.0005466612 0.0013229782 0.0013077307 -0.00020811272 -0.0012790634 -4.0213155e-05
0.0021048186 0.00067693734 -0.0013008678 -0.0018675585 -0.001048009 -0.0003244893 -5.8065056e-05 0.00039103822
0.0016738084 0.0009046612 0.0003677583 -0.0011234517 -0.00010015128 -0.0012629234 -0.0009990709 -0.0008913327
00000000: a54e be38 d7b1 9f38 e2c7 5637 6f72 a338
00000010: 20b4 e938 cad7 3238 8cb1 5c39 063d 4839
00000020: 7c09 5f39 6da7 d338 937f 6a39 20e8 4c39
00000030: 9311 08b8 7440 67b9 330e d0b6 bd9c a339
00000040: 1305 b138 2fd4 5cb9 a875 91b9 0851 1eb9
00000050: 6e39 1fb8 3ced 10b7 96ed 9b38 ceca 8439
00000060: 3f5c 0739 8877 8238 f363 2bb9 c540 1bb7
00000070: 194b 2eb9 632b 21b9 164f 1eb9 13d8 3937
00000080: cff3 41b9 748c 5bb9 2999 0539 2d90 c038
00000090: c22b 83b9 cabd 3c39 1d5d 3ab9 9ff7 8d39
000000a0: df86 f9b7 0a31 1239 3764 03b9 3e8c 53b9
000000b0: cfe1 1db9 cc8f 9cb8 bc87 a6b9 1d3e 6439
000000c0: a78e f238 8e33 59b9 7a43 9638 f53b 73b9
000000d0: 3d5f bfb9 3e54 8134 200c acb7 5b24 1ab9
000000e0: 9f1b 94b9 7ac3 61b9 6de2 3c39 ebb7 6fb9
000000f0: 2750 deb8 e5ec 4a39 666e da36 e9b4 43b9
00000100: 69f0 b438 f6e6 cfb8 5de5 6739 5c6a 3e39
00000110: 3018 c738 5a0b 6938 aafb c6b8 3109 6c39
00000120: 71f8 0039 a76e 03b8 b520 25b9 c80f 853a
00000130: 4290 553a 3e4e e438 84ff 593a f26f 8b3a
00000140: 02f5 be39 32fa d63a 52aa e13a 9daf ff3a
00000150: d249 563a f728 ff3a c42a f73a d7b1 9bb9
00000160: c678 faba 133a 7eb8 5aad 443b 2abf 843a
00000170: 8b17 00bb 4a57 2fbb 05d7 c4ba f6cf f5b9
00000180: 27ff b8b8 8b80 163a f135 223b 6826 ac3a
00000190: 69fb 0b3a 1fa5 ddba a061 10b9 5301 ecba
000001a0: 694e c7ba a7b7 a9ba bb18 1339 5265 c3ba
000001b0: 8740 e0ba ac7b 773a f3aa 853a a512 fcba
000001c0: 7d85 ba3a 9539 f9ba 515a 053b c512 bdb9
000001d0: 9f5a bf3a d835 a1ba a806 09bb 88fe 89ba
000001e0: a8f3 34ba 2414 09bb fb16 ac3a 5adf 963a
000001f0: 71cd e7ba 71b5 173a d818 f4ba 9430 1fbb
00000200: 72c8 e735 c3f6 73b9 c433 a4ba b2de f5ba
00000210: 3db5 f5ba 0655 b53a 106f faba b54f 9eba
00000220: 9689 d33a 6fab 3a38 1151 c8ba f05e 813a
00000230: aa60 84ba 7c91 0d3b ca10 b03a 7a99 993a
00000240: 014d 2c3a 3843 84ba 9f51 ec3a 4322 923a
00000250: f7af a9b9 7031 c0ba 4d43 a53a c10c 853a
00000260: decc 1639 b038 853a 388d a93a d6f4 eb39
00000270: 78fa 013b 2ac1 063b b4ab 1e3b b8e5 843a
00000280: dfea 1a3b 6e64 153b 8082 c2b9 9f88 18bb
00000290: 71f8 9db8 d27c 6f3b 12fa 9b3a 5af0 19bb
000002a0: 72f9 56bb 9d50 f1ba 7284 16ba 79f7 e3b8
000002b0: 5e7b 423a e6a2 433b fd4b d53a 3713 293a
000002c0: a44d 06bb 937d 37b9 25da 12bb 3079 efba
000002d0: 798d cfba fa61 4039 1c0f f0ba 7267 09bb
000002e0: b24a 9a3a 6d09 a23a db83 17bb ecae e13a
000002f0: 6566 1bbb 6014 263b d6fc f3b9 87de e43a
00000300: e48e c9ba b029 23bb e6ed a7ba 1246 6aba
00000310: 9568 28bb c912 cd3a 0366 b93a a70e 0abb
00000320: 5132 3b3a 1709 16bb ad81 40bb 2215 1136
00000330: d86f 94b9 359e c6ba d43e 17bb 6580 16bb
00000340: 6809 db3a b556 1cbb e468 c8ba 3c60 023b
00000350: 0ab2 6e38 7ed4 f7ba 0af2 a03a 89cc a8ba
00000360: e92f 2c3b 0651 d43a 6d89 b93a 47af 543a
00000370: ba1e a6ba 2ba6 113b 0194 b63a 10e9 d2b9
00000380: eaba eeba d56f 3b3a a19d 113a fd32 9f38
00000390: 7e24 193a 57f7 3a3a 636c 8339 e909 993a
000003a0: a6d0 9e3a 408e b33a d04d 0f3a c867 ad3a
000003b0: 2968 ab3a d538 5ab9 3fa6 a7ba 8caa 28b8
000003c0: fff0 093b 7f74 313a e181 aaba ddc8 f4ba
000003d0: 595d 89ba 3720 aab9 e18a 73b8 4304 cd39
000003e0: b163 db3a c926 6d3a afcf c039 c940 93ba
000003f0: 4f08 d2b8 ad88 a5ba 42f3 82ba 53a8 69ba

mlp.mlp.0.bias f4 [64]
-2.0191874e-07 1.070369e-39 -5.881575e-39 -5.296952e-39 -9.6535e-41 -1.3170786e-07 5.926308e-39 7.6881745e-09
-8.437575e-08 5.856639e-39 -1.835909e-08 4.4236714e-16 -5.880971e-39 -4.428786e-39 1.4894755e-07 2.59914e-39
-2.095209e-08 4.7218e-41 9.706484e-08 -1.2587704e-07 -4.1410253e-08 5.814158e-39 9.979669e-08 2.0802371e-08
-1.040468e-39 -1.2899444e-07 -5.397239e-08 1.4661016e-07 -6.470446e-08 1.4519117e-07 -1.2707422e-07 -2.552765e-39
-3.992697e-39 1.788e-41 3.7420086e-13 -5.44647e-39 -4.052072e-39 3.4084135e-08 -2.39807e-39 -2.352755e-39
-9.0895e-41 1.2745745e-07 5.878053e-39 -5.0002527e-08 -9.117082e-08 -9.5417185e-09 1.5663086e-07 -1.977651e-39
-6.798234e-39 1.972412e-39 4.157452e-08 -4.906522e-08 8.749414e-09 6.2902664e-08 1.25403e-39 -1.7039268e-08
-2.0038233e-07 -2.89308e-39 2.0954218e-08 -7.081284e-39 4.864421e-39 4.88443e-39 2.093407e-39 7.44353e-40
00000000: 00cf 58b4 c1a7 0b00 700b 4080 bfad 3980
00000010: 1a0d 0180 956b 0db4 2388 4000 f314 0432
00000020: 0f32 b5b3 edc5 3f00 11b4 9db2 de01 ff25
00000030: c109 4080 a739 3080 64ee 1f34 584d 1c00
00000040: 22fa b3b2 a083 0000 f671 d033 d128 07b4
00000050: 0edb 31b3 824f 3f00 cf4f d633 e6b0 b232
00000060: 6754 0b80 b981 0ab4 45cf 67b3 e56b 1d34
00000070: a7f3 8ab3 d8e5 1b34 e571 08b4 12cc 1b80
00000080: 047a 2b80 d831 0000 07a8 d22a 8b4e 3b80
00000090: 871f 2c80 e763 1233 d81c 1a80 869e 1980
000000a0: 61fd 0080 3ddb 0834 9f01 4000 5cc2 56b3
000000b0: b0c9 c3b3 ecec 23b2 5d2e 2834 e388 1580
000000c0: b606 4a80 487a 1500 ab8f 3233 c8bb 52b3
000000d0: 5450 1632 1b15 8733 baa7 0d00 bf5d 92b2
000000e0: ad28 57b4 bb80 1f80 d0fe b332 bd1b 4d80
000000f0: 07f8 3400 ce2f 3500 91cb 1600 f41a 0800

mlp.mlp.1.weight f4 [64]
0.033142075 -6.58752e-40 4.864721e-39 -2.693227e-39 2.097877e-39 0.029962743 -3.625578e-39 0.01543682
0.031411294 -4.647074e-39 0.03301512 -2.950605e-09 1.544115e-39 1.13962e-40 0.030864159 4.949678e-39
0.032432105 -1.234156e-39 0.03169883 0.032620717 0.030674655 4.76572e-39 0.028370831 0.030091014
-6.668416e-39 0.032196503 0.02778747 0.030686492 0.029374242 0.031511597 0.03023211 6.867604e-39
-2.25348e-40 -3.590075e-39 -3.4474458e-06 4.467047e-39 -6.684091e-39 0.029193148 -6.2218e-39 -1.053994e-39
-5.207633e-39 0.031388786 5.695348e-39 -0.0315478 0.031019768 0.01934786 0.03132647 4.32734e-40
-5.777998e-39 -5.417061e-39 0.032023348 0.032354042 0.03127216 0.03124787 8.99206e-40 -0.030383598
0.029662622 2.14796e-39 0.032362454 -4.948913e-39 -4.849523e-39 1.339905e-39 1.739764e-39 -3.387003e-39
00000000: fcbf 073d 552c 0780 ddf8 3400 9f53 1d80
00000010: 07d8 1600 6d74 f53c a37a 2780 b7ea 7c3c
00000020: 21a9 003d 279a 3280 dd3a 073d 98c3 4ab1
00000030: 5dd0 1000 ae3d 0100 d5d6 fc3c b0e5 3500
00000040: 87d7 043d 5370 0d80 a2d6 013d 4d9d 053d
00000050: 6a49 fb3c e3e4 3300 f269 e83c 6e81 f63c
00000060: d59c 4880 7be0 033d 8ca2 e33c 3d62 fb3c
00000070: 40a2 f03c 4e12 013d 54a9 f73c 16c8 4a00
00000080: 2e74 0280 ab17 2780 ab5a 67b6 4fa4 3000
00000090: 87c8 4880 7826 ef3c d9bf 4380 1b7a 0b80
000000a0: c3b4 3880 8791 003d 5004 3e00 4438 01bd
000000b0: 2b1d fe3c 677f 9e3c 2f50 003d 49b6 0400
000000c0: b5ea 3e80 90fc 3a80 ea2a 033d ac85 043d
000000d0: 3d17 003d 88fb ff3c 9fca 0900 06e7 f8bc
000000e0: 07ff f23c a363 1700 7e8e 043d 8ee3 3580
000000f0: 7fce 3480 1c97 0e00 c1f1 1200 96e1 2480

mlp.mlp.1.bias f4 [64]
0.0225631 2.1404695e-37 3.496214e-39 -4.248038e-39 -6.437334e-39 0.019908546 -6.952206e-39 0.008466328
0.021400522 -2.801323e-39 0.022652345 -1.7152655e-09 2.704713e-39 3.3827575e-38 0.021094928 -7.54453e-40
0.022014335 5.3428094e-37 0.021791765 0.022065898 0.020705156 1.0831492e-37 0.01877126 0.020201065
-4.481933e-39 0.021858852 0.017100632 0.020582104 0.019684127 0.021599445 0.020249411 5.344443e-39
-2.945978e-39 6.990096e-39 -1.0810075e-07 3.586387e-39 5.2264366e-37 0.019676942 2.0137421e-37 -3.87239e-39
-1.60754e-39 0.021648504 1.778134e-38 0.020830872 0.020928105 0.011104839 0.021329349 1.4012068e-37
4.212592e-37 2.937403e-39 0.021688199 0.022282794 0.021336496 0.02116362 8.85396e-40 0.020683449
0.019927861 1.0723314e-37 0.022089254 1.5151701e-37 1.100548e-39 1.5812022e-37 2.2019937e-37 1.917771e-37
00000000: 40d6 b83c 3dac 9102 0612 2600 cd41 2e80
00000010: ab18 4680 3f17 a33c ecb3 4b80 5ab6 0a3c
00000020: 2650 af3c f380 1e80 6991 b93c 8abe ebb0
00000030: a473 1d00 c22c 3801 45cf ac3c 1c37 0880
00000040: 6857 b43c 6fce 3503 a584 b23c 8bc3 b43c
00000050: dc9d a93c 3e6e 1302 2fc6 993c b47c a53c
00000060: cecd 3080 5611 b33c a016 8c3c cd9b a83c
00000070: 9b40 a13c 52f1 b03c 18e2 a53c 2232 3a00
00000080: 3014 2080 8b1d 4c00 0425 e8b3 630d 2700
00000090: afd8 3103 8a31 a13c 560c 8902 a62a 2a80
000000a0: 2b81 1180 3458 b13c 249f c100 81a5 aa3c
000000b0: 6b71 ab3c 12f1 353c e3ba ae3c eeb8 3e02
000000c0: da58 0f03 49fc 1f00 73ab b13c 688a b63c
000000d0: e0c9 ae3c 545f ad3c 20a4 0900 5670 a93c
000000e0: c13f a33c 4cf5 1102 86f4 b43c f93b 4e02
000000f0: e1fb 0b00 db38 5702 24dc 9502 4884 8202

mlp.mlp.1.running_mean f4 [64]
-0.016662352 6.26487e-39 -5.587636e-39 -2.744374e-39 2.315469e-39 -0.015748013 9.99343e-40 0.010006485
-0.016004883 1.665691e-39 -0.016706748 -5.978064e-10 -6.066577e-39 -8.507091e-39 -0.015965661 -8.488454e-26
-0.016145118 2.91983e-40 -0.01618593 -0.016507449 -0.01589768 -4.128518e-39 -0.0146966055 -0.015662348
2.895853e-39 -0.016332824 0.01589966 -0.01581181 -0.0155324815 -0.016354188 -0.01563995 7.080384e-39
3.809754e-39 -3.486038e-39 9.596458e-07 2.5345319e-18 3.9550687e-30 -0.015290191 -9.74984e-40 -4.928168e-39
-1.75524e-40 -0.016343558 2.836207e-39 0.015889104 -0.016027959 0.011920843 -0.016134461 -7.432829e-39
-5.001828e-39 -5.48271e-39 -0.016460335 -0.016688777 -0.015893508 -0.015959915 4.076498e-39 0.015760375
-0.015674766 5.288287e-39 -0.016424576 1.102878e-39 3.1307733e-34 1.206302e-39 -3.558117e-39 1.7521174e-26
00000000: 7c7f 88bc e937 4400 0ed8 3c80 33e2 1d80
00000010: 9636 1900 fa01 81bc c3e1 0a00 3df2 233c
00000020: ac1c 83bc 4523 1200 97dc 88bc e352 24b0
00000030: 260f 4280 4fa2 5c80 6bca 82bc f829 d295
00000040: c442 84bc ee2d 0300 5b98 84bc a13a 87bc
00000050: da3b 82bc a1f4 2c80 08ca 70bc 534e 80bc
00000060: 7688 1f00 6acc 85bc 0140 823c c587 81bc
00000070: f37b 7ebc 38f9 85bc 5a1f 80bc 3b19 4d00
00000080: 0b7c 2900 a8f5 2580 2ecd 8035 f403 3b22
00000090: c86f a00e b683 7abc dc9d 0a80 baa9 3580
000000a0: 4ae9 0180 ede2 85bc 31e2 1e00 de29 823c
000000b0: 114d 83bc a44f 433c 6b2c 84bc b4ef 5080
000000c0: 1077 3680 91b3 3b80 d3d7 86bc e7b6 88bc
000000d0: 1a33 82bc 5ebe 82bc 9e63 2c00 e71b 813c
000000e0: 5e68 80bc 9895 3900 d58c 86bc 6002 0c00
000000f0: 5913 d007 ae22 0d00 95be 2680 7485 ad14

mlp.mlp.1.running_var f4 [64]
1.3996942e-05 6e-45 6e-45 6e-45 6e-45 1.3042168e-05 6e-45 5.2737946e-06
1.3132275e-05 6e-45 1.4159338e-05 2.2253925e-18 6e-45 6e-45 1.3791007e-05 6e-45
1.4012705e-05 6e-45 1.3819222e-05 1.3856825e-05 1.3422845e-05 6e-45 1.2068764e-05 1.3128185e-05
6e-45 1.3703755e-05 1.0789466e-05 1.3579058e-05 1.287744e-05 1.3333371e-05 1.2317294e-05 6e-45
6e-45 6e-45 4.4077316e-12 1.0999234e-36 6e-45 1.2546833e-05 6e-45 6e-45
6e-45 1.3426494e-05 6e-45 1.3432564e-05 1.3143976e-05 7.113569e-06 1.3619535e-05 6e-45
6e-45 6e-45 1.40654165e-05 1.47881065e-05 1.3363304e-05 1.4246404e-05 6e-45 1.317875e-05
1.3036457e-05 6e-45 1.40188395e-05 6e-45 6e-45 6e-45 6e-45 6e-45
00000000: 68d4 6a37 0400 0000 0400 0000 0400 0000
00000010: 0400 0000 afcf 5a37 0400 0000 8df5 b036
00000020: b152 5c37 0400 0000 e58d 6d37 7a34 2422
00000030: 0400 0000 0400 0000 ed5f 6737 0400 0000
00000040: 1c18 6b37 0400 0000 1bd9 6737 9c7a 6837
00000050: ae32 6137 0400 0000 f27a 4a37 2041 5c37
00000060: 0400 0000 2ee9 6537 6704 3537 9cd1 6337
00000070: 2f0c 5837 64b2 5f37 60a6 4e37 0400 0000
00000080: 0400 0000 0400 0000 5115 9b2c 6c24 bb03
00000090: 0400 0000 3d80 5237 0400 0000 0400 0000
000000a0: 0400 0000 5a42 6137 0400 0000 6c5c 6137
000000b0: f284 5c37 18b1 ee36 757f 6437 0400 0000
000000c0: 0400 0000 0400 0000 81fa 6b37 6f1a 7837
000000d0: f432 6037 d703 6f37 0400 0000 4d1a 5d37
000000e0: 28b7 5a37 0400 0000 7532 6b37 0400 0000
000000f0: 0400 0000 0400 0000 0400 0000 0400 0000

mlp.mlp.4.weight f4 [64, 64]
0.005057784 1.2603135e-37 8.33176e-40 -1.492122e-39 2.564854e-39 0.004456849 -7.278662e-39 -0.0018476343
0.0046097063 -7.126759e-39 0.0051177833 -9.365361e-11 -4.416266e-39 -4.635372e-39 0.004830775 5.567465e-39
0.0048441826 9.946922e-38 0.0048496434 0.005035552 0.0045093712 2.389008e-38 0.0042254194 0.004601502
-3.506667e-39 0.0048745954 -0.003597854 0.004768966 0.0046088975 0.0051096515 0.004439345 1.522315e-39
4.201547e-39 9.36213e-40 1.351218e-07 -6.862726e-39 6.249405e-38 0.00446562 1.0416237e-37 2.008956e-39
3.36312e-40 0.005049608 1.873778e-39 0.004718052 0.004456746 -0.0024120817 0.004910149 1.0165812e-37
1.6632287e-37 7.043806e-39 0.0048131775 0.00488128 0.004794893 0.0049562086 -7.337869e-39 0.0044684066
0.0044305595 1.7649961e-38 0.0049731643 -5.815326e-39 -2.020799e-39 1.0989413e-37 1.1503029e-37 9.445309e-38
-3.727593e-39 4.042883e-39 3.71654e-39 -5.94271e-40 4.216602e-39 -5.096375e-39 -6.658536e-39 3.25135e-39
-3.988889e-39 6.349686e-39 4.234552e-39 5.350606e-39 -1.207991e-39 1.842353e-39 -1.52599e-39 -2.180425e-39
-4.527946e-39 -1.23894e-40 -5.485112e-39 -6.714027e-39 6.110981e-39 3.16899e-39 -2.44174e-39 -9.06883e-40
5.255477e-39 -4.372446e-39 -2.448396e-39 -4.926942e-39 -2.24212e-40 -6.914274e-39 -6.884064e-39 6.28482e-40
2.54101e-39 -2.440936e-39 3.977593e-39 -3.031283e-39 5.069236e-39 2.325424e-39 2.031286e-39 1.817365e-39
4.690939e-39 -6.494821e-39 5.826365e-39 1.264386e-39 -6.441842e-39 6.411329e-39 1.0889e-39 -3.782305e-39
-3.100475e-39 -5.898591e-39 6.241196e-39 1.893135e-39 -6.49521e-39 -4.342503e-39 2.676348e-39 -2.680495e-39
-6.346844e-39 -4.081732e-39 -5.36423e-39 6.120334e-39 -7.76063e-40 -6.625217e-39 4.208716e-39 -2.120697e-39
0.00034957923 4.037812e-39 -4.95525e-39 -2.534407e-39 -9.7888e-40 0.00030844015 -1.421095e-39 -0.00011594977
0.00032590094 -5.017676e-39 0.0003344243 8.29162e-12 4.359486e-39 -3.80474e-39 0.00032537585 -3.134054e-39
0.00034126488 2.624509e-39 0.00033401875 0.00034020416 0.00031741816 -2.149618e-39 0.00028673734 0.00030962378
-3.608405e-39 0.00034073854 -0.00022505753 0.00031686804 0.00029997993 0.00032529523 0.00031204865 6.826316e-39
1.207901e-39 3.343984e-39 1.0718087e-08 -4.279278e-39 1.226705e-39 0.00029662633 -3.294639e-39 -5.126537e-39
6.929896e-39 0.00033190346 7.166218e-39 0.00032868164 0.000320125 -0.00014797277 0.00032090783 -4.14437e-40
-5.685788e-39 5.247503e-39 0.00033020298 0.00034110626 0.00031829232 0.0003183731 2.822804e-39 0.00030940556
0.00030387132 1.99898e-39 0.0003427255 6.908445e-39 -6.200251e-39 1.020273e-39 4.437517e-39 -4.533482e-39
-6.906347e-39 2.02978e-39 -3.36392e-40 -3.954557e-39 -2.316656e-39 -4.47252e-39 -6.01401e-40 -6.977753e-39
5.50317e-40 -2.19778e-39 6.952395e-39 -6.787437e-39 4.802768e-39 2.790205e-39 -1.489151e-39 7.108166e-39
6.873077e-39 -7.3416e-40 4.15905e-40 -1.132322e-39 4.068932e-39 -7.017825e-39 4.157658e-39 -6.484788e-39
-4.697054e-39 2.067554e-39 -3.210386e-39 -4.23867e-39 3.102429e-39 -5.522401e-39 4.282838e-39 6.311026e-39
3.428599e-39 6.008434e-39 3.966298e-39 -7.83511e-40 6.06128e-39 -1.009956e-39 -3.273164e-39 -4.75304e-40
-6.8743e-40 2.776241e-39 3.892293e-39 -7.137198e-39 -5.85195e-40 -5.60507e-39 -2.26081e-39 3.470513e-39
-1.91777e-39 -9.3465e-40 2.815801e-39 -5.355146e-39 3.455036e-39 -5.727349e-39 -3.35256e-40 1.625454e-39
3.268173e-39 1.21198e-40 -1.202907e-39 3.03425e-39 5.998286e-39 6.736112e-39 -2.760052e-39 2.578273e-39
00000000: c4bb a53b 848b 2b02 8e12 0900 6e3f 1080
00000010: c5ed 1b00 c20a 923b f341 4f80 522c f2ba
00000020: 050d 973b 819a 4d80 14b3 a73b 4cf2 cdae
00000030: c116 3080 8879 3280 7a4b 9e3b d49f 3c00
00000040: f3bb 9e3b f763 0702 c2e9 9e3b 4601 a53b
00000050: 59c3 933b e911 0201 6375 8a3b 32c8 963b
00000060: 292f 2680 12bb 9f3b f9c9 6bbb fd44 9c3b
00000070: 3c06 973b dd6e a73b ed77 913b 9893 1000
00000080: 34c0 2d00 c831 0a00 ff15 1134 7dba 4a80
00000090: ff1f aa01 5654 923b 4ac7 0d02 27e0 1500
000000a0: 80a9 0300 2f77 a53b 5567 1400 e499 9a3b
000000b0: e509 923b 0414 1ebb 51e5 a03b af5e 0a02
000000c0: 1063 6202 44b3 4c00 dcb7 9d3b 25f3 9f3b
000000d0: 7a1e 9d3b b167 a23b fee6 4f80 b66b 923b
000000e0: 3a2e 913b e930 c000 edf5 a23b c352 3f80
000000f0: 2a01 1680 8494 1502 3592 1c02 1990 0002
00000100: 0397 2880 ea05 2c00 3478 2800 9678 0680
00000110: 2cea 2d00 9f7e 3780 4a81 4880 7167 2300
00000120: 666f 2b80 5724 4500 351c 2e00 5043 3a00
00000130: 6327 0d80 bb0f 1400 d79d 1080 23be 1780
00000140: 124e 3180 5e59 0180 43ba 3b80 fa1b 4980
00000150: ee8a 4200 db81 2200 9496 1a80 05e0 0980
00000160: 223a 3900 9a9c 2f80 22a9 1a80 4fa6 3580
00000170: 0371 0280 2f4a 4b80 f8f5 4a80 f4d7 0600
00000180: 4dab 1b00 5694 1a80 e94f 2b00 fc01 2180
00000190: f832 3700 5652 1900 661e 1600 13ca 1300
000001a0: 6e14 3300 ebb8 4680 8971 3f00 98c4 0d00
000001b0: 3c25 4680 2dd0 4500 69db 0b00 872f 2980
000001c0: ddc2 2180 df3a 4080 eaf5 4300 4a9d 1400
000001d0: 01ba 4680 2249 2f80 9224 1d00 2130 1d80
000001e0: 6b1c 4580 3572 2c80 4a69 3a80 00a5 4200
000001f0: 5973 0880 6924 4880 30d4 2d00 a417 1780
00000200: bb47 b739 c7f7 2b00 39f5 3580 e598 1b80
00000210: b8a8 0a80 23b6 a139 6f79 0f80 0f2a f3b8
00000220: afdd aa39 3da3 3680 ab55 af39 23de 112d
00000230: 7978 2f00 116e 2980 3597 aa39 7820 2280
00000240: cceb b239 1094 1c00 3d1f af39 6e5d b239
00000250: 256b a639 4368 1780 3c55 9639 0055 a239
00000260: c44a 2780 27a5 b239 6cfd 6bb9 4f21 a639
00000270: a046 9d39 638c aa39 769a a339 fe54 4a00
00000280: 2327 0d00 ab69 2400 a522 3832 e398 2e80
00000290: 8e5b 0d00 8384 9b39 1de0 2380 b3d2 3780
000002a0: bb75 4b00 5403 ae39 8008 4e00 e752 ac39
000002b0: 73d6 a739 2329 1bb9 853f a839 4883 0480
000002c0: aae9 3d80 e723 3900 181f ad39 82d6 b239
000002d0: 79e0 a639 50eb a639 d4bc 1e00 b637 a239
000002e0: eb50 9f39 58c4 1500 d7af b339 ef39 4b00
000002f0: c783 4380 1b1c 0b00 fe51 3000 815d 3180
00000300: 1634 4b80 331a 1600 b9a9 0380 b20f 2b80
00000310: e539 1980 91b3 3080 768c 0680 23fb 4b80
00000320: 0ffe 0500 84ee 1780 73b4 4b00 9de8 4980
00000330: 2a4c 3400 f561 1e00 2637 1080 ad66 4d00
00000340: 58d7 4a00 8afe 0780 6087 0400 7454 0c80
00000350: 874e 2c00 d76a 4c80 dc45 2d00 f39c 4680
00000360: 7a25 3380 8083 1600 40f5 2280 b027 2e80
00000370: 4fc8 2100 3522 3c80 cfa2 2e00 93b8 4400
00000380: 8a55 2500 126d 4100 6d30 2b00 1c88 0880
00000390: 6200 4200 59ff 0a80 40a4 2380 f42c 0580
000003a0: 467c 0780 083b 1e00 2162 2a00 9bb7 4d80
000003b0: 495f 0680 a808 3d80 389e 1880 61ca 2500
000003c0: f6e1 1480 6d2d 0a80 4fa9 1e00 f84f 3a80
000003d0: 3c9f 2500 855d 3e80 8fa6 0380 1bb3 1100
000003e0: 5696 2300 da51 0100 3719 0d80 410a 2100
000003f0: c850 4100 8a59 4900 e70d 1e80 2d13 1c00

mlp.mlp.4.bias f4 [64]
-2.9376006e-09 -6.97132e-39 -3.815471e-10 -2.167035e-39 -6.62431e-39 4.4161638e-08 7.297462e-39 -5.692073e-08
6.820772e-09 3.983547e-39 -2.67204e-08 -3.358769e-09 1.1283553e-08 7.105319e-39 -6.857276e-39 -4.5163652e-08
1.42324e-08 5.90481e-39 6.7104544e-10 -2.625905e-09 2.243239e-39 7.210726e-39 1.43308e-07 -4.48716e-08
1.4744614e-07 -3.928453e-08 -4.155694e-08 -9.647209e-08 5.514081e-39 9.6433354e-08 -1.00883275e-08 7.54413e-39
1.01435184e-07 -2.6400478e-08 9.369607e-09 2.4690452e-08 5.855092e-39 2.689923e-39 -3.0884e-39 -4.979792e-39
9.811113e-08 8.51795e-40 -1.2147739e-12 -1.2363098e-07 1.5443614e-07 2.5206058e-08 -5.5827036e-09 -1.5749653e-07
5.7991926e-08 4.531872e-39 2.0708214e-08 4.667938e-39 -4.1858502e-08 -6.131709e-10 4.1743377e-08 2.44607e-39
2.557986e-39 -2.95649e-40 2.0518973e-08 3.929622e-39 -4.0841623e-08 -4.922914e-39 -5.6763042e-08 -6.612551e-08
00000000: d1de 49b1 34e9 4b80 fbc1 d1af d098 1780
00000010: e221 4880 3cac 3d33 5b76 4f00 0179 74b3
00000020: 255c ea31 8260 2b00 c886 e5b2 17d0 66b1
00000030: 97d9 4132 bd5e 4d00 4cab 4a80 f6f9 41b3
00000040: c282 7432 354c 4000 a074 3830 6973 34b1
00000050: 3d6d 1800 9284 4e00 34e0 1934 d9b8 40b3
00000060: b051 1e34 ccb9 28b3 577c 32b3 182c cfb3
00000070: 040b 3c00 cc16 cf33 ef50 2db2 f725 5200
00000080: 95d4 d933 44c7 e2b2 f8f7 2032 e116 d432
00000090: 9dc1 3f00 694a 1d00 34a1 2180 a239 3680
000000a0: 2ab1 d233 7546 0900 d8f6 aaab 6dbf 04b4
000000b0: 15d3 2534 b584 d832 fbd1 bfb1 511c 29b4
000000c0: cc12 7933 0459 3100 d8e1 b132 50d4 3200
000000d0: e9c7 33b3 118c 28b0 5449 3333 a6a2 1a00
000000e0: a0da 1b00 2638 0380 b341 b032 30ca 2a00
000000f0: d769 2fb3 159b 3580 a0cb 73b3 e200 8eb3

mlp.mlp.5.weight f4 [64]
0.03553533 1.4764555e-16 0.0017432789 6.552661e-39 4.362242e-15 0.060588267 5.2953653e-24 0.040078912
0.03737059 3.6929233e-27 0.06256716 0.009432183 0.067148656 1.1717772e-26 6.306959e-21 0.06969344
0.04882186 3.5831017e-21 0.008123775 0.0526182 1.2679397e-24 -5.984022e-39 0.07343666 0.032957274
0.06935822 0.075594045 0.040519394 0.062613964 3.1356294e-32 0.077338636 0.018280106 1.7356008e-17
0.07660142 0.0710484 0.02556549 0.038468346 2.3032258e-27 3.511667e-28 6.978259e-17 2.3913582e-19
0.07007102 -1.032115e-39 6.0580755e-06 0.07546618 0.0749694 0.05365528 0.020897146 0.06819568
0.06352974 3.373822e-17 0.052580666 -4.708824e-39 0.06915318 0.020987727 0.062419828 6.03145e-40
5.306932e-32 3.356938e-23 0.046521638 2.7264005e-18 0.047394905 4.285655e-28 0.07572827 0.06593201
00000000: 7f8d 113d 4639 2a25 bc7e e43a 275a 4700
00000010: 952a 9d27 672b 783d c2da cc18 c929 243d
00000020: e711 193d b14a 9213 3623 803d 7189 1a3c
00000030: 3c85 893d 2a18 6814 2a45 ee1d 6fbb 8e3d
00000040: 6ef9 473d a25d 871d 9519 053c 2f86 573d
00000050: 4434 c417 0529 4180 f665 963d 35fe 063d
00000060: af0b 8e3d 0dd1 9a3d aaf7 253d c03b 803d
00000070: aacf 220b b863 9e3d 29c0 953c b714 a023
00000080: 35e1 9c3d d381 913d b86e d13c fc90 1d3d
00000090: f87a 3613 0e94 de11 5fe8 a024 2f29 8d20
000000a0: 6581 8f3d 1e3d 0b80 7946 cb36 038e 9a3d
000000b0: 8f89 993d a4c5 5b3d 7e30 ab3c 2daa 8b3d
000000c0: e11b 823d 0f97 1b24 d35e 573d 4946 3380
000000d0: 2fa0 8d3d 74ee ab3c efab 7f3d 5391 0600
000000e0: 9dc6 890b e154 221a 798d 3e3d 402c 4922
000000f0: 2921 423d 5dd1 0712 6c17 9b3d 5d07 873d

mlp.mlp.5.bias f4 [64]
0.19248222 -7.962424e-16 0.09198169 0.025030168 -3.392657e-14 0.2926067 -8.535747e-18 0.20872737
0.20094901 -6.815086e-22 0.29991335 0.10810059 0.32124683 -9.421004e-23 -2.3261086e-18 0.32448012
0.2397517 -4.1808727e-18 0.10426271 0.25848618 -9.227534e-20 -9.743734e-36 0.34574735 0.18464711
0.32489038 0.3491679 0.21175057 0.29920855 0.025690427 0.36464128 0.13206322 -1.4183026e-15
0.35616964 0.33113208 0.155595 0.20315993 -3.5015168e-22 -2.4809273e-21 -4.9462023e-16 -1.3569254e-18
0.3278504 -2.2294668e-32 0.07829894 0.34946188 0.34928566 0.26249972 0.14146039 0.3222203
0.3006616 -4.563792e-15 0.25442976 -5.3343643e-37 0.32252866 0.14149794 0.2932477 -6.6708816e-07
-4.7161245e-26 -4.248701e-22 0.23488769 -2.1014936e-16 0.23972192 -4.846039e-22 0.3511637 0.31238797
00000000: 0f1a 453e 5280 65a6 e560 bc3d 110c cd3c
00000010: acca 18a9 8cd0 953e ed74 1da3 a1bc 553e
00000020: 94c5 4d3e 2df9 4d9c 3e8e 993e d863 dd3d
00000030: 777a a43e 31c9 e39a f3a2 2ba2 4222 a63e
00000040: 7881 753e 3a3f 9aa2 b087 d53d 4d58 843e
00000050: 05e1 d99f ef39 4f85 cc05 b13e 2214 3d3e
00000060: 0858 a63e 23c6 b23e 24d5 583e dd31 993e
00000070: bb74 d23c 43b2 ba3e 953b 073e 2166 cca6
00000080: de5b b63e 258a a93e 4c54 1f3e 2809 503e
00000090: 59a7 d39b 1d74 3b9d 8890 0ea6 313f c8a1
000000a0: 02dc a73e 6585 e78a 325b a03d abec b23e
000000b0: 92d5 b23e 5d66 863e feda 103e 0ffa a43e
000000c0: 51f0 993e 8d6d a4a7 9e44 823e de84 3583
000000d0: 7a22 a53e d6e4 103e 9024 963e f311 33b5
000000e0: fb87 6995 bb68 009c 6686 703e 2549 72a5
000000f0: aa79 753e 6976 129c bacb b33e 51f1 9f3e

mlp.mlp.5.running_mean f4 [64]
0.0027194135 -5.236368e-39 0.00018998544 1.288439e-39 -1.120708e-36 0.0037960166 2.285463e-39 0.0029342324
0.0028049971 5.02222e-39 0.0038389717 0.0009568992 0.003982528 2.023668e-39 6.271915e-35 0.004093059
0.003324498 3.952038e-30 0.00083985436 0.0034631682 -2.205068e-39 2.177923e-39 0.004196723 0.002575396
0.0040576844 0.0042490885 0.0029548716 0.0038544917 3.5280707e-33 0.004272763 0.0016847895 3.750116e-39
0.0043014674 0.0041160714 0.0021563636 0.0028561966 4.554172e-39 -1.387329e-39 7.186047e-37 -5.15814e-40
0.0041156146 -2.66461e-39 7.0008406e-07 0.00427661 0.0042547914 0.0035170463 0.0018634807 0.004052545
0.003857828 -2.5831402e-35 0.0034600813 3.76491e-40 0.0040656365 0.0018705638 0.00384068 4.87528e-39
3.811347e-39 2.620837e-39 0.003221747 -4.93858e-40 0.0032488967 -5.315439e-39 0.004277284 0.0039426843
00000000: 3038 323b dd04 3980 d436 4739 a507 0e00
00000010: b8ad be83 97c6 783b f1e2 1800 404c 403b
00000020: 0bd4 373b e8af 3600 4297 7b3b 6bd8 7a3a
00000030: de7f 823b 2a09 1600 71bc a606 111f 863b
00000040: d2df 593b 4f50 a00e ac29 5c3a 52f6 623b
00000050: d502 1880 2ab7 1700 aa84 893b fac7 283b
00000060: 53f6 843b f03b 8b3b 85a6 413b a49b 7c3b
00000070: e28c 9209 8902 8c3b 28d4 dc3a ccd5 2800
00000080: 53f3 8c3b 1ce0 863b c751 0d3b 072f 3b3b
00000090: 2e97 3100 4f1b 0f80 4c87 7403 e19d 0580
000000a0: 47dc 863b d903 1d80 69ed 3b35 ce22 8c3b
000000b0: c76b 8b3b 3f7e 663b 0940 f43a 36cb 843b
000000c0: 9dd3 7c3b e257 0986 88c2 623b 8119 0400
000000d0: 0839 853b b52d f53a ebb3 7b3b 4c16 3500
000000e0: 7c80 2900 d489 1c00 f223 533b ad60 0580
000000f0: 71eb 543b 48e1 3980 7528 8c3b a231 813b

mlp.mlp.5.running_var f4 [64]
9.834558e-06 6e-45 4.734601e-08 6e-45 6e-45 1.9430303e-05 6e-45 1.1494877e-05
1.05213885e-05 6e-45 2.0042158e-05 1.2059783e-06 2.1606947e-05 6e-45 6e-45 2.283959e-05
1.48016925e-05 6e-45 9.2665687e-07 1.618074e-05 6e-45 6e-45 2.4064408e-05 8.840266e-06
2.241535e-05 2.4714202e-05 1.1665472e-05 2.010831e-05 6e-45 2.5122237e-05 3.7419366e-06 6e-45
2.5399248e-05 2.3045244e-05 6.146229e-06 1.089303e-05 6e-45 6e-45 6e-45 6e-45
2.303415e-05 6e-45 6.5214343e-13 2.5060705e-05 2.4682406e-05 1.6622223e-05 4.5931224e-06 2.2372767e-05
2.0254585e-05 6e-45 1.6124952e-05 6e-45 2.2435883e-05 4.629703e-06 1.9913994e-05 6e-45
6e-45 6e-45 1.3921255e-05 6e-45 1.4188525e-05 6e-45 2.5050855e-05 2.1152218e-05
00000000: 1bff 2437 0400 0000 7d59 4b33 0400 0000
00000010: 0400 0000 42fe a237 0400 0000 1fda 4037
00000020: 0585 3037 0400 0000 3520 a837 19dd a135
00000030: 9140 b537 0400 0000 0400 0000 a597 bf37
00000040: c954 7837 0400 0000 60bf 7835 e0bb 8737
00000050: 0400 0000 0400 0000 ecdd c937 a750 1437
00000060: 9908 bc37 5851 cf37 d2b6 4337 44ae a837
00000070: 0400 0000 98bd d237 fb1d 7b36 0400 0000
00000080: 7810 d537 4951 c137 b53b ce36 35c1 3637
00000090: 0400 0000 0400 0000 0400 0000 0400 0000
000000a0: 7639 c137 0400 0000 e38f 372b 7439 d237
000000b0: 100d cf37 f46f 8b37 9f1e 9a36 27ad bb37
000000c0: 64e8 a937 0400 0000 1244 8737 0400 0000
000000d0: b134 bc37 d958 9b36 fa0c a737 0400 0000
000000e0: 0400 0000 0400 0000 568f 6937 0400 0000
000000f0: 400b 6e37 0400 0000 4d24 d237 0b70 b137

mlp.mlp.8.weight f4 [1, 64]
0.18932109 -0.0011506894 0.08866422 0.024247274 -0.0014053349 0.29656374 -0.00016202629 0.20644352
0.19857717 -0.00026453906 0.3049499 0.10498693 0.32865468 -0.0002246009 -0.00040579823 0.33227298
0.23890336 -0.00033507944 0.10154122 0.25958696 -9.634834e-05 -3.4026787e-05 0.35679606 0.1817262
0.33256638 0.35980913 0.2094155 0.30413583 0.024834707 0.37925968 0.12944885 -0.0005915038
0.3690114 0.33967966 0.15246755 0.20056356 -0.00013294116 -0.00011032587 -0.00089756254 -0.0010399885
0.33581626 -7.355682e-05 0.07606962 0.3605993 0.36031708 0.2629375 0.13800558 0.3300418
0.305195 -0.000830357 0.2545394 -3.55452e-05 0.3299038 0.13848335 0.29699013 -3.3975906e-05
-9.666521e-05 -0.0007170253 0.23401643 -0.00083229004 0.23943171 -0.0001139674 0.3620125 0.31824043
00000000: 63dd 413e bbd2 96ba 9695 b53d 38a2 c63c
00000010: 3733 b8ba 34d7 973e 9ae5 29b9 ee65 533e
00000020: d057 4b3e d5b1 8ab9 6522 9c3e 6303 d73d
00000030: 6d45 a83e d882 6bb9 51c1 d4b9 af1f aa3e
00000040: 15a3 743e 9aad afb9 d8f4 cf3d 95e8 843e
00000050: 9f0e cab8 fcb7 0eb8 f9ad b63e 6f16 3a3e
00000060: 2446 aa3e e738 b83e 0471 563e b1b7 9b3e
00000070: 2872 cb3c 532e c23e 3d8e 043e 260f 1bba
00000080: 10ef bc3e 7eea ad3e 7420 1c3e 8960 4d3e
00000090: 1f66 0bb9 c05e e7b8 674a 6bba 3950 88ba
000000a0: 1cf0 ab3e 8442 9ab8 64ca 9b3d 79a0 b83e
000000b0: 7b7b b83e be9f 863e 5651 0d3e 3dfb a83e
000000c0: 8542 9c3e 51ac 59ba fd52 823e 5e16 15b8
000000d0: 27e9 a83e 94ce 0d3e 170f 983e 5a81 0eb8
000000e0: bdb8 cab8 c1f6 3bba 01a2 6f3e 0a2e 5aba
000000f0: 962d 753e c801 efb8 b459 b93e 69f0 a23e
