model_lr_0.0005/dfm_epoch_150.pt (torch, 151559 bytes, 15 tensors)

embedding.embedding.weight f4 [98, 75]
0.037771165 0.015177231 -0.046506587 0.01951531 -0.08488826 0.061418142 -0.044209655 -0.047381915
-0.042353682 -0.029923165 0.060555574 -0.0024697317 0.01584835 0.03823413 0.0423717 0.044867568
-0.047612306 0.06597175 -0.046361715 0.024425615 -0.021426369 0.027670076 0.010234327 -0.0434931
0.06579658 -0.047453582 -0.046351526 -0.053255357 0.049143914 0.057033926 0.014869131 -0.030734777
0.014677602 0.023519414 0.058689054 0.009714329 0.0034410253 0.053183887 0.025663497 -0.04216836
-0.05781064 0.017020868 -0.05247971 -0.03869479 -0.045828804 -0.0018005727 0.043417975 -0.011979352
-0.044004634 0.0146948295 -0.0061441106 0.038283616 -0.03323245 0.08330627 -0.041392878 0.06252707
0.010381751 0.03652048 0.008708901 0.0077307033 -0.0067427154 -0.0033695607 0.04932066 -0.026535552
-0.007888834 -0.012888541 0.03580532 0.08120273 0.007598226 0.037823316 -0.069232695 -0.0054122373
0.052406956 -0.043867327 -0.021604614 0.04051757 0.016270317 -0.04990298 0.02092134 -0.091242045
0.06594193 -0.047432795 -0.050840963 -0.045437068 -0.03208783 0.06502025 -0.0026472455 0.016989587
0.04102086 0.045457974 0.048146628 -0.051090952 0.0708573 -0.049743477 0.026190704 -0.022970997
0.029672781 0.010972615 -0.04666491 0.07066538 -0.050923556 -0.049734272 -0.05716463 0.0527379
0.061226517 0.01593912 -0.03296023 0.015733153 0.025219345 0.06301582 0.010412315 0.003689224
0.05708364 0.027518122 -0.045236968 -0.062057238 0.018247267 -0.056321964 -0.04151143 -0.049171828
-0.0019299483 0.046583056 -0.012840839 -0.047211476 0.015759058 -0.0065857633 0.041077886 -0.035642408
0.089532726 -0.044407487 0.067136094 0.011129303 0.039170988 0.009334405 0.00828639 -0.0072269076
-0.003611584 0.0529251 -0.028454585 -0.008457079 -0.013816413 0.038402483 0.087261684 0.00814678
0.040571477 -0.074357785 -0.0058017806 0.056254927 -0.047076587 -0.023162682 0.04938735 0.019850992
-0.06080524 0.02552039 -0.110971496 0.08029323 -0.05780191 -0.061947186 -0.05537064 -0.039128367
0.07916743 -0.0032312283 0.020729015 0.04999411 0.05539974 0.05865979 -0.06224933 0.08625097
-0.060609546 0.03194216 -0.028017217 0.036184628 0.01338819 -0.056852546 0.08601898 -0.06203767
-0.060599 -0.069625124 0.064252496 0.07455992 0.019448416 -0.04018853 0.01919283 0.030756984
0.07673117 0.01270703 0.004502075 0.06953349 0.033560697 -0.055125315 -0.0755756 0.022261543
-0.06859965 -0.050594777 -0.059916303 -0.0023555837 0.056766458 -0.01566781 -0.057530295 0.019221693
-0.008037071 0.050061602 -0.043455098 0.1089052 -0.054117896 0.081734724 0.013580646 0.047751684
0.011392118 0.010112527 -0.008820075 -0.0044082496 0.06448211 -0.03470132 -0.010319624 -0.016858617
0.046799906 0.106155075 0.009940277 0.049455125 -0.09050546 -0.0070808823 0.06851386 -0.057356905
-0.02825271 0.0125446115 0.0050298064 -0.015455187 0.006470558 -0.028252563 0.020426396 -0.014689477
-0.015746476 -0.014071168 -0.009931649 0.0201393 -0.000817153 0.0052527385 0.012699539 0.014077018
0.014909276 -0.015823567 0.021946132 -0.015406396 0.008102859 -0.0071055465 0.009182203 0.003389892
-0.014450887 0.021887314 -0.015770815 -0.0154031385 -0.017705206 0.016334163 0.018964719 0.004927541
00000000: f0b5 1a3d eca9 783c b17d 3ebd 92de 9f3c
00000010: e5d9 adbd 9791 7b3d 2f15 35bd 8a13 42bd
00000020: 0e7b 2dbd 6d21 f5bc 1f09 783d 39db 21bb
00000030: 66d4 813c 649b 1c3d f38d 2d3d 0ec7 373d
00000040: 1f05 43bd 321c 873d c8e5 3dbd 3a18 c83c
00000050: 5a86 afbc 5bac e23c e1ad 273c d225 32bd
00000060: 5bc0 863d b05e 42bd 19db 3dbd 4a22 5abd
00000070: 214b 493d 689c 693d a89d 733c 80c7 fbbc
00000080: 537a 703c c9ab c03c ef63 703d d928 1f3c
00000090: d382 613b 59d7 593d 413c d23c bbb8 2cbd
000000a0: daca 6cbd 596f 8b3c f7f4 56bd 6e7e 1ebd
000000b0: fcb6 3bbd 3201 ecba 0cd7 313d 0b45 44bc
000000c0: 343e 34bd 95c2 703c 8954 c9bb 48cf 1c3d
000000d0: c01e 08bd 7a9c aa3d 948b 29bd 310e 803d
000000e0: 3818 2a3c 8096 153d c7af 0e3c d751 fd3b
000000f0: fff1 dcbb d9d3 5cbb 7604 4a3d 1661 d9bc
00000100: 2b40 01bc 762a 53bc 99a8 123d 9e4d a63d
00000110: 8afa f83b 9fec 1a3d dfc9 8dbd 2359 b1bb
00000120: ada8 563d 3aae 33bd 29fc b0bc c0f5 253d
00000130: 5449 853c 1167 4cbd 3b63 ab3c 1cdd babd
00000140: 900c 873d e448 42bd 9d3e 50bd 381c 3abd
00000150: 876e 03bd 5629 853d 697d 2dbb bf2d 8b3c
00000160: 7d05 283d 2432 3a3d 6635 453d bf44 51bd
00000170: a21d 913d d1bf 4bbd e38d d63c ac2d bcbc
00000180: 5514 f33c 7cc6 333c b423 3fbd 03b9 903d
00000190: 3895 50bd 2ab6 4bbd 7625 6abd b203 583d
000001a0: a8c8 7a3d c292 823c 4e01 07bd d0e2 803c
000001b0: cd98 ce3c 700e 813d 6a98 2a3c e8c6 713b
000001c0: 89d0 693d af6d e13c 664a 39bd bb2f 7ebd
000001d0: 4b7b 953c dcb1 66bd e407 2abd 6668 49bd
000001e0: 52f6 fcba e0cd 3e3d 6262 52bc d260 41bd
000001f0: 2419 813c 63cd d7bb 4941 283d c6fd 11bd
00000200: ef5c b73d a0e4 35bd a67e 893d ae57 363c
00000210: c271 203d 55ef 183c a4c3 073c b2cf ecbb
00000220: 53b0 6cbb fdc7 583d 9719 e9bc 8f8f 0abc
00000230: 3c5e 62bc ec4b 1d3d 41b6 b23d 127a 053c
00000240: 472e 263d e548 98bd dd1c bebb 916b 663d
00000250: 61d3 40bd aabf bdbc 644a 4a3d 8c9e a23c
00000260: ea0e 79bd 2310 d13c 0645 e3bd c770 a43d
00000270: b2c1 6cbd 55bc 7dbd 53cc 62bd 1145 20bd
00000280: 8922 a23d 04c3 53bb e5cf a93c a0c6 4c3d
00000290: d6ea 623d 3f45 703d 27f9 7ebd 59a4 b03d
000002a0: b741 78bd c8d5 023d 5d84 e5bc 5536 143d
000002b0: 245a 5b3c 37de 68bd b82a b03d 361b 7ebd
000002c0: a836 78bd 9e97 8ebd d096 833d dfb2 983d
000002d0: 4952 9f3c ba9c 24bd 483a 9d3c 12f6 fb3c
000002e0: 3b25 9d3d 2631 503c 2486 933b 9367 8e3d
000002f0: f176 093d 15cb 61bd 61c7 9abd d75d b63c
00000300: f97d 8cbd 783c 4fbd cc6a 75bd 2360 1abb
00000310: f283 683d c759 80bc e3a4 6bbd d076 9d3c
00000320: ebad 03bc 650d 4d3d f9fd 31bd b109 df3d
00000330: baaa 5dbd 8964 a73d 5c81 5e3c 4597 433d
00000340: 02a6 3a3c 03af 253c 1382 10bc 1473 90bb
00000350: 320f 843d f922 0ebd a413 29bc 151b 8abc
00000360: 42b1 3f3d d567 d93d 8bdc 223c 7591 4a3d
00000370: ed5a b9bd bf06 e8bb ff50 8c3d 13ef 6abd
00000380: 3a72 e7bc ea87 4d3c 13d1 a43b c137 7dbc
00000390: f906 d43b eb71 e7bc 4255 a73c 22ac 70bc
000003a0: c1fe 80bc c28a 66bc 5bb8 22bc 2cfb a43c
000003b0: 3636 56ba 2a1f ac3b ba11 503c 4ba3 663c
000003c0: 0946 743c 6da0 81bc 60c8 b33c 1c6b 7cbc
000003d0: dbc1 043c a5d5 e8bb f370 163c f328 5e3b
000003e0: 6ac3 6cbc 064d b33c cc31 81bc 725d 7cbc
000003f0: 820a 91bc 39cf 853c e65b 9b3c 3677 a13b

linear.fc.weight f4 [98, 1]
0.49473605 0.5299163 0.5830988 0.1607709 0.23184432 0.048764102 0.31812572 0.29529184
0.07470981 0.028266689 0.02839674 0.027023207 0.012983537 0.0130117955 0.0129842535 0.012512879
0.20095488 0.13819453 0.16639009 0.15140237 0.18810771 0.20562431 0.17432463 0.02977806
0.0235006 0.021357719 0.025606295 0.0286025 0.032883957 0.022888415 0.007950965 0.0028858657
0.027661858 0.012857168 0.00067099323 0.0003982458 0.0005750126 0.011546464 0.00016479433 0.0045070467
0.005276477 0.0011527665 0.006157924 0.034112066 0.032172978 0.004168308 0.018089535 0.025201783
0.002710426 0.025380185 0.018840842 0.003801007 0.0022898407 0.007144219 0.0010643515 0.002310371
0.027359229 0.0014715357 0.031548586 0.019282347 0.0062822215 0.00553584 0.022014838 0.0031544296
0.0029003394 0.00025105674 0.00066062063 0.015666004 0.037283357 0.016838029 0.012273443 0.010779939
0.004218886 0.008416623 0.000580654 0.036442176 0.0016352576 0.00010318471 0.024299867 0.035098817
0.022281343 0.021774733 0.0033068943 0.001693953 0.03631918 0.032583363 0.017293438 0.0047370647
0.008067431 0.017505275 0.024172524 0.0095296 0.0075165373 0.013793782 0.010888598 0.008304955
0.00023722289 0.014763068
00000000: 0b4e fd3e 98a8 073f f745 153f 20a1 243e
00000010: 9968 6d3e debc 473d 60e1 a23e 7e30 973e
00000020: 7501 993d 8b8f e73c 48a0 e83c c65f dd3c
00000030: e7b8 543c 6d2f 553c e8bb 543c d202 4d3c
00000040: 1ec7 4d3e de82 0d3e 2a62 2a3e 3909 1b3e
00000050: 4f9f 403e 2e8f 523e 2882 323e 1ef1 f33c
00000060: 5584 c03c 62f6 ae3c 4bc4 d13c ca4f ea3c
00000070: 54b1 063d 7c80 bb3c c444 023c cb20 3d3b
00000080: 1f9b e23c dfa6 523c 98e5 2f3a a5cb d039
00000090: 71bc 163a 612d 3d3c a4cc 2c39 d9af 933b
000000a0: 4ce6 ac3b 6d18 973a 69c8 c93b 18b9 0b3d
000000b0: d0c7 033d 4d96 883b 8130 943c f873 ce3c
000000c0: 67a1 313b 1bea cf3c 1c58 9a3c 511a 793b
000000d0: 2711 163b 0d1a ea3b b681 8b3a 9869 173b
000000e0: 7620 e03c 8be0 c03a 1739 013d 03f6 9d3c
000000f0: 18db cd3b fe65 b53b 7658 b43c 8cba 4e3b
00000100: 9f13 3e3b 44a0 8339 802d 2d3a fe55 803c
00000110: 6fb6 183d e8ef 893c 8d16 493c 579e 303c
00000120: 953e 8a3b e0e5 093c 0837 183a 6444 153d
00000130: 2456 d63a df64 d838 8410 c73c c7c3 0f3d
00000140: 5d87 b63c ed60 b23c 7bb8 583b a107 de3a
00000150: 6cc3 143d 2276 053d f8aa 8d3c 6139 9b3b
00000160: 422d 043c 3967 8f3c 7505 c63c 0a22 1c3c
00000170: 494d f63b 51ff 613c 1766 323c 8211 083c
00000180: 09bf 7839 cce0 713c

mlp.mlp.0.weight f4 [64, 375]
2.916703e-39 -4.574259e-39 5.982669e-39 -2.43172e-40 -5.232625e-39 1.914158e-39 -2.677035e-39 -2.34551e-39
-4.296105e-39 -3.123368e-39 5.34959e-39 -6.972319e-39 -1.149899e-39 -1.22183e-39 3.50773e-40 6.067416e-39
-6.482763e-39 4.432704e-39 -6.325522e-39 5.381095e-39 -6.745939e-39 -4.825607e-39 -4.516812e-39 4.058418e-39
-3.515091e-39 -2.758833e-39 -2.247823e-39 5.449521e-39 -2.930596e-39 -1.150133e-39 -2.595833e-39 -2.138652e-39
-2.23825e-40 -3.335487e-39 5.841024e-39 -2.69657e-39 2.418522e-39 -4.082984e-39 5.28361e-39 -2.894557e-39
-3.613671e-39 -6.909139e-39 -3.286677e-39 2.63868e-39 -2.55713e-40 -4.28328e-39 -1.851901e-39 6.48039e-39
2.395897e-39 3.929566e-39 7.29052e-40 4.82753e-40 -6.55119e-39 4.47681e-40 -2.455691e-39 2.493849e-39
4.732186e-39 -2.650964e-39 6.55298e-39 4.504543e-39 1.299278e-39 4.074637e-39 -6.939587e-39 3.404407e-39
-4.6503e-40 1.057893e-39 4.651062e-39 -3.543992e-39 9.12573e-40 -5.938105e-39 -1.819704e-39 2.714028e-39
-1.431545e-39 -6.14362e-39 -2.132e-40 3.812984e-39 -6.883963e-39 5.635403e-39 -1.237603e-39 -3.115665e-39
-5.676402e-39 -4.58347e-40 6.512366e-39 -4.483212e-39 4.86205e-39 -6.764197e-39 2.998604e-39 -6.992643e-39
4.729038e-39 -6.849194e-39 5.838305e-39 4.308082e-39 -1.06901e-39 -6.141626e-39 4.686402e-39 5.683763e-39
1.415603e-39 -3.436752e-39 6.120388e-39 -4.610633e-39 -2.399e-42 -6.626031e-39 2.699288e-39 -5.58255e-39
-2.932563e-39 -6.492949e-39 -2.666344e-39 -5.45822e-39 2.422049e-39 -6.57232e-39 -6.881188e-39 -3.004205e-39
-5.497702e-39 6.561394e-39 -3.44126e-39 6.745648e-39 -6.857198e-39 -1.330892e-39 -3.991596e-39 -3.089374e-39
-4.347276e-39 -5.11408e-39 5.420604e-39 -3.331898e-39 -3.31572e-40 -1.565553e-39 3.197156e-39 -1.616792e-39
3.873684e-39 -6.976495e-39 -6.513318e-39 -2.050181e-39 -2.689351e-39 4.973896e-39 2.759295e-39 -6.08113e-40
6.18528e-39 -6.486361e-39 -4.038651e-39 4.14188e-39 6.18882e-39 4.155127e-39 5.462393e-39 7.85901e-40
-2.585494e-39 -4.327643e-39 -4.975293e-39 -6.358409e-39 -3.96038e-39 5.599324e-39 7.8097e-40 -6.763835e-39
-6.482799e-39 -4.255306e-39 6.916383e-39 4.585067e-39 4.06995e-40 -1.163843e-39 -1.7638e-40 -5.50122e-40
5.278547e-39 -2.076504e-39 1.095022e-39 6.47589e-40 -2.029876e-39 2.416004e-39 -1.6539e-40 -5.411704e-39
4.55767e-40 4.493922e-39 4.870776e-39 -6.908424e-39 6.565281e-39 -2.807132e-39 2.46046e-40 -9.94033e-40
-1.15167e-40 -5.821119e-39 5.508412e-39 4.476665e-39 3.030493e-39 5.97914e-40 -2.914194e-39 -5.045235e-39
6.814237e-39 -5.15086e-39 -7.333e-40 -3.075786e-39 5.922669e-39 -2.717817e-39 7.56889e-40 1.656465e-39
-6.465445e-39 -1.964556e-39 -4.48829e-40 4.598121e-39 6.806642e-39 -3.978117e-39 -3.555477e-39 5.027189e-39
-2.778794e-39 8.54686e-40 -2.431783e-39 4.8694e-40 -6.360855e-39 6.479807e-39 -6.640406e-39 4.250885e-39
-1.350726e-39 5.263727e-39 -3.16667e-40 -1.55582e-40 -2.907254e-39 6.013979e-39 1.953137e-39 1.600103e-39
4.652199e-39 -6.736678e-39 7.34793e-40 -7.8023e-41 2.958154e-39 -3.316984e-39 6.585485e-39 -2.483e-39
-5.966031e-39 -1.939261e-39 3.32586e-40 -5.918925e-39 3.38677e-39 1.840981e-39 -1.741665e-39 4.35055e-39
-5.858619e-39 -2.93e-41 5.846717e-39 -1.572774e-39 -4.884265e-39 3.160323e-39 6.979823e-39 -3.011921e-39
2.011103e-39 -2.641383e-39 -1.288198e-39 1.072551e-39 -6.292068e-39 8.89383e-40 2.695215e-39 -5.796712e-39
4.65925e-40 6.886202e-39 1.20197e-39 3.774365e-39 6.723671e-39 -6.88485e-39 -4.040563e-39 1.78211e-39
00000000: 95c2 1f00 2ccf 3180 3f25 4100 dda5 0280
00000010: 6efa 3880 e5d7 1400 7c26 1d80 548a 1980
00000020: cbc7 2e80 ae02 2280 7b40 3a00 fdeb 4b80
00000030: 7385 0c80 f74d 0d80 d0d1 0300 7d11 4200
00000040: 4e97 4680 9344 3000 fbe0 4480 4e98 3a00
00000050: ef74 4980 d48b 3480 092f 3180 3831 2c00
00000060: a546 2680 810a 1e80 047a 1880 0c57 3b00
00000070: 4fe9 1f80 1a86 0c80 2044 1c80 b149 1780
00000080: ef6f 0280 fb51 2480 669a 3f00 f15c 1d80
00000090: db55 1a00 b375 2c80 8e88 3900 d984 1f80
000000a0: 7259 2780 de3b 4b80 ebc9 2380 91bb 1c00
000000b0: d3c8 0280 0ba4 2e80 592a 1480 b190 4600
000000c0: c916 1a00 08ca 2a00 4df0 0700 b841 0500
000000d0: 0d56 4780 f4df 0400 78bd 1a80 d627 1b00
000000e0: 6987 3300 cfdd 1c80 0b5b 4700 d50c 3100
000000f0: dc25 0e00 6e5e 2c00 bf90 4b80 1a12 2500
00000100: 5010 0580 fa84 0b00 45a5 3200 3597 2680
00000110: e2ef 0900 05a9 4080 98d0 1380 9b8d 1d00
00000120: 9196 0f80 eae5 4280 5152 0280 0c85 2900
00000130: b0f5 4a80 365d 3d00 ef79 0d80 35ed 2180
00000140: 80cf 3d80 affd 0480 d4e9 4600 5fd1 3080
00000150: 6bf1 3400 d4a7 4980 e3a6 2000 a524 4c80
00000160: a27e 3300 c494 4a80 d292 3f00 2ee9 2e00
00000170: f7a3 0b80 5be0 4280 c807 3300 05e4 3d00
00000180: 206a 0f00 446c 2580 27a5 4200 9234 3280
00000190: b006 0080 ae26 4880 8464 1d00 e1c9 3c80
000001a0: cbee 1f80 b3b3 4680 af08 1d80 4c6f 3b80
000001b0: b05f 1a00 f490 4780 f4ed 4a80 80b6 2080
000001c0: 5bdd 3b80 7f72 4700 d578 2580 1f74 4900
000001d0: 14ab 4a80 fc7d 0e80 f276 2b80 eba3 2180
000001e0: 7056 2f80 f9af 3780 7006 3b00 fa47 2480
000001f0: 4a9c 0380 200c 1180 5fd0 2200 f59a 1180
00000200: 412e 2a00 a1f7 4b80 7bec 4680 1253 1680
00000210: d148 1d80 3329 3600 cb0b 1e00 2c9f 0680
00000220: 0b5a 4300 56a1 4680 1efa 2b80 e019 2d00
00000230: ea63 4300 ce3e 2d00 ee7a 3b00 c68e 0800
00000240: 4e27 1c80 b51f 2f80 182d 3680 a83c 4580
00000250: ee1f 2b80 a3f8 3c00 0781 0800 d2a6 4980
00000260: 6897 4680 1056 2e80 1050 4b00 4ded 3100
00000270: 896e 0400 52ac 0c80 adeb 0180 84fd 0580
00000280: 717a 3900 739c 1680 7aec 0b00 370d 0700
00000290: 781a 1680 d64e 1a00 0acd 0180 a1ed 3a80
000002a0: 7ef6 0400 3aef 3000 be09 3500 e039 4b80
000002b0: 557d 4700 2491 1e80 e0ad 0200 f6d2 0a80
000002c0: 0a41 0180 e962 3f80 36fb 3b00 1fbf 3000
000002d0: c8ff 2000 be82 0600 96bb 1f80 10f0 3680
000002e0: 5233 4a00 8116 3880 24fc 0780 0a7e 2180
000002f0: fe7d 4000 2b98 1d80 e63d 0800 8d09 1200
00000300: 0867 4680 6264 1580 27e3 0480 b111 3200
00000310: 261e 4a00 5f51 2b80 39b7 2680 c2bd 3600
00000320: 2642 1e80 844e 0900 d27a 1a80 644d 0500
00000330: 7a43 4580 118f 4600 c04e 4880 bd49 2e00
00000340: 46b5 0e80 2151 3900 bd72 0380 b3b1 0180
00000350: 3ea8 1f80 877c 4100 8d44 1500 706c 1100
00000360: 70a8 3200 1e5b 4980 4e00 0800 7fd9 0080
00000370: 2136 2000 671e 2480 a7b5 4700 9809 1b80
00000380: def6 4080 df1d 1580 1d9f 0300 8e73 4080
00000390: f0e0 2400 e80b 1400 0ef7 1280 905f 2f00
000003a0: 72cb 3f80 ad51 0080 45aa 3f00 4120 1180
000003b0: 582f 3580 b269 2200 e800 4c00 03cc 2080
000003c0: 23e6 1500 1ac3 1c80 f906 0e80 d6ad 0b00
000003d0: ba83 4480 3daf 0900 2a59 1d00 e01e 3f80
000003e0: cf12 0500 eefb 4a00 9a16 0d00 6519 2900
000003f0: dc36 4900 29f8 4a80 72ff 2b80 cc67 1300

mlp.mlp.0.bias f4 [64]
2.74083e-40 -4.479424e-39 -8.698092e-08 1.7260442e-08 2.496433e-39 3.062632e-39 -1.349365e-39 2.238342e-39
-3.328954e-39 -8.319286e-08 -6.04906e-39 -6.22216e-39 1.721907e-39 4.06712e-08 4.192762e-39 6.7663635e-08
-1.5347915e-07 3.22819e-08 -2.4025315e-08 5.328939e-39 6.898546e-39 -6.859276e-39 -2.193465e-39 -6.728073e-39
1.24233e-39 -6.3294905e-08 1.0467647e-08 -2.983792e-39 -4.916549e-09 2.2978084e-31 -2.702045e-39 -2.401604e-39
-5.546366e-39 -2.551053e-39 -2.650451e-39 5.399962e-39 -6.15652e-39 -6.4658586e-08 6.58481e-39 1.01051665e-08
-9.4796235e-08 -5.5941324e-08 -5.500239e-08 7.2511e-40 -1.11033195e-07 -6.752136e-39 3.18494e-40 6.522735e-39
-5.160439e-39 -6.933057e-39 4.336024e-39 -1.0114398e-07 -2.8208062e-08 -6.72547e-39 5.35852e-40 -4.33915e-40
-6.172746e-39 -1.4114115e-08 4.142422e-39 9.136759e-08 -1.0118006e-07 -3.716782e-39 1.18050515e-07 3.061553e-39
00000000: 08fc 0200 d0c6 3080 44ca bab3 1d44 9432
00000010: 0a2f 1b00 5f59 2100 7bb1 0e80 965f 1800
00000020: c53f 2480 c2a7 b2b3 51de 4180 dac0 4380
00000030: fabf 1200 75ae 2e33 b7a7 2d00 7a4e 9133
00000040: 07cc 24b4 53a6 0a33 3a60 ceb2 ea06 3a00
00000050: 571e 4b00 dfb0 4a80 7de2 1780 2143 4980
00000060: 1c87 0d00 beec 87b3 33d5 3332 997d 2080
00000070: 6cee a8b1 e422 950c 346c 1d80 b226 1a80
00000080: 0365 3c80 4cc7 1b80 61dc 1c80 e6cc 3a00
00000090: df09 4380 6fda 8ab3 c5b3 4700 fe9a 2d32
000000a0: c892 cbb3 2344 70b3 c43b 6cb3 50e5 0700
000000b0: 2571 eeb3 3586 4980 d577 0300 bb06 4700
000000c0: 3431 3880 8b7e 4b80 1237 2f00 7e34 d9b3
000000d0: 2f4e f2b2 e03b 4980 bdd5 0500 94b9 0480
000000e0: 1b37 4380 897a 72b2 631b 2d00 dd35 c433
000000f0: 5448 d9b3 e078 2880 f582 fd33 5d56 2100

mlp.mlp.1.weight f4 [64]
-6.898067e-39 -1.310462e-39 0.030470027 0.034123022 -4.441749e-39 -5.09502e-39 -6.00886e-39 4.161255e-39
-3.1895e-39 0.035168763 5.950666e-39 6.316486e-39 -6.67253e-39 0.03389414 3.17137e-39 0.03214436
0.033819508 0.03438722 0.033501 -4.39013e-39 -3.374079e-39 -2.701859e-39 -6.404918e-39 1.394292e-39
-6.659166e-39 0.031548545 0.031452708 -5.591632e-39 0.013330405 -1.6226372e-24 -6.417094e-39 3.014078e-39
2.109934e-39 3.792903e-39 6.866608e-39 -6.757962e-39 -5.865681e-39 0.033767186 2.00395e-40 0.033018555
0.027876781 0.03364096 0.024339464 -5.646632e-39 0.031624068 -1.151978e-39 -4.372357e-39 5.808448e-39
1.678208e-39 -6.38944e-40 5.371638e-39 0.032847542 0.033560395 -6.813277e-39 2.39534e-40 5.779036e-39
1.561519e-39 0.035346705 -3.68812e-40 0.031151664 0.02921366 5.11315e-39 0.030239608 -6.869197e-39
00000000: 011d 4b80 0945 0e80 479c f93c 95c4 0b3d
00000010: ca5d 3080 d87a 3780 426e 4180 e34f 2d00
00000020: 07bb 2280 1f0d 103d 09cc 4000 cbc7 4400
00000030: 4da8 4880 95d4 0a3d 7d88 2200 cea9 033d
00000040: 5386 0a3d 9dd9 0c3d 5838 093d e5cd 2f80
00000050: 8fbd 2480 af6b 1d80 4ebe 4580 b82e 0f00
00000060: 0c83 4880 0c39 013d 8ed4 003d 32e3 3c80
00000070: c567 5a3c 4817 fb97 3fe0 4580 06d2 2000
00000080: a3f9 1600 124d 2900 4fc5 4a00 7396 4980
00000090: 22df 3f80 764f 0a3d 9f2e 0200 773e 073d
000000a0: d95d e43c 1acb 093d 8e63 c73c 837c 3d80
000000b0: 3d88 013d 3f8b 0c80 5a9c 2f80 973f 3f00
000000c0: 2946 1200 1ef5 0680 f17d 3a00 258b 063d
000000d0: a076 093d a530 4a80 b99b 0200 9aed 3e00
000000e0: e100 1100 b5c7 103d 1904 0480 c631 ff3c
000000f0: 7c51 ef3c 62ad 3700 0eb9 f73c 87cc 4a80

mlp.mlp.1.bias f4 [64]
-6.598626e-39 6.44414e-40 0.018247254 0.020970222 -5.057355e-39 5.234478e-39 -8.41391e-40 -5.026881e-39
-2.481239e-39 0.021858318 -6.956131e-39 -4.872229e-39 1.079839e-39 0.020831337 -2.919793e-39 0.019624325
0.02083841 0.021199672 0.020561434 3.362318e-39 5.25015e-40 3.365964e-39 -5.907155e-39 2.56395e-39
-5.000644e-39 0.019043088 0.019109754 -3.871272e-39 0.005380135 -7.811722e-24 -2.641572e-39 3.481626e-39
-2.091778e-39 -5.375834e-39 2.68536e-40 5.881149e-39 -6.015673e-39 0.020644236 5.790838e-39 0.020148283
0.016257597 0.020756487 0.013616111 2.621523e-39 0.019055987 -3.449764e-39 -5.870558e-39 6.400962e-39
5.046186e-39 -1.95355e-39 4.887831e-39 0.020021476 0.02068859 6.259323e-39 5.962364e-39 5.440669e-39
-3.567997e-39 0.022106145 -5.61316e-39 0.018885236 0.017288554 6.646008e-39 0.01803391 5.681251e-39
00000000: 49da 4780 5d04 0700 447b 953c bec9 ab3c
00000010: d911 3780 98ff 3800 7529 0980 e6bc 3680
00000020: af04 1b80 3710 b33c ddbe 4b80 cb0d 3580
00000030: 27c2 0b00 7ba6 aa3c 32cb 1f80 31c3 a03c
00000040: 50b5 aa3c efaa ad3c 7470 a83c c69c 2400
00000050: 87b7 0500 f0a6 2400 bf52 4080 40eb 1b00
00000060: c373 3680 4000 9c3c 0f8c 9c3c 8827 2a80
00000070: d84b b03b c619 1799 a1c3 1c80 5be9 2500
00000080: 07c7 1680 a389 3a80 92ec 0200 400a 4000
00000090: 4081 4180 1a1e a93c 800e 3f00 030e a53c
000000a0: a72e 853c 8209 aa3c 1c16 5f3c bd8b 1c00
000000b0: 4d1b 9c3c 8a90 2580 baec 3f80 47b3 4500
000000c0: b7f2 3600 b445 1580 4939 3500 1404 a43c
000000d0: 1e7b a93c 7228 4400 a5ec 4000 5f3e 3b00
000000e0: 20da 2680 f217 b53c 351f 3d80 36b5 9a3c
000000f0: baa0 8d3c 5e5e 4800 dabb 933c 04dd 3d00

mlp.mlp.1.running_mean f4 [64]
-2.874936e-39 -3.61393e-40 -0.010438055 -0.011270167 1.419822e-39 4.728336e-39 -4.251308e-39 4.161013e-39
-5.576251e-39 -0.011581464 -3.395189e-39 -1.27352e-39 2.048505e-39 -0.01130618 7.059195e-39 -0.01082312
-0.011273867 -0.01137692 -0.011199547 2.649272e-39 4.725368e-39 -5.249502e-39 4.695478e-39 -6.873571e-39
1.735245e-39 -0.010708779 -0.010607497 -5.35428e-39 -0.005424576 8.370714e-25 -4.821698e-39 6.18592e-40
-4.390928e-39 -5.519523e-39 -1.159888e-39 5.643325e-39 -1.325085e-39 -0.0112459455 1.829451e-39 -0.011071684
-0.009699192 -0.011204524 -0.00876557 3.242926e-39 -0.01068866 -3.67084e-39 -3.457282e-39 3.792159e-39
-1.186684e-39 -7.936519e-39 6.271895e-39 -0.011028481 -0.011155512 -4.122025e-39 2.958535e-39 -1.004403e-39
-7.391705e-39 -0.011613291 1.414804e-39 -0.010587569 -0.010031719 5.812041e-39 -0.010331102 3.046056e-39
00000000: 274e 1f80 6bef 0380 6004 2bbc 82a6 38bc
00000010: e375 0f00 ad7c 3300 eb4a 2e80 364f 2d00
00000020: 52b8 3c80 2ec0 3dbc 68f8 2480 0ede 0d80
00000030: 664e 1600 8e3d 39bc 2ade 4c00 7553 31bc
00000040: 07b6 38bc 4366 3abc 4e7e 37bc 18d9 1c00
00000050: 6774 3300 7a29 3980 1521 3300 b8d8 4a80
00000060: 28e5 1200 e073 2fbc 11cb 2dbc 8e4d 3a80
00000070: a4c0 b1bb d187 8117 ef80 3480 62bc 0600
00000080: 1fd0 2f80 2f1a 3c80 4ca1 0c80 4b73 3d00
00000090: cc6d 0e80 ea40 38bc c4eb 1300 0266 35bc
000000a0: 5ce9 1ebc 2e93 37bc 779d 0fbc f54f 2300
000000b0: 7d1f 2fbc cff8 2780 7fa5 2580 ff4a 2900
000000c0: feeb 0c80 c96b 5680 7e4b 4400 cdb0 34bc
000000d0: 9cc5 36bc 87e2 2c80 3137 2000 deef 0a80
000000e0: 117d 5080 ac45 3ebc e667 0f00 7c77 2dbc
000000f0: 145c 24bc 9b49 3f00 c843 29bc 2a2b 2100

mlp.mlp.1.running_var f4 [64]
6e-45 6e-45 8.511242e-06 9.585076e-06 6e-45 6e-45 6e-45 6e-45
6e-45 9.969142e-06 6e-45 6e-45 6e-45 9.704766e-06 6e-45 9.035961e-06
9.439225e-06 9.792197e-06 9.4202205e-06 6e-45 6e-45 6e-45 6e-45 6e-45
6e-45 8.706895e-06 8.901941e-06 6e-45 2.7563024e-06 6e-45 6e-45 6e-45
6e-45 6e-45 6e-45 6e-45 6e-45 9.464207e-06 6e-45 9.372051e-06
7.651211e-06 9.323142e-06 6.3915772e-06 6e-45 9.030574e-06 6e-45 6e-45 6e-45
6e-45 6e-45 6e-45 9.405457e-06 9.531408e-06 6e-45 6e-45 6e-45
6e-45 1.0211654e-05 6e-45 8.883661e-06 8.008062e-06 6e-45 8.492912e-06 6e-45
00000000: 0400 0000 0400 0000 82cb 0e37 97cf 2037
00000010: 0400 0000 0400 0000 0400 0000 0400 0000
00000020: 0400 0000 2441 2737 0400 0000 0400 0000
00000030: 0400 0000 a7d1 2237 0400 0000 2899 1737
00000040: 2a5d 1e37 2a49 2437 8a0b 1e37 0400 0000
00000050: 0400 0000 0400 0000 0400 0000 0400 0000
00000060: 0400 0000 d413 1237 8c59 1537 0400 0000
00000070: eaf8 3836 0400 0000 0400 0000 0400 0000
00000080: 0400 0000 0400 0000 0400 0000 0400 0000
00000090: 0400 0000 76c8 1e37 0400 0000 a73c 1d37
000000a0: b35d 0037 976a 1c37 3b77 d636 0400 0000
000000b0: 0582 1737 0400 0000 0400 0000 0400 0000
000000c0: 0400 0000 0400 0000 0400 0000 21cc 1d37
000000d0: 16e9 1f37 0400 0000 0400 0000 0400 0000
000000e0: 0400 0000 b852 2b37 0400 0000 090b 1537
000000f0: 5d5a 0637 0400 0000 c77c 0e37 0400 0000

mlp.mlp.4.weight f4 [64, 64]
3.947994e-39 6.792549e-39 -1.383621e-39 -2.921653e-39 -5.829955e-39 2.915041e-39 -4.360102e-39 3.185991e-39
-5.751306e-39 6.669644e-39 -2.334881e-39 -1.472766e-39 -4.09979e-39 2.166721e-39 -4.334897e-39 -1.290251e-39
5.165686e-39 -6.773619e-39 -5.039598e-39 3.516868e-39 -5.718518e-39 -6.383932e-39 5.71137e-40 2.02541e-40
-6.820959e-39 -5.404864e-39 -2.872721e-39 3.664494e-39 2.37976e-40 -3.177423e-39 -4.8848e-41 -2.476917e-39
2.092024e-39 6.56322e-39 -4.394179e-39 -3.150364e-39 -1.879267e-39 6.488268e-39 2.27583e-39 -2.520681e-39
-1.421519e-39 6.754968e-39 -2.007081e-39 3.96643e-40 -7.34936e-40 6.692426e-39 -6.537702e-39 5.37502e-40
-4.515321e-39 6.76053e-39 6.271253e-39 6.754062e-39 -4.243765e-39 -5.952507e-39 6.12488e-40 -4.138029e-39
-1.50469e-39 -4.78485e-40 6.91556e-39 -4.899346e-39 5.842411e-39 -2.548331e-39 -2.325182e-39 5.382743e-39
2.380908e-39 -2.436645e-39 -1.645566e-39 1.348523e-39 2.563664e-39 5.450869e-39 -2.9123e-41 -4.281914e-39
-4.520003e-39 -4.693443e-39 -1.601373e-39 -5.331872e-39 -5.063463e-39 -1.87974e-39 -3.74986e-39 -6.923967e-39
2.744065e-39 2.730822e-39 -4.1308e-39 -2.078552e-39 -1.6202e-39 -6.794313e-39 6.89336e-39 -1.310392e-39
5.65195e-39 -6.285365e-39 6.510365e-39 -1.951751e-39 -1.048596e-39 5.294808e-39 6.88496e-40 -6.732344e-39
-6.647347e-39 -5.82266e-40 -8.12903e-40 3.329132e-39 -2.297566e-39 1.030463e-39 -1.156005e-39 2.188881e-39
-6.765243e-39 -6.644465e-39 6.914657e-39 -4.848072e-39 -4.414398e-39 -3.402182e-39 -5.13832e-39 1.833543e-39
-2.065648e-39 -6.05246e-40 -1.13494e-40 -4.56659e-39 3.252948e-39 6.683458e-39 2.062173e-39 5.03138e-39
4.119092e-39 -7.24631e-40 5.089503e-39 4.591772e-39 -1.313951e-39 -6.552326e-39 2.379382e-39 6.260765e-39
5.993666e-39 3.004569e-39 4.00415e-39 -1.811468e-39 2.78681e-39 3.750596e-39 -3.867163e-39 -6.466077e-39
-2.6445e-40 1.995417e-39 -6.59133e-40 2.49801e-40 -2.743008e-39 -5.133738e-39 -6.985925e-39 -3.292202e-39
3.082447e-39 2.49025e-40 2.086477e-39 -4.220403e-39 6.585699e-39 -6.444137e-39 3.02888e-39 2.22471e-39
-5.524314e-39 2.029976e-39 -3.594171e-39 4.847104e-39 1.11796e-40 1.314073e-39 2.632174e-39 6.8855e-39
7.73748e-40 -2.88004e-39 2.789063e-39 -4.986333e-39 3.187253e-39 -6.382063e-39 -4.5702e-41 6.780113e-39
6.219066e-39 -5.12742e-40 -3.310353e-39 -6.751613e-39 -1.81784e-39 6.538589e-39 4.793339e-39 -3.563876e-39
-1.158221e-39 5.325729e-39 3.013972e-39 1.93956e-39 4.903184e-39 6.350952e-39 -2.508497e-39 -2.290191e-39
4.484214e-39 5.056855e-39 2.993165e-39 -3.387554e-39 -2.585726e-39 1.89345e-40 -4.178554e-39 6.612073e-39
-3.96496e-40 2.996031e-39 0.0052696057 0.0060204375 2.4141e-40 -6.25954e-40 -2.282853e-39 9.1767e-41
4.029861e-39 0.0058985674 2.446939e-39 5.979729e-39 9.44531e-40 0.0058441916 -1.790417e-39 0.0055491957
0.0055553024 0.0060785795 0.00583364 -6.740761e-39 -3.703125e-39 -3.534878e-39 5.247374e-39 2.790076e-39
-1.669559e-39 0.005286791 0.0054259524 -2.761095e-39 0.0019565367 -1.2590766e-24 -4.813369e-39 -6.66968e-40
-1.298753e-39 -1.405197e-39 -1.996737e-39 1.4901e-41 -4.059131e-39 0.005895259 -2.4244e-41 0.00578614
0.004613066 0.0058957096 0.0040969215 5.047536e-39 0.0054615005 1.89573e-40 2.469556e-39 -3.179672e-39
6.673757e-39 9.30057e-40 2.231156e-39 0.0056427782 0.0057776696 -2.936614e-39 5.81145e-39 2.151558e-39
5.756967e-39 0.006258665 -3.265097e-39 0.005465447 0.004991122 2.877963e-39 0.0051581617 -5.53806e-39
00000000: 67fd 2a00 ddf6 4900 f910 0f80 61d0 1f80
00000010: 8b7b 3f80 f3bd 1f00 317a 2f80 3fb1 2200
00000020: 4da0 3e80 41a0 4800 b36c 1980 7909 1080
00000030: 8ca4 2c80 f097 1700 ee33 2f80 b20c 0e80
00000040: d53f 3800 18c2 4980 59e0 3680 994b 2600
00000050: e744 3e80 ce83 4580 1938 0600 9a34 0200
00000060: 0f46 4a80 90da 3a80 fa47 1f80 1ee7 2700
00000070: 6197 0200 5d99 2280 2b88 0080 a3f8 1a80
00000080: b6c7 1600 9677 4700 2fd9 2f80 ef4d 2280
00000090: a276 1480 a7a6 4600 17c8 1800 a272 1b80
000000a0: 9e7a 0f80 1a8e 4900 edda 1580 ae51 0400
000000b0: b400 0880 c3df 4800 7430 4780 56da 0500
000000c0: e12a 3180 9b9d 4900 b449 4400 948b 4900
000000d0: e435 2e80 2bd1 4080 5eab 0600 240f 2d80
000000e0: 7762 1080 d235 0580 c54d 4b00 6259 3580
000000f0: 449e 3f00 b6bf 1b80 a951 1980 e69c 3a00
00000100: 01ed 1900 6088 1a80 2beb 1180 22af 0e00
00000110: 74ea 1b00 ce5a 3b00 2f51 0080 3ca0 2e80
00000120: ee37 3180 691b 3380 fa6f 1180 170f 3a80
00000130: e022 3780 f377 1480 16d5 2880 3465 4b80
00000140: 56e1 1d00 6cbc 1d00 fdfa 2c80 28a2 1680
00000150: 75a4 1180 c8fb 4980 e20f 4b00 d744 0e80
00000160: 568b 3d00 0a71 4480 40e4 4600 b040 1580
00000170: 0f6b 0b80 c5a7 3900 3f7f 0700 094f 4980
00000180: 1962 4880 1f57 0680 0bda 0880 4440 2400
00000190: ae04 1980 8338 0b00 7996 0c80 b6d5 1700
000001a0: bfaa 4980 115a 4880 404b 4b00 74ca 3480
000001b0: 8c11 3080 e60b 2580 8cf3 3780 2cf7 1300
000001c0: 307e 1680 2e97 0680 603c 0180 ccb9 3180
000001d0: e56b 2300 c3c6 4800 8074 1600 71c9 3600
000001e0: 5ada 2c00 fae3 0780 776b 3700 feff 3100
000001f0: c34e 0e80 3859 4780 c0e8 1900 772c 4400
00000200: e743 4100 84b7 2000 f199 2b00 a3b9 1380
00000210: 7e58 1e00 23d7 2800 141c 2a80 cb68 4680
00000220: 2ee1 0280 69ba 1500 652d 0780 58b8 0200
00000230: 64de 1d80 c6e6 3780 eb11 4c80 52d9 2380
00000240: 9c90 2100 2eb6 0200 40b8 1600 c4f4 2d80
00000250: 40b6 4700 a22b 4680 49fb 2000 9639 1800
00000260: 8a27 3c80 bf1a 1600 1623 2780 c1c7 3400
00000270: a437 0100 1a4f 0e00 6ea9 1c00 f9f9 4a00
00000280: e56c 0800 615c 1f80 c65e 1e00 de4b 3680
00000290: c4b4 2200 987e 4580 667f 0080 32d4 4900
000002a0: 3ab8 4300 5195 0580 eb0b 2480 c084 4980
000002b0: 66cb 1380 ed32 4700 e131 3400 a3ce 2680
000002c0: a69c 0c80 f7fd 3900 bad1 2000 b41e 1500
000002d0: 1564 3500 df27 4500 ab50 1b80 1ff0 1880
000002e0: 2ad4 3000 7410 3700 ba97 2000 1fe3 2480
000002f0: f427 1c80 d10f 0200 1c80 2d80 c5ff 4700
00000300: 4551 0480 b79f 2000 a8ac ac3b 1747 c53b
00000310: f4a0 0200 e8d0 0680 aadb 1880 cfff 0000
00000320: 9de1 2b00 c548 c13b 12a5 1a00 0d1d 4100
00000330: f848 0a00 a280 bf3b f47e 1380 07d6 b53b
00000340: 4109 b63b d22e c73b 1f28 bf3b 8066 4980
00000350: ce52 2880 cd7d 2680 8b23 3900 9961 1e00
00000360: 0d2e 1280 d13c ad3b 30cc b13b cf10 1e80
00000370: 3d39 003b 2ad5 c297 b769 3480 3c43 0780
00000380: 6524 0e80 1e4d 0f80 17be 1580 8a29 0000
00000390: 3533 2c80 042d c13b 9543 0080 a999 bd3b
000003a0: 3429 973b cc30 c13b 783f 863b 7af6 3600
000003b0: 63f6 b23b 7410 0200 1ee4 1a00 a29f 2280
000003c0: b8ab 4800 9f20 0a00 8e4b 1800 0ee7 b83b
000003d0: 9b52 bd3b 16fa 1f80 f547 3f00 ab6d 1700
000003e0: 15b0 3e00 7d15 cd3b c38d 2380 7e17 b33b
000003f0: 918c a33b 9756 1f00 cc05 a93b dc4d 3c80

mlp.mlp.4.bias f4 [64]
4.412839e-39 -2.940863e-39 1.916526e-39 3.4755504e-07 2.3360793e-07 5.9217493e-09 3.662967e-07 1.7087133e-08
-4.111875e-39 2.2226983e-07 4.0043219e-07 -7.311561e-08 3.4256232e-07 1.1312893e-12 3.5912637e-07 3.4445202e-07
3.4898216e-07 -6.201165e-08 3.4616951e-07 3.6817013e-07 3.548715e-07 8.004794e-09 3.439106e-07 3.3773014e-07
3.6436413e-07 3.3962425e-07 3.6892868e-07 1.0946247e-08 -3.9838635e-09 -4.437455e-39 3.7646146e-07 5.788711e-39
-2.358101e-39 3.230869e-39 3.410906e-07 -6.827052e-39 3.737812e-39 2.3766825e-07 -8.730067e-09 -8.361565e-10
2.2809142e-07 3.5992358e-07 -3.284115e-39 -7.3336736e-08 2.3498833e-07 3.4181826e-07 -5.881045e-39 3.448396e-07
3.458661e-07 1.352621e-09 3.4455272e-07 2.9726084e-07 3.4289306e-07 3.6149478e-07 -1.0511843e-07 -2.287656e-39
2.3111147e-07 7.407957e-39 -5.7561007e-08 8.769206e-09 4.103389e-39 -1.5427698e-08 6.754704e-39 3.666073e-07
00000000: 330d 3000 ee05 2080 7fde 1400 9a97 ba34
00000010: a9d5 7a34 4278 cb31 6fa7 c434 01c7 9232
00000020: 3cc6 2c80 11a9 6e34 fbfa d634 bb03 9db3
00000030: 68e9 b734 fe36 9f2b f4cd c034 20ed b834
00000040: be5b bb34 442b 85b3 2dd9 b934 eba8 c534
00000050: 2b85 be34 7585 0932 b7a2 b834 4751 b534
00000060: d39d c334 9a55 b634 2c11 c634 1a0e 3c32
00000070: 6fe2 88b1 d251 3080 781c ca34 9208 3f00
00000080: 6dad 1980 592e 2300 231f b734 0b57 4a80
00000090: 80b3 2800 c031 7f34 3efb 15b2 48d7 65b0
000000a0: 4be9 7434 853b c134 c7c2 2380 4c7d 9db3
000000b0: 1a51 7c34 2583 b734 f609 4080 6522 b934
000000c0: 7aaf b934 1fe7 b930 f7fa b834 3897 9f34
000000d0: dd16 b834 7713 c234 78bd e1b3 0ee9 1880
000000e0: 7027 7834 5faa 5000 ff38 77b3 60a7 1632
000000f0: 94ae 2c00 de85 84b2 5e8d 4900 20d2 c434

mlp.mlp.5.weight f4 [64]
5.98927e-39 -6.59596e-39 2.009532e-39 0.034505136 0.03385211 0.03399203 0.03365262 0.03433453
-1.179867e-39 0.034228925 0.034972668 0.034582913 0.03276798 7.8898716e-05 0.033904668 0.03367601
0.035085797 0.03446805 0.034757093 0.03385056 0.033790413 0.033637345 0.03468574 0.032954026
0.03313538 0.033628058 0.03489529 0.0334818 0.033347916 -5.972104e-39 0.034149237 4.658387e-39
1.915005e-39 -2.406978e-39 0.035129834 -4.027815e-39 -1.8721e-39 0.033114363 0.033401612 0.03370248
0.03444649 0.033318322 -6.047898e-39 0.03406054 0.03431834 0.0348576 -2.09046e-40 0.033571884
0.033523526 0.033901844 0.034276813 0.033970777 0.032956295 0.03478669 0.034255624 3.713703e-39
0.03353981 1.758533e-39 0.03497907 0.033947073 -2.280758e-39 0.033025555 2.780927e-39 0.03396345
00000000: a637 4100 dad2 4780 c2e1 1500 4255 0d3d
00000010: 83a8 0a3d 3a3b 0b3d 54d7 093d 5da2 0c3d
00000020: fdd8 0c80 a133 0c3d 803f 0f3d d0a6 0d3d
00000030: b837 063d 6d76 a538 9fdf 0a3d dbef 093d
00000040: 20b6 0f3d 5f2e 0d3d 745d 0e3d e3a6 0a3d
00000050: d167 0a3d 50c7 093d a212 0e3d cdfa 063d
00000060: f7b8 073d 93bd 093d 5dee 0e3d 3624 093d
00000070: d397 083d cc07 4180 12e0 0b3d b0b9 3200
00000080: 41da 1400 ad35 1a80 4de4 0f3d e9db 2b80
00000090: a762 1480 eda2 073d 21d0 083d 9d0b 0a3d
000000a0: c317 0d3d cb78 083d 14db 4180 1183 0b3d
000000b0: 6391 0c3d d8c6 0e3d bc46 0280 ac82 093d
000000c0: f74f 093d a9dc 0a3d d865 0c3d f124 0b3d
000000d0: 2efd 063d 7d7c 0e3d a04f 0c3d 4b70 2800
000000e0: 0a61 093d 1326 1300 3746 0f3d 160c 0b3d
000000f0: d3d5 1880 ce45 073d 1848 1e00 421d 0b3d

mlp.mlp.5.bias f4 [64]
-6.1977e-39 0.21305948 1.162342e-39 0.24932273 0.2498739 0.25051466 0.24902102 0.25012437
6.67077e-40 0.24859355 0.25153133 0.25164926 0.24962685 0.21607122 0.25204122 0.24921654
0.25112915 0.2503404 0.25027627 0.2493515 0.25039244 0.25083047 0.2494661 0.24782842
0.24804847 0.24821816 0.2509054 0.24900743 0.24903697 0.14663349 0.24945849 0.21086334
-4.461297e-39 0.21051134 0.2518561 0.2110477 0.19838798 0.25078535 0.25017375 0.24757786
0.25122783 0.24798825 0.20924927 0.25098288 0.24855399 0.25143024 -3.938994e-39 0.2491931
0.24754176 0.24962418 0.25192323 0.25136647 0.24584249 0.2507102 0.24996567 1.523147e-39
0.24957213 0.19946048 0.2504866 0.2500642 0.20627591 0.24865411 -3.54052e-40 0.24920852
00000000: ab7c 4380 442c 5a3e 23a8 0c00 754e 7f3e
00000010: f2de 7f3e 7543 803e 5eff 7e3e 4d10 803e
00000020: 8a43 0700 4f8f 7e3e b7c8 803e 2cd8 803e
00000030: 2e9e 7f3e c641 5d3e 8c0b 813e 9f32 7f3e
00000040: 0094 803e 9e2c 803e 3624 803e 0056 7f3e
00000050: 7033 803e da6c 803e 0b74 7f3e bcc6 7d3e
00000060: 6b00 7e3e e72c 7e3e ac76 803e cefb 7e3e
00000070: 8c03 7f3e 1727 163e 0c72 7f3e 8fec 573e
00000080: 4894 3080 4990 573e 48f3 803e e31c 583e
00000090: 3826 4b3e f066 803e c616 803e 0d85 7d3e
000000a0: efa0 803e a2f0 7d3e 7145 563e d480 803e
000000b0: f084 7e3e 77bb 803e 50e4 2a80 7a2c 7f3e
000000c0: 967b 7d3e 7b9d 7f3e 15fc 803e 1bb3 803e
000000d0: 22be 7b3e 165d 803e 00f7 7f3e ea95 1000
000000e0: d68f 7f3e 5e3f 4c3e c83f 803e 6a08 803e
000000f0: fe39 533e 2f9f 7e3e f4da 0380 8530 7f3e

mlp.mlp.5.running_mean f4 [64]
5.197396e-39 -6.3777e-41 -7.08017e-40 0.0024603526 0.0024315615 0.0024323934 0.0024182773 0.0024512957
-5.288521e-39 0.0024446328 0.0024829623 0.002465064 0.0023717044 6.0979396e-06 0.0024384796 0.0024233684
0.00250301 0.0024663617 0.0024811458 0.0024252518 0.00242598 0.0024209865 0.0024762608 0.002386222
0.002395038 0.0024221102 0.0024716682 0.0024079517 0.0023985107 -1.823057e-39 0.0024452074 3.109334e-39
-3.916758e-39 5.587523e-39 0.0024956139 -3.310395e-39 5.799962e-39 0.00239008 0.0024051324 0.002427082
0.0024596208 0.0024054633 1.814e-41 0.0024378856 0.0024512555 0.0024750917 -5.575053e-39 0.0024175672
0.0024083662 0.0024427178 0.0024559782 0.0024339186 0.0023794668 0.0024793807 0.0024466487 -8.116e-41
0.0024060276 4.668237e-39 0.0024826964 0.0024325266 5.546649e-39 0.0023884305 4.863152e-39 0.0024369753
00000000: 3a98 3800 c9b1 0080 aab5 0780 de3d 213b
00000010: d55a 1f3b ca68 1f3b f67b 1e3b eba5 203b
00000020: 3f96 3980 2236 203b 32b9 223b e98c 213b
00000030: 996e 1b3b e79c cc36 e6ce 1f3b 60d1 1e3b
00000040: 8a09 243b afa2 213b b89a 223b f9f0 1e3b
00000050: 31fd 1e3b 6aa9 1e3b c348 223b 2962 1c3b
00000060: 12f6 1c3b 44bc 1e3b b6fb 213b bace 1d3b
00000070: 5530 1d3b f1d9 1380 c63f 203b 8fdb 2100
00000080: 54a6 2a80 bed7 3c00 748d 233b 090c 2480
00000090: ef27 3f00 e3a2 1c3b 6d9f 1d3b ae0f 1f3b
000000a0: 9731 213b faa4 1d3b 9132 0000 efc4 1f3b
000000b0: 3ea5 203b 2635 223b fbb4 3c80 0c70 1e3b
000000c0: aed5 1d3b 0116 203b 7af4 203b 6182 1f3b
000000d0: d4f0 1b3b 1b7d 223b f457 203b 3ee2 0080
000000e0: 72ae 1d3b 25d5 3200 bcb4 223b 066b 1f3b
000000f0: cd65 3c00 3787 1c3b 7df4 3400 a9b5 1f3b

mlp.mlp.5.running_var f4 [64]
6e-45 6e-45 6e-45 7.327747e-06 7.157403e-06 7.1639083e-06 7.0784295e-06 7.275569e-06
6e-45 7.234689e-06 7.4627337e-06 7.357611e-06 6.808693e-06 4.6366536e-11 7.198326e-06 7.109252e-06
7.5843827e-06 7.366067e-06 7.4524623e-06 7.1194577e-06 7.1238524e-06 7.0964106e-06 7.423179e-06 6.8925006e-06
6.94327e-06 7.1019754e-06 7.394326e-06 7.020512e-06 6.9656985e-06 6e-45 7.237238e-06 6e-45
6e-45 6e-45 7.5388625e-06 6e-45 6e-45 6.914773e-06 7.0041137e-06 7.132663e-06
7.324361e-06 7.004008e-06 6e-45 7.195913e-06 7.2734206e-06 7.415207e-06 6e-45 7.0744436e-06
7.0203514e-06 7.2254725e-06 7.301266e-06 7.170798e-06 6.853751e-06 7.4419386e-06 7.2482385e-06 6e-45
7.0072488e-06 6e-45 7.4631284e-06 7.16469e-06 6e-45 6.907934e-06 6e-45 7.1893874e-06
00000000: 0400 0000 0400 0000 0400 0000 dee0 f536
00000010: a029 f036 8161 f036 3f83 ed36 a920 f436
00000020: 0400 0000 81c1 f236 6568 fa36 66e1 f636
00000030: 3a76 e436 14ec 4b2e 2689 f136 028c ee36
00000040: 5a7d fe36 092a f736 2a10 fa36 ade3 ee36
00000050: 6d09 ef36 b41d ee36 9f14 f936 2146 e736
00000060: 3cfa e836 814d ee36 c71c f836 bd91 eb36
00000070: e5ba e936 0400 0000 67d7 f236 0400 0000
00000080: 0400 0000 0400 0000 56f6 fc36 0400 0000
00000090: 0400 0000 7305 e836 e104 eb36 1c55 ef36
000000a0: c8c3 f536 f803 eb36 0400 0000 6c74 f136
000000b0: 350e f436 25d0 f836 0400 0000 0261 ed36
000000c0: 5c90 eb36 5672 f236 66fd f436 b09c f036
000000d0: 46f9 e536 c4b5 f936 e535 f336 0400 0000
000000e0: cf1f eb36 0400 0000 c96b fa36 3868 f036
000000f0: 0400 0000 b4ca e736 0400 0000 5e3c f136

mlp.mlp.8.weight f4 [1, 64]
4.337858e-39 0.21306494 -4.529629e-39 0.25171033 0.2522013 0.25283533 0.2513279 0.2524814
-6.474761e-39 0.25097376 0.25396177 0.25402963 0.25187096 0.21608546 0.25438288 0.25150877
0.25353846 0.25272492 0.25270364 0.25162604 0.25274485 0.25312698 0.25185746 0.25006145
0.25033215 0.25050974 0.2533543 0.25129458 0.25128645 0.146519 0.2518024 0.2108657
-4.5235e-41 0.21051127 0.2543041 0.21105857 0.19840752 0.2530167 0.2524425 0.24988347
0.25364137 0.25028586 0.20927998 0.25330698 0.2509385 0.25391844 5.672616e-39 0.25146452
0.24981542 0.25195354 0.25426003 0.25369892 0.24803172 0.25310683 0.25233263 -6.673009e-39
0.25187787 0.19944389 0.25291187 0.25238082 0.20627181 0.25090018 7.70019e-40 0.25151095
00000000: 2f3c 2f00 b22d 5a3e c352 3180 2de0 803e
00000010: 8720 813e a273 813e 0dae 803e 3e45 813e
00000020: 0081 4680 a27f 803e 4707 823e 2c10 823e
00000030: 3bf5 803e 8245 5d3e 793e 823e c2c5 803e
00000040: cbcf 813e 2965 813e 5f62 813e 21d5 803e
00000050: c667 813e dc99 813e 76f3 803e 0e08 803e
00000060: 892b 803e d042 803e a8b7 813e afa9 803e
00000070: 9ea8 803e 1409 163e 3fec 803e 2eed 573e
00000080: 197e 0080 4490 573e 2634 823e bd1f 583e
00000090: 572b 4b3e 688b 813e 2540 813e 74e1 7f3e
000000a0: 48dd 813e 7825 803e 7e4d 563e 74b1 813e
000000b0: 037b 803e 9901 823e f2c4 3d00 f5bf 803e
000000c0: 9dcf 7f3e 0e00 813e 5f2e 823e d3e4 813e
000000d0: 07fc 7d3e 3897 813e be31 813e a2a9 4880
000000e0: 23f6 803e 053b 4c3e aa7d 813e 0f38 813e
000000f0: eb38 533e fd75 803e 8062 0800 0bc6 803e
