model_lr_0.0005/dfm_epoch_0.pt (torch, 151559 bytes, 15 tensors)

embedding.embedding.weight f4 [98, 75]
00000000: 4437 063d 3028 fabd 8821 01be c2fc 8f3c
00000010: e3c3 8fbd a8c7 2abd 048b 51bc 6cce 08be
00000020: 0e06 c5bd dff9 00be 5b04 8fbb d295 923d
00000030: e628 e7bc d94c 463d e7a2 a9bd 79c9 3dbd
00000040: 0056 143e f2d3 553e 9f7b 0abe 23e0 5a3e
00000050: e9f6 18be 4bd9 063e c5a7 ee3d 7729 59be
00000060: 4e46 4ebd ddba e6bd 6937 3f3d b18d 26be
00000070: 5252 f4bb 4a11 603e e524 ae3d 5ac9 1dbd
00000080: 4132 ad3c a26a ba3d 7838 5c3e 4cd8 c0bd
00000090: 5fa3 183e 21c3 b0bc 434d 5a3d f6f9 67be
000000a0: dfd2 00be 3379 9cbc 7637 3ebe 88ea febc
000000b0: 5f4a 5fbe a9e5 d8bd 9b8d 62bd 501d 193e
000000c0: 1e6d 0a3d f4f1 19be 7ad8 2cbe c7dd 453e
000000d0: 4f79 64be c5d5 f43d 67a2 74bd 4884 613e
000000e0: a956 e2bd 4a35 953d 9692 1cbd 299a de3c
000000f0: 691f c43d caeb 3b3d 6380 3a3e f24a 30be
00000100: d797 dabd af2f 93bd f8e3 393e 6282 863d
00000110: ebfb 1bbe 047f cc3d 2ec6 f1bd 2988 f4bd
00000120: 3a6a 093e f493 7d3d a9fd 8bbb 82cd e3bc
00000130: 1d01 c53c 5c66 963d 3427 3a3d 770e 10be
00000140: 54be 3b3e ff08 2abd bc9a bcbd b287 fdbd
00000150: b936 1bbd 61c8 973d 0464 fd3c 1905 adbc
00000160: e897 89bd 650d 2a3e 7369 f63c 081a 46be
00000170: 0e46 36bd a19f 4bbe 62ba 06be 5bfc c2bd
00000180: 9e3a abbd f172 09be a792 44bd 7a5f c33d
00000190: e773 9fbc b3e9 48be 831e 2c3d 4c42 fc3d
000001a0: 60e3 9aba 7218 61bd b670 3ebc a69e 2a3e
000001b0: afdf 00be 1731 e1bd 6a10 1c3d 76bc 543d
000001c0: a62f 0a3e a657 56bd 3439 15be f115 cfbd
000001d0: 2c37 193e 174f 47be bd44 353d 6863 51bd
000001e0: 4d0f dbbb 7ed9 983d 53cd 5cbd 1fa6 44be
000001f0: a369 5dbd a8c0 e83d e58e 1dbe bd0c d53d
00000200: ef98 233e 1722 61bd 9614 883d 2207 87bc
00000210: da2b e4bc 5736 733d c096 a8bd 46c6 c3bd
00000220: f0aa 0dbe 733b ae3c b6d7 9f3d ab4e 03be
00000230: 4846 a7bd 688d 4f3e 8d07 483e e97e 3dbd
00000240: 9b25 003c 600f 19be f014 9ebd b07a 97bd
00000250: 99f7 2cbc ea4b 7e3c 32c4 f73d 5b0d 9e3b
00000260: dc4c 24be 3c32 7fbd 8851 cabd 7eff 9e3d
00000270: 3dc4 7fbd 66fa 2bbe 34fe 00bd a5bb 50be
00000280: 68c9 0a3e 1e34 b4bb 96a3 4d3d f24f e33d
00000290: 7ea5 2c3e 5d57 a73d 6ff6 b5bd 70cb 533e
000002a0: b2ba 83bd 9622 333e d68c 5a3d 3df4 413e
000002b0: 7921 243e 4895 bd3d 5acf 143e 49da aabc
000002c0: 26c1 a2bd c9bf 00be 966c 503e 27f4 543d
000002d0: 36f3 913d 17c6 9fbb 7afd d5bd 6bc4 2e3e
000002e0: c529 333e 55af f93d 468b 00be d92a 5b3e
000002f0: 9831 6f3c 50cb 40bd 7f83 9bbd 91c7 4ebd
00000300: d59c 523c 1436 f2bd 1b84 2fbd 0dcb 5b3d
00000310: 7464 1f3e 17ba d2bd 1878 27bc f6ce f33d
00000320: 671a f43d e5a7 313e 16a2 2dbe cdd4 fc3d
00000330: e7e4 2abd 4d5d 623c dd55 713d a807 043d
00000340: aa71 dbbb 82c8 393d 160d 823d d27c 813d
00000350: db58 8f3c 2b15 1abe a458 073e 5656 c339
00000360: 0df2 96bd b02c 1d3e f4f2 2a3e 6227 553e
00000370: 63a6 0dbe 3ba4 6e3d ffab 0c3e fec0 24be
00000380: 42e8 fabd f8f3 98bd 81fd fdbd 238b eebd
00000390: a05a 663d 11c5 0cbd 79e7 e13d ecac e9bd
000003a0: bd4d 3dbd bda4 06be 228e 6b3d 5984 103e
000003b0: 9b8a fdbd 8244 6b3d d53b 883d 6d92 cebd
000003c0: 4e0f 263e 52c0 f63d 9d33 473e f1f3 6a3d
000003d0: 7da8 99bd ab70 cfbd c366 a7bd 19cf c73d
000003e0: ab4c 4abe 1c1d 26bc a67f 21be 64d6 08be
000003f0: 4c45 9b3c db2f cb3d 3398 a73d 3396 c83d
0.03276755 -0.122146964 -0.12610447 0.017576579 -0.07019784 -0.041694313 -0.012789492 -0.13359994
-0.096202955 -0.12595318 -0.004364533 0.07157482 -0.028217744 0.04841313 -0.08283024 -0.046334717
0.14485931 0.20881632 -0.1352372 0.21374564 -0.14937939 0.13168828 0.11653093 -0.21207224
-0.050360017 -0.1126611 0.046683703 -0.16264988 -0.0074561024 0.21881595 0.08503131 -0.038522102
0.021142127 0.0910237 0.21505916 -0.09416255 0.14906071 -0.02157742 0.05329634 -0.22653946
-0.12580441 -0.019100761 -0.18575844 -0.031117693 -0.21805714 -0.10590679 -0.055310827 0.14952588
0.03379547 -0.15033704 -0.16879454 0.19322883 -0.223119 0.11954836 -0.05972519 0.22023118
-0.11051685 0.07285555 -0.038225733 0.027173119 0.095763035 0.045879163 0.18213038 -0.1721609
-0.106734924 -0.07186829 0.1815337 0.06567837 -0.15232818 0.09985164 -0.11805378 -0.11940033
0.13419428 0.061908677 -0.004272182 -0.027807955 0.024048382 0.07343742 0.045447543 -0.14068018
0.18334323 -0.041512486 -0.09209201 -0.123793975 -0.037893984 0.07411266 0.03093148 -0.021120595
-0.06718427 0.16606672 0.030079579 -0.19345868 -0.044500403 -0.19885112 -0.13157037 -0.09520789
-0.0836079 -0.13422753 -0.04799142 0.09539695 -0.019464446 -0.19620399 0.042021286 0.123173326
-0.0011817031 -0.054954953 -0.011623552 0.16662082 -0.12585329 -0.10995691 0.03810159 0.051937543
0.13494739 -0.05232968 -0.14572603 -0.10111607 0.14962453 -0.19463764 0.044255007 -0.05112019
-0.0066851736 0.07463358 -0.05390675 -0.19203995 -0.05405582 0.11364871 -0.15386541 0.1040282
0.15976308 -0.05496415 0.066445515 -0.016482893 -0.027852941 0.059377994 -0.08231878 -0.09559302
-0.13834739 0.021268582 0.078048155 -0.12822978 -0.08167702 0.20268786 0.1953413 -0.04626361
0.007821466 -0.14947271 -0.07718837 -0.07396448 -0.010557079 0.015521029 0.12097968 0.0048233694
-0.16044945 -0.062303767 -0.09878832 0.07763575 -0.062443007 -0.16794738 -0.031492427 -0.2038408
0.13553393 -0.005499377 0.050204836 0.11099233 0.16860005 0.0817096 -0.08884894 0.20683074
-0.06432094 0.17493662 0.053356968 0.18940826 0.16028394 0.09256989 0.14532223 -0.02085604
-0.079469964 -0.1257316 0.20353922 0.051990654 0.07126467 -0.004875909 -0.104487374 0.17067115
0.17496403 0.12191645 -0.12553129 0.21403064 0.014599226 -0.047068894 -0.0759344 -0.05048329
0.0128547745 -0.11826721 -0.042850595 0.05366044 0.15565664 -0.102894 -0.010221504 0.11904709
0.11919098 0.17349203 -0.16956362 0.12345276 -0.041722205 0.01381619 0.058919776 0.032233864
-0.0066968994 0.045357235 0.06350152 0.06322636 0.017498424 -0.15047137 0.13217407 0.00037257624
-0.07370386 0.15349078 0.16694242 0.20815805 -0.13833003 0.05826209 0.13737486 -0.16089246
-0.12251331 -0.07468408 -0.12401868 -0.11647632 0.05623877 -0.034367625 0.11030478 -0.11409935
-0.046216715 -0.1314878 0.057508595 0.14112987 -0.123799525 0.05743838 0.06652037 -0.10086522
0.16216776 0.12048401 0.19453283 0.057361547 -0.0750284 -0.101289116 -0.08173897 0.097562976
-0.19755809 -0.010138776 -0.1577135 -0.13363034 0.018953942 0.09921237 0.081833266 0.09794273

linear.fc.weight f4 [98, 1]
00000000: 344d ce3e 2e72 3dbd 96f6 f1bc dfcd dcbf
00000010: d7c6 f8be 6149 803e bfff 8e3e e59d b03f
00000020: 6ac9 6b3f 7156 023f 7384 a43f e938 383f
00000030: 2350 5cbf 57a8 d9be 31d5 af3e caa1 0bbf
00000040: b915 673f e18b 3f3f 2b22 cabf fac6 87be
00000050: 1080 8dbf 2edd f83e 8626 9d3e e76c 25be
00000060: 5d6c ae3e 8508 573d 762f 55bf fae7 ffbe
00000070: 4c3c 89bf 85c5 013f d94c c13f b338 4abf
00000080: 6836 7fbf bb9f c93f 8fc3 b6bf 9655 04c0
00000090: edf2 b0bd 9187 29c0 723b 23bf 6541 ea3b
000000a0: c274 dfbf 0041 a83f b73a c83e 107f c2be
000000b0: f30d ac3f 09b6 133f e3e8 5e3e faaa 923f
000000c0: a54e eb3e b660 123f a4fd 253f a1ab bdbe
000000d0: b257 4f3f 1975 993e 8071 ba3d 870e 3a3e
000000e0: f519 b7be 15a5 a63d 6aba 953f 134e 4e3e
000000f0: a95e de3d 4fea 03bf eac1 5e3e 78e8 fc3f
00000100: e199 7a3c f93e 213f 0298 0b3f 9748 983f
00000110: 815e 963e fadf 21be 09a9 2ebf 3c5d 94bf
00000120: 333f 6cbf f4d5 8e3e b239 e43f 365b ff3f
00000130: f90d f63f 818b 9cbf b3d7 0a3f 0dd5 efbe
00000140: d26a 86bf 2075 df3f 7431 443f 3b56 063f
00000150: 64a8 d73f 417c 98bf cb99 f23e c5d0 e9be
00000160: a702 7dbf 11a0 c6bf 10e1 22c0 1806 e53e
00000170: b13a a03e b7cc 7b3f 89e0 31bf c72d e63e
00000180: 3eaf a0bf cc65 27be
0.40293276 -0.04625147 -0.029536527 -1.7250327 -0.48589203 0.25055984 0.27929494 1.3798186
0.9210421 0.5091315 1.285292 0.7196184 -0.8605978 -0.42511246 0.3434234 -0.54543746
0.9026752 0.74822813 -1.5791677 -0.26518995 -1.1054707 0.48606247 0.30693454 -0.16154824
0.3406705 0.05249836 -0.83275545 -0.49981672 -1.0721526 0.50692016 1.5101577 -0.78992766
-0.9969239 1.5751871 -1.427843 -2.0677238 -0.086400844 -2.6488993 -0.6376258 0.007148909
-1.7457507 1.3144836 0.39107296 -0.37987566 1.3441757 0.5769964 0.21768527 1.1458428
0.4595844 0.5717882 0.6484015 -0.37045005 0.8099319 0.2997215 0.0910368 0.18169604
-0.3576199 0.08136956 1.1697514 0.2014697 0.10857899 -0.515294 0.2175366 1.9758444
0.015295477 0.62986714 0.5452882 1.1897153 0.29368976 -0.15808097 -0.6822668 -1.1590953
-0.92283934 0.27897608 1.7830107 1.994971 1.9223014 -1.2230073 0.5423538 -0.46842232
-1.0501349 1.7457619 0.7663796 0.5247533 1.6848264 -1.1912919 0.4738296 -0.4566709
-0.9883217 -1.5517598 -2.5449867 0.44731212 0.31294778 0.98359245 -0.6948324 0.449568
-1.255348 -0.16347426

mlp.mlp.0.weight f4 [64, 375]
00000000: 96b8 09bd 1bbc 1f3d 0d88 d63c e665 a0bc
00000010: d64c 24bd 2859 9ebc 40bc 4cbd 4098 94bc
00000020: 9532 bb3c bf83 3c3d fe83 adbc 19f6 9e3a
00000030: e6bc 143d d8cd 06bc 7017 293d 7dca 02bd
00000040: d8c6 5bbd 3268 213c 429a a43c fe80 a4bc
00000050: 494d 3e3c 8e33 20bc 1761 afbb 6c40 33bd
00000060: cb52 b23c 1dc4 f23c 1b81 42bd 0b12 20bd
00000070: ad08 243d 0c65 e6bc 0bd8 3bbd 8a1d 3b3d
00000080: ccf2 22bc 61c6 7abc a432 6f3c d9e2 39bd
00000090: 3dac b4ba 8a95 05bd 7e3a 363d 092f 38bd
000000a0: 3243 9cbc 09b8 ccbc ccaf 4dbd ab6e e13c
000000b0: 8f5e b13b 0e2e a73c 8ead 493d 76d8 453d
000000c0: ca0b 7d3c 156b 2abd 5deb 7c3c 0200 1e3d
000000d0: 9a77 f43c b08d 593d 9ccf 2c3d fb34 8b3b
000000e0: ee37 653c fc7f b93a 294a b73c 6638 603c
000000f0: 2f2d ffbc 58cf b73b 608d 343c 1f1a 5bbc
00000100: 01a7 363c 4fd9 b23c 1c28 193d b9c3 d6bc
00000110: 39c8 3a3d 30da 13bd 24d5 263d 50ef f3bc
00000120: d998 233d 5127 40bd fed3 113d 1ecb bebb
00000130: 3280 72bc 4f34 b5bc 0118 d0bc 5d73 163d
00000140: 67c4 103d 3a21 273d 50a5 553c cf41 a13c
00000150: d272 003d da23 c63c 8aa5 dcbc 3410 123d
00000160: 7ec6 a6bc 10f4 6bbc b3bb 70bd 367f 24bd
00000170: 36a1 d53b dad4 85bc a77a 283d 4af7 2c3d
00000180: d60c bebb 0f69 d3bb 9781 28bc 698a 313d
00000190: fed5 1c3d 137e 77bc cb4e adbb 6327 743c
000001a0: 966a 003d 9eb9 30bd ccf7 273c e0f6 fe3c
000001b0: 8447 f4ba d153 d73c 8f00 e03c 55b1 173d
000001c0: abe1 8ebc ac2a 1c3c 50fd 2dbd 168c 4c3d
000001d0: 2a68 243d ca6c 08bd 420e 963c a444 f93c
000001e0: 1d32 0ebd 0e9f 2fbb 41d6 31bd e24a 0b3d
000001f0: 0ca7 a9bb 7aff 09bd d446 163a d7e0 06bd
00000200: 7e63 f6bc cacd 14bd af41 ca3c 005f d03c
00000210: 6564 2ebd df7d ccbc 58e0 dcbc 8580 0f3d
00000220: ed40 493a bd07 373d 5bff 323d 579a 563c
00000230: 413a 9c3c 0b6a 57bd 5f3a ff3c 9d24 56bd
00000240: 79a0 00bc d2c3 b9bc 1fa9 da3c 901b 023c
00000250: 83e0 863c 9201 8abc 2400 8ebc 50d2 34bb
00000260: 539f 3cbc 1eb4 b3bc d1b3 11bd 49c0 093d
00000270: 7754 3cbd ce1b 4bbd 11af 58bc 376e 34bb
00000280: e55c 273d 6ea2 59bd 77a5 c3bc 3f25 d0bc
00000290: 16a1 29bd b4a4 4e3b 2f26 c7bc d4e8 08bc
000002a0: ecb4 d0bb 5180 073b e352 e9bc 0dce 4bba
000002b0: 01bf c13c 4b05 993c 8ce3 8a3c 9bb9 8f3c
000002c0: 23be aa3c fd22 dbbc 3ff3 ba3c 2739 9cbc
000002d0: 3920 0ebc dca8 a33b de7d 383d f261 063c
000002e0: 1c9c ae3b 59e5 1abd 5e0d 443c 3c0a 82ba
000002f0: a25e 9dbc 06ab cc3c e3a4 adbc db75 d53c
00000300: 88d9 153c 9720 2fbb 1f5d 08bd bd8d de3c
00000310: 5033 c33c a147 15bd fdf4 b7bc 1dd3 62bd
00000320: 1611 fc3c 081b 3dbb fbf2 81bb 72bc b139
00000330: 0b96 1fbd fcd1 62bd 8bf1 01bd c3aa 1fbd
00000340: 479a fa3a 980f abbc 51dc 203c 9399 db3c
00000350: b20c 96bc 9c61 f4bc 1c68 1ebd a164 683d
00000360: 4d81 93ba 5fd0 52bd a9f3 863c 9545 fe3b
00000370: 53b7 8c3c c45c fe3c e7a6 ec3c 3407 03bd
00000380: 702a ef3c ade9 4cbd 32f1 12bd 3f46 da3b
00000390: 9416 25bd 2770 3c3d 315c 113c a1e8 3f3d
000003a0: 605f 0d3d 784a 12bb 2491 f93c c201 ab3b
000003b0: bead 5ebd 0d77 0a3d b565 31bd ce98 2d3d
000003c0: 5cd3 373d c6f7 9ebb 32e7 89bb bf10 2c3d
000003d0: 2e83 61bd 4a80 ccbb d3a2 303d aa35 ac3c
000003e0: ee82 d6bb 9098 46bd 5756 25bd 7727 8cbc
000003f0: d978 1bbd 9113 4cbc afaa a53c 6981 6f3d
-0.0336233 0.03899775 0.026187921 -0.019579839 -0.04011234 -0.019329622 -0.049984217 -0.018139005
0.022851268 0.04602408 -0.021181103 0.0012127786 0.03631296 -0.008227788 0.041282117 -0.03193139
-0.05365643 0.009851502 0.020093087 -0.02008104 0.011615106 -0.009777917 -0.00535215 -0.04376261
0.021767994 0.02963453 -0.047486406 -0.039079707 0.040047336 -0.028124355 -0.04586033 0.045682468
-0.009945583 -0.015306086 0.014599476 -0.045382354 -0.0013784241 -0.032613315 0.044489376 -0.04496673
-0.01907501 -0.024990099 -0.05021648 0.02751859 0.0054128836 0.020407703 0.04923778 0.048302136
0.015444705 -0.041606028 0.015436974 0.038574226 0.029842187 0.05311364 0.04219018 0.004248259
0.013990385 0.0014152522 0.02237423 0.013685321 -0.031149475 0.005609434 0.011020035 -0.013372927
0.011148215 0.021832136 0.037391767 -0.026216375 0.045601103 -0.03609675 0.04073061 -0.029777199
0.03994069 -0.046912495 0.035602562 -0.0058225533 -0.014801072 -0.02211967 -0.025402071 0.036731113
0.035343554 0.04080317 0.013039902 0.0196847 0.0313595 0.024187017 -0.026934404 0.035659984
-0.02035832 -0.014401451 -0.058772754 -0.04016038 0.006519462 -0.016336847 0.041132595 0.04222802
-0.00579987 -0.006451733 -0.010284803 0.04334489 0.038290016 -0.015105742 -0.005288934 0.014901969
0.03135165 -0.04314577 0.0102519505 0.031123579 -0.0018637036 0.026285084 0.027344016 0.03703435
-0.017441591 0.009531658 -0.042477906 0.049938284 0.0401384 -0.033306874 0.018317346 0.030428238
-0.03471576 -0.0026797685 -0.04341722 0.03400696 -0.0051773842 -0.033690907 0.00057326 -0.032929268
-0.030076738 -0.03632907 0.024689524 0.025435925 -0.042576212 -0.024962364 -0.026962444 0.035034675
0.0007677216 0.044685114 0.043700557 0.013098321 0.019070746 -0.052591365 0.031155763 -0.05228101
-0.00785076 -0.022676382 0.026691971 0.007941142 0.016464477 -0.016846452 -0.017334051 -0.0027591176
-0.011512595 -0.021936473 -0.035571877 0.033630643 -0.04597899 -0.049587063 -0.013225333 -0.0027531513
0.040860076 -0.05313342 -0.02388261 -0.025408385 -0.04141339 0.0031531276 -0.0243102 -0.008356292
-0.006369224 0.0020675848 -0.028481906 -0.00077745394 0.023650648 0.018679282 0.016954206 0.017544558
0.020842617 -0.026750082 0.022821067 -0.019070221 -0.008674675 0.004994495 0.04504191 0.008202063
0.0053286683 -0.03781638 0.011966078 -0.0009921263 -0.019210164 0.024983894 -0.021196788 0.026057174
0.009146102 -0.0026722306 -0.033291932 0.027167195 0.023828179 -0.036445264 -0.022455687 -0.055377115
0.030769866 -0.0028855223 -0.003965733 0.00033900473 -0.03896145 -0.055376038 -0.031724494 -0.03898121
0.0019119465 -0.02088146 0.0098181525 0.026806628 -0.0183166 -0.0298317 -0.038673505 0.056736592
-0.0011253745 -0.05146825 0.016473608 0.0077597597 0.01717726 0.031050093 0.028888179 -0.03198929
0.02919504 -0.050027538 -0.035874553 0.006661206 -0.040304735 0.046005394 0.008872078 0.04685271
0.034514785 -0.002232222 0.030464716 0.0052187154 -0.054364912 0.033804942 -0.043309886 0.042382054
0.044879302 -0.0048513142 -0.004208469 0.042008158 -0.055056743 -0.006240879 0.04312403 0.021021683
-0.0065463698 -0.04848534 -0.040365543 -0.017108662 -0.037957046 -0.012455837 0.02022299 0.058473025

mlp.mlp.0.bias f4 [64]
00000000: 7887 9836 f537 67b4 b8a5 6f3a 3b9c 9e3a
00000010: 930e 96ba 5598 de38 4dfc 50ba 7b43 edb5
00000020: b75a a33a 3a35 a9bb 41de 4e38 5152 593b
00000030: 78bc 88ba 9f34 1eb6 c9ae fe39 d2b0 7ebb
00000040: 0171 bdb9 c93e 5bb6 a230 ad3a e9b8 373a
00000050: 2fd0 6a3a 62de 9abb d8ce 13b6 c39e ebb9
00000060: 64a3 1135 1540 193a e030 f738 3334 79ba
00000070: 72b0 8aba 6c93 2eb6 2717 7d35 47f0 f7b9
00000080: 195c 30bb 7ceb 4736 33ab 8739 e96a 2c3b
00000090: 3012 a036 e5b9 99ba 10f8 93bb e213 f136
000000a0: 8a64 1dbb c6f3 c136 e7d9 2136 3707 f5b8
000000b0: 54b5 d3b8 9d9d 6dbb 7488 32b6 30e3 8ab9
000000c0: c721 85b6 8d19 8d3b ddf1 a43a 0507 0cbb
000000d0: 5027 5e39 1edf a1b9 c9d5 91b9 5236 4dba
000000e0: aceb 8438 655a d539 ca7d ccb6 3a81 a936
000000f0: cc43 bab6 4750 02b7 26f8 b5ba 1c5e 62b5
4.5457236e-06 -2.1533909e-07 0.00091418205 0.0012101004 -0.0011448435 0.00010614159 -0.0007972166 -1.7677515e-06
0.0012462948 -0.005163816 4.9321217e-05 0.0033160637 -0.0010432145 -2.3574464e-06 0.0004857688 -0.0038862717
-0.00036133084 -3.2670089e-06 0.0013213346 0.000700845 0.00089574134 -0.004726217 -2.2025106e-06 -0.0004494098
5.4254474e-07 0.0005846036 0.000117869815 -0.00095063745 -0.0010581149 -2.6013831e-06 9.4283536e-07 -0.00047290532
-0.0026910363 2.979038e-06 0.0002587676 0.002630884 4.770489e-06 -0.0011728375 -0.0045156553 7.1846744e-06
-0.0024016225 5.780227e-06 2.4117705e-06 -0.00011683854 -0.00010095039 -0.0036257275 -2.6603493e-06 -0.0002649068
-3.967641e-06 0.0043060244 0.0012584288 -0.0021366489 0.00021186215 -0.00030874548 -0.00027815838 -0.0007828224
6.338148e-05 0.00040693875 -6.0943175e-06 5.0516364e-06 -5.5511246e-06 -7.767295e-06 -0.0013883158 -8.432851e-07

mlp.mlp.1.weight f4 [64]
00000000: 8894 803f 3097 833f e8c5 7f3f a92a 7e3f
00000010: 8967 7d3f c0af 7d3f 157b 833f cb35 803f
00000020: f52f 7e3f a599 803f 80db 7d3f 363b 813f
00000030: 4ca3 803f 2ca7 7f3f 67b7 7e3f 212d 813f
00000040: 9117 803f 37cc 7b3f 3970 7e3f 0e82 7e3f
00000050: 3ab4 7c3f 80ec 7d3f d1b0 7f3f 5908 7e3f
00000060: 4452 7e3f 63e5 7d3f d020 7e3f 6a0f 7e3f
00000070: aeae 7c3f d490 7c3f fd31 813f ae67 803f
00000080: e05f 833f 2304 7b3f ea39 813f 6ca4 803f
00000090: 4cc6 7f3f 5533 7c3f 5548 813f 730c 7d3f
000000a0: 9acc 7f3f 48be 803f 0d9a 813f 08eb 7c3f
000000b0: 1164 7e3f e08f 7c3f 4680 833f c3fe 7f3f
000000c0: 681d 803f a8f4 833f 8a5b 833f 655c 7e3f
000000d0: 4a6e 803f 2676 7c3f 0cea 7e3f 10ce 7e3f
000000e0: 4e8a 813f 1581 7e3f 2f87 7e3f 82a9 7d3f
000000f0: 60c8 7f3f 3b1d 813f 9cc7 803f 6126 803f
1.0045328 1.0280514 0.99911356 0.99283844 0.9898611 0.990963 1.0271937 1.0016416
0.99291927 1.0046889 0.99163055 1.0096195 1.0049834 0.9986446 0.994986 1.0091897
1.0007192 0.9835848 0.9938999 0.994172 0.98712504 0.99188995 0.99879175 0.9923149
0.9934428 0.9917814 0.9926882 0.9924227 0.9870404 0.9865849 1.009338 1.003164
1.0263634 0.9805319 1.0095799 1.0050178 0.9991195 0.98515826 1.0100199 0.9884712
0.9992157 1.0058069 1.0125138 0.9879613 0.9937144 0.98657036 1.0273521 0.9999811
1.0008974 1.0309038 1.026231 0.9935973 1.0033658 0.9861778 0.9957588 0.99533176
1.0120332 0.99415714 0.99425024 0.99086773 0.99915123 1.0087045 1.0060916 1.0011712

mlp.mlp.1.bias f4 [64]
00000000: fc37 013c 5ef1 9b3c 1ba6 553c e142 e43b
00000010: c3d7 06bc 0a35 7f3b 7943 8f3c 0302 093c
00000020: 48f0 f1bb 5804 873c 869c 0bbc 552c 013c
00000030: fced ae3c 3a62 a63b eebe 0dbb 2371 b33c
00000040: 3933 a73c f4e9 e4bb f2e6 ea3b 8212 84bb
00000050: 3371 13bc c22e 96bb 9a9c d93b 54a8 d8bb
00000060: adbd 13bb d298 0bbb 7455 823b d1d8 d9ba
00000070: 0345 c0bb 6a1d 34bc d315 5cbb bccb 553c
00000080: 1c1f cf3b 4c60 55bc a234 c43c 64e8 94bb
00000090: 3562 0a3c c416 20bc 03f0 8c3c 0457 a5bb
000000a0: 2eda 0e3c 1648 b13c 5eda c33c 6c92 00bc
000000b0: 0b60 a63b 58d4 90bb c70a e73c 14da 54ba
000000c0: 93a2 8d3b ab16 f63c 95c6 aa3c 59b7 78bb
000000d0: ec41 73bc a272 75bc ff12 8f3a 0b1a 5bbb
000000e0: 8aa9 4a3c d774 893c c02e 42bb bf60 703c
000000f0: 62c1 2e3c 2a76 883c 6c05 9d3c 3b4b 573b
0.007886883 0.019035991 0.013040091 0.0069659804 -0.008230153 0.0038941526 0.017488228 0.008362296
-0.00738338 0.016481563 -0.008521205 0.007884105 0.021353714 0.0050776275 -0.0021628696 0.021904534
0.020410167 -0.006985897 0.007168644 -0.0040305266 -0.008999157 -0.0045832107 0.006640983 -0.006611863
-0.0022543475 -0.0021300805 0.003977472 -0.0016620402 -0.005867602 -0.010993341 -0.0033582344 0.013049062
0.006320847 -0.013023447 0.023950879 -0.0045443047 0.008446266 -0.009771053 0.01720429 -0.0050457735
0.00871901 0.021640819 0.023907837 -0.00784741 0.005077367 -0.0044198446 0.028203381 -0.00081196544
0.004322359 0.030040106 0.020846644 -0.003795108 -0.01484726 -0.014980944 0.0010915695 -0.003343227
0.012369523 0.016779346 -0.0029629916 0.014671504 0.010666223 0.016657908 0.019167624 0.0032851237

mlp.mlp.1.running_mean f4 [64]
00000000: d953 803c b428 463c 52a4 50bd 3d6c 523b
00000010: 2119 adbc 8d28 7f3d 671f d73c f06d 56bd
00000020: 7b2c 153d c005 0bbd de07 6abd 6a31 303d
00000030: a43c f4bc e588 1e3c 9785 923b 1c3b d9bb
00000040: 954c 8abc 079b 24bc 6cf7 0a3d 4799 0bbd
00000050: f841 e73c ff98 933c da8d 7bbc 60e3 893c
00000060: 8f34 893d ab49 fdbb 2bfc 5abc f64d cebc
00000070: ba08 0abd ef56 a13c 2465 573b 6004 9e3c
00000080: 485f 963c 742b 1ebb f4f9 443c f791 c4bc
00000090: dad6 bd3a 30dd 773b df97 83bc f5fb 72bd
000000a0: fcaf 603c 83d1 c53c d029 5cbd 2dea 833c
000000b0: 84af 9cbd a8d6 06bc 4ab5 e73c 0ec8 0e3d
000000c0: 16ae 6d3d f14a e8bc 09d9 2d3d e0b0 e73c
000000d0: 3fc1 5a3d 7d21 fb3c 372e ef3c e14f 383b
000000e0: 4ae8 683c 8c0b 2f3b 437d 1fbd c45c 35bd
000000f0: c5e9 043d 21c9 bdbc cced debc e6e8 2d3b
0.015664982 0.012094665 -0.050937958 0.0032107972 -0.021130146 0.06229453 0.026260091 -0.05235094
0.036419373 -0.03394103 -0.05713641 0.043015875 -0.029814072 0.009676193 0.0044714916 -0.006629361
-0.01688222 -0.010046727 0.033927366 -0.034081724 0.028229699 0.01801729 -0.015353644 0.016832054
0.06699478 -0.007729729 -0.013365786 -0.025183659 -0.03369973 0.019694773 0.003286668 0.019289196
0.01835598 -0.0024134787 0.012022484 -0.023995383 0.0014483586 0.0037821047 -0.016063629 -0.059322316
0.013713833 0.024147755 -0.053750813 0.016102875 -0.076506644 -0.008229889 0.028284688 0.034858756
0.05802735 -0.028356047 0.04244331 0.028282583 0.05340695 0.030655617 0.029196842 0.0028123783
0.014215538 0.0026709763 -0.03893782 -0.04427792 0.032449502 -0.023167195 -0.027213 0.0026536523

mlp.mlp.1.running_var f4 [64]
00000000: 501f 203b 78a4 1c3b 1312 b23b af6c 663b
00000010: 421e 623b 5ffd a33b 32a5 663b 1646 963b
00000020: df92 ad3b 9e70 e33b 204d d93b 7b87 293b
00000030: 444b 1b3b 2214 073b bd7d 1b3b b6c1 8b3b
00000040: 9831 453b 27b7 2d3b b6e4 923b 2169 9c3b
00000050: bf17 623b 2cf0 9e3b 0202 523b 63a3 153b
00000060: 08a6 ea3b 98d1 b53a 666d 0f3b c020 a73b
00000070: 1d81 893b ed82 3f3b 4283 413b 6e28 463b
00000080: c6e7 2c3b ca37 3a3b f781 433b f1a6 913a
00000090: 99fd 013b 7e80 4e3b 882a e73a 46f4 533b
000000a0: a8a2 463c fce2 ee3b 35f4 e53a dd68 293b
000000b0: 9f48 c83b 1420 c13b a2f9 383b 4824 de3a
000000c0: 694a 9a3b 0fe1 2f3b 61d9 9f3b a1f0 783b
000000d0: 0994 c53a 30b5 833b 4767 b03b aff5 973b
000000e0: 0a31 af3b d1ce 443b a1af 7b3b 301d 813b
000000f0: 010f 4b3b c87e 163b b90a 033b 9249 a13b
0.0024432726 0.0023901742 0.0054342835 0.0035159995 0.0034502898 0.0050045694 0.003519368 0.0045859916
0.0052970494 0.0069409152 0.0066315085 0.0025868106 0.0023695985 0.0020611365 0.002372607 0.0042650355
0.0030089375 0.0026506872 0.004482831 0.0047732745 0.0034499017 0.004850408 0.0032044654 0.0022832982
0.0071609057 0.0013871668 0.0021885275 0.0051003397 0.0041962997 0.0029222325 0.0029527699 0.00302365
0.0026383265 0.00284146 0.0029832104 0.0011112374 0.0019834994 0.0031509693 0.0017636577 0.0032341643
0.012123741 0.0072902422 0.0017544093 0.0025849857 0.0061121727 0.0058937166 0.0028224965 0.0016948069
0.0047085774 0.0026837026 0.0048782085 0.0037985223 0.0015074025 0.004019402 0.0053834054 0.004637442
0.005346422 0.0030030499 0.0038404244 0.003940247 0.0030984285 0.002296375 0.0019995405 0.0049221003

mlp.mlp.4.weight f4 [64, 64]
00000000: 0e78 c1bc 1da1 d63d d71c 3b3d d598 5ebb
00000010: 6000 e83d 733a 713d fa05 7b3d eac6 a7bd
00000020: c18d 83bc 9a31 a8bb a86b 9cbc 36e1 69bd
00000030: f63e 01be 7c89 a83d 1bde 3dbc 2e9c 80bd
00000040: f38c b03d edab 4b3d 8d56 dfbd 3914 083e
00000050: b5b0 b2bd db12 adbd c603 05bd 9e2a 7c3d
00000060: 0463 95bd ff1e 243d c003 9c3d 2de1 8fbd
00000070: e1e8 143d e96a 7dbd 5ef7 963d 083a e4bd
00000080: 5c42 df3d e4fe 763d 9c00 973d 2fe2 c33d
00000090: 62d1 11bd 7026 43bd b3b4 be3b 3e40 0ebe
000000a0: 9d43 cd3d ff4c 7d3d b67b 5fbd 1d72 543d
000000b0: cee3 4a3d d517 d5bd 8cf8 51bd d0f5 c8bd
000000c0: 6e3e be3d 9d44 a9bc 26c4 7b3c c83f e4bc
000000d0: 890b 603b 9bd0 b73d a373 9cbd 5572 86bd
000000e0: 28e7 b4bd a85e e7bd 7c10 0e3d bec8 44bb
000000f0: 27ef 5f3c 3f6f 4bbd c259 9bbd 8890 8e3c
00000100: 5500 29bd 4306 d83d 4ef9 273d 4e67 4abd
00000110: f0c7 ef3d 03ce de3d c965 c3bd 29f2 aabd
00000120: c111 123c 89ae a0bc e0d0 873d a0e8 0b3d
00000130: 3740 2fbd 04c7 48bd f0f3 c33d 07cc b73b
00000140: b7af 883d 8e45 8a3d f056 753d deb5 4ebd
00000150: 7aef 9c3d 59b8 21bd a3ad 00be d8ce f13c
00000160: 7ace 27bd c2ad 7fbd 672b ae3c 8de5 a8bd
00000170: 2ff6 763d 8abd ca3d 2f84 c9bd c860 5dbd
00000180: 1861 d53d e0f3 3c3d dd01 be3d d803 a43d
00000190: 276f 3abd 7ebf 8f3d c38c 033d 77ae c3bc
000001a0: 001f 78bd 0203 363d bc9d 6b3d 6ade 023e
000001b0: c514 913d b154 253b 784a 053e f1b8 623d
000001c0: 2c85 cd3c 6bfc ff3d f5be a33d 3562 06bd
000001d0: 5f24 df3d 6616 6fbd dda4 d4bc b5ea 803c
000001e0: e69c a93d a5a4 0a3d 6001 893c 62a2 933a
000001f0: e16a 033d 0d5d e63b 3984 5bbd 6499 f03d
00000200: dbde a4bc cf13 2cbd 804e 323d 51e7 b2bd
00000210: d22b a4bd 0eb5 413d 0282 5c3c 7321 c4bc
00000220: 4565 4c3d 988a c83c e659 bd3d 2fad 94bd
00000230: 9eb9 bc3d 2d2c 953d 8eb6 593c 30bd 74bd
00000240: 878f 5f3d 5f6e babb 0992 adba 0dd6 333d
00000250: 7a4d e43c 6fe9 2dbd 502e 823c c7bf 97bd
00000260: 8861 2d3d 99a6 80bc 71cc 1c3d 7ae6 d7bc
00000270: 1684 9e3d ae39 d43d c516 f13b 4a1e f4bd
00000280: aa32 093e 8363 353d c049 d53d 3545 aebd
00000290: 2fc4 5fbd 063d 963b 8bda 02be 7744 523d
000002a0: 2bb2 db3d 5b4a ecbd cae4 c2bc 8d15 c63c
000002b0: dacc 9d3d 1358 d9bd 6271 d93d 5319 dbbd
000002c0: e180 233d 7517 ba3d d085 81bd 2969 d93d
000002d0: b47e 9cbc 2793 f3bd be2d f63d 6948 4ebd
000002e0: 240b 043e 3a39 20bd 8038 97bd 5fff fabd
000002f0: 3eae cabd 6270 903d 3e1a c3bd 4ad7 9ebd
00000300: 97df 70bd 074d 06be 2edf d23c af83 70ba
00000310: 71cc 993d b6f6 cf3d 9f2f 3fbd f9c9 e43d
00000320: 2d72 79bd c121 303d 648e d8bd eded 723d
00000330: 5a5a b03d 5cad ce3d d011 bd3d b526 5b3d
00000340: b2de ffbb 29a0 debd 56ad 5cbd 3dfb 0cbd
00000350: 268c bb3d 0982 2bbd a446 d0bd bf79 0b3e
00000360: 8024 41bd c650 723d 18f1 f0bc f709 eabd
00000370: 868c aabc feca 243d 9399 0b3c ec0f 323d
00000380: da3a 7c3d 741c 4a3d e217 613d 5b32 5d3d
00000390: 4d1e b13d 040c e6bd 1856 9fbc c6cd 05bb
000003a0: 5b56 d1bd 2a63 463d 63d3 db3d 11d0 933d
000003b0: 5839 a73c 4dc8 593d 7334 a73d 2bd1 af3d
000003c0: c71e ebbd ae6d a93d 82ec 9cbd 7012 40bd
000003d0: 7027 b33d 80d3 513d 137b b5bd 256f c93d
000003e0: c646 9ebd 8dbb eabc 60fc f83d 7e45 e6bc
000003f0: a5b4 0f3d 9be1 f03d 8884 a4bd f915 b23d
-0.023616817 0.10479949 0.0456818 -0.0033965607 0.113281965 0.058893632 0.061284997 -0.08192237
-0.016058804 -0.005132866 -0.019094303 -0.057099544 -0.12621674 0.08229348 -0.011588599 -0.06279789
0.08620634 0.049724508 -0.1090518 0.13288964 -0.087251104 -0.08450862 -0.0324743 0.06156408
-0.07294276 0.040068623 0.07617903 -0.07025371 0.036354903 -0.061869536 0.073714 -0.11143881
0.10901329 0.060301676 0.07373163 0.095646255 -0.035600074 -0.04764408 0.005819881 -0.13891694
0.10022662 0.061841007 -0.05456134 0.05186664 0.049533658 -0.10404936 -0.051262423 -0.0981251
0.09289251 -0.0206626 0.01536659 -0.027862445 0.0034186563 0.08975335 -0.076392435 -0.06564776
-0.08833152 -0.11297351 0.03468369 -0.0030026878 0.013667858 -0.04966664 -0.07585479 0.017402902
-0.041260082 0.10548069 0.04100924 -0.049414925 0.11708057 0.10879137 -0.09540898 -0.0834697
0.008915366 -0.019614475 0.066316366 0.034157395 -0.04278585 -0.04901792 0.09568012 0.0056090388
0.0667414 0.06751548 0.059897363 -0.05046641 0.07662864 -0.03948245 -0.12566237 0.029517576
-0.040968396 -0.062421568 0.02126093 -0.08246908 0.060293373 0.09899433 -0.09839665 -0.054047376
0.1041891 0.046131015 0.09277699 0.08008546 -0.04551616 0.07018946 0.032116663 -0.023886902
-0.06057644 0.044436462 0.057523474 0.12780157 0.070840396 0.0025227482 0.13016689 0.055352155
0.025087915 0.12499317 0.079954065 -0.0328085 0.10895609 -0.05837097 -0.02595752 0.015736917
0.08281879 0.033848424 0.016724288 0.0011263604 0.03208435 0.0070301355 -0.053592894 0.11748007
-0.020125797 -0.04201108 0.043531895 -0.08735526 -0.080161706 0.047291808 0.013458731 -0.023941731
0.049901266 0.02448015 0.092456624 -0.07259595 0.09215091 0.072838165 0.013288153 -0.059750736
0.054580238 -0.005689427 -0.0013242374 0.043905307 0.027868975 -0.042458948 0.015891224 -0.074096255
0.04232934 -0.01570444 0.038280908 -0.026355017 0.07740037 0.10362564 0.0073574507 -0.1191984
0.13398233 0.044284355 0.10414457 -0.08509294 -0.054630455 0.0045849113 -0.1277868 0.051334824
0.10727342 -0.1153762 -0.023790736 0.024180198 0.07705088 -0.10612502 0.10617329 -0.106981896
0.03991783 0.09086505 -0.06324351 0.10615761 -0.019103386 -0.118933015 0.120204434 -0.050362024
0.12894875 -0.039117076 -0.073838234 -0.122557394 -0.09896515 0.07052685 -0.0952649 -0.07755907
-0.058806982 -0.13115321 0.025741186 -0.0009174896 0.07509697 0.10154478 -0.046676274 0.11171336
-0.060899902 0.04300094 -0.10574034 0.059308935 0.08610983 0.100916594 0.09231913 0.05350371
-0.00780853 -0.10870392 -0.053876244 -0.034419287 0.091575906 -0.041872058 -0.10169724 0.13620661
-0.04715395 0.059159063 -0.029411837 -0.11427682 -0.02081896 0.04023265 0.008520502 0.043472216
0.061579563 0.04934354 0.054954417 0.0540031 0.086483575 -0.112327605 -0.019450232 -0.002041684
-0.10221549 0.048434414 0.10733678 0.0721742 0.020413086 0.053169537 0.08164301 0.085848175
-0.1148048 0.08272873 -0.07662298 -0.046892583 0.087477565 0.051227093 -0.08861365 0.09835652
-0.07728343 -0.028653884 0.12157512 -0.028109308 0.035084385 0.11761781 -0.08033091 0.08695597

mlp.mlp.4.bias f4 [64]
00000000: 07f1 25bd 26fe bdbc 0667 163d 4436 26ba
00000010: f29d ad3c 32f1 1c3d e54b 8b38 f8b0 123d
00000020: 811a 81bc 3502 813c 5f61 ed3c 8e61 c6bb
00000030: 9947 9c37 1888 b9b5 a7b4 6cb6 f935 a83c
00000040: cec5 4b3c 0d6e fa3c 8cc3 abbb d53e b0b7
00000050: c191 92bc f18f c63c a47f 3fbd 1dec 47bb
00000060: e3eb 07b6 0764 d238 87ab 2cbd 7fce 123b
00000070: 05d5 4bbb faac eab8 3285 2d3d 4451 23bb
00000080: be63 e7bc 0e99 0ebd e445 f8bb b8e8 84b5
00000090: 8dc8 e2b5 94e5 4fbd 1dce f0bc 91e1 4d3b
000000a0: 8a09 85bc 0866 22bd e4d7 a13c f252 e03c
000000b0: a106 4abd cb1e b5bc 11c9 433a 067a 18bd
000000c0: 19cc 853c 40a8 293a c4f3 4d3d ec81 cd3c
000000d0: b389 4b3b d4fd a234 16a8 543d 1b82 6fb9
000000e0: 6c5c 20bb 886e ac3c 3956 73b5 2bc8 f13a
000000f0: ba1f 37bd daa9 933a 927b 9cba 47db d236
-0.040513065 -0.023192476 0.036719345 -0.00063404837 0.021193478 0.03831596 6.642173e-05 0.0358133
-0.015759708 0.015748123 0.028977094 -0.00605411 1.862999e-05 -1.3823183e-06 -3.5271894e-06 0.020533549
0.012437297 0.030570054 -0.005241817 -2.1010093e-05 -0.017891767 0.024238558 -0.046752587 -0.0030505725
-2.0253872e-06 0.00010032212 -0.04215577 0.0022400913 -0.0031102311 -0.00011190209 0.042363353 -0.0024920264
-0.028245803 -0.034813933 -0.007576691 -9.902496e-07 -1.689668e-06 -0.050756052 -0.029395157 0.0031414966
-0.0162399 -0.039648086 0.019756265 0.027383301 -0.049322728 -0.02210941 0.0007468621 -0.037225746
0.016332673 0.00064719096 0.0502813 0.025086366 0.0031057417 3.0359536e-07 0.05191811 -0.00022841284
-0.002446915 0.0210488 -9.0650025e-07 0.0018446496 -0.04470799 0.001126583 -0.0011938682 6.284015e-06

mlp.mlp.5.weight f4 [64]
00000000: ed09 7a3f f077 7b3f 3b07 7a3f 1fb6 833f
00000010: 17c7 833f 1ef3 833f 53ec 833f 5691 833f
00000020: 80b6 793f 937b 833f fc85 843f 569d 833f
00000030: 326f 833f d053 7c3f 6696 833f 9db2 833f
00000040: 3c5e 843f afa2 863f f7ce 833f 28a8 833f
00000050: 67e1 853f 9f94 843f e377 833f 50f9 833f
00000060: 47e6 833f 4f63 843f a96a 833f 150a 863f
00000070: 5b9e 813f 8710 7a3f 6cfb 833f 513d 7b3f
00000080: 9a3b 7a3f d7ba 7a3f 7197 843f 859a 7a3f
00000090: 98f2 7a3f a5f9 833f 91fe 833f c9c3 833f
000000a0: d2a1 833f cbff 833f 8dbe 7a3f ed5c 833f
000000b0: a3f9 833f 6985 833f cb1b 7a3f 7aa8 833f
000000c0: 0d4f 843f 7d3d 853f 1837 853f 19a7 833f
000000d0: e9ce 833f 790a 843f 5b3f 843f 12cb 793f
000000e0: e074 833f cb4c 7a3f 9f6c 833f ea8e 833f
000000f0: 879b 7a3f e7b0 833f 41c5 793f 218a 833f
0.97671396 0.98229885 0.9766728 1.0289954 1.0295132 1.0308568 1.0306495 1.0278728
0.975441 1.0272087 1.0353389 1.028239 1.0268309 0.9856539 1.0280273 1.0288883
1.0341258 1.0518397 1.0297536 1.0285692 1.0459412 1.0357856 1.0270962 1.0310459
1.030465 1.0342807 1.0266925 1.0471827 1.0126451 0.9768147 1.0311103 0.98140436
0.97747195 0.97941345 1.0358716 0.9789203 0.9802642 1.031056 1.0312063 1.0294124
1.0283759 1.0312437 0.9794701 1.0262734 1.0310558 1.0275089 0.9769866 1.028579
1.0336624 1.040939 1.0407438 1.0285369 1.0297519 1.0315696 1.0331835 0.97575486
1.0270042 0.97773427 1.0267524 1.0277989 0.97893566 1.0288361 0.9756661 1.0276529

mlp.mlp.5.bias f4 [64]
00000000: 6c7e cfbc e3ab 90bc 4989 c7bc 7663 f03c
00000010: a74a fc3c d3c0 013d 133c fd3c f7a7 f13c
00000020: 3f6c d7bc cf8f f03c 756f 1a3d 267c ef3c
00000030: b7cf ea3c 1b40 6fbc e056 f53c fda7 ef3c
00000040: 76ef 0f3d 4de5 5c3d d31d fd3c 755e f43c
00000050: a1fb 493d e6a2 153d a347 ed3c 129f 063d
00000060: 3cc2 033d d204 0d3d faf9 e33c f248 4b3d
00000070: 68bd 7a3c d4d9 c2bc 973b 063d b915 9dbc
00000080: 76d4 c1bc 3fdb aebc a61a 133d 9b26 b3bc
00000090: 1232 adbc c3e5 053d 8bce 023d fee3 ff3c
000000a0: 3927 f53c 34a9 033d 3a74 afbc 5c2a e83c
000000b0: 3449 fb3c acae eb3c f0b0 c8bc 11fa f53c
000000c0: 9e2c 0f3d a784 2a3d 33be 2e3d 2b48 f23c
000000d0: e4b6 fd3c 323e 053d c210 0d3d 0b3c c5bc
000000e0: e5a7 e73c 84f3 bdbc ac2b ec3c ee3e f23c
000000f0: 6a5e bbbc 0e8b f23c 7540 cebc 3987 ea3c
-0.025328837 -0.017660087 -0.024357455 0.029344302 0.030797316 0.031678032 0.030912435 0.029499037
-0.026296733 0.029365448 0.03770395 0.029234003 0.0286635 -0.014602686 0.029948652 0.029254908
0.035140477 0.053929616 0.03089801 0.029830197 0.049312238 0.036532305 0.028964823 0.032866545
0.03216766 0.034428425 0.027829159 0.049630113 0.015303947 -0.02378551 0.032771673 -0.019175397
-0.02366088 -0.021344779 0.035914086 -0.021868994 -0.02114204 0.03268982 0.031935256 0.031236645
0.02992593 0.032143787 -0.021417726 0.028340511 0.030674554 0.028769813 -0.024498433 0.030026468
0.03495466 0.041630413 0.042661857 0.029575428 0.030970998 0.032530017 0.03443981 -0.024076482
0.0282783 -0.023187406 0.028829418 0.029571023 -0.022872169 0.029607322 -0.02517722 0.028628932

mlp.mlp.5.running_mean f4 [64]
00000000: a28b 00be d416 073f b397 533d c0dc a53e
00000010: 6941 323d 1f0d 24be 03a3 a33e 105c 7dbd
00000020: a9d2 c5bd 4805 d53e 59fd c5be eaf6 3c3d
00000030: 7ca3 263e 3528 f4be a6d3 133e 1fbf e03e
00000040: b0f9 afbe ba60 84be 708b 13be 6dbd 1f3e
00000050: b4b3 64be b4a0 9dbe 3d96 0bbe 080f 84bd
00000060: 4d1e 2f3d ad08 283e 34d0 553e e2e5 51bd
00000070: 5d36 c5be 2283 873e e3e4 453e ff8f e73e
00000080: aa2f ad3d 4333 0b3e 2061 83be 726b a1be
00000090: f4de 973e 8245 4bbe 91bf 8a3e 869d a43b
000000a0: 9475 913d c477 8cbd 38ce c33d d90a 203d
000000b0: ac75 7bbe 1d1e 8bbc d391 493d 9886 66be
000000c0: c360 c03e 56b5 8dbd 4bcd adbd 4efe 963d
000000d0: c2c7 63be d147 b13d 82de e03e b921 4d3e
000000e0: d3a0 0f3e 5ea9 dbbe 49ab 70bd 56ba 9c3e
000000f0: c3d0 acbe dd6b 883e 30ff 47be 2549 17be
-0.12553266 0.5276921 0.051658344 0.3239498 0.04351941 -0.1602063 0.31960306 -0.061855376
-0.09659321 0.41605592 -0.3866985 0.046133913 0.16273302 -0.47686926 0.14436206 0.43895814
-0.34370184 -0.25855047 -0.1440866 0.15599604 -0.22334176 -0.3078667 -0.1363153 -0.064481795
0.042753506 0.1640956 0.20880204 -0.051244624 -0.38518038 0.26467234 0.19325595 0.45227048
0.08456357 0.13593774 -0.25660038 -0.31527287 0.29662287 -0.19850734 0.2709928 0.005023661
0.071025044 -0.06858781 0.095608175 0.039072845 -0.24556607 -0.016982133 0.049211334 -0.22512281
0.37573823 -0.06919353 -0.08486422 0.073727235 -0.2224417 0.08656276 0.4391976 0.20032395
0.14026193 -0.42902654 -0.0587571 0.30610913 -0.33753023 0.26644793 -0.1953094 -0.14773996

mlp.mlp.5.running_var f4 [64]
00000000: ecb9 543e 2faa 303e c9dc 9a3e b141 343e
00000010: 0c74 633e cbb9 233e ce1a 863e 5c2d 773e
00000020: 5c50 943e 3c86 ab3e 1ed5 b03e c49e 613e
00000030: efb3 913e b1b6 713e 872f aa3e 32d1 0c3e
00000040: b4a8 5d3e b8be 0f3e f859 743e afa9 443e
00000050: 44eb 363e 7bc0 373e dfd5 b23e ec62 283e
00000060: 1236 5f3e 57aa fe3d f16c 773e fa8a 113e
00000070: 30e8 213e 1c80 4e3e 0d58 803e 871c 343e
00000080: 7435 a23e 2741 163e 64d0 013e 56a8 5e3e
00000090: 5d9e 4f3e a4ea 8e3e 80c6 9e3e 5407 293e
000000a0: ed79 cd3e 9cf3 4b3e a6c7 9d3e 613a a23e
000000b0: 4aae 643e f142 543e 19cf 863e 59cc 4c3e
000000c0: 2e1a 0c3e 02f5 253e adc8 183e 7889 233e
000000d0: 7995 453e 9fe7 803e 8702 243e e9f1 9c3e
000000e0: 650a f23e ee48 6f3e 46c5 9c3e de37 8a3e
000000f0: 40ed 733e 2e23 533e bcef a83e f93b 943e
0.20774049 0.1725242 0.3024657 0.17603184 0.22212237 0.15988843 0.26192325 0.24138397
0.2896756 0.3350085 0.34537596 0.2203322 0.2845759 0.23604847 0.33239385 0.13751677
0.21646386 0.14037597 0.23862445 0.19205354 0.17863184 0.17944519 0.34928796 0.16443986
0.2179797 0.124348335 0.24162652 0.14213172 0.15811229 0.20166057 0.25067177 0.17589007
0.31681406 0.14673291 0.12677151 0.21743903 0.20275255 0.27913392 0.31010818 0.16506702
0.40132084 0.19917148 0.30816382 0.31685165 0.22332111 0.20728661 0.26329878 0.19999827
0.13681862 0.16206744 0.14920302 0.15970409 0.192953 0.25176713 0.16016589 0.30653313
0.47273555 0.23367664 0.30619258 0.26995748 0.23820972 0.20618889 0.32995403 0.28952006

mlp.mlp.8.weight f4 [1, 64]
00000000: 378d 8dbd 9272 95ba b176 0fbd 8e88 0e3e
00000010: 6acc 093e f86a e33d 3a00 cc3d 9782 f73d
00000020: 6ee9 94bd 94fa bc3d 84bd 343d c466 113e
00000030: 1d41 183e dfdd ce3b bce8 e13d 19b3 dd3d
00000040: 275b 663d 1199 da3c 22a1 b73d 7058 c33d
00000050: 5a4c f33c 0059 713d c050 173e efa6 5f3d
00000060: 13e2 913d 4da0 6e3d 3d7a 043e f216 cd3c
00000070: 2728 9b3c f424 c8bc 5f90 823d ae51 99bb
00000080: 4ae9 49bd 4d0e 50bc 9ac4 823d f320 43bc
00000090: 7e54 73bc 1045 9d3d 8596 b03d 239f c33d
000000a0: 6bab 1b3e c0f6 ab3d 0bd0 6abc aa40 173e
000000b0: a4f2 113e a705 033e 5cbe 51bd 60e8 c33d
000000c0: 954f 4b3d e7ea 303d 2ae9 253d f964 053e
000000d0: 573f d23d 3bef b73c b04e 453d 5e25 35bd
000000e0: f4de 173e 5ddc 98bc 892d 0a3e 1d44 b03d
000000f0: afd1 93bc ec35 ec3d a08a 2fbd 37a2 073e
-0.069117 -0.0011401942 -0.035025302 0.13919279 0.13456884 0.11104387 0.09960981 0.12085455
-0.07271086 0.092274815 0.04412605 0.14199358 0.14868589 0.00631307 0.11030719 0.10825176
0.056239273 0.026684316 0.089662805 0.095383525 0.029699493 0.058922768 0.14776897 0.05460256
0.07123198 0.058258343 0.12937255 0.025035355 0.018940045 -0.024431683 0.06375193 -0.0046789264
-0.049294747 -0.012698722 0.06385155 -0.011909711 -0.0148516875 0.07679188 0.08622459 0.09551837
0.1520211 0.08396673 -0.014331828 0.14770761 0.14252716 0.12795125 -0.05120693 0.095658064
0.049636442 0.04319277 0.040505566 0.130268 0.10265987 0.022452941 0.048170745 -0.04422509
0.14831144 -0.018659765 0.13493933 0.086067416 -0.01804432 0.11533722 -0.042856812 0.13245474
