model_lr_0.0005/dfm_epoch_50.pt (torch, 151559 bytes, 15 tensors)

embedding.embedding.weight f4 [98, 75]
000000 7d 22 dc 3d c6 c6 45 bd 96 8a 4a be f1 2b a5 3d
       0.107487656 -0.04828527 -0.19779429 0.08065022
000010 58 c2 e3 bd d9 34 23 3d 3e 07 d7 bd e9 4d 4c be
       -0.111210525 0.03984532 -0.10499428 -0.19951595
000020 6e eb 1a be c4 02 4b be f9 33 3a 3d 50 84 02 3d
       -0.15128872 -0.19825274 0.04545972 0.031864464
000030 45 34 4d 3d 95 60 de 3d c5 45 82 3b 49 f3 08 3c
       0.050098676 0.10858265 0.0039756023 0.008358785
000040 32 f9 ff 3c 9d 21 77 3e ca 40 43 be e5 4c 77 3e
       0.031246755 0.24133916 -0.19067684 0.24150427
000050 d6 29 25 be e6 df 48 3e 5b a2 16 3e f6 82 7c be
       -0.1612924 0.1961666 0.14710371 -0.24659333
000060 8a 58 8b 3b 37 a6 17 be 4d a3 16 bd eb 27 53 be
       0.004252498 -0.148095 -0.03677683 -0.20620696
000070 ff 7c 82 3d 25 3b 82 3e 7e 4e 07 3e e9 7d e1 bd
       0.06371497 0.2543575 0.13213536 -0.110103436
000080 1e ad d9 3d 14 96 0f 3e d2 44 81 3e 64 0a 36 bd
       0.106287226 0.14022094 0.25247818 -0.044443503
000090 ef 6b dd 3d be ad 3a 3d f7 85 00 3e 16 88 81 be
       0.10811602 0.04557585 0.12551104 -0.25299138
0000a0 07 fc 42 be bd a6 73 3c f7 bd 65 be 6b 39 bc bd
       -0.19041453 0.0148712965 -0.22435747 -0.09190639
0000b0 ba 53 87 be 3b ad 99 bd 52 fa 1a 3c ed f9 4e 3d
       -0.26431066 -0.07503744 0.009459095 0.050531317
0000c0 d0 9c 5b bd 00 7d b1 bd 6d fe 3c be 85 12 6b 3e
       -0.053616345 -0.0866642 -0.1845643 0.22956283
0000d0 f1 c4 92 be fe 81 22 3e 95 ff e2 bd ce 75 80 3e
       -0.2866588 0.158699 -0.11083905 0.25089878
0000e0 4a f8 57 bd e4 0b 45 3e f7 7e 2a 3d 7b 0c 85 3d
       -0.05272702 0.19242817 0.04162499 0.06496521
0000f0 ad 13 b8 3c b1 5f 3e bc c3 74 7e 3e b1 ed 69 be
       0.02247032 -0.011619494 0.24849229 -0.22844578
000100 56 0c a5 bd 03 05 81 bd 4d 4a 5c 3e e7 06 f0 3d
       -0.080589935 -0.06299784 0.21512718 0.117200665
000110 51 f7 c4 bd 58 31 28 3e 9f 51 25 be 02 c9 a8 bd
       -0.09617484 0.16425073 -0.16144417 -0.08241464
000120 e4 40 2a 3e 07 84 8b 3c ec ee 87 bd 9c 6c 3e 3d
       0.16626316 0.017030729 -0.066373676 0.046490297
000130 8e 20 9e 3d 70 53 bb bc b8 82 e4 3d bb ae 38 be
       0.07721053 -0.022866935 0.11157745 -0.18035404
000140 e6 0e 74 3e 4b 2c 02 be c2 52 3b be da 66 38 be
       0.23833808 -0.12712209 -0.18293288 -0.18007985
000150 c4 1e 1b be 27 be f6 3d 4d 36 c5 ba a3 90 37 3d
       -0.15148455 0.120479874 -0.001504609 0.04481567
000160 92 46 d3 bb ec 48 5e 3e e7 91 a3 3d 03 cd 7a be
       -0.0064476216 0.21707505 0.07986813 -0.24492268
000170 48 ce 43 39 e4 58 8b be b5 f9 58 bd 8c 2d 05 be
       0.00018673495 -0.27216256 -0.052972514 -0.13005656
000180 5e de de bb c2 45 ab bd 81 76 ce bd 98 20 0f 3e
       -0.0068014106 -0.083629146 -0.100811966 0.13977277
000190 d4 1f 7e bd aa 9b 84 be 8f d5 48 bc f3 41 3b 3e
       -0.062042072 -0.25900012 -0.012257948 0.18286876
0001a0 59 be 59 3d d5 bc 9a 3c a3 bc af bd cd 6e 79 3e
       0.053160045 0.01888887 -0.085809015 0.24358673
0001b0 73 73 73 bd 81 8e 5e bd 42 6a 80 3d 48 50 a8 3c
       -0.059436273 -0.05433512 0.06270267 0.020546094
0001c0 d9 04 3e 3e 80 a7 f4 3c a4 3e 6e be cf 31 3a be
       0.18556537 0.029865026 -0.23266083 -0.18183063
0001d0 ef e1 20 3e cb fa 79 be 2a 8c c0 bc 8a 07 13 be
       0.15711187 -0.24412076 -0.023504335 -0.14358345
0001e0 f1 45 ec 39 73 dc 0a 3e 73 7f 8d bd 43 7b 80 be
       0.00045065538 0.13560657 -0.06909075 -0.2509404
0001f0 f4 84 32 bb 25 f3 17 3d cd db cc bd f1 e5 c1 bb
       -0.002723989 0.037097115 -0.10002861 -0.0059173037
000200 58 63 4a 3e d8 3a d4 bd 62 27 f2 3d 7e 7d 02 3d
       0.19764459 -0.10362786 0.11823918 0.03185796
000210 c3 13 e5 3d 87 0a bd 3d d2 1c c1 bc f5 62 ef bd
       0.1118541 0.092305236 -0.023573313 -0.116887964
000220 f7 02 06 be 45 c3 80 3e 54 39 57 bb dd 75 d5 bd
       -0.13087068 0.2514898 -0.0032840567 -0.10422871
000230 4d 40 9d bd d5 20 80 3e 99 e9 70 3e 22 92 4a 3a
       -0.0767828 0.2502505 0.2352661 0.0007727464
000240 2e c2 a7 3d bd b8 46 be e1 24 45 bd e0 23 d4 bc
       0.08191334 -0.1940641 -0.048130874 -0.025896013
000250 c9 0c 55 bd 2b 40 48 bd 66 79 5a 3e b0 44 94 3d
       -0.052014146 -0.04888932 0.21335372 0.072396636
000260 ea 60 8f be 43 85 ae 3a 93 63 0d be 5b e8 11 3e
       -0.28003627 0.0013314862 -0.13807516 0.14248793
000270 81 3b 30 be ea 67 7d be 3a ca af bd ac dc 92 be
       -0.17210199 -0.24746671 -0.085834935 -0.28683984
000280 65 a8 3c 3e 71 8a 85 bc 6b 24 16 3e 39 98 43 3e
       0.18423612 -0.016301366 0.1466233 0.19101037
000290 57 15 67 3e 70 f0 08 3e 27 2e 24 be fd 28 7d 3e
       0.22566734 0.1337297 -0.1603323 0.24722667
0002a0 a6 ff fe bd 22 57 49 3e 60 16 6e bb 2b f8 84 3e
       -0.12451105 0.19662145 -0.0036329255 0.25970587
0002b0 0e d5 2d 3e 0d a5 2d 3d 0c fe 47 3e f3 9a 85 bd
       0.16975805 0.042393733 0.19530505 -0.06523695
0002c0 60 3f 14 be 6c 40 37 be 47 48 92 3e 8d e6 d2 3d
       -0.144773 -0.17895669 0.28570768 0.1029788
0002d0 0f 62 05 3e 87 e3 c2 bd f8 95 2f bd 1e a7 3d 3e
       0.13025688 -0.09516054 -0.04286763 0.18520781
0002e0 99 7a 6a 3e ba ca d2 3d e2 21 d2 bd 9c bc 8c 3e
       0.2289833 0.10292573 -0.10260369 0.27487648
0002f0 8a 08 07 3e 61 68 d5 bd bc 41 10 be 0c d5 e0 3c
       0.13186851 -0.10420299 -0.14087576 0.027445339
000300 50 1a 17 bd 6d 18 50 be b3 68 f9 bd da 31 e7 3c
       -0.036890328 -0.20321818 -0.12178173 0.028222013
000310 0d 4a 5d 3e 57 e7 af bd e9 b3 99 bd 13 5f 3f 3e
       0.2161028 -0.085890464 -0.07505018 0.18688612
000320 a9 05 6c 3d f5 8b 72 3e 43 cc 94 be 0c 21 26 3e
       0.057622585 0.23686202 -0.2906209 0.16223544
000330 19 4c c3 bd 91 8a 77 3d 59 22 06 3e e5 9c 2a 3e
       -0.09535999 0.06043488 0.1309904 0.16661413
000340 49 90 3a 3d 4a 4c 5e 3d 7e 79 8d 3c 06 01 59 3c
       0.045547757 0.054271974 0.017269846 0.013244873
000350 43 d8 40 3e 69 1b 71 be 5b 34 b2 3d 15 20 5b bd
       0.18832497 -0.23545612 0.08701392 -0.053497393
000360 56 d6 e2 bc cd 1c 4a 3e c5 bf 48 3e e5 ee 8e 3e
       -0.027690094 0.19737549 0.19604404 0.27916637
000370 60 96 3a be 79 17 f5 3c 60 66 33 3e 6f 8e 50 be
       -0.18221426 0.02991842 0.17519522 -0.20366834
000380 cd 9a 09 be 40 4f 3d 3d 02 22 8e bc 7e c6 06 be
       -0.13437958 0.046218157 -0.0173502 -0.13161656
000390 1e 52 a0 3d f1 00 87 bd 28 9e fa 3d d6 49 00 be
       0.078281626 -0.065919764 0.12237197 -0.12528166
0003a0 06 2b bb bd 6c 2d 0e be de 1d 08 3c 17 51 17 3e
       -0.091390654 -0.13884515 0.008307902 0.14777027
0003b0 47 b3 62 bd e7 a0 82 3d 6d 08 c8 3d a4 27 56 3c
       -0.055346753 0.06378346 0.09767232 0.0130709745
0003c0 f4 96 26 3e 84 7c 88 ba 75 97 30 3e 55 aa ba ba
       0.16268522 -0.0010413085 0.17245276 -0.0014241437
0003d0 7a c0 49 3c 65 32 e5 bd 5f 7d ec ba f7 04 7c 3d
       0.012313956 -0.111912526 -0.0018042735 0.061528172
0003e0 a9 8d 50 be c6 7c 03 3d 13 3b 1e be f8 d5 0e be
       -0.20366539 0.032101415 -0.15452223 -0.1394881
0003f0 f9 c7 17 bd 28 4a d7 3d f2 4d d1 3d ba d7 9e 3d
       -0.037055943 0.10512191 0.10219945 0.0775599

linear.fc.weight f4 [98, 1]
000000 15 db d9 3e 6b b8 93 bc 62 42 28 ba a3 fa cf bf
       0.4254996 -0.018032273 -0.0006418583 -1.6248363
000010 a1 79 e0 be 29 dd 5f 3e 31 43 9a 3e 96 62 af 3f
       -0.43842795 0.2186171 0.30129388 1.3701961
000020 7f 19 51 3f de 78 b2 3e fa 72 57 3f ba fa 08 3f
       0.8167953 0.3485784 0.84159815 0.5350758
000030 19 5d 1d bf c5 1a 8d be 89 d2 7d 3e 4f 6b c4 be
       -0.6147018 -0.27559486 0.24787344 -0.3836312
000040 86 82 65 3f ab 95 37 3f 7d e1 c0 bf da e8 66 be
       0.8965229 0.7171275 -1.5068814 -0.22549763
000050 be fe 85 bf a8 f2 fe 3e 4d af a4 3e e2 85 d9 bd
       -1.0468366 0.49794507 0.32164994 -0.10621239
000060 a4 04 6c 3e 24 fd 72 3d b4 f1 2b bf 3f 9c c0 be
       0.23048645 0.059323445 -0.67165685 -0.37619206
000070 82 bc 6d bf 2b b3 9e 3e ae 25 43 3e a2 5d 2d be
       -0.92865765 0.3099607 0.19057342 -0.1693025
000080 14 95 59 bf fc 11 a5 3e 38 81 dc bd bc 9a 93 be
       -0.849931 0.32240283 -0.10766834 -0.2882899
000090 f9 ef b5 3a 60 37 01 c0 73 7b 02 ba be 3d 42 3c
       0.0013880722 -2.0190048 -0.0004977502 0.011855541
0000a0 33 b6 82 bf cd 67 6e 3b b6 5a 7b 3d d4 e5 95 be
       -1.0211853 0.0036377788 0.061365806 -0.29276907
0000b0 cb bc 71 3f 00 18 09 3d 23 15 0f 3e 6a ff 18 3f
       0.944287 0.033470154 0.13972907 0.5976473
0000c0 17 14 e1 3b 62 b5 cd 3e 62 ff ad 3e 3e af af bd
       0.00686885 0.40177447 0.33983904 -0.08578347
0000d0 ec 79 31 3c 3d 0f ca 3d 59 4a f1 3a b7 bd b1 3c
       0.010832291 0.09866188 0.0018408998 0.021696908
0000e0 f3 e8 8b be cb 8f 98 3b 38 04 42 3f 6d a2 17 3e
       -0.27326164 0.0046558133 0.7578769 0.14808054
0000f0 01 1d 1d 3d 88 a2 1b be 11 f7 2d 3e 1d c2 2a 3c
       0.03835774 -0.1519872 0.1698878 0.010422257
000100 0b 2f f1 3b 3f 99 c6 39 c0 04 e0 3a cb cf cd 3e
       0.0073603443 0.0003787968 0.0017091259 0.40197596
000110 f3 dc 88 3e a4 2f 85 bd c4 c4 d1 be 3b 47 49 bf
       0.2673107 -0.06503227 -0.40970433 -0.78624314
000120 d1 9e d6 be bb b8 c7 3d 4e 35 a6 3a 85 06 75 3f
       -0.41918042 0.097520314 0.0012680681 0.95713073
000130 13 32 3d 3b 12 b0 92 bb 35 fd b1 3e 4a 19 bd be
       0.0028868958 -0.0044765556 0.34763494 -0.36933357
000140 9f a6 52 bf e9 c1 13 3f 6f 40 4e 3d 2b f7 4a 3b
       -0.82285494 0.5771776 0.050354417 0.0030970077
000150 00 88 79 3f 97 2b 84 bf 40 42 59 3e bc 7e 9b bd
       0.97473145 -1.0325803 0.21216679 -0.07592532
000160 e4 50 12 bf 7d 7e a5 bf 3a 24 0e c0 99 d6 48 3e
       -0.5715468 -1.2929226 -2.220961 0.19613113
000170 75 6c ea 3d 09 33 9a 3e 9e ad c3 be 3d 64 f1 3d
       0.11446468 0.30117062 -0.38218397 0.11786697
000180 53 f2 89 bd fa bf b1 bd
       -0.06735673 -0.08679195

mlp.mlp.0.weight f4 [64, 375]
000000 20 46 b5 bb 84 ef 99 3c 3d 4c 94 3c 83 06 97 3a
       -0.005532041 0.018790968 0.01810276 0.0011522326
000010 af c2 03 bc ae ad 84 bb c9 11 b8 ba 77 ac fd 39
       -0.008042022 -0.0040490245 -0.0014043386 0.00048384417
000020 a3 73 82 ba e6 01 2f 3c a7 57 24 b8 cc ff c5 ba
       -0.0009952675 0.010681605 -3.918228e-05 -0.0015106141
000030 11 5e 59 b9 ed 5e dd bb ef 75 ec 3c 48 5b cc ba
       -0.00020729775 -0.006755701 0.028864829 -0.0015591169
000040 35 3a 29 bd fd f4 8e ba c7 96 be ba ea 2b a3 bc
       -0.041315276 -0.0010906752 -0.0014540785 -0.0199184
000050 f9 e6 20 3b 81 6e 36 bc 76 58 19 bc e7 29 49 bc
       0.0024551733 -0.011134745 -0.00935947 -0.012278057
000060 95 58 52 3c 7d ea 1c 3c 45 b3 02 bd 83 2c 4e bc
       0.012838502 0.009577391 -0.031909246 -0.012583855
000070 69 a8 90 3c f6 37 a6 bc a9 d5 a5 bc c8 d5 a8 3a
       0.01765843 -0.020290356 -0.020243483 0.0012881095
000080 04 76 08 3b ef c5 61 bc be 80 0f 3b 52 ae 2b bc
       0.0020822296 -0.013780101 0.0021896805 -0.010478573
000090 af fc 83 bb b9 91 00 bc 84 9b c9 3b c5 9d 12 bb
       -0.004027925 -0.007847243 0.006152572 -0.002237187
0000a0 1d d8 e4 39 b9 87 a4 bb 13 a8 4c ba 94 99 e4 3b
       0.00043648566 -0.005021062 -0.00078070274 0.0069763158
0000b0 e9 14 e7 3b 68 15 03 3c 64 0b a7 3c 7d f5 98 3c
       0.007052053 0.008000709 0.020391174 0.018671745
0000c0 5b 91 eb 3a 15 07 ba bb 95 a7 7c 3c 28 a7 92 3c
       0.0017972396 -0.005677114 0.015420814 0.017901972
0000d0 a7 e1 d2 3c 82 49 5d 3b 29 82 a9 39 49 d6 5e bb
       0.025742365 0.0033765738 0.0003233117 -0.0034002236
0000e0 d7 f5 d6 3b 4f 5e 7e bb a8 a9 01 3c d1 7c 63 b9
       0.006560068 -0.0038813537 0.007913984 -0.00021694905
0000f0 82 b1 a0 bc 31 09 0b bb 60 89 4d 3b cc b0 35 ba
       -0.019615892 -0.0021215195 0.00313624 -0.0006930947
000100 25 70 7d ba f3 ce 13 ba 25 c3 be 3a 1e e3 86 bb
       -0.0009667895 -0.0005638443 0.0014554007 -0.00411643
000110 17 e5 7c 3c 0f 82 27 bc 38 07 7e ba 68 2e 3f 3a
       0.015435479 -0.0102238795 -0.0009690407 0.0007292987
000120 ec c3 60 3c 72 54 1a bc 17 f8 4a 3a dc 5a 23 bb
       0.013718586 -0.009419547 0.0007742657 -0.0024925983
000130 6a 59 9a bb 0f 6b 14 bc d2 c5 3e bc 87 ba 17 3b
       -0.004710366 -0.009058728 -0.011643844 0.002315195
000140 57 11 42 3c dd 2c 54 3c 22 97 02 3c bf 3f 9d 3b
       0.011844954 0.012950149 0.007970603 0.004798859
000150 7a 72 a4 3c d0 e4 9f 3b 7d 1c 59 bc 95 8c 26 3c
       0.020074118 0.0048795715 -0.013251421 0.010165353
000160 25 16 49 bb 76 a8 1b bc dc c5 82 bc 58 10 87 bc
       -0.0030683365 -0.009500613 -0.015963487 -0.016487285
000170 69 86 5a 3b 3f 03 6c bb 5b 55 b4 3c d6 a0 53 3c
       0.0033344275 -0.0036012677 0.022013357 0.012916764
000180 7d ac 93 bb 09 1c 5c 39 ea 92 fb bb 80 89 58 3c
       -0.004506646 0.00020991279 -0.0076774256 0.013216376
000190 da 09 7c 3c 79 68 55 bb f0 0e d2 ba 2f 57 c2 3b
       0.015383208 -0.0032563491 -0.001602618 0.0059308033
0001a0 98 05 8a 3b 4b b8 34 bc a7 87 7f 3b a3 09 15 3c
       0.0042120926 -0.011030267 0.0038990767 0.009096536
0001b0 2d f6 b4 ba 23 b0 16 3c 92 fd 8c 3c 7a 79 53 3c
       -0.0013806276 0.009197268 0.017210755 0.01290738
0001c0 32 91 09 bb d9 2c 45 3b 14 5b 91 bc 33 5f 39 3c
       -0.0020991084 0.0030086546 -0.017743625 0.011314201
0001d0 cb 08 5b 3c d7 f2 ed bb 57 0d c4 3b 0f a6 05 3c
       0.013368796 -0.007261615 0.0059830355 0.008157267
0001e0 2d ff 7a bb 10 a6 21 bb aa de 46 bc 2f 34 54 3c
       -0.003829907 -0.0024665631 -0.012138048 0.012951895
0001f0 f1 65 39 bb 09 53 c9 bc ba 6c a3 3a a9 24 75 bc
       -0.0028289522 -0.024575727 0.0012468316 -0.014962354
000200 75 b5 0c bc ff 56 29 bc 52 7b fc 39 6e bf 92 3b
       -0.008588185 -0.010335683 0.00048157066 0.0044783866
000210 6e 3b 81 bc f9 62 3a bb a7 1d 10 bc cd eb 48 3c
       -0.015775409 -0.002844034 -0.008796132 0.012263251
000220 3b b4 57 ba ac 83 95 3c 30 3c ce 3c d1 22 bb 3b
       -0.00082284556 0.018251263 0.025175184 0.0057109375
000230 67 16 eb 3b bb 4e 7f bc dc 30 62 3c fc 78 4a bc
       0.0071743014 -0.015582736 0.013805594 -0.0123579465
000240 9e a6 a5 bb c3 f8 fa bb 47 02 6f 3c d7 ac 3f 3b
       -0.0050552627 -0.0076590492 0.014587945 0.0029247308
000250 b3 d4 d0 3a ff b9 9a bb 20 f7 b5 bb bd 46 b5 ba
       0.001593253 -0.0047218795 -0.0055531412 -0.0013830286
000260 42 46 58 bb a0 32 0e bc 53 6e 00 bc 0a 8c 03 3c
       -0.0033000861 -0.008679062 -0.007838803 0.008028993
000270 ec 8e 7a bc 57 3c 68 bc eb 34 a7 bb d7 15 0f bb
       -0.015292864 -0.014174542 -0.005102744 -0.0021833086
000280 5a 0c e0 3b f3 3f 85 bc ac cf b5 bb 31 bd 80 bb
       0.00683741 -0.016265845 -0.005548438 -0.0039288034
000290 55 92 48 bc 24 d1 09 3b 67 56 d0 bb 5d e7 8e bb
       -0.0122419195 0.0021029199 -0.006357956 -0.0043610767
0002a0 f3 58 17 bb 41 b4 13 ba 89 98 47 bc 01 e9 b9 b8
       -0.002309379 -0.0005634465 -0.012182363 -8.864888e-05
0002b0 ac bc ca 3b 6a d4 56 3a f9 f4 d9 3b 52 c0 54 3b
       0.006187042 0.00081951043 0.0066515175 0.0032463265
0002c0 75 96 55 3c 54 6b 5f bc 36 58 0b 3c e2 24 e8 bb
       0.01303636 -0.013636429 0.008504918 -0.007084475
0002d0 a0 b5 9c 39 56 27 43 ba 18 b4 7c 3c 91 88 3a 3b
       0.0002988996 -0.0007444521 0.015423797 0.0028462748
0002e0 8b 5c 47 3b b1 f6 8b bc 60 f4 98 3b d4 6e 21 bb
       0.003042015 -0.017085405 0.0046678036 -0.002463271
0002f0 41 80 2a bc a8 5a 8d 3b 7f 09 07 bc ac 2b 56 3c
       -0.010406555 0.0043137856 -0.00824201 0.013071936
000300 6c e5 93 3b 0f dd 98 ba 40 77 07 bc 36 50 40 3c
       0.004513433 -0.001166256 -0.0082681775 0.011737874
000310 02 df 48 3c 36 18 83 bb c1 9c c9 bb 92 42 29 bc
       0.0122602 -0.004000689 -0.0061527197 -0.010330813
000320 76 9d 15 3c b4 86 f2 b9 e0 96 c8 ba 9a df 11 ba
       0.00913178 -0.000462582 -0.0015303753 -0.000556463
000330 46 6e 8c bb 26 b9 6f bc 22 0f 45 bc ad 72 9b bc
       -0.0042856066 -0.014631545 -0.012027534 -0.01897558
000340 c0 06 b1 3a 68 31 5d bc 71 49 1e 3b 0c d4 82 3c
       0.001350604 -0.013500549 0.0024152661 0.015970252
000350 75 6a 14 bc 70 cf 04 bc 3b ba 4b bc d2 0f ff 3c
       -0.009058584 -0.008106098 -0.0124345375 0.031135473
000360 3d f9 fe 39 7a c2 8b bc 0d ff 71 3b 80 00 83 3b
       0.00048632352 -0.017060507 0.0036925704 0.0039978623
000370 96 d5 e6 3b c2 41 b6 3b 80 6c 40 3c 13 44 92 bc
       0.0070445044 0.005562038 0.011744618 -0.017854726
000380 c0 22 90 3c 4a b3 d5 bc 2a f7 63 bc ee 8f 22 3b
       0.017594695 -0.026086468 -0.013913909 0.0024805027
000390 c2 0a ea bb 6e 9b 8c 3c fe 40 16 3c c7 61 93 3c
       -0.0071423957 0.017163958 0.009170769 0.01799096
0003a0 e1 b2 1e 3b fa ac 20 bb c7 57 5c 3c da 89 c3 b9
       0.0024215507 -0.0024517165 0.013448662 -0.00037296006
0003b0 d6 ff 2b bc d9 d4 96 3c bb ce db bc 6d ad 69 3c
       -0.010498008 0.01841204 -0.026831975 0.014262539
0003c0 53 d9 d8 3c 03 51 e2 bb 00 77 1d 3a c7 fc f0 3c
       0.026470816 -0.00690663 0.0006006807 0.029417409
0003d0 22 b2 1e bd a7 97 e2 bb 23 fe ee 3c 7c 39 0d 3c
       -0.0387441 -0.006915051 0.029173916 0.008619662
0003e0 0b c4 93 3a 1f d9 cc bc 54 d4 e9 bc 7f 86 46 bc
       0.0011273635 -0.025005875 -0.028543629 -0.012117027
0003f0 76 9b 6e bc 35 c8 e2 39 0c c7 b5 3b 55 64 72 3c
       -0.014563432 0.00043255245 0.00554741 0.014794429

mlp.mlp.0.bias f4 [64]
000000 c3 62 d2 b2 0f 96 c3 32 c8 9e e4 b2 dd 22 dd 33
       -2.449213e-08 2.2769227e-08 -2.6614899e-08 1.0297456e-07
000010 6a 1b d3 34 f1 07 b1 b2 f6 81 23 34 36 32 96 b2
       3.932176e-07 -2.0609123e-08 1.5227837e-07 -1.7485132e-08
000020 11 91 7e 31 86 fa aa b2 95 b9 07 b3 81 dc 2a b2
       3.7044325e-09 -1.990453e-08 -3.1600923e-08 -9.945439e-09
000030 28 a1 27 b2 6b 80 a8 33 b4 ad 97 b4 65 02 da 32
       -9.757322e-09 7.846469e-08 -2.8252327e-07 2.5379629e-08
000040 0b 74 4f b4 d9 e2 c9 33 41 c2 64 31 a0 e5 75 b4
       -1.9320593e-07 9.401055e-08 3.3288787e-09 -2.290094e-07
000050 9c 7e 99 b4 a3 0c 8f b2 ce 42 51 b2 20 7a bf 31
       -2.859059e-07 -1.6653138e-08 -1.2180591e-08 5.5727156e-09
000060 e9 ce a8 34 25 b9 ee 32 b4 30 92 33 66 f8 ab b2
       3.1442985e-07 2.779104e-08 6.807514e-08 -2.0019979e-08
000070 3c 3d 6f b3 07 e7 dc b2 35 9e 8f 34 0e cf 9b 33
       -5.5702216e-08 -2.571643e-08 2.6750936e-07 7.255413e-08
000080 a7 75 de 33 bd 70 ea b2 9f 61 2b b4 12 35 95 b1
       1.03590814e-07 -2.7292453e-08 -1.596113e-07 -4.342504e-09
000090 20 03 17 b3 d3 3c bb 33 bb f3 6d b4 df d9 41 33
       -3.516027e-08 8.71893e-08 -2.2161014e-07 4.5134467e-08
0000a0 a4 ef 85 b2 46 48 38 b1 ce 44 54 33 34 b5 1f 34
       -1.5592214e-08 -2.6816607e-09 4.9422674e-08 1.487395e-07
0000b0 dd 53 89 33 cd 22 6e b3 14 18 86 34 2d ea 9a 33
       6.394814e-08 -5.5445344e-08 2.4976964e-07 7.21378e-08
0000c0 1d 79 ad 32 79 a8 1b 34 cb 20 80 b2 bd 59 8b b3
       2.0194927e-08 1.449679e-07 -1.4916074e-08 -6.489015e-08
0000d0 2c 0a c2 b2 5d b2 9c 34 33 8a 43 33 eb 30 c5 31
       -2.2589198e-08 2.918704e-07 4.5527667e-08 5.739016e-09
0000e0 21 6a b8 33 06 f0 02 32 ea 43 52 33 a6 d4 d4 b2
       8.5874724e-08 7.621571e-09 4.8956203e-08 -2.477675e-08
0000f0 ba 45 53 30 d9 34 39 32 aa 18 90 b5 d6 a3 38 b4
       7.686044e-10 1.0780433e-08 -1.0736014e-06 -1.7195939e-07

mlp.mlp.1.weight f4 [64]
000000 44 9b ce 3e 95 d9 7d 3e 7b 7c 8a 3e 23 d4 41 3e
       0.40352833 0.24790032 0.27048096 0.1892858
000010 ee 9c c4 3d 13 44 a1 3d fa fb 2b 3e 10 e5 f9 3d
       0.096002445 0.07874312 0.1679534 0.12201893
000020 ec 0c 91 3d 88 dc 2b 3e ab 18 08 3e 1e 27 d8 3d
       0.07082543 0.16783345 0.1329066 0.10554336
000030 de ac 82 3e 0b 36 65 3d d3 f5 22 3e c7 ae c9 3e
       0.25522512 0.055959743 0.15914087 0.39391157
000040 fe a0 12 3e d3 f2 bd 3d f6 45 3d 3e af 49 f5 3d
       0.14319226 0.09274831 0.18483719 0.11976945
000050 8e d6 02 3e b2 87 b4 3d 10 f2 08 3e e5 85 f2 3d
       0.12777159 0.08814944 0.1337359 0.118419446
000060 6e 82 0d 3e 09 0c 9f 3e eb d8 ab 3e ec da df 3d
       0.13819286 0.3106387 0.33563933 0.10930428
000070 05 86 67 3e 2d 35 f9 3d 62 bc 7f 3d 52 e6 15 3e
       0.22609718 0.121683456 0.062435515 0.14638641
000080 a8 87 91 3d 5d 1c 2e 3e 37 11 a4 3d 15 c5 ab 3e
       0.071059525 0.17003007 0.08011096 0.335488
000090 56 b3 b6 3e 47 24 14 3e ca 13 20 3e 08 c4 18 3e
       0.35683697 0.14466964 0.15632549 0.1491853
0000a0 57 ee 88 3d 9c fd 25 3e 04 bc b9 3e 0b 7e 93 3e
       0.06686085 0.16210026 0.36276257 0.288071
0000b0 5f b2 99 3d 16 9a 46 3d 34 d2 f7 3d 43 55 9b 3e
       0.07504725 0.04848679 0.1210064 0.30338487
0000c0 3b 95 00 3e 5c 15 36 3e 2f b4 05 3e d2 fb 11 3e
       0.12556927 0.17781585 0.13057016 0.14256218
0000d0 ff 7f 3d 3e 54 e7 56 3e aa 68 41 3d bb f2 d9 3d
       0.18505858 0.20986682 0.047218956 0.10642
0000e0 92 8d 38 3d 66 29 3d 3e 73 c4 93 3e 30 b0 b7 3d
       0.045056887 0.18472824 0.28860816 0.08969152
0000f0 be 83 8c 3e 4e ac b1 3d c8 f7 11 3e 68 d3 f0 3d
       0.2744426 0.08675443 0.14254677 0.117590725

mlp.mlp.1.bias f4 [64]
000000 ba 8d a7 bc 18 45 34 3c 65 b7 96 bc 67 0c 61 bc
       -0.020453323 0.011002801 -0.018397996 -0.013735867
000010 44 20 8f 3b 61 2c a8 3c f6 51 04 3d de b5 fb 3b
       0.00436786 0.020528974 0.032304727 0.0076815924
000020 b1 48 00 3c d2 3a 00 3b df c5 99 3c 2c 3d 2d 3c
       0.007829831 0.001956631 0.01877111 0.010573667
000030 f4 5d 9d bb 76 a6 ef 3b 35 16 b2 3c 6a a3 66 bc
       -0.00480246 0.007313545 0.021739105 -0.014077047
000040 a6 3b 0d 3c bc d9 ad b9 c9 49 aa 3b dd 91 b0 3c
       0.008620178 -0.00033159356 0.005196784 0.021553928
000050 02 2d 23 3d f2 12 67 3c 67 bd 12 ba 10 a5 99 3b
       0.039837845 0.014103638 -0.0005597681 0.0046888664
000060 bc 74 1c 3d c7 b3 03 bc 79 01 03 bc 3f 8c 30 3c
       0.038197264 -0.008038468 -0.007995957 0.010775625
000070 6f 06 1c bb 39 af 47 ba 47 48 08 3d 0d 05 eb 3a
       -0.0023807546 -0.0007617358 0.033272054 0.0017930582
000080 b7 7d e6 3c 83 51 ca ba bc ea 07 3d b3 a5 8c bc
       0.028136117 -0.0015435669 0.033182845 -0.017168855
000090 f8 e5 16 bc 50 db 1d bb b7 c5 2e bb fa e2 01 3b
       -0.009210102 -0.002408702 -0.002666814 0.0019819126
0000a0 57 dc 9c 3c d3 67 8a 3a fc 41 fa bc 05 a9 d5 3c
       0.019148035 0.0010559506 -0.030549042 0.026081571
0000b0 50 02 ca 3b ef 14 34 3c 6d e3 06 3d f7 44 42 bc
       0.0061648265 0.010991319 0.032931734 -0.011857263
0000c0 dd c0 ac 3c a6 62 24 3d 60 96 f6 3c 58 bc 80 bb
       0.021088058 0.04013314 0.030101001 -0.0039287023
0000d0 e7 c2 8d bc e4 70 8d bb cc b0 ec 3c 23 b6 82 3c
       -0.01730485 -0.004316436 0.028892897 0.01595599
0000e0 21 8d ec 3c 66 1d bd bb ea 31 f1 bb 14 61 2f 3c
       0.02887589 -0.005771327 -0.0073606865 0.010704298
0000f0 b6 67 b6 bc 5f 27 10 3d f0 ae a1 ba 49 b4 1c 3d
       -0.02226625 0.035193797 -0.0012335461 0.03825787

mlp.mlp.1.running_mean f4 [64]
000000 b7 77 1e 3c 61 08 41 3b f1 97 4a bc c5 ad eb bc
       0.009672097 0.0029454457 -0.012365327 -0.028769383
000010 9f 13 98 bc b8 94 52 3c 26 74 9a 3c bc 98 c6 bc
       -0.018564044 0.01285284 0.018854212 -0.024242751
000020 c2 c3 70 ba e5 28 5b bc 92 4b 48 3c cb 8f 31 bc
       -0.00091844436 -0.013376449 0.012225049 -0.010837506
000030 60 65 cf 3a 5d 86 8c bb e7 37 78 3c 0a 51 ac bc
       0.0015823059 -0.0042884783 0.015150047 -0.021034736
000040 39 de 87 bc 9c a6 66 bc b7 1f 72 bb fd 6b 99 3c
       -0.016585456 -0.014077809 -0.0036945173 0.01872825
000050 19 03 1a 3d 51 a3 20 bb e1 0f 90 bc 31 a2 29 bb
       0.03760061 -0.0024511407 -0.017585697 -0.0025884027
000060 0e 18 a2 3c d6 ba 34 bc 3e 9f 8b bc dc 50 bd bb
       0.01978686 -0.011030873 -0.017043706 -0.0057774615
000070 6d ec 62 bc 58 3c c8 bb ad 68 bc 3c 58 04 a7 3b
       -0.013850314 -0.006110709 0.022999132 0.0050969534
000080 f2 35 b2 3c 60 2f ae bc 13 28 aa 3c 4d 98 d5 3a
       0.021754239 -0.021262825 0.020771062 0.0016296
000090 3c 1e 08 3b c9 32 8d bc 42 62 8b bc a0 ce 4b bc
       0.0020769974 -0.01723613 -0.017014626 -0.0124394
0000a0 47 ed e3 bb 81 5f 25 3c e7 61 a0 bb 57 5a c8 3c
       -0.006955776 0.010093571 -0.0048944834 0.02445714
0000b0 cd 09 90 bc f0 82 1d bc 74 e7 0e 3d f3 f6 34 bc
       -0.017582798 -0.009613737 0.0348887 -0.011045205
0000c0 f3 f8 9b 3c dc 3c 27 3d 29 62 6a b9 79 32 80 bc
       0.019039607 0.040829524 -0.00022352547 -0.015649067
0000d0 c2 f8 bd 3b f3 b1 73 3c 59 e2 96 3c 25 41 75 3a
       0.0057974765 0.014873969 0.018418478 0.00093557156
0000e0 a4 a5 b2 3c 1a 1e 7b bc 7a ee 79 bc 0a 9a aa bc
       0.0218075 -0.015327001 -0.015254611 -0.020825405
0000f0 ed 6d 2f bb 7e b1 ce 3c 32 f3 8d bc 95 8a 9a 3c
       -0.0026768402 0.02523112 -0.017327879 0.01886491

mlp.mlp.1.running_var f4 [64]
000000 8e 1a 7a 3a 4d 50 80 38 0f ec 0f 3a 0d 3f 5b 39
       0.00095407 6.118473e-05 0.00054901926 0.00020908956
000010 b0 c3 48 38 30 91 1c 38 33 d4 59 38 bc 5d 5e 39
       4.7865964e-05 3.7328515e-05 5.1934458e-05 0.00021206489
000020 2f b3 37 38 39 fb d2 39 26 37 36 39 49 a6 2f 39
       4.3797478e-05 0.00040241497 0.00017377417 0.00016751247
000030 8e c4 e2 39 ce 5d 1d 38 55 e3 2a 38 07 c0 80 3a
       0.00043252524 3.751908e-05 4.0742878e-05 0.0009822854
000040 54 6e 20 38 b5 29 e2 37 92 9b 10 3a 2f ee a4 38
       3.8249724e-05 2.696072e-05 0.0005516346 7.8644945e-05
000050 47 48 3a 39 0e d4 6d 38 13 f1 31 38 13 40 a1 38
       0.00017765268 5.6702695e-05 4.2424606e-05 7.689013e-05
000060 99 7c 98 38 34 47 00 39 23 90 8e 39 d3 39 c2 37
       7.271133e-05 0.00012233556 0.0002719174 2.3153529e-05
000070 a6 06 a1 39 0c 7d 95 37 48 3a 11 38 d2 38 07 39
       0.00030713266 1.7820414e-05 3.4624973e-05 0.0001289577
000080 f8 c0 ff 37 5a ef d0 38 0c b7 7c 38 03 47 87 39
       3.0488227e-05 9.9627956e-05 6.0251958e-05 0.00025802114
000090 40 06 30 39 2c 68 1c 39 b1 c3 4f 38 c6 7d 52 38
       0.00016786996 0.00014916126 4.9534898e-05 5.0185037e-05
0000a0 70 ae 4f 38 20 5d 97 39 f1 93 28 39 93 1d 03 39
       4.9515103e-05 0.00028870348 0.00016076841 0.00012504151
0000b0 fa 60 b6 38 9e d3 11 38 38 a0 0d 39 3e 51 7b 39
       8.6964996e-05 3.4767778e-05 0.00013506494 0.0002396749
0000c0 73 5d dd 38 76 33 41 39 97 f8 8c 38 99 97 c7 38
       0.000105555075 0.00018425085 6.722024e-05 9.517297e-05
0000d0 94 89 a2 37 8a 78 0d 38 d5 5d 57 38 1c ca 43 38
       1.937597e-05 3.372928e-05 5.1347382e-05 4.6679852e-05
0000e0 50 74 94 38 22 c7 a7 39 90 53 48 39 69 02 39 39
       7.078855e-05 0.00032001088 0.00019104616 0.00017643873
0000f0 ec b9 94 39 c0 79 91 38 7d 2f 9f 37 b3 7e 81 38
       0.00028367282 6.9368165e-05 1.897639e-05 6.174799e-05

mlp.mlp.4.weight f4 [64, 64]
000000 1d 28 12 bc 72 8a 84 3d f9 5b da 3c 7a fe 87 ba
       -0.008920697 0.06471719 0.026655184 -0.0010375523
000010 40 aa be 3c 4b a9 dc 3c 62 a1 1f 3d 1f 5a 83 bc
       0.02327454 0.026936194 0.038972266 -0.016034184
000020 96 ee 5f 3b 67 44 3a bb d4 3e da 3a 8c ff 86 bc
       0.0034169308 -0.0028422119 0.0016650804 -0.016479276
000030 a7 32 4a bd 93 02 42 3d f0 7d 35 bc 00 70 f6 bc
       -0.049364712 0.047365736 -0.011077389 -0.030082703
000040 b3 fa 39 3d f4 32 2e 3c 14 2c 41 bc 3b 9e 27 3d
       0.0454051 0.010632265 -0.011790294 0.040922385
000050 f2 d8 a7 bc 33 94 9f bc d0 1f 5c bc d2 b2 9d 3c
       -0.02048919 -0.019479847 -0.013435319 0.019250307
000060 6f 3b 7a bc 99 17 92 3b 65 6c 15 3d 74 1a d3 bc
       -0.015272959 0.0044583795 0.036480326 -0.02576945
000070 f0 7f 94 3c ab e7 5b bc 60 8a dd 3c 8f 02 1a bd
       0.018127412 -0.013421933 0.027043521 -0.037600096
000080 03 a9 6b 3d 93 38 93 3c 31 51 50 3d d2 2b 74 3d
       0.05753423 0.017971313 0.05085868 0.059612103
000090 84 18 a0 bc 6c b5 73 bc e7 99 0a 3b ca d1 34 bd
       -0.01954294 -0.014874797 0.0021148862 -0.044145383
0000a0 3a bf cd 3c 8e c8 df 3c 6a 64 02 bd 0c 9e d8 3c
       0.025115598 0.027317312 -0.031834044 0.02644255
0000b0 1d 64 27 3c bc 41 1f bd 2f ad b5 bc 14 a1 35 bd
       0.01021674 -0.03888105 -0.022177307 -0.04434307
0000c0 b2 d3 17 3d 20 76 37 bc 1a 99 8c 3c fa e1 08 bb
       0.037067123 -0.011197597 0.017162848 -0.0020886646
0000d0 74 01 10 39 45 d3 2a 3d 4a 7e 08 bc 19 01 83 bb
       0.00013733451 0.04170539 -0.008330891 -0.0039979336
0000e0 de 2e b3 bb ca 9a 0e bd 51 26 08 3c 9a 45 5b bb
       -0.0054682335 -0.034815587 0.008309917 -0.0033458234
0000f0 06 87 c1 3b 38 d9 c0 bb bd 7c 07 bd 91 42 74 3b
       0.0059059886 -0.0058852695 -0.033077944 0.0037271122
000100 42 21 e8 3a cf 6f 61 3b 8a a6 27 3c c3 fc a3 ba
       0.0017710107 0.0034398919 0.010232577 -0.0012511242
000110 fc 2d 63 3a d5 3c 91 3b b7 75 da bb f4 4d b7 ba
       0.0008666215 0.0044323006 -0.0066668647 -0.0013985024
000120 66 be 9b ba 29 d8 19 3b ae 86 eb ba dd c0 f9 ba
       -0.0011882305 0.0023474789 -0.0017969215 -0.001905467
000130 59 2d 37 bb 49 cf a1 39 77 6e be 3a e3 f0 8a 3b
       -0.0027950613 0.00030862752 0.0014528771 0.0042401417
000140 53 c8 32 3b 03 bc 58 3b 8f 5a 4b 3b 91 9a b5 bb
       0.0027280047 0.0033071048 0.003102932 -0.0055421074
000150 dc f5 a1 ba d2 8c ed ba 7c 6d 18 3b 8c f4 98 3b
       -0.0012356597 -0.0018123633 0.0023258617 0.004667824
000160 29 e5 c0 ba 9c 3a 14 3b 81 83 46 3b a4 59 68 3b
       -0.0014716733 0.0022617942 0.0030290785 0.003545382
000170 d2 b4 98 3b 13 5d 90 3b c5 f2 40 bb 71 d1 19 3b
       0.0046602273 0.0044056266 -0.0029441577 0.0023470784
000180 ea 11 db 3b 28 0e 64 3b fe cb b7 3c 13 f1 75 3c
       0.006685485 0.0034798477 0.022436138 0.01501109
000190 03 cf 6c bb 9e 97 0d 3c 41 13 4d 3b 85 3f 48 3a
       -0.003613413 0.008642105 0.0031291994 0.00076388597
0001a0 da a3 ed 3a d3 7a ca 3b 17 24 b2 3c dc 05 69 bb
       0.0018130497 0.0061791926 0.021745725 -0.003555647
0001b0 61 e5 84 3b de c8 17 3b 2e 11 61 3c 07 c5 47 3c
       0.0040556644 0.0023160498 0.013737006 0.012192971
0001c0 7e 35 98 bb dd 4d 08 3d d5 0c 8e bb 02 80 15 3b
       -0.0046450486 0.03327738 -0.004335026 0.0022811894
0001d0 1a 62 14 3c 4d 5d a5 bb 6b 1a 3c ba 80 ca 6b bb
       0.009056592 -0.0050465227 -0.00071755674 -0.0035978854
0001e0 09 a9 96 ba af 71 a6 3b 3b c6 11 3b 63 39 44 3b
       -0.0011494468 0.00507947 0.0022243399 0.0029941432
0001f0 21 92 03 3c 7b f4 f0 ba 07 a6 83 39 8b 1a cf b9
       0.008030445 -0.0018383408 0.00025109967 -0.00039501893
000200 e5 d7 54 bb 5a ec 0d bb fb 37 0c 3c 25 38 06 bc
       -0.0032477316 -0.002165577 0.008558269 -0.008192097
000210 2d 7d 18 bc 84 19 10 3c 39 6f 0b 3c 73 32 bb bb
       -0.009307188 0.008795146 0.008510404 -0.005712801
000220 3b 9b f9 3a 78 26 19 3c bf d0 62 3c ac e4 92 bb
       0.0019043455 0.009347551 0.013843714 -0.004482826
000230 d0 d1 1a 3d fc 58 a0 3c bd f7 bd ba 48 89 54 bc
       0.03779775 0.019573681 -0.0014493387 -0.0129721835
000240 71 b6 05 3c 76 56 8e ba 86 6d ff 3a 5e 45 6b 3b
       0.008161173 -0.0010859508 0.0019487597 0.00358995
000250 0b 1f 67 3b 20 39 07 bc 2b c9 f8 3a d7 24 45 bb
       0.0035266306 -0.008253366 0.0018980851 -0.0030081773
000260 e6 1f 1c 3c 8e ce d5 bb 67 7a 62 3b 8a e8 4d bb
       0.00952909 -0.0065248674 0.003455782 -0.0031419122
000270 52 1a 62 3c 2c 83 5b 3c eb 5b 95 3b fc a2 c7 bb
       0.013800221 0.013397973 0.0045580766 -0.0060924273
000280 57 57 d0 3c 97 e4 3a 3b 3e cb 14 3d 8c cf cc bc
       0.025432272 0.0028517598 0.03632664 -0.02500131
000290 00 3c 05 bc 3f dd 31 ba 0a 03 90 bb 5b 8f b0 3b
       -0.008131981 -0.00067849824 -0.0043948935 0.005388183
0002a0 6b 9c 36 3b 89 e4 3e bc 0d 3c 5d bc 8c 12 29 3c
       0.0027864228 -0.011651167 -0.013503087 0.010319363
0002b0 81 3a 6c 3b d5 25 23 b9 41 e3 90 3c 3f fd bb bb
       0.0036045613 -0.00015558985 0.017686488 -0.0057369764
0002c0 4f 1f 2b 3c d5 ce 33 3d b2 a4 aa ba 6a 42 ee 3c
       0.010444476 0.043898422 -0.0013019054 0.029084403
0002d0 fa 28 66 bb 92 06 a4 bc 31 e0 94 3c e0 eb bc bb
       -0.0035119639 -0.020022664 0.018173309 -0.005765423
0002e0 0b 74 f4 3c d3 d7 60 bb 4f 50 10 bc 5b 51 d7 bc
       0.02984049 -0.0034308329 -0.00880821 -0.02628391
0002f0 00 b4 a6 bc bf 4f e1 3b a7 d1 b2 bb bd 30 27 bc
       -0.020349503 0.0068759616 -0.0054571214 -0.010204491
000300 32 a7 18 bd a5 ee 9b bd 96 c6 53 3c c1 3f 9a ba
       -0.037268825 -0.07613877 0.012925765 -0.0011768268
000310 9e 75 5e 3c 36 0b 49 3d 2a e6 0f bd 98 5f 62 3d
       0.013577847 0.049082957 -0.03513161 0.055266947
000320 82 1c 8f bc 2a 0d 8f 3c 73 e9 2b bd 41 f4 84 3c
       -0.017469648 0.017462332 -0.04197068 0.01622975
000330 68 05 3d 3d f6 f7 69 3d bf f4 15 3d 85 6d f8 3c
       0.046147734 0.05712124 0.03661036 0.03032566
000340 e0 c6 3b bb 89 f7 79 bc be 21 88 bc 6d 4d 99 bc
       -0.0028652474 -0.015256771 -0.016617652 -0.018713677
000350 b1 c0 e0 3c cc 6d 76 bc a2 ce d7 bc cb 6e 50 3d
       0.027435632 -0.015040826 -0.026343647 0.05088691
000360 85 99 6a bc 75 32 e5 3c 59 f9 79 bc cb dc b7 bc
       -0.0143188285 0.027978161 -0.015257203 -0.02244415
000370 02 0e 32 bc a5 f4 aa 3c dd 30 02 bc d7 52 c5 3c
       -0.010867598 0.020868609 -0.00794622 0.024087353
000380 22 e3 b5 3c 91 76 c1 3c f4 ac 03 3d 16 f3 e8 3c
       0.022203032 0.023616107 0.032147363 0.028436225
000390 83 2b 2e 3d 61 54 65 bd 13 e6 40 bc 27 ae 59 bb
       0.042521965 -0.055988673 -0.011773604 -0.0033215375
0003a0 ab 79 76 bc 5b 86 cc 3c a1 89 a2 3d 8b 00 e6 3c
       -0.015043656 0.02496641 0.07936407 0.02807643
0003b0 0f b1 2a 3c a2 a4 c3 3c e9 8f 32 3d c9 ab 5f 3d
       0.010418191 0.023882214 0.043594275 0.054607186
0003c0 13 2e 33 bd f7 b7 53 3d 84 36 27 bd cf 27 41 bc
       -0.04374511 0.051689114 -0.040823475 -0.011789276
0003d0 48 4c 41 3d 4f 90 d6 3c f0 4c b7 bc aa b1 fa 3c
       0.047191888 0.026191859 -0.022375554 0.030602295
0003e0 2c 49 e8 bc 7f 35 37 bc b1 b6 48 3d 37 00 60 bc
       -0.028355204 -0.011182188 0.049002353 -0.013671926
0003f0 a9 3d c6 3c cf af 09 3d 2e c9 f3 bc 30 69 1f 3d
       0.024199324 0.03361493 -0.029759016 0.038918674

mlp.mlp.4.bias f4 [64]
000000 42 da 07 b1 80 3f 1f 34 8e 7b a1 b1 9e 2a ab 34
       -1.976915e-09 1.483113e-07 -4.6997632e-09 3.188224e-07
000010 2d 77 a5 2f 61 15 56 34 e6 9d a2 b3 3c bb ed b3
       3.0098005e-10 1.993808e-07 -7.5724344e-08 -1.107023e-07
000020 e4 7c e0 b1 cc 88 c3 b3 57 c6 44 b4 7b 53 fe 32
       -6.5334564e-09 -9.105278e-08 -1.8326078e-07 2.9607454e-08
000030 71 8b 2a 32 5c bf 50 33 c2 44 2d b3 4a ea 46 34
       9.927008e-09 4.8602814e-08 -4.0342236e-08 1.8525421e-07
000040 f3 2e 86 33 81 c2 d5 b1 19 f6 a3 b4 a5 5f 8b 31
       6.248401e-08 -6.2212284e-09 -3.0540176e-07 4.056306e-09
000050 5e 4d 3a b3 94 67 47 b4 48 da 41 33 83 df 0b b3
       -4.3376865e-08 -1.8571001e-07 4.513484e-08 -3.2566742e-08
000060 b0 6d b1 b4 5d 7a 78 b2 2f 7f da 33 9c 2d dc b1
       -3.3048627e-07 -1.4463322e-08 1.01745506e-07 -6.408028e-09
000070 30 ac 2c b3 33 9d 65 31 51 50 36 32 4b 20 4f 31
       -4.0203474e-08 3.3413243e-09 1.0612056e-08 3.014082e-09
000080 29 03 82 32 e5 60 30 b2 a6 95 4b 31 d9 a5 cd b2
       1.5135429e-08 -1.026658e-08 2.9625453e-09 -2.394056e-08
000090 21 4b 97 32 f9 03 be 34 71 60 8a 33 6d ae 01 34
       1.7612878e-08 3.5393148e-07 6.443668e-08 1.2077517e-07
0000a0 ba bd 0d b1 64 74 40 34 49 77 29 b1 82 04 ea 32
       -2.0626048e-09 1.7923736e-07 -2.4660542e-09 2.7243235e-08
0000b0 d1 6b 87 33 5a 20 21 33 c2 da 07 30 8a 3e 50 b3
       6.306039e-08 3.7515157e-08 4.942359e-10 -4.8485653e-08
0000c0 b2 02 4c 34 46 32 ac 34 40 34 58 35 23 7a 28 33
       1.8999961e-07 3.2074075e-07 8.0542304e-07 3.922663e-08
0000d0 c7 47 98 b1 75 2b 69 32 d2 37 a2 b2 f7 62 8a 32
       -4.4319424e-09 1.3572266e-08 -1.8884666e-08 1.6110318e-08
0000e0 8f f6 36 34 0b 80 76 31 29 fd 75 33 49 b0 07 b3
       1.7039768e-07 3.5870495e-09 5.7273756e-08 -3.1592467e-08
0000f0 6a f5 23 31 e1 5b fd b0 74 ed bc b0 ea 30 ee 33
       2.3859124e-09 -1.8434286e-09 -1.3746289e-09 1.1091636e-07

mlp.mlp.5.weight f4 [64]
000000 bd f8 46 3f b1 de d5 3e 13 60 21 3f a7 f2 66 3f
       0.77723294 0.41771463 0.6303722 0.9021401
000010 57 04 67 3f 2e 43 5e 3f 02 da 56 3f 09 e9 65 3f
       0.90241 0.8682126 0.83926404 0.8980871
000020 6d 41 43 3f 82 d6 5a 3f 1c 73 0e 3f 79 d5 69 3f
       0.76271707 0.8548356 0.5564439 0.9134136
000030 9f 0f 6e 3f 7d 31 a9 3e de 22 63 3f df e6 5a 3f
       0.92992586 0.3304557 0.8872508 0.8550853
000040 ee ce 29 3f 3c 5f 07 3e f4 9f 56 3f 7f 03 5c 3f
       0.66331375 0.13219923 0.8383782 0.85942835
000050 a1 94 8a 3e fa 09 26 3f 7a ed 6e 3f eb 63 2f 3f
       0.2706652 0.64858973 0.9333111 0.6851184
000060 96 89 45 3f 8a d9 24 3f 5e ed 68 3f 73 6a 01 3e
       0.77163064 0.6439444 0.90987194 0.12638263
000070 a1 e3 c6 3d f9 f8 25 3f 02 82 3b 3f e3 4d 01 3f
       0.097113855 0.6483303 0.7324525 0.5050947
000080 b0 0e 35 3f 73 a3 0e 3f 1e 6e 26 3f 57 6a 07 3f
       0.70725536 0.55718154 0.65011775 0.52896637
000090 8e 67 1a 3f 67 25 48 3f 9e e0 4e 3f af 64 59 3f
       0.6031426 0.7818207 0.8081149 0.84919256
0000a0 9c a6 6d 3f 78 0d 4f 3f 91 a2 0f 3f bf c0 6e 3f
       0.9283235 0.80879927 0.5610743 0.9326286
0000b0 50 af 66 3f fb f1 68 3f 02 ac 40 3f 7d 0f 5c 3f
       0.90111256 0.9099423 0.75262463 0.85961133
0000c0 e8 3a 1a 3f ca 41 ed 3e e8 af df 3e ff fa 67 3f
       0.60246134 0.46339256 0.43688893 0.90617365
0000d0 c9 01 5c 3f 8c 04 ab 3d 7b b7 17 3f 0b 6c 2e 3f
       0.85940224 0.083504766 0.59264344 0.6813361
0000e0 09 ed 6e 3f ce d9 18 3f 8a 5d 6c 3f 4a 17 58 3f
       0.93330437 0.59707344 0.9233023 0.84410536
0000f0 6a 29 1b 3f 88 05 60 3f a1 8e 2e 3f 72 d0 69 3f
       0.6061007 0.8750844 0.68186384 0.9133369

mlp.mlp.5.bias f4 [64]
000000 c1 5b 16 bd 30 9c 37 ba 0b 6e db bc 6a da 79 3d
       -0.036708597 -0.000700417 -0.026785871 0.06099931
000010 91 cd 81 3d 78 64 89 3d df 4b 86 3d d0 a3 7c 3d
       0.06338037 0.06708616 0.0655744 0.06167966
000020 dd 22 1b bd bd 4e 6e 3d de 76 91 3d 5e 27 75 3d
       -0.037875045 0.05818056 0.0710275 0.059851997
000030 87 ac 6e 3d 22 81 84 3c 48 28 7a 3d 18 fc 6e 3d
       0.058270004 0.016174857 0.06107357 0.058345884
000040 8b 82 8f 3d b1 12 96 3d 63 a7 80 3d e7 ad 76 3d
       0.07007321 0.07327784 0.062819265 0.06022444
000050 3d 1c 8a 3d 94 40 9b 3d 4e c7 6d 3d 89 00 87 3d
       0.06743667 0.07580677 0.0580514 0.06591899
000060 87 42 84 3d 67 e2 91 3d 74 aa 65 3d 3c 8a 6f 3d
       0.064580016 0.07123261 0.05607076 0.05848144
000070 13 ed 56 3d 35 8e bd bc 75 dc 83 3d e2 c8 be bb
       0.052472185 -0.023139099 0.06438533 -0.005822287
000080 28 d9 f5 bc 39 ef 60 bc ff 03 a2 3d 2e c1 4b bc
       -0.030010775 -0.01372891 0.079109184 -0.012436194
000090 78 31 89 bc 0b 46 8c 3d 63 52 88 3d 97 a8 84 3d
       -0.016747221 0.06849297 0.06656339 0.064774685
0000a0 1c 21 7e 3d a8 68 87 3d 66 d6 7f bc 5e 9f 68 3d
       0.062043294 0.066117585 -0.015615081 0.05679261
0000b0 80 34 86 3d cd 0d 6f 3d 4f 5e 03 bd 34 8e 76 3d
       0.06552982 0.05836277 -0.03207236 0.06019421
0000c0 47 af 8c 3d 66 d6 a0 3d 2a 1b a2 3d 7c 60 75 3d
       0.06869369 0.07853393 0.079153374 0.059906468
0000d0 fe 34 83 3d 90 8a 8e 3d a8 5b 87 3d 4e 29 ee bc
       0.06406592 0.069600224 0.06609279 -0.02907243
0000e0 a5 7d 68 3d 0b 62 9e bc d7 d1 6c 3d b6 0a 72 3d
       0.05676045 -0.01933386 0.057817306 0.059092246
0000f0 6c 08 9d bc e1 9a 78 3d dd 88 f9 bc 22 d5 6d 3d
       -0.019169055 0.06069458 -0.03046077 0.058064587

mlp.mlp.5.running_mean f4 [64]
000000 48 94 4c 3c b5 76 88 3c b2 d6 c4 3b c7 39 40 3d
       0.012486525 0.016658166 0.006007039 0.0469301
000010 b1 dd 01 bc a2 8c cd bc 44 df 19 3d 85 71 92 bc
       -0.0079263905 -0.025091473 0.03756644 -0.017876396
000020 14 d0 34 3c 92 02 0b 3d 1c 0f 4a bc 22 43 64 b7
       0.011035938 0.033937998 -0.012332704 -1.360549e-05
000030 29 4b 13 bb 60 42 e1 bb 41 4f 81 bc c0 9f 06 3d
       -0.002247522 -0.0068743676 -0.015784862 0.032867193
000040 51 83 5e bc 7b 67 c6 bb 38 8b c3 bc 4e f1 e5 3b
       -0.013581113 -0.0060548163 -0.023870096 0.007017291
000050 f8 d3 0e bc d0 d9 91 bc 6e 13 57 bc 8f 38 57 bc
       -0.0087175295 -0.017804056 -0.013127191 -0.013136043
000060 c9 7a a5 bc 67 d9 9e 3a e5 a7 80 3c 04 d3 c8 bb
       -0.02020015 0.0012119234 0.015705058 -0.0061286706
000070 ad 83 af bb 21 09 1a 3c 54 cb dc 3b f8 3c 8e 3c
       -0.005356273 0.009401591 0.006738106 0.017363057
000080 ad 0a cb 3c 1e d8 f1 3b 01 5f 8f bc a8 24 46 3c
       0.024785364 0.0073804995 -0.017501356 0.0120937005
000090 23 a7 8b 3c b0 e5 ba bc f9 ea 32 3c f0 94 e4 bb
       0.01704747 -0.022814602 0.01092028 -0.0069757625
0000a0 6a 05 9a 3c 43 ee 63 bc 36 7e 85 3c bc 7b 0f bc
       0.01880141 -0.0139117865 0.016295534 -0.008757528
0000b0 c2 94 8e bc 4d 01 47 bc 9e 46 31 3c 6a cc 89 bc
       -0.017404918 -0.012146306 0.010820059 -0.016821105
0000c0 69 fb 56 bc 43 f7 44 bc 7e 65 65 bc 47 a1 1e 3a
       -0.013121464 -0.012021842 -0.014001248 0.0006051254
0000d0 d6 c8 5e bc 1f a0 8c bb 01 07 6c bc 82 72 c2 3c
       -0.013597688 -0.004291549 -0.014405967 0.023736242
0000e0 65 1e 86 3c e6 cf 07 3c 5a 7f 03 bd c4 e1 65 bb
       0.016371915 0.008289313 -0.032103874 -0.0035077194
0000f0 41 5f ee bb 47 77 9f ba 8b 3e dd bb ad e0 0b bc
       -0.0072745387 -0.0012166285 -0.0067518405 -0.008537454

mlp.mlp.5.running_var f4 [64]
000000 0e 23 b3 3a 63 b6 16 39 fe 0d 95 39 fd ae ef 3a
       0.0013667063 0.00014373059 0.0002842992 0.0018286404
000010 77 23 e1 3a e1 09 d5 39 94 7a 6a 3b 7d e2 b0 3a
       0.0017176707 0.00040633886 0.0035778629 0.0013495233
000020 d0 0b 23 3a c7 f4 bc 3a 6d 84 10 39 33 2a b4 3a
       0.0006219717 0.0014416211 0.00013782243 0.0013745487
000030 08 5c e5 3a ff b9 b2 38 83 50 ab 3a d4 a0 a2 3a
       0.0017498741 8.522346e-05 0.0013070259 0.001240755
000040 ed 49 30 39 f6 28 67 38 11 18 4f 3a 3d 7b 51 3a
       0.00016812207 5.511284e-05 0.00079000095 0.0007991081
000050 4b 4d c5 38 5b 37 85 39 db 56 2f 3b 87 2b 93 39
       9.408089e-05 0.0002540898 0.002675465 0.00028070455
000060 71 54 ea 39 83 43 9c 39 7b b5 bc 3a 74 08 83 38
       0.00044694872 0.0002980494 0.0014397347 6.248141e-05
000070 cd 18 56 38 5a ae bd 39 e0 ff 2d 3a 5a 41 0b 39
       5.1044673e-05 0.0003617879 0.00066375546 0.00013280418
000080 50 a9 1a 3a 84 17 8b 38 9d 9d ad 39 1c ad 24 39
       0.00058998633 6.6324166e-05 0.00033114562 0.00015704747
000090 bb 3a c3 38 3a 3a ce 39 aa 4e 7d 3a 92 9d 0f 3a
       9.309264e-05 0.00039334764 0.0009662906 0.0005478497
0000a0 4d f9 6f 3b 43 03 17 3a d1 73 9a 38 89 0d ee 3a
       0.00366171 0.0005760679 7.364865e-05 0.0018161993
0000b0 e2 57 75 3a fc b4 93 3a 43 61 1e 3a 90 4d 4c 3a
       0.0009359104 0.0011269148 0.0006041715 0.000779354
0000c0 cf 2f 26 39 9a 24 0c 39 91 8f 88 38 87 17 75 3a
       0.00015848804 0.00013365076 6.511727e-05 0.0009349514
0000d0 56 21 b1 3a 27 33 0f 38 50 27 70 39 3a c4 13 3a
       0.0013513963 3.4141496e-05 0.00022902829 0.0005636845
0000e0 8a 6c 05 3b a0 6b 57 39 68 d1 46 3b ee 84 26 3a
       0.0020358884 0.00020544091 0.0030337218 0.00063522055
0000f0 9e 91 12 39 64 38 c9 3a 37 0d a2 39 20 60 d5 3a
       0.00013977892 0.0015351889 0.00030908894 0.0016279258

mlp.mlp.8.weight f4 [1, 64]
000000 7b 98 49 bd c6 d4 97 3c 3c 52 32 bc 96 4e 29 3e
       -0.049217682 0.018534075 -0.010883864 0.16533884
000010 1d 62 25 3e 7f 1e 0f 3e 4f ef 04 3e 37 fc 15 3e
       0.16150708 0.13976477 0.12981914 0.14646994
000020 fc e2 4d bd ea ab eb 3d ff 37 91 3d c0 d9 2a 3e
       -0.050265297 0.115073994 0.070907585 0.16684628
000030 10 68 30 3e 4c 36 f8 3c f7 a5 0a 3e 02 f6 08 3e
       0.17227197 0.030299328 0.13539873 0.13375095
000040 05 b5 ac 3d f7 f7 5b 3d 9a 1b ed 3d e6 0e f4 3d
       0.08432964 0.053703275 0.1157753 0.11916904
000050 c3 94 5c 3d 51 f3 b8 3d c7 6c 30 3e 60 49 a4 3d
       0.053852808 0.09030784 0.17228995 0.08021808
000060 ee 62 c7 3d 7c 6e b4 3d 65 59 1b 3e ae 2b 48 3d
       0.09735666 0.08810136 0.1517082 0.04886978
000070 e6 f0 3e 3d a3 b6 47 bb 03 c8 b7 3d a6 61 6f 3c
       0.046616457 -0.003047385 0.08973696 0.014610684
000080 c2 59 e9 bc 98 8b 02 3c 55 4c cb 3d 1d 3b 49 3c
       -0.028485183 0.007967852 0.099266686 0.01228216
000090 a9 8b ca 3a be 7f d6 3d 3d 99 ed 3d 2e bf f8 3d
       0.0015452999 0.10473584 0.116014935 0.1214584
0000a0 90 d9 36 3e b9 30 e5 3d 2b e3 92 3b 03 dc 2d 3e
       0.17856431 0.11190934 0.004482647 0.16978459
0000b0 6d 25 30 3e 35 e0 1b 3e d4 fd 06 bd 4a fb f5 3d
       0.17201777 0.15222247 -0.032956913 0.1201082
0000c0 c5 2f 9d 3d 04 e1 98 3d 85 97 8e 3d 0b a2 1e 3e
       0.07675127 0.07464793 0.06962494 0.15491502
0000d0 95 7d 05 3e fa f9 4e 3d 3e 95 97 3d 1f f4 b5 bc
       0.13036187 0.050531365 0.074015126 -0.022211133
0000e0 a6 bf 30 3e 80 19 30 3b 40 c5 22 3e 99 d8 df 3d
       0.17260608 0.0026870668 0.15895557 0.109299846
0000f0 6b 3f 07 3b 0e 39 11 3e 42 fa a6 bc 60 06 21 3e
       0.0020637165 0.14181921 -0.020383004 0.15725088
